models/focal_loss_checkpoints/checkpoint_epoch_130.pth (torch, 100242 bytes, 16 tensors)

hidden1.weight f4 [128, 30]
0.10903512 -0.15763678 -0.058519006 -0.040801123 0.10689706 -0.094515055 0.003260135 0.006658122
-0.029505713 -0.09806854 -0.13929187 0.18433882 -0.116710596 0.035271075 -0.040512737 0.05602694
-0.19098492 0.06441045 0.16070898 0.21572007 0.11308961 0.0034997042 -0.123778254 0.08089794
0.1005494 0.055408604 -0.054117035 0.19062763 0.10490276 -0.109281056 -0.17262904 -0.008378096
0.016340641 0.02471555 -0.028777719 0.021962538 -0.07439903 -0.0033935045 -0.047041517 -0.14263558
-0.083701454 -0.15731579 0.17103614 0.14231887 0.056272063 -0.028756702 -0.12757955 0.06130353
0.09484024 0.13367452 -0.18105023 -0.12455528 -0.086600676 0.08937722 0.18501745 -0.16268799
0.114284776 0.020085167 -0.15335448 -0.030088602 0.1305881 0.0058619245 0.047143616 -0.12316928
-0.008437857 0.076079294 0.12043642 -0.03853674 0.12061632 0.11344449 0.026340283 -0.12125989
-0.17699987 0.11311845 0.13497014 0.1716963 -0.17370635 -0.178349 -0.091590464 -0.11504549
0.01375407 -0.032622077 -0.17084336 -0.10723484 -0.09753954 -0.08277747 0.046138268 -0.06967763
-0.0051904297 0.12542155 0.0027266806 0.16743928 -0.08218847 -0.026767433 -0.08242549 0.058393262
0.039879065 0.030944355 -0.053626116 -0.09319502 0.14728427 -0.18002306 0.020775314 0.104731984
-0.030500332 0.10901074 -0.06249769 -0.04582459 -0.12974977 -0.027395856 -0.037693623 -0.17201796
0.06950714 -0.04766015 0.1915888 0.18318312 -0.14109285 0.027562212 0.078077674 -0.11093314
0.09560528 0.022333821 -0.182404 -0.10766744 -0.16964851 -0.09949235 0.14619671 -0.0294318
0.07225822 0.18127353 0.14623094 0.1280965 0.21635537 -0.026290188 0.067845084 -0.16226894
0.046649218 -0.07459081 -0.09533296 -0.1734203 -0.026400838 0.046278555 -0.05521427 0.05334125
0.17004324 0.10604227 -0.0380507 -0.096434385 -0.0144061055 0.018764287 -0.09250282 -0.066320136
0.16791256 0.01611349 0.18550241 0.028940614 0.21818507 -0.011326262 -0.05287042 0.042159535
0.040394764 0.10092646 -0.07318715 0.102072895 -0.15005837 0.104629956 0.08374639 -0.09973496
-0.06231044 0.08378224 0.06353345 -0.042935625 -0.08406208 -0.019313773 0.09771973 -0.049809538
-0.08062791 -0.1406884 -0.09415149 0.054785695 -0.1270564 -0.04991633 0.04228893 -0.110266656
-0.026168138 0.14566067 -0.050879672 0.087278105 -0.008914943 -0.15281388 -0.049259145 -0.20047025
0.17543104 0.15101965 0.12731898 0.04435508 0.14056052 0.04714517 0.014300684 0.054507717
0.026678614 -0.03674296 -0.11764093 0.1274473 0.13445896 -0.058531836 0.06339441 0.14297587
0.019780388 -0.13026026 -0.0027520054 -0.06751272 -0.0005065646 0.13058178 -0.18417904 -0.06516612
0.035532158 -0.044179603 -0.12351791 -0.013068419 0.08779767 -0.18348356 -0.044492986 0.06918838
0.08100272 -0.021051617 0.16518913 0.1385242 -0.09755466 0.03846081 0.08035333 -0.035275634
0.15451527 0.016982837 0.16084956 -0.08888286 0.143687 -0.15370117 0.07975628 -0.118904814
-0.13172932 0.098411635 -0.15821056 0.14530653 0.06589424 -0.05067204 0.03195026 0.14391285
0.035791557 0.022868222 0.18659443 0.13589554 -0.02254295 0.029753868 0.21493894 -0.10005917
00000000: ce4d df3d 896b 21be a0b1 6fbd 141f 27bd
00000010: d9ec da3d 1c91 c1bd fda7 553b 602c da3b
00000020: f7b5 f1bc 29d8 c8bd 87a2 0ebe 51c3 3c3e
00000030: f705 efbd 6778 103d aff0 25bd 817c 653d
00000040: 8d91 43be a0e9 833d e590 243e b9e5 5c3e
00000050: 879b e73d 4b5b 653b 747f fdbd d2ad a53d
00000060: d8ec cd3d 22f4 623d d3a9 5dbd e433 433e
00000070: 42d7 d63d bfce dfbd abc5 30be 4844 09bc
00000080: cfdc 853c 4478 ca3c 40bf ebbc c8ea b33c
00000090: 855e 98bd 8f65 5ebb 9bae 40bd 100f 12be
000000a0: ab6b abbd 6417 21be 1924 2f3e 0abc 113e
000000b0: 897d 663d 2d93 ebbc 37a4 02be 6919 7b3d
000000c0: 9a3b c23d f9e1 083e 3b65 39be d716 ffbd
000000d0: b25b b1bd 670b b73d 3775 3d3e ae97 26be
000000e0: 230e ea3d a689 a43c f508 1dbe 5f7c f6bc
000000f0: e3b8 053e 6315 c03b aa19 413d 2d40 fcbd
00000100: f03e 0abc 76cf 9b3d 5fa7 f63d b3d8 1dbd
00000110: b005 f73d 9655 e83d 94c7 d73c 1b57 f8bd
00000120: 743f 35be a5aa e73d 9d35 0a3e 28d1 2f3e
00000130: 14e0 31be 1fa1 36be c893 bbbd f89c ebbd
00000140: c058 613c ba9e 05bd 90f1 2ebe f19d dbbd
00000150: cfc2 c7bd 3c87 a9bd 7bfb 3c3d 25b3 8ebd
00000160: 7b14 aabb 826e 003e 1cb2 323b 3475 2b3e
00000170: 6e52 a8bd 6047 dbbc b2ce a8bd c62d 6f3d
00000180: 3b58 233d 047f fd3c 0fa7 5bbd 08dd bebd
00000190: b0d1 163e f757 38be fe30 aa3c b97d d63d
000001a0: d5db f9bc 0641 df3d 94fd 7fbd 91b2 3bbd
000001b0: 20dd 04be 466d e0bc a164 1abd 7a25 30be
000001c0: c259 8e3d 4a37 43bd db2f 443e 5b94 3b3e
000001d0: a57a 10be 26ca e13c 30e7 9f3d ea30 e3bd
000001e0: b3cc c33d 6bf5 b63c 1dc8 3abe bf80 dcbd
000001f0: 57b8 2dbe a5c2 cbbd 97b4 153e f51a f1bc
00000200: 1efc 933d c59f 393e 90bd 153e bb2b 033e
00000210: 438c 5d3e 855e d7bc 5df2 8a3d d429 26be
00000220: 4013 3f3d 11c3 98bd ed3d c3bd 1795 31be
00000230: 9246 d8bc 958e 3d3d 5c28 62bd 5b7c 5a3d
00000240: d11f 2e3e b12c d93d 0ddb 1bbd 647f c5bd
00000250: 9607 6cbc 90b7 993c 1e72 bdbd dad2 87bd
00000260: 45f1 2b3e 7000 843c 58f4 3d3e de14 ed3c
00000270: e86b 5f3e c991 39bc a78e 58bd 7aaf 2c3d
00000280: fb74 253d 88b2 ce3d 25e3 95bd 980b d13d
00000290: e7a8 19be 3b48 d63d 3a83 ab3d d841 ccbd
000002a0: 3b39 7fbd 0696 ab3d d31d 823d 44dd 2fbd
000002b0: bd28 acbd eb37 9ebc 4821 c83d 1605 4cbd
000002c0: 3f20 a5bd 9f10 10be 7fd2 c0bd f766 603d
000002d0: 131b 02be 1175 4cbd 2837 2d3d 7cd3 e1bd
000002e0: 905e d6bc 1228 153e 3467 50bd ddbe b23d
000002f0: fb0f 12bc 3e7b 1cbe f5c3 49bd 1348 4dbe
00000300: 32a4 333e e5a4 1a3e e85f 023e acad 353d
00000310: 19ef 0f3e 4b1b 413d 6b4d 6a3c 7c43 5f3d
00000320: 1c8d da3c c97f 16bd baed f0bd 8c81 023e
00000330: 9caf 093e 14bf 6fbd eed4 813d 4468 123e
00000340: 7b0a a23c f262 05be fd5a 34bb 1c44 8abd
00000350: faca 04ba 3bb7 053e 6e99 3cbe d175 85bd
00000360: 2b8a 113d acf5 34bd f5f6 fcbd ec1c 56bc
00000370: 44cf b33d 1de3 3bbe 473e 36bd a3b2 8d3d
00000380: c1e4 a53d 7174 acbc 5727 293e 4ad9 0d3e
00000390: bdca c7bd 1589 1d3d 4990 a43d 2f7d 10bd
000003a0: 4039 1e3e 971f 8b3c bfb5 243e 3808 b6bd
000003b0: af22 133e d763 1dbe 4357 a33d 5e84 f3bd
000003c0: 0de4 06be 0a8c c93d f301 22be 3ccb 143e
000003d0: 8ff3 863d 7c8d 4fbd 47de 023d e45d 133e
000003e0: 2b9a 123d 2356 bb3c 9c12 3f3e 3328 0b3e
000003f0: feab b8bc 62be f33c f418 5c3e d2eb ccbd

bn1.weight f4 [128]
1.001476 0.9960861 1.0038598 0.99787015 0.98696 1.0177622 1.002577 0.99956506
1.0120573 1.0026581 1.0039033 0.9964864 1.0020754 1.0009253 0.98516715 0.9956327
1.0005941 0.999249 1.0022602 1.0039651 1.0084713 0.99995047 1.0026928 1.0051578
1.006226 1.0094987 0.99921864 1.0091075 0.9980041 0.999232 0.99586576 1.0062449
1.0029876 1.0041628 1.0008279 1.0109489 1.0119455 1.009655 0.99605423 1.0016423
0.99420327 0.9882571 0.99959725 1.0197103 1.0014306 1.0002527 0.9905687 1.0049334
0.99984354 0.9879273 0.9982745 1.0068737 1.0025848 0.99981624 1.0092491 1.0132604
1.0025538 0.99960285 0.99811107 1.0041932 0.9982842 1.0017288 1.0036049 1.0128748
1.0124637 1.0050321 1.006357 1.016807 1.0071992 1.0099714 1.0049778 1.0037534
0.9911367 0.9988522 0.9949579 1.0186234 1.0159556 1.0048507 1.004699 0.9985935
0.9888591 1.0051663 1.0077928 1.000676 0.9880642 1.0068349 0.98772305 0.9920264
0.9933234 0.99611557 1.0080843 0.98273605 0.991575 1.0021536 0.99326235 0.9960996
0.99943167 1.0073881 1.0031505 1.0128931 1.0310445 0.99316627 0.9816088 0.9969493
1.0121114 1.0248269 0.9997639 0.9950727 1.0022216 0.9933187 0.9923725 1.0027416
1.0105926 1.0087267 1.0058457 1.0016884 1.007779 1.0002033 1.0156118 0.9997129
1.0069377 1.0177484 0.9826493 1.0027632 1.0156523 1.0045496 0.9961956 1.0077099
00000000: 5e30 803f 80ff 7e3f 7a7e 803f 6b74 7f3f
00000010: 69a9 7c3f 0846 823f 7154 803f 7fe3 7f3f
00000020: 188b 813f 1a57 803f e77f 803f bc19 7f3f
00000030: 0244 803f 521e 803f ea33 7c3f c9e1 7e3f
00000040: 7813 803f c8ce 7f3f 104a 803f ee81 803f
00000050: 9615 813f c1fc 7f3f 3d58 803f 03a9 803f
00000060: 03cc 803f 4137 813f cbcc 7f3f 6f2a 813f
00000070: 327d 7f3f abcd 7f3f 0ff1 7e3f a2cc 803f
00000080: e661 803f 6888 803f 211b 803f c666 813f
00000090: 6e87 813f 603c 813f 69fd 7e3f d135 803f
000000a0: 1b84 7e3f 6bfe 7c3f 9be5 7f3f de85 823f
000000b0: e12e 803f 4808 803f e995 7d3f a8a1 803f
000000c0: bff5 7f3f cee8 7c3f eb8e 7f3f 3de1 803f
000000d0: b354 803f f5f3 7f3f 132f 813f 84b2 813f
000000e0: af53 803f f9e5 7f3f 3584 7f3f 6789 803f
000000f0: 8e8f 7f3f a638 803f 2076 803f e2a5 813f
00000100: 6998 813f e4a4 803f 4ed0 803f bb26 823f
00000110: e7eb 803f be46 813f 1da3 803f fe7a 803f
00000120: 23bb 7d3f c7b4 7f3f 90b5 7e3f 4062 823f
00000130: d50a 823f f39e 803f fa99 803f d3a3 7f3f
00000140: df25 7d3f 4aa9 803f 5bff 803f 2716 803f
00000150: c7f1 7c3f f7df 803f 6bdb 7c3f 71f5 7d3f
00000160: 714a 7e3f 6e01 7f3f e808 813f 9794 7b3f
00000170: dcd7 7d3f 9246 803f 7146 7e3f 6200 7f3f
00000180: c1da 7f3f 18f2 803f 3c67 803f 7ba6 813f
00000190: 44f9 833f 2540 7e3f b74a 7b3f 1238 7f3f
000001a0: de8c 813f 872d 833f 87f0 7f3f 16bd 7e3f
000001b0: cc48 803f 224a 7e3f 200c 7e3f d659 803f
000001c0: 195b 813f f51d 813f 8dbf 803f 5337 803f
000001d0: e7fe 803f a906 803f 91ff 813f 2fed 7f3f
000001e0: 56e3 803f 9445 823f e88e 7b3f 8b5a 803f
000001f0: e500 823f 1595 803f ad06 7f3f a3fc 803f

bn1.bias f4 [128]
-0.04887175 0.03705693 -0.005521451 0.021835914 0.050321013 -0.035298772 0.0279879 0.024687586
0.019848498 0.058546025 -0.022188164 -0.005026049 0.028080968 0.013425718 -0.0779068 -0.028929135
0.000796757 -0.01538581 0.052458294 0.013616822 -0.043401115 0.028422765 -0.006670629 0.020138016
-0.02682458 0.026358547 0.01120928 -0.0466347 0.02079091 0.002503033 0.04774193 -0.010317023
0.051866766 -0.10504424 0.009975773 0.0010496886 -0.010802799 -0.01420879 -0.01911859 0.093426526
-0.0721848 -0.045832288 0.050234005 0.03088529 0.03379033 0.014954224 -0.038617358 0.008413813
0.019671446 -0.014581418 0.024652686 -0.009155093 0.025285453 0.034025274 -0.07125875 -0.004473055
-0.022621023 -0.011796259 0.010938877 0.065768465 -0.024906026 0.034135886 0.013807524 0.02078475
0.002512248 0.0042213914 0.023292115 -0.03232823 0.010569607 -0.016537806 0.032260705 0.03585328
0.08415087 -0.0420527 -0.039409358 0.02986605 0.07447569 0.03646098 -0.03488061 -0.013573564
0.068231 0.01892891 0.021426527 0.027442899 -0.06755866 -0.02006822 0.06418574 -0.08367468
0.04472582 -0.003874422 -0.00588132 -0.03678997 0.046198342 -0.022913028 0.025181456 0.03996127
0.008592277 0.0033719451 -0.0153272655 0.051308636 0.013508807 0.008739111 -0.025875065 -0.009912189
-0.02723733 0.04628815 -0.0036008018 -0.023191992 0.016449168 -0.03428234 0.06025811 0.037655666
0.023717511 -0.014432635 -0.0047350656 0.032514937 0.021893498 0.010861478 0.027110875 0.0018329518
-0.0073151947 0.042984463 -0.07764476 -0.006147126 0.028475035 -0.0018657065 -0.050491825 0.018921392
00000000: be2d 48bd 02c9 173d 4aed b4bb 3be1 b23c
00000010: 681d 4e3d 7295 10bd e146 e53c 9f3d ca3c
00000020: 5199 a23c f5cd 6f3d f4c3 b5bc 8eb1 a4bb
00000030: 0f0a e63c 8bf7 5b3c 9a8d 9fbd cbfc ecbc
00000040: 75dd 503a c414 7cbc 82de 563d 1719 5f3c
00000050: 5ec5 31bd dcd6 e83c 4b95 dabb 7bf8 a43c
00000060: 39bf dbbc e1ed d73c 21a7 373c 0704 3fbd
00000070: b351 aa3c ed09 243b 0b8d 433d bb08 29bc
00000080: 3f72 543d 6f21 d7bd 6d71 233c b495 893a
00000090: 39fe 30bc fccb 68bc 979e 9cbc 6856 bf3d
000000a0: a0d5 93bd a3ba 3bbd 2cc2 4d3d 2603 fd3c
000000b0: bb67 0a3d 9002 753c 3c2d 1ebd 17da 093c
000000c0: 0326 a13c e6e6 6ebc 6ef4 c93c 3eff 15bc
000000d0: 7023 cf3c 165e 0b3d 1cf0 91bd b492 92bb
000000e0: b94f b9bc 1945 41bc fa38 333c 9eb1 863d
000000f0: b907 ccbc 12d2 0b3d f438 623c c844 aa3c
00000100: 87a4 243b 9953 8a3b 1bcf be3c 9b6a 04bd
00000110: 252c 2d3c 4b7a 87bc cd23 043d e4da 123d
00000120: 4b57 ac3d 743f 2cbd b56b 21bd a6a9 f43c
00000130: b686 983d 1c58 153d f8de 0ebd a763 5ebc
00000140: b2bc 8b3d cd10 9b3c af86 af3c eecf e03c
00000150: 325c 8abd 1c66 a4bc d073 833d a15d abbd
00000160: 6c32 373d 04ea 7dbb 17b8 c0bb 14b1 16bd
00000170: 793a 3d3d 1ab4 bbbc 5749 ce3c 6eae 233d
00000180: 9fc6 0c3c dafb 5c3b 361f 7bbc 0129 523d
00000190: 0b54 5d3c 7d2e 0f3c f2f7 d3bc bc66 22bc
000001a0: d220 dfbc a598 3d3d 6efb 6bbb 22fd bdbc
000001b0: 68c0 863c a46b 0cbd 35d1 763d d43c 1a3d
000001c0: 3a4b c23c dc76 6cbc 9c28 9bbb 622e 053d
000001d0: fe59 b33c 57f4 313c a017 de3c a83f f03a
000001e0: 4db4 efbb 7a10 303d 3704 9fbd d56d c9bb
000001f0: 7a44 e93c b98a f4ba 84d0 4ebd 0901 9b3c

bn1.running_mean f4 [128]
-0.06017308 -0.11324413 0.19167241 -0.12948453 0.06257704 0.10458695 -0.18359944 -0.090175025
0.076320074 0.21218559 -0.02667121 0.14204255 -0.0853897 0.046359915 0.02142001 -0.03920555
0.21841624 -0.028066326 0.100196436 -0.0033782725 -0.13731752 -0.1457781 -0.17061938 0.089132756
-0.007757353 -0.12616949 -0.031874664 0.1244325 -0.096515484 0.049499232 -0.05248108 0.18079081
-0.05497063 0.05464376 0.06613663 0.06984564 0.188737 0.19385678 0.05645448 -0.17479198
-0.08751698 -0.12011681 -0.13197573 0.0055018375 0.1572761 0.16591953 0.051163338 0.04856969
-0.054972637 0.180519 0.087927744 0.029071735 0.098575 -0.017681593 0.17317945 -0.04698383
0.1379098 -0.020445015 -0.05009763 0.11105041 0.029199904 0.07246865 -0.23419927 0.08588581
-0.09112438 0.044557024 0.11866779 0.017790878 0.17850226 -0.09687312 0.00045215874 -0.03291839
-0.046768032 -0.091640726 0.07140519 0.14649267 -0.107817486 0.04210992 -0.13819082 0.19852035
0.047368307 0.017077161 0.12672018 -0.028618414 -0.048419453 -0.0178352 -0.08628888 0.25885525
-0.128951 0.048302457 0.097651824 0.19642425 -0.15829027 0.01839444 -0.07826699 -0.11557508
0.005565185 0.040732745 -0.0678564 -0.13719013 0.009940771 -0.19749504 0.11215763 0.04727324
0.11465388 -0.11273163 -0.061111346 0.085701026 -0.007826361 0.10926705 0.066977724 -0.02948035
-0.12080976 0.019962793 0.05302969 -0.05140234 0.08648243 0.07386009 0.09869829 -0.16437733
0.06957327 -0.1050528 0.1383579 0.12550075 -0.07784312 -0.09262891 -0.08828224 -0.09739072
00000000: 0c78 76bd 8aec e7bd c645 443e 9897 04be
00000010: 6428 803d af31 d63d 7e01 3cbe afad b8bd
00000020: b34d 9c3d 2e47 593e 957d dabc 9a73 113e
00000030: cce0 aebd e5e3 3d3d 0479 af3c 0096 20bd
00000040: 82a8 5f3e 5aeb e5bc ca33 cd3d 0266 5dbb
00000050: f79c 0cbe db46 15be d9b6 2ebe 3c8b b63d
00000060: 6531 febb 9332 01be 028f 02bd 77d6 fe3d
00000070: e9a9 c5bd b5bf 4a3d 67f6 56bd 3a21 393e
00000080: e228 61bd 23d2 5f3d a472 873d 3b0b 8f3d
00000090: 4644 413e 6482 463e d03c 673d abfc 32be
000000a0: 1a3c b3bd cdff f5bd a524 07be c248 b43b
000000b0: fc0c 213e cfe6 293e a690 513d 03f1 463d
000000c0: fd2a 61bd f9d9 383e 7613 b43d d927 ee3c
000000d0: b1e1 c93d fdd8 90bc f455 313e 1e72 40bd
000000e0: 3a38 0d3e 4e7c a7bc 2c33 4dbd 666e e33d
000000f0: a334 ef3c 726a 943d efd1 6fbe e6e4 af3d
00000100: 6b9f babd 6d81 363d 1908 f33d 2dbe 913c
00000110: 4cc9 363e 6a65 c6bd b80f ed39 6fd5 06bd
00000120: d68f 3fbd 22ae bbbd e23c 923d 2d02 163e
00000130: 6acf dcbd 747b 2c3d e581 0dbe eb48 4b3e
00000140: 4505 423d 67e5 8b3c efc2 013e 2a71 eabc
00000150: 7a53 46bd 201b 92bc 39b8 b0bd ad88 843e
00000160: bb0b 04be ccd8 453d aefd c73d 7023 493e
00000170: d816 22be f0af 963c 724a a0bd a1b2 ecbd
00000180: 285c b63b 61d7 263d 4cf8 8abd 927b 0cbe
00000190: 9ede 223c 243c 4abe e6b2 e53d 96a1 413d
000001a0: a7cf ea3d d7df e6bd e44f 7abd 0584 af3d
000001b0: 233a 00bc 67c7 df3d 9e2b 893d c680 f1bc
000001c0: 1c6b f7bd 0389 a33c a935 593d 438b 52bd
000001d0: b31d b13d f543 973d 5422 ca3d 8852 28be
000001e0: 6e7c 8e3d ec25 d7bd b1ad 0d3e 4583 003e
000001f0: 376c 9fbd 3ab4 bdbd 52cd b4bd c974 c7bd

bn1.running_var f4 [128]
0.59922314 0.61501455 0.5749436 0.52339983 0.46628028 0.47210824 0.6266797 0.6695156
0.7379508 1.1555505 0.64381665 0.7753315 0.522017 0.7556322 0.42164353 0.32716334
0.80910116 0.6148462 1.0533155 0.6455521 0.6578855 0.745863 0.7260479 0.55661654
0.4754674 0.4806945 0.5809159 0.46966285 0.5370146 0.41843984 0.40883452 0.6223333
0.813324 0.44172737 0.771736 0.46310297 0.85192025 0.97672266 0.52900755 0.6743989
0.70350504 0.5138012 0.7404804 0.32127234 0.72801614 0.7667101 0.3999362 0.4043806
0.5451128 0.971313 0.8067102 0.33320373 0.776136 0.632155 0.43105316 0.42456517
0.88860065 0.41489944 0.71620196 0.7268429 0.3735305 0.7899804 0.4935255 0.88752353
0.5931553 0.6478909 0.8568668 0.6408064 0.6756862 0.5355582 0.46588612 0.4474586
0.5667026 0.7804969 0.55502605 0.85628587 0.45549184 0.5273004 0.7805229 1.3412905
0.51169974 0.45560512 0.6689383 0.40977782 0.7563979 0.5143316 0.5413618 0.6527269
0.42288905 0.4629505 0.72177374 0.77793854 0.64561194 0.5519014 0.6331818 0.9845796
0.2644248 0.5963057 0.6921959 0.5998114 0.4495667 0.8674499 0.544009 0.4640667
0.51623535 0.4152789 0.79686874 1.1405622 0.51948255 1.2016252 0.7151274 0.70776707
0.39367595 0.5501077 0.45004836 0.5476693 0.70647013 0.4157647 0.89981955 0.9219703
0.78104335 0.46148026 0.94727933 0.699996 0.5108756 0.63259095 0.71316254 0.45435444
00000000: b066 193f 9871 1d3f 812f 133f 88fd 053f
00000010: 4abc ee3e 2cb8 f13e 156e 203f 6065 2b3f
00000020: 58ea 3c3f 14e9 933f 2bd1 243f 207c 463f
00000030: e8a2 053f 1d71 413f a9e1 d73e f481 a73e
00000040: 4121 4f3f 9066 1d3f 0bd3 863f e742 253f
00000050: 2f6b 283f e1f0 3e3f 46de 393f 6c7e 0e3f
00000060: 7770 f33e 971d f63e e8b6 143f a677 f03e
00000070: ca79 093f bf3d d63e c252 d13e 3c51 1f3f
00000080: 0036 503f 172a e23e 7e90 453f d51b ed3e
00000090: 7217 5a3f 7f0a 7a3f 0a6d 073f 68a5 2c3f
000000a0: e818 343f 7a88 033f 2090 3d3f cf7d a43e
000000b0: 445f 3a3f 1d47 443f 70c4 cc3e f90a cf3e
000000c0: 838c 0b3f f8a7 783f 8f84 4e3f ae99 aa3e
000000d0: d9b0 463f e9d4 213f 00b3 dc3e 9b60 d93e
000000e0: 557b 633f b36d d43e 0359 373f 6012 3a3f
000000f0: 643f bf3e 283c 4a3f 60af fc3e be34 633f
00000100: 07d9 173f 2edc 253f 9f5b 5b3f e30b 243f
00000110: c5f9 2c3f 581a 093f a088 ee3e 4b19 e53e
00000120: 6c13 113f a5ce 473f 3016 0e3f 8d35 5b3f
00000130: 3a36 e93e 29fd 063f 59d0 473f 68af ab3f
00000140: c1fe 023f 1345 e93e 8a3f 2b3f 66ce d13e
00000150: 4ba3 413f 3cab 033f b096 0a3f 1c19 273f
00000160: ea84 d83e d907 ed3e 2ac6 383f fb26 473f
00000170: d346 253f 6949 0d3f 3418 223f 690d 7c3f
00000180: b062 873e 7ea7 183f c033 313f 3d8d 193f
00000190: 9b2d e63e 3211 5e3f 2c44 0b3f 279a ed3e
000001a0: 0028 043f 709f d43e 97ff 4b3f f1fd 913f
000001b0: cffc 043f dbce 993f 9712 373f 3930 353f
000001c0: e58f c93e dcd3 0c3f bd6c e63e 0e34 0c3f
000001d0: 3adb 343f 1cdf d43e 935a 663f 3f06 6c3f
000001e0: 75f2 473f 2447 ec3e e680 723f f032 333f
000001f0: bec8 023f 7bf1 213f d291 363f 25a1 e83e

hidden2.weight f4 [128, 128]
0.08330529 -0.0077101677 -0.06607873 0.011650215 0.033662926 -0.0072830603 0.015714338 0.021976462
0.038278446 -0.028835556 -0.053263854 0.0652873 0.016323151 0.077164 -0.05581377 -0.02170547
0.019319192 0.021761563 -0.037324455 -0.038073886 -0.021488432 -0.06666876 0.0041258573 -0.08114119
-0.025320195 -0.0027699282 -0.06556044 0.04267539 0.06640994 0.0016355109 0.020758007 -0.09184646
0.005419426 0.035513006 -0.03628869 -0.012134134 -0.08434418 0.041161302 -0.03471019 -0.0067574293
0.04914072 0.073929034 -0.00060697173 0.084472984 0.02163806 -0.004710541 0.070283085 0.08818121
0.08177003 -0.04218101 -0.048201174 0.055608325 -0.04519119 -0.026296921 0.049395017 0.020203786
-0.004556234 0.03627963 0.030885523 -0.09111754 0.067194626 0.02919141 0.050619453 -0.0020365235
0.006010188 -0.0014888573 -0.011925948 0.08514388 -0.06586987 -0.04499853 -0.072944015 -0.006021566
-0.068186745 0.06762049 -0.03819471 0.071645334 0.086022764 -0.057764035 -0.06348063 -0.031390585
-0.047767002 0.04010556 0.06021705 -0.010436458 -0.0728606 0.040508773 0.08346548 0.022875106
-0.022139331 -0.062326185 -0.06682436 0.042638067 0.04634267 0.06242467 0.088645995 -0.0050005857
-0.009397694 0.01767342 -0.025878822 -0.027038602 -0.017838812 0.020734562 -0.058093067 -0.078413315
-0.092584334 -0.002551278 0.0179689 0.06405268 -0.05826837 -0.012421599 0.05193012 0.025386125
-0.04268044 -0.06827604 -0.06391849 -0.022777837 0.01913326 0.062243894 0.031016577 0.061505817
-0.03239695 0.0071234605 -0.02573123 0.080693245 -0.006828711 0.04955256 0.044211224 -0.008178485
0.033219084 -0.019333094 0.0216664 0.070406474 -0.007696048 0.07511083 -0.05797362 -0.0062085325
0.016774762 0.015612594 0.113899104 -0.073789224 -0.05244002 -0.021974085 0.020406377 -0.046330094
-0.012129091 -0.06705415 -0.08118782 -0.019204644 0.022083296 0.07782318 -0.05070938 -0.08707706
0.024687247 0.07980376 0.013246625 0.07480645 0.04704598 -0.004551117 -0.06807175 0.019309605
0.07793179 -0.06800082 0.07168598 0.013630562 -0.032712758 0.0279887 -0.023849359 -0.055066746
0.05248803 0.057250746 -0.010405783 -0.051847655 -0.047936916 -0.057230007 -0.077335276 -0.040069222
-0.05765616 -0.01821712 0.04995364 -0.0623468 0.023060966 -0.005116343 -0.051964663 -0.06640503
-0.042715512 0.009429397 0.051038966 -0.060189225 -0.00060319813 -0.08858244 0.09522244 0.051195662
0.026488215 -0.063736044 0.015295715 0.08429594 -0.021617267 0.021607338 0.014688512 -0.009836363
-0.022620779 0.021270793 0.0490453 -0.017991949 -0.032877788 -0.095981166 -0.045709018 -0.040136226
-0.045218855 -0.07645097 -0.048163816 -0.042658336 0.03079428 0.03739529 -0.0720196 0.05676213
-0.019103862 0.07709414 0.044969805 0.035936143 0.07036944 -0.010056644 0.0027357333 -0.07425501
-0.04693432 0.015359284 0.048197713 0.022421222 -0.081119515 -0.057395738 -0.028099403 0.012077964
0.012452442 0.034720834 -0.080896504 0.05431053 -0.096051075 -0.037988096 0.030822607 -0.07469913
-0.054681253 0.08980476 -0.06663878 0.020206653 -0.08032833 -0.08561117 -0.03232636 0.08617427
-0.061036125 0.051866896 -0.022021085 0.024631659 0.050421778 0.027968843 0.07509198 0.027959986
00000000: f79b aa3d 93a5 fcbb 4954 87bd 8be0 3e3c
00000010: 23e2 093d bda6 eebb 5bbb 803c fb07 b43c
00000020: dcc9 1c3d 8b38 ecbc 332b 5abd 59b5 853d
00000030: 21b8 853c 2908 9e3d fb9c 64bd abcf b1bc
00000040: 4843 9e3c 4e45 b23c 87e1 18bd 5df3 1bbd
00000050: 8208 b0bc a189 88bd 3332 873b 5a2d a6bd
00000060: 4c6c cfbc af87 35bb 8d44 86bd 64cc 2e3d
00000070: ef01 883d a45e d63a b20c aa3c ff19 bcbd
00000080: 7195 b13b 1676 113d 73a3 14bd 3fce 46bc
00000090: a4bc acbd c198 283d 462c 0ebd 6d6d ddbb
000000a0: c847 493d 1b68 973d 2f1d 1fba 2c00 ad3d
000000b0: 4d42 b13c e25a 9abb 94f0 8f3d 5a98 b43d
000000c0: 0c77 a73d ffc5 2cbd 986e 45bd 8ec5 633d
000000d0: 661a 39bd a46c d7bc 6e52 4a3d 6982 a53c
000000e0: 764c 95bb f399 143d a303 fd3c d59b babd
000000f0: 569d 893d d322 ef3c 5856 4f3d 3277 05bb
00000100: 1cf1 c43b c325 c3ba 0d65 43bc ea5f ae3d
00000110: c8e6 86bd 6150 38bd ac63 95bd 8f50 c5bb
00000120: 7ea5 8bbd 9d7c 8a3d 0e72 1cbd caba 923d
00000130: b42c b03d fb99 6cbd 2202 82bd 6a93 00bd
00000140: 55a7 43bd ba45 243d 27a6 763d adfd 2abc
00000150: f037 95bd 87ec 253d f3ef aa3d 9364 bb3c
00000160: 8b5d b5bc be49 7fbd 36db 88bd 41a5 2e3d
00000170: d0d1 3d3d 03b1 7f3d 088c b53d f4db a3bb
00000180: c9f8 19bc d9c7 903c d3ff d3bc 0f80 ddbc
00000190: b322 92bc 87db a93c fff2 6dbd 2997 a0bd
000001a0: db9c bdbd 5833 27bb 8433 933c 0d2e 833d
000001b0: d0aa 6ebd f683 4bbc adb4 543d 90f6 cf3c
000001c0: afd1 2ebd 4fd4 8bbd b3e7 82bd 9698 babc
000001d0: 5bbd 9c3c 74f3 7e3d 7a16 fe3c 86ed 7b3d
000001e0: aab2 04bd eb6b e93b 4dca d2bc 8042 a53d
000001f0: 61c3 dfbb a0f7 4a3d d416 353d 0dff 05bc
00000200: bc10 083d 7060 9ebc bc7d b13c 4531 903d
00000210: 212f fcbb b5d3 993d bf75 6dbd f270 cbbb
00000220: 3a6b 893c f7cb 7f3c ef43 e93d ce1e 97bd
00000230: 59cb 56bd ff02 b4bc 462b a73c a0c4 3dbd
00000240: 18b9 46bc b053 89bd cd45 a6bd 0f53 9dbc
00000250: 07e8 b43c c261 9f3d a4b4 4fbd 7555 b2bd
00000260: e93c ca3c 2770 a33d 5f08 593c 2034 993d
00000270: 49b3 403d 8921 95bb 3469 8bbd 2d2f 9e3c
00000280: b49a 9f3d 0444 8bbd 19d0 923d b952 5f3c
00000290: d0fd 05bd 8f48 e53c bb5f c3bc ab8d 61bd
000002a0: b0fd 563d c27f 6a3d 047d 2abc 355e 54bd
000002b0: 8059 44bd 036a 6abd f561 9ebd a01f 24bd
000002c0: de28 6cbd 123c 95bc 309c 4c3d 5c5f 7fbd
000002d0: 5aea bc3c ffa6 a7bb e6d8 54bd 5cff 87bd
000002e0: 76f6 2ebd c27d 1a3c 3c0e 513d fa88 76bd
000002f0: f11f 1eba b66a b5bd fc03 c33d 8bb2 513d
00000300: d0fd d83c 0b88 82bd e19a 7a3c 5aa3 ac3d
00000310: b216 b1bc df01 b13c 16a8 703c b228 21bc
00000320: 364f b9bc 1640 ae3c b9e3 483d da63 93bc
00000330: dcaa 06bd c691 c4bd 6139 3bbd e265 24bd
00000340: 6837 39bd 5392 9cbd 6c47 45bd 82ba 2ebd
00000350: 4944 fc3c ce2b 193d 037f 93bd 687f 683d
00000360: b47f 9cbc 88e3 9d3d 4232 383d c731 133d
00000370: da1d 903d 9fc4 24bc fd49 333b 0313 98bd
00000380: 343e 40bd 82a5 7b3c f76a 453d b6ac b73c
00000390: fd21 a6bd cb17 6bbd b830 e6bc a7e2 453c
000003a0: 5405 4c3c 6f37 0e3d 11ad a5bd b874 5e3d
000003b0: 6db6 c4bd 6899 1bbd b17f fc3c dcfb 98bd
000003c0: 73f9 5fbd 8feb b73d ea79 88bd 6c88 a53c
000003d0: 2e83 a4bd e954 afbd a568 04bd 237c b03d
000003e0: 0401 7abd 6272 543d 9065 b4bc 55c8 c93c
000003f0: 1187 4e3d ea1e e53c d3c9 993d 570c e53c

bn2.weight f4 [128]
1.0012602 0.9926341 0.99751604 0.9860271 0.99675876 0.99398994 0.9937246 0.986919
0.99753153 0.9886911 1.0001444 0.99395144 0.99553066 0.9915324 0.9926841 0.9968184
0.9942713 0.99040097 0.99416393 0.9892578 1.0002239 0.9962704 0.99320465 0.9976163
0.9908502 0.9974105 0.99201983 0.9987685 0.9952487 1.0008452 1.0010712 0.99385256
0.9936815 0.98408943 0.98847634 0.995994 0.9940211 0.99944705 0.98944724 0.99410933
0.99619627 0.9930827 0.99620897 0.9976263 0.99249214 0.99967 1.0002733 0.9862488
0.99781054 0.9999553 0.99514043 0.9906789 0.9988394 0.9978459 0.9877295 0.9841238
0.9948988 0.9830981 0.98886377 0.9908251 0.9966076 0.9988841 0.99302983 0.98890275
0.9981011 0.9973359 0.99722713 0.99722034 0.99649477 0.9903617 0.99459714 1.0004712
1.0001266 0.99440813 0.99291253 0.99377745 1.0030699 0.9908241 0.9906178 0.98756397
0.9909851 0.9907077 0.9986281 0.9996494 0.9930105 0.99902785 0.99388516 0.99647254
0.99159104 0.99224716 0.9967647 0.99566674 0.9969891 0.99318486 0.9954545 0.99042773
1.0021913 0.99332094 0.99365854 0.99840826 0.9899955 0.98552066 0.99300075 0.99821806
0.9994242 0.9987758 0.9954565 1.0012782 0.9976974 0.99766016 0.9994004 0.98921514
0.9988829 0.99711406 0.99631983 0.99572855 0.99897915 0.99529314 0.99065363 0.99969214
0.9853645 0.99307936 0.9966539 0.9798593 1.0000356 1.0006375 1.0010751 0.9801665
00000000: 4b29 803f 451d 7e3f 365d 7f3f 466c 7c3f
00000010: 952b 7f3f 2076 7e3f bc64 7e3f b9a6 7c3f
00000020: 3a5e 7f3f dc1a 7d3f bb04 803f 9a73 7e3f
00000030: 19db 7e3f 11d5 7d3f 8c20 7e3f 7e2f 7f3f
00000040: 9088 7e3f eb8a 7d3f 8781 7e3f 0040 7d3f
00000050: 5607 803f 940b 7f3f a942 7e3f c863 7f3f
00000060: 5ca8 7d3f 4b56 7f3f 03f5 7d3f 4baf 7f3f
00000070: 9ec8 7e3f b21b 803f 1a23 803f 1f6d 7e3f
00000080: e961 7e3f 49ed 7b3f c90c 7d3f 76f9 7e3f
00000090: 2b78 7e3f c3db 7f3f 6a4c 7d3f f37d 7e3f
000000a0: b806 7f3f ab3a 7e3f 8d07 7f3f 7064 7f3f
000000b0: f713 7e3f 60ea 7f3f f508 803f cd7a 7c3f
000000c0: 8370 7f3f 12fd 7f3f 86c1 7e3f 229d 7d3f
000000d0: f0b3 7f3f d472 7f3f d7db 7c3f 8aef 7b3f
000000e0: b0b1 7e3f 51ac 7b3f 2d26 7d3f b7a6 7d3f
000000f0: ad21 7f3f deb6 7f3f 3437 7e3f bb28 7d3f
00000100: 8e83 7f3f 6851 7f3f 474a 7f3f d549 7f3f
00000110: 481a 7f3f 5888 7d3f eb9d 7e3f 710f 803f
00000120: 2604 803f 8891 7e3f 842f 7e3f 3368 7e3f
00000130: 9864 803f a6a6 7d3f 2199 7d3f fed0 7c3f
00000140: 33b1 7d3f 059f 7d3f 17a6 7f3f 06e9 7f3f
00000150: f035 7e3f 4ac0 7f3f 426f 7e3f d318 7f3f
00000160: e9d8 7d3f e903 7e3f f92b 7f3f 04e4 7e3f
00000170: ad3a 7f3f 5d41 7e3f 1bd6 7e3f ac8c 7d3f
00000180: ce47 803f 484a 7e3f 6860 7e3f af97 7f3f
00000190: 5870 7d3f 154b 7c3f 4c35 7e3f 388b 7f3f
000001a0: 44da 7f3f c5af 7f3f 3dd6 7e3f e229 803f
000001b0: 1969 7f3f a866 7f3f b4d8 7f3f 343d 7d3f
000001c0: cab6 7f3f de42 7f3f d10e 7f3f 11e8 7e3f
000001d0: 19bd 7f3f 88cb 7e3f 7a9b 7d3f d3eb 7f3f
000001e0: d940 7c3f 733a 7e3f b624 7f3f 0fd8 7a3f
000001f0: 2b01 803f e414 803f 3b23 803f 31ec 7a3f

bn2.bias f4 [128]
0.001282146 -0.035767253 -0.0138505725 0.04131246 0.0096414555 0.034396943 -0.013682624 -0.030174397
-0.015226541 0.028344814 0.007057704 0.026878068 0.020434674 0.036182344 0.019950747 -0.014501129
-0.018955257 0.02791303 -0.017384721 -0.04180754 0.009555273 -0.0155119235 -0.015256186 -0.011738464
0.021178944 -0.01573739 -0.027819581 -0.016246794 -0.012432419 -0.004695617 0.010400846 -0.022767607
0.02681372 0.032848317 0.030919736 -0.014304921 0.027644841 -0.00883775 0.04073059 0.02143721
0.01603042 -0.020860119 0.010943909 -0.009327717 0.021667512 0.0061260485 -0.004589827 0.023166576
-0.017380532 -0.013064757 0.008126671 -0.019485228 0.0028837854 -0.016667388 -0.026723761 -0.0393087
0.020019365 0.030925479 0.03906742 0.031849682 -0.008322361 -0.028909886 -0.025503073 0.036172964
-0.031956743 -0.027657278 -0.010393579 -0.015994662 -0.03254478 -0.024283268 -0.022128798 -0.0066904435
-0.010977437 0.009229391 -0.009906247 0.02740693 -0.0055822604 -0.04186354 0.027619807 -0.032649748
-0.029611176 0.027078312 -0.0122628845 -0.015878895 -0.029910715 -0.0023111275 -0.015522737 0.025717244
-0.030162118 -0.029064834 0.015044092 -0.022492921 0.012082041 0.03711458 0.012314127 0.025203127
-0.0043319413 0.016070629 0.022872001 0.01600662 0.022207137 -0.034633722 -0.021735543 -0.009274374
0.008816099 0.0069123344 -0.014267166 0.00514356 -0.014623875 0.009499573 -0.0013322729 -0.024805347
0.005783488 -0.019990334 -0.010488231 0.020470008 0.013459149 0.01941192 0.019996865 -0.007910711
-0.039666127 -0.018744247 0.02180056 -0.042476006 0.013116667 0.012586239 -0.0059104837 -0.05382843
00000000: ae0d a83a af80 12bd 83ed 62bc 4137 293d
00000010: 32f7 1d3c cfe3 0c3d 162d 60bc 4c30 f7bc
00000020: be78 79bc 6233 e83c 5044 e73b 652f dc3c
00000030: 9e66 a73c f033 143d c06f a33c 2596 6dbc
00000040: 0e48 9bbc dea9 e43c 676a 8ebc 623e 2bbd
00000050: b88d 1c3c b925 7ebc 15f5 79bc b052 40bc
00000060: 777f ad3c b3eb 80bc e4e5 e3bc ff17 85bc
00000070: 58b1 4bbc b1dd 99bb 4f68 2a3c 2283 babc
00000080: 72a8 db3c f58b 063d 634b fd3c 305f 6abc
00000090: 6f77 e23c 36cc 10bc 1ed5 263d 169d af3c
000000a0: 3a52 833c d7e2 aabc 154e 333c 48d3 18bc
000000b0: 1180 b13c 05bd c83b 4266 96bb d5c7 bd3c
000000c0: 9e61 8ebc 900d 56bc bb25 053c 7c9f 9fbc
000000d0: e4fd 3c3b 0c8a 88bc caeb dabc 2902 21bd
000000e0: a7ff a33c 6e57 fd3c 2905 203d d074 023d
000000f0: 835a 08bc 6dd4 ecbc d2eb d0bc 1a2a 143d
00000100: 13e5 02bd 8491 e2bc d449 2abc 3d07 83bc
00000110: ad4d 05bd b4ed c6bc 7447 b5bc 823b dbbb
00000120: b5da 33bc df36 173c d04d 22bc 8084 e03c
00000130: 65eb b6bb 1a79 2bbd ef42 e23c bebb 05bd
00000140: 2393 f2bc 56d3 dd3c 44ea 48bc 7514 82bc
00000150: 5107 f5bc 4976 17bb 1453 7ebc f8ac d23c
00000160: 8c16 f7bc 6019 eebc 7f7b 763c 1343 b8bc
00000170: c1f3 453c 7505 183d 31c1 493c ca76 ce3c
00000180: f5f2 8dbb 8da6 833c 105e bb3c 5120 833c
00000190: beeb b53c 17dc 0dbd bd0e b2bc 8bf3 17bc
000001a0: 6671 103c dd80 e23b d5c0 69bc 4f8b a83b
000001b0: fa98 6fbc 19a4 1b3c a99f aeba 9534 cbbc
000001c0: 6a83 bd3b c5c2 a3bc d4d6 2bbc b8b0 a73c
000001d0: c383 5c3c bf05 9f3c 77d0 a33c ed9b 01bc
000001e0: f378 22bd 898d 99bc 1797 b23c 52fb 2dbd
000001f0: 4ae7 563c 8336 4e3c bbac c1bb 337b 5cbd

bn2.running_mean f4 [128]
0.023885656 -0.038216 -0.06620765 0.09920763 0.019904308 0.0821175 -0.053943045 -0.06807743
-0.017676817 0.026843876 0.0107070375 0.09902719 0.009016122 0.06541991 0.07459662 -0.029358372
-0.048077516 0.050621834 -0.03311921 -0.062684886 0.018488418 -0.008773218 -0.07208775 -0.05111962
0.039695907 -0.042959653 -0.053171214 -0.037849393 -0.06416493 -0.017952232 0.04265483 -0.080840714
0.069812045 0.0102773225 0.016090702 -0.0025197307 0.101524785 0.0072814217 0.11793102 0.035337295
0.05626794 -0.050297774 0.060377877 -0.047986526 0.06130844 0.093207344 -0.04900122 0.037393656
-0.0024049128 -0.0606023 0.04772523 -0.01093454 0.046739668 -0.09449806 -0.005824236 -0.030669712
0.01581845 0.05126755 0.014664311 0.07420337 -0.0028253286 -0.005429117 -0.02968953 0.07903184
-0.09728115 -0.06724414 -0.068980396 -0.035640348 -0.045589343 -0.05626328 -0.049858697 -0.062627934
-0.0074894587 -0.0027802696 -0.047865 0.1016927 0.040855203 -0.08004034 0.035527896 -0.037874527
-0.089952596 0.053894933 -0.06051053 -0.061574373 -0.06604055 0.008221085 -0.025584644 0.0047490755
-0.06829208 -0.019958764 0.05741912 -0.050732896 0.050264176 0.09743252 0.0035616157 0.08309506
-0.08821475 0.05228298 0.014550023 0.00952917 0.055796325 -0.07395554 -0.038563672 -0.044306174
0.07967526 0.007919417 -0.047937874 0.04357844 -0.03357097 0.06412886 -0.02248392 -0.034789626
-0.008283056 -0.07390896 -0.016704388 0.07739402 0.050614566 0.047372114 0.06111824 -0.04857449
-0.03901923 -0.019142706 0.01731059 -0.065148585 0.06887822 0.045590404 -0.049636163 -0.08349756
00000000: daab c33c 6188 1cbd e097 87bd 5f2d cb3d
00000010: 5c0e a33c 382d a83d 62f3 5cbd 2e6c 8bbd
00000020: f9ce 90bc b0e7 db3c 926c 2f3c c4ce ca3d
00000030: 5bb8 133c e0fa 853d 1dc6 983d f880 f0bc
00000040: eeec 44bd d758 4f3d 02a8 07bd ef60 80bd
00000050: 0675 973c 8bbd 0fbc bea2 93bd cf62 51bd
00000060: 2d98 223d 76f6 2fbd 0fca 59bd f707 1bbd
00000070: e768 83bd 8f10 93bc d5b6 2e3d d18f a5bd
00000080: 9ef9 8e3d 3762 283c a6d0 833c 1122 25bb
00000090: 3aec cf3d fe98 ee3b d285 f13d d7bd 103d
000000a0: 3679 663d 0a05 4ebd cb4e 773d 858d 44bd
000000b0: 8f1e 7b3d 7ee3 be3d 81b5 48bd 172a 193d
000000c0: be9b 1dbb 1e3a 78bd 887b 433d c926 33bc
000000d0: 1872 3f3d 3388 c1bd 3cd9 bebb 0c3f fbbc
000000e0: b295 813c ecfd 513d 9442 703c f0f7 973d
000000f0: 2629 39bb bce6 b1bb 7537 f3bc 72db a13d
00000100: 573b c7bd 4cb7 89bd 9845 8dbd 9dfb 11bd
00000110: e4bb 3abd 5374 66bd a238 4cbd 1343 80bd
00000120: 226a f5bb 2f35 36bb 170e 44bd 4344 d03d
00000130: c957 273d 31ec a3bd b385 113d 5222 1bbd
00000140: 1139 b8bd efc0 5c3d e4d9 77bd 6935 7cbd
00000150: 4540 87bd bbb1 063c e396 d1bc 229e 9b3b
00000160: b8dc 8bbd 9080 a3bc 5030 6b3d 4ccd 4fbd
00000170: cfe1 4d3d b38a c73d ff69 693b be2d aa3d
00000180: efa9 b4bd ae26 563d 3863 6e3c 3c20 1c3c
00000190: b08a 643d 0176 97bd f1f4 1dbd 647a 35bd
000001a0: c82c a33d 71c0 013c 815a 44bd 4e7f 323d
000001b0: b781 09bd fe55 833d 3330 b8bc 917f 0ebd
000001c0: a8b5 07bc 955d 97bd a4d7 88bc c280 9e3d
000001d0: 3851 4f3d 4309 423d 1f57 7a3d 0bf6 46bd
000001e0: a1d2 1fbd 2ad1 9cbc f0ce 8d3c 9f6c 85bd
000001f0: 0610 8d3d 01bd 3a3d 4a4f 4bbd c500 abbd

bn2.running_var f4 [128]
0.20227057 0.27909464 0.2524805 0.26514113 0.20110305 0.34327993 0.15376939 0.27648136
0.21834247 0.2000447 0.1643181 0.23777637 0.15352486 0.26665938 0.22911116 0.19717094
0.16484448 0.2331365 0.20944317 0.31918678 0.20148139 0.15489618 0.21648869 0.25467578
0.19384548 0.2891799 0.2491827 0.23235206 0.24256256 0.21791823 0.22236535 0.31260186
0.28517213 0.26554424 0.2414664 0.2301121 0.3211166 0.16568498 0.28711942 0.2954172
0.1736958 0.21337067 0.27591988 0.17889687 0.2500523 0.3056911 0.2504822 0.18407725
0.2826713 0.27694067 0.22830462 0.1951746 0.23516947 0.30531 0.18486188 0.23288605
0.28518105 0.23179336 0.23761688 0.20519538 0.2168631 0.30226254 0.19272502 0.21028166
0.33149594 0.31805167 0.19247812 0.28159508 0.312845 0.21491559 0.2359021 0.26203167
0.19875406 0.20050351 0.17882536 0.36403775 0.27334806 0.35434264 0.19881576 0.24825798
0.3675073 0.19322532 0.24165338 0.25189692 0.23516908 0.23282291 0.22941212 0.27348894
0.26352936 0.32063636 0.2221537 0.2279085 0.26130635 0.35268077 0.2034958 0.34673083
0.2462656 0.29339078 0.26088175 0.23137552 0.19133605 0.29608166 0.27733007 0.25213793
0.3327456 0.15948221 0.1777007 0.23203063 0.26782244 0.22155148 0.15928078 0.21528113
0.20862097 0.2251211 0.23178837 0.23547713 0.23327298 0.19479316 0.21433018 0.22669278
0.2613526 0.18790086 0.2447277 0.28653017 0.31944498 0.24258077 0.2773605 0.29590443
00000000: 0420 4f3e 7ee5 8e3e 2045 813e 94c0 873e
00000010: f5ed 4d3e 63c2 af3e b975 1d3e f78e 8d3e
00000020: 2b95 5f3e 85d8 4c3e 0143 283e a67b 733e
00000030: 9f35 1d3e 9487 883e 1e9c 6a3e 2ee7 493e
00000040: fecc 283e 56bb 6e3e 4578 563e 736c a33e
00000050: 2351 4e3e 1b9d 1e3e 36af 5d3e dd64 823e
00000060: 6e7f 463e 630f 943e c029 7f3e b3ed 6d3e
00000070: 5262 783e f525 5f3e beb3 633e 5a0d a03e
00000080: 1502 923e 6af5 873e f842 773e 82a2 6b3e
00000090: 6569 a43e 53a9 293e 5101 933e ec40 973e
000000a0: 50dd 313e d77d 5a3e 5f45 8d3e be30 373e
000000b0: db06 803e 8b83 9c3e 343f 803e bf7e 3c3e
000000c0: 4bba 903e 2bcb 8d3e b0c8 693e dadb 473e
000000d0: 44d0 703e 9851 9c3e 6f4c 3d3e ae79 6e3e
000000e0: 4003 923e 3d5b 6d3e d751 733e bd1e 523e
000000f0: 5c11 5e3e 28c2 9a3e b559 453e 1354 573e
00000100: d6b9 a93e abd7 a23e fc18 453e 3b2d 903e
00000110: 382d a03e d512 5c3e 5290 713e 0429 863e
00000120: 2f86 4b3e cb50 4d3e ff1d 373e 2863 ba3e
00000130: 47f4 8b3e 666c b53e 5c96 4b3e 5737 7e3e
00000140: eb29 bc3e dcdc 453e fc73 773e a2f8 803e
00000150: 2ad0 703e 2169 6e3e 03eb 6a3e be06 8c3e
00000160: 52ed 863e 732a a43e 427c 633e d960 693e
00000170: f2c9 853e 9392 b43e 3461 503e b486 b13e
00000180: 0d2d 7c3e 5137 963e 4b92 853e b4ed 6c3e
00000190: 99ed 433e 0498 973e 35fe 8d3e 3918 813e
000001a0: a25d aa3e 4e4f 233e 2cf7 353e 7099 6d3e
000001b0: 0620 893e 64de 623e 801a 233e a872 5c3e
000001c0: bca0 553e 2586 663e ee59 6d3e eb20 713e
000001d0: 1ddf 6e3e dc77 473e 5f79 5b3e 2722 683e
000001e0: 02d0 853e 1569 403e e699 7a3e 15b4 923e
000001f0: 4b8e a33e 1867 783e 3202 8e3e c980 973e

hidden3.weight f4 [16, 128]
-0.09029698 -0.07819249 -0.030897347 -0.044315197 0.061294135 -0.052702524 -0.03512792 0.049133223
-0.07257395 0.050526638 -0.09256452 -0.063782796 -0.06596119 -0.032339863 0.05924127 0.018091833
0.002189211 0.075608805 -0.07223287 -0.023091907 0.042979896 0.030663952 -0.044194426 0.073348746
-0.069468014 0.053596795 0.058145057 0.06399271 0.05527968 -0.03802946 -0.04208478 -0.045179065
0.009063894 0.026334427 0.026014151 -0.040747073 -0.03956364 0.009222996 0.009928132 0.100449234
0.006827051 -0.0003972286 -0.09472082 0.026913127 -0.009484926 -0.030345155 0.061772842 -0.022733385
-0.021520535 0.010275625 0.050046265 0.00700286 0.04804749 0.07572033 0.019723391 0.0155127
-0.06314416 -0.032671675 -0.0773086 0.002257985 -0.03385054 -0.017581346 -0.06973244 0.009555411
0.046078194 -0.057208724 0.06554542 -0.06777512 -0.06347971 0.06541049 0.001551276 -0.062596515
0.07486195 -0.012747116 -0.051547546 0.041426666 -0.0991674 -0.0012892717 -0.025134288 0.00323186
0.053268872 -0.055001166 0.04909029 0.0025598768 -0.056912173 0.0652251 -0.073099524 0.0022845336
0.048546046 -0.04672522 -0.07561191 0.035442326 -9.6994285e-05 0.032350745 0.019643907 -0.08098824
0.0807473 -0.015660293 -0.058616273 -0.070563346 -0.0442572 -0.06148969 -0.071575865 0.060454544
0.031525455 0.023848094 -0.002527273 0.048213784 -0.036621828 -0.07953033 -0.012291003 -0.0032490818
-0.050371323 -0.039392184 0.01342397 -0.052321337 -0.0074009756 0.012561718 -0.072058044 0.09839839
0.035475153 0.026045082 -0.07983695 -0.008227928 -0.04567501 -0.039397378 0.010138212 0.030530633
0.030171758 0.0016628582 0.07836827 -0.08643854 -0.022528006 -0.08140824 0.03410568 0.008129865
0.01696499 -0.0024426975 -0.017926369 0.048460282 -0.09716562 -0.03541739 -0.05386776 0.011209087
0.029620374 -0.015745984 0.005679131 -0.01877155 -0.056832213 0.022096002 0.056396566 -0.026271313
-0.060406353 0.09917449 0.051423915 0.032888774 -0.0030465666 0.017651182 0.027191857 -0.08248888
-0.092933655 -0.0959863 -0.120856084 0.08520265 -0.061769202 0.010451796 0.06468378 -0.0802876
-0.0051832367 -0.063769825 0.02404211 -0.0045336126 0.076310374 0.037814412 -0.02801949 -0.06761974
0.106042035 -0.039293505 -0.07340522 0.078316495 -0.020833526 0.00088138325 0.027664779 -0.033350296
-0.035767544 0.03596076 0.09790373 -0.0077174255 -0.014910498 -0.00074145984 0.12677474 -0.074659556
-0.06616483 0.073777586 -0.06636958 0.05583411 0.09110383 -0.024635192 -0.037076056 0.021731615
-0.037792645 -0.02729287 0.019445654 0.0074485117 0.080938384 -0.03468379 -0.042438045 -0.0035650337
-0.04678594 -0.036793172 -0.0737445 -0.046302628 -0.027504819 0.015494062 0.056103405 -0.027699731
0.03928244 0.05039187 0.012799712 0.076963834 -0.110494375 -0.06198736 0.055933855 -0.01846191
-0.037683472 -0.07220755 0.06853701 -0.06866608 0.009709764 0.07632397 0.059469376 0.016250271
0.0018482911 0.013606545 -0.034424335 0.052993152 0.016403798 0.03256173 0.0012684988 -0.061596885
0.11152294 0.0013033589 -0.04215366 0.040259458 0.020273693 -0.044933528 -0.07775995 0.007942007
-0.025355767 0.009254464 0.044762492 0.0338207 -0.025530132 -0.008843662 0.123421356 -0.0037402923
00000000: a0ed b8bd 6223 a0bd 6f1c fdbc da83 35bd
00000010: 8f0f 7b3d 9ade 57bd 4be2 0fbd eb3f 493d
00000020: a7a1 94bd 05f5 4e3d 7892 bdbd 8ea0 82bd
00000030: a916 87bd ce76 04bd f9a6 723d 5335 943c
00000040: de78 0f3b cad8 9a3d d4ee 93bd 3d2b bdbc
00000050: b00b 303d f832 fb3c 3705 35bd de37 963d
00000060: 3f45 8ebd 5088 5b3d 8329 6e3d 9c0e 833d
00000070: f26c 623d c7c4 1bbd 1761 2cbd af0d 39bd
00000080: ba80 143c 4cbb d73c a11b d53c 67e6 26bd
00000090: 7c0d 22bd 0d1c 173c 9ba9 223c 54b8 cd3d
000000a0: 74b5 df3b 1f43 d0b9 fdfc c1bd eb78 dc3c
000000b0: aa66 1bbc 6796 f8bc 8505 7d3d 5d3b babc
000000c0: d54b b0bc 185b 283c 50fd 4c3d 3f78 e53b
000000d0: 72cd 443d 4313 9b3d f392 a13c fb28 7e3c
000000e0: ba51 81bd bcd2 05bd f953 9ebd b4fa 133b
000000f0: dda6 0abd c106 90bc e2cf 8ebd 4c8e 1c3c
00000100: 7dbc 3c3d b253 6abd ad3c 863d afcd 8abd
00000110: a601 82bd eff5 853d 2f54 cb3a 9a32 80bd
00000120: 3951 993d 48d9 50bc 8523 53bd 02af 293d
00000130: 4718 cbbd c8fc a8ba 6ce6 cdbc 9dcd 533b
00000140: 7630 5a3d e748 61bd e612 493d 9bc3 273b
00000150: bd1c 69bd bd94 853d 34b5 95bd 1db8 153b
00000160: 38d8 463d f262 3fbd 6bda 9abd f92b 113d
00000170: 6969 cbb8 3782 043d 42ec a03c 2add a5bd
00000180: d75e a53d 044a 80bc 9e17 70bd 8483 90bd
00000190: 0a47 35bd 9ddc 7bbd 5e96 92bd 2f9f 773d
000001a0: d620 013d 145d c33c 9ba0 25bb d17b 453d
000001b0: c500 16bd cce0 a2bd 3460 49bc 8cee 54bb
000001c0: 2952 4ebd b359 21bd 36f0 5b3c e64e 56bd
000001d0: e283 f2bb aacf 4d3c 2b93 93bd 1885 c93d
000001e0: 654e 113d 7f5c d53c 8e81 a3bd 6ece 06bc
000001f0: b815 3bbd 255f 21bd be1a 263c 611b fa3c
00000200: c32a f73c 43f4 d93a 8b7f a03d b006 b1bd
00000210: a78c b8bc 5db9 a6bd 66b2 0b3d 2033 053c
00000220: 2afa 8a3c aa15 20bb 52da 92bc 4a7e 463d
00000230: c5fe c6bd d311 11bd 71a4 5cbd 52a6 373c
00000240: 6da6 f23c b9fd 80bc 0118 ba3b cbc6 99bc
00000250: e5c8 68bd ad02 b53c 1600 673d f036 d7bc
00000260: a76c 77bd ff1b cb3d e2a1 523d 61b6 063d
00000270: e8a8 47bb 3699 903c 75c1 de3c eeef a8bd
00000280: 0054 bebd 7794 c4bd 6583 f7bd ba7e ae3d
00000290: b401 7dbd 033e 2b3c ee78 843d d36d a4bd
000002a0: 24d8 a9bb c199 82bd f6f3 c43c b38e 94bb
000002b0: 9d48 9c3d 49e3 1a3d 2189 e5bc 387c 8abd
000002c0: 912c d93d 3af2 20bd 7a55 96bd 6664 a03d
000002d0: 12ab aabc a10c 673a 3fa1 e23c 529a 08bd
000002e0: fd80 12bd 974b 133d c081 c83d 75e2 fcbb
000002f0: 294b 74bc 875e 42ba 3dd1 013e 1ce7 98bd
00000300: 6d81 87bd b418 973d c6ec 87bd 4fb2 643d
00000310: a594 ba3d becf c9bc 10dd 17bd 8006 b23c
00000320: 76cc 1abd 4c95 dfbc 7e4c 9f3c a512 f43b
00000330: 06c3 a53d 9710 0ebd 84d3 2dbd 57a3 69bb
00000340: 9da2 3fbd 70b4 16bd 5b07 97bd d3a7 3dbd
00000350: c951 e1bc ceda 7d3c afcc 653d 8cea e2bc
00000360: a0e6 203d b567 4e3d e2b5 513c 379f 9d3d
00000370: e04a e2bd 75e6 7dbd e61a 653d 6e3d 97bc
00000380: fc59 1abd 8de1 93bd 225d 8c3d cda0 8cbd
00000390: b415 1f3c be4f 9c3d 2996 733d 4a1f 853c
000003a0: 5c42 f23a fced 5e3c 8800 0dbd 590f 593d
000003b0: 4261 863c 735f 053d c243 a63a 044d 7cbd
000003c0: 2466 e43d 78d5 aa3a 51a9 2cbd 1ae7 243d
000003d0: 0415 a63c 380c 38bd 9c40 9fbd 311f 023c
000003e0: e6b6 cfbc 09a0 173c e058 373d 9387 0a3d
000003f0: 9124 d1bc 02e5 10bc 56c4 fc3d b11f 75bb

bn3.weight f4 [16]
0.9895719 0.90604794 0.989434 0.98716927 0.92887795 0.98647374 0.8926778 0.9763479
0.9509437 0.96414006 0.88324875 0.9436889 0.95689005 0.9708824 0.9940117 0.99623644
00000000: 9654 7d3f c2f2 673f 8c4b 7d3f 20b7 7c3f
00000010: f2ca 6d3f 8b89 7c3f 8886 643f f0f1 793f
00000020: 0c71 733f e2d1 763f 971c 623f 9995 713f
00000030: bff6 743f c08b 783f 8d77 7e3f 5a09 7f3f

bn3.bias f4 [16]
-0.10954417 -0.3739015 -0.09966222 0.23840803 0.26960203 0.08985366 0.44332138 0.16177644
-0.411711 -0.3972325 0.39930233 0.58460325 -0.2522633 -0.16618218 0.09827999 0.013586061
00000000: b258 e0bd 0470 bfbe b51b ccbd 3c21 743e
00000010: 4709 8a3e 3205 b83d 05fb e23e b9a8 253e
00000020: c9cb d2be 0f62 cbbe 5b71 cc3e 8fa8 153f
00000030: a828 81be a92b 2abe 0547 c93d 1298 5e3c

bn3.running_mean f4 [16]
-0.04617065 -0.020037 -0.050863076 0.0028093448 -0.00021740887 0.025974648 0.096092366 -0.014075821
0.013748387 -0.12836766 -0.009113887 0.13148382 0.017579623 -0.024555169 0.0098792175 0.010426511
00000000: 6f1d 3dbd a224 a4bc cd55 50bd fc1c 383b
00000010: 40f8 63b9 c9c8 d43c 13cc c43d 469e 66bc
00000020: ea40 613c d072 03be 6a52 15bc b2a3 063e
00000030: 2403 903c ec27 c9bc 71dc 213c f5d3 2a3c

bn3.running_var f4 [16]
0.596382 1.0737138 0.5884378 1.0950863 0.68796414 0.38359162 1.2216983 0.54826814
1.399177 1.9137951 0.78797543 2.132768 0.5948868 0.43608636 0.30395082 0.21859959
00000000: 7eac 183f 746f 893f dca3 163f ca2b 8c3f
00000010: 6b1e 303f 1f66 c43e 9c60 9c3f 4d5b 0c3f
00000020: 3b18 b33f 3df7 f43f c2b8 493f 457f 0840
00000030: 804a 183f b646 df3e 719f 9b3e 92d8 5f3e

output.weight f4 [1, 16]
0.12009875 0.41049016 0.087822355 -0.3787608 -0.27585965 -0.108148485 -0.46777508 -0.17860176
0.5440329 0.51068676 -0.4239257 -0.76921 0.26788473 0.14663291 -0.014260082 0.020913003
00000000: 55f6 f53d c42b d23e 35dc b33d f0ec c1be
00000010: 7a3d 8dbe f47c ddbd 3780 efbe 61e3 36be
00000020: bd45 0b3f 5ebc 023f ca0c d9be f2ea 44bf
00000030: 3028 893e f026 163e 1ea3 69bc bf51 ab3c
