models/focal_loss_checkpoints/checkpoint_epoch_20.pth (torch, 100218 bytes, 16 tensors)

hidden1.weight f4 [128, 30]
0	0x3dfbaebe	0.12289189
1	0xbe215c66	-0.15757903
2	0xbd832994	-0.06404415
3	0xbd273883	-0.04082538
4	0x3dc7e091	0.097596295
5	0xbdd1b4f6	-0.10239594
6	0x3c0796d4	0.008275706
7	0xbbb7d6db	-0.0056103296
8	0xbd6187ff	-0.055061337
9	0xbdcd2aa1	-0.100178964
10	0xbe0d9064	-0.13824612
11	0x3e2824db	0.16420309
12	0xbdd8e249	-0.105900355
13	0x3d2f3085	0.04277088
14	0xbd1b4429	-0.0379068
15	0x3ca4da3f	0.0201236
16	0xbe35d3c4	-0.17756563
17	0x3dae6d36	0.08516924
18	0x3e23c087	0.15991412
19	0x3e3e7716	0.18600115
20	0x3e2d2039	0.16906823
21	0xbc17e53f	-0.009270965
22	0xbe114dca	-0.1418983
23	0x3e066b79	0.13126935
24	0x3de63769	0.112410374
25	0x3d646904	0.055764213
26	0xbcdee843	-0.02721036
27	0x3e29d52e	0.16585228
28	0x3dc09a4b	0.09404429
29	0xbdc3b302	-0.095556274
30	0xbe29dd9b	-0.16588442
31	0xbcea7843	-0.028621798
32	0xbc46f909	-0.012144336
33	0x3cce4080	0.02517724
34	0xbc2f69cc	-0.010706376
35	0x3cfaf108	0.03063251
36	0xbd7b8862	-0.06140936
37	0xbd0b281c	-0.0339738
38	0xbd1bbf77	-0.038024392
39	0xbe1a8905	-0.15091331
40	0xbd947674	-0.07249156
41	0xbe217a90	-0.1576941
42	0x3e1ba991	0.15201403
43	0x3e0872f2	0.13325098
44	0x3da9f4bc	0.082986325
45	0xbcdb4180	-0.026764631
46	0xbe214205	-0.1574784
47	0x3b6361a9	0.003469566
48	0x3d88ecbe	0.0668578
49	0x3e1dc4a2	0.1540704
50	0xbe2dbcbe	-0.1696653
51	0xbdd7c077	-0.10534757
52	0xbd94a341	-0.07257701
53	0x3e02e7c0	0.12783718
54	0x3e2e080f	0.16995262
55	0xbe3427c6	-0.17593297
56	0x3de4d950	0.111742616
57	0x3d1a5682	0.037680157
58	0xbe28189a	-0.16415635
59	0x3b2caf6e	0.0026349681
60	0x3e04817d	0.12940021
61	0x3b72be64	0.0037039751
62	0x3d430c5b	0.047619205
63	0xbdf98fe9	-0.12185652
64	0xbbd0686f	-0.0063601057
65	0x3db1a1de	0.08673452
66	0x3e01c07e	0.12671086
67	0xbd1507b9	-0.036384318
68	0x3e0944ac	0.13405102
69	0x3df027d8	0.117263496
70	0x3d0943b2	0.033511825
71	0xbdead314	-0.11466041
72	0xbe34c302	-0.17652515
73	0x3df6fc61	0.12059856
74	0x3e045ca9	0.12925972
75	0x3e34ac3b	0.17643826
76	0xbe301949	-0.17197146
77	0xbe2a2b72	-0.16618136
78	0xbdbc969d	-0.09208415
79	0xbde8a38f	-0.11359321
80	0xba3bd802	-0.00071656716
81	0xbcecfa40	-0.028927922
82	0xbe2d2f9b	-0.16912691
83	0xbdeaa33d	-0.114569165
84	0xbdc60913	-0.096696995
85	0xbda5f895	-0.08104054
86	0x3d33c415	0.04388817
87	0xbda04014	-0.07824722
88	0x3b0d09a7	0.0021520646
89	0x3dde034a	0.10840471
90	0x3b025350	0.0019886084
91	0x3e21d7cb	0.15804975
92	0xbdc306ce	-0.09522782
93	0xbcc9a1e4	-0.024613328
94	0xbd944065	-0.07238845
95	0x3d8134d2	0.06308903
96	0x3d4032e4	0.046923533
97	0x3c773df9	0.015090459
98	0xbd3d5541	-0.046223883
99	0xbdca6fb0	-0.09884584
100	0x3e20ff85	0.15722473
101	0xbe3c45b1	-0.1838596
102	0xb9f795c1	-0.00047223087
103	0x3de6b36b	0.1126469
104	0x3c7654fc	0.01503491
105	0x3daec327	0.08533316
106	0xbd72f188	-0.059312373
107	0xbdbf0eee	-0.093290195
108	0xbe1ded20	-0.15422487
109	0xbcd735b2	-0.026270721
110	0xbd8b2c78	-0.06795591
111	0xbe31cc3c	-0.17363065
112	0x3da2efc6	0.079558894
113	0xbd86bc23	-0.06578853
114	0x3e33bcc4	0.17552477
115	0x3e2daf61	0.16961433
116	0xbde7d1f4	-0.11319342
117	0x3ca1d757	0.019756002
118	0x3dbb9016	0.091583416
119	0xbdb42892	-0.08796801
120	0x3de7d4d8	0.113198936
121	0x3ca29c04	0.019849785
122	0xbe1e9999	-0.1548828
123	0xbdce63dc	-0.100776404
124	0xbe275a79	-0.16343106
125	0xbda51345	-0.08060316
126	0x3e10342e	0.14082405
127	0x3c9492cc	0.018136404
128	0x3dce24f9	0.10065646
129	0x3e33c4c2	0.17555526
130	0x3e2dda08	0.16977704
131	0x3e1f3b90	0.15550065
132	0x3e40e67a	0.1883792
133	0xbc94e544	-0.018175729
134	0x3da799cd	0.08183632
135	0xbe30a33a	-0.17249766
136	0x3ca7a775	0.020465592
137	0xbde4ee6d	-0.111782886
138	0xbdaab916	-0.083360836
139	0xbe129b04	-0.14316946
140	0xbdd8e80c	-0.105911344
141	0xbb3cde6d	-0.00288191
142	0xbc692871	-0.014230833
143	0x3d021d7a	0.031766392
144	0x3e3a6be1	0.18205215
145	0x3d94c89c	0.07264826
146	0xbd8e9b7e	-0.069632515
147	0xbdc2cdd9	-0.095119186
148	0x3cb0371d	0.021510655
149	0xbd40fe39	-0.047117446
150	0xbdbf07e2	-0.093276754
151	0xbd8a8752	-0.067640916
152	0x3e3026b7	0.17202269
153	0xbb91198c	-0.0044280943
154	0x3e0d9636	0.13826832
155	0x3c65ca2a	0.01402525
156	0x3e412c28	0.188645
157	0x3c9ede08	0.019392982
158	0xbd697ae8	-0.05700198
159	0x3d63b67e	0.05559396
160	0xbb9417d4	-0.004519442
161	0x3dcc360f	0.09971248
162	0xbd4185f0	-0.047246873
163	0x3dfb81c2	0.12280609
164	0xbe053f8d	-0.13012524
165	0x3e1b70f4	0.15179807
166	0x3d95c6e4	0.07313326
167	0xbdb9fba0	-0.09081197
168	0xbd58b481	-0.052906517
169	0x3d44ba3b	0.048029166
170	0x3ddb9f90	0.107237935
171	0xbd495791	-0.049155775
172	0xbdb96ae6	-0.090535924
173	0xbc9becfe	-0.019033905
174	0x3ded4f95	0.11587445
175	0xbc957d57	-0.018248243
176	0xbdef5592	-0.11686243
177	0xbdf499fb	-0.11943432
178	0xbdc0b3cf	-0.09409296
179	0x3df42ef9	0.11923022
180	0xbe24c0aa	-0.1608912
181	0xbd43187e	-0.04763078
182	0x3c26a845	0.0101719545
183	0xbda96282	-0.08270742
184	0x3d363bd8	0.044490665
185	0x3e0ea4be	0.13930032
186	0xbd0bb100	-0.034104347
187	0x3d73f94a	0.059563912
188	0x3cf36e68	0.029715732
189	0xbe263a46	-0.16233167
190	0xbcb22b30	-0.021749109
191	0xbe3e51e4	-0.18585926
192	0x3e1c9788	0.1529218
193	0x3e090f14	0.13384658
194	0x3db6e984	0.08931258
195	0x3d007b8b	0.03136782
196	0x3e170857	0.14749275
197	0x3d6a4178	0.057191342
198	0x3c56f28a	0.013119349
199	0x3d8ee126	0.069765374
200	0xbcb231fd	-0.021752352
201	0xbca202c2	-0.019776706
202	0xbdcc362a	-0.099712685
203	0x3e3bdb31	0.18345334
204	0x3e0e2443	0.1388102
205	0xbceae0c6	-0.028671633
206	0x3d92ba97	0.071644954
207	0x3e1181a0	0.14209604
208	0x3d90514c	0.07046756
209	0xbe12ef63	-0.14349131
210	0x3b03f31c	0.0020133918
211	0xbd8d6a14	-0.069049984
212	0x3a21128a	0.0006144425
213	0x3df6bb70	0.120474696
214	0xbe2bf39b	-0.16792147
215	0xbd3fa119	-0.046784494
216	0x3d29d43e	0.041462176
217	0xbd7187f8	-0.05896756
218	0xbe24dc38	-0.16099632
219	0xbc90d6c1	-0.017680528
220	0x3dc47b91	0.09593881
221	0xbe3840ac	-0.1799342
222	0xbd605f35	-0.054778297
223	0x3d8b8dc9	0.06814153
224	0x3d9ca0f1	0.07647885
225	0xbce341ac	-0.027741276
226	0x3e26dd33	0.16295318
227	0x3e064f40	0.13116169
228	0xbdb62115	-0.08893029
229	0x3d567183	0.052354347
230	0x3d894dbf	0.06704282
231	0x3c321437	0.010869077
232	0x3e18f7d6	0.14938292
233	0x3d020c3a	0.03174994
234	0x3e168a81	0.14701273
235	0xbdd2530d	-0.10269747
236	0x3e0f7b6d	0.14011927
237	0xbe28f57b	-0.16499893
238	0x3d8cdd65	0.06878165
239	0xbe07802c	-0.13232487
240	0xbe195bdb	-0.14976446
241	0x3de7beae	0.11315666
242	0xbe265224	-0.16242272
243	0x3de3d993	0.11125483
244	0x3db4cfd2	0.08828701
245	0xbd2da3e4	-0.042392626
246	0xb987b091	-0.0002588076
247	0x3e217774	0.15768224
248	0x3d985395	0.07437817
249	0x3b89d136	0.004205848
250	0x3e259568	0.16170275
251	0x3e2a3d05	0.1662484
252	0xbd6208a3	-0.055184018
253	0x3c58607b	0.0132065965
254	0x3e30b75f	0.1725745
255	0xbd9dbc2c	-0.077019066

bn1.weight f4 [128]
0	0x3f7e8f63	0.9943754
1	0x3f7f3935	0.99696666
2	0x3f80071e	1.0002172
3	0x3f7fd0a9	0.99927765
4	0x3f7e8854	0.9942677
5	0x3f7ff19d	0.9997805
6	0x3f7fad1a	0.9987351
7	0x3f801a95	1.0008112
8	0x3f800fa5	1.0004774
9	0x3f7f9b0a	0.99845946
10	0x3f800006	1.0000007
11	0x3f7fbf86	0.99901617
12	0x3f7fa402	0.9985963
13	0x3f7ff26c	0.9997928
14	0x3f7e6cee	0.99384964
15	0x3f7f697c	0.9977033
16	0x3f7fc539	0.9991031
17	0x3f7f846d	0.9981144
18	0x3f7f92b1	0.9983321
19	0x3f803efb	1.001922
20	0x3f8027d5	1.0012156
21	0x3f7ffb77	0.9999308
22	0x3f800c18	1.0003691
23	0x3f800649	1.0001918
24	0x3f804713	1.002169
25	0x3f801cbb	1.0008768
26	0x3f802e2b	1.0014089
27	0x3f807adc	1.0037494
28	0x3f7f28dd	0.9967173
29	0x3f7fa807	0.99865764
30	0x3f7f3ba2	0.9970037
31	0x3f804745	1.002175
32	0x3f7fdb74	0.99944234
33	0x3f7eaedd	0.9948557
34	0x3f7f746b	0.99787015
35	0x3f7fec83	0.99970263
36	0x3f804609	1.0021373
37	0x3f8033a7	1.0015763
38	0x3f7fae0d	0.99874955
39	0x3f7ef86b	0.99597806
40	0x3f7f2690	0.99668217
41	0x3f7e45e1	0.99325377
42	0x3f7fcb7e	0.9991988
43	0x3f8014c9	1.0006343
44	0x3f7feef3	0.9997398
45	0x3f7ffadc	0.99992156
46	0x3f7f2a3a	0.9967381
47	0x3f7f9d12	0.99849045
48	0x3f7f9d9b	0.9984986
49	0x3f7f26e7	0.99668735
50	0x3f7ff03a	0.9997593
51	0x3f806012	1.0029318
52	0x3f7f4ae0	0.99723625
53	0x3f8014b6	1.000632
54	0x3f7fd41f	0.99933046
55	0x3f809409	1.0045177
56	0x3f801542	1.0006487
57	0x3f7ef8c6	0.9959835
58	0x3f7f97ea	0.9984118
59	0x3f7fc222	0.999056
60	0x3f801707	1.0007027
61	0x3f800f64	1.0004697
62	0x3f7ffe73	0.99997634
63	0x3f8053c0	1.0025558
64	0x3f802430	1.0011044
65	0x3f8036c5	1.0016714
66	0x3f7f79ec	0.99795413
67	0x3f80137d	1.0005947
68	0x3f7fc4fc	0.9990995
69	0x3f7fb02c	0.9987819
70	0x3f7f8e03	0.9982607
71	0x3f7fd3c9	0.99932534
72	0x3f7fb191	0.9988032
73	0x3f7f116a	0.99635947
74	0x3f7f6348	0.99760866
75	0x3f806443	1.0030597
76	0x3f801b8c	1.0008407
77	0x3f7f91e9	0.99832016
78	0x3f8010fa	1.0005181
79	0x3f7fbca9	0.9989725
80	0x3f7f4bb6	0.997249
81	0x3f7f4f31	0.9973021
82	0x3f801654	1.0006814
83	0x3f80217d	1.001022
84	0x3f7eec49	0.9957929
85	0x3f7ebc7a	0.9950634
86	0x3f7f3196	0.9968504
87	0x3f7e5d2b	0.99360913
88	0x3f7efa26	0.99600446
89	0x3f7f5b9a	0.9974915
90	0x3f804993	1.0022453
91	0x3f7f0b23	0.9962637
92	0x3f7edbcc	0.99554133
93	0x3f7fd1ae	0.9992932
94	0x3f7fb199	0.9988037
95	0x3f8006f4	1.0002122
96	0x3f7fcd5a	0.99922717
97	0x3f80288a	1.0012372
98	0x3f800a60	1.0003166
99	0x3f8022b9	1.0010597
100	0x3f805bba	1.0027993
101	0x3f7f264d	0.9966782
102	0x3f7e351b	0.9929978
103	0x3f7fdc63	0.9994566
104	0x3f7fb9d9	0.99892956
105	0x3f80417e	1.0019987
106	0x3f7fde03	0.9994814
107	0x3f7fdf52	0.99950135
108	0x3f8024cd	1.0011231
109	0x3f7f7323	0.9978506
110	0x3f7f3142	0.99684536
111	0x3f7faa67	0.9986939
112	0x3f8054a7	1.0025834
113	0x3f8001f1	1.0000592
114	0x3f8018ab	1.0007528
115	0x3f8048ca	1.0022213
116	0x3f8016ef	1.0006999
117	0x3f8002b1	1.0000821
118	0x3f80b2b0	1.0054531
119	0x3f7fd52c	0.9993465
120	0x3f7ff30d	0.9998024
121	0x3f8024bb	1.0011209
122	0x3f7dd2d2	0.9914981
123	0x3f7fc32f	0.999072
124	0x3f8014e3	1.0006374
125	0x3f800986	1.0002906
126	0x3f7f8ec7	0.99827236
127	0x3f7fd43e	0.9993323

bn1.bias f4 [128]
0	0xbca186fb	-0.019717684
1	0x3c49d3a5	0.012318526
2	0xba8a9600	-0.0010573268
3	0x3b544043	0.0032386936
4	0x3c8cb2b1	0.01717505
5	0xbc077b71	-0.008269177
6	0x3c0bce45	0.008533065
7	0x3c1673e9	0.009182909
8	0x3b2a849a	0.0026018978
9	0x3c6b779f	0.014371782
10	0xbc08d44d	-0.008351398
11	0xbb535c4d	-0.003225106
12	0x3c0c863c	0.008576926
13	0x3b54775e	0.0032419781
14	0xbce048e8	-0.027378514
15	0xbc568b80	-0.013094783
16	0x3ae1fe4c	0.0017241924
17	0xbc4f8dab	-0.012668054
18	0x3cd46ae1	0.02592987
19	0x3c15cdd3	0.009143311
20	0xbc547f3a	-0.012969786
21	0x3c3bef50	0.011470631
22	0xbbe6f6a8	-0.0070484467
23	0x3c2703fe	0.010193823
24	0xbbfe1c0a	-0.0077548074
25	0x3c0c5ada	0.008566583
26	0x3bc1520b	0.005899673
27	0xbc028dac	-0.0079683475
28	0x3b82f7b3	0.003996813
29	0x396f0e6a	0.00022798186
30	0x3c58d814	0.013235111
31	0xbbb7f2b1	-0.005613648
32	0x3c838e31	0.016059013
33	0xbd0ceffe	-0.034408562
34	0x3a49e724	0.0007701984
35	0x3be97302	0.0071243057
36	0xb9cf6461	-0.00039556905
37	0xbbd45b08	-0.0064805783
38	0xbc1c295b	-0.009531344
39	0x3cf72752	0.030170117
40	0xbc881d62	-0.016615573
41	0xbc89fdb4	-0.016844608
42	0x3c506238	0.01271873
43	0x3bcb1775	0.0061978647
44	0x3bdf8077	0.006820734
45	0x3bc59978	0.006030258
46	0xbc5ce1f6	-0.013481608
47	0x3be5e434	0.0070157293
48	0x3b72bc1d	0.0037038394
49	0xbbd29e3c	-0.0064275544
50	0x3b8fe987	0.0043918523
51	0xbb2a7911	-0.0026012103
52	0x3c882ce4	0.016622968
53	0x3abee68d	0.0014564559
54	0xbc899e3f	-0.01679909
55	0x3a9ee394	0.0012122267
56	0xbc3d30a3	-0.01154724
57	0xbc08bc2d	-0.008345646
58	0x3c02925d	0.007969466
59	0x3c99780e	0.018734004
60	0xbb9e189b	-0.0048247105
61	0x3c61bd6f	0.013778075
62	0x3b41c8b8	0.00295691
63	0x3b74e5b9	0.003736837
64	0xb8e8a805	-0.00011093918
65	0x3b0c1e86	0.0021380498
66	0x3c9e4727	0.019321037
67	0xbc442f35	-0.011974146
68	0x3c08008f	0.008300914
69	0xbc001898	-0.007818364
70	0x3c610b13	0.01373555
71	0x3c04335e	0.0080688875
72	0x3c9df8e0	0.019283712
73	0xbc8bccf2	-0.017065499
74	0xbc4489de	-0.011995761
75	0x3bc40ad2	0.005982735
76	0x3c925939	0.01786481
77	0x3c0151a3	0.007892999
78	0xbc0598e8	-0.0081541315
79	0xbb916e1c	-0.004438175
80	0x3cae04cf	0.021242527
81	0x3bd245ed	0.006417027
82	0x3b13b37b	0.0022537399
83	0x3c579ee1	0.013160438
84	0xbcc25ac7	-0.023724927
85	0xbbb84193	-0.0056230514
86	0x3c2d3e8f	0.010573997
87	0xbcf5b26e	-0.029992308
88	0x3c9e0cf7	0.019293291
89	0xbbcae6de	-0.0061920723
90	0xbaa33eb4	-0.00124546
91	0xbc710af3	-0.014712083
92	0x3c789eb6	0.015174558
93	0xbc0c22c4	-0.008553211
94	0x3b969d22	0.0045963684
95	0x3c1572e7	0.009121633
96	0x3b980651	0.004639425
97	0x3ace15c1	0.0015723036
98	0xbc003a2d	-0.00782637
99	0x3c7599ad	0.014990252
100	0x3ba0daeb	0.0049089096
101	0x3c185e8b	0.009299885
102	0xbc355195	-0.011066814
103	0xb9b29276	-0.00034059928
104	0xbb8b8f63	-0.0042590364
105	0x3c938851	0.018009337
106	0xb9ad3b86	-0.0003304148
107	0xbb6cec2f	-0.0036151519
108	0x3b920f02	0.0044573555
109	0xbc5dd678	-0.013539903
110	0x3c84e3fd	0.016221995
111	0x3c2ae804	0.010431293
112	0x3c274baf	0.0102109155
113	0xbbf0799d	-0.007338716
114	0x3b462a4e	0.0030237618
115	0x3c482568	0.01221595
116	0x3b5a9b44	0.0033356706
117	0x3aeea8fe	0.0018208323
118	0x3c32b851	0.010908202
119	0x3aeeab0f	0.0018208938
120	0xbb5ddf4a	-0.0033855014
121	0x3c825777	0.015910847
122	0xbcd904a4	-0.02649147
123	0xbb884615	-0.004158745
124	0x3c01dd59	0.007926309
125	0x3a590ccd	0.00082798005
126	0xbc3f1606	-0.011662966
127	0x3afc8047	0.0019264304

bn1.running_mean f4 [128]
0	0xbcda2d3a	-0.026632894
1	0xbd87ee5c	-0.0663726
2	0x3e2deb4a	0.16984287
3	0xbdde1906	-0.108446166
4	0xbd10eaf7	-0.03538033
5	0x3e0eb56f	0.13936399
6	0xbe400aa3	-0.18754058
7	0xbdafb60c	-0.085796446
8	0x3db386dd	0.087659575
9	0x3e569e43	0.2095881
10	0xbcd29f49	-0.025710719
11	0x3de91510	0.113809705
12	0xbde3de12	-0.11126341
13	0x3d44b946	0.048028253
14	0x3cd9a48c	0.02656772
15	0xbd14ba82	-0.03631068
16	0x3e50a4f8	0.2037543
17	0xbd0de1f7	-0.034639325
18	0x3e0c46a2	0.1369882
19	0x3cab4182	0.02090526
20	0xbe232d5a	-0.15935269
21	0xbe0aff5e	-0.13573977
22	0xbe385846	-0.18002424
23	0x3dd6758c	0.10471639
24	0xbb86821b	-0.0041048652
25	0xbe185a3c	-0.14878172
26	0xbd6067ca	-0.05478648
27	0x3e1fdf09	0.15612425
28	0xbdee0f56	-0.11624019
29	0x3d07f333	0.033190917
30	0xbda09550	-0.07840979
31	0x3e1c8bb2	0.15287665
32	0xbdc333de	-0.09531377
33	0xbc6cfb24	-0.0144641735
34	0x3db4e9f1	0.08833683
35	0x3e022bb1	0.1271198
36	0x3e142793	0.14468221
37	0x3e128931	0.14310147
38	0x3d3d549e	0.046223275
39	0xbe3520e6	-0.17688331
40	0xbd806eb3	-0.06271114
41	0xbe049f4c	-0.12951392
42	0xbdfe43bd	-0.12415264
43	0x3d2613bb	0.04054616
44	0x3e20243e	0.15638825
45	0x3e2ab757	0.16671501
46	0x3daf504e	0.08560239
47	0x3d472d87	0.048627403
48	0xbd87f025	-0.06637601
49	0x3e471b12	0.1944392
50	0x3dbe40d0	0.09289706
51	0x3d14c5b1	0.036321346
52	0x3e047d52	0.12938431
53	0x3cca0b2f	0.024663536
54	0x3e36d883	0.1785603
55	0xbd8ba58f	-0.06818687
56	0x3dfcde10	0.123470426
57	0xbd27461b	-0.040838342
58	0xbd69aef0	-0.0570516
59	0x3e3a16da	0.1817278
60	0x3bac023a	0.005249289
61	0x3dcc8296	0.09985845
62	0xbe534ded	-0.20635195
63	0x3d719b78	0.058986157
64	0xbd8db675	-0.069195665
65	0x3ccb8a70	0.024846286
66	0x3e0713cd	0.13191147
67	0xbbf63199	-0.0075132367
68	0x3e3fb973	0.18723087
69	0xbe2306e6	-0.159206
70	0x3d0d020b	0.034425776
71	0xbc5f357d	-0.013623592
72	0xbcf5d1d3	-0.030007279
73	0xbd8cef34	-0.06881562
74	0x3cc09524	0.023508616
75	0x3df3e8fa	0.11909671
76	0xbdb8f272	-0.09030618
77	0x3d178298	0.03698978
78	0xbe2c4407	-0.16822825
79	0x3e4c4e7c	0.19951814
80	0x3d76bbcb	0.060237687
81	0x3c3a8c92	0.011386054
82	0x3dea41fb	0.11438366
83	0xbcda1ad5	-0.026624123
84	0xbd3a8746	-0.045539163
85	0x3d063d5c	0.03277336
86	0xbdcfc789	-0.1014548
87	0x3e690661	0.2275634
88	0xbe1aa896	-0.15103373
89	0xbc0c4fa5	-0.008563911
90	0x3df41933	0.11918869
91	0x3e350697	0.17678295
92	0xbe2592a0	-0.16169214
93	0x3c6529f4	0.013987053
94	0xbdbe90b8	-0.09304947
95	0xbe0e738b	-0.13911264
96	0x3d3510ec	0.04420559
97	0x3ce8481b	0.028354695
98	0xbdd5f1bd	-0.104464985
99	0xbe11b748	-0.14230072
100	0x3d47732c	0.04869382
101	0xbe496500	-0.19667435
102	0x3dbb1aad	0.091359474
103	0x3ce468fa	0.027882088
104	0x3d81b4fa	0.06333347
105	0xbdf94b06	-0.12172513
106	0xbdca00cc	-0.09863433
107	0x3d957852	0.0729834
108	0x3d25cc9d	0.040478338
109	0x3e063db2	0.13109472
110	0x3cd89658	0.026438877
111	0xbdbbd6df	-0.09171843
112	0xbe0084a1	-0.12550594
113	0xbbb1db13	-0.005427727
114	0x3d466df9	0.04844472
115	0xbd1c5c5b	-0.038174015
116	0x3dd3881f	0.103286974
117	0x3dae44bd	0.085092045
118	0x3da4dee9	0.08050329
119	0xbe102569	-0.14076771
120	0x3d734eb7	0.05940124
121	0xbdf13405	-0.117775
122	0x3e2dd956	0.16977438
123	0x3de6d765	0.11271552
124	0xbda7d395	-0.08194653
125	0xbe03bc6a	-0.12864843
126	0xbdf8fb13	-0.121572636
127	0xbd3f4200	-0.046693802

bn1.running_var f4 [128]
0	0x3f079ba8	0.5297189
1	0x3f059ddf	0.5219402
2	0x3eee4109	0.46533993
3	0x3eef09d6	0.46687192
4	0x3eec588b	0.46161303
5	0x3f11063e	0.5665015
6	0x3f26a80f	0.6510019
7	0x3f2bd4ce	0.6712159
8	0x3f42f761	0.7615872
9	0x3f8465f2	1.0343611
10	0x3f1cc95e	0.6124476
11	0x3f220cdf	0.6330089
12	0x3f0518d5	0.51991016
13	0x3f2efa20	0.6835041
14	0x3eda64cd	0.4265503
15	0x3ea30edc	0.31847274
16	0x3f292eba	0.66086924
17	0x3ec4c961	0.3843489
18	0x3f770c07	0.9650273
19	0x3f0b0ea6	0.54319227
20	0x3f1651ca	0.5871855
21	0x3f3588e1	0.70911986
22	0x3f280e02	0.65646374
23	0x3f0b83e9	0.54498154
24	0x3ebb36fc	0.36565387
25	0x3effc616	0.49955815
26	0x3f0daf4a	0.55345595
27	0x3ef72f9f	0.4827852
28	0x3f0ba30e	0.54545677
29	0x3ec6fd91	0.3886533
30	0x3ecaf95f	0.3964338
31	0x3f0a945d	0.54132634
32	0x3f570745	0.8399547
33	0x3f02f3a2	0.51153004
34	0x3f1e5e64	0.6186278
35	0x3f1d0949	0.61342293
36	0x3f29026f	0.6601934
37	0x3f4ec5d5	0.8077062
38	0x3f071d78	0.5277934
39	0x3f11e891	0.56995493
40	0x3f1924f4	0.5982201
41	0x3ec7c806	0.39019793
42	0x3f235224	0.6379721
43	0x3e9f1de7	0.310775
44	0x3f40202c	0.7504909
45	0x3f35f92b	0.71083325
46	0x3f02f454	0.51154065
47	0x3ed66de7	0.41880724
48	0x3ef73b8f	0.48287627
49	0x3f64aac7	0.89323086
50	0x3f4dd2f9	0.80400044
51	0x3ec1ea96	0.37874287
52	0x3f4e4c68	0.80585337
53	0x3f21b9d9	0.63174206
54	0x3ecbfbb2	0.39840466
55	0x3ee08dbd	0.43858138
56	0x3f4639a1	0.77431685
57	0x3ebb7205	0.36610427
58	0x3f3b5f21	0.7319203
59	0x3f5c8c04	0.86151147
60	0x3ec24a13	0.3794714
61	0x3f54a441	0.8306313
62	0x3f05aadd	0.5221384
63	0x3f11d5b6	0.5696672
64	0x3ef7dac7	0.484091
65	0x3f095472	0.5364448
66	0x3f402b67	0.75066227
67	0x3f3e82a3	0.74418086
68	0x3f26b8c3	0.65125674
69	0x3f35a425	0.7095359
70	0x3ed0bf0a	0.4077075
71	0x3eb66e94	0.3563124
72	0x3f179986	0.59218633
73	0x3f1ae270	0.60501766
74	0x3eec4bad	0.46151486
75	0x3f20e3ca	0.6284758
76	0x3ec6bd93	0.3881651
77	0x3eec11cb	0.46107325
78	0x3f4a4c5d	0.7902277
79	0x3f8d5a98	1.1043272
80	0x3eef60f7	0.46753666
81	0x3ee3de71	0.44505647
82	0x3f1d215a	0.61379015
83	0x3ecf96a6	0.40544623
84	0x3f2da37c	0.6782758
85	0x3f04fab5	0.5194505
86	0x3f186b88	0.5953908
87	0x3f047eee	0.5175618
88	0x3ecfbf80	0.4057579
89	0x3ef2d048	0.4742453
90	0x3f15d8f6	0.5853418
91	0x3f1db5d2	0.6160556
92	0x3f23a34e	0.6392106
93	0x3f043308	0.5164037
94	0x3f2328f5	0.6373437
95	0x3f59b8b6	0.8504747
96	0x3e984fb6	0.29748315
97	0x3f249b85	0.64299804
98	0x3f287f63	0.65819377
99	0x3f145a7f	0.57950586
100	0x3ef6cc67	0.48202822
101	0x3f409e93	0.75241965
102	0x3f0ce0d6	0.5503057
103	0x3ed0e431	0.40799096
104	0x3f07123b	0.5276219
105	0x3ef3731a	0.47548753
106	0x3f499db0	0.7875624
107	0x3f7a6a6d	0.9781864
108	0x3ed9c743	0.42534837
109	0x3f8ebb80	1.115097
110	0x3f04e506	0.5191196
111	0x3f3107d2	0.6915256
112	0x3ebce8bc	0.36896312
113	0x3eff8aff	0.49910733
114	0x3ec6b730	0.38811636
115	0x3f0bba4d	0.5458115
116	0x3f37cd98	0.71798086
117	0x3f04eeeb	0.5192706
118	0x3f4e5739	0.8060184
119	0x3f45a177	0.771995
120	0x3f364397	0.71196884
121	0x3ef446b9	0.47710207
122	0x3f7b756a	0.98226035
123	0x3f1fceee	0.62425125
124	0x3f011a7b	0.5043103
125	0x3f2757e8	0.6536851
126	0x3f4fdb8d	0.8119438
127	0x3ec3a6c4	0.3821317

hidden2.weight f4 [128, 128]
0	0x3d9a9f7f	0.07549953
1	0xbbaee394	-0.005337188
2	0xbd8cc22d	-0.068729736
3	0x3c3ad227	0.011402643
4	0x3d018e69	0.031629954
5	0xbb22129d	-0.0024730333
6	0x3c45ef6f	0.012081011
7	0x3cf0cb1f	0.02939373
8	0x3d3eaa1e	0.046548955
9	0xbce2bf9c	-0.027679257
10	0xbd597349	-0.05308846
11	0x3d85b3f3	0.06528463
12	0x3cbb2ca0	0.022848427
13	0x3d9d1c3c	0.07671401
14	0xbd4d50b8	-0.050125808
15	0xbcd52bb4	-0.026021816
16	0x3cd63c3b	0.026151767
17	0x3c9cf5ab	0.019160112
18	0xbd1e5067	-0.038650896
19	0xbd17a6b5	-0.03702422
20	0xbccde867	-0.025135232
21	0xbd882bcc	-0.066489786
22	0x3b9a59cb	0.004710411
23	0xbda03caa	-0.07824071
24	0xbcf493f4	-0.029855706
25	0xba4f34ef	-0.0007904311
26	0xbd854679	-0.06507582
27	0x3d33c8d8	0.04389271
28	0x3d7bbed8	0.0614613
29	0x3b9f24c2	0.004856677
30	0x3cd06632	0.025439356
31	0xbdb8f9f7	-0.09032052
32	0x3c037a62	0.008024784
33	0x3d204faa	0.039138474
34	0xbd1011fd	-0.035173405
35	0xbc0c5bcb	-0.008566807
36	0xbdac54a4	-0.084145814
37	0x3d223242	0.03959871
38	0xbd2dff5f	-0.04247987
39	0xbc33b4ba	-0.010968382
40	0x3d38300b	0.044967692
41	0x3d93216f	0.07184111
42	0x3a677bb1	0.0008830382
43	0x3dbddb90	0.09270394
44	0x3cc681e1	0.024231853
45	0xbb58f7db	-0.0033106718
46	0x3d8ac113	0.06775107
47	0x3db78c16	0.08962266
48	0x3da3e477	0.080025606
49	0xbd26b5f7	-0.04070088
50	0xbd48b5d6	-0.049001537
51	0x3d710cdd	0.058850158
52	0xbd35feab	-0.044432323
53	0xbcd87c0e	-0.026426341
54	0x3d6ae432	0.05734653
55	0x3ca2148c	0.019785188
56	0xbbe63d6a	-0.007026364
57	0x3d0cda5a	0.034387924
58	0x3d11a42c	0.035556957
59	0xbdac4458	-0.08411473
60	0x3d81e7dc	0.06343052
61	0x3d07d039	0.03315756
62	0x3d41cb1c	0.04731284
63	0xbbd55e22	-0.0065114656
64	0x3c0c7998	0.008573912
65	0xbbecb01e	-0.0072231432
66	0xbbec8763	-0.007218288
67	0x3da29205	0.07938007
68	0xbd64c66c	-0.055853292
69	0xbd48b2ea	-0.04899875
70	0xbd9aaec9	-0.07552869
71	0xbb957cb4	-0.004561985
72	0xbd8bec29	-0.06832153
73	0x3d850c34	0.06496468
74	0xbd0f2d29	-0.034955177
75	0x3d966d8b	0.073451124
76	0x3da50eea	0.08059485
77	0xbd674ad6	-0.056467853
78	0xbda0837b	-0.07837578
79	0xbce80ad2	-0.028325472
80	0xbd43ccb4	-0.047802642
81	0x3d2b12a0	0.04176581
82	0x3d6c3592	0.057668276
83	0xbbaa7a58	-0.005202573
84	0xbda05e24	-0.07830456
85	0x3d0588cd	0.032601167
86	0x3da2b52f	0.07944714
87	0x3cc5c189	0.024140136
88	0xbce16c5f	-0.027517496
89	0xbd8d5f62	-0.069029585
90	0xbd775e11	-0.060392443
91	0x3d2d2624	0.0422727
92	0x3d416eb5	0.04722472
93	0x3d87ffb7	0.066405706
94	0x3db4c521	0.08826662
95	0xbc1904bf	-0.00933951
96	0xbaec4082	-0.0018024596
97	0x3cad74da	0.021173883
98	0xbd06ddfb	-0.03292654
99	0xbca307b3	-0.019901132
100	0xbc3e4dc8	-0.011615224
101	0x3cc49fb4	0.024001934
102	0xbd728eb3	-0.05921812
103	0xbd9f8d36	-0.07790606
104	0xbdb617f6	-0.08891289
105	0xbb5888bc	-0.0033040484
106	0x3ca254dc	0.019815855
107	0x3d6db90c	0.058037803
108	0xbd529f78	-0.051421613
109	0xbc82c32e	-0.01596221
110	0x3d70b60a	0.058767356
111	0x3cd5c630	0.02609548
112	0xbd2e76f0	-0.042593896
113	0xbd92c73b	-0.071669064
114	0xbd75e972	-0.060037084
115	0xbc9d5854	-0.019207157
116	0x3cce90c1	0.025215508
117	0x3d8e3d2d	0.06945262
118	0x3d0727a9	0.032996807
119	0x3d87947c	0.06620118
120	0xbd0fac27	-0.035076287
121	0x3b1bf951	0.0023799727
122	0xbcce5e7a	-0.025191534
123	0x3d9fddeb	0.07805999
124	0xbc5d2dc2	-0.013499679
125	0x3d4774f3	0.048695516
126	0x3d17e374	0.03708215
127	0xbc38ce22	-0.011279615
128	0x3cd5c075	0.026092747
129	0xbd08f82b	-0.033439796
130	0x3cb44985	0.022007713
131	0x3d8a7453	0.06760468
132	0x3afed8ca	0.001944327
133	0x3d82ffb6	0.06396429
134	0xbda0b883	-0.07847693
135	0xbb14f635	-0.0022729759
136	0x3d251b49	0.040309224
137	0x3cffdf67	0.031234456
138	0x3dc8ad4c	0.09798679
139	0xbd49447d	-0.04913758
140	0xbd51be1c	-0.051206693
141	0xbc9f8594	-0.019472875
142	0x3c68af32	0.014201926
143	0xbd85604f	-0.0651251
144	0xbc45afec	-0.012065869
145	0xbd906343	-0.07050183
146	0xbdb2b6a9	-0.08726246
147	0xbce24bb2	-0.027623985
148	0x3ce6c3f5	0.028169611
149	0x3d91fbd0	0.071281075
150	0xbd8f8505	-0.07007793
151	0xbda6679e	-0.08125232
152	0x3c446cb6	0.011988809
153	0x3d97ac16	0.0740587
154	0x3c542588	0.012948401
155	0x3da0f09d	0.07858393
156	0x3d5b76ef	0.05358022
157	0xbb20dea3	-0.0024546764
158	0xbd9d1dd0	-0.07671702
159	0x3cb70537	0.022341354
160	0x3da287d0	0.079360604
161	0xbd938987	-0.07203966
162	0x3da184e7	0.07886677
163	0x3c6a159a	0.014287377
164	0xbc363073	-0.01111995
165	0x3d2c8dd2	0.042127438
166	0xbca31575	-0.019907692
167	0xbd6e7eac	-0.058226272
168	0x3d3f8a6d	0.046762872
169	0x3d4acc95	0.04951151
170	0xbbb9fd87	-0.005675975
171	0xbd2004b6	-0.039066993
172	0xbd445699	-0.04793415
173	0xbd5260ee	-0.05136197
174	0xbd9ffd49	-0.07811982
175	0xbd04649e	-0.03232252
176	0xbd81ff5f	-0.06347536
177	0xbbead0a6	-0.007165986
178	0x3d3e7921	0.046502236
179	0xbd80aab9	-0.06282563
180	0x3cbd3ae1	0.023099365
181	0xbb9bc7a2	-0.0047540227
182	0xbd0a7758	-0.03380522
183	0xbd988b8a	-0.0744849
184	0xbd1b228f	-0.037874755
185	0xbc0ca069	-0.008583167
186	0x3d5ccc23	0.053905617
187	0xbd7cd7c3	-0.061729204
188	0x3c525f58	0.0128401145
189	0xbdb605d5	-0.08887831
190	0x3dab017f	0.08349895
191	0x3d84d7a5	0.064864434
192	0x3c0ed835	0.00871854
193	0xbd4a3feb	-0.049377363
194	0x3c965d9d	0.018355185
195	0x3dbd4b5b	0.092428885
196	0xbbd3b154	-0.006460348
197	0x3b51b22a	0.0031997063
198	0x3c1f1830	0.009710357
199	0xbcbf2bf8	-0.023336396
200	0xbd05e97e	-0.03269338
201	0x3cd69814	0.026195563
202	0x3d84aa2d	0.06477771
203	0xbc6a4fb5	-0.01430123
204	0xbccebb4b	-0.025235793
205	0xbdb799d7	-0.089648895
206	0xbd664370	-0.056216657
207	0xbd0daf69	-0.034591112
208	0xbd0b0e35	-0.033949096
209	0xbd8614d0	-0.065469384
210	0xbd5196cd	-0.051169205
211	0xbd36eee6	-0.044661425
212	0x3d14b2fd	0.03630351
213	0x3d1e3e6c	0.03863375
214	0xbdb68440	-0.089119434
215	0x3d92ab76	0.0716161
216	0xbcca25da	-0.024676252
217	0x3daa8907	0.08326917
218	0x3d189715	0.037253458
219	0x3d2a7f66	0.041625403
220	0x3d88b1fa	0.06674571
221	0xbbee376d	-0.007269791
222	0x3c19ac5e	0.009379474
223	0xbd8e3271	-0.06943215
224	0xbcf6b8f2	-0.030117486
225	0x3cd4247c	0.025896303
226	0x3d520ba0	0.051280618
227	0x3c829e6a	0.015944678
228	0xbd945757	-0.07243221
229	0xbd76ac9e	-0.060223214
230	0xbc86eb86	-0.016469728
231	0x3ca9310f	0.020653276
232	0x3c83e86d	0.01610204
233	0x3ccb2bb6	0.024801116
234	0xbd9b2f7e	-0.07577418
235	0x3d5a0c1f	0.053234216
236	0xbdcbd579	-0.09952826
237	0xbd1b4920	-0.037911534
238	0x3cb0cd55	0.021582285
239	0xbd881b18	-0.06645793
240	0xbd549680	-0.05190134
241	0x3da2ed45	0.07955412
242	0xbd90b7b9	-0.07066292
243	0x3d086cfa	0.033307053
244	0xbd93c9e2	-0.072162405
245	0xbd92896e	-0.07155119
246	0xbc897591	-0.016779693
247	0x3dae40d6	0.0850846
248	0xbd8fa07d	-0.070130326
249	0x3d48dab8	0.04903671
250	0xbce51d1c	-0.027967982
251	0x3d2f5dc8	0.042814046
252	0x3d1d8400	0.038455963
253	0x3cb350f9	0.021889197
254	0x3d976c9b	0.07393762
255	0x3cd32913	0.025776422

bn2.weight f4 [128]
0	0x3f800b70	1.000349
1	0x3f7f3830	0.9969511
2	0x3f8010e2	1.0005152
3	0x3f7e4818	0.99328756
4	0x3f7fd97d	0.99941236
5	0x3f7ed801	0.99548346
6	0x3f7f860d	0.9981392
7	0x3f7e6240	0.9936867
8	0x3f7fc471	0.9990912
9	0x3f7ed788	0.99547625
10	0x3f8016ee	1.0006998
11	0x3f7fda4d	0.99942476
12	0x3f7f4bcf	0.9972505
13	0x3f7ebe24	0.9950888
14	0x3f7f169d	0.9964388
15	0x3f7fef7e	0.9997481
16	0x3f7ffea5	0.9999793
17	0x3f7f1f29	0.9965692
18	0x3f7fa70e	0.9986428
19	0x3f7efe49	0.9960676
20	0x3f8001ef	1.000059
21	0x3f80069a	1.0002015
22	0x3f7fd3f6	0.999328
23	0x3f7fd78b	0.9993827
24	0x3f7fc822	0.99914753
25	0x3f7f9698	0.9983916
26	0x3f7ed2cf	0.9954042
27	0x3f7f6a01	0.99771124
28	0x3f7fa15b	0.99855584
29	0x3f802713	1.0011925
30	0x3f80103d	1.0004956
31	0x3f7fb6b7	0.99888176
32	0x3f7f6725	0.9976676
33	0x3f7d4a66	0.9894165
34	0x3f7f3f7e	0.99706256
35	0x3f7fbfe7	0.99902195
36	0x3f7f44c7	0.9971432
37	0x3f801473	1.0006241
38	0x3f7f240d	0.99664384
39	0x3f7f4026	0.9970726
40	0x3f7fc9ae	0.99917114
41	0x3f7f3b91	0.99700266
42	0x3f7fd451	0.99933344
43	0x3f801621	1.0006753
44	0x3f7f3a61	0.99698454
45	0x3f8011e1	1.0005456
46	0x3f7ff9ef	0.99990743
47	0x3f7e3a8a	0.99308074
48	0x3f800348	1.0001001
49	0x3f800f1f	1.0004615
50	0x3f7fe8e6	0.9996475
51	0x3f7efa59	0.9960075
52	0x3f7fa326	0.9985832
53	0x3f7fe4ac	0.999583
54	0x3f7f3dd9	0.9970375
55	0x3f7e539c	0.9934633
56	0x3f7fc78f	0.9991388
57	0x3f7e10a7	0.9924416
58	0x3f7f3739	0.9969364
59	0x3f7ea6e5	0.9947341
60	0x3f800ae2	1.0003321
61	0x3f802965	1.0012633
62	0x3f7f8276	0.9980844
63	0x3f7ea760	0.99474144
64	0x3f7fc06d	0.99902993
65	0x3f7f9a7c	0.998451
66	0x3f8002ce	1.0000856
67	0x3f7fb7e9	0.9989
68	0x3f7fbb7f	0.9989547
69	0x3f7f26a8	0.9966836
70	0x3f7fa0a6	0.99854505
71	0x3f80111d	1.0005223
72	0x3f800579	1.000167
73	0x3f7ebb81	0.9950486
74	0x3f7f8837	0.9981722
75	0x3f7f7cc6	0.99799764
76	0x3f8026a6	1.0011795
77	0x3f7f6545	0.997639
78	0x3f7f1a13	0.9964916
79	0x3f7dc53a	0.9912907
80	0x3f7f4f0d	0.99729997
81	0x3f7ed909	0.9954992
82	0x3f803007	1.0014657
83	0x3f801f19	1.000949
84	0x3f7f7bba	0.99798167
85	0x3f7fcd6e	0.99922836
86	0x3f7fe299	0.99955136
87	0x3f80183b	1.0007395
88	0x3f7f9526	0.9983696
89	0x3f801620	1.0006752
90	0x3f7ffc0f	0.99993986
91	0x3f7f49a4	0.9972174
92	0x3f800970	1.000288
93	0x3f7f3f86	0.99706304
94	0x3f7fb39b	0.9988343
95	0x3f7f2e05	0.99679595
96	0x3f8022a8	1.0010576
97	0x3f7f859c	0.99813247
98	0x3f7f80d6	0.99805963
99	0x3f7fdc07	0.9994511
100	0x3f7eb242	0.9949075
101	0x3f7ed2b8	0.9954028
102	0x3f7fd185	0.99929076
103	0x3f7ff1cb	0.9997832
104	0x3f7fc6b5	0.9991258
105	0x3f7fc8e3	0.99915904
106	0x3f7f851c	0.99812484
107	0x3f801ec1	1.0009385
108	0x3f7ff085	0.9997638
109	0x3f8019a9	1.0007831
110	0x3f7fe565	0.99959403
111	0x3f7e91ae	0.9944104
112	0x3f7f994f	0.99843305
113	0x3f7fedcf	0.9997224
114	0x3f7e8c1c	0.9943254
115	0x3f7ffb06	0.99992406
116	0x3f8008d9	1.00027
117	0x3f7fe435	0.9995759
118	0x3f7f39e7	0.99697727
119	0x3f7fdcd6	0.99946344
120	0x3f7e8fdc	0.9943826
121	0x3f7fa298	0.99857473
122	0x3f7ff0ad	0.9997662
123	0x3f7e0269	0.9922243
124	0x3f7fed66	0.99971616
125	0x3f8003dd	1.0001179
126	0x3f801d9f	1.000904
127	0x3f7cd540	0.98762894

bn2.bias f4 [128]
0	0x3aa745ab	0.0012761852
1	0xbc343981	-0.011000038
2	0xbaa87308	-0.0012851665
3	0x3c889efa	0.016677368
4	0x3b34f2e9	0.0027610606
5	0x3c42c57c	0.011887904
6	0xbb713e49	-0.0036810806
7	0xbc65ab8e	-0.014017953
8	0xbb93ef86	-0.0045146374
9	0x3c48d41c	0.012257602
10	0x3adef7ad	0.0017011069
11	0x3bfbd638	0.007685449
12	0x3c304855	0.010759433
13	0x3c7e77c6	0.015531486
14	0x3c279840	0.01022917
15	0xbbc67d32	-0.006057405
16	0xbb828487	-0.0039830836
17	0x3c4c255b	0.012460078
18	0xbb9600c8	-0.00457773
19	0xbc54de74	-0.01299249
20	0x3b47a776	0.0030464805
21	0xbb8b40e6	-0.00424968
22	0xbb76569d	-0.0037588247
23	0xba99c232	-0.0011730848
24	0x3b9d5c62	0.0048022727
25	0xbbaa1dcf	-0.0051915417
26	0xbc3aa103	-0.011390927
27	0xbbe43b19	-0.006965053
28	0xbb2eda79	-0.0026680513
29	0x3acb5a2a	0.0015514542
30	0x3b31023f	0.0027009395
31	0xbb365509	-0.002782168
32	0x3c3ea77a	0.011636609
33	0x3c5412da	0.012943948
34	0x3c2eb48c	0.010663163
35	0xbb908cd3	-0.004411319
36	0x3c0e89cc	0.0086998455
37	0xbb2a1dc7	-0.002595769
38	0x3c638d1e	0.013888625
39	0x3bc13502	0.0058962116
40	0x3bd0d6ed	0.0063732774
41	0xbc0b428b	-0.008499752
42	0x3b973a89	0.004615132
43	0xba0d513a	-0.0005390827
44	0x3c1c4f7c	0.009540435
45	0x3ab96613	0.00141448
46	0x397be4fd	0.0002402253
47	0x3c1facee	0.0097458195
48	0x3a1b18ef	0.0005916496
49	0x3a1de74d	0.0006023541
50	0x3ac37be1	0.0014914238
51	0xbc2c2587	-0.010506994
52	0x3b449bc9	0.0030000082
53	0xbbb6de4c	-0.005580699
54	0xbc160124	-0.009155545
55	0xbc71c4e1	-0.014756412
56	0x3bb67665	0.005568313
57	0x3c45ca52	0.012072163
58	0x3c725120	0.0147898495
59	0x3c992525	0.01869447
60	0x3b1d8a4c	0.002403873
61	0xbc076259	-0.008263194
62	0xbbfdac35	-0.007741476
63	0x3c60fd00	0.013732195
64	0xbbd76fc3	-0.0065746023
65	0xbc50bae2	-0.012739869
66	0xb9fb0da9	-0.00047884628
67	0xbbaf3910	-0.0053473786
68	0xbc18cca5	-0.009326135
69	0xbb9898ec	-0.0046569016
70	0xbbf18ab3	-0.0073712706
71	0xbacc7d26	-0.0015601262
72	0xbb1ae6d1	-0.0023636112
73	0x3bca6dcd	0.00617764
74	0xbb073f9c	-0.002063728
75	0x3be0e485	0.006863179
76	0xba2661ff	-0.0006347
77	0xbc6172ab	-0.013760249
78	0x3bee843b	0.0072789467
79	0xbc72e4f4	-0.0148250945
80	0xbbcd2931	-0.006261014
81	0x3c791fbd	0.015205321
82	0xba4ecbcd	-0.0007888645
83	0xbbb55557	-0.005533855
84	0xbc313213	-0.010815161
85	0xbb28b8eb	-0.0025744985
86	0xbad90305	-0.0016556686
87	0x3ba301e6	0.0049745915
88	0xbc14b2c5	-0.009075825
89	0xbbbdfd75	-0.0057980367
90	0x3b6844c5	0.003544138
91	0xbc21e9a7	-0.009882367
92	0x3b807666	0.003920364
93	0x3c5f1998	0.013616942
94	0x3b618874	0.0034413608
95	0x3c1fe616	0.009759447
96	0xba838c6d	-0.0010036357
97	0x3b546d09	0.0032413623
98	0x3bba1d17	0.0056797373
99	0x3b781694	0.0037855254
100	0x3c3055ca	0.010762641
101	0xbc471a2a	-0.012152234
102	0xbba3ff40	-0.0050047934
103	0xbb5033ff	-0.0031769273
104	0x3bb9d099	0.0056706187
105	0x3b108165	0.0022049781
106	0xbbd3a6a9	-0.0064590764
107	0x3a58c71f	0.00082694174
108	0xbae4aef1	-0.0017447156
109	0x3808f2ac	3.2650933e-05
110	0xba6fbe5f	-0.0009145494
111	0xbc4c0b35	-0.012453844
112	0x3b717d4d	0.0036848367
113	0xbaf17181	-0.0018420668
114	0xbba20b96	-0.004945229
115	0x3b9733d5	0.004614333
116	0xb9dd9fe3	-0.0004227153
117	0x3b739c44	0.0037172
118	0x3be5595a	0.006999177
119	0x38c60eb7	9.4441166e-05
120	0xbc7468a9	-0.014917531
121	0xbb0e73cd	-0.0021736503
122	0x3b2e6438	0.0026610028
123	0xbc879bf6	-0.01655386
124	0x3b02416b	0.0019875418
125	0x3ad5ae5b	0.0016302572
126	0xba5947c3	-0.00082885864
127	0xbcbfc908	-0.023411289

bn2.running_mean f4 [128]
0	0x3cc479e8	0.02398391
1	0xbc11926b	-0.008885006
2	0xbcf15ddb	-0.0294637
3	0x3d3ded2a	0.046368755
4	0xbc878cbe	-0.016546603
5	0x3d419bb7	0.047267642
6	0xbbea57ff	-0.0071516032
7	0xbd20b134	-0.039231494
8	0x3cb19908	0.021679416
9	0x3bfdfa7c	0.0077508073
10	0xbc781466	-0.015141582
11	0x3d2af284	0.041735187
12	0xbbcd3022	-0.0062618414
13	0x3d0ac80c	0.033882186
14	0x3d29d0fb	0.041459065
15	0x3c747514	0.014920492
16	0xbd057754	-0.032584503
17	0x3c6b8f4b	0.014377425
18	0xbc95890e	-0.01825383
19	0xbd1bf040	-0.038070917
20	0xbcaf0697	-0.021365447
21	0x3b5ceed4	0.0033711689
22	0xbd3bdf4a	-0.045867242
23	0xbcb1ac46	-0.021688592
24	0x3cbacb63	0.02280206
25	0xbb9e2505	-0.0048261904
26	0xbc47fe02	-0.012206556
27	0xbcc0c609	-0.02353193
28	0xbbcecac4	-0.0063107926
29	0x3ca8929c	0.020577721
30	0x3bc408af	0.0059824805
31	0xbd556f16	-0.052107893
32	0x3d07b200	0.03312874
33	0xbc1d8f4c	-0.009616684
34	0xbc53d6b3	-0.012929606
35	0x3c99da38	0.018780813
36	0x3d62097b	0.055184823
37	0x3c8633a0	0.016382039
38	0x3d82c294	0.06384769
39	0x3b92ab7c	0.004476009
40	0x3bd16cd2	0.006391146
41	0xbc643c9c	-0.013930466
42	0x3cdf0139	0.027222263
43	0xbc61c97e	-0.01378095
44	0x3d0fdbff	0.035121914
45	0x3d4b685f	0.049660083
46	0xbc6d83da	-0.014496768
47	0x3b54f2ce	0.0032493356
48	0x3cbcde25	0.023055146
49	0xbced0f5a	-0.028937984
50	0x3bb18805	0.005417826
51	0x3c1734c0	0.009228885
52	0x3d5dcf49	0.05415276
53	0xbd744476	-0.059635602
54	0x3c8e42de	0.01736587
55	0xbc6dc782	-0.014512898
56	0xbc0a8ee0	-0.008456916
57	0x3b17e259	0.0023175685
58	0xb977f2c2	-0.0002364619
59	0x3cacf332	0.021112058
60	0x3cea396a	0.02859183
61	0x3c91dd57	0.017805738
62	0xbbaf0ea9	-0.005342324
63	0x3d8299f7	0.06377023
64	0xbd7961ad	-0.060884167
65	0xbd47c891	-0.04877526
66	0xbd1edc6c	-0.03878443
67	0xbb2c10af	-0.0026255061
68	0xbcb20498	-0.021730706
69	0xbd0c3313	-0.034228396
70	0xbc332ece	-0.010936452
71	0xbce989f2	-0.02850816
72	0x3ba2b173	0.0049650013
73	0xbc916d5f	-0.017752348
74	0xbd031c43	-0.032009374
75	0x3d5c0d7b	0.053723793
76	0x3d887608	0.06663138
77	0xbd3ecc7e	-0.046581738
78	0x3cab5d82	0.020918611
79	0xbbf18f37	-0.007371809
80	0xbd0c1ecd	-0.03420906
81	0x3c8a33f0	0.016870469
82	0xbc262588	-0.010140784
83	0xbc7a51b7	-0.015278271
84	0xbd2046ae	-0.039129905
85	0x3beedac1	0.007289261
86	0xbc005c4d	-0.007834506
87	0xbcca6601	-0.024706842
88	0xbcbd725e	-0.023125824
89	0x3c800d90	0.015631467
90	0x3d2ce500	0.04221058
91	0xbc885cba	-0.016645778
92	0x3ce80af3	0.028325533
93	0x3d6f5c01	0.05843735
94	0xbcef1ad1	-0.029187592
95	0x3d0ec29f	0.034853574
96	0xbd704312	-0.058657713
97	0x3c9473ee	0.018121686
98	0xbc8432a8	-0.016137436
99	0xbc85c743	-0.016330367
100	0x3c9ea20b	0.019364377
101	0xbd1d8db8	-0.03846523
102	0xbc994d3f	-0.018713592
103	0xbc6a6427	-0.014306105
104	0x3d472264	0.04861678
105	0xbc0d8c00	-0.008639336
106	0xbcadef59	-0.021232294
107	0x3c9c4d9e	0.01907998
108	0xbbc54172	-0.0060197646
109	0x3bf6c8b3	0.0075312494
110	0xbc154ce7	-0.009112573
111	0xbc956352	-0.018235836
112	0xbc01d95f	-0.00792536
113	0xbd6d8654	-0.057989433
114	0xba4ccb4a	-0.0007812275
115	0x3c9a6146	0.018845212
116	0x3c5e111e	0.013553886
117	0x3c3c885c	0.01150712
118	0x3c5a3304	0.013317827
119	0xbd378d6a	-0.044812597
120	0xbca1c845	-0.019748816
121	0x3b0df49c	0.002166069
122	0x3ba05ded	0.0048940093
123	0xbcb36193	-0.021897113
124	0x3d0927cd	0.033485223
125	0xbbe8f431	-0.007109188
126	0xbc2e7ea6	-0.0106503125
127	0xbd1a27d3	-0.037635636

bn2.running_var f4 [128]
0	0x3e383697	0.17989574
1	0x3e4e1fdb	0.2012934
2	0x3e73bff7	0.23803698
3	0x3e505a36	0.20346913
4	0x3e3adc06	0.18247995
5	0x3e83005c	0.25586212
6	0x3e159dcb	0.14610974
7	0x3e77fe1c	0.24218029
8	0x3e4c20dd	0.19934411
9	0x3e342e77	0.1759585
10	0x3e22e0db	0.15906088
11	0x3e350145	0.17676266
12	0x3e15589e	0.14584586
13	0x3e3d231e	0.18470427
14	0x3e57f7f2	0.21090677
15	0x3e1471a6	0.14496478
16	0x3e1d3ffb	0.15356438
17	0x3e340a7a	0.17582121
18	0x3e354804	0.17703253
19	0x3e523ab7	0.2053021
20	0x3e41a868	0.18911898
21	0x3e28efb7	0.16497694
22	0x3e43dc3d	0.19126983
23	0x3e2b9e69	0.16759647
24	0x3e2c8dad	0.1685092
25	0x3e701f8d	0.23449536
26	0x3e27cd10	0.16386819
27	0x3e449e64	0.19201046
28	0x3e56c5ef	0.20973943
29	0x3e3de034	0.18542558
30	0x3e284374	0.16431981
31	0x3e654410	0.22389245
32	0x3e47ebcd	0.19523545
33	0x3e5260ef	0.2054479
34	0x3e28dbd7	0.16490112
35	0x3e3d97bc	0.18514913
36	0x3e4ea826	0.20181331
37	0x3e22affe	0.15887448
38	0x3e578abd	0.21049018
39	0x3e52cda9	0.20586266
40	0x3e0ed03d	0.13946624
41	0x3e290935	0.16507418
42	0x3e861fae	0.26196045
43	0x3e1f2050	0.1553967
44	0x3e528523	0.205586
45	0x3e7af659	0.24508037
46	0x3e4c9962	0.19980386
47	0x3e158c52	0.14604309
48	0x3e76b3af	0.24091981
49	0x3e5c8cf4	0.21538144
50	0x3e3acea2	0.18242887
51	0x3e1dcd3c	0.15410322
52	0x3e7d7cf8	0.24754703
53	0x3e94b244	0.29042256
54	0x3e11f323	0.14252906
55	0x3e32a9e0	0.17447615
56	0x3e6fab5e	0.23405215
57	0x3e36eb9a	0.17863312
58	0x3e361735	0.1778229
59	0x3e1c3ef7	0.15258394
60	0x3e4dc717	0.20095478
61	0x3e506ee3	0.203548
62	0x3e1d320f	0.15351127
63	0x3e1d574b	0.15365331
64	0x3e7676fd	0.24068828
65	0x3e88d38a	0.26723891
66	0x3e21663e	0.15761659
67	0x3e6d0860	0.23147726
68	0x3e5fef07	0.21868525
69	0x3e604349	0.21900667
70	0x3e3e674c	0.18594092
71	0x3e5e999a	0.21738282
72	0x3e35b9e8	0.17746699
73	0x3e48000e	0.19531271
74	0x3e33bc68	0.1755234
75	0x3e929ae7	0.28633806
76	0x3e9c1bee	0.3049006
77	0x3e662164	0.22473675
78	0x3e317504	0.17329794
79	0x3e38cfe9	0.18048061
80	0x3e7327df	0.23745678
81	0x3e34a392	0.17640522
82	0x3e3ce78e	0.18447706
83	0x3e4d28af	0.20035051
84	0x3e4bd1c8	0.19904244
85	0x3e67f733	0.22652893
86	0x3e54ee21	0.20793964
87	0x3e58b268	0.21161807
88	0x3e47104e	0.19439813
89	0x3e6c7a65	0.23093565
90	0x3e6e214b	0.23254888
91	0x3e47ae14	0.195
92	0x3e57041e	0.20997664
93	0x3e5a4f60	0.21319342
94	0x3e267ce1	0.16258575
95	0x3e7601a6	0.24024066
96	0x3e4c9fb4	0.19982797
97	0x3e7266f0	0.2367208
98	0x3e508633	0.20363693
99	0x3e371824	0.17880303
100	0x3e246c73	0.16056995
101	0x3e5a92d6	0.21345076
102	0x3e5251c6	0.20539007
103	0x3e41c5c5	0.189231
104	0x3e8b11eb	0.27162108
105	0x3e1932e7	0.14960824
106	0x3e4bb1e5	0.1989208
107	0x3e56b534	0.20967561
108	0x3e3f5e95	0.18688424
109	0x3e0aee86	0.13567552
110	0x3e1c9333	0.15290527
111	0x3e46df12	0.19421032
112	0x3e47411a	0.19458428
113	0x3e3dedb8	0.18547714
114	0x3e5d31cd	0.21601029
115	0x3e21b5a4	0.15791947
116	0x3e382b5f	0.17985295
117	0x3e17797c	0.14792436
118	0x3e1bea94	0.15226203
119	0x3e58eaa8	0.21183264
120	0x3e45efcf	0.19329761
121	0x3e22a004	0.15881354
122	0x3e3d403c	0.18481535
123	0x3e41617f	0.18884848
124	0x3e9103a6	0.28323096
125	0x3e71adf0	0.23601508
126	0x3e7045e9	0.23464169
127	0x3e56b6aa	0.20968118

hidden3.weight f4 [16, 128]
0	0xbd98d881	-0.0746317
1	0xbd74a069	-0.05972329
2	0xbd0d067e	-0.03443002
3	0xbd4f7a14	-0.050653532
4	0x3d7e6d1e	0.06211578
5	0xbd6076ce	-0.0548008
6	0xbd0df12a	-0.03465382
7	0x3d73f1c2	0.05955673
8	0xbd7103d2	-0.058841534
9	0x3d4c94ab	0.04994647
10	0xbdc0360f	-0.09385311
11	0xbd88eb45	-0.06685499
12	0xbd8d7f0b	-0.06908997
13	0xbd35a660	-0.04434812
14	0x3d42a4ad	0.04752033
15	0x3cdfff44	0.0273434
16	0xbb77273b	-0.0037712592
17	0x3d869e50	0.065731645
18	0xbd980f71	-0.0742482
19	0xbcd0636a	-0.02543803
20	0x3d2f0282	0.042727
21	0x3d0186b9	0.031622622
22	0xbd1dbee6	-0.038512133
23	0x3d73502c	0.05940263
24	0xbd8e036c	-0.069342464
25	0x3d8e63c7	0.06952625
26	0x3d8d3726	0.06895284
27	0x3d7dd747	0.061972883
28	0x3d528c8c	0.051403567
29	0xbd0c22f9	-0.03421304
30	0xbd16da7a	-0.03682945
31	0xbd760a70	-0.060068548
32	0x3c3d6b2f	0.011561199
33	0x3c8b8b8d	0.017034316
34	0x3bf32ebc	0.0074213427
35	0xbd19e939	-0.037575934
36	0xbcf07067	-0.029350473
37	0x3bed3be5	0.007239806
38	0x38e6752a	0.00010989078
39	0x3da59094	0.08084217
40	0xbc08760f	-0.008328929
41	0x3be082cb	0.0068515292
42	0xbdb5a886	-0.08870034
43	0x3cc5ae2c	0.024130903
44	0xbb405f3e	-0.0029353644
45	0xbca5f37c	-0.020257704
46	0x3d52bae1	0.051447753
47	0xbcd1bf69	-0.025603967
48	0xbbefff8a	-0.007324164
49	0x3b11f8f7	0.0022273639
50	0x3d7125e4	0.058874026
51	0x3c3eaa59	0.011637294
52	0x3d448144	0.04797484
53	0x3da0b4b1	0.07846964
54	0x3c8c1a62	0.017102424
55	0x3ccd95d9	0.025095867
56	0xbd9f80e3	-0.07788255
57	0xbd2c0c1b	-0.042003732
58	0xbd9cfb7d	-0.07665155
59	0x3b4a163a	0.0030836002
60	0xbcf67e4f	-0.030089526
61	0xbbd34cb9	-0.006448355
62	0xbd670b84	-0.056407467
63	0x3c79b597	0.015241048
64	0x3d0a5eb0	0.033781707
65	0xbd836613	-0.064159535
66	0x3d82f31e	0.06394027
67	0xbd68a90b	-0.056801837
68	0xbd687eb3	-0.056761455
69	0x3d973fb8	0.073852
70	0x3c892718	0.016742274
71	0xbd80628e	-0.06268798
72	0x3da0293a	0.07820363
73	0xbc42fd44	-0.011901204
74	0xbd52561d	-0.051351655
75	0x3d696c40	0.056988
76	0xbdb501e4	-0.08838251
77	0xbc2ac35d	-0.010422555
78	0xbcdde107	-0.02708484
79	0x3bf0b481	0.0073457365
80	0x3d3f2edf	0.04667556
81	0xbd88553c	-0.06656882
82	0x3d29a5c1	0.04141784
83	0xbc479e61	-0.012183757
84	0xbd439d05	-0.047757167
85	0x3d887ce8	0.06664449
86	0xbda7fde1	-0.082027204
87	0xbc4d4143	-0.012527767
88	0x3d25b805	0.040458698
89	0xbcf76c84	-0.030203111
90	0xbdb424b1	-0.08796061
91	0x3d06ec98	0.032940477
92	0x3b52f344	0.0032188455
93	0x3d43f38f	0.047839697
94	0x3c4e78c3	0.012602034
95	0xbd864263	-0.06555631
96	0x3d989b29	0.074514695
97	0xbcf39836	-0.029735666
98	0xbd932367	-0.07184487
99	0xbda18422	-0.078865305
100	0xbd278bc1	-0.040904764
101	0xbd8b3e95	-0.06799046
102	0xbd6cc0a7	-0.057800915
103	0x3d743abc	0.059626326
104	0x3d018e93	0.03163011
105	0x3d05dce5	0.032681365
106	0x3a13fdc8	0.00056454213
107	0x3d84944a	0.064735964
108	0xbcf66707	-0.030078424
109	0xbda92774	-0.08259478
110	0xbc0603ef	-0.008179649
111	0x3c051483	0.008122566
112	0xbd4455cc	-0.047933385
113	0xbd41c543	-0.047307264
114	0x3c73d67c	0.01488268
115	0xbd427c1c	-0.04748164
116	0x3b988e19	0.0046556112
117	0x3bcccfde	0.0062503656
118	0xbd908089	-0.07055766
119	0x3dbbde83	0.091733
120	0x3d4e1c3f	0.050319906
121	0x3d31b231	0.043382827
122	0xbd9d18a7	-0.07670718
123	0xba912fde	-0.0011076888
124	0xbd316ba3	-0.04331554
125	0xbd4ff29a	-0.050768472
126	0x3bcf4482	0.0063253054
127	0x3d0c6241	0.03427339
128	0x3ceafa72	0.028683875
129	0xbc10f3ff	-0.008847236
130	0x3d828346	0.06372695
131	0xbda76ab0	-0.08174646
132	0xbd21f67a	-0.0395417
133	0xbd6d4b19	-0.057932947
134	0x3d3ac271	0.04559559
135	0xbc5bd10d	-0.013416541
136	0x3d3181b6	0.043336593
137	0xbce3a499	-0.027788447
138	0xbccd649a	-0.025072385
139	0x3d4f5094	0.050613955
140	0xbdd65fc9	-0.10467488
141	0xbd050194	-0.03247221
142	0xbd08c8d0	-0.033394635
143	0x3c08efec	0.008357983
144	0x3c4d3fc6	0.012527412
145	0xbb239df8	-0.0024965983
146	0xbbaeae4c	-0.0053308364
147	0xbd4daa0f	-0.05021101
148	0xbd2e7a10	-0.042596877
149	0x3d0a8e3a	0.033827044
150	0x3d2f5ee0	0.04281509
151	0xbcf639f3	-0.03005693
152	0xbda18af3	-0.078878306
153	0x3da69007	0.0813294
154	0x3d48d8a7	0.04903474
155	0x3c364420	0.011124641
156	0x3b5642e1	0.0032693672
157	0xbbd8b043	-0.006612809
158	0x3d1ce3d8	0.038303226
159	0xbd9d3a4d	-0.076771356
160	0xbdb4db42	-0.088308826
161	0xbd95d5d8	-0.07316178
162	0xbdea0cee	-0.114282474
163	0x3d923b75	0.07140247
164	0xbd590d49	-0.052991185
165	0xbb826622	-0.0039794603
166	0x3d3d9699	0.0462862
167	0xbd672b95	-0.056438047
168	0xbbc97293	-0.0061476915
169	0xbd8fe0ee	-0.07025324
170	0x3c1c7adf	0.009550779
171	0xbc34ffb5	-0.011047293
172	0x3d8d8932	0.069109336
173	0x3d9460db	0.07245036
174	0xbd26a0ba	-0.040680625
175	0xbd9fd2a4	-0.078038484
176	0x3dd716f4	0.10502425
177	0xbd6e6fea	-0.0582122
178	0xbdc01f4c	-0.093809694
179	0x3d7fbf9a	0.062438585
180	0xbcbd3519	-0.023096608
181	0x3cc403c7	0.023927582
182	0x3d22d259	0.039751384
183	0xbc8afc20	-0.016965926
184	0xbc744e15	-0.014911194
185	0x3d2f8730	0.042853534
186	0x3d94cd37	0.07265704
187	0xbcfdbb87	-0.030973209
188	0xbd581681	-0.052755836
189	0x3c6608ec	0.014040213
190	0x3df9ba5e	0.1219375
191	0xbd850945	-0.06495909
192	0xbd4d85c7	-0.05017641
193	0x3d9a057c	0.07520577
194	0xbd887832	-0.066635504
195	0x3d3b9895	0.04579981
196	0x3d5c968f	0.05385452
197	0xbd20a159	-0.039216373
198	0xbd2fe515	-0.04294308
199	0x3cd33719	0.025783109
200	0xbd44241a	-0.04788599
201	0x3c1ee58f	0.009698286
202	0x3be94a54	0.0071194563
203	0x3b75f617	0.0037530714
204	0x3d8fc270	0.07019508
205	0xbd3781a8	-0.044801384
206	0xbd08a40c	-0.033359572
207	0xbc461fe2	-0.012092562
208	0xbd1a293a	-0.037636973
209	0xbd7a45d1	-0.06110174
210	0xbd9f9b27	-0.07793265
211	0xbd3cf444	-0.046131387
212	0xbcef9c25	-0.02924926
213	0x3ba3dcbb	0.0050006784
214	0x3d265557	0.04060873
215	0xbbcf890d	-0.0063334764
216	0x3d5db6f4	0.054129556
217	0x3d9029cb	0.070392214
218	0x3d3af25b	0.045641284
219	0x3d7cf1c1	0.061753992
220	0xbdcfb59f	-0.10142063
221	0xbd8adb4f	-0.06780111
222	0x3d5f3dff	0.054502483
223	0xbcbdd164	-0.023171134
224	0xbd314974	-0.04328294
225	0xbd585577	-0.05281588
226	0x3d87cddf	0.06631064
227	0xbd91edab	-0.0712541
228	0x3c3b782d	0.011442226
229	0x3d873a99	0.066029735
230	0x3cd2dc67	0.025739862
231	0x3cd9ac14	0.026571311
232	0xbc99a38b	-0.018754741
233	0x3c69886e	0.014253719
234	0xbd07b3e0	-0.033130527
235	0x3d8aa373	0.06769457
236	0x3be245b3	0.0069052815
237	0x3d34f80c	0.04418187
238	0x3cb5ffe1	0.02221674
239	0xbcce1fb9	-0.02516161
240	0x3db93d63	0.09044912
241	0xba9d075d	-0.0011980344
242	0xbcf52708	-0.029925838
243	0x3d2732f1	0.040820066
244	0x3ccb9111	0.024849446
245	0xbd36b8a5	-0.044609684
246	0xbd89e791	-0.06733621
247	0xbcb83dbe	-0.022490378
248	0xbd1b64ce	-0.03793793
249	0x3b876221	0.004131571
250	0x3d056502	0.03256703
251	0x3d1e8d79	0.038709138
252	0xbcb99456	-0.02265374
253	0x3cd1134f	0.025521902
254	0x3dd6b8db	0.10484477
255	0x3b169b3e	0.0022980715

bn3.weight f4 [16]
0	0x3f7e9478	0.99445295
1	0x3f6fcaec	0.9366901
2	0x3f7ede12	0.995576
3	0x3f76ea36	0.9645113
4	0x3f76c943	0.9640085
5	0x3f7e94e9	0.9944597
6	0x3f6b0e6d	0.91818887
7	0x3f7c7e30	0.98630047
8	0x3f6fd7e3	0.9368879
9	0x3f746ea6	0.95481336
10	0x3f6e8ddd	0.93185216
11	0x3f6f27c8	0.93420076
12	0x3f7a0880	0.9766922
13	0x3f7b232b	0.9810054
14	0x3f7ed2de	0.9954051
15	0x3f7fa140	0.9985542

bn3.bias f4 [16]
0	0xbdb5ad34	-0.088709265
1	0xbea60c4b	-0.32431254
2	0xbdaa6dd0	-0.08321726
3	0x3e661303	0.2246819
4	0x3e6d0c19	0.23149146
5	0x3da1ae50	0.078945756
6	0x3ebca93d	0.3684787
7	0x3e09122d	0.1338584
8	0xbeae1d9b	-0.34006962
9	0xbeaefe37	-0.34178326
10	0x3eb07ea6	0.34471625
11	0x3f012988	0.50453997
12	0xbe505cbf	-0.2034788
13	0xbe1fec4f	-0.15617488
14	0x3dc21941	0.09477473
15	0x3c99fd82	0.01879764

bn3.running_mean f4 [16]
0	0xbca03c64	-0.019560046
1	0x3b297186	0.0025855019
2	0xbce0d9bc	-0.027447574
3	0xba825b89	-0.0009945492
4	0xbcb5d8cc	-0.022198103
5	0x3bec5c9e	0.0072131893
6	0x3d1ddfea	0.03854362
7	0xbc1fd150	-0.009754494
8	0x3c827330	0.015924066
9	0xbd94f67c	-0.07273576
10	0xbc13323d	-0.008984146
11	0x3d97aa78	0.07405561
12	0x3c4c7b24	0.012480531
13	0xbc868e4f	-0.01642528
14	0x3b78541d	0.0037891932
15	0x3af33b9a	0.0018557191

bn3.running_var f4 [16]
0	0x3e92a690	0.28642702
1	0x3eeca3e8	0.462188
2	0x3ea3151c	0.31852043
3	0x3eb8d571	0.36100343
4	0x3eb17cbc	0.34665477
5	0x3e8d01a8	0.27540326
6	0x3ee0483e	0.43805116
7	0x3e95ac58	0.2923305
8	0x3f0e1957	0.55507416
9	0x3f51d38d	0.81963426
10	0x3ee81520	0.45328617
11	0x3f6eee60	0.9333248
12	0x3eaa21f9	0.33229044
13	0x3e9ec4c3	0.31009492
14	0x3e836194	0.25660384
15	0x3e58168f	0.21102355

output.weight f4 [1, 16]
0	0x3de983ae	0.11402069
1	0x3ebbb2a3	0.36659727
2	0x3dd2b2ac	0.10287985
3	0xbe7b65a8	-0.24550498
4	0xbe873a6f	-0.2641177
5	0xbdfad921	-0.12248445
6	0xbec77400	-0.38955688
7	0xbe366fca	-0.17816082
8	0x3ed89ae5	0.42305675
9	0x3ed39b9d	0.4132966
10	0xbec97fd1	-0.3935533
11	0xbf2650e1	-0.6496716
12	0x3e7655b7	0.24056135
13	0x3e20585b	0.15658705
14	0xbd5183e1	-0.05115116
15	0x3cfc7728	0.030818537
