models/focal_loss_checkpoints/checkpoint_epoch_470.pth (torch, 43410 bytes, 16 tensors)

hidden1.weight f4 [128, 30]
-0.15395182 0.054990273 0.14653178 -0.13321646 0.19994912 -0.17096731 0.04942782 0.024228742
-0.03203682 -0.0659972 -0.20444778 0.032977935 -0.10971465 -0.05168121 0.05418673 0.04925449
-0.17967668 -0.08488314 0.16026437 0.037256725 -0.04677532 0.078990005 0.17452364 -0.08232394
0.14204541 -0.017607264 0.030851074 -0.18107857 -0.13716257 -0.13119319 -0.1433399 -0.18043692
-0.06878042 0.038906306 0.12237047 0.06853763 -0.16356951 0.15813607 0.024917578 -0.1711384
0.15984176 -0.15128513 0.1734039 0.12531044 -0.18219602 -0.07104919 0.1160583 0.027931584
0.012394298 -0.0555137 -0.13993055 -0.10167562 0.06727636 -0.16115226 -0.16947927 0.114949144
-0.0137056755 0.18082936 -0.043982953 0.016595589 0.0064127035 0.14728117 0.16692409 0.002409118
-0.027026292 0.07669169 -0.0708612 0.005549548 -0.0038363126 0.18294804 0.1083875 -0.13947281
-0.028934227 -0.09541133 0.04127043 0.07654274 -0.0031000234 -0.028357547 0.18350644 0.113340564
-0.044744216 0.13162225 0.13673156 -0.10045198 0.0816894 -0.16880547 0.1565917 0.1288891
-0.11786043 -0.08065118 -0.02060468 -0.050345086 0.14854349 0.05927268 0.010258117 0.036741756
-0.15871601 0.0009746579 -0.09951109 0.018226998 -0.081917025 0.054970246 0.07340672 -0.10762382
0.14156911 -0.09393746 0.17578204 0.08687144 -0.17435004 -0.089680955 0.017607758 0.14853296
0.0019833986 -0.113157704 0.020573556 0.17559841 0.1460514 0.11735619 -0.020551166 -0.013896363
-0.10247982 0.18128842 -0.112012915 -0.17944804 -0.110957116 0.15521227 0.054143667 -0.016041692
0.16712779 -0.05012687 0.13411908 0.20454533 -0.15603232 -0.08060277 -0.13705534 0.018763721
0.06447055 0.076830335 0.02024115 0.16720212 0.1428761 0.14581579 0.16778827 -0.14915751
0.039484054 -0.059560735 0.11245667 -0.11747 0.099277005 -0.030707506 -0.050130177 -0.12241427
0.10860416 0.0614685 -0.106060795 0.07293814 -0.1505109 0.12670222 0.09687178 -0.14782624
0.11725545 -0.15516748 0.031067297 -0.07203662 0.048829503 0.03220609 0.037818566 0.07546631
0.029782243 0.066519074 -0.09029027 0.09536369 0.11926399 -0.04369437 -0.15181631 0.07777033
-0.025740063 0.08009213 -0.099861145 -0.037656955 -0.029096251 -0.10155848 -0.12348546 -0.06383182
-0.058756556 -0.085403085 -0.056810506 -0.059854057 0.0031231896 0.111709036 -0.03195936 -0.123132445
-0.1699931 -0.12350321 0.024304114 0.078493305 0.09371016 -0.18305618 0.05242262 0.17230985
0.12729895 0.09205521 0.16101715 0.04918064 0.10126148 -0.0056901216 -0.031268306 0.13505727
-0.17751443 -0.15883029 0.13296962 -0.10720223 0.020855574 -0.11936113 -0.0009800529 -0.163479
-0.07550553 0.2293715 0.052699246 0.047447693 -0.108425744 -0.033795968 0.03064105 -0.08312536
0.05350212 0.09958416 0.17596619 -0.005987472 0.0072638416 0.08344535 0.046667185 -0.00370825
-0.11846974 0.15415628 -0.16297103 -0.04080002 -0.11002928 0.015783899 0.035535026 0.14401641
-0.0061948826 -0.14426203 -0.12202917 0.16195841 0.09017239 0.085882716 0.018818708 0.0460844
0.011569489 0.055230834 -0.031266302 0.04356258 0.039430443 -0.0006026257 0.120621696 0.07398909
00000000: 8ca5 1dbe 7b3d 613d 6d0c 163e e569 08be
00000010: 76bf 4c3e 0e12 2fbe d374 4a3d 5b7b c63c
00000020: 0a39 03bd 8a29 87bd c25a 51be df13 073d
00000030: 13b2 e0bd adaf 53bd e8f2 5d3d 13bf 493d
00000040: 2afd 37be 36d7 adbd 581c 243e 829a 183d
00000050: 7a97 3fbd 83c5 a13d 53b6 323e 7499 a8bd
00000060: 5a74 113e 1c3d 90bc 64bb fc3c a96c 39be
00000070: 5874 0cbe 8257 06be b2c7 12be 75c4 38be
00000080: c0dc 8cbd 385c 1f3d 5e9d fa3d 755d 8c3d
00000090: c47e 27be 6cee 213e f31f cc3c e83e 2fbe
000000a0: 8fad 233e 7dea 1abe cb90 313e 6151 003e
000000b0: 9891 3abe 3d82 91bd f9af ed3d c7d0 e43c
000000c0: 7411 4b3c 5562 63bd f449 0fbe 4f3b d0bd
000000d0: 30c8 893d 1905 25be f98b 2dbe 756a eb3d
000000e0: c58d 60bc 552b 393e 7827 34bd 79f3 873c
000000f0: a821 d23b e0d0 163e 26ee 2a3e 4be2 1d3b
00000100: 3e66 ddbc 8810 9d3d ad1f 91bd fcd8 b53b
00000110: a56a 7bbb bb56 3b3e 44fa dd3d f6d1 0ebe
00000120: 7907 edbc 0467 c3bd 2f0b 293d 71c2 9c3d
00000130: c329 4bbb 164e e8bc 1de9 3b3e 191f e83d
00000140: b645 37bd fcc7 063e 5c03 0c3e c5b9 cdbd
00000150: c64c a73d 57db 2cbe 9359 203e 81fb 033e
00000160: cf60 f1bd 722c a5bd 25cb a8bc a636 4ebd
00000170: c91b 183e e9c7 723d a911 283c 867e 163d
00000180: 7386 22be 2f80 7f3a 78cc cbbd c950 953c
00000190: 1dc4 a7bd 7b28 613d 4356 963d e169 dcbd
000001a0: 7ef7 103e 4862 c0bd 3500 343e a7e9 b13d
000001b0: d188 32be a6aa b7bd 253e 903c 0619 183e
000001c0: e8fb 013b 3abf e7bd e089 a83c 12d0 333e
000001d0: 808e 153e 7158 f03d eb5a a8bc 92ad 63bc
000001e0: f1e0 d1bd aca3 393e 0767 e5bd 3ac1 37be
000001f0: 7c3d e3bd f7ef 1e3e c0c5 5d3d de69 83bc
00000200: 8c23 2b3e d551 4dbd 8356 093e 5574 513e
00000210: f0c6 1fbe 1113 a5bd 3c58 0cbe 60b6 993c
00000220: 2309 843d 3959 9d3d c5d0 a53c 0837 2b3e
00000230: 1d4e 123e bc50 153e b0d0 2b3e bfbc 18be
00000240: 08ba 213d f5f5 73bd af4f e63d 1d94 f0bd
00000250: be51 cb3d 4f8e fbbc 4d55 4dbd 55b4 fabd
00000260: dc6b de3d 65c6 7b3d 6736 d9bd 9760 953d
00000270: 881f 1abe 3abe 013e b664 c63d c35f 17be
00000280: a023 f03d 39e4 1ebe d880 fe3c ef87 93bd
00000290: 7201 483d 88ea 033d a4e7 1a3d 158e 9a3d
000002a0: e4f9 f33c 273b 883d 1bea b8bd 0a4e c33d
000002b0: ae40 f43d def8 32bd bc75 1bbe 0d46 9f3d
000002c0: d3dc d2bc 5807 a43d 0084 ccbd 2e3e 1abd
000002d0: 435b eebc e4fd cfbd f2e5 fcbd 42ba 82bd
000002e0: b7aa 70bd d0e7 aebd 22b2 68bd 8729 75bd
000002f0: 6dae 4c3b b5c7 e43d d1e7 02bd dd2c fcbd
00000300: ac12 2ebe 40ef fcbd 6c19 c73c 19c1 a03d
00000310: 1deb bf3d 1473 3bbe 1ab9 563d fe71 303e
00000320: a85a 023e 7187 bc3d aee1 243e a471 493d
00000330: 2e62 cf3d 3374 babb 3213 00bd 744c 0a3e
00000340: 58c6 35be 68a4 22be 3029 083e d88c dbbd
00000350: 4fd9 aa3c 9c73 f4bd 1e75 80ba 0a67 27be
00000360: a5a2 9abd 5de0 6a3e 2adb 573d 8358 423d
00000370: 510e debd a46d 0abd f002 fb3c a13d aabd
00000380: 0a25 5b3d c8f2 cb3d 7b30 343e 8e32 c4bb
00000390: 8505 ee3b 65e5 aa3d 1726 3f3d 1c06 73bb
000003a0: 43a0 f2bd 25db 1d3e e1e1 26be ec1d 27bd
000003b0: 0857 e1bd 3c4d 813c 2d8d 113d 0a79 133e
000003c0: 71fe cabb 6db9 13be 6eea f9bd 6dd8 253e
000003d0: 4dac b83d 47e3 af3d b129 9a3c ffc2 3c3d
000003e0: f48d 3d3c ba39 623d 1811 00bd ad6e 323d
000003f0: d181 213d 87f9 1dba 8208 f73d 9887 973d

bn1.weight f4 [128]
0.9742226 1.0140529 1.0141033 1.0051334 0.98840284 1.022011 0.99662 1.0119814
1.0042989 0.99415535 1.0008929 0.9937607 1.0276382 1.0067296 1.0042173 0.98973143
1.0177201 1.0169026 0.99936473 1.0184824 1.0081269 1.0144917 1.0110712 1.0059235
1.0006257 1.0031558 1.0046538 0.98402166 0.99919766 1.0025533 0.9908825 1.0077547
0.9987926 1.0061773 0.9971872 1.0244563 0.9999837 1.0085088 1.0119108 1.0006038
1.0312445 0.99580497 1.00531 0.9935504 0.9648951 1.0126253 0.98666114 1.016405
1.0141859 1.0028467 1.0041947 0.99071866 1.0051298 1.0083321 1.0158408 0.99847686
1.0007812 1.0093005 1.0028934 0.9887423 1.0065306 1.0081726 0.9998227 1.0431962
1.0002604 1.0017847 0.9960892 1.0047479 1.0164182 1.0042758 1.0088204 1.0200815
1.0257808 1.000406 1.0007906 1.0210681 1.0027499 0.9865176 1.0001872 1.0006107
1.0064844 1.01253 1.0144142 1.0058056 1.0079842 1.0066354 1.0006303 1.0007805
1.0153111 1.0143107 1.0063816 1.0005411 1.0182624 0.99068207 1.0097245 1.0031366
1.0002508 1.0060383 1.0260369 1.0106783 0.9911542 1.0117016 0.9951298 1.0039353
1.0206028 1.0119749 1.0071884 1.0314707 1.0398073 0.99374497 1.0063393 1.0125217
1.0227154 0.99915594 0.9927098 1.023027 1.0065287 1.0155554 1.004183 1.0488338
1.0065966 1.0256838 1.0079062 1.0062121 1.0077316 1.0302279 0.9982886 0.98101443
00000000: a766 793f 7ccc 813f 23ce 813f 36a8 803f
00000010: f807 7d3f 42d1 823f 7d22 7f3f 9b88 813f
00000020: de8c 803f f780 7e3f 421d 803f 1a67 7e3f
00000030: a689 833f 84dc 803f 318a 803f 0a5f 7d3f
00000040: a744 823f dd29 823f 5ed6 7f3f a25d 823f
00000050: 4d0a 813f ddda 813f c86a 813f 1ac2 803f
00000060: 8114 803f 6967 803f 7f98 803f d8e8 7b3f
00000070: 6bcb 7f3f ab53 803f 7aaa 7d3f 1bfe 803f
00000080: dfb0 7f3f 6bca 803f a947 7f3f 6221 833f
00000090: effe 7f3f d116 813f 4b86 813f c913 803f
000000a0: d2ff 833f 13ed 7e3f 00ae 803f 5259 7e3f
000000b0: 5e03 773f b59d 813f d395 7c3f 8f19 823f
000000c0: d8d0 813f 485d 803f 7489 803f bd9f 7d3f
000000d0: 18a8 803f 0711 813f 1207 823f 2e9c 7f3f
000000e0: 9919 803f c230 813f d05e 803f 371e 7d3f
000000f0: ffd5 803f cd0b 813f 61f4 7f3f 7487 853f
00000100: 8808 803f 7b3a 803f b4ff 7e3f 949b 803f
00000110: fe19 823f 1c8c 803f 0721 813f 0892 823f
00000120: c94c 833f 4e0d 803f e819 803f 5cb2 823f
00000130: 1c5a 803f 6b8c 7c3f 2206 803f 0314 803f
00000140: 7bd4 803f 959a 813f 53d8 813f 3dbe 803f
00000150: a005 813f 6ed9 803f a714 803f 9319 803f
00000160: b7f5 813f efd4 813f 1dd1 803f bb11 803f
00000170: 6c56 823f 579d 7d3f a73e 813f c866 803f
00000180: 3808 803f ddc5 803f 2d55 833f e85d 813f
00000190: 48bc 7d3f 707f 813f d4c0 7e3f f480 803f
000001a0: 1da3 823f 6588 813f 8deb 803f 3b07 843f
000001b0: 6818 853f 1266 7e3f bacf 803f 509a 813f
000001c0: 57e8 823f afc8 7f3f 3b22 7e3f 8cf2 823f
000001d0: efd5 803f b8fd 813f 1289 803f 3040 863f
000001e0: 28d8 803f 9b49 833f 1203 813f 8fcb 803f
000001f0: 59fd 803f 82de 833f d78f 7f3f c323 7b3f

bn1.bias f4 [128]
-0.05441109 -0.0032412815 0.022984242 -0.0063440865 -0.020588927 0.03466996 0.00087051134 0.04590282
-0.004563446 -0.02518713 -0.019426633 0.0050895982 -0.029280765 -0.05992029 0.0045867935 -0.016720762
-0.072151735 -0.04741049 -0.00012651797 -0.036760874 -0.023369338 -0.029672777 -0.0032650167 0.008040453
-0.024632124 0.02662914 0.016094498 0.065359384 0.009919156 0.007813227 0.0026058056 0.04921521
-0.017829739 0.0062775575 -0.001861539 0.026729548 0.0061653396 -0.0033777168 0.01511971 -0.011673394
0.022596585 0.011112604 0.04739992 -0.06234559 -0.06486926 -0.0034779715 0.031355485 -0.044876944
0.0020977433 -0.011301036 0.02282204 -0.035837043 -0.012082656 -0.05554308 0.06659471 -0.0026465093
-0.015524441 0.019650083 -0.023274185 0.023500178 0.007919859 0.022565212 -0.0073282025 0.08637933
-0.017758144 -0.0037792637 0.00051013514 -0.070585705 -0.06736204 0.0039168773 0.037763868 -0.022934366
0.021189144 0.023185762 -0.043064587 -0.015565496 -0.015999716 -0.046892155 0.011557065 -0.00028765865
-0.011525834 -0.032621723 0.053931817 0.07814433 -0.012887002 -0.0016623806 -0.034353875 0.0018805006
0.04666547 0.0037050988 0.030537123 0.0114218285 0.0061235097 -0.113847435 0.00019927276 0.0031632388
-0.0366798 -0.016406 0.11342808 0.0074859387 0.0078636715 -0.0009872831 0.04689616 -0.028331496
0.0048401495 0.0056966646 0.030693263 -0.028371247 -0.008690474 0.003807475 0.01706708 0.0070298538
-0.018598795 0.009603872 -0.08660811 0.012233931 -0.0068493383 -0.02728533 0.0062902905 -0.037378035
-0.0035327685 -0.0065003606 0.01102787 0.034180082 -0.0036108915 0.014888165 0.0069389506 -0.08505896
00000000: 2ade 5ebd ae6b 54bb 7349 bc3c 0ee2 cfbb
00000010: 1caa a8bc 1702 0e3d 0733 643a 9804 3c3d
00000020: f688 95bb 3d55 cebc 9a24 9fbc a5c6 a63b
00000030: 37de efbc fa6e 75bd d04c 963b fbf9 88bc
00000040: 4ac4 93bd 8131 42bd e9a9 04b9 9292 16bd
00000050: 0e71 bfbc 5314 f3bc e4f9 55bb 1bbc 033c
00000060: 4fc9 c9bc 5b25 da3c 9cd8 833c 24db 853d
00000070: f583 223c 0d03 003c 2ac6 2a3b e395 493d
00000080: ac0f 92bc f8b3 cd3b e2fe f3ba edf7 da3c
00000090: 9e06 ca3b af5c 5dbb a9b8 773c c341 3fbc
000000a0: 791c b93c a411 363c 6b26 423d 175e 7fbd
000000b0: 2dda 84bd aeee 63bb 9c6e 003d e3d0 37bd
000000c0: 4b7a 093b fb27 39bc 49f5 ba3c ddc9 12bd
000000d0: 55f6 45bc 2481 63bd cf62 883d 0f71 2dbb
000000e0: 3a5a 7ebc 36f9 a03c 81a9 bebc 7283 c03c
000000f0: 4cc2 013c aeda b83c 6b21 f0bb a5e7 b03d
00000100: 8779 91bc 86ad 77bb 97ba 053a 3d8f 90bd
00000110: 1cf5 89bd 2659 803b 49ae 1a3d dae0 bbbc
00000120: db94 ad3c 11f0 bd3c 7e64 30bd 6c06 7fbc
00000130: d611 83bc fd11 40bd d859 3d3c e4d0 96b9
00000140: dad6 3cbc 5b9e 05bd 9ce7 5c3d 220a a03d
00000150: 0124 53bc 3de4 d9ba a6b6 0cbd 217b f63a
00000160: 4b24 3f3d 3ed1 723b fd28 fa3c 9f22 3b3c
00000170: b9a7 c83b d828 e9bd e0f3 5039 574e 4f3b
00000180: 8f3d 16bd e065 86bc fb4c e83d 9b4c f53b
00000190: a1d6 003c b967 81ba 3016 403d 7417 e8bc
000001a0: 1e9a 9e3b 16ab ba3b 7070 fb3c d16a e8bc
000001b0: 7d62 0ebc d586 793b 43d0 8b3c b05a e63b
000001c0: 805c 98bc 8f59 1d3c 985f b1bd d370 483c
000001d0: 6a70 e0bb 7c85 dfbc c81e ce3b b619 19bd
000001e0: 0586 67bb fa00 d5bb 3dae 343c 6a00 0c3d
000001f0: b5a4 6cbb 7ded 733c 2360 e33b 6433 aebd

bn1.running_mean f4 [128]
-0.12951177 -0.06789738 -0.06437692 -0.06975104 0.055520527 -0.09444367 -0.13648945 0.109277695
0.08411626 -0.010582581 -0.10922524 -0.050236385 -0.06955309 -0.048684016 0.045210734 -0.089324735
0.015171734 0.012813517 0.05994142 -0.12468577 -0.091355845 0.017659249 0.0026451866 0.023746908
0.20797293 0.07262309 -0.083701015 -0.09042073 0.07413805 0.099628426 0.068502195 0.11056922
-0.0552737 -0.025992533 -0.16615567 0.09506891 0.036250565 -0.11121971 0.008849873 0.13749255
0.107261896 -0.11047171 -0.030803947 0.08089055 0.08762072 0.1505669 -0.08268488 -0.0045613786
0.039087065 0.012627168 0.007875354 -0.0076645166 -0.13772799 0.03779322 -0.02303478 0.05846085
0.11682603 0.008159121 0.2536515 0.14000008 0.22818765 -0.060665622 0.12340644 0.040628772
-0.17727551 -0.021522105 -0.029813804 0.09761834 -0.0782778 0.11690057 -0.15397763 0.15587054
0.0031116814 0.11942962 0.031638857 0.04765709 0.0924523 0.104003474 -0.15549102 -0.13778447
0.088491485 0.027202263 -0.025393752 -0.100970395 0.08955235 -0.02431158 -0.0024295512 -0.13715528
-0.19426621 0.032618485 -0.17070524 -0.03965303 0.07475214 -0.06531873 -0.03748472 -0.08704609
0.015908709 -0.06036638 0.037857518 0.0076340185 -0.07516798 0.0029770273 0.058425285 0.061257493
0.11981873 -0.21070166 -0.008455861 -0.089774035 -0.02396409 0.06450703 -0.058758866 -0.11058292
0.117982015 0.09941133 -0.05850514 0.030212514 -0.17572428 0.14116096 -0.1985326 0.0045225415
0.068475574 0.21824908 0.14548019 0.009211157 0.110026896 -0.09996024 -0.11904785 0.016530415
00000000: bc9e 04be c80d 8bbd 0cd8 83bd a2d9 8ebd
00000010: 7e69 633d af6b c1bd e4c3 0bbe fccc df3d
00000020: 2545 ac3d 9062 2dbc 7cb1 dfbd abc4 4dbd
00000030: da71 8ebd e468 47bd e42e 393d e3ef b6bd
00000040: dd92 783c c9ef 513c 2285 753d 415b ffbd
00000050: c618 bbbd 21aa 903c de5a 2d3b e088 c23c
00000060: dbf6 543e 6abb 943d 706b abbd 812e b9bd
00000070: b1d5 973d fd09 cc3d e14a 8c3d 1d72 e23d
00000080: ad66 62bd 4bee d4bc b624 2abe 7db3 c23d
00000090: 797b 143d 29c7 e3bd 0fff 103c d9ca 0c3e
000000a0: 20ac db3d fe3e e2bd 8f58 fcbc f2a9 a53d
000000b0: 7e72 b33d 362e 1a3e b156 a9bd 9e77 95bb
000000c0: c219 203d 2ee2 4e3c a107 013c a026 fbbb
000000d0: 9108 0dbe 10cd 1a3d 6fb3 bcbc a574 6f3d
000000e0: 7c42 ef3d d5ad 053c 9cde 813e 2e5c 0f3e
000000f0: 06aa 693e 847c 78bd 84bc fc3d 5b6a 263d
00000100: b687 35be 204f b0bc 143c f4bc 20ec c73d
00000110: 1c50 a0bd 9169 ef3d 50ac 1dbe 879c 1f3e
00000120: 5aed 4b3b 8497 f43d bf97 013d 1534 433d
00000130: a257 bd3d c6ff d43d 0a39 1fbe 5f17 0dbe
00000140: 063b b53d 48d7 de3c 8f06 d0bc 91c9 cebd
00000150: 3967 b73d 1429 c7bc 1b39 1fbb 6f72 0cbe
00000160: b9ed 46be f69a 053d 5bcd 2ebe 376b 22bd
00000170: a617 993d d4c5 85bd 9489 19bd 3845 b2bd
00000180: fb52 823c bd42 77bd 7c10 1b3d ca26 fa3b
00000190: abf1 99bd 3b1a 433b 5a4f 6f3d 23e9 7a3d
000001a0: 8663 f53d 2dc2 57be 748a 0abc 73db b7bd
000001b0: 5750 c4bc 431c 843d 23ad 70bd 4c79 e2bd
000001c0: 8ea0 f13d 2b98 cb3d 16a3 6fbd 3c80 f73c
000001d0: 11f1 33be 808c 103e 214c 4bbe d431 943b
000001e0: ec3c 8c3d b07c 5f3e c2f8 143e 65ea 163c
000001f0: c855 e13d f4b7 ccbd 5ccf f3bd cb6a 873c

bn1.running_var f4 [128]
0.9756101 1.4214617 0.6223202 0.4487191 1.6816994 0.43804204 0.6653429 1.5384691
0.90647715 0.4117248 0.5960881 0.4567754 0.42228317 0.82288015 0.41645312 1.0339305
0.4516596 0.6018044 0.53715175 0.53890884 0.51379055 1.0033236 0.33350873 0.9605365
1.66282 0.34300008 0.9218099 0.37676242 0.7998509 1.7197158 0.8365268 0.69543123
0.40601546 0.61675084 0.7597027 0.5974692 0.5399941 0.74110603 0.32706687 1.1039362
0.8249923 1.326385 0.4375595 0.55642563 0.63931286 1.4684738 2.3059201 0.59890825
0.9159315 0.38109937 0.5624719 0.5409714 1.0203456 0.84004194 0.2931982 0.34668157
0.57877153 0.44111842 1.2211901 1.1675256 1.7698623 0.70948535 0.68968904 0.38438648
0.9285047 0.5761621 1.1625682 0.33087316 0.838232 0.7325003 0.784305 0.9245501
0.63109213 1.9482172 0.47551903 0.36496115 0.7321937 0.8679676 0.48498803 2.570609
1.4685313 0.5986862 0.29209778 0.53298527 0.6430791 0.34631395 0.6900089 1.229994
0.8534796 0.362769 1.505157 0.71747756 0.46692702 0.66609967 0.45820928 0.52916837
0.48256966 0.35169736 0.32183978 0.42366374 0.50837106 0.9265975 0.8155203 2.061828
0.8623192 0.8766084 0.7240844 1.9991403 0.6436298 0.81102103 0.48802298 0.46143827
1.0409762 0.7072621 0.78978133 1.161189 0.79040414 0.7547814 1.186564 0.37717664
0.38986164 0.9351491 1.6668762 0.38102138 2.3196237 0.40327913 1.1010873 0.54939085
00000000: 95c1 793f 75f2 b53f 6050 1f3f 83be e53e
00000010: ed41 d73f 0c47 e03e ea53 2a3f 8eec c43f
00000020: e30e 683f 98cd d23e 3b99 183f 77de e93e
00000030: 8035 d83e 46a8 523f 5839 d53e d657 843f
00000040: ed3f e73e da0f 1a3f c782 093f eef5 093f
00000050: c787 033f e86c 803f a8c1 aa3e b8e5 753f
00000060: 49d7 d43f b59d af3e bcfb 6b3f 01e7 c03e
00000070: 07c3 4c3f a61f dc3f 9f26 563f c807 323f
00000080: 42e1 cf3e 62e3 1d3f e07b 423f bef3 183f
00000090: 0e3d 0a3f 20b9 3d3f 4f75 a73e c84d 8d3f
000000a0: b232 533f fcc6 a93f cc07 e03e e971 0e3f
000000b0: 02aa 233f f3f6 bb3f 3294 1340 0d52 193f
000000c0: 7d7a 6a3f 751f c33e 29fe 0f3f 1a7d 0a3f
000000d0: af9a 823f fd0c 573f 131e 963e 3f80 b13e
000000e0: 5f2a 143f 46da e13e f54f 9c3f 7b71 953f
000000f0: d98a e23f d5a0 353f 768f 303f 4ece c43e
00000100: 7cb2 6d3f 5c7f 133f 09cf 943f 3568 a93e
00000110: 5f96 563f 2485 3b3f 36c8 483f 51af 6c3f
00000120: 418f 213f 2e5f f93f 3b77 f33e 30dc ba3e
00000130: 0c71 3b3f 2033 5e3f 5a50 f83e dc84 2440
00000140: d5f8 bb3f 8043 193f d78d 953e b971 083f
00000150: d5a0 243f 1050 b13e 6ca4 303f 7270 9d3f
00000160: a47d 5a3f dcbc b93e fca8 c03f 9cac 373f
00000170: 0f11 ef3e 8285 2a3f 689a ea3e 9477 073f
00000180: 5f13 f73e ad11 b43e 2fc8 a43e 74ea d83e
00000190: 9b24 023f 7e35 6d3f f0c5 503f fdf4 0340
000001a0: f3c0 5c3f 6869 603f 985d 393f d4e3 ff3f
000001b0: ecc4 243f 139f 4f3f 26de f93e a341 ec3e
000001c0: b53e 853f 210f 353f 1c2f 4a3f d7a1 943f
000001d0: ed57 4a3f 5b39 413f 54e1 973f 4c1d c13e
000001e0: f29b c73e ee65 6f3f 335c d53f 3c15 c33e
000001f0: b774 1440 9a7a ce3e 6ef0 8c3f e1a4 0c3f

hidden2.weight f4 [32, 128]
0.035729263 -0.04519021 -0.052560817 0.02987617 0.073525146 -0.012378393 0.023081489 0.03952624
-0.08789683 -0.01594858 0.06201556 -0.04342392 0.046476908 -0.10518165 -0.052382734 -0.054554425
-0.017212627 -0.0666142 0.087033175 -0.12057711 -0.07050529 -0.011159739 0.039197333 -0.0030366434
0.06585623 0.054770127 -0.04647951 -0.044916335 -0.031411953 0.0335671 0.028233048 0.043619007
0.054499123 0.037003852 0.026436582 -0.039910223 0.005918868 0.019080903 -0.10843193 -0.028569259
0.03261797 -0.048704363 0.045415606 0.04916705 -0.030968107 0.09097049 0.060219754 0.019660404
0.02075376 0.0016252068 -0.017070929 0.074740395 -0.010147768 0.04865328 -0.026950542 0.08093872
0.04188962 0.030323096 0.08119593 -0.032116007 0.09476883 0.07910757 -0.054288406 0.041830778
-0.051899824 -0.034099013 -0.04450407 0.06476637 0.05858241 -0.04903654 -0.05400961 -0.0015589796
0.00058933796 0.030737959 -0.017659707 0.04754311 -0.042293362 0.0028081085 -0.09414046 0.033359952
0.072090544 -0.0121488925 0.027403502 0.012314752 0.017663326 -0.0005439845 0.0072426694 0.05697677
0.005795579 -0.064276986 -0.07823781 -0.093488954 0.09091695 0.052663855 0.016328713 -0.044244584
-0.03264266 0.06236179 0.019433204 -0.09136422 -0.007517509 0.0004066566 -0.014101664 -0.019581169
0.00080867944 -0.07549568 -0.075471 -0.027511315 -0.019281618 -0.008988783 -0.036469124 -0.030105488
-0.027183125 0.036004983 0.012586462 -0.05890964 0.023282086 0.056272943 -0.0865388 0.05559525
0.040176414 0.08565693 0.067472816 0.06025164 0.090422824 -0.0717665 -0.03348526 0.073928505
0.037860837 0.039146475 0.06199979 0.039371774 0.027814595 0.06899768 -0.04216969 0.043270934
-0.047381226 -0.08446897 0.078004204 0.06699284 -0.047167104 0.038996994 0.0037040599 0.0854808
-0.048524976 -0.08040476 -0.042675566 0.016281394 -0.02466736 -0.017961238 0.030236995 0.09389148
-0.01021629 -0.048749138 0.07910604 0.12199095 -0.018616226 0.021577299 0.0416239 0.0731079
0.028498322 -0.03438829 0.042751133 -0.024039462 0.084015675 0.05799825 -0.07856107 -0.026963491
-0.04232044 -0.057623126 0.04022849 -0.034234345 -0.03586476 -0.031696383 0.04509976 0.011266715
-0.03948382 -0.0067811096 -0.041051816 -0.03653873 0.000559821 0.056385197 -0.07202444 -0.08903911
-0.030628683 -0.01459832 0.0010901993 -0.021351732 -0.048889305 0.10709028 0.012749052 0.046113886
-0.04558083 -0.059741255 0.0014486024 0.008473865 -0.07820052 -0.0583927 0.06595198 -0.014537276
-0.021733126 0.059001956 0.003822093 8.6786684e-05 -0.043965213 0.048958644 0.04009009 0.053533714
-0.00055431406 -0.060976356 0.062839076 0.04445157 -0.06537309 -0.06416511 -0.0671482 0.03802856
-0.026558384 0.042910103 -0.0051416433 0.04899587 -0.045429736 0.0081487 0.008323022 -0.0062330347
0.008137628 0.008745027 0.058488507 0.05193908 -0.0033864062 -0.013705717 0.08631981 -0.003770277
-0.11098824 0.057721287 -0.048371207 -0.047166556 -0.00087315054 -0.06308844 0.007726887 -0.025110539
-0.11347372 -0.04397751 -0.010499574 0.11766981 -0.11416058 -0.10097731 -0.030224856 0.014491212
-0.027556999 -0.007638907 0.06652996 0.02073458 -0.061898995 0.03850258 0.07118597 -0.08774482
00000000: d958 123d 5f19 39bd 034a 57bd dfbe f43c
00000010: 5a94 963d bece 4abc 6415 bd3c 44e6 213d
00000020: 4103 b4bd 99a6 82bc 0704 7e3d 48dd 31bd
00000030: 925e 3e3d 7a69 d7bd 478f 56bd 7674 5fbd
00000040: 7f01 8dbc 076d 88bd 733e b23d 22f1 f6bd
00000050: 1465 90bd 57d7 36bc 628d 203d 6c02 47bb
00000060: a2df 863d a456 603d 4c61 3ebd 31fa 37bd
00000070: d2a9 00bd a87d 093d fe48 e73c d8a9 323d
00000080: 793a 5f3d 5a91 173d 8891 d83c e778 23bd
00000090: 10f3 c13b 8e4f 9c3c 8f11 debd 140a eabc
000000a0: 6c9a 053d 3a7e 47bd b705 3a3d 6363 493d
000000b0: d4b0 fdbc bc4e ba3d fda8 763d db0e a13c
000000c0: ca03 aa3c e404 d53a 55d8 8bbc 7e11 993d
000000d0: d342 26bc a948 473d 62c7 dcbc 33c3 a53d
000000e0: 7394 2b3d 2468 f83c 0d4a a63d 138c 03bd
000000f0: 2916 c23d 2603 a23d 855d 5ebd c056 2b3d
00000100: e994 54bd 68ab 0bbd e649 36bd 3ba4 843d
00000110: 1cf4 6f3d 8ada 48bd 2e39 5dbd ad56 ccba
00000120: cd7d 1a3a 2cce fb3c 17ab 90bc 90bc 423d
00000130: ce3b 2dbd 3e08 383b b7cc c0bd 72a4 083d
00000140: 35a4 933d 260c 47bc 4f7d e03c d0c3 493c
00000150: aeb2 903c 2f9a 0eba ea53 ed3b 7960 693d
00000160: d7e8 bd3b a7a3 83bd 253b a0bd 2377 bfbd
00000170: aa32 ba3d 0eb6 573d cbc3 853c cf39 35bd
00000180: 4fb4 05bd 146f 7f3d 6232 9f3c 2a1d bbbd
00000190: 7055 f6bb 8634 d539 aa0a 67bc b068 a0bc
000001a0: 8ffd 533a 7b9d 9abd 8a90 9abd 695f e1bc
000001b0: 7cf4 9dbc b045 13bc a660 15bd c99f f6bc
000001c0: 25af debc f679 133d 7337 4e3c 3c4b 71bd
000001d0: 13ba be3c 757e 663d 413b b1bd d8b7 633d
000001e0: 0690 243d e76c af3d 302f 8a3d 6cca 763d
000001f0: 9a2f b93d 51fa 92bd d727 09bd d467 973d
00000200: f713 1b3d 0e58 203d 7ef3 7d3d 4c44 213d
00000210: 6fdb e33c a84e 8d3d 20ba 2cbd dd3c 313d
00000220: d112 42bd 11fe acbd abc0 9f3d 8b33 893d
00000230: 4b32 41bd 50bb 1f3d d0bf 723b 8f10 af3d
00000240: 20c2 46bd 40ab a4bd 93cc 2ebd 8f60 853c
00000250: 3413 cabc 7223 93bc 93b3 f73c 2d4a c03d
00000260: 3a62 27bc 2dad 47bd 5902 a23d 64d6 f93d
00000270: 0e81 98bc e0c2 b03c d37d 2a3d 98b9 953d
00000280: 5075 e93c bcda 0cbd d01b 2f3d 68ee c4bc
00000290: 6910 ac3d 938f 6d3d a0e4 a0bd 8ae2 dcbc
000002a0: 3358 2dbd 3a06 6cbd a1c6 243d 5039 0cbd
000002b0: ede6 12bd 11d4 01bd 87ba 383d 0798 383c
000002c0: c9b9 21bd 1234 debb f325 28bd a3a9 15bd
000002d0: f4c0 123a 2af4 663d 8d81 93bd 235a b6bd
000002e0: 01e9 fabc cb2d 6fbc 05e5 8e3a d4e9 aebc
000002f0: 2740 48bd 2652 db3d 66e1 503c eae1 3c3d
00000300: f7b2 3abd 3fb3 74bd 08df bd3a f7d5 0a3c
00000310: 9827 a0bd 2f2d 6fbd d511 873d c12d 6ebc
00000320: ab09 b2bc 09ac 713d 147c 7a3b 3f01 b638
00000330: de14 34bd dc88 483d 8235 243d 2b46 5b3d
00000340: 634f 11ba 58c2 79bd c6b1 803d d912 363d
00000350: 54e2 85bd ff68 83bd ff84 89bd d6c3 1b3d
00000360: f890 d9bc 81c2 2f3d 3b7b a8bb e5af 483d
00000370: 8814 3abd 2082 053c 495d 083c 7c3e ccbb
00000380: b053 053c 4d47 0f3c a591 6f3d 13be 543d
00000390: 78ee 5dbb f28d 60bc 71c8 b03d c016 77bb
000003a0: cd4d e3bd 286d 6c3d e320 46bd b831 41bd
000003b0: 24e4 64ba 8334 81bd d331 fd3b 9eb4 cdbc
000003c0: e964 e8bd c321 34bd 6806 2cbc dffc f03d
000003d0: 06cd e9bd 31cd cebd 1e9a f7bc 8c6c 6d3c
000003e0: 37bf e1bc cc4f fabb dc40 883d 91db a93c
000003f0: cd89 7dbd e2b4 1d3d f3c9 913d 8eb3 b3bd

bn2.weight f4 [32]
0.9875928 0.9838264 0.981992 0.9812746 0.9678099 0.964717 0.99195015 0.9985995
0.9917429 0.97898 0.961478 0.9803557 0.9700558 1.0014539 0.9889701 0.97712076
0.9968143 0.9673919 0.9893089 0.99780434 0.9895704 0.97502905 0.97812265 0.98961097
0.9869742 0.9996349 0.96157724 1.0099716 1.001068 0.988064 0.99711597 0.946899
00000000: e2d2 7c3f 0cdc 7b3f d463 7b3f d034 7b3f
00000010: 64c2 773f b1f7 763f 72f0 7d3f 38a4 7f3f
00000020: dde2 7d3f 6f9e 7a3f 6c23 763f 97f8 7a3f
00000030: 9455 783f a42f 803f 252d 7d3f 9624 7a3f
00000040: 392f 7f3f ffa6 773f 5943 7d3f 1b70 7f3f
00000050: 7c54 7d3f 819b 793f 3f66 7a3f 2557 7d3f
00000060: 57aa 7c3f 13e8 7f3f ed29 763f c046 813f
00000070: ff22 803f c3f1 7c3f fe42 7f3f f967 723f

bn2.bias f4 [32]
-0.06184504 0.103864424 0.103710406 0.113204606 0.09650867 0.11339332 0.11898873 -0.10088871
0.09458847 0.095587984 0.117599316 0.11647023 0.14544092 0.120805904 -0.10498023 -0.09926582
-0.07918482 -0.09838795 -0.10890111 0.07401998 0.112742715 0.1030825 -0.09728427 -0.08609493
0.12832431 -0.035400555 -0.18327934 0.068089694 0.07644323 0.068116575 -0.11995874 0.13955912
00000000: 3a51 7dbd dfb6 d43d 1f66 d43d d1d7 e73d
00000010: 56a6 c53d c23a e83d 5db0 f33d bd9e cebd
00000020: 9ab7 c13d a2c3 c33d e9d7 f03d f287 ee3d
00000030: 77ee 143e 1669 f73d e0ff d6bd e14b cbbd
00000040: a72b a2bd 9f7f c9bd 8c07 dfbd ca97 973d
00000050: a7e5 e63d eb1c d33d fa3c c7bd 8a52 b0bd
00000060: 7367 033e 2c00 11bd 94ad 3bbe 9c72 8b3d
00000070: 458e 9c3d b480 8b3d eeac f5bd 96e8 0e3e

bn2.running_mean f4 [32]
-0.07928838 0.08153629 0.07364256 0.030699015 0.026621459 0.11195278 0.040149987 -0.07358582
0.044879384 0.034116205 0.04767223 0.018712059 0.008824289 0.031786546 -0.043360136 -0.04067675
-0.07165122 -0.047094494 -0.08676576 0.07545725 0.06400172 0.005611263 -0.012548579 -0.10159478
0.039984584 -0.042848658 -0.09425881 0.10950963 0.053545073 0.046131074 0.014689805 0.0682742
00000000: f261 a2bd 80fc a63d e9d1 963d 807c fb3c
00000010: 3f15 da3c 8047 e53d 5074 243d 2ab4 96bd
00000020: 72d3 373d 6fbd 0b3d f543 433d 084a 993c
00000030: c093 103c 9c32 023d 669a 31bd aa9c 26bd
00000040: e0bd 92bd 28e6 40bd 3fb2 b1bd 5589 9a3d
00000050: 5513 833d b0de b73b 8e98 4dbc ed10 d0bd
00000060: e0c6 233d 1382 2fbd c30a c1bd 9646 e03d
00000070: 1452 5b3d f0f3 3c3d 82ad 703c 58d3 8b3d

bn2.running_var f4 [32]
0.29769766 0.42436257 0.4132327 0.34717616 0.25884625 0.46746215 0.34917244 0.40084004
0.40459666 0.34402642 0.31047234 0.32985708 0.3050983 0.37989834 0.43459553 0.35859022
0.3255328 0.33059016 0.42927533 0.37690106 0.35751528 0.29136887 0.3408775 0.39596272
0.3199711 0.20605919 0.44657528 0.4516355 0.43272018 0.27807367 0.35582754 0.4068735
00000000: d46b 983e 0d46 d93e 3d93 d33e 13c1 b13e
00000010: 7f87 843e 3357 ef3e bbc6 b23e e83a cd3e
00000020: 4b27 cf3e 3b24 b03e 3bf6 9e3e 07e3 a83e
00000030: d835 9c3e 0982 c23e 4e83 de3e 2399 b73e
00000040: 3cac a63e 1d43 a93e fac9 db3e 2df9 c03e
00000050: 3e0c b73e 4d2e 953e 7f87 ae3e a0bb ca3e
00000060: 41d3 a33e 2e01 533e 84a5 e43e c53c e73e
00000070: 808d dd3e ac5f 8e3e 072f b63e b951 d03e

hidden3.weight f4 [16, 32]
0.15961948 0.1025275 -0.11779118 -0.05064511 -0.032567192 -0.15422247 -0.07572307 0.05692667
0.00773336 0.11987427 0.13466498 0.18912852 -0.14866565 0.08844967 0.11552724 0.0016764445
-0.20616792 0.02985813 -0.054895043 -0.083943196 -0.014977133 0.013322308 -0.20164476 0.06414947
0.08059502 0.12389043 0.057839267 0.05746105 -0.08644364 -0.14228085 0.057724603 0.1543328
-0.120907605 -0.006342212 -0.11814036 -0.051882602 -0.005824297 0.17019059 -0.13263848 0.022040555
0.07789262 0.010632581 -0.012055973 -0.048514675 0.040520154 0.08538519 -0.12173082 -0.02715215
0.092428744 -0.05146144 -0.18874937 0.024960775 0.05778489 -0.02785258 0.12263137 -0.15192576
0.05613644 0.07443799 -0.10320915 -0.08854149 0.17020746 0.17649178 0.101459704 -0.098244675
0.061084095 0.0127437115 -0.005402741 -0.12613831 -0.011635994 -0.015212745 -0.15617375 0.034271743
0.06748327 0.01967697 0.15944804 -0.15929237 -0.057785954 0.1089384 0.033788037 -0.11237911
-0.08858229 0.0005615207 -0.016407384 -0.03784367 0.017793028 -0.1250717 0.1595462 0.012862949
0.013142605 0.0013955005 -0.0660651 0.022450788 0.09517879 0.12833567 0.1971735 0.015009507
0.12380217 0.14653166 -0.020248322 0.10694316 -0.18897782 0.08640079 -0.11260001 -0.0877086
-0.1287236 -0.14237246 0.17655177 0.13507262 0.030304007 -0.04866424 0.051004536 -0.076600045
-0.11185607 0.140929 -0.049255632 0.03951256 -0.05592987 -0.13675636 0.054553095 -0.12537566
0.088599436 0.16951777 -0.07665056 -0.16490099 -0.011131112 -0.049649067 -0.08040944 -0.03917669
0.013988236 0.1366164 0.13039319 -0.10523386 -0.14650407 -0.035470195 -0.093139194 0.044707466
-0.09171073 -0.03709065 -0.030559842 0.09003343 -0.02813646 0.04254836 0.06303731 -0.0024785365
-0.077345595 -0.14522754 -0.1320794 0.023263354 0.21716154 0.11932619 0.12235831 -0.029291444
-0.08285393 -0.0068677166 -0.15911217 0.10485018 0.12378586 0.004720586 -0.1711271 0.17421918
0.08378154 0.07028264 -0.07401303 0.0069372016 0.156054 0.03785586 -0.050929714 0.039267324
0.08168532 -0.0024550154 0.04588517 0.14368841 0.20814209 -0.07291668 -0.025006168 -0.15241599
0.051455744 -0.08242354 0.06160343 -0.0720172 -0.050983313 0.17101796 -0.091660105 0.049643602
0.08814121 0.038758222 -0.10741813 -0.060204264 -0.0709405 -0.047624163 -0.27973387 0.07037337
0.10029362 -0.08466596 0.15556547 0.020483494 -0.07151808 -0.08217865 -0.090795144 0.041985773
-0.10051414 -0.1735484 -0.100509815 -0.091907665 0.123950236 -0.002702879 -0.11712315 -0.16952153
0.18990175 0.1308016 -0.104521774 -0.1090695 -0.09235847 0.074356236 -0.03869603 0.078880474
-0.09075922 0.05378461 -0.047534876 -0.20983467 0.010456142 -0.018946856 -0.027250532 0.0671443
-0.0758425 -0.17409962 -0.082437366 -0.060434707 -0.04551162 -0.13692424 -0.07590425 0.013399227
0.11683088 0.10995057 0.08730329 -0.033418685 -0.061302423 0.097051896 -0.120162755 -0.11329068
0.08407138 -0.07649695 0.07240563 -0.059910893 -0.028020874 -0.026088726 0.03303705 0.14134291
0.05296555 0.04131915 0.16099088 -0.17635165 -0.035224754 0.02851298 -0.10523735 -0.18383637
00000000: 4a73 233e f0f9 d13d 813c f1bd 3f71 4fbd
00000010: 2d65 05bd 7fec 1dbe b214 9bbd f12b 693d
00000020: 2068 fd3b a480 f53d 9ee5 093e e8aa 413e
00000030: cf3b 18be 1a25 b53d 8c99 ec3d 25bc db3a
00000040: af1d 53be 0999 f43c a0d9 60bd 69ea abbd
00000050: a662 75bc cf45 5a3c f77b 4ebe cc60 833d
00000060: 000f a53d 44ba fd3d dee8 6c3d 475c 6b3d
00000070: 5d09 b1bd 12b2 11be a270 6c3d 6b09 1e3e
00000080: 689e f7bd 55d2 cfbb 93f3 f1bd da82 54bd
00000090: bfd9 bebb 7146 2e3e 62d2 07be 658e b43c
000000a0: 2a86 9f3d 4734 2e3c 6a86 45bc 53b7 46bd
000000b0: 76f8 253d 6ede ae3d 024e f9bd 306e debc
000000c0: 484b bd3d 3bc9 52bd 8447 41be 8a7a cc3c
000000d0: d9af 6c3d 182b e4bc 2826 fb3d 6d92 1bbe
000000e0: 53ef 653d f272 983d 525f d3bd 3e55 b5bd
000000f0: dd4a 2e3e 43ba 343e 1bca cf3d 8134 c9bd
00000100: 5133 7a3d 00cb 503c 7a09 b1bb 672a 01be
00000110: e5a4 3ebc e13e 79bc 03ec 1fbe 8760 0c3d
00000120: ab34 8a3d 9931 a13c 5946 233e 8a1d 23be
00000130: f7b0 6cbd 191b df3d 5365 0a3d 0527 e6bd
00000140: a26a b5bd 0433 133a c768 86bc f701 1bbd
00000150: afc2 913c cc12 00be 1460 233e 1ebf 523c
00000160: 1554 573c 3ae9 b63a 244d 87bd b7ea b73c
00000170: 19ed c23d 6d6a 033e dae7 493e 6fea 753c
00000180: fe8b fd3d 650c 163e cfdf a5bc 0405 db3d
00000190: 6783 41be e6f2 b03d d69a e6bd 91a0 b3bd
000001a0: 1fd0 03be 16ca 11be fdc9 343e 7a50 0a3e
000001b0: 1c40 f83c 2754 47bd 22ea 503d 7ce0 9cbd
000001c0: cc14 e5bd b14f 103e 46c0 49bd ecd7 213d
000001d0: b816 65bd dc09 0cbe 1173 5f3d 7a62 00be
000001e0: 9f73 b53d 1196 2d3e f8fa 9cbd cedb 28be
000001f0: 455f 36bc d25c 4bbd b4ad a4bd bd77 20bd
00000200: ea2e 653c 2be5 0b3e cb85 053e da84 d7bd
00000210: 2a05 16be 3249 11bd c3bf bebd 2d1f 373d
00000220: d6d2 bbbd 5eec 17bd a258 fabc 7263 b83d
00000230: 6f7e e6bc 3047 2e3d b519 813d f16e 22bb
00000240: 5e67 9ebd 87b6 14be d23f 07be ca92 be3c
00000250: 985f 5e3e 4a61 f43d fe96 fa3d 9cf4 efbc
00000260: 52af a9bd 950a e1bb 4dee 22be b1bb d63d
00000270: 7183 fd3d 25af 9a3b f13b 2fbe 8366 323e
00000280: a895 ab3d 58f0 8f3d 2594 97bd 7751 e33b
00000290: 9fcc 1f3e bf0e 1b3d ad9b 50bd c6d6 203d
000002a0: a24a a73d 53e4 20bb 17f2 3b3d 0e23 133e
000002b0: 3323 553e 5755 95bd bcd9 ccbc f012 1cbe
000002c0: 42c3 523d accd a8bd e153 7c3d c17d 93bd
000002d0: e1d3 50bd 551f 2f3e 4bb8 bbbd 1757 4b3d
000002e0: 6183 b43d f1c0 1e3d 09fe dbbd bf98 76bd
000002f0: 4149 91bd 8e11 43bd 4739 8fbe ea1f 903d
00000300: be66 cd3d 5965 adbd 8e4c 1f3e 00cd a73c
00000310: 1278 92bd 484d a8bd cef2 b9bd 46f9 2b3d
00000320: 5cda cdbd acb6 31be 17d8 cdbd 163a bcbd
00000330: 9fd9 fd3d c922 31bb 43de efbd 0d97 2dbe
00000340: 9b75 423e dbf0 053e 830f d6bd d45f dfbd
00000350: 7026 bdbd 1548 983d ba7f 1ebd 168c a13d
00000360: f8df b9bd 404d 5c3d eeb3 42bd e6de 56be
00000370: 3d50 2b3c 7036 9bbc 823c dfbc f382 893d
00000380: 5053 9bbd 2c47 32be ecd4 a8bd 628a 77bd
00000390: 646a 3abd de35 0cbe b073 9bbd 6e88 5b3c
000003a0: 0745 ef3d c42d e13d 11cc b23d 08e2 08bd
000003b0: 4018 7bbd 25c3 c63d e417 f6bd f204 e8bd
000003c0: 9e2d ac3d 6faa 9cbd 6749 943d 2065 75bd
000003d0: 088c e5bc 06b8 d5bc dc51 073d 32bc 103e
000003e0: 68f2 583d 453e 293d cbda 243e 8795 34be
000003f0: d547 10bd 0e94 e93c ae86 d7bd 9a3f 3cbe

bn3.weight f4 [16]
0.9811788 0.9988665 0.9635789 0.98116356 1.0309843 0.9309587 0.9259003 1.0112191
1.0388249 1.0485656 1.0071371 0.97649103 0.94630927 0.9830733 0.9502198 0.97584677
00000000: 892e 7b3f b7b5 7f3f 1bad 763f 892d 7b3f
00000010: 4bf7 833f 4f53 6e3f cd07 6d3f a16f 813f
00000020: 37f8 843f 6637 863f dee9 803f 51fb 793f
00000030: 5341 723f b1aa 7b3f 9b41 733f 18d1 793f

bn3.bias f4 [16]
0.15367098 0.117332324 -0.1969153 -0.18161522 0.13469042 0.5289861 -0.33313853 -0.08253574
0.08893482 0.22473124 -0.4798476 0.2493314 -0.45728913 0.11556036 -0.27072877 -0.2292277
00000000: ed5b 1d3e ee4b f03d 2aa4 49be 57f9 39be
00000010: 49ec 093e a26b 073f 2291 aabe 8008 a9bd
00000020: 7523 b63d f21f 663e 96ae f5be bb50 7f3e
00000030: cd21 eabe e9aa ec3d f69c 8abe abba 6abe

bn3.running_mean f4 [16]
-0.013416543 0.057222962 -0.018155228 -0.013137983 0.082769305 0.07939628 -0.06960366 -0.073752075
0.061155096 0.119009234 -0.083514005 0.07763985 -0.11523924 0.04046561 -0.07395626 0.09588559
00000000: 0fd1 5bbc a062 6a3d 46ba 94bc b240 57bc
00000010: f482 a93d 849a a23d 5d8c 8ebd 540b 97bd
00000020: c47d 7a3d 1dbb f33d 6409 abbd a401 9f3d
00000030: 8d02 ecbd 44bf 253d 6176 97bd aa5f c43d

bn3.running_var f4 [16]
0.20463784 0.2984079 0.1547009 0.24588323 0.47728267 0.3826881 0.46662116 0.35522404
0.48127797 0.79882395 0.45681715 0.41520134 0.6026 0.20937328 0.42649394 0.18889338
00000000: 958c 513e ecc8 983e ea69 1e3e d0c8 7b3e
00000010: 655e f43e b2ef c33e f8e8 ee3e eddf b53e
00000020: 116a f63e ba7f 4c3f f0e3 e93e 4595 d43e
00000030: fe43 1a3f f365 563e 6a5d da3e 446d 413e

output.weight f4 [1, 16]
-0.07944956 -0.22455002 0.1595642 0.20350114 -0.35098764 -0.69025254 0.52250195 0.22333123
-0.3443532 -0.62925255 0.7230775 -0.3612497 0.5773804 -0.111593835 0.42075202 0.16638589
00000000: 73b6 a2bd 71f0 65be cc64 233e 9a62 503e
00000010: a7b4 b3be 64b4 30bf b0c2 053f f1b0 643e
00000020: 104f b0be b216 21bf 9b1b 393f b8f5 b8be
00000030: 34cf 133f 4f8b e4bd cf6c d73e 1061 2a3e
