models/focal_loss_checkpoints/checkpoint_epoch_400.pth (torch, 100242 bytes, 16 tensors)

hidden1.weight f4 [128, 30]
0.107126445 -0.16062012 -0.066070676 -0.056415543 0.10073627 -0.09892002 0.025934646 0.026091851
0.027876241 -0.10912374 -0.13864675 0.20552742 -0.09056568 0.020535767 -0.067011796 0.10838569
-0.21005954 0.05207894 0.15828063 0.25522977 0.05504378 0.047685817 -0.1157979 0.022125812
0.08095875 0.07902987 -0.09240397 0.112465225 0.11222315 -0.07238016 -0.18356948 0.0012819603
0.033618346 0.03396435 -0.020256717 0.0064391484 -0.07998337 0.0013029291 -0.042104788 -0.14629649
-0.06107423 -0.16570424 0.17210698 0.15470396 0.0688417 -0.04372146 -0.11105467 0.059016164
0.106743865 0.10596779 -0.17127268 -0.12582737 -0.11293653 0.03607186 0.21067216 -0.16107187
0.09676342 0.011747082 -0.14368023 -0.038697824 0.14157113 0.008460911 0.03831897 -0.1348386
0.00758257 0.08692652 0.09853113 -0.045458 0.09221277 0.11116601 0.017334195 -0.13687491
-0.18009461 0.11237293 0.13221507 0.1598262 -0.16749576 -0.1864415 -0.08571935 -0.11237336
0.04662622 -0.0379151 -0.16686028 -0.08910484 -0.10748549 -0.08669334 0.04963342 -0.0678981
0.009589162 0.14412805 -0.019521609 0.17004023 -0.0810084 -0.02011499 -0.08371628 0.019535484
0.045896374 0.037375785 -0.01776534 -0.06485434 0.14021708 -0.17356107 0.04293451 0.068386495
-0.057640694 0.14379187 -0.11582474 -0.019754514 -0.09898382 -0.016525427 -0.028819641 -0.14820834
0.06577481 -0.013547948 0.22458047 0.19421722 -0.14636542 0.05384549 0.041425496 -0.12073432
0.065967835 0.017206872 -0.20377506 -0.12098783 -0.1652211 -0.11854419 0.1210395 -0.107442826
0.00984997 0.181572 0.11281649 0.07615563 0.21689375 -0.08217653 0.08770244 -0.10698772
0.09862331 -0.023872118 -0.117925525 -0.22093241 0.020809622 0.0037023872 -0.07745503 0.029198848
0.14513312 0.15459181 0.016177893 -0.06025286 0.006926521 0.021631002 -0.07293446 -0.06557179
0.1706251 0.048184965 0.21055484 0.053360235 0.19200818 0.019702522 -0.029381195 0.029755112
0.062636256 0.089745514 -0.050020427 0.11184449 -0.1576106 0.05671273 0.09858031 -0.08440758
-0.05287789 0.12536356 0.06779061 -0.032972384 -0.115266204 0.017056394 0.09675759 -0.11387112
-0.06122743 -0.13434048 -0.07171582 0.04633166 -0.08948272 -0.051835973 0.049340114 -0.15398593
-0.051770803 0.1611662 -0.050634664 0.13115741 0.00026958465 -0.13340823 -0.042316116 -0.17386897
0.18979338 0.19442286 0.13129579 0.038802672 0.113353804 0.06372282 0.015747286 0.03401434
0.05469676 -0.020901226 -0.15751025 0.12088639 0.12125357 -0.13518833 0.061763875 0.06066337
0.0032243575 -0.050603382 -0.012832044 -0.06608155 0.005688686 0.14551955 -0.18545333 -0.12956385
0.058001053 -0.02687044 -0.098053366 -0.010876197 0.06947526 -0.1979963 -0.0066132843 0.0269701
0.07401255 -0.017416198 0.15784533 0.13757743 -0.100123465 0.040852074 0.11237118 -0.055568255
0.16273484 -0.020111447 0.17315628 -0.049794223 0.1774917 -0.10855323 0.08539827 -0.0459694
-0.10605039 0.07783805 -0.15778759 0.17478186 0.08623843 -0.03841999 0.032696273 0.13201222
0.02661643 0.039483286 0.1974544 0.10130167 -0.025344346 0.030250177 0.24938367 -0.11698944
00000000: 1c65 db3d 9a79 24be 1050 87bd fc13 67bd
00000010: d14e ce3d 9496 cabd e574 d43c 94be d53c
00000020: b75c e43c 447c dfbd 6af9 0dbe c875 523e
00000030: 807a b9bd a03a a83c 7b3d 89bd 51f9 dd3d
00000040: d919 57be ba50 553d 5114 223e 7aad 823e
00000050: 9675 613d 3452 433d 7327 edbd 3141 b53c
00000060: b3cd a53d 6ada a13d 4b3e bdbd 2b54 e63d
00000070: 40d5 e53d 0d3c 94bd a3f9 3bbe 7307 a83a
00000080: 64b3 093d 341e 0b3d 6af1 a5bc 7eff d23b
00000090: 52ce a3bd 0cc7 aa3a 1276 2cbd bfce 15be
000000a0: f928 7abd 5fae 29be d03c 303e b76a 1e3e
000000b0: e1fc 8c3d 4615 33bd a170 e3bd efba 713d
000000c0: 879c da3d a405 d93d 1b62 2fbe e4d8 00be
000000d0: 444b e7bd 16c0 133d 71ba 573e 06f0 24be
000000e0: e62b c63d d576 403c e920 13be 9c81 1ebd
000000f0: 06f8 103e a29f 0a3c 5af4 1c3d 2113 0abe
00000100: 3577 f83b 8806 b23d b0ca c93d 2b32 3abd
00000110: 0cda bc3d 01ab e33d 7100 8e3c f028 0cbe
00000120: b96a 38be c723 e63d 6363 073e 7ba9 233e
00000130: 0284 2bbe 85ea 3ebe a08d afbd 0124 e6bd
00000140: 23fb 3e3d dd4c 1bbd 6cdd 2abe 997c b6bd
00000150: 5a21 dcbd 478c b1bd 6a4c 4b3d 290e 8bbd
00000160: dc1b 1d3c 4e96 133e c8eb 9fbc 071f 2e3e
00000170: bbe7 a5bd 31c8 a4bc 7173 abbd e108 a03c
00000180: d6fd 3b3d 5a17 193d 9e88 91bc 5ad2 84bd
00000190: 1195 0f3e feb9 31be 19dc 2f3d 380e 8c3d
000001a0: a618 6cbd 2d3e 133e 8535 edbd 38d4 a1bc
000001b0: 07b8 cabd 5560 87bc 2b17 ecbc edc3 17be
000001c0: f2b4 863d 36f8 5dbc 6cf8 653e e1e0 463e
000001d0: d1e0 15be 178d 5c3d c8ad 293d 8e43 f7bd
000001e0: 251a 873d 6df5 8c3c 69aa 50be 78c8 f7bd
000001f0: b82f 29be 4cc7 f2bd 8fe3 f73d fc0a dcbd
00000200: c561 213c 03ee 393e 550c e73d 7cf7 9b3d
00000210: 6519 5e3e 2b4c a8bd 569d b33d 611c dbbd
00000220: 05fb c93d 768f c3bc f082 f1bd 1b3c 62be
00000230: f178 aa3c c0a3 723b bea0 9ebd 6c32 ef3c
00000240: c79d 143e 514d 1e3e 8087 843c b4cb 76bd
00000250: dff7 e23b 8033 b13c aa5e 95bd 814a 86bd
00000260: 59b8 2e3e 995d 453d b09b 573e 4390 5a3d
00000270: cb9d 443e 2f67 a13c d5b0 f0bc fec0 f33c
00000280: 7047 803d 7fcc b73d 38e2 4cbd b90e e53d
00000290: ac64 21be 9c4b 683d 79e4 c93d e2dd acbd
000002a0: 7d96 58bd 4e5f 003e ced5 8a3d 0d0e 07bd
000002b0: b010 ecbd dab9 8b3c d828 c63d 4335 e9bd
000002c0: 9dc9 7abd 8d90 09be bedf 92bd 44c6 3d3d
000002d0: b742 b7bd f551 54bd dc18 4a3d 7dae 1dbe
000002e0: 9f0d 54bd c108 253e 4b66 4fbd 214e 063e
000002f0: 0a57 8d39 2b9c 08be aa53 2dbd b50a 32be
00000300: 3259 423e c916 473e 6772 063e 8def 1e3d
00000310: 0a26 e83d 1c81 823d 7400 813c 9f52 0b3d
00000320: b609 603d 0c39 abbc 5e4a 21be 4993 f73d
00000330: cb53 f83d cf6e 0abe 1efc 7c3d 277a 783d
00000340: be4f 533b 7e45 4fbd 7e3d 52bc c455 87bd
00000350: 2868 ba3b 1403 153e 7ae7 3dbe 63ac 04be
00000360: 8392 6d3d 661f dcbc 34d0 c8bd 1432 32bc
00000370: 0c49 8e3d 8bbf 4abe 40b4 d8bb 66f0 dc3c
00000380: e493 973d 6aac 8ebc 35a2 213e 19e1 0c3e
00000390: 880d cdbd 8154 273d dc22 e63d 8a9b 63bd
000003a0: f6a3 263e c3c0 a4bc e14f 313e 07f5 4bbd
000003b0: 62c0 353e 2851 debd 4ae5 ae3d 694a 3cbd
000003c0: f230 d9bd 8e69 9f3d 1293 21be 04fa 323e
000003d0: c69d b03d 485e 1dbd 87ec 053d 362e 073e
000003e0: b30a da3c 3ab9 213d 7c31 4a3e 4077 cf3d
000003f0: f29e cfbc 38cf f73c 6f5e 7f3e 2998 efbd

bn1.weight f4 [128]
1.0249556 1.0008794 1.0080109 1.0105765 1.0067796 1.0608516 1.0444717 1.0028449
1.0295222 1.010048 1.007994 1.0081766 1.0128316 0.99952394 1.0140953 1.027034
1.0135149 1.0141349 1.0299118 1.0148584 1.0267838 1.0009995 1.0189453 1.0250802
1.0257208 1.0235447 0.9975891 1.033069 1.0230585 1.0085589 1.0208477 1.0153679
1.0234257 1.0538151 1.0178077 1.0338209 1.0208998 1.0246743 1.0256506 1.0423312
1.0159907 1.0103899 1.015202 1.0805643 1.0167553 1.0014157 0.98945665 1.0298502
1.0096169 0.98832184 0.9973627 1.0308214 1.0241756 1.0120686 1.0544704 1.0310664
1.0043359 1.0183566 1.003483 1.024447 1.0142641 1.0033158 1.0210993 1.0459346
1.0375915 1.02449 1.0202017 1.0377411 1.0308692 1.0249548 1.0477728 1.0321661
1.0063204 1.012404 0.99380165 1.0493114 1.0542628 1.0278738 1.0153899 0.9942352
1.0171056 1.0426223 1.018722 1.0198928 1.0102328 1.0430799 0.9934942 1.0212194
1.0169814 1.0280071 1.0411394 0.9813263 1.0102011 1.0059673 1.003771 1.0160836
1.0463369 1.0200821 1.0228132 1.0488997 1.1003428 1.0004277 0.9817472 1.0026107
1.0596732 1.0757151 1.0163752 1.0051118 1.0150437 0.9865929 1.0097876 1.0271124
1.0285844 1.020359 1.0152056 1.0259074 1.0286924 1.0106657 1.040781 1.0008563
1.0133405 1.0475627 0.9820489 1.0040059 1.0364337 1.0296597 1.0015049 1.0233884
00000000: bf31 833f d11c 803f 8006 813f 925a 813f
00000010: 27de 803f fcc9 873f 40b1 853f 395d 803f
00000020: 62c7 833f 4149 813f f305 813f ee0b 813f
00000030: 77a4 813f cde0 7f3f e0cd 813f da75 833f
00000040: dbba 813f 2ccf 813f 26d4 833f e1e6 813f
00000050: a76d 833f c020 803f cd6c 823f d435 833f
00000060: d24a 833f 8303 833f 0062 7f3f 9b3b 843f
00000070: 95f3 823f 7518 813f 23ab 823f 93f7 813f
00000080: 9dff 823f 6ae3 863f 8647 823f 3e54 843f
00000090: d8ac 823f 8728 833f 8548 833f 1c6b 853f
000000a0: fc0b 823f 7554 813f 24f2 813f ee4f 8a3f
000000b0: 0a25 823f 642e 803f 084d 7d3f 22d2 833f
000000c0: 203b 813f a902 7d3f 2953 7f3f f5f1 833f
000000d0: 3018 833f 778b 813f e3f8 863f fcf9 833f
000000e0: 148e 803f 8259 823f 2272 803f 1421 833f
000000f0: 68d3 813f a76c 803f 62b3 823f 2fe1 853f
00000100: cccf 843f 7d22 833f f895 823f b3d4 843f
00000110: 86f3 833f b831 833f 6b1d 863f 051e 843f
00000120: 1bcf 803f 7496 813f c969 7e3f d64f 863f
00000130: 15f2 863f 5e91 833f 4cf8 813f 3386 7e3f
00000140: 8430 823f a674 853f 7c65 823f d98b 823f
00000150: 4f4f 813f a483 853f a355 7e3f 51b7 823f
00000160: 722c 823f bd95 833f 0e44 853f 3338 7b3f
00000170: 454e 813f 89c3 803f 917b 803f 070f 823f
00000180: 5eee 853f 0d92 823f 8beb 823f 5842 863f
00000190: 08d8 8c3f 040e 803f c953 7b3f 8c55 803f
000001a0: 5fa3 873f 08b1 893f 9518 823f 81a7 803f
000001b0: f4ec 813f 5a91 7c3f b840 813f 6b78 833f
000001c0: a7a8 833f 209b 823f 42f2 813f ef50 833f
000001d0: 31ac 833f 7e5d 813f 5038 853f 0f1c 803f
000001e0: 24b5 813f 8916 863f 8f67 7b3f 4483 803f
000001f0: dca9 843f e4cb 833f 5031 803f 64fe 823f

bn1.bias f4 [128]
-0.078220844 0.06125326 -0.0010882729 0.042381987 0.09532399 -0.067594096 0.04759756 0.050811987
0.049802072 0.10757408 -0.060520954 0.0006363536 0.053345006 0.024892773 -0.12506789 -0.032159064
-0.012654702 -0.016454611 0.058438964 0.020023547 -0.064417005 0.032919105 0.0023623188 0.04358861
-0.048919868 0.03961764 -0.0011943192 -0.08604589 0.044017997 0.0038682977 0.07026926 -0.022833455
0.088575706 -0.18974167 0.023807013 0.01785965 -0.033517364 -0.017799295 -0.027358625 0.15225066
-0.09744003 -0.05938639 0.11063511 0.044785608 0.073553085 0.023602258 -0.075493224 0.0077394256
0.0310038 -0.041941967 0.033654 -0.031574503 0.017323582 0.10504523 -0.11330828 -0.030326188
-0.03595499 -0.026475923 0.007829315 0.120211296 -0.04561719 0.04090979 0.051582493 0.062060334
0.008592779 0.008630266 0.026867533 -0.0795585 0.0054110456 -0.058448054 0.043719176 0.046421163
0.15445729 -0.058736805 -0.081398994 0.069462046 0.13773872 0.06873436 -0.077108674 -0.01778355
0.12533586 0.057784423 0.03367181 0.03234351 -0.11135635 -0.037407827 0.13160786 -0.111362204
0.060628418 0.0021479393 -0.045786656 -0.07045567 0.072315104 -0.029871216 0.051297024 0.07581269
0.03908554 0.022030136 -0.025207046 0.084883645 0.044517096 0.03330255 -0.06891575 -0.038242217
-0.06450711 0.062297873 0.004191007 -0.03168358 0.01743505 -0.066498816 0.105078615 0.08262864
0.040505465 -0.020288162 -0.03580315 0.064998135 0.063628465 0.013700936 0.050759993 -0.00137879
0.0031544867 0.06796249 -0.14327052 -0.014598829 0.059805762 -0.031146187 -0.098125234 0.058024097
00000000: 4032 a0bd b3e4 7a3d 61a4 8eba bc98 2d3d
00000010: 3939 c33d c66e 8abd a9f5 423d 3b20 503d
00000020: 42fd 4b3d cd4f dc3d d2e4 77bd f8d0 263a
00000030: 4b80 5a3d eeeb cb3c cc11 00be 39b9 03bd
00000040: ab55 4fbc d2cb 86bc b25d 6f3d 6c08 a43c
00000050: 10ed 83bd 2fd6 063d 22d1 1a3b f889 323d
00000060: 3360 48bd 1b46 223d b48a 9cba d438 b0bd
00000070: 374c 343d 4483 7d3b 54e9 8f3d 3a0d bbbc
00000080: 2e67 b53d a44b 42be ed06 c33c 674e 923c
00000090: 8149 09bd d4cf 91bc 321f e0bc 99e7 1b3e
000000a0: a38e c7bd 253f 73bd a994 e23d 1d71 373d
000000b0: 00a3 963d 8659 c13c 319c 9abd 029b fd3b
000000c0: aefb fd3c 57cb 2bbd c7d8 093d 4454 01bd
000000d0: 2fea 8d3c f421 d73d 2c0e e8bd a06e f8bc
000000e0: 8a45 13bd 09e4 d8bc 8746 003c 5731 f63d
000000f0: 17d9 3abd 0691 273d 2a48 533d fa32 7e3d
00000100: bac8 0c3c f665 0d3c 4d19 dc3c 91ef a2bd
00000110: 244f b13b 3a67 6fbd e112 333d 1e24 3e3d
00000120: 0d2a 1e3e 0196 70bd 84b4 a6bd 1e42 8e3d
00000130: 610b 0d3e 9ac4 8c3d 27eb 9dbd cfae 91bc
00000140: 0b58 003e 5caf 6c3d 74eb 093d a17a 043d
00000150: cc0e e4bd f338 19bd 36c4 063e de11 e4bd
00000160: 8155 783d 71c4 0c3b ca8a 3bbd 104b 90bd
00000170: f119 943d 7bb4 f4bc d41c 523d af43 9b3d
00000180: 2918 203d 8b78 b43c 027f cebc 7ad7 ad3d
00000190: 8f57 363d 4168 083d b323 8dbd dfa3 1cbd
000001a0: 4e1c 84bd 0e2c 7f3d b754 893b a4c6 01bd
000001b0: f3d3 8e3c 8830 88bd 7533 d73d 3439 a93d
000001c0: 0fe9 253d 5c33 a6bc 53a6 12bd be1d 853d
000001d0: a44f 823d e479 603c b6e9 4f3d 84b8 b4ba
000001e0: 81bb 4e3b eb2f 8b3d 82b5 12be ed2f 6fbc
000001f0: e3f6 743d 4a26 ffbc e2f5 c8bd adaa 6d3d

bn1.running_mean f4 [128]
-0.030056447 -0.148415 0.22102457 -0.14590377 0.05226273 0.08641805 -0.09468814 -0.037481487
0.09389727 0.24628055 0.0031667072 0.17811087 -0.03649399 0.038050465 -0.01045374 -0.06797799
0.20364062 -0.019399457 0.06296704 0.034277197 -0.11150191 -0.14392279 -0.14888667 0.04970194
-0.052868724 -0.078795046 0.016779698 0.08145483 -0.08775332 0.03711556 0.004037735 0.15545096
-0.0007365998 0.034057986 0.045761738 -0.006836591 0.23652758 0.1979169 0.06166625 -0.1299985
-0.09599202 -0.13386884 -0.09022733 -0.028223878 0.1560201 0.15774882 -0.005439743 0.043989338
-0.045549236 0.16728945 0.118631735 -0.010794859 0.07171637 -0.0051150043 0.15582426 -0.041707177
0.1492668 -0.027651595 -0.061880514 0.12383608 0.015794756 0.05233872 -0.2742031 0.07379467
-0.07910432 0.06263801 0.14304255 0.0032130615 0.14839028 -0.1100133 0.021463346 -0.031564333
0.001449394 -0.12857464 0.06928203 0.17590362 -0.083673015 0.04534614 -0.16611142 0.25730824
0.071224794 0.01368197 0.11205053 -0.036497917 -0.061242323 -0.06189806 -0.08316994 0.25588238
-0.13822581 0.026498351 0.088916615 0.20634168 -0.14684877 0.02389279 -0.03578102 -0.08641327
0.017996877 0.055538297 -0.07596825 -0.12144482 0.003994967 -0.16809592 0.15922938 0.068122774
0.1508205 -0.08271959 -0.021963175 0.10906321 0.011928802 0.10567956 0.05398085 -0.03758096
-0.08637971 0.023637375 0.062992394 -0.076488115 0.11728567 0.10077318 0.1011948 -0.12253086
0.09810647 -0.0935261 0.0939362 0.0953562 -0.069148235 -0.09389828 -0.08624467 -0.109802306
00000000: f038 f6bc 1afa 17be 4454 623e cc67 15be
00000010: 7211 563d f2fb b03d dbeb c1bd 3086 19bd
00000020: 364d c03d f830 7c3e 8888 4f3b b262 363e
00000030: b97a 15bd ceda 1b3d 2a46 2bbc 0b38 8bbd
00000040: 2b87 503e 9ceb 9ebc ddf4 803d 3f66 0c3d
00000050: 1d5b e4bd 7f60 13be bf75 18be 4394 4b3d
00000060: e08c 58bd 4c5f a1bd 9475 893c cad1 a63d
00000070: 03b8 b3bd 7c06 183d fa4e 843b 892e 1f3e
00000080: 6018 41ba 6380 0b3d a970 3b3d 7b05 e0bb
00000090: 4934 723e baaa 4a3e c095 7c3d 541e 05be
000000a0: 7797 c4bd ea14 09be 1bc9 b8bd c335 e7bc
000000b0: bcc3 1f3e e888 213e df3f b2bb 2a2e 343d
000000c0: d691 3abd ed4d 2b3e 32f5 f23d ecdc 30bc
000000d0: 08e0 923d c49b a7bb 6590 1f3e 25d5 2abd
000000e0: 65d9 183e 9985 e2bc 6c76 7dbd c59d fd3d
000000f0: 0164 813c 2061 563d 5964 8cbe a921 973d
00000100: 7201 a2bd 5b48 803d bf79 123e 3a92 523b
00000110: 9ff3 173e a74e e1bd e6d3 af3c 9a49 01bd
00000120: 98f9 bd3a 12a9 03be bde3 8d3d 1420 343e
00000130: c25c abbd e0bc 393d 1d19 2abe e8bd 833e
00000140: 4ede 913d 572a 603c c07a e53d d77e 15bd
00000150: 3bd9 7abd d288 7dbd 0055 aabd 0403 833e
00000160: 118b 0dbe 1213 d93c ea19 b63d 3c4b 533e
00000170: 865f 16be d0ba c33c 1e8f 12bd 71f9 b0bd
00000180: 306e 933c 207c 633d 3e95 9bbd 10b8 f8bd
00000190: 36e8 823b 5621 2cbe 070d 233e f483 8b3d
000001a0: b070 1a3e e368 a9bd 1eec b3bc 885c df3d
000001b0: 0671 433c 866e d83d 061b 5d3d 7eee 19bd
000001c0: d8e7 b0bd 2ba3 c13c 2802 813d cda5 9cbd
000001d0: 7833 f03d 2b62 ce3d 383f cf3d 76f1 fabd
000001e0: 0cec c83d 9d8a bfbd 9f61 c03d 1d4a c33d
000001f0: 979d 8dbd be4d c0bd 0ca1 b0bd 08e0 e0bd

bn1.running_var f4 [128]
0.38714314 0.66038615 0.6444603 0.5464145 0.39524236 0.41726068 0.35146752 0.52983904
0.971478 1.745115 0.71753484 0.8157797 0.43714198 1.4307004 0.3289402 0.29404074
1.0163453 0.63631403 0.7441201 0.53415257 0.617277 1.3988788 1.0008883 0.4783914
0.60768765 0.3615468 0.5975366 0.46314666 0.5225195 0.89206856 0.3021338 1.0159887
0.76442707 0.36229318 0.71298367 0.25842205 1.0399055 1.1999995 0.46613336 0.5282539
1.420875 0.47468734 0.5343988 0.27249187 0.89902425 0.8062123 0.35503215 0.36745557
0.45598918 0.9795991 1.06179 0.30570224 0.8020674 0.5996207 0.50164294 0.60072213
1.3111467 0.33681732 0.9353288 1.0569667 0.35452375 0.88481504 0.5173387 1.0441884
0.43355536 0.618921 0.89085096 0.64014053 0.5494586 0.5016229 0.33072892 0.4314357
0.63885856 0.86270374 0.5712648 1.1650215 0.3683799 0.6366062 1.0571421 2.0859158
0.35423976 0.4991976 0.5859393 0.3132073 0.69579494 0.4041964 0.75192195 0.82659066
0.65523833 0.36275956 0.51213974 0.89308417 1.1720895 0.53870636 0.56517863 0.75103116
0.25674996 0.832963 0.6469845 0.5015937 0.3111308 0.972715 0.6830102 0.55071026
0.528966 0.32882398 0.67757255 1.1837082 0.49537444 1.353192 1.2024012 0.64392406
0.5278997 0.5660377 0.39355695 0.4888013 0.67367667 0.31877422 0.92586946 0.80215096
0.7894611 0.43016654 0.73201865 0.6760537 0.83805096 1.2703713 1.262472 0.69888586
00000000: a037 c63e 110f 293f 5afb 243f d2e1 0b3f
00000010: 355d ca3e 31a3 d53e 8df3 b33e 88a3 073f
00000020: c8b2 783f ee5f df3f 5db0 373f f0d6 503f
00000030: 13d1 df3e 3121 b73f da6a a83e 828c 963e
00000040: 9a17 823f 7ae5 223f a87e 3e3f 39be 083f
00000050: de05 1e3f 760e b33f 1c1d 803f b8ef f43e
00000060: 6b91 1b3f aa1c b93e 29f8 183f 8f21 ed3e
00000070: d7c3 053f 9b5e 643f 48b1 9a3e eb0b 823f
00000080: 7eb1 433f 7e7e b93e 1986 363f e54f 843e
00000090: a01b 853f 9599 993f 08a9 ee3e a63b 073f
000000a0: 3bdf b53f 380a f33e 5cce 083f 0e84 8b3e
000000b0: 7426 663f ee63 4e3f c6c6 b53e 2323 bc3e
000000c0: 6a77 e93e 02c7 7a3f bce8 873f 0185 9c3e
000000d0: 4a54 4d3f be80 193f ac6b 003f edc8 193f
000000e0: a8d3 a73f 5273 ac3e b571 6f3f af4a 873f
000000f0: 2384 b53e 3d83 623f 4f70 043f f7a7 853f
00000100: f8fa dd3e 9b71 1e3f cf0e 643f 40e0 233f
00000110: 52a9 0c3f 5c6a 003f 4d55 a93e 24e5 dc3e
00000120: 3c8c 233f 27da 5c3f 693e 123f 6d1f 953f
00000130: 4a9c bc3e a0f8 223f 6f50 873f a57f 0540
00000140: ea5e b53e d496 ff3e 1e00 163f b55c a03e
00000150: 9e1f 323f d5f2 ce3e f57d 403f 729b 533f
00000160: b3bd 273f 9fbb b93e 971b 033f 2aa1 643f
00000170: 0707 963f a9e8 093f 8caf 103f 9443 403f
00000180: bb74 833e 103d 553f c7a0 253f 7268 003f
00000190: 894c 9f3e da03 793f c2d9 2e3f 59fb 0c3f
000001a0: 516a 073f 9e5b a83e 6575 2d3f c083 973f
000001b0: b8a1 fd3e 6535 ad3f 48e8 993f 35d8 243f
000001c0: 6f24 073f d9e7 103f 4c80 c93e 2a44 fa3e
000001d0: 1376 2c3f 6036 a33e c805 6d3f c459 4d3f
000001e0: 1f1a 4a3f ca3e dc3e 9365 3b3f db11 2d3f
000001f0: 828a 563f 879b a23f af98 a13f 2fea 323f

hidden2.weight f4 [128, 128]
0.07457283 0.0012410731 -0.06309958 0.033145003 0.03926941 -0.016788078 0.019677445 0.023846712
0.022036359 -0.026752727 -0.05347141 0.05693302 0.016296973 0.08781014 -0.057727076 -0.02470221
-0.009627529 0.018244594 -0.019347658 -0.031785674 -0.01545385 -0.057977263 0.0098669855 -0.08486912
-0.032163907 0.00987571 -0.06766238 0.018911695 0.096850745 -0.012790615 0.02133482 -0.08810393
0.0062283822 0.026094636 -0.010032394 -2.06828e-05 -0.097530074 0.023998834 -0.029685676 0.002805676
0.05098969 0.06485281 0.0030413065 0.083307646 0.008324089 -0.005954714 0.059837967 0.08644857
0.07462502 -0.06559387 -0.039406896 0.038354952 -0.047673143 -0.007105699 0.04553592 0.0135479625
0.0004925418 0.037203114 0.026462916 -0.08772072 0.06294422 0.018317224 0.05932696 0.00057440106
0.002820606 0.022851963 -0.009627178 0.07229883 -0.078567825 -0.04214281 -0.07012264 0.00013509575
-0.059358433 0.0677045 -0.030091677 0.058384407 0.105020836 -0.05567274 -0.04657575 -0.037248194
-0.042104024 0.08246068 0.05190421 -0.0064068646 -0.06610573 0.038045533 0.08457727 0.0033363756
-0.010172292 -0.049455885 -0.09326831 0.044395506 0.054394674 0.067486435 0.092598855 0.0180367
-0.00222058 0.017372228 -0.020210834 -0.018563716 -0.0011429162 0.019424943 -0.06267803 -0.07410145
-0.121277854 -0.0075880387 0.009482776 0.060194638 -0.04698949 -0.017758615 0.043304846 0.03857591
-0.034713484 -0.06962897 -0.070689335 -0.0010668451 0.007912728 0.053124208 0.02804879 0.056744482
-0.03588215 0.0088505 -0.03316703 0.082866505 -0.0121877985 0.05262742 0.05089543 0.00902703
0.029268857 -0.009412654 0.020454885 0.072334036 -0.01173349 0.079443164 -0.053833976 -0.013534782
0.008811993 0.0064236405 0.11011389 -0.09431859 -0.05628965 -0.004969907 0.03484787 -0.026526714
-0.005063603 -0.06497032 -0.09075767 -0.027863394 0.0036919191 0.07978505 -0.026496757 -0.08231912
0.03331587 0.07894412 0.0013220558 0.076313555 0.03274707 -0.003993926 -0.060014952 0.02731567
0.06413226 -0.051678985 0.060288295 0.007370588 -0.04207001 0.014171237 -0.020352282 -0.049185824
0.04532137 0.08675451 -0.017138863 -0.061309364 -0.04898167 -0.067232385 -0.070578486 -0.040791318
-0.05042442 -0.025229895 0.04721723 -0.05453653 0.019249251 -0.011404819 -0.06883629 -0.046994735
-0.0486005 0.02229594 0.064833246 -0.057238802 0.0017419938 -0.089096606 0.101037495 0.0362014
0.03499941 -0.07464154 0.015877035 0.0765755 -0.02272165 0.035076886 0.0050362605 -0.0095024165
-0.037145317 0.016620917 0.03599399 -0.0060720495 -0.029985081 -0.09646249 -0.037777502 -0.040831808
-0.06652551 -0.08156383 -0.053342603 -0.028931297 0.03528768 0.041940704 -0.06424188 0.05383895
-0.009018767 0.085396335 0.046071857 0.030367544 0.062521 -0.014214042 0.012083412 -0.06937687
-0.061899167 0.0031815 0.047486432 0.012752624 -0.07647025 -0.045668095 -0.030765725 0.009919012
0.014932713 0.042130228 -0.08118212 0.04946751 -0.09796772 -0.04184943 0.033580765 -0.06391979
-0.057359245 0.09784637 -0.05037651 0.013715651 -0.08515601 -0.10903361 -0.044928357 0.08799011
-0.05557896 0.05538266 -0.008402395 0.0070502274 0.052835036 0.031132491 0.075923145 0.032481752
00000000: a4b9 983d 81ab a23a 5a3a 81bd 0ec3 073d
00000010: f6d8 203d 2787 89bc 9832 a13c 2e5a c33c
00000020: 9885 b43c 8928 dbbc d604 5bbd 9932 693d
00000030: 3b81 853c cdd5 b33d 3a73 6cbd 4a5c cabc
00000040: c9bc 1dbc b075 953c fb7e 9ebc b231 02bd
00000050: 2532 7dbc 9179 6dbd 23a9 213c dccf adbd
00000060: 4dbe 03bd bbcd 213c 9392 8abd b3ec 9a3c
00000070: af59 c63d ba8f 51bc 5cc6 ae3c d56f b4bd
00000080: 7517 cc3b 6bc4 d53c e95e 24bc fa7f adb7
00000090: d9bd c7bd 3499 c43c 602f f3bc 6fdf 373b
000000a0: 91da 503d 8dd1 843d a850 473b 339d aa3d
000000b0: c361 083c c31f c3bb a818 753d f30b b13d
000000c0: 01d5 983d 1456 86bd 2069 21bd 151a 1d3d
000000d0: ea44 43bd ecd6 e8bb df83 3a3d 46f8 5d3c
000000e0: ec1d 013a 4b62 183d c2c8 d83c eca6 b3bd
000000f0: e6e8 803d 010e 963c d400 733d 6793 163a
00000100: ebd9 383b 0a34 bb3c 50bb 1dbc 6911 943d
00000110: 2be8 a0bd f09d 2cbd 759c 8fbd 7da8 0d39
00000120: d421 73bd a8a8 8a3d d282 f6bc 7d24 6f3d
00000130: 2a15 d73d 1909 64bd 37c6 3ebd 9091 18bd
00000140: 4575 2cbd 25e1 a83d 8299 543d adf0 d1bb
00000150: 7162 87bd a2d5 1b3d d936 ad3d 18a7 5a3b
00000160: afa9 26bc 4192 4abd 7503 bfbd 10d8 353d
00000170: f3cc 5e3d 5436 8a3d 78a4 bd3d b4c1 933c
00000180: 2687 11bb 3450 8e3c 3191 a5bc ef12 98bc
00000190: e7cd 95ba 0f21 9f3c 575d 80bd 80c2 97bd
000001a0: 8660 f8bd 15a5 f8bb a55d 1b3c a78e 763d
000001b0: 0d78 40bd 847a 91bc 6c60 313d c601 1e3d
000001c0: ba2f 0ebd a299 8ebd 92c5 90bd 62d5 8bba
000001d0: 63a4 013c c598 593d 93c6 e53c e76c 683d
000001e0: 29f9 12bd b001 113c 27da 07bd eab5 a93d
000001f0: 55af 47bc d98f 573d ba77 503d 1ce6 133c
00000200: 3ec5 ef3c 8837 1abc 0191 a73c de23 943d
00000210: d33d 40bc 19b3 a23d 0481 5cbd fec0 5dbc
00000220: 2d60 103c 677d d23b 6483 e13d 1b2a c1bd
00000230: fa8f 66bd 9ada a2bb a4bc 0e3d 8d4e d9bc
00000240: 95ec a5bb 290f 85bd 28df b9bd c641 e4bc
00000250: 20f4 713b 5866 a33d ba0f d9bc ed96 a8bd
00000260: 3976 083d 74ad a13d d548 ad3a 484a 9c3d
00000270: cb21 063d 7bdf 82bb 3dd2 75bd 1dc5 df3c
00000280: c657 833d 58ad 53bd dcf0 763d f984 f13b
00000290: 9a51 2cbd 7a2e 683c d4b9 a6bc 1377 49bd
000002a0: e7a2 393d 59ac b13d cd66 8cbc 871f 7bbd
000002b0: 01a1 48bd 22b1 89bd 748b 90bd cc14 27bd
000002c0: d689 4ebd edae cebc db66 413d b261 5fbd
000002d0: 9bb0 9d3c 47db 3abc 0afa 8cbd 8d7d 40bd
000002e0: 5111 47bd faa5 b63c 4bc7 843d 3c73 6abd
000002f0: 9d53 e43a 4878 b6bd bfec ce3d eb47 143d
00000300: 8b5b 0f3d aadd 98bd 8e10 823c 9ed3 9c3d
00000310: c122 babc c8ac 0f3d 3707 a53b 06b0 1bbc
00000320: b025 18bd 9728 883c 6f6e 133d 0bf8 c6bb
00000330: 46a3 f5bc 208e c5bd 95bc 1abd 413f 27bd
00000340: 873e 88bd f00a a7bd c67d 5abd 5401 edbc
00000350: d089 103d 04ca 2b3d 3f91 83bd 3b86 5c3d
00000360: 73c3 13bc 46e4 ae3d d8b5 3c3d 5bc5 f83c
00000370: 030b 803d 03e2 68bc 81f9 453c 7615 8ebd
00000380: fb89 7dbd b680 503b 2281 423d 62f0 503c
00000390: 6f9c 9cbd 780e 3bbd 6708 fcbc 5a83 223c
000003a0: 56a8 743c bf90 2c3d d042 a6bd 729e 4a3d
000003b0: 4da3 c8bd 4f6a 2bbd fc8b 093d 61e8 82bd
000003c0: 87f1 6abd ad63 c83d 9957 4ebd 9cb7 603c
000003d0: 4666 aebd 034d dfbd cc06 38bd 2934 b43d
000003e0: c3a6 63bd eed8 623d 33aa 09bc 9805 e73b
000003f0: 8d69 583d 9109 ff3c 987d 9b3d 960b 053d

bn2.weight f4 [128]
1.0020869 0.99724483 0.9985037 0.9864841 0.9955318 0.9981274 0.9961133 0.9859098
1.0006847 0.9922449 1.0007396 0.99632055 0.99893045 0.9993903 0.99648166 0.9931643
0.9924547 0.9920371 0.9987413 0.99783003 0.99812716 0.9914 0.9917082 1.0004097
0.987228 1.0069202 0.99649894 1.0019656 0.9952631 1.0008342 0.9977185 0.9909734
0.99602574 0.98661613 0.9816747 0.9943086 0.9977368 0.9989825 0.9907225 0.98849016
1.0002457 0.9934861 0.99416167 0.99397576 0.9895335 0.99686384 1.0003718 0.98532015
0.9961034 1.0055296 0.99586666 0.99199206 0.99801034 0.99934894 0.98994595 0.9875658
0.99518037 0.97732043 0.9906423 0.9911013 0.9955141 1.0000768 0.99481714 0.99130476
1.0056736 1.0029073 0.9957828 0.9953649 1.0046546 0.98872405 1.0041203 1.0024977
1.0025973 0.99264514 0.9964729 0.99693316 1.0004048 0.9916282 0.9860611 0.98630524
0.98383904 0.9883645 0.9957014 1.0000348 0.99151146 0.9989922 0.9931301 0.98878384
0.986814 0.9905056 0.9953383 0.9994479 0.99765754 0.991754 0.9923989 0.98983306
1.0007304 0.9907068 0.99336314 1.010381 0.98840904 0.9866321 0.9865107 0.9990187
1.0002996 0.9999078 0.99834955 1.0042946 0.9957432 0.99392605 1.0008305 0.98688227
0.9980579 1.0115856 1.0000811 0.99273264 1.0022599 0.99566805 0.9913315 1.0081682
0.99470264 0.9985446 0.9974597 0.9772025 1.0059844 1.0083866 1.0022528 0.98383343
00000000: 6244 803f 704b 7f3f f09d 7f3f 398a 7c3f
00000010: 2cdb 7e3f 4785 7f3f 4801 7f3f 9664 7c3f
00000020: 7016 803f c303 7e3f 3c18 803f dd0e 7f3f
00000030: e8b9 7f3f 0bd8 7f3f 6c19 7f3f 0440 7e3f
00000040: 8311 7e3f 25f6 7d3f 83ad 7f3f ca71 7f3f
00000050: 4385 7f3f 64cc 7d3f 97e0 7d3f 6d0d 803f
00000060: f9ba 7c3f c3e2 803f 8e1a 7f3f 6940 803f
00000070: 90c9 7e3f 561b 803f 7b6a 7f3f 6fb0 7d3f
00000080: 8bfb 7e3f e092 7c3f 084f 7b3f 028b 7e3f
00000090: ae6b 7f3f 51bd 7f3f fd9f 7d3f b10d 7d3f
000000a0: 0d08 803f 1b55 7e3f 6181 7e3f 3275 7e3f
000000b0: 1152 7d3f 7832 7f3f 2f0c 803f f13d 7c3f
000000c0: a200 7f3f 32b5 803f 1ef1 7e3f 31f3 7d3f
000000d0: 9b7d 7f3f 55d5 7f3f 196d 7d3f 1dd1 7c3f
000000e0: 24c4 7e3f ac31 7a3f bc9a 7d3f d1b8 7d3f
000000f0: 03da 7e3f 8402 803f 56ac 7e3f 26c6 7d3f
00000100: eab9 803f 445f 803f 9feb 7e3f 3cd0 7e3f
00000110: 8698 803f 051d 7d3f 0487 803f d851 803f
00000120: 1c55 803f fe1d 7e3f d918 7f3f 0337 7f3f
00000130: 440d 803f 59db 7d3f 806e 7c3f 807e 7c3f
00000140: e0dc 7b3f 7505 7d3f 49e6 7e3f 2401 803f
00000150: b2d3 7d3f f4bd 7f3f c63d 7e3f f020 7d3f
00000160: d89f 7c3f c691 7d3f 7ece 7e3f d1db 7f3f
00000170: 7c66 7f3f 97e3 7d3f db0d 7e3f b365 7d3f
00000180: ef17 803f f69e 7d3f 0c4d 7e3f 2a54 813f
00000190: 6008 7d3f ec93 7c3f f78b 7c3f b1bf 7f3f
000001a0: d109 803f f5f9 7f3f d693 7f3f ba8c 803f
000001b0: 07e9 7e3f f071 7e3f 371b 803f 51a4 7c3f
000001c0: b980 7f3f a37b 813f a802 803f ba23 7e3f
000001d0: 0d4a 803f 1ae4 7e3f e7c7 7d3f a80b 813f
000001e0: d5a4 7e3f 9ea0 7f3f 8559 7f3f f129 7a3f
000001f0: 19c4 803f d012 813f d249 803f 82dc 7b3f

bn2.bias f4 [128]
0.0064090756 -0.052750375 -0.027541734 0.07062016 0.02147155 0.047601726 -0.023275968 -0.045551363
-0.025457703 0.044580866 0.014849195 0.045026045 0.034503058 0.058313973 0.029750116 -0.023117784
-0.050217595 0.043258645 -0.028606903 -0.05629571 0.021409338 -0.01939792 -0.02962211 -0.031951237
0.038212333 -0.036721822 -0.06481102 -0.0326542 -0.029089348 -0.019781407 0.025373144 -0.05387413
0.03408409 0.03959566 0.050222684 -0.02945307 0.054968324 -0.020646585 0.0688861 0.044788886
0.027387535 -0.039410517 0.026043989 -0.020482607 0.038336534 0.027033996 -0.0119680995 0.03414054
-0.039469056 -0.038924728 0.018862551 -0.035213917 0.0038936383 -0.028552016 -0.039402008 -0.053883374
0.03932897 0.04851282 0.07449928 0.042019125 -0.02166569 -0.050360154 -0.043499786 0.053716633
-0.063283354 -0.045445878 -0.025980342 -0.033555903 -0.07008618 -0.03686062 -0.034982946 -0.025700811
-0.027317574 0.024977634 -0.008089447 0.04587384 -0.021201398 -0.07542408 0.060341537 -0.051835466
-0.062269073 0.047371395 -0.028831998 -0.032028288 -0.04885908 0.0012293627 -0.030651215 0.057612628
-0.04902869 -0.049826514 0.028722364 -0.05148767 0.02649833 0.058901086 0.030999692 0.05015596
-0.019933352 0.026176156 0.040440757 0.028093906 0.037114967 -0.06180057 -0.052822385 -0.023039283
0.009798571 0.013868041 -0.022126207 0.03743402 -0.035766765 0.029713925 0.0058336104 -0.039886117
0.0009441973 -0.0506725 -0.02728006 0.0428258 0.037368767 0.04456909 0.02987299 -0.039560378
-0.061600268 -0.040656168 0.036531456 -0.06809273 0.033839066 0.04109375 -0.01621886 -0.07918664
00000000: 3903 d23b c710 58bd 349f e1bc 4da1 903d
00000010: 1be5 af3c 07fa 423d 3ead bebc 1194 3abd
00000020: ac8c d0bc 6d9a 363d 0a4a 733c 3b6d 383d
00000030: 1453 0d3d a2da 6e3d 84b6 f33c 8261 bdbc
00000040: f7b0 4dbd fa2f 313d 0659 eabc 5596 66bd
00000050: a362 af3c 63e8 9ebc 11aa f2bc 4ddf 02bd
00000060: 8984 1c3d 9f69 16bd a4bb 84bd 69c0 05bd
00000070: c94c eebc 9e0c a2bc 57db cf3c 1fab 5cbd
00000080: c29b 0b3d 0f2f 223d 4db6 4d3d 9147 f1bc
00000090: 7726 613d 0723 a9bc 2814 8d3d 8d74 373d
000000a0: d35b e03c ec6c 21bd 345a d53c 24cb a7bc
000000b0: c506 1d3d 6676 dd3c d915 44bc f3d6 0b3d
000000c0: 4eaa 21bd 896f 1fbd a385 9a3c 783c 10bd
000000d0: 692c 7f3b ebe5 e9bc 0064 21bd d0b4 5cbd
000000e0: 6a17 213d 61b5 463d 1493 983d 3f1c 2c3d
000000f0: 3f7c b1bc 7346 4ebd d52c 32bd f905 5c3d
00000100: b49a 81bd 7525 3abd bad4 d4bc ea71 09bd
00000110: 5889 8fbd 29fb 16bd 474a 0fbd 828a d2bc
00000120: 1bc9 dfbc e59d cc3c 9a89 04bc 35e6 3b3d
00000130: 8eae adbc f177 9abd b028 773d 6d51 54bd
00000140: db0d 7fbd 8208 423d 1531 ecbc 1830 03bd
00000150: 7520 48bd 9122 a13a 4218 fbbc 38fb 6b3d
00000160: 4fd2 48bd e316 4cbd 2a4b eb3c bce4 52bd
00000170: 0713 d93c 4442 713d 11f3 fd3c 5670 4d3d
00000180: 454b a3bc 616f d63c 35a5 253d 3125 e63c
00000190: dd05 183d 9822 7dbd 495c 58bd e1bc bcbc
000001a0: 2f8a 203c c836 633c 0542 b5bc 6a54 193d
000001b0: 2c80 12bd 9e6a f33c df27 bf3b a05f 23bd
000001c0: 0284 773a f88d 4fbd 6f7a dfbc 1b6a 2f3d
000001d0: fe0f 193d 148e 363d 33b8 f43c 100a 22bd
000001e0: 9050 7cbd 1587 26bd 02a2 153d 3474 8bbd
000001f0: d59a 0a3d ec51 283d 6add 84bc 9b2c a2bd

bn2.running_mean f4 [128]
0.07438618 -0.059308253 -0.10110257 0.11290456 0.03778529 0.10265832 -0.10556774 -0.08208211
-0.043197695 0.056117382 0.029056048 0.12329747 0.031145843 0.114561 0.11129237 -0.09162918
-0.04430246 0.07999552 -0.062761515 -0.09602933 0.06740372 -0.034326263 -0.083779044 -0.07947019
0.056598067 -0.064119056 -0.07946471 -0.0442159 -0.10887292 -0.058554504 0.06041933 -0.12869447
0.0930482 0.05787308 0.05314143 -0.029331274 0.11971508 -0.0026223925 0.15712284 0.04824615
0.08641116 -0.07608364 0.09025171 -0.11231337 0.083755694 0.14110745 -0.098642044 0.06328721
0.0016043077 -0.10385123 0.11284424 -0.04512374 0.016766768 -0.13694939 -0.06212802 -0.044300642
0.025134794 0.07952011 0.011458557 0.11548946 -0.042154 -0.0393298 -0.06232342 0.09024308
-0.13032293 -0.0883642 -0.107882224 -0.024576832 -0.05211677 -0.068708524 -0.091577455 -0.120007895
-0.029382957 0.05013811 -0.09655144 0.15586087 -0.016210938 -0.1206692 0.049418982 -0.06796619
-0.1278258 0.07100365 -0.09730189 -0.09337819 -0.09468768 -0.04807425 -0.054614983 0.014196936
-0.09217902 -0.06207787 0.06987852 -0.068582654 0.08482271 0.12875472 0.045718253 0.13054018
-0.11110492 0.07166752 0.031970836 0.032499522 0.08808536 -0.115790404 -0.032888733 -0.080558926
0.13703361 0.049883984 -0.08457923 0.05854695 -0.053794764 0.120260365 0.0008933118 -0.052221842
0.023717064 -0.0891127 -0.0023355163 0.115696885 0.079828165 0.06805247 0.08925956 -0.057590272
-0.052358255 -0.052947566 0.0397868 -0.069514215 0.09969567 0.066183254 -0.089201726 -0.11531219
00000000: c857 983d 36ed 72bd dd0e cfbd 823a e73d
00000010: c0c4 1a3d 863e d23d e633 d8bd aa1a a8bd
00000020: 11f0 30bd 57db 653d f306 ee3c 6283 fc3d
00000030: 9125 ff3c f59e ea3d 41ed e33d 14a8 bbbd
00000040: 7f76 35bd b1d4 a33d 1c89 80bd 06ab c4bd
00000050: f60a 8a3d b299 0cbd 5994 abbd 44c1 a2bd
00000060: 60d3 673d da50 83bd 65be a2bd bb1b 35bd
00000070: c4f8 debd d9d6 6fbd 427a 773d 7cc8 03be
00000080: 0e90 be3d 530c 6d3d d4aa 593d 2448 f0bc
00000090: 2e2d f53d 72dc 2bbb cfe4 203e c19d 453d
000000a0: 56f8 b03d bdd1 9bbd e3d5 b83d 8d04 e6bd
000000b0: 1b88 ab3d 797e 103e d704 cabd ba9c 813d
000000c0: a247 d23a f4af d4bd e21a e73d acd3 38bd
000000d0: 765a 893c 763c 0cbe f379 7ebd 9774 35bd
000000e0: 7ce7 cd3c 70db a23d acbc 3b3c bd85 ec3d
000000f0: aca9 2cbd 4918 21bd d846 7fbd 5dd1 b83d
00000100: 6073 05be 4af8 b4bd 5bf1 dcbd 5a55 c9bc
00000110: 6578 55bd 0eb7 8cbd f68c bbbd b3c6 f5bd
00000120: 87b4 f0bc 9e5d 4d3d c3bc c5bd fe99 1f3e
00000130: cdcc 84bc 6a21 f7bd 8f6b 4a3d dc31 8bbd
00000140: c4e4 02be 5d6a 913d 3746 c7bd 113d bfbd
00000150: 9deb c1bd 81e9 44bd f6b3 5fbd 449a 683c
00000160: 5bc8 bcbd 5d45 7ebd 781c 8f3d 1075 8cbd
00000170: 87b7 ad3d 47d8 033e 1043 3b3d 53ac 053e
00000180: fa8a e3bd 6cc6 923d daf3 023d 381e 053d
00000190: 1966 b43d 8523 edbd 56b6 06bd 14fc a4bd
000001a0: 8a52 0c3e 2653 4c3d e037 adbd edce 6f3d
000001b0: e657 5cbd 114b f63d 242d 6a3a 92e6 55bd
000001c0: 4a4a c23c b880 b6bd 760f 19bb 7df2 ec3d
000001d0: f37c a33d 185f 8b3d b7cd b63d c7e3 6bbd
000001e0: 9c75 56bd 8cdf 58bd 7cf7 223d 785d 8ebd
000001f0: 3e2d cc3d 168b 873d 65af b6bd cc28 ecbd

bn2.running_var f4 [128]
0.33720785 0.417916 0.36413926 0.3718309 0.27327102 0.45306176 0.21453251 0.33169684
0.31939963 0.3383985 0.20443392 0.32763302 0.19533971 0.45475635 0.30841914 0.30263978
0.24623244 0.38405856 0.33144745 0.49820763 0.24794926 0.2130222 0.21672557 0.38183424
0.3014453 0.34757563 0.43333277 0.33816206 0.36185038 0.27886704 0.25393167 0.42887184
0.4971614 0.32284045 0.32871997 0.34625828 0.53011954 0.21494722 0.37194723 0.43294257
0.26845396 0.31388497 0.31355152 0.29887208 0.31168604 0.3964319 0.35384914 0.29035753
0.3709473 0.4125682 0.35787132 0.27430993 0.22174297 0.3701961 0.32823026 0.32581374
0.38522366 0.28056538 0.3192718 0.30096292 0.2784815 0.3829681 0.3306964 0.32758805
0.48570168 0.44844234 0.279443 0.35500345 0.45452392 0.2617002 0.38219208 0.36425155
0.2906881 0.30504644 0.263292 0.48787177 0.30928674 0.5558199 0.2781455 0.3508078
0.5071535 0.26859328 0.29290795 0.3151411 0.32973602 0.25869092 0.39913258 0.32697168
0.35051447 0.41664228 0.28034553 0.34048358 0.35228398 0.48564073 0.2949984 0.44972908
0.34814733 0.34916872 0.39602193 0.35750273 0.24703962 0.464855 0.35992506 0.33484775
0.3890196 0.20977668 0.23520054 0.38731417 0.41299954 0.37805605 0.19066681 0.2637362
0.23982854 0.35734636 0.2623806 0.29506928 0.37807363 0.28255555 0.32956487 0.31420386
0.43507323 0.3274447 0.36016932 0.46338025 0.38120177 0.38282108 0.35073003 0.4345774
00000000: 82a6 ac3e 16f9 d53e 7670 ba3e 9f60 be3e
00000010: 2eea 8b3e b6f7 e73e 69ae 5b3e 2bd4 a93e
00000020: 5988 a33e 9142 ad3e 2057 513e 84bf a73e
00000030: 2207 483e d3d5 e83e 1de9 9d3e 9af3 9a3e
00000040: 5b24 7c3e 53a3 c43e 7bb3 a93e 1215 ff3e
00000050: 69e6 7d3e 7e22 5a3e 4fed 5d3e c77f c33e
00000060: 0a57 9a3e 6ff5 b13e cbdd dd3e 9423 ad3e
00000070: 7444 b93e a9c7 8e3e 5503 823e 1795 db3e
00000080: f08b fe3e 584b a53e fc4d a83e c448 b13e
00000090: eab5 073f 201b 5c3e de6f be3e a6aa dd3e
000000a0: cc72 893e 88b5 a03e d389 a03e c305 993e
000000b0: 5095 9f3e 1ff9 ca3e b72b b53e bea9 943e
000000c0: ceec bd3e 243c d33e e93a b73e 5a72 8c3e
000000d0: 9710 633e 588a bd3e cc0d a83e 0fd1 a63e
000000e0: 093c c53e 44a6 8f3e 9877 a33e d017 9a3e
000000f0: 2195 8e3e 6514 c43e 0a51 a93e 9fb9 a73e
00000100: e4ad f83e 3c9a e53e 2713 8f3e 03c3 b53e
00000110: 5cb7 e83e 92fd 853e aeae c33e 2e7f ba3e
00000120: 12d5 943e 0c2f 9c3e 36ce 863e 54ca f93e
00000130: d55a 9e3e 374a 0e3f 1669 8e3e 149d b33e
00000140: d0d4 013f 0f85 893e 08f8 953e 2d5a a13e
00000150: 29d3 a83e 2373 843e 1b5b cc3e d568 a73e
00000160: a276 b33e 2352 d53e 7389 8f3e dd53 ae3e
00000170: 915e b43e e7a5 f83e 080a 973e e442 e63e
00000180: 5e40 b23e 3ec6 b23e 63c3 ca3e 990a b73e
00000190: f4f7 7c3e 7901 ee3e 1948 b83e 2a71 ab3e
000001a0: 942d c73e b3cf 563e 69d8 703e 0b4e c63e
000001b0: ad74 d33e 9090 c13e 293e 433e 6e08 873e
000001c0: 9d95 753e 1af6 b63e c056 863e 5213 973e
000001d0: de92 c13e 1fab 903e babc a83e 54df a03e
000001e0: ebc1 de3e d5a6 a73e 1d68 b83e 2d40 ed3e
000001f0: e12c c33e 2001 c43e e392 b33e ee80 de3e

hidden3.weight f4 [16, 128]
-0.10586775 -0.092182435 -0.033442535 -0.039824132 0.06589206 -0.051626757 -0.033765156 0.046654906
-0.07840159 0.051331885 -0.08599269 -0.061172742 -0.058598273 -0.028982557 0.06640309 0.017263345
0.015805816 0.07982102 -0.07293995 -0.026193082 0.04240344 0.025566217 -0.046326432 0.06703285
-0.07009823 0.043697633 0.049355853 0.066622205 0.06085406 -0.03842205 -0.033997636 -0.04700801
0.011492323 0.025222743 0.030032098 -0.046130568 -0.04224064 -0.0014563497 0.009378583 0.11017465
0.011753148 -0.0053456854 -0.0909318 0.034674015 -0.0052410727 -0.026872797 0.07020326 -0.031104699
-0.036777623 0.0032062547 0.054120682 0.0028484298 0.04084537 0.07288106 0.008832673 0.018264337
-0.045841075 -0.02211211 -0.070596755 0.002196805 -0.04058796 -0.031202568 -0.07513553 0.009999505
0.06148775 -0.06272174 0.060690645 -0.06770036 -0.0555131 0.06314078 -0.01315377 -0.06489134
0.06937178 -0.007724077 -0.052166242 0.038887642 -0.11153555 0.0007628913 -0.0203687 -0.008986301
0.05331205 -0.04111076 0.04025121 0.01063398 -0.058631238 0.06271732 -0.07709473 0.0064156484
0.055105805 -0.054562632 -0.07582947 0.03251223 -0.005333947 0.02621776 0.026175896 -0.08250601
0.08639991 -0.010939669 -0.048634425 -0.06213474 -0.05507249 -0.06461846 -0.06921059 0.05873124
0.027103184 0.03281012 -0.001848172 0.04097225 -0.041792814 -0.0781177 -0.019112851 -0.01505331
-0.041299976 -0.031213066 0.0009806391 -0.049931325 -0.007496948 0.011062858 -0.075120896 0.10518503
0.02460748 0.004154073 -0.07101968 -0.0069586933 -0.04456527 -0.02754041 0.006876706 0.030504115
0.0293972 -0.0050288723 0.0822506 -0.07871006 -0.0016952531 -0.10608759 0.036767248 0.011540226
-0.0053868024 -0.01814067 -0.019893818 0.038735684 -0.08141286 -0.03684688 -0.059858456 0.012307104
0.032827653 -0.044155736 0.0262216 0.0059967465 -0.086800925 0.013490546 0.05723667 -0.050853603
-0.026297042 0.11182738 0.054523036 0.054188855 -0.005440475 0.044161204 0.012834138 -0.07949036
-0.08143674 -0.104250565 -0.11329598 0.06838968 -0.06926317 0.014308413 0.03793918 -0.0692201
0.011557818 -0.0698685 0.056700513 0.007636607 0.07608342 0.024459718 0.009391262 -0.06000736
0.07788856 -0.049929395 -0.07008728 0.06726959 -0.032212898 -0.008000349 0.014774306 -0.040313344
-0.037054785 0.021980222 0.118996345 0.014489657 -0.01017967 -0.021743614 0.10757949 -0.07794078
-0.05455941 0.07721918 -0.06464888 0.06948276 0.15886863 -0.001965894 -0.021456921 0.014645171
-0.08456545 -0.04441827 0.035124075 0.009306146 0.05679208 -0.01618071 -0.052834153 -0.048063926
-0.039365277 0.0035892057 -0.05830359 -0.022999788 -0.008816119 0.014708557 0.075764954 -0.03559438
0.021649403 -0.0031830263 -0.018516514 0.09893822 -0.094580114 -0.06115323 0.08551064 -0.021439776
-0.028399892 -0.078850485 0.0737536 -0.058700025 -0.0061537456 0.085647695 0.1231849 0.018075567
-0.018525692 0.032999057 -0.02199672 0.041295756 -0.012669425 0.009548072 -0.04972785 -0.08944798
0.13362367 -0.009459347 -0.06555219 0.031870298 0.028465675 -0.0242174 -0.10365403 0.03769654
-0.0036339748 0.010028124 0.03670719 0.075298965 -0.015611862 -0.033126403 0.09841805 0.01342322
00000000: 31d1 d8bd 25ca bcbd 0afb 08bd a11e 23bd
00000010: 6bf2 863d 9476 53bd 554d 0abd 3719 3f3d
00000020: 0391 a0bd 6241 523d ef1c b0bd 4590 7abd
00000030: be04 70bd d46c edbc 58fe 873d dc6b 8d3c
00000040: 337b 813c 3479 a33d 8a61 95bd e092 d6bc
00000050: 3baf 2d3d 3e70 d13c c9c0 3dbd 8548 893d
00000060: a98f 8fbd 4afc 323d 5d29 4a3d 3971 883d
00000070: 1b42 793d 7160 1dbd 1b41 0bbd 798b 40bd
00000080: 4c4a 3c3c ed9f ce3c e005 f63c 68f3 3cbd
00000090: 8504 2dbd fde2 beba a1a8 193c 3fa3 e13d
000000a0: 4790 403c dc2a afbb 743a babd 5706 0e3d
000000b0: 4ebd abbb 5724 dcbc bac6 8f3d 48cf febc
000000c0: 22a4 16bd 0720 523b a6ad 5d3d b9ac 3a3b
000000d0: 7a4d 273d aa42 953d eab6 103c 179f 953c
000000e0: dac3 3bbd 7524 b5bc 0895 90bd 46f8 0f3b
000000f0: 903f 26bd 879c ffbc a8e0 99bd f7d4 233c
00000100: 94da 7b3d 4174 80bd c196 783d 7da6 8abd
00000110: b461 63bd f44f 813d e982 57bc c0e5 84bd
00000120: cb12 8e3d 411a fdbb 45ac 55bd a648 1f3d
00000130: c06c e4bd c5fc 473a 43dc a6bc 473b 13bc
00000140: bc5d 5a3d c263 28bd 74de 243d 253a 2e3c
00000150: 4f27 70bd f071 803d d8e3 9dbd 5c3a d23b
00000160: a0b6 613d 117d 5fbd 7b4c 9bbd 8b2b 053d
00000170: 64c8 aebb a1c6 d63c d56e d63c e9f8 a8bd
00000180: 70f2 b03d 4c3c 33bc e434 47bd ff80 7ebd
00000190: b193 61bd af56 84bd 48be 8dbd 2b90 703d
000001a0: 7f07 de3c e863 063d 5d3e f2ba 85d2 273d
000001b0: f12e 2bbd 2cfc 9fbd 8e92 9cbc 29a2 76bc
000001c0: 2a2a 29bd 8bb2 ffbc ca88 803a ca84 4cbd
000001d0: f5a8 f5bb fd40 353c fcd8 99bd 406b d73d
000001e0: a095 c93c e41e 883b c472 91bd c005 e4bb
000001f0: 138a 36bd 6d9c e1bc fe55 e13b c4e3 f93c
00000200: 66d2 f03c 3dc9 a4bb 0173 a83d bd32 a1bd
00000210: 4133 deba 7344 d9bd 4199 163d 3713 3d3c
00000220: c683 b0bb be9b 94bc 5cf8 a2bc 4fa9 1e3d
00000230: c9bb a6bd c1ec 16bd 242e 75bd bca3 493c
00000240: 4a76 063d a5dc 34bd aece d63c 5b80 c43b
00000250: afc4 b1bd 7307 5d3c 0071 6a3d de4b 50bd
00000260: e56c d7bc c105 e53d 8c53 5f3d 22f5 5d3d
00000270: 0346 b2bb 61e2 343d 4746 523c d8cb a2bd
00000280: 4ec8 a6bd 5281 d5bd b907 e8bd e30f 8c3d
00000290: d9d9 8dbd d56d 6a3c 1d66 1b3d 45c3 8dbd
000002a0: 015d 3d3c 3717 8fbd cc3e 683d 813c fa3b
000002b0: a0d1 9b3d bf5f c83c cfdd 193c 47ca 75bd
000002c0: 0a84 9f3d c482 4cbd eb89 8fbd a4c4 893d
000002d0: acf1 03bd e513 03bc ee0f 723c 9b1f 25bd
000002e0: c2c6 17bd de0f b43c 5bb4 f33d 0766 6d3c
000002f0: a1c8 26bc aa1f b2bc a352 dc3d 6a9f 9fbd
00000300: b079 5fbd 1725 9e3d a266 84bd fa4c 8e3d
00000310: 75ae 223e 3ad6 00bb 6dc6 afbc 4df2 6f3c
00000320: a730 adbd efef 35bd 43de 0f3d ce78 183c
00000330: d09e 683d 698d 84bc a068 58bd aede 44bd
00000340: 7c3d 21bd e138 6b3b bfcf 6ebd 0d6a bcbc
00000350: 7c71 10bc 29fc 703c a82a 9b3d 6acb 11bd
00000360: 175a b13c 529a 50bb f2af 97bc 1fa0 ca3d
00000370: 38b3 c1bd cf7b 7abd 3420 af3d 78a2 afbc
00000380: e4a6 e8bc 5d7c a1bd 210c 973d 706f 70bd
00000390: 5ca5 c9bb 0f68 af3d 5d48 fc3d 3613 943c
000003a0: 31c3 97bc 052a 073d 7732 b4bc bd25 293d
000003b0: 6c93 4fbc 846f 1c3c 6eaf 4bbd 8130 b7bd
000003c0: a5d4 083e 61fb 1abc 3a40 86bd 6e8a 023d
000003d0: d930 e93c 9263 c6bc 9048 d4bd b067 1a3d
000003e0: fb27 6ebb 004d 243c 475a 163d 5836 9a3d
000003f0: e5c8 7fbc 8daf 07bd 678f c93d 11ed 5b3c

bn3.weight f4 [16]
0.9914137 0.9789122 0.98584867 1.1084726 0.9440357 1.0171809 0.963023 0.9953503
1.0539813 1.0888293 0.9618259 1.103736 0.9826544 1.0245193 0.99328613 0.99548745
00000000: 4acd 7d3f fd99 7a3f 9460 7c3f 6ee2 8d3f
00000010: 53ac 713f fc32 823f ad88 763f 47cf 7e3f
00000020: dce8 863f c25e 8b3f 393a 763f 3947 8d3f
00000030: 3d8f 7b3f 7323 833f 0048 7e3f 44d8 7e3f

bn3.bias f4 [16]
-0.11283382 -0.39991432 -0.112441406 0.21207659 0.28762338 0.07530945 0.46939346 0.15234315
-0.45170563 -0.38781694 0.4481331 0.58677 -0.2535225 -0.1415951 0.09850365 0.01452393
00000000: 6b15 e7bd 92c1 ccbe ae47 e6bd 9b2a 593e
00000010: 5f43 933e d73b 9a3d 5754 f03e d8ff 1b3e
00000020: f645 e7be f18f c6be b471 e53e 8f36 163f
00000030: b3cd 81be 4efe 10be 48bc c93d c7f5 6d3c

bn3.running_mean f4 [16]
-0.058156807 -0.047049332 -0.037468005 0.0503447 0.008195902 0.033993945 0.12880315 0.013798969
-0.0052876784 -0.17124274 0.012393991 0.200933 -0.0046951477 -0.054333642 0.01713407 0.0047656023
00000000: d535 6ebd cdb6 40bd 0d78 19bd 3f36 4e3d
00000010: 1b48 063c 3c3d 0b3d f9e4 033e 1215 623c
00000020: 4344 adbb 425a 2fbe 2b10 4b3c 61c1 4d3e
00000030: c1d9 99bb f48c 5ebd c05c 8c3c c528 9c3b

bn3.running_var f4 [16]
0.69992083 1.3593872 0.55748636 1.7914475 0.9903749 0.6934492 1.5603776 0.9627092
1.8713806 2.7616413 1.2496408 3.0022655 0.7635086 1.0352235 0.3113347 0.25861293
00000000: 032e 333f 6600 ae3f 6db7 0e3f 274e e53f
00000010: 3689 7d3f e385 313f 74ba c73f 1c74 763f
00000020: 6689 ef3f bbbe 3040 3bf4 9f3f 1e25 4040
00000030: 4d75 433f 3482 843f 4367 9f3e ea68 843e

output.weight f4 [1, 16]
0.07156041 0.4899731 0.091425285 -0.5470907 -0.33589393 -0.19782284 -0.5003815 -0.17483199
0.6170939 0.5416231 -0.5979913 -0.80595297 0.31143916 0.25107875 0.02286705 0.0062559894
00000000: 448e 923d c1dd fa3e 2e3d bb3d 230e 0cbf
00000010: 4afa abbe 1292 4abe 0119 00bf 2807 33be
00000020: def9 1d3f d0a7 0a3f f515 19bf ef52 4ebf
00000030: f474 9f3e 658d 803e ae53 bb3c 0bff cc3b
