models/focal_loss_checkpoints/checkpoint_epoch_420.pth (torch, 100242 bytes, 16 tensors)

hidden1.weight f4 [128, 30]
0.10686542 -0.16142753 -0.06918399 -0.05611356 0.102935694 -0.09916324 0.028588194 0.024249375
0.024920274 -0.110736296 -0.13440959 0.2043316 -0.087699436 0.018852998 -0.06556436 0.11112208
-0.20897768 0.05353029 0.15724388 0.26276368 0.055963155 0.047482237 -0.11577913 0.020872975
0.078798704 0.08059607 -0.08686256 0.10835009 0.114176266 -0.0666362 -0.18548888 0.0022250859
0.035204697 0.032587666 -0.015456147 0.005096465 -0.08046393 0.00038858107 -0.040954545 -0.14620683
-0.06184165 -0.16478351 0.17235464 0.15548636 0.060759444 -0.045310322 -0.11008573 0.06642566
0.10984538 0.10470583 -0.17252323 -0.123781376 -0.116595566 0.032580048 0.21239935 -0.15929954
0.096381284 0.0125638675 -0.13940999 -0.037692554 0.14312987 0.00820239 0.03704793 -0.13479854
0.0078609185 0.08934822 0.09537436 -0.04573299 0.09151201 0.110512085 0.018448664 -0.13808027
-0.18018374 0.11264042 0.1339114 0.15796581 -0.16670686 -0.18897283 -0.0863501 -0.1139048
0.046897672 -0.036618497 -0.16593425 -0.08814684 -0.107164085 -0.08680244 0.048486296 -0.0672812
0.008930616 0.14228505 -0.021094233 0.16719155 -0.08123508 -0.01888064 -0.08362765 0.01397139
0.047114544 0.036586776 -0.015926134 -0.0624169 0.13876651 -0.17567173 0.041178353 0.06480749
-0.056297526 0.14566608 -0.12192181 -0.022470517 -0.09874889 -0.015765768 -0.025128331 -0.14756168
0.06655496 -0.009439753 0.22936967 0.19344136 -0.14794435 0.053210776 0.037664518 -0.11449586
0.06590436 0.015051081 -0.20583612 -0.12392904 -0.16234224 -0.11469642 0.12116166 -0.10736587
0.007977624 0.1831522 0.114153914 0.07307746 0.2115751 -0.08484901 0.09115203 -0.10347674
0.10549493 -0.021417746 -0.12089815 -0.22402279 0.02070235 0.0011524466 -0.07897868 0.03145881
0.14141937 0.15310092 0.019464955 -0.05705024 0.00618713 0.028889406 -0.07178325 -0.06795929
0.16825639 0.050225075 0.21636802 0.06291701 0.18488958 0.020010447 -0.029656641 0.02535838
0.06575125 0.08835891 -0.04941235 0.10793847 -0.15842816 0.05922691 0.09951302 -0.07674931
-0.04949315 0.12852938 0.07196359 -0.033984106 -0.119835496 0.025942419 0.096689075 -0.11898591
-0.06470488 -0.13141303 -0.060172886 0.043205794 -0.08834435 -0.051605936 0.046038646 -0.16020936
-0.052117452 0.16334598 -0.05486371 0.13353217 0.0034046539 -0.13161659 -0.046071567 -0.16997644
0.19047013 0.19533572 0.11865462 0.03569747 0.11533556 0.07311921 0.016393801 0.030361477
0.053219188 -0.023265833 -0.16320139 0.1195125 0.11964652 -0.1382139 0.059511423 0.058373634
0.0037058715 -0.038216326 -0.015125091 -0.06662063 0.0061734305 0.14667325 -0.18226926 -0.13181265
0.061165947 -0.028856315 -0.099128574 -0.00888298 0.069168724 -0.19582114 -0.0055870037 0.02363505
0.076477334 -0.0153167015 0.15873303 0.13977632 -0.09900479 0.040304177 0.11221062 -0.051622435
0.16363747 -0.01933842 0.17304696 -0.049522094 0.18143065 -0.10277777 0.086267814 -0.04397624
-0.10350245 0.07706134 -0.15877451 0.17520666 0.085924536 -0.035909213 0.03125847 0.13008645
0.027076416 0.039995197 0.2000949 0.099615276 -0.025966914 0.030242868 0.25306535 -0.117448054
00000000: 42dc da3d 424d 25be 56b0 8dbd 55d7 65bd
00000010: f3cf d23d 1916 cbbd ca31 ea3c a0a6 c63c
00000020: 9a25 cc3c b6c9 e2bd aba2 09be 4e3c 513e
00000030: c39b b3bd 9a71 9a3c 9b46 86bd f993 e33d
00000040: 3ffe 55be 9442 5b3d 8a04 213e f688 863e
00000050: 9f39 653d bc7c 423d 9c1d edbd cdfd aa3c
00000060: 3761 a13d 8d0f a53d ffe4 b1bd a7e6 dd3d
00000070: 3fd5 e93d 8f78 88bd ccf0 3dbe bfd2 113b
00000080: cd32 103d a57a 053d c73b 7dbc 3f00 a73b
00000090: 46ca a4bd 78ba cb39 f4bf 27bd 3eb7 15be
000000a0: ac4d 7dbd 02bd 28be bc7d 303e d137 1f3e
000000b0: e5de 783d 5197 39bd a174 e1bd 2d0a 883d
000000c0: 9df6 e03d 0370 d63d eea9 30be 1781 fdbd
000000d0: a8c9 eebd a872 053d 377f 593e 6b1f 23be
000000e0: 8d63 c53d aed8 4d3c 7ec1 0ebe 8263 1abd
000000f0: a390 123e 5163 063c 92bf 173d a108 0abe
00000100: 15cb 003c 33fc b63d a253 c33d 8452 3bbd
00000110: a66a bb3d 2954 e23d a721 973c ea64 0dbe
00000120: 1682 38be 05b0 e63d 1220 093e cac1 213e
00000130: 34b5 2abe 1882 41be 52d8 b0bd eb46 e9bd
00000140: c617 403d 47fd 15bd abea 29be 5586 b4bd
00000150: d878 dbbd 7ac5 b1bd 9199 463d baca 89bd
00000160: b851 123c 2cb3 113e d0cd acbc 4334 2b3e
00000170: 945e a6bd 92ab 9abc f944 abbd 42e8 643c
00000180: 2efb 403d 04dc 153d 8677 82bc dda8 7fbd
00000190: cf18 0e3e 4ae3 33be a2aa 283d cab9 843d
000001a0: 3c98 66bd 7d29 153e 24b2 f9bd 1714 b8bc
000001b0: dc3c cabd 3627 81bc eed9 cdbc 691a 17be
000001c0: f84d 883d 32a9 1abc e2df 6a3e 7e15 463e
000001d0: b97e 17be 8bf3 593d 1c46 1a3d ce7c eabd
000001e0: ddf8 863d cf98 763c b4c6 52be 82ce fdbd
000001f0: 0b3d 26be f5e5 eabd 9b23 f83d a3e2 dbbd
00000200: 95b4 023c 408c 3b3e 87c9 e93d a3a9 953d
00000210: 25a7 583e 51c5 adbd eaad ba3d 9deb d3bd
00000220: ba0d d83d 4574 afbc 7399 f7bd 3b66 65be
00000230: fa97 a93c b10d 973a 93bf a1bd f4da 003d
00000240: 3dd0 103e 7dc6 1c3e f874 9f3c 83ad 69bd
00000250: 69bd ca3b 7aa9 ec3c 1903 93bd 3e2e 8bbd
00000260: 674b 2c3e cfb8 4d3d 948f 5d3e a2da 803d
00000270: b253 3d3e f3ec a33c 7cf2 f2bc 61bc cf3c
00000280: 97a8 863d 84f5 b43d 9b64 4abd d80e dd3d
00000290: fe3a 22be eb97 723d 7bcd cb3d be2e 9dbd
000002a0: 54b9 4abd 359d 033e a661 933d eb32 0bbd
000002b0: 506c f5bd 3285 d43c ec04 c63d e3ae f3bd
000002c0: fe83 84bd 2391 06be d877 76bd 8ff8 303d
000002d0: e2ed b4bd bf60 53bd 0593 3c3d ec0d 24be
000002e0: 1c79 55bd 2b44 273e c5b8 60bd a8bc 083e
000002f0: 9d20 5f3b 80c6 06be 8ab5 3cbd 4e0e 2ebe
00000300: 9a0a 433e 1606 483e 3201 f33d 8337 123d
00000310: 0d35 ec3d 86bf 953d 4b4c 863c a2b8 f83c
00000320: 5dfc 593d fd97 bebc 441e 27be f8c2 f43d
00000330: 3c09 f53d f287 0dbe 40c2 733d 3119 6f3d
00000340: 35de 723b b988 1cbd 3bcf 77bc 6670 88bd
00000350: 7d4a ca3b 8331 163e cba4 3abe e5f9 06be
00000360: 2589 7a3d 1464 ecbc ec03 cbbd eb89 11bc
00000370: 55a8 8d3d 5685 48be 2f13 b7bb 4b9e c13c
00000380: 26a0 9c3d e7f2 7abc e98a 223e 8621 0f3e
00000390: 06c3 cabd fe15 253d aece e53d 0c72 53bd
000003a0: 9590 273e 9b6b 9ebc 3933 313e aed7 4abd
000003b0: f5c8 393e 277d d2bd 2ead b03d 6e20 34bd
000003c0: 18f9 d3bd 56d2 9d3d c995 22be 6069 333e
000003d0: 34f9 af3d 8a15 13bd e208 003d 6235 053e
000003e0: 5ccf dd3c 01d2 233d ade5 4c3e 1803 cc3d
000003f0: 91b8 d4bc e4bf f73c c891 813e 9b88 f0bd

bn1.weight f4 [128]
1.028173 1.0017338 1.0080237 1.0128715 1.0081251 1.06351 1.0480006 1.0037165
1.0311302 1.0111954 1.0088463 1.0085047 1.014057 0.99959135 1.016748 1.0299542
1.014647 1.0151874 1.0321625 1.0160154 1.0282649 1.0012664 1.0197926 1.0268644
1.0266411 1.025235 0.99736893 1.0349456 1.0243051 1.0104357 1.0246224 1.0163801
1.0240493 1.0574728 1.018921 1.0369354 1.0210581 1.0260565 1.0295436 1.0443873
1.0169921 1.0125973 1.0162902 1.0847057 1.0171696 1.001926 0.9910456 1.0314744
1.010458 0.98864496 0.9978219 1.033266 1.0262209 1.0145 1.0570263 1.0323462
1.0041655 1.0199822 1.0041968 1.0260857 1.015846 1.0035435 1.0223715 1.049125
1.0396922 1.0252348 1.0210099 1.0397094 1.0330658 1.0255365 1.0521356 1.0349386
1.0086569 1.0140713 0.99418056 1.0500293 1.0583246 1.0298305 1.0171607 0.9938808
1.0202872 1.047794 1.019511 1.0218284 1.0115952 1.0459714 0.99427956 1.0244267
1.0179915 1.0317727 1.0449125 0.9814289 1.0126851 1.0068407 1.0056472 1.0169884
1.0511011 1.0201652 1.023511 1.0524999 1.1065674 1.0014056 0.9830614 1.0037986
1.0634708 1.079763 1.0176702 1.0056412 1.0168308 0.986779 1.012416 1.0294417
1.0308332 1.021761 1.0154116 1.0293343 1.0314964 1.0101787 1.0418491 1.0011028
1.0140625 1.0485473 0.9832499 1.003881 1.0367081 1.0320616 1.002591 1.0246031
00000000: 2c9b 833f d038 803f ec06 813f c6a5 813f
00000010: 3e0a 813f 1821 883f e224 863f c879 803f
00000020: 13fc 833f da6e 813f e021 813f af16 813f
00000030: 9fcc 813f 38e5 7f3f cc24 823f 8ad5 833f
00000040: f4df 813f a9f1 813f e71d 843f cb0c 823f
00000050: 2f9e 833f 7f29 803f 9088 823f 4b70 833f
00000060: fa68 833f e73a 833f 9253 7f3f 1979 843f
00000070: 6e1c 833f f555 813f d426 833f be18 823f
00000080: 0c14 833f 455b 873f 016c 823f 4dba 843f
00000090: 08b2 823f d255 833f 16c8 833f 7cae 853f
000000a0: cc2c 823f ca9c 813f cc15 823f a3d7 8a3f
000000b0: 9d32 823f 1c3f 803f 2ab5 7d3f 5a07 843f
000000c0: b056 813f d617 7d3f 4271 7f3f 0f42 843f
000000d0: 355b 833f 23db 813f a34c 873f ec23 843f
000000e0: 7f88 803f c78e 823f 8589 803f c756 833f
000000f0: 3e07 823f 1d74 803f 12dd 823f ba49 863f
00000100: a214 853f e53a 833f 74b0 823f 3315 853f
00000110: 803b 843f c844 833f 61ac 863f de78 843f
00000120: ab1b 813f 17cd 813f 9e82 7e3f 5c67 863f
00000130: 2e77 873f 7cd1 833f 5232 823f f96e 7e3f
00000140: c598 823f 1d1e 863f 567f 823f 46cb 823f
00000150: f47b 813f 64e2 853f 1b89 7e3f 6a20 833f
00000160: 8c4d 823f 2111 843f b1bf 853f ed3e 7b3f
00000170: aa9f 813f 28e0 803f 0cb9 803f ad2c 823f
00000180: 7b8a 863f c694 823f 6902 833f 51b8 863f
00000190: 00a4 8d3f 0f2e 803f e9a9 7b3f 797c 803f
000001a0: d01f 883f ad35 8a3f 0443 823f dab8 803f
000001b0: 8327 823f 8c9d 7c3f d996 813f bfc4 833f
000001c0: 58f2 833f 10c9 823f 02f9 813f 3ac1 833f
000001d0: 1308 843f 894d 813f 505b 853f 2324 803f
000001e0: cdcc 813f cc36 863f 44b6 7b3f 2c7f 803f
000001f0: dab2 843f 981a 843f e754 803f 3226 833f

bn1.bias f4 [128]
-0.080308035 0.063791886 -0.0004940216 0.043259002 0.098547265 -0.06966928 0.048801303 0.052122667
0.05147948 0.10870612 -0.060947377 0.0025776906 0.054759286 0.026502114 -0.13039395 -0.030491093
-0.013876472 -0.014228547 0.05806465 0.021169161 -0.06433897 0.031960715 0.0024887049 0.044369735
-0.051830534 0.04168025 -0.0014427257 -0.084970005 0.047058348 0.0016577395 0.071374595 -0.023636306
0.08910991 -0.19505957 0.022144336 0.021396177 -0.035695933 -0.01843452 -0.026296362 0.15702745
-0.099074714 -0.05981496 0.11392787 0.044548646 0.07436625 0.0241958 -0.07634207 0.0061444025
0.0319923 -0.044295356 0.035065956 -0.03330832 0.018040659 0.10778411 -0.11127398 -0.030559266
-0.03454616 -0.02453063 0.0065988298 0.12326772 -0.04595339 0.039034545 0.054638237 0.06720023
0.008273054 0.012027914 0.028036168 -0.08081737 0.0063808695 -0.060796995 0.04223348 0.045504253
0.15379906 -0.05891805 -0.082158566 0.07023504 0.13900985 0.072716884 -0.08076004 -0.017653987
0.12198189 0.060670342 0.034211848 0.033105385 -0.11205964 -0.03830295 0.13440625 -0.11269239
0.06314827 0.003631691 -0.05022085 -0.069890164 0.073402986 -0.029678328 0.052291293 0.07809644
0.04329834 0.02502221 -0.026408983 0.085012764 0.044487864 0.03342642 -0.07033946 -0.0406628
-0.0668314 0.061873857 0.0034936022 -0.033982918 0.01711324 -0.06546478 0.107834555 0.08354805
0.042495757 -0.020619174 -0.04003417 0.06266212 0.069903456 0.014016326 0.053325865 -0.0022719023
0.0023031072 0.06864709 -0.14648058 -0.0150486855 0.062082153 -0.032583356 -0.096880265 0.062308244
00000000: 8a78 a4bd 52a5 823d 3a81 01ba 5a30 313d
00000010: 26d3 c93d c4ae 8ebd e0e3 473d 947e 553d
00000020: 26dc 523d 50a1 de3d f5a3 79bd 79ee 283b
00000030: 464b 603d f61a d93c fe85 05be 75c8 f9bc
00000040: 245a 63bc da1e 69bc 33d5 6d3d f36a ad3c
00000050: 26c4 83bd 3de9 023d 8a19 233b 0abd 353d
00000060: 414c 54bd e9b8 2a3d d719 bdba c104 aebd
00000070: 41c0 403d 8248 d93a d82c 923d eda0 c1bc
00000080: 427f b63d b2bd 47be 0a68 b53c 0947 af3c
00000090: e635 12bd fe03 97bc 786b d7bc cecb 203e
000000a0: afe7 cabd 8800 75bd 0453 e93d a478 363d
000000b0: 554d 983d 4536 c63c 3b59 9cbd fc56 c93b
000000c0: 5c0a 033d 0c6f 35bd 52a1 0f3d 4e6e 08bd
000000d0: 01ca 933c eabd dc3d 9de3 e3bd 6d57 fabc
000000e0: 4680 0dbd 76f4 c8bc ff3a d83b c973 fc3d
000000f0: 9f39 3cbd b0e2 1f3d 58cc 5f3d 46a0 893d
00000100: b48b 073c ba10 453c 1bac e53c 9483 a5bd
00000110: 9d16 d13b 4506 79bd 03fd 2c3d ab62 3a3d
00000120: 807d 1d3e 0e54 71bd c042 a8bd 63d7 8f3d
00000130: 9958 0e3e 97ec 943d 8565 a5bd 189f 90bc
00000140: a4d1 f93d 7781 783d b921 0c3d 8399 073d
00000150: 867f e5bd 8ee3 1cbd cba1 093e 45cb e6bd
00000160: e153 813d aa01 6e3b 61b4 4dbd 9322 8fbd
00000170: 4e54 963d f71f f3bc 652f 563d 07f1 9f3d
00000180: 9a59 313d 61fb cc3c a757 d8bc 2c1b ae3d
00000190: e838 363d 24ea 083d 230e 90bd 098e 26bd
000001a0: e7de 88bd 716f 7d3d ebf4 643b ac31 0bbd
000001b0: 1131 8c3c 6612 86bd 5dd8 dc3d 3d1b ab3d
000001c0: 0810 2e3d 8be9 a8bc dffa 23bd ff54 803d
000001d0: 8b29 8f3d bba4 653c 396c 5a3d 32e4 14bb
000001e0: baef 163b d896 8c3d 01ff 15be c38e 76bc
000001f0: db49 7e3d 2076 05bd 2969 c6bd ee36 7f3d

bn1.running_mean f4 [128]
-0.02364254 -0.124030955 0.20595731 -0.1465655 0.049809806 0.095903076 -0.08528192 -0.027807143
0.079553135 0.2397026 0.022160005 0.1688653 -0.014249135 0.03309302 0.008862013 -0.07070187
0.20864923 -0.0043458864 0.042882808 0.026890185 -0.10427131 -0.13284743 -0.14069872 0.062099352
-0.047620367 -0.071335874 0.052071653 0.083985955 -0.1157049 0.05611511 -0.0013836608 0.15329005
0.016444476 0.034994084 0.02864094 -0.023591232 0.2449715 0.19109464 0.05199884 -0.122724056
-0.09444875 -0.12731673 -0.08623792 -0.014688505 0.15017663 0.15647009 -0.0040808483 0.0255096
-0.08433401 0.18752414 0.10585102 0.0032963133 0.06787807 -0.003753732 0.16268569 -0.0483255
0.13761254 -0.020739302 -0.02997124 0.11891421 0.012784609 0.049016997 -0.26907477 0.07876584
-0.07769185 0.060422827 0.13872099 0.012402348 0.16220805 -0.09672192 0.007962726 -0.02695634
-0.001927388 -0.104929484 0.06937704 0.16570711 -0.08840381 0.05164107 -0.17183705 0.25064155
0.054080565 -0.0040525408 0.118002184 -0.03529829 -0.042545628 -0.05658585 -0.10035466 0.24109136
-0.15488173 0.009978614 0.08405345 0.19633062 -0.1423246 0.01844241 -0.040633455 -0.124228746
0.0050091646 0.06518336 -0.08921434 -0.120825365 -0.018466992 -0.16046447 0.13642177 0.05270561
0.16696891 -0.08238605 -0.023020418 0.10634527 -0.0036592341 0.07947066 0.05398361 -0.04252424
-0.07833972 0.003050554 0.06925152 -0.08235648 0.1012277 0.105643846 0.084598504 -0.09813535
0.09112601 -0.093867585 0.08317189 0.08145141 -0.07260107 -0.10314027 -0.064274795 -0.12998983
00000000: 00ae c1bc f103 febd 79e6 523e 4415 16be
00000010: 5e05 4c3d d568 c43d 4aa8 aebd cecb e3bc
00000020: c1ec a23d 9974 753e e688 b53c 06eb 2c3e
00000030: 3475 69bc 8c8c 073d fa31 113c 24cc 90bd
00000040: 25a8 553e f067 8ebb e2a5 2f3d ce48 dc3c
00000050: 328c d5bd 2809 08be 5313 10be e45b 7e3d
00000060: 930d 43bd 8b18 92bd 1649 553d d400 ac3d
00000070: b1f6 ecbd f5d8 653d f45b b5ba 11f8 1c3e
00000080: 91b6 863c f555 0f3d 68a0 ea3c 6642 c1bc
00000090: cfd9 7a3e 50ae 433e bcfc 543d c056 fbbd
000000a0: 596e c1bd 515f 02be 829d b0bd 0ea8 70bc
000000b0: e7c7 193e b239 203e a3b8 85bb 82f9 d03c
000000c0: 4fb7 acbd 5406 403e 6bc8 d83d f606 583b
000000d0: a803 8b3d 2c01 76bb 1497 263e f6f0 45bd
000000e0: 4dea 0c3e 78e5 a9bc 3f86 f5bc 4b89 f33d
000000f0: 8976 513c 0cc6 483d 2bc4 89be fc4f a13d
00000100: e81c 9fbd ed7d 773d e00c 0e3e 3833 4b3c
00000110: de19 263e 2416 c6bd 1876 023c 8bd3 dcbc
00000120: 69a0 fcba 45e5 d6bd 8d15 8e3d 20af 293e
00000130: 0f0d b5bd 9685 533d 0df6 2fbe 1754 803e
00000140: 9583 5d3d 2dcb 84bb 21ab f13d f194 10bd
00000150: 5344 2ebd 90c6 67bd be86 cdbd a7e0 763e
00000160: 5199 1ebe 577d 233c 3724 ac3d e50a 493e
00000170: 8abd 11be 8914 973c 446f 26bd a46b febd
00000180: eb23 a43b da7e 853d 02b6 b6bd 4a73 f7bd
00000190: 1748 97bc cc50 24be 26b2 0b3e d6e1 573d
000001a0: e6f9 2a3e 04ba a8bd 5195 bcbc 8dcb d93d
000001b0: c3cf 6fbb 83c1 a23d eb1d 5d3d e62d 2ebd
000001c0: 9370 a0bd ceeb 473b bed3 8d3d 84aa a8bd
000001d0: 7850 cf3d cd5b d83d fb41 ad3d 30fb c8bd
000001e0: 46a0 ba3d a63d c0bd 0656 aa3d ffcf a63d
000001f0: dfaf 94bd 353b d3bd 81a2 83bd 0e1c 05be

bn1.running_var f4 [128]
0.37709022 0.5678502 0.62075734 0.48737228 0.41252407 0.42100215 0.3600089 0.45919102
0.6797874 1.1701348 0.67862654 0.69171184 0.38839838 0.7633298 0.35704386 0.3172906
0.86307395 0.545852 0.7079442 0.52755594 0.51227593 0.7717766 0.6299523 0.46858487
0.47546917 0.3539066 0.6211711 0.44962355 0.5162986 0.421195 0.4584037 0.6600297
0.74915737 0.35423777 0.73395866 0.30896735 0.8371169 0.85967064 0.4474027 0.5440344
0.6054173 0.5732835 0.5972955 0.31350604 0.68164396 0.80783516 0.34421936 0.39476168
0.59766334 0.8843319 0.90556747 0.32751623 0.6677135 0.5580291 0.512694 0.39983517
0.86812687 0.3480676 0.7321054 0.7314923 0.33987933 0.66965055 0.39760318 1.0143305
0.43095055 0.71543723 0.9071487 0.5961689 0.6214825 0.51878875 0.4455957 0.4024815
0.5122765 0.78100854 0.5774698 1.048155 0.32315192 0.47418 0.76145214 1.3481194
0.41363323 0.36763254 0.56304836 0.3333511 0.7162901 0.48163468 0.46291113 0.6221765
0.5007477 0.3192045 0.3273636 0.83173305 0.7224224 0.51291454 0.4550365 0.760398
0.24367401 0.5492184 0.6842617 0.5123408 0.38073635 0.68554723 0.49956128 0.47752452
0.57310385 0.35101667 0.839862 1.1999012 0.43976447 1.167394 0.6967565 0.5912375
0.29987943 0.45178676 0.47825056 0.40414417 0.6148324 0.33391592 0.9662479 0.814079
0.91163576 0.46601465 0.6180895 0.58334434 0.5504045 0.64957213 0.658459 0.48716706
00000000: f811 c13e a15e 113f f4e9 1e3f dc88 f93e
00000010: 5b36 d33e 988d d73e 1653 b83e 161b eb3e
00000020: 8c06 2e3f fac6 953f 78ba 2d3f 0714 313f
00000030: 27dc c63e 9569 433f 74ce b63e ea73 a23e
00000040: 6af2 5c3f f5bc 0b3f d53b 353f e80d 073f
00000050: 8424 033f 2793 453f 8e44 213f 5bea ef3e
00000060: b270 f33e 3f33 b53e 1205 1f3f 0f35 e63e
00000070: 252c 043f dfa6 d73e e4b3 ea3e b5f7 283f
00000080: c7c8 3f3f a75e b53e b7e4 3b3f f830 9e3e
00000090: 4b4d 563f 6013 5c3f f711 e53e d745 0b3f
000000a0: a1fc 1a3f b5c2 123f 5ce8 183f dd83 a03e
000000b0: 3880 2e3f 49ce 4e3f 853d b03e 341e ca3e
000000c0: 7700 193f 9363 623f 45d3 673f 35b0 a73e
000000d0: 46ef 2a3f ffda 0e3f ea3f 033f 32b7 cc3e
000000e0: 903d 5e3f eb35 b23e 426b 3b3f 1443 3b3f
000000f0: aa04 ae3e 386e 2b3f a592 cb3e 95d5 813f
00000100: 8da5 dc3e e526 373f e63a 683f 869e 183f
00000110: 7a19 1f3f 57cf 043f 1f25 e43e 0e12 ce3e
00000120: 8d24 033f 2df0 473f 10d5 133f f129 863f
00000130: 2b74 a53e b9c7 f23e 87ee 423f 2d8f ac3f
00000140: bcc7 d33e 553a bc3e f023 103f ffac aa3e
00000150: ca5e 373f d298 f63e b002 ed3e f646 1f3f
00000160: 0031 003f c66e a33e 349c a73e 75ec 543f
00000170: adf0 383f 5e4e 033f 8bfa e83e 71a9 423f
00000180: ae85 793e 9499 0c3f c62b 2f3f c428 033f
00000190: e0ef c23e 0680 2f3f 7fc6 ff3e 187e f43e
000001a0: efb6 123f 75b8 b33e 3201 573f 5d96 993f
000001b0: cf28 e13e 2b6d 953f a25e 323f 575b 173f
000001c0: cc89 993e 9850 e73e 42dd f43e fceb ce3e
000001d0: a865 1d3f 07f7 aa3e 065c 773f 7b67 503f
000001e0: f660 693f 7999 ee3e 1d3b 1e3f 0e56 153f
000001f0: 4fe7 0c3f 5c4a 263f c590 283f f66d f93e

hidden2.weight f4 [128, 128]
0.07443434 0.0016796469 -0.062123265 0.0367641 0.0395583 -0.017916385 0.01987062 0.023170173
0.022018833 -0.027248584 -0.052602224 0.055603717 0.014104369 0.088763215 -0.057759613 -0.024977166
-0.011740612 0.020504309 -0.018206842 -0.032991957 -0.01510628 -0.05902026 0.010224392 -0.08441192
-0.032817155 0.010382378 -0.068440855 0.015911417 0.09830057 -0.012237337 0.021970743 -0.086163014
0.0047550476 0.025969671 -0.008304742 0.0015944014 -0.0974819 0.022874838 -0.028590696 0.0030661852
0.051573485 0.06639098 0.0014626153 0.08219359 0.008120967 -0.0066281687 0.060061615 0.08729295
0.07284424 -0.06868425 -0.04012382 0.037986223 -0.046681136 -0.0050326344 0.043144368 0.013514379
0.0026713226 0.036158778 0.025761824 -0.08653721 0.0612139 0.01781313 0.059538558 -0.0008910842
0.0012674337 0.024823273 -0.007895435 0.07117676 -0.080601156 -0.038247958 -0.069825254 0.0013417889
-0.05994316 0.067653954 -0.028615355 0.057134792 0.10574485 -0.05613279 -0.044818603 -0.037219666
-0.04145786 0.08715217 0.050739482 -0.0088091735 -0.06408722 0.037813183 0.08279279 0.0038222692
-0.011336465 -0.048390668 -0.096576646 0.045902 0.05452437 0.068259425 0.09065323 0.021046696
-0.0014296944 0.017094508 -0.01804385 -0.018111182 -0.00070060696 0.020746833 -0.061687436 -0.07624432
-0.12424096 -0.00648404 0.008604512 0.060792547 -0.04631285 -0.018352995 0.042793274 0.040187053
-0.034846917 -0.06759473 -0.06898802 0.0016804432 0.008466945 0.051678386 0.025715593 0.05659709
-0.03653798 0.006504415 -0.03192363 0.0831152 -0.013659846 0.052858282 0.050902292 0.009657702
0.029550504 -0.008507641 0.01923948 0.07280195 -0.010980525 0.079172306 -0.054164812 -0.0163347
0.008153063 0.006364929 0.108287945 -0.09596847 -0.057257764 -0.0037274556 0.033066086 -0.027029756
-0.0066290135 -0.06627862 -0.09297563 -0.02946828 0.0032388703 0.081130035 -0.02652828 -0.08535822
0.031793784 0.07787494 0.0035940176 0.075195946 0.032386094 -0.0049149236 -0.06085556 0.028029684
0.06293239 -0.050128207 0.059451085 0.00419228 -0.042632617 0.011186731 -0.019341214 -0.047283977
0.044178024 0.08821685 -0.01804836 -0.062284276 -0.048166554 -0.06663065 -0.06911862 -0.040313493
-0.050866455 -0.02531772 0.049535006 -0.053432506 0.01918655 -0.011918996 -0.067343034 -0.04346533
-0.046865284 0.021903325 0.066263944 -0.056740638 0.0002716203 -0.08942677 0.10192578 0.03502615
0.03557982 -0.0748712 0.015557779 0.074242935 -0.023151767 0.035059083 0.0035679487 -0.008792464
-0.036798127 0.016270826 0.033164434 -0.0054386463 -0.028124569 -0.09618112 -0.038177337 -0.04095705
-0.069200285 -0.080106795 -0.055330053 -0.027738035 0.033898097 0.042333663 -0.06485412 0.05314722
-0.0075711044 0.08646841 0.04569434 0.028585717 0.060068183 -0.0135276625 0.011398444 -0.068505615
-0.06382345 0.003306485 0.047419086 0.011110074 -0.079150215 -0.043956347 -0.031154465 0.010898754
0.0141288815 0.0410366 -0.08146177 0.051044185 -0.098673336 -0.0409222 0.03221151 -0.062224388
-0.05792976 0.09917154 -0.04894806 0.013246791 -0.08951497 -0.1075974 -0.0426683 0.08891146
-0.05811448 0.054026093 -0.008279073 0.0061816867 0.051029157 0.030030493 0.077910714 0.03251607
00000000: 0871 983d 9927 dc3a f774 7ebd f495 163d
00000010: e207 223d 62c5 92bc b6c7 a23c 60cf bd3c
00000020: d760 b43c 6c38 dfbc 6e75 57bd b9c0 633d
00000030: 0316 673c 7dc9 b53d 5895 6cbd ea9c ccbc
00000040: b25b 40bc a7f8 a73c 8426 95bc 9322 07bd
00000050: 5580 77bc 3abf 71bd 3584 273c 28e0 acbd
00000060: 486b 06bd d91a 2a3c b82a 8cbd a958 823c
00000070: cf51 c93d 1d7f 48bc fdfb b33c 3c76 b0bd
00000080: 3bd0 9b3b 59be d43c 9d10 08bc 3cfb d03a
00000090: 97a4 c7bd 0364 bb3c 0937 eabc 0df2 483b
000000a0: b83e 533d fef7 873d 3ab5 bf3a 1d55 a83d
000000b0: ce0d 053c 1c31 d9bb 2b03 763d a5c6 b23d
000000c0: 5c2f 953d 54aa 8cbd e058 24bd 7197 1b3d
000000d0: b834 3fbd cce8 a4bb 26b8 303d 6a6b 5d3c
000000e0: 5b11 2f3b 3a1b 143d 760a d33c 6c3a b1bd
000000f0: 6dbb 7a3d d7ec 913c b4de 733d a697 69ba
00000100: 0520 a63a 2d5a cb3c db5b 01bc 1fc5 913d
00000110: 3812 a5bd e4a9 1cbd 8b00 8fbd f7de af3a
00000120: f586 75bd 288e 8a3d c06a eabc 2c06 6a3d
00000130: c290 d83d 7feb 65bd b693 37bd a673 18bd
00000140: b8cf 29bd d67c b23d 34d4 4f3d 5a54 10bc
00000150: 2940 83bd ffe1 1a3d 448f a93d 097f 7a3b
00000160: 95bc 39bc 4b35 46bd fac9 c5bd bc03 3c3d
00000170: f254 5f3d 99cb 8b3d 67a8 b93d 1f6a ac3c
00000180: 9564 bbba c809 8c3c b2d0 93bc e75d 94bc
00000190: f0a8 37ba 43f5 a93c f7ab 7cbd fb25 9cbd
000001a0: 0b72 febd 1278 d4bb f0f9 0c3c 9b01 793d
000001b0: 8bb2 3dbd 0559 96bc 0048 2f3d 2e9b 243d
000001c0: a4bb 0ebd 1b6f 8abd 9749 8dbd 5142 dc3a
000001d0: f1b8 0a3c b7ac 533d 82a9 d23c 5ad2 673d
000001e0: d9a8 15bd fd22 d53b 5ac2 02bd 4d38 aa3d
000001f0: 8ccd 5fbc ed81 583d ec7e 503d 573b 1e3c
00000200: e613 f23c a263 0bbc 1d9c 9d3c 3019 953d
00000210: a9e7 33bc 1725 a23d ecdb 5dbd 59d0 85bc
00000220: 6d94 053c e590 d03b 12c6 dd3d 1e8b c4bd
00000230: 1e87 6abd 5448 74bb 4e70 073d 826d ddbc
00000240: 3238 d9bb 16bd 87bd 026a bebd 7667 f1bc
00000250: 3a43 543b 8127 a63d d651 d9bc 4ad0 aebd
00000260: 333a 023d e67c 9f3d 9c89 6b3b 5500 9a3d
00000270: 48a7 043d 5e0d a1bb ae43 79bd 829e e53c
00000280: b2e2 803d 3c53 4dbd fb82 733d 655f 893b
00000290: 8a9f 2ebd 8d48 373c 7771 9ebc d8ac 41bd
000002a0: 04f4 343d 09ab b43d 27da 93bc cc1d 7fbd
000002b0: 4b4a 45bd a675 88bd 108e 8dbd c31f 25bd
000002c0: 5859 50bd 1b67 cfbc 38e5 4a3d 0bdc 5abd
000002d0: 1d2d 9d3c e547 43bc 25eb 89bd b408 32bd
000002e0: d0f5 3fbd 9a6e b33c 64b5 873d df68 68bd
000002f0: 4268 8e39 6225 b7bd 77be d03d 9577 0f3d
00000300: 25bc 113d 1256 99bd 0ee6 7e3c ae0c 983d
00000310: c6a8 bdbc 1d9a 0f3d 3fd4 693b 440e 10bc
00000320: a2b9 16bd 654a 853c 6ed7 073d ac36 b2bb
00000330: 7f65 e6bc 9bfa c4bd d75f 1cbd 94c2 27bd
00000340: e1b8 8dbd 080f a4bd c4a1 62bd e03a e3bc
00000350: bbd8 0a3d 1066 2d3d 3dd2 84bd e6b0 593d
00000360: 0717 f8bb 5a16 b13d fd29 3b3d 982c ea3c
00000370: 0e0a 763d 21a3 5dbc 8ac0 3a3c ac4c 8cbd
00000380: deb5 82bd 9db1 583b 843a 423d 0707 363c
00000390: 8219 a2bd 920b 34bd a637 ffbc b090 323c
000003a0: d37c 673c fe15 283d 6ed5 a6bd b513 513d
000003b0: 3f15 cabd 099e 27bd 37f0 033d 00df 7ebd
000003c0: c247 6dbd 731a cb3d c37d 48bd 1209 593c
000003d0: a053 b7bd 075c dcbd f5c4 2ebd 3617 b63d
000003e0: 7309 6ebd 774a 5d3d f3a4 07bc bf8f ca3b
000003f0: f303 513d 8202 f63c a78f 9f3d 922f 053d

bn2.weight f4 [128]
1.0027648 0.9979864 0.9982959 0.98764426 0.99548554 0.99868244 0.996821 0.98648554
1.0010501 0.99359536 1.0005944 0.99712175 0.9992422 1.0002788 0.9968343 0.9932032
0.9923041 0.99308413 0.99928814 0.9985848 0.998106 0.9912521 0.9918459 1.0016577
0.986916 1.0081536 0.99743605 1.0031451 0.99514514 1.0014353 0.99774975 0.99085397
0.9963033 0.9868214 0.9818553 0.99452126 0.9975496 0.9993971 0.9909829 0.98819685
1.0014468 0.9943543 0.9940139 0.9934527 0.9894185 0.9968671 1.0009712 0.98591405
0.99680114 1.0061713 0.9965191 0.9921753 0.99793327 0.99930423 0.99069965 0.9879392
0.99531955 0.97701293 0.9909765 0.9911658 0.9957017 1.0012009 0.99504507 0.9919494
1.0075192 1.0030365 0.9959315 0.9953192 1.0050548 0.98816556 1.0039798 1.0026412
1.0036442 0.99299765 0.9966912 0.9972713 1.0004444 0.9923616 0.9859485 0.98641914
0.9840893 0.98832625 0.99573755 1.0011638 0.99142814 0.9990541 0.9932312 0.98807496
0.986327 0.99027884 0.99596894 0.99930096 0.9970549 0.99246037 0.9921938 0.9901971
1.000815 0.9904617 0.9930661 1.0105056 0.98860335 0.98700416 0.9863318 0.9994201
1.0004371 1.0000733 0.9990351 1.0047777 0.9959297 0.9936966 1.0008715 0.9870715
0.9982809 1.0124211 1.0003443 0.9933367 1.0033327 0.9972888 0.99172795 1.0087749
0.9954831 0.99975336 0.9981296 0.976801 1.0069909 1.0093006 1.0015293 0.9835293
00000000: 995a 803f 097c 7f3f 5290 7f3f 41d6 7c3f
00000010: 24d8 7e3f a7a9 7f3f a92f 7f3f 518a 7c3f
00000020: 6922 803f 445c 7e3f 7a13 803f 5f43 7f3f
00000030: 56ce 7f3f 2309 803f 8830 7f3f 9142 7e3f
00000040: a407 7e3f c33a 7e3f 59d1 7f3f 41a3 7f3f
00000050: e083 7f3f b3c2 7d3f 9de9 7d3f 5236 803f
00000060: 87a6 7c3f 2d0b 813f f857 7f3f 0f67 803f
00000070: d5c1 7e3f 082f 803f 876c 7f3f 9ba8 7d3f
00000080: bc0d 7f3f 54a0 7c3f de5a 7b3f f298 7e3f
00000090: 695f 7f3f 7dd8 7f3f 0eb1 7d3f 78fa 7c3f
000000a0: 692f 803f 018e 7e3f b277 7e3f eb52 7e3f
000000b0: 884a 7d3f af32 7f3f d31f 803f dd64 7c3f
000000c0: 5c2e 7f3f 39ca 803f e01b 7f3f 33ff 7d3f
000000d0: 8e78 7f3f 67d2 7f3f 7e9e 7d3f 95e9 7c3f
000000e0: 43cd 7e3f 851d 7a3f a3b0 7d3f 0bbd 7d3f
000000f0: 4ee6 7e3f 5a27 803f 46bb 7e3f 65f0 7d3f
00000100: 64f6 803f 8063 803f 5ef5 7e3f 3dcd 7e3f
00000110: a3a5 803f 6bf8 7c3f 6982 803f 8c56 803f
00000120: 6a77 803f 1835 7e3f 2827 7f3f 2c4d 7f3f
00000130: 900e 803f 690b 7e3f 1f67 7c3f f785 7c3f
00000140: 47ed 7b3f f302 7d3f a8e8 7e3f 2326 803f
00000150: 3cce 7d3f 02c2 7f3f 6644 7e3f 7bf2 7c3f
00000160: ed7f 7c3f ea82 7d3f d2f7 7e3f 30d2 7f3f
00000170: fd3e 7f3f e211 7e3f 6a00 7e3f 8f7d 7d3f
00000180: b51a 803f e68e 7d3f 9439 7e3f 3f58 813f
00000190: 1c15 7d3f 4eac 7c3f 3e80 7c3f ffd9 7f3f
000001a0: 530e 803f 6702 803f c4c0 7f3f 8e9c 803f
000001b0: 40f5 7e3f e662 7e3f 8f1c 803f b8b0 7c3f
000001c0: 568f 7f3f 0497 813f 480b 803f 504b 7e3f
000001d0: 356d 803f 524e 7f3f e2e1 7d3f 891f 813f
000001e0: fbd7 7e3f d6ef 7f3f 6c85 7f3f a10f 7a3f
000001f0: 14e5 803f c330 813f 1d32 803f 94c8 7b3f

bn2.bias f4 [128]
0.006461354 -0.0533495 -0.029471423 0.071548596 0.021991348 0.047842015 -0.02269003 -0.04541917
-0.026384467 0.04604193 0.015164068 0.04591504 0.035304334 0.060162522 0.03092458 -0.024507936
-0.051205296 0.044546347 -0.029585743 -0.057178713 0.02169333 -0.019906072 -0.030237861 -0.032695025
0.038762942 -0.036078136 -0.067093685 -0.03445194 -0.030476166 -0.020058516 0.025846492 -0.05541607
0.03440171 0.041042436 0.05023593 -0.030401535 0.055865776 -0.020557549 0.071325794 0.044997063
0.028321574 -0.040222522 0.02673044 -0.023406256 0.03818846 0.028147025 -0.012590601 0.03439524
-0.040460084 -0.04002753 0.0197316 -0.03637593 0.00464817 -0.02844069 -0.04018672 -0.055576827
0.04032205 0.048656188 0.076716684 0.042877566 -0.023284875 -0.05192011 -0.04344558 0.05345827
-0.06533859 -0.04649266 -0.026151074 -0.034728166 -0.07355994 -0.038369767 -0.037554335 -0.02589704
-0.028359907 0.025112068 -0.008084669 0.046256486 -0.021303825 -0.07657845 0.06079649 -0.05317096
-0.06373338 0.047426995 -0.029691998 -0.032256547 -0.04952039 0.0015632424 -0.0317346 0.058453154
-0.04925356 -0.051347394 0.029527124 -0.05359611 0.026534025 0.05954035 0.032848764 0.05113824
-0.021128885 0.026459364 0.040422253 0.027222205 0.037401486 -0.06254138 -0.054299776 -0.022702968
0.010730998 0.0150234895 -0.021677803 0.03860007 -0.03681562 0.032174166 0.0072634565 -0.04072461
0.0007866007 -0.052587204 -0.028554501 0.04479015 0.03813931 0.046041306 0.03154096 -0.041681707
-0.06236322 -0.04122711 0.037636243 -0.07143174 0.03426182 0.04197053 -0.015452329 -0.08167008
00000000: c4b9 d33b 0185 5abd 0e6e f1bc 1288 923d
00000010: 3327 b43c fdf5 433d 71e0 b9bc 7409 3abd
00000020: 3d24 d8bc 7696 3c3d b672 783c 6911 3c3d
00000030: 479b 103d fa6c 763d 8b55 fd3c dec4 c8bc
00000040: a5bc 51bd 3b76 363d cd5d f2bc 3a34 6abd
00000050: 36b6 b13c 0f12 a3bc 64b5 f7bc 38eb 05bd
00000060: e4c5 1e3d abc6 13bd 6a68 89bd 7a1d 0dbd
00000070: 27a9 f9bc c251 a4bc 06bc d33c f6fb 62bd
00000080: cfe8 0c3d 1d1c 283d 31c4 4d3d a40c f9bc
00000090: 83d3 643d 4e68 a8bc 4213 923d d74e 383d
000000a0: a502 e83c 5fc0 24bd ccf9 da3c 7abe bfbc
000000b0: 816b 1c3d 9794 e63c cf48 4ebc 06e2 0c3d
000000c0: 79b9 25bd e8f3 23bd 2aa4 a13c edfe 14bd
000000d0: ad4f 983b 73fc e8bc d59a 24bd 87a4 63bd
000000e0: bc28 253d b64b 473d a31d 9d3d 63a0 2f3d
000000f0: ecbf bebc 2eaa 54bd fef3 31bd 0ff7 5a3d
00000100: 3dd0 85bd 166f 3ebd c73a d6bc 1f3f 0ebd
00000110: 98a6 96bd 9e29 1dbd 93d2 19bd 0726 d4bc
00000120: 0953 e8bc d3b7 cd3c 8f75 04bc 7177 3d3d
00000130: 5c85 aebc 2ad5 9cbd be05 793d cbc9 59bd
00000140: a586 82bd cf42 423d a23c f3bc 711f 04bd
00000150: e4d5 4abd b6e5 cc3a 24fc 01bd 936c 6f3d
00000160: 1abe 49bd a551 52bd dee2 f13c 9887 5bbd
00000170: e25d d93c 95e0 733d 6d8c 063d 5576 513d
00000180: 7c16 adbc 4fc1 d83c ce91 253d 1a01 df3c
00000190: 4d32 193d b215 80bd 7169 5ebd 93fb b9bc
000001a0: 11d1 2f3c 1525 763c a695 b1bc 1b1b 1e3d
000001b0: facb 16bd 0fc9 033d 4a02 ee3b d9ce 26bd
000001c0: e133 4e3a ae65 57bd 21eb e9bc e075 373d
000001d0: f737 1c3d cf95 3c3d 1831 013d 70ba 2abd
000001e0: 9370 7fbd c2dd 28bd 7628 1a3d ce4a 92bd
000001f0: 1f56 0c3d 4ae9 2b3d c42b 7dbc a542 a7bd

bn2.running_mean f4 [128]
0.090926826 -0.0656232 -0.10302136 0.12903287 0.046570286 0.09246756 -0.111838855 -0.08026841
-0.06469974 0.059710737 0.03385014 0.12897012 0.032888062 0.123775475 0.110808484 -0.08909947
-0.06574075 0.0818181 -0.077064134 -0.09162231 0.07275384 -0.033151347 -0.089861214 -0.084630884
0.072843365 -0.05821724 -0.08797195 -0.054729644 -0.11097572 -0.070861004 0.06554042 -0.12890947
0.092826426 0.063783444 0.055592984 -0.040951613 0.11834466 -0.0060532195 0.15394934 0.054405
0.086209476 -0.0781898 0.09689065 -0.106218494 0.10645125 0.13792695 -0.092494234 0.070947036
0.0035397136 -0.09658432 0.10448372 -0.040828113 0.0036433248 -0.13832605 -0.05924081 -0.04791437
0.021576855 0.08376459 0.020213138 0.12063518 -0.049139023 -0.05285066 -0.085191384 0.10079051
-0.14296176 -0.095003024 -0.11707138 -0.019560643 -0.053012107 -0.07308058 -0.087840214 -0.119030215
-0.034353968 0.053693373 -0.087764 0.15981317 -0.015934393 -0.12016949 0.057442106 -0.07992838
-0.12555674 0.07914846 -0.100608386 -0.09239998 -0.08691496 -0.043697175 -0.06348255 0.013690277
-0.103214204 -0.069719546 0.06546795 -0.07877411 0.093920976 0.13677451 0.05619144 0.12683886
-0.11736485 0.07757734 0.043423213 0.040433623 0.10095291 -0.114223614 -0.030181576 -0.07374568
0.13300882 0.060018364 -0.08977006 0.062436633 -0.06340737 0.11183578 0.010938193 -0.061710022
0.021116648 -0.108572654 -0.004408202 0.11498474 0.0861519 0.08254911 0.07111397 -0.05141259
-0.055211153 -0.052622203 0.03978724 -0.06991468 0.10180808 0.0832936 -0.09231529 -0.11161794
00000000: d837 ba3d 7565 86bd ddfc d2bd 3121 043e
00000010: 7cc0 3e3d a25f bd3d c50b e5bd c463 a4bd
00000020: 4c81 84bd 3f93 743d 72a6 0a3d be10 043e
00000030: a2b5 063d ff7d fd3d 8fef e23d c879 b6bd
00000040: 16a3 86bd 3f90 a73d cdd3 9dbd 7aa4 bbbd
00000050: f7ff 943d b5c9 07bd 2809 b8bd f552 adbd
00000060: e72e 953d 3375 6ebd a32a b4bd 312c 60bd
00000070: 3d47 e3bd 931f 91bd 0e3a 863d d800 04be
00000080: c81b be3d e5a0 823d 78b5 633d e1bc 27bd
00000090: af5e f23d 165a c6bb e5a4 1d3e c7d7 5e3d
000000a0: 988e b03d f921 a0bd 9b6e c63d 1589 d9bd
000000b0: 1d03 da3d b93c 0d3e 9e6d bdbd ae4c 913d
000000c0: 8afa 673b 00ce c5bd 90fb d53d 613b 27bd
000000d0: d9c4 6e3b 58a5 0dbe 7ea6 72bd dc41 44bd
000000e0: f2c1 b03c c58c ab3d 0696 a53c 940f f73d
000000f0: 0046 49bd ef79 58bd d278 aebd 416b ce3d
00000100: 9164 12be f290 c2bd 1fc3 efbd a43d a0bc
00000110: 3923 59bd 45ab 95bd 92e5 b3bd 1dc6 f3bd
00000120: bfb6 0cbd 95ed 5b3d 9dbd b3bd 10a6 233e
00000130: d888 82bc 6c1b f6bd 6a48 6b3d 7eb1 a3bd
00000140: f291 00be 9618 a23d c50b cebd 333c bdbd
00000150: 7800 b2bd cffb 32bd 2403 82bd 2f4d 603c
00000160: f861 d3bd 1fc9 8ebd 1014 863d 5254 a1bd
00000170: a459 c03d 9e0e 0c3e ff28 663d 0ce2 013e
00000180: fc5c f0bd dee0 9e3d 8adc 313d ba9d 253d
00000190: 66c0 ce3d 12ee e9bd 5a3f f7bc fa07 97bd
000001a0: 7733 083e d1d5 753d 5dd9 b7bd 8ebd 7f3d
000001b0: b9db 81bd 280a e53d 1b36 333c a6c3 7cbd
000001c0: d2fc ac3c 575b debd ae72 90bb 1f7d eb3d
000001d0: 6870 b03d 820f a93d 33a4 913d 0296 52bd
000001e0: 1725 62bd 618a 57bd f2f7 223d 6e2f 8fbd
000001f0: c180 d03d d695 aa3d cc0f bdbd f297 e4bd

bn2.running_var f4 [128]
0.33542562 0.4318431 0.35866466 0.37686476 0.27743354 0.4504477 0.22575387 0.33179343
0.31593093 0.3324839 0.21552235 0.32530752 0.1911944 0.44404283 0.3005202 0.3106567
0.24595359 0.38823196 0.3380814 0.4970357 0.24371062 0.21281718 0.22775598 0.3827839
0.2998991 0.36340153 0.42996076 0.3515688 0.37786916 0.28649697 0.26173118 0.4287394
0.48910072 0.31972504 0.3361766 0.32604563 0.5279086 0.22017232 0.38364044 0.4208136
0.275366 0.3115717 0.3253396 0.30735704 0.3077018 0.40667155 0.35417306 0.2920089
0.3771571 0.42001602 0.38496011 0.2782159 0.23932867 0.35709345 0.32902244 0.3341048
0.39908373 0.27733463 0.3207694 0.3071173 0.28205106 0.39204422 0.34463492 0.32930782
0.50632113 0.43427375 0.29554954 0.36929604 0.46028075 0.26976407 0.38439253 0.3632256
0.29954436 0.3149511 0.27378145 0.4997886 0.32428306 0.566167 0.2993723 0.35806102
0.51860565 0.26089653 0.30549017 0.30770653 0.34582576 0.26353353 0.39044002 0.34415582
0.35379744 0.43971777 0.29439422 0.3454813 0.3544515 0.48308662 0.30264103 0.4512234
0.36665943 0.34891853 0.40128675 0.36279243 0.26030535 0.47430152 0.3638569 0.34941182
0.4080915 0.20831399 0.23407783 0.39537162 0.42332634 0.3866387 0.19097881 0.27038217
0.24064614 0.37123463 0.28118894 0.2917946 0.37761652 0.29135132 0.33571106 0.30651295
0.42866004 0.33696866 0.36200193 0.4500607 0.39419374 0.3888666 0.36348948 0.44777673
00000000: e8bc ab3e 8a1a dd3e e5a2 b73e 6bf4 c03e
00000010: c50b 8e3e 15a1 e63e 062c 673e d4e0 a93e
00000020: b3c1 a13e 543b aa3e e4b1 5c3e b58e a63e
00000030: 77c8 433e 9559 e33e c9dd 993e 650e 9f3e
00000040: 42db 7b3e 57c6 c63e 0119 ad3e 777b fe3e
00000050: 478f 793e bfec 593e dd38 693e 40fc c33e
00000060: 608c 993e c40f ba3e d123 dc3e d300 b43e
00000070: 1178 c13e bbaf 923e a101 863e bb83 db3e
00000080: 696b fa3e 00b3 a33e 571f ac3e 74ef a63e
00000090: 0525 073f da74 613e 856c c43e e174 d73e
000000a0: c6fc 8c3e 5386 9f3e e992 a63e e75d 9d3e
000000b0: 178b 9d3e 4137 d03e 2c56 b53e 3182 953e
000000c0: bc1a c13e 570c d73e 7e19 c53e 5072 8e3e
000000d0: 9312 753e f4d4 b63e a175 a83e c90f ab3e
000000e0: b454 cc3e cefe 8d3e e33b a43e 7b3e 9d3e
000000f0: ff68 903e 05ba c83e fd73 b03e 099b a83e
00000100: 439e 013f 2159 de3e 4552 973e 5f14 bd3e
00000110: eba9 eb3e 841e 8a3e 19cf c43e b5f8 b93e
00000120: e15d 993e 4541 a13e 152d 8c3e 4be4 ff3e
00000130: 6e08 a63e 52f0 103f 5347 993e c653 b73e
00000140: 57c3 043f 3b94 853e 3569 9c3e b68b 9d3e
00000150: 1310 b13e deed 863e c1e7 c73e 3135 b03e
00000160: f024 b53e b022 e13e d7ba 963e ede2 b03e
00000170: ab7a b53e 2157 f73e c4f3 9a3e c106 e73e
00000180: c9ba bb3e 73a5 b23e 7575 cd3e eebf b93e
00000190: be46 853e a6d7 f23e 744b ba3e 1be6 b23e
000001a0: 5ef1 d03e 4350 553e 19b2 6f3e 266e ca3e
000001b0: 3bbe d83e 82f5 c53e f38f 433e 886f 8a3e
000001c0: f16b 763e 7712 be3e fff7 8f3e 1a66 953e
000001d0: f456 c13e 002c 953e 52e2 ab3e 44ef 9c3e
000001e0: 5479 db3e 2887 ac3e 5158 b93e 5b6e e63e
000001f0: c3d3 c93e 8619 c73e 4b1b ba3e fe42 e53e

hidden3.weight f4 [16, 128]
-0.106815286 -0.09289469 -0.03468191 -0.039473314 0.06676889 -0.05001818 -0.03307103 0.046330847
-0.077604204 0.051997285 -0.084842496 -0.06219161 -0.05811996 -0.02955143 0.06880665 0.018243613
0.015984809 0.08028432 -0.073506206 -0.027328141 0.042890783 0.025410801 -0.047071062 0.06632065
-0.07002759 0.042558834 0.049744815 0.06636761 0.061715048 -0.037360348 -0.034209725 -0.04751054
0.011934893 0.025185272 0.029802468 -0.04586418 -0.041535888 -0.0023122062 0.010310814 0.11096212
0.011174606 -0.005682236 -0.09088133 0.03500237 -0.0044903695 -0.026531866 0.07020137 -0.032508127
-0.03633386 0.0025049963 0.054431643 0.0030978466 0.04198336 0.07336925 0.009645209 0.018732298
-0.04373078 -0.021484857 -0.07164746 0.0026620629 -0.04094259 -0.03225451 -0.07394478 0.009948512
0.061833933 -0.06419314 0.060756244 -0.06750852 -0.0555665 0.060676757 -0.015263314 -0.065459
0.0695997 -0.008862207 -0.05374803 0.039041 -0.11132582 0.00045117145 -0.020363702 -0.0084024165
0.05347605 -0.041122798 0.041303452 0.0106280865 -0.05855938 0.06080341 -0.076573856 0.0066668536
0.05535244 -0.055517256 -0.076593675 0.03138051 -0.0036533377 0.025548955 0.025287412 -0.08362438
0.08656779 -0.010993228 -0.04795567 -0.059282903 -0.055604942 -0.06512558 -0.07021553 0.05669351
0.027946614 0.03316215 -0.0012237686 0.041366786 -0.040830266 -0.07593575 -0.018964408 -0.01586649
-0.04127926 -0.03161521 -0.00025620568 -0.051367342 -0.008625316 0.009131443 -0.07344069 0.104627244
0.024270337 0.00446555 -0.070552446 -0.007163939 -0.045006562 -0.028173722 0.0069001787 0.028253028
0.031924635 -0.0042155753 0.0781826 -0.07812411 0.00035735194 -0.108028404 0.036278684 0.0074965125
-0.006765427 -0.015097116 -0.016409589 0.038607184 -0.08448891 -0.03616494 -0.05991813 0.01942535
0.025425151 -0.043556407 0.031698577 0.0059329383 -0.086734176 0.01476628 0.057812907 -0.05318191
-0.019619765 0.11493461 0.056469627 0.05550099 -0.011065579 0.047737524 0.009217431 -0.08160209
-0.079589255 -0.10714649 -0.11516244 0.0676152 -0.06759285 0.013837794 0.04347228 -0.069081366
0.011714789 -0.06738883 0.057185948 0.010701171 0.07414507 0.019870266 0.00802996 -0.058330007
0.083190106 -0.046928108 -0.07508983 0.070320986 -0.031738132 -0.010711303 0.017468292 -0.04005265
-0.030882051 0.02330467 0.11548756 0.014064355 -0.008963966 -0.020589115 0.105592184 -0.079331264
-0.050534256 0.07338327 -0.06536246 0.06371583 0.16123065 -0.008652387 -0.026898134 0.012385538
-0.08555014 -0.053576075 0.030606491 0.011799492 0.059040606 -0.017569592 -0.060431845 -0.04756136
-0.036846876 0.0065740556 -0.050744448 -0.022265734 -0.008613006 0.01179541 0.07874355 -0.03846456
0.023380123 -0.015303906 -0.02165055 0.100870095 -0.085528664 -0.06785815 0.08567285 -0.02738112
-0.028437337 -0.077161 0.076016374 -0.048258882 -0.0063029197 0.08453027 0.122979365 0.01650517
-0.018154476 0.03249189 -0.011522059 0.046933863 -0.014632949 0.013854493 -0.05483727 -0.097417206
0.13595371 -0.019083388 -0.067455605 0.026801191 0.024546808 -0.03221383 -0.10560875 0.040913437
-0.0049150647 0.0139795495 0.029662605 0.076418824 -0.016485102 -0.036447693 0.08639657 0.005900475
00000000: f9c1 dabd 923f bebd 9e0e 0ebd c5ae 21bd
00000010: 21be 883d dddf 4cbd 7d75 07bd 6ac5 3d3d
00000020: f4ee 9ebd 1bfb 543d e7c1 adbd a1bc 7ebd
00000030: 320f 6ebd d715 f2bc 80ea 8c3d a173 953c
00000040: 93f2 823c 1b6c a43d 6c8a 96bd 44df dfbc
00000050: 3fae 2f3d 502a d03c 96cd 40bd 1fd3 873d
00000060: a06a 8fbd 2c52 2e3d 38c1 4b3d beeb 873d
00000070: ebc8 7c3d 2a07 19bd 7f1f 0cbd 699a 42bd
00000080: 928a 433c 5851 ce3c 4e24 f43c 14dc 3bbd
00000090: 8921 2abd 6288 17bb b0ee 283c 1c40 e33d
000000a0: b215 373c 0d32 babb fe1f babd a55e 0f3d
000000b0: f323 93bb 5b59 d9bc bcc5 8f3d 3e27 05bd
000000c0: d0d2 14bd dd2a 243b b7f3 5e3d 3e05 4b3b
000000d0: bef6 2b3d 9e42 963d f006 1e3c 7a74 993c
000000e0: 0c1f 33bd 0301 b0bc e7bb 92bd 0176 2e3b
000000f0: 6bb3 27bd 4e1d 04bd 5c70 97bd 15ff 223c
00000100: 9445 7d3d b177 83bd 8adb 783d e841 8abd
00000110: b399 63bd 3188 783d fb12 7abc 5e0f 86bd
00000120: 4a8a 8e3d ca32 11bc e526 5cbd 75e9 1f3d
00000130: cbfe e3bd 358b ec39 c7d1 a6bc 4aaa 09bc
00000140: b409 5b3d 6170 28bd cf2d 293d 6d21 2e3c
00000150: f6db 6fbd ff0c 793d c1d2 9cbd 9f75 da3b
00000160: 3db9 623d 1066 63bd 25dd 9cbd da88 003d
00000170: d66c 6fbb 0b4c d13c 8c27 cf3c 4243 abbd
00000180: 744a b13d f11c 34bc 2a6d 44bd a1d2 72bd
00000190: 02c2 63bd 8f60 85bd 29cd 8fbd 7437 683d
000001a0: 4cf0 e43c 09d5 073d dc66 a0ba 3870 293d
000001b0: a33d 27bd 3484 9bbd 3f5b 9bbc 71fa 81bc
000001c0: 7114 29bd f37e 01bd 5853 86b9 9066 52bd
000001d0: 3351 0dbc 0c9c 153c 1368 96bd cf46 d63d
000001e0: 96d2 c63c c053 923b cd7d 90bd 7abf eabb
000001f0: cd58 38bd 94cc e6bc e51a e23b e572 e73c
00000200: 68c3 023d cf22 8abb 331e a03d 89ff 9fbd
00000210: f75a bb39 ff3d ddbd f598 143d 4ea5 f53b
00000220: 84b0 ddbb e559 77bc 676d 86bc 9122 1e3d
00000230: 8608 adbd b021 14bd b76c 75bd e921 9f3c
00000240: 6848 d03c 3468 32bd 5ed6 013d 1869 c23b
00000250: b0a1 b1bd 44ee 713c 3acd 6c3d 46d5 59bd
00000260: a1b9 a0bc d662 eb3d b24c 673d 0255 633d
00000270: 674c 35bc 6c88 433d b504 173c ff1e a7bd
00000280: b1ff a2bd 9e6f dbbd 49da ebbd d779 8a3d
00000290: 1f6e 8abd eab7 623c fd0f 323d 887a 8dbd
000002a0: 63ef 3f3c 2803 8abd d03b 6a3d f753 2f3c
000002b0: 5fd9 973d f8c6 a23c 1890 033c 72eb 6ebd
000002c0: 935f aa3d b037 40bd b2c8 99bd 7304 903d
000002d0: d8ff 01bd 767e 2fbc aa19 8f3c 3f0e 24bd
000002e0: 5bfc fcbc 6fe9 be3c be84 ec3d 2e6e 663c
000002f0: 99dd 12bc 81aa a8bc b740 d83d 6e78 a2bd
00000300: 02fd 4ebd f849 963d c1dc 85bd 727d 823d
00000310: a619 253e bec2 0dbc 7a59 dcbc b6ec 4a3c
00000320: e934 afbd 9672 5bbd 77ba fa3c a852 413c
00000330: 90d4 713d 1bee 8fbc 6287 77bd b3cf 42bd
00000340: c0ec 16bd 2d6b d73b 69d9 4fbd a166 b6bc
00000350: 911d 0dbc 8941 413c 4c44 a13d 048d 1dbd
00000360: ac87 bf3c 3cbd 7abc 7f5c b1bc fb94 ce3d
00000370: a729 afbd 37f9 8abd 3f75 af3d 5f4e e0bc
00000380: 6bf5 e8bc 9606 9ebd 79ae 9b3d 1bab 45bd
00000390: b988 cebb 351e ad3d 9bdc fb3d da35 873c
000003a0: b2b8 94bc 3716 053d 05c7 3cbc b93d 403d
000003b0: 09bf 6fbc f5fd 623c 0c9d 60bd ac82 c7bd
000003c0: 7337 0b3e c454 9cbc 2a26 8abd 2c8e db3c
000003d0: 6316 c93c a6f2 03bd 6649 d8bd d994 273d
000003e0: 8d0e a1bb 7b0a 653c fefe f23c 7981 9c3d
000003f0: c40b 87bc 2d4a 15bd aff0 b03d c658 c13b

bn3.weight f4 [16]
0.9919411 0.9827485 0.9852376 1.1205074 0.9487198 1.021504 0.9743814 0.99809116
1.0622293 1.0945252 0.96902925 1.1097686 0.98530126 1.0305127 0.9931306 0.99549055
00000000: daef 7d3f 6895 7b3f 8838 7c3f c96c 8f3f
00000010: 4ddf 723f a5c0 823f 0f71 793f e782 7f3f
00000020: 21f7 873f 6719 8c3f 4d12 783f e60c 8e3f
00000030: b43c 7c3f d7e7 833f cf3d 7e3f 78d8 7e3f

bn3.bias f4 [16]
-0.112845704 -0.40076813 -0.11337324 0.21296047 0.2875899 0.07369607 0.46692765 0.1517719
-0.45085436 -0.3889738 0.45150805 0.5906924 -0.25178882 -0.13876282 0.09867266 0.014632359
00000000: a61b e7bd 7b31 cdbe 3b30 e8bd 4f12 5a3e
00000010: fc3e 933e f7ed 963d 2411 ef3e 186a 1b3e
00000020: 62d6 e6be 9327 c7be 102c e73e 9e37 173f
00000030: 77ea 80be d717 0ebe e414 ca3d 90bc 6f3c

bn3.running_mean f4 [16]
-0.060331363 -0.05517669 -0.025458708 0.048670433 0.012519984 0.035371035 0.1262443 0.016533494
-0.007036093 -0.16919684 0.006329393 0.20308575 -0.0064875446 -0.057324443 0.017707217 -0.0018352157
00000000: 051e 77bd f400 62bd c88e d0bc a65a 473d
00000010: 9e20 4d3c 38e1 103d 3046 013e 4071 873c
00000020: 078f e6bb f041 2dbe cc66 cf3b b6f5 4f3e
00000030: 7895 d4bb 09cd 6abd ba0e 913c 9f8b f0ba

bn3.running_var f4 [16]
0.70645505 1.3919996 0.57106453 1.8241552 1.0054703 0.7509545 1.5874677 0.9797451
1.9333018 2.7934227 1.2979102 3.0562673 0.7805589 1.0554553 0.3173184 0.25653678
00000000: 3dda 343f 0b2d b23f 4931 123f eb7d e93f
00000010: 40b3 803f 8e3e 403f 2432 cb3f 93d0 7a3f
00000020: 6f76 f73f 70c7 3240 ec21 a63f e299 4340
00000030: b5d2 473f 2919 873f 8f77 a23e ca58 833e

output.weight f4 [1, 16]
0.07527555 0.49115655 0.09051627 -0.56058973 -0.3441177 -0.20757797 -0.5078171 -0.1827681
0.61959964 0.5445001 -0.61426216 -0.80991703 0.3166311 0.25814092 0.004855919 0.009593322
00000000: 112a 9a3d df78 fb3e 9860 b93d cf82 0fbf
00000010: 3230 b0be 528f 54be 4d00 02bf 9027 3bbe
00000020: 159e 1e3f 5c64 0b3f 4940 1dbf b956 4fbf
00000030: 791d a23e 0c2b 843e 671e 9f3b 4f2d 1d3c
