models/focal_loss_checkpoints/checkpoint_epoch_300.pth (torch, 100242 bytes, 16 tensors)

hidden1.weight f4 [128, 30]
00000000: c94e dd3d 2dbc 24be 5ee9 6fbd 0fc0 4ebd
00000010: bbce d33d 064d c5bd 815a 883c e1cb d83c
00000020: d2e8 1e3c 0ce1 cebd 7db6 14be 41d3 483e
00000030: 1e24 cebd de1e e13c ffc2 46bd 1d8d c33d
00000040: 0ef9 5cbe cb33 443d 2ede 263e 76ec 743e
00000050: c5e7 ba3d 6e83 2c3d f38c e8bd 235f 1e3d
00000060: 8527 b83d 89f6 803d 7af5 a6bd 25e3 173e
00000070: e602 d73d 4890 9dbd 20c8 39be 7e3a c13a
00000080: 8b42 eb3c 160c 083d 9e39 eebc 1d62 233c
00000090: 3eab 9ebd 5113 2d3b a050 1ebd 82ba 14be
000000a0: 659a 89bd d792 27be 60b6 2f3e 7f86 193e
000000b0: 338e 9e3d af92 1dbd 44f5 ebbd 4b65 623d
000000c0: ab98 cd3d fc59 dd3d 01a4 34be ee0e 0bbe
000000d0: 1252 d3bd fabc 4d3d f6e7 4e3e ef34 23be
000000e0: 05af d03d 6ae2 6e3c ea97 16be 66ec 37bd
000000f0: 0045 0b3e f64a f83b a645 383d 7a00 05be
00000100: 8a80 c039 f110 a13d 5db8 de3d 5c21 37bd
00000110: 6745 cb3d 898f e53d 1a1e 9b3c 0040 06be
00000120: aeb8 39be 0b5b e33d 99e0 0a3e 48ee 263e
00000130: a816 2cbe 66d1 3bbe 0a27 b4bd 4066 ecbd
00000140: 4784 093d c015 1cbd aa38 2dbe 16de d1bd
00000150: d00d d7bd ab75 aabd ae02 463d 366c 91bd
00000160: ef39 baba 8742 0b3e 9019 47bc f6c8 2e3e
00000170: 7120 a4bd 5159 d5bc cf0d acbd eb6c 0c3d
00000180: 17da 2b3d 291c 2c3d 5169 1abd 1534 9fbd
00000190: 13f8 0c3e 8cf4 31be faea e93c aeaa ab3d
000001a0: 2ab5 58bd 9a1e 0a3e 1605 c7bd 926e c2bc
000001b0: b80b e5bd 10b9 aabc 1655 07bd 38e4 26be
000001c0: 2f4b 853d 942e 37bc ae38 593e 4f6b 453e
000001d0: 8a2f 18be 98bc 433d 1608 6e3d 346b e4bd
000001e0: a6db 953d aa70 513c 6c57 53be 534c f0bd
000001f0: b153 2cbe 42e4 ebbd 632d f73d 75e4 d7bd
00000200: 9bc6 ab3c 9729 353e 5c51 003e 728c b43d
00000210: a2ec 653e a686 80bd 341a ab3d 1e93 03be
00000220: 2cf6 9b3d d079 2ebd 62bd e2bd aeb4 51be
00000230: 2a0d 073c b078 513b 8ac8 9ebd 5e66 2e3d
00000240: 40b0 213e e95a 0d3e 8d94 dfba 93b0 84bd
00000250: 5932 46bb 1017 a33c 098b 96bd 9a14 7cbd
00000260: a76a 333e 86e5 da3c 9341 4b3e b4ef 2b3d
00000270: 80cb 543e be05 633c 75a6 06bd 8848 fa3c
00000280: 2c1b 543d 95a9 b83d 0fdd 63bd 27be de3d
00000290: 74fe 2bbe b9f5 873d d487 b53d e1fe d0bd
000002a0: 69f8 6ebd 5871 fc3d 3b6f 7b3d 53af 29bd
000002b0: d5df d1bd 9de4 a5bb 21af bb3d 5949 c0bd
000002c0: 0e30 4dbd 17bc 0cbe c887 a6bd c3f6 483d
000002d0: e9b9 babd f54a 46bd 0516 533d ace5 14be
000002e0: 7cdc 54bd 0608 253e 73ae 76bd cc62 003e
000002f0: ffdc 84bb 12b6 0fbe 130c 43bd 831a 40be
00000300: 8fe1 413e a396 383e 58b0 023e 3360 343d
00000310: ab41 f83d 93a1 623d 9e0a ab3c 2d18 073d
00000320: 361b 533d bb68 a7bc 9df9 0dbe 8064 f33d
00000330: 31b9 073e 7d16 dfbd 22bd 623d 2df9 b03d
00000340: 19ff a8bb 10ed a7bd 9cc8 57bc f20c 88bd
00000350: b68c 653b 7800 153e fbdb 47be eb39 e3bd
00000360: 20c4 3a3d e413 f5bc 4d01 bfbd d169 65bc
00000370: 2d9a 923d 2fd1 42be 8ac8 8dbc a2bb 2a3d
00000380: 9968 a13d 3bbc 5bbc 303a 243e 2cf2 0c3e
00000390: 1084 d1bd d6c7 1e3d 3545 d23d 37a7 81bd
000003a0: 32eb 263e 01db 87bc 88cf 303e 285b 73bd
000003b0: 6e33 293e 78a8 f0bd cf48 a93d e172 a1bd
000003c0: 0427 edbd 3093 ae3d 1d13 24be 01f3 2b3e
000003d0: a286 9c3d bf04 3fbd 183c 0a3d ecab 0a3e
000003e0: e19b 003d bde4 003d 60c9 463e fba7 e43d
000003f0: 3813 97bc 9f71 d73c b79a 703e 1a88 e5bd
0.10806043 -0.16087408 -0.058572166 -0.05047613 0.10342165 -0.09633832 0.016644718 0.026464405
0.009699063 -0.10101518 -0.14522739 0.19611837 -0.100654826 0.027480539 -0.048525807 0.095483996
-0.21579382 0.047900956 0.16295692 0.23918328 0.09126238 0.04211753 -0.11355009 0.03866495
0.08991913 0.06297023 -0.0815229 0.14832743 0.104986 -0.07693535 -0.18142748 0.0014742163
0.028718254 0.03321465 -0.029080208 0.0099721225 -0.077475056 0.0026409219 -0.03865111 -0.14524272
-0.067189015 -0.16364609 0.17159414 0.14992712 0.07741966 -0.038469967 -0.1152139 0.05527238
0.10038885 0.10808179 -0.17640688 -0.13579914 -0.10318388 0.05022905 0.20205674 -0.15938161
0.10189632 0.0145803485 -0.14706388 -0.04490318 0.1360054 0.0075772954 0.044988297 -0.12988463
0.00036716863 0.078645594 0.10875008 -0.04470955 0.09925347 0.11209018 0.018935252 -0.13110352
-0.18136856 0.111013494 0.1356224 0.16301835 -0.16805518 -0.18341598 -0.087965086 -0.1154294
0.033573415 -0.03810668 -0.16916147 -0.10247438 -0.105006814 -0.08323225 0.0483424 -0.07100718
-0.0014207939 0.13599597 -0.012152091 0.17068848 -0.08014 -0.026043566 -0.08401071 0.03428356
0.041956034 0.042019043 -0.037698094 -0.07773606 0.13766508 -0.17378443 0.028554428 0.08382164
-0.052907147 0.13488236 -0.09717767 -0.023734365 -0.11183876 -0.020840198 -0.03304013 -0.16297996
0.06508481 -0.011180539 0.21213028 0.19279216 -0.14861885 0.04778728 0.05811318 -0.1115326
0.07317285 0.012783209 -0.20638818 -0.11733308 -0.168288 -0.11518146 0.12069204 -0.105416216
0.020968726 0.17691647 0.12531036 0.0881585 0.2245355 -0.06275682 0.08354607 -0.1284909
0.07615313 -0.04259664 -0.11071278 -0.2047908 0.008242885 0.0031962804 -0.077530935 0.042578094
0.1578989 0.1380421 -0.0017057821 -0.06478991 -0.0030242412 0.019908458 -0.073507376 -0.061543085
0.17521153 0.026720773 0.19849233 0.041976646 0.20780754 0.0138563495 -0.03287359 0.030552164
0.051783726 0.0901672 -0.05563074 0.108761124 -0.16796285 0.06638665 0.08863798 -0.10204864
-0.05834237 0.12326306 0.061385375 -0.041426968 -0.10247771 -0.005062653 0.091642626 -0.0938899
-0.050094657 -0.13743626 -0.08131367 0.049063455 -0.09117491 -0.04841133 0.05153467 -0.14540738
-0.051968083 0.16116342 -0.06022496 0.12537688 -0.004054665 -0.14034298 -0.047618937 -0.18760113
0.189337 0.18026213 0.12762582 0.044037055 0.121219 0.05532987 0.020879086 0.03298204
0.051539622 -0.020435682 -0.13864751 0.11884403 0.13254239 -0.10892961 0.055356152 0.086412765
-0.005157363 -0.08199513 -0.013170388 -0.06643094 0.0035026497 0.1455096 -0.1951751 -0.11095031
0.045597196 -0.029916711 -0.0932642 -0.014002279 0.07158313 -0.1902511 -0.017307539 0.041682847
0.078812785 -0.013411577 0.16037822 0.13764256 -0.10230267 0.038764797 0.102671064 -0.06330722
0.16300657 -0.016583921 0.17266667 -0.059413105 0.16523525 -0.11750883 0.0826584 -0.078832395
-0.11579707 0.085241675 -0.16022916 0.16791917 0.07642867 -0.046635386 0.033748716 0.13542145
0.031398658 0.03146814 0.19412756 0.11164852 -0.018441781 0.026299296 0.23496519 -0.112076

bn1.weight f4 [128]
00000000: 49a4 813f f374 7f3f c2df 803f 3d72 803f
00000010: b691 7f3f ef50 863f f663 833f d018 803f
00000020: 19c6 823f 4ce1 803f ec03 813f e951 803f
00000030: f6ea 803f 14e1 7f3f 1ac1 7f3f 666a 813f
00000040: 72f0 803f 9113 813f 109a 823f 785c 813f
00000050: cbd1 823f c8ea 7f3f 7561 813f 67a2 823f
00000060: 516d 823f 0f18 823f 3f29 7f3f f22e 833f
00000070: c558 813f ab5c 803f 5a19 813f 2595 813f
00000080: a704 823f 1677 843f 4450 813f e410 833f
00000090: 0630 823f 3265 823f b883 813f cd4e 833f
000000a0: 6fe3 803f 6194 7f3f 29d9 803f f141 873f
000000b0: b6a5 813f a713 803f 9993 7c3f edaf 823f
000000c0: f8ea 803f c664 7c3f 0df4 7e3f cf3f 823f
000000d0: fcf2 813f 1d79 803f f4de 843f a6de 823f
000000e0: bd63 803f 056c 813f 9741 803f f26f 823f
000000f0: cc5b 803f de6a 803f 4f80 813f ed5e 843f
00000100: cea9 833f 5308 823f 2400 823f dbef 833f
00000110: d1c9 823f 3680 823f e11c 843f 6ea0 823f
00000120: a027 803f 08d2 803f 2aa5 7e3f 07de 843f
00000130: a213 853f 4180 823f 227c 813f 25d9 7e3f
00000140: 29ba 803f 4915 833f c0e7 813f 563f 813f
00000150: 9299 7f3f 2abd 833f 4578 7d3f f37b 813f
00000160: 040f 813f 7cc0 813f 3236 833f 7d20 7b3f
00000170: 9b59 803f 5db5 803f 3dfb 7e3f 6737 813f
00000180: f9ba 823f fd19 823f 2ed7 813f ac84 843f
00000190: 6c88 893f 1227 7f3f b5dd 7a3f d477 7f3f
000001a0: 0b4d 853f ff11 873f ff3a 813f 26f0 7f3f
000001b0: 804f 813f b7e2 7c3f 414d 803f 5b3e 823f
000001c0: 578b 823f 4614 823f e076 813f a272 813f
000001d0: 985e 823f 12ae 803f 9b01 843f 107c 7f3f
000001e0: 4a5d 813f e708 853f a945 7b3f be3f 803f
000001f0: dbbf 833f 3c35 823f f165 7f3f af75 823f
1.0128261 0.99787825 1.0068285 1.0034863 0.9983171 1.0493449 1.0264881 1.0007572
1.0216705 1.0068755 1.0079322 1.0024997 1.0071704 0.99952817 0.99904025 1.0110595
1.0073378 1.0084096 1.0203266 1.0106344 1.0220274 0.9996762 1.0107867 1.0205811
1.0189611 1.0163592 0.9967231 1.0248702 1.0105215 1.002828 1.0085862 1.012364
1.015767 1.0348842 1.010262 1.023953 1.0170906 1.0187132 1.0118322 1.0258423
1.0069407 0.99835783 1.0066272 1.0566999 1.0128696 1.0005997 0.98662716 1.0209938
1.0071707 0.9859127 0.9959114 1.0175723 1.0152278 1.0036961 1.038054 1.0224197
1.0030438 1.011109 1.0020016 1.0190413 1.0028014 1.0032613 1.0117282 1.0341469
1.0286195 1.015879 1.0156293 1.0307573 1.021784 1.0195377 1.0321313 1.0205209
1.0012093 1.0064096 0.9947077 1.0380257 1.0396616 1.019539 1.0116007 0.99550086
1.0056812 1.0240871 1.014885 1.0097454 0.99843705 1.0292103 0.9901164 1.0115951
1.0082707 1.0136867 1.0250914 0.9809645 1.0027345 1.0055348 0.9960211 1.0095032
1.021331 1.0164181 1.0143793 1.0352988 1.0744758 0.9966899 0.9799455 0.9979222
1.0414137 1.0552367 1.0096129 0.9997581 1.0102386 0.9878344 1.0023576 1.0175279
1.0198773 1.0162437 1.0114403 1.0113108 1.0185118 1.0053122 1.031299 0.9979868
1.0106595 1.0393342 0.9815317 1.0019453 1.0292925 1.0172496 0.99764925 1.0192164

bn1.bias f4 [128]
00000000: 5e61 94bd 996f 613d 5cca 0dbb 4d2c 153d
00000010: 555a a03d 1955 7cbd 1f6d 2d3d 1837 333d
00000020: ec86 233d 5b94 b53d 00ec 4fbd e2e6 42bb
00000030: 258b 3d3d d0c8 a93c 77b7 f1bd 0825 05bd
00000040: 3454 1cbc d3cc 8cbc 2f1c 803d b7ae 943c
00000050: 6156 7ebd e3b3 093d 208e 61bb a236 0f3d
00000060: e25e 31bd 379b 0d3d cbf2 c33b 0350 99bd
00000070: bb04 f93c cee0 443b 4f53 763d 6b91 88bc
00000080: 7df1 ab3d 062a 2ebe 6454 803c e588 a93b
00000090: a037 dcbc d2f9 8fbc 412b 98bc ca32 0a3e
000000a0: 003a bbbd 9b14 85bd 330c c43d e760 363d
000000b0: b47e 813d f835 a33c fa4b 80bd 224d c63b
000000c0: e1ac f63c edfd 03bd a2bb 043d 4293 a1bc
000000d0: d313 bb3c a05d ad3d 1697 d3bd cf09 adbc
000000e0: 7710 0fbd 722e c0bc d8ce 233c 849f cf3d
000000f0: 2bb6 26bd e724 253d d00b 173d b79d 3f3d
00000100: 0a01 083c 4f7d 063c 49cb c83c 34d0 81bd
00000110: 4c0c fc3b 007e 3fbd fe31 1b3d 2057 403d
00000120: e382 033e b268 6abd e982 8abd 8741 5a3d
00000130: c640 f73d 8534 6c3d 0632 81bd 3a09 6bbc
00000140: 4613 dd3d 2195 403d 1ad1 063d 8941 0e3d
00000150: db18 ccbd ff08 08bd 7120 ef3d 7748 d7bd
00000160: 3161 6b3d 3852 a53b 98e4 fdbc c3a1 78bd
00000170: 00ba 893d c9dd d8bc 0746 383d 0bd2 823d
00000180: 985d c93c 9478 563c 3fac 87bc dc48 963d
00000190: 13ff 013d 7486 bc3c 8fef 48bd cccc f0bc
000001a0: 5fc9 5fbd a9ec 733d f578 e83a 8304 09bd
000001b0: 9d03 a83c f900 61bd f396 ce3d c91f 8d3d
000001c0: 33c3 153d 9e08 9ebc 435f a6bc e003 513d
000001d0: 3d20 503d 86f0 223c 9a73 303d 09e7 80bb
000001e0: e93a 4e3b 5273 7a3d 923c fabd 9e1b 70bc
000001f0: adc1 503d 1fe7 a6bc 71eb afbd fed0 3a3d
-0.07245134 0.05503807 -0.0021635508 0.0364192 0.078297295 -0.061604593 0.042340394 0.043753713
0.039923593 0.08866187 -0.050762177 -0.0029739668 0.046275277 0.020725638 -0.11802571 -0.03250602
-0.00954156 -0.017187512 0.062553756 0.018149717 -0.062094096 0.03361882 -0.0034416988 0.03496421
-0.043303378 0.034571853 0.005979871 -0.07485964 0.030397763 0.003004122 0.060138043 -0.016670903
0.083956696 -0.17008218 0.01566524 0.00517379 -0.026881993 -0.017575178 -0.018575313 0.13495937
-0.09141922 -0.06498071 0.09572639 0.044526007 0.06322995 0.019923195 -0.062644914 0.0060516754
0.030111732 -0.032224584 0.032405503 -0.019723538 0.022836601 0.08465123 -0.10331552 -0.021122841
-0.03492781 -0.023459647 0.009998046 0.10137847 -0.040701073 0.040318396 0.0368765 0.046781268
0.008301029 0.008208587 0.024510996 -0.0633854 0.0076918956 -0.046751022 0.037889473 0.04695809
0.12842898 -0.05722875 -0.067632504 0.053285148 0.120729014 0.057667274 -0.06308369 -0.0143454615
0.10794692 0.04701722 0.03291426 0.034730468 -0.09965678 -0.033211704 0.116761096 -0.105118684
0.057465736 0.0050452016 -0.030992791 -0.060701143 0.0672493 -0.026472943 0.04498866 0.06387719
0.024580762 0.0130902715 -0.016561626 0.073381156 0.0317374 0.023013331 -0.049056586 -0.02939453
-0.0546354 0.05955187 0.0017736243 -0.03345157 0.020509535 -0.05493257 0.10087385 0.06890828
0.03656311 -0.019291218 -0.020309096 0.051029086 0.050811995 0.009945041 0.043078996 -0.0039337915
0.0031468219 0.061145134 -0.12218584 -0.014655022 0.050965954 -0.020373879 -0.08589829 0.045609467

bn1.running_mean f4 [128]
00000000: c174 2ebd c60f 13be 1bc3 543e 8591 14be
00000010: ed98 513d 2fde cc3d 72d7 fdbd 1c50 83bd
00000020: 11f8 c03d 993f 723e aad3 07bc d760 313e
00000030: 71d5 53bd fea7 673d 1e14 273b d641 86bd
00000040: faf8 693e 495d 4dbc 7c48 9c3d 7fc9 7f3c
00000050: f586 01be 333c 13be d5c3 1ebe 2611 6e3d
00000060: 6e72 0ebd 6460 c2bd bb00 e33c f8a5 b43d
00000070: 6807 c4bd 770f 4a3d 751d a6bc 47e5 2d3e
00000080: c01d 5238 0832 183d 816c 223d 8a95 75ba
00000090: a0bb 6e3e f1e1 463e c38c 6b3d c614 22be
000000a0: fd56 f4bd 4cef 00be 1a8e debd 0d8f 2bbd
000000b0: b32c 173e 068c 283e 75d6 b8bb bcf5 493d
000000c0: 42a3 83bd ea31 353e 385b e13d 6ebe 4e3c
000000d0: c2df 993d 746d cdbb a48a 173e be8f 4fbd
000000e0: de60 053e afc4 02bd 6a20 63bd 6bdd 013e
000000f0: 7c27 283d b3cb 843d 2292 8dbe 7114 a13d
00000100: 87d9 e2bd 2110 723d 48fa 0c3e dcf6 3c3b
00000110: 4657 203e 15f4 d8bd 174c b03c 1a0c a0bc
00000120: 8089 02bc 6ef0 dcbd d7d3 8b3d 5b7f 2b3e
00000130: 769a debd 1b8e 4f3d cb3c 2dbe 44cb 773e
00000140: 2aa7 613d 4b67 913b 26a2 f33d 01c9 44bd
00000150: 1517 47bd ccfc 5cbd 8619 bfbd 3ed7 6d3e
00000160: 9f31 12be 0d25 173d 58c1 e03d f544 613e
00000170: ede5 19be 4091 b03c 23bf 39bd 20d3 fdbd
00000180: acc5 a03c 9857 713d 59b8 89bd 0c24 00be
00000190: 5431 f9ba 6230 39be a969 1f3e 3747 743d
000001a0: 650e 233e 2ff4 b0bd 900a 2cbd 9684 d73d
000001b0: de92 0fbb ec00 bc3d 2b9c 4a3d 530e 21bd
000001c0: b0ef e0bd 53c5 843c 49aa 883d cb4e a6bd
000001d0: 5478 c33d 61f2 da3d 3528 c83d 5b6d 1abe
000001e0: f289 a33d dff7 cebd d3d2 f83d 1635 d33d
000001f0: 9eb0 7cbd 1037 c7bd 9f05 babd 8118 fcbd
-0.042591814 -0.14361486 0.20777552 -0.14508636 0.051171232 0.10003316 -0.123946086 -0.06411764
0.09422315 0.23657073 -0.008290211 0.17322098 -0.051717225 0.056556694 0.0025494169 -0.06555526
0.22848883 -0.012534448 0.07631013 0.015612005 -0.12649138 -0.14378433 -0.15504391 0.058121823
-0.034777097 -0.09491041 0.02771031 0.088207185 -0.09571725 0.049331155 -0.020277718 0.16981994
5.009561e-05 0.03715709 0.03965426 -0.00093682914 0.23313761 0.19422127 0.057507288 -0.15828237
-0.11930654 -0.12591285 -0.108669475 -0.04188447 0.14763145 0.16459665 -0.0056407996 0.049306616
-0.06427623 0.17694822 0.11003727 0.012618644 0.075133815 -0.0062691513 0.14798981 -0.050674193
0.13025233 -0.031925853 -0.055450834 0.1268212 0.04105328 0.06484165 -0.27650553 0.07865227
-0.11076646 0.059097413 0.1376735 0.0028833663 0.15658292 -0.1059343 0.021520657 -0.01953702
-0.007967353 -0.10788046 0.068275146 0.16747801 -0.10869305 0.05067263 -0.16917722 0.24198633
0.05509106 0.0044373623 0.11896162 -0.048043255 -0.048605997 -0.053952023 -0.0933104 0.2322664
-0.14276741 0.03690057 0.109743774 0.21998961 -0.15029116 0.021553636 -0.045348298 -0.123937845
0.019625507 0.058921427 -0.06724615 -0.12513751 -0.0019011893 -0.18084863 0.1556765 0.05963823
0.1592346 -0.08640324 -0.04200226 0.10523336 -0.0021907608 0.09179863 0.04946534 -0.0393203
-0.10983217 0.016207373 0.06673104 -0.08120497 0.09544435 0.10690761 0.09773294 -0.15080778
0.07985295 -0.101058714 0.121495865 0.1031286 -0.061691873 -0.09727299 -0.090831034 -0.12309361

bn1.running_var f4 [128]
00000000: 2227 db3e 8ce1 153f efc6 0c3f a9e7 ef3e
00000010: edcf c53e 1f97 f43e 229a d43e 9d0e e43e
00000020: c5db 333f 1cb7 863f a85b 363f f3bc 363f
00000030: ee1a df3e 1f83 4a3f 611b cd3e 9749 a03e
00000040: 7ec4 453f 0e99 093f bf72 5b3f 3f6a 053f
00000050: 43a1 0d3f cec9 473f 61e7 2e3f 62eb ed3e
00000060: 8dbc e83e e8df c73e 157e 0e3f 6fb0 cd3e
00000070: fff8 023f ad5e ed3e aa78 d13e 76a1 2a3f
00000080: 8b1e 343f bcec bb3e 601f 463f 74e9 993e
00000090: 295d 5c3f 346f 753f a625 ec3e def4 123f
000000a0: 398a 353f 722a 0c3f f575 173f 328d 913e
000000b0: 161d 1c3f 42b5 423f 6660 c43e c983 d43e
000000c0: 697b 063f 919c 5c3f ce0f 513f f1d1 a23e
000000d0: 15d1 293f 328d 153f 7275 e33e 0dcc cd3e
000000e0: 08ab 523f 2e62 933e d489 403f ac7e 2c3f
000000f0: 162d b43e 84cf 373f e523 db3e d554 5f3f
00000100: bb14 fb3e 770f 1e3f d2e2 473f 4ee4 1c3f
00000110: 6b0a f93e adbc ee3e d22a d83e 4f9c c03e
00000120: ac34 053f 622a 243f d3cf 173f 5c2a 6c3f
00000130: 9659 c93e 581a e83e e2cb 2f3f 1ad2 9c3f
00000140: 5b44 e63e 5928 d03e 0863 0b3f 54f5 a73e
00000150: 96da 2c3f 29a8 fa3e f734 0b3f 4ad5 083f
00000160: 3d69 fd3e 2442 a23e 03b3 d43e 95f0 323f
00000170: 757a 233f a5bb fd3e d9d5 083f 135e 443f
00000180: ea56 7b3e 027d 173f d5c5 0e3f d79c fe3e
00000190: 1fd0 ca3e 489f 333f 1bdb 003f 6df9 da3e
000001a0: 2679 163f 94d1 b23e dcbb 383f b151 8d3f
000001b0: eabc e23e 4bd3 8a3f e12e 2f3f d86d 1b3f
000001c0: 0289 bb3e 2f21 f13e 10ee d43e 48e4 e43e
000001d0: 9713 233f 253a bc3e 8161 5f3f 0703 4c3f
000001e0: 6ac7 3d3f cb58 e93e 3458 323f 82f4 1b3f
000001f0: 6848 023f 4c7f 273f 1daf 3b3f 6cd6 033f
0.42803293 0.5854728 0.5499105 0.4685643 0.38635197 0.47771546 0.41523844 0.445424
0.70257217 1.052463 0.71233606 0.71382064 0.43575233 0.79106325 0.4005995 0.31306145
0.7725295 0.5374917 0.85721964 0.52115244 0.5532419 0.78042305 0.68321806 0.46468645
0.45456353 0.39038014 0.55661136 0.4017367 0.5116119 0.46361294 0.40912372 0.6665262
0.70359105 0.36704051 0.77391624 0.30060923 0.8607965 0.9587281 0.46122473 0.5740489
0.70914036 0.54752266 0.59164363 0.28428036 0.6098188 0.7605783 0.38354796 0.41506794
0.5253206 0.861764 0.8166474 0.31800798 0.6633466 0.5841857 0.4442554 0.4019474
0.8229222 0.28785843 0.7521031 0.67380786 0.35190648 0.7180102 0.42800823 0.8723882
0.49039254 0.6174235 0.78080475 0.61285865 0.4864076 0.46628323 0.4222017 0.37619254
0.52033496 0.6412717 0.5930149 0.92252135 0.3932616 0.453326 0.68670475 1.2251618
0.44974026 0.40655783 0.54447985 0.32804358 0.67521036 0.4895642 0.5437769 0.53450453
0.49494353 0.31691086 0.41542825 0.6989835 0.6385873 0.49557224 0.53451306 0.76706046
0.24544874 0.5917512 0.5577062 0.49729034 0.3961191 0.7016492 0.5033433 0.42768422
0.5877861 0.3492552 0.7216165 1.1040555 0.44284755 1.0845731 0.68430907 0.60714483
0.36627966 0.4709563 0.41587877 0.44705415 0.63701767 0.3676311 0.87258154 0.7969212
0.74132407 0.45575556 0.6966584 0.60919964 0.50891733 0.65428615 0.73314077 0.51499057

hidden2.weight f4 [128, 128]
00000000: 61d2 983d 9af0 0cb9 54ae 87bd 9619 d73c
00000010: de54 2f3d 68b6 8cbc 367e b33c 83f7 e03c
00000020: 9bf3 d23c 987e c2bc 834a 6bbd 231a 813d
00000030: 1f92 953c 290b ad3d 7f81 7fbd c2ea ebbc
00000040: bbc9 d739 4299 943c 7672 d0bc c96d 0fbd
00000050: fe97 abbc 0afa 82bd 6ef7 843b 409b 99bd
00000060: cb6f 05bd bed0 083c f655 84bd 74ae ed3c
00000070: e6ba a73d 97b0 03bc c971 943c 603a c1bd
00000080: f50c 303c 8c2b bf3c 563a a0bc a2b1 f4bb
00000090: 9be7 b9bd 7687 003d 6f49 0bbd 81da 9439
000000a0: 0bf9 4a3d bef7 873d cd4c ae3b 2e15 b23d
000000b0: f492 893c cabe 9cbb dd2c 783d 3d22 ba3d
000000c0: 037f a13d 4cde 6dbd 1152 23bd 0ef6 223d
000000d0: ed67 3abd 0696 57bc ea0a 2a3d 9555 4b3c
000000e0: 8d0e 6239 24ab 113d 3c45 e03c 16ce b5bd
000000f0: 7229 7d3d bf8a c53c c7bf 623d 7a4d 253b
00000100: 8710 b13a c30f 703c ae7e 5cbc 0d7b 9c3d
00000110: 6163 9bbd e335 39bd 95a5 90bd 9d2f 99b9
00000120: 4469 6cbd c826 8e3d 56df 1ebd d04d 843d
00000130: a370 ce3d f740 63bd 7b16 4bbd 0f53 1bbd
00000140: c760 2bbd c924 813d 31aa 693d d401 01bc
00000150: 42c3 91bd 785e 213d 53e7 ab3d b9d1 db3b
00000160: 078b 6cbc 35f9 64bd 4024 aabd 8dfa 233d
00000170: 814f 523d 8e09 813d cd12 b83d 5ef7 103c
00000180: c0ba 5dbb 7d32 9e3c c331 bbbc a921 acbc
00000190: 978d 8dba 7d19 983c 768c 8cbd 8ee1 98bd
000001a0: 3607 e0bd 1eab babb bb61 8c3c 1056 833d
000001b0: 4c22 51bd e1b1 92bc e96c 423d b9a0 123d
000001c0: bf09 2ebd a5c3 93bd f93d 92bd 1419 13bc
000001d0: 9661 193c e0b0 6f3d 0016 ef3c 4ae5 743d
000001e0: ab89 0fbd ac64 313c e3ee 0bbd 3d8f ac3d
000001f0: 9733 e2bb d5ad 523d 3af8 443d 660c c23b
00000200: 542a f23c 610b 7abc 8a5e a23c f480 8d3d
00000210: 81ae 5dbc eb54 a53d 0dd8 55bd f764 6cbc
00000220: f836 5e3c 3505 293c cd71 e53d 0465 b8bd
00000230: 4168 59bd 383d 38bc 7555 013d ab2e 0bbd
00000240: c099 a0bb 13e5 7fbd 3c32 b1bd 4589 d0bc
00000250: 5b1d 4a3c 9389 a73d 226c 0abd 5388 b9bd
00000260: b6b1 f93c b027 a33d a969 cb3b 2e35 9f3d
00000270: 3506 233d 4a35 21bc dfb6 7cbd 0ae3 a93c
00000280: a032 873d cf0a 6cbd 038d 833d d24b cd3b
00000290: f36b 24bd 2074 a13c 8ad8 a9bc c59d 5bbd
000002a0: cbff 493d 9dc5 993d 1b73 6abc d97f 6abd
000002b0: e38b 4dbd 4266 7fbd f3c2 8fbd 8c93 33bd
000002c0: 3da5 54bd 6565 b5bc 9e3d 423d 9a5d 69bd
000002d0: 4abb 833c 4a77 c7bb ed33 85bd 27d6 5cbd
000002e0: ed73 34bd b5c6 993c eed9 6c3d 6374 80bd
000002f0: f3c2 ebba 09e7 b9bd ef27 d03d 7c54 293d
00000300: 4d03 043d 37a8 8abd c485 743c 35ed ab3d
00000310: 9a81 b3bc 81c6 003d c863 423c 99fe 39bc
00000320: 7b89 fabc 8fa5 953c 8431 273d f16c 18bc
00000330: 4abd 00bd 3b16 cbbd 9c8c 18bd 87d6 2ebd
00000340: d229 74bd 645f a4bd 8e97 4dbd b5dd 0dbd
00000350: 9fb2 0a3d de86 233d 5984 87bd f7e6 613d
00000360: cd2d 5dbc e7a1 a43d de53 3a3d d1e2 0c3d
00000370: ad84 823d 6703 99bc 65ce 813b d752 94bd
00000380: b3be 70bd baa7 013c 62f7 453d 165f a73c
00000390: 66aa a2bd f09d 54bd 5c02 eebc 7e61 2d3c
000003a0: f2a9 783c e1e1 293d aa1c abbd 0668 4e3d
000003b0: 6fa4 c3bd 3cdb 1cbd f37a 003d 3e00 8bbd
000003c0: 70c3 67bd 57cb c43d e02e 6ebd 3c32 2b3c
000003d0: 4091 abbd cbba c8bd ae02 20bd 696c ad3d
000003e0: 9775 68bd da2e 603d b512 44bc f800 633c
000003f0: b2c9 543d 5846 f73c 23f9 983d c4f9 e83c
0.074620016 -0.00013441071 -0.06625047 0.026257318 0.042805545 -0.017176822 0.021910768 0.027461773
0.025750926 -0.023742005 -0.057444107 0.06303813 0.018258153 0.08449394 -0.062379356 -0.028798465
0.00041158297 0.018139485 -0.025445204 -0.03501681 -0.020946499 -0.063953474 0.004057816 -0.07500315
-0.032577317 0.008350549 -0.06461708 0.02901385 0.08189945 -0.008037708 0.018120663 -0.09434962
0.010745277 0.023336194 -0.019559067 -0.0074674645 -0.09077378 0.031379186 -0.03400558 0.00028391558
0.049553912 0.0663905 0.005319214 0.08695446 0.016793706 -0.004783486 0.06058966 0.09088562
0.07885554 -0.058073327 -0.039873186 0.039785437 -0.045509268 -0.013158327 0.041514315 0.012410541
0.0002155846 0.035563603 0.027376764 -0.088771984 0.061807103 0.02411401 0.055358674 0.0025223182
0.0013508954 0.014652195 -0.013457937 0.076406576 -0.075873144 -0.045217406 -0.07062832 -0.0002921791
-0.057717577 0.06940991 -0.03878721 0.06460154 0.100800775 -0.055481877 -0.049581986 -0.037921008
-0.04184034 0.06305844 0.057047073 -0.007873971 -0.071173206 0.039396733 0.08393731 0.0067083505
-0.014437444 -0.055901725 -0.083076954 0.040033866 0.051345352 0.063006505 0.08987961 0.008848039
-0.0033833236 0.019311184 -0.022850877 -0.021012144 -0.0010799643 0.018566841 -0.06862728 -0.07464896
-0.109388754 -0.0056966683 0.017136445 0.064128995 -0.0510581 -0.017907085 0.047467146 0.03579781
-0.042489763 -0.072150506 -0.071407266 -0.008978147 0.009361645 0.05851829 0.029185295 0.05978898
-0.0350434 0.010827225 -0.034163367 0.08425758 -0.0069031226 0.05143531 0.04808829 0.005921888
0.0295612 -0.015261502 0.01982047 0.069093615 -0.0135303745 0.080728374 -0.052207995 -0.014428369
0.01356291 0.010316183 0.112033464 -0.09003642 -0.05307794 -0.011245064 0.03157564 -0.033980053
-0.004901141 -0.06247432 -0.086521596 -0.02545608 0.0123361 0.08180537 -0.03379453 -0.09059205
0.030480247 0.07966554 0.006207664 0.07773815 0.03980084 -0.009839365 -0.061697837 0.020738143
0.06601453 -0.057627495 0.0642338 0.006265142 -0.04014201 0.019708693 -0.020733137 -0.053617258
0.04931621 0.07508395 -0.01430967 -0.05725083 -0.050182234 -0.06235338 -0.070196055 -0.043841884
-0.051915396 -0.022143075 0.047422044 -0.05697403 0.016080517 -0.0060872184 -0.06504045 -0.05391517
-0.044055868 0.018771509 0.05782502 -0.06272199 -0.0017987177 -0.090772696 0.10163867 0.041340336
0.03222971 -0.06770366 0.01492447 0.08394853 -0.021912385 0.031439308 0.01186461 -0.011352205
-0.030583134 0.018267421 0.040818706 -0.009303317 -0.03143052 -0.099163495 -0.03724347 -0.042685058
-0.059610195 -0.08026007 -0.050193362 -0.034635264 0.033861753 0.03992354 -0.0661704 0.055151906
-0.013499689 0.08038693 0.04549014 0.034395996 0.06372962 -0.01867838 0.0039613717 -0.07242363
-0.058775615 0.007913524 0.048331626 0.020431083 -0.07942657 -0.051908433 -0.02905386 0.010582326
0.015177237 0.04147518 -0.083550766 0.050392173 -0.095528476 -0.038295016 0.031367254 -0.067871556
-0.056582868 0.096090965 -0.058150172 0.0104489885 -0.083773136 -0.09801253 -0.039065056 0.08467943
-0.056752767 0.05473218 -0.011967351 0.013855211 0.051950164 0.03018491 0.07469394 0.02843941

bn2.weight f4 [128]
00000000: 5819 803f 5fa9 7e3f f340 7f3f 1de9 7b3f
00000010: 66cb 7e3f 1012 7f3f b575 7e3f 0842 7c3f
00000020: 0a7f 7f3f 8772 7d3f 51e7 7f3f 3780 7e3f
00000030: a668 7f3f 7dfb 7e3f 4d42 7e3f db5a 7e3f
00000040: e309 7e3f db57 7d3f b0ca 7e3f a60a 7e3f
00000050: 94b2 7f3f af14 7e3f bd23 7e3f b7de 7f3f
00000060: acbe 7c3f e671 803f 9072 7e3f 861a 803f
00000070: 2176 7e3f 0cc2 7f3f 8088 7f3f d1e1 7d3f
00000080: eadf 7e3f e1eb 7b3f 4084 7b3f c171 7e3f
00000090: 78c0 7e3f f290 7f3f 4762 7d3f 09e0 7d3f
000000a0: 7286 7f3f 2ec4 7d3f 0658 7e3f bcbc 7e3f
000000b0: 2d56 7d3f ea86 7f3f 1208 803f 0b0a 7c3f
000000c0: 661b 7f3f 8a62 803f ca7e 7e3f 2eb2 7d3f
000000d0: 9aae 7f3f 8a8e 7f3f b6ad 7c3f eedc 7b3f
000000e0: 50b1 7e3f f163 7a3f bb62 7d3f 2d62 7d3f
000000f0: 76b1 7e3f cec2 7f3f 1a4a 7e3f cf35 7d3f
00000100: e02b 803f 361f 803f c0cd 7e3f 03d8 7e3f
00000110: 88d2 7f3f 9e44 7d3f 62ca 7f3f 352d 803f
00000120: 260e 803f f2e8 7d3f 8758 7e3f 2998 7e3f
00000130: 3033 803f c4a0 7d3f 668b 7c3f f920 7c3f
00000140: e84b 7c3f 7813 7d3f 8328 7f3f 8d78 7f3f
00000150: b8d5 7d3f a48e 7f3f 9516 7e3f 7478 7d3f
00000160: 3ccd 7c3f bb45 7d3f 5ad3 7e3f 9ce2 7e3f
00000170: 1414 7f3f 968a 7d3f 7dda 7d3f 4246 7d3f
00000180: 3813 803f c05e 7d3f 7239 7e3f d792 803f
00000190: ca0e 7d3f 3113 7c3f 1bd7 7c3f 824e 7f3f
000001a0: 0caa 7f3f 41c7 7f3f bd1d 7f3f 483c 803f
000001b0: 8206 7f3f 8fb7 7e3f ca05 803f 74bb 7c3f
000001c0: 7e94 7f3f d887 803f 3f8e 7f3f 8105 7e3f
000001d0: ace5 7f3f 3cac 7e3f 1a2f 7d3f 9f8f 803f
000001e0: 5343 7d3f c219 7f3f e428 7f3f 0c09 7a3f
000001f0: 5961 803f 02b3 803f c221 803f bb2b 7b3f
1.0007734 0.9947719 0.9970848 0.9840258 0.9952911 0.99636936 0.99398357 0.98538256
0.9980322 0.9900288 0.99962336 0.9941439 0.99769056 0.9960249 0.99319917 0.99357384
0.99233836 0.9896218 0.99528027 0.99235 0.99881864 0.9925031 0.9927328 0.9994921
0.9872844 1.0034759 0.9939356 1.0008094 0.99399 0.9990547 0.9981766 0.99172693
0.99560416 0.984068 0.9824867 0.99392325 0.99512434 0.99830544 0.98978084 0.99169976
0.9981452 0.9912747 0.99353063 0.99506736 0.9895962 0.9981524 1.0002463 0.98452824
0.9965118 1.0030072 0.99412215 0.99100006 0.99875796 0.9982687 0.9870256 0.98383987
0.9948931 0.9780875 0.98978776 0.9897793 0.99489534 0.99906623 0.9933182 0.9891023
1.001339 1.0009525 0.995327 0.9954836 0.9993062 0.98932827 0.99918187 1.0013796
1.0004318 0.9918357 0.9935383 0.9945093 1.0015621 0.99073434 0.98650205 0.9848781
0.98553324 0.9885783 0.9967119 0.9979332 0.99154234 0.9982703 0.9925321 0.9901192
0.9875066 0.98934525 0.99541247 0.9956453 0.9964001 0.9903959 0.9916151 0.9893533
1.0005865 0.989727 0.99306405 1.0044812 0.9885069 0.98466784 0.98765725 0.9972917
0.99868846 0.9991341 0.9965475 1.0018396 0.99619305 0.9949884 1.0001767 0.9872353
0.99835956 1.0041456 0.99826425 0.9922715 0.99959826 0.9948156 0.98899996 1.004383
0.98930854 0.9964868 0.9967177 0.97670054 1.0029708 1.0054629 1.0010302 0.981136

bn2.bias f4 [128]
00000000: 0878 163b 456d 3fbd 3a2a bcbc ce1e 743d
00000010: ac08 aa3c 934b 313d a07f a3bc 3d27 25bd
00000020: f911 bfbc df30 233d 87ae 543c a30f 283d
00000030: 8beb e83c 0b89 553d aa0a fb3c 1969 a9bc
00000040: b52b 21bd 2cfe 253d bf63 c9bc 6d9f 62bd
00000050: 38bc 963c d6cb a2bc 19dc b9bc ce8b c4bc
00000060: e8a6 0a3d 6b27 e5bc db24 58bd 6a6e e7bc
00000070: bfa3 c0bc cb47 79bc af02 b03c 8971 39bd
00000080: 0b90 f93c 2e87 213d 2f43 3b3d 048a bfbc
00000090: 2cb7 3d3d 615d 8cbc 08e6 773d 2e9c 1a3d
000000a0: c95f c53c 0ac9 18bd ee97 a23c f57a 8cbc
000000b0: aeca 073d 2923 ac3c 91b8 09bc 32ac fc3c
000000c0: e4ee 02bd 8454 f7bc a07d 8a3c 4df5 f3bc
000000d0: 7438 963b 5587 e8bc dffa 0cbd cb57 5abd
000000e0: 3a9e 033d 69c5 303d 1216 753d f882 1f3d
000000f0: 5bf8 92bc 7b47 31bd a3bd 17bd 0464 4c3d
00000100: a95b 5dbd 3cf1 18bd 30e9 a5bc 63ef dfbc
00000110: b087 6ebd 71be 0bbd d39b 03bd f848 a6bc
00000120: 6c34 afbc 06f6 a23c 6016 35bc 494b 223d
00000130: 322f 81bc 17f4 81bd 3f47 553d 4f72 4cbd
00000140: d075 4bbd 9974 1d3d 88f6 b6bc e705 eebc
00000150: bc41 31bd c576 b1b9 be2f d4bc e58b 463d
00000160: 91bd 30bd cab2 41bd af04 d13c 78b4 26bd
00000170: 21d7 bd3c fde7 573d 9cbc cb3c e198 323d
00000180: 5c50 63bc 5c6d c33c 4753 0a3d 5830 c83c
00000190: cf6e 013d dbe4 5ebd 63d0 33bd 20a4 a0bc
000001a0: ca6f 143c dc7b 423c ce3c a5bc f12f d93c
000001b0: 3f6b edbc 4f0c b33c 14b2 4c3b 1a81 0cbd
000001c0: 3c61 893b d049 27bd 7071 bcbc 2aeb 173d
000001d0: 8555 f43c 5605 1f3d e8fa ce3c d95b e6bc
000001e0: bc3f 64bd a446 0cbd 6b82 083d c053 6cbd
000001f0: 5bc9 dc3c 525f 023d 5edc 65bc 7df1 94bd
0.0022959728 -0.046735067 -0.022969354 0.05959969 0.020756088 0.043284964 -0.019958317 -0.040320624
-0.023324 0.03984153 0.012981064 0.041030537 0.028432628 0.052132647 0.030644733 -0.020679997
-0.039348323 0.0405256 -0.024583695 -0.05532782 0.018400297 -0.019872587 -0.022687959 -0.023992445
0.03385058 -0.027972898 -0.052769523 -0.028250892 -0.02351558 -0.015214871 0.021485655 -0.04527429
0.030464193 0.039435558 0.04571837 -0.02338124 0.046317264 -0.01713437 0.06052211 0.0377466
0.024093525 -0.0373011 0.019847836 -0.017148474 0.033152275 0.02101286 -0.0084058205 0.030843828
-0.031966105 -0.030191667 0.016905606 -0.029780054 0.0045843665 -0.028384844 -0.034418937 -0.053306382
0.03213332 0.043157015 0.0598355 0.03894326 -0.01794069 -0.04328106 -0.037046086 0.04990007
-0.054042492 -0.037339434 -0.020252794 -0.027335828 -0.05823487 -0.034117166 -0.032131027 -0.020298466
-0.021387301 0.019892704 -0.011052698 0.03962258 -0.015769575 -0.063453846 0.0520699 -0.0499137
-0.0496729 0.038441274 -0.022334352 -0.029055549 -0.04327558 -0.0003384856 -0.025901671 0.048473258
-0.043149535 -0.047289647 0.025514929 -0.040699452 0.02317387 0.052711476 0.02487021 0.043602828
-0.01387414 0.023855858 0.033770826 0.024437115 0.031599816 -0.054417472 -0.043899905 -0.01960951
0.009059856 0.011870351 -0.020170595 0.026512118 -0.028981803 0.021856455 0.0031234073 -0.03430281
0.0041924994 -0.040841877 -0.02300331 0.037089504 0.029825935 0.038823448 0.025266126 -0.028119968
-0.055724844 -0.034247056 0.0333275 -0.057697058 0.026951483 0.031829186 -0.01402959 -0.07272623

bn2.running_mean f4 [128]
00000000: 6267 923d befe 59bd b1a2 cebd 93e3 f53d
00000010: 93a6 f13c fbb8 c63d 5bda c2bd 0dcd a5bd
00000020: 95b6 16bd d2fd 463d f21d d23c 6257 003e
00000030: c886 d43c eadb d03d 5d3e c33d b9c4 7ebd
00000040: cbb3 56bd 19d1 9e3d 6975 8dbd 1d48 9abd
00000050: 1d28 423d 8096 76bc 617d b6bd fb04 92bd
00000060: ac1f 813d 2a6c 65bd c199 adbd cb8e 4bbd
00000070: 94a0 c0bd ae48 3dbd f161 6c3d ef08 d1bd
00000080: 4ebc a83d 3c63 223d 0750 393d afcb b5bc
00000090: defd e63d 4033 deb9 8e86 0f3e 1540 3f3d
000000a0: f8a8 a83d 76ad 61bd 6851 a43d e52b c8bd
000000b0: 3bb4 a63d 4a2c 033e 2f95 b0bd ac54 863d
000000c0: 23cc a33b d003 c2bd 1943 a53d e9bf bcbc
000000d0: 2c4b 383d a254 f2bd 5d8a 3fbd d8bb f1bc
000000e0: ea8b a03c b5bd 933d 8de4 433c 6ed7 d83d
000000f0: ec9f 80bc 319b afbc 93c6 91bd 9d22 b53d
00000100: 6307 03be 44d7 c7bd 21ff c3bd ca2a 13bd
00000110: f2a5 61bd 18ef 81bd 200c a3bd 56c2 cdbd
00000120: 88a3 dfbc d853 143d 1924 9bbd 3fef 103e
00000130: 4e97 ddbb 573a eabd 9e30 2a3d 700e 34bd
00000140: e2d6 01be 2c3c 853d 01fa b0bd 681c abbd
00000150: 62db adbd bd64 b9bc 7823 3fbd e10e 983b
00000160: 325c bebd cd2a 26bd 7b31 533d dd54 9ebd
00000170: 295b 953d 3ee6 063e f753 0b3d 8749 f43d
00000180: 76f2 fabd c8c5 8f3d ded9 0f3d 658b 133c
00000190: 8f7b bd3d bfe1 d2bd cfc6 1dbd 1707 88bd
000001a0: d823 f03d 792c 0d3d e278 88bd bbd6 883d
000001b0: 6e4e 44bd d414 e13d 240b 2fbb 8eed 10bd
000001c0: a189 7c3c bbe3 afbd 725b 02bc 65af d13d
000001d0: ce24 913d 5f98 993d b695 a73d 67fb 6fbd
000001e0: 8b58 49bd 3116 1ebd 66fe d73c e9f6 91bd
000001f0: f971 b33d 5a80 9c3d 4dba a5bd d746 d6bd
0.07148625 -0.053221457 -0.10089625 0.12006297 0.029498374 0.09703251 -0.09514304 -0.08095751
-0.036795218 0.048581906 0.025649045 0.12533334 0.025943175 0.10198195 0.09533379 -0.062199328
-0.052417558 0.07754726 -0.0690716 -0.07533286 0.047401536 -0.01505053 -0.08910633 -0.07129856
0.06304869 -0.056011356 -0.08476592 -0.049696725 -0.09405628 -0.04621189 0.05771059 -0.10206782
0.08239041 0.03964542 0.045242336 -0.02219185 0.1127889 -0.00042381324 0.14016172 0.046691973
0.08235353 -0.055097066 0.080233395 -0.09773997 0.08139845 0.12809864 -0.086222045 0.06559119
0.0049987 -0.094733834 0.080694385 -0.023040729 0.044993564 -0.11832549 -0.046762813 -0.029508516
0.019597966 0.07213918 0.011956346 0.10587965 -0.015701257 -0.021436306 -0.07117953 0.088444926
-0.12795787 -0.097578555 -0.09570146 -0.03592948 -0.0550899 -0.06344432 -0.07961297 -0.10046832
-0.027299657 0.036212772 -0.075752445 0.14153765 -0.0067624217 -0.11436909 0.04155027 -0.04395908
-0.12679628 0.065056175 -0.086414345 -0.083550274 -0.084891096 -0.022631044 -0.046664685 0.0046404456
-0.092949286 -0.04056816 0.05156086 -0.0773103 0.07292778 0.13173768 0.034015622 0.11928087
-0.12253277 0.07020146 0.035119884 0.009005402 0.092520826 -0.10296964 -0.038519677 -0.06641977
0.11725587 0.03446624 -0.066636816 0.066815816 -0.04792636 0.10990301 -0.0026709521 -0.0353828
0.015413673 -0.08588358 -0.007956373 0.10238532 0.07087098 0.074997656 0.08182852 -0.058589365
-0.049156707 -0.038595382 0.026366424 -0.071271725 0.08761973 0.076416686 -0.08092175 -0.104627304

bn2.running_var f4 [128]
00000000: 1e20 923e bca1 be3e b965 a33e 7665 ad3e
00000010: c4e7 7e3e de7b db3e c9e3 453e 3b0f a53e
00000020: f58c 903e c669 963e 4f27 473e 92b3 903e
00000030: 8f12 3d3e 34f2 c73e de12 8f3e 7f2e 873e
00000040: 2e26 533e 3357 a73e 7f8d 953e d05d dd3e
00000050: 2549 733e 5f42 3e3e 2583 663e a53b ad3e
00000060: 86c8 883e b9cc b23e 62d1 be3e 3a72 993e
00000070: 9f13 b53e 3546 8a3e 6a38 833e 47b5 d03e
00000080: f3af d63e 84d8 9a3e 75b0 a43e 969b a53e
00000090: 7bd8 f43e 890e 583e 1272 ad3e d407 ca3e
000000a0: 03ea 723e d025 8e3e 672e 9f3e b0c2 873e
000000b0: 66a9 963e 3f6a be3e 477a a53e 097d 773e
000000c0: 1855 b73e c1be c13e 1c91 af3e bf2d 833e
000000d0: 6d2f 703e dacf b23e e057 8a3e 1444 993e
000000e0: cd00 bb3e c152 833e 106a 9d3e 568a 913e
000000f0: bd19 8a3e 574f ba3e e9fe 943e f595 913e
00000100: b10a da3e dbcf d63e 031b 7d3e ac3f a53e
00000110: 4869 d93e c4dd 7d3e 168b ac3e 37b2 ac3e
00000120: 6129 873e c65e 8c3e b2d6 653e 2247 f13e
00000130: 0b10 9b3e bbbf fc3e 0f58 893e 11c4 ad3e
00000140: 5991 f73e 083c 723e 3b61 933e 91fa 993e
00000150: 2284 9c3e 0c65 7b3e cff8 a33e 76cb a33e
00000160: 5698 a43e f254 d53e 86d0 883e a7ad 9d3e
00000170: c25f a33e a9a2 e23e a975 893e 6c16 e43e
00000180: 760b a63e 7da4 aa3e 4e4b b03e 4a8c aa3e
00000190: fee6 753e 91fd d63e f36a a63e fbf6 9f3e
000001a0: 990a c23e 440e 3e3e fa55 5a3e ea23 ad3e
000001b0: 6853 c03e 2437 ab3e 028c 3f3e 4e9e 873e
000001c0: 83c7 6f3e 2185 a33e 9aa5 833e 8394 993e
000001d0: 4036 b03e 5573 833e 4050 993e 8e72 893e
000001e0: 9ddc ba3e 779f 913e 3ce8 a33e 18d5 c23e
000001f0: 5fc3 b43e 03f8 ac3e 444f aa3e eead d33e
0.28540128 0.3723277 0.31913546 0.3386647 0.24893099 0.4286794 0.19325174 0.32238182
0.28232542 0.29377574 0.19448589 0.28262 0.18464111 0.39051974 0.27944082 0.2640266
0.20620033 0.32683715 0.29209515 0.43235636 0.23758371 0.18580006 0.22510965 0.33834568
0.26715487 0.34921816 0.3726912 0.2996996 0.35366532 0.2700669 0.25628978 0.40763304
0.41931114 0.30243313 0.32165876 0.32345265 0.47821411 0.21099295 0.3387609 0.39459097
0.23722081 0.27763224 0.3109009 0.26515722 0.29426116 0.37190434 0.32319853 0.24168791
0.3580711 0.37840846 0.34290397 0.2562084 0.23455591 0.34924203 0.27020168 0.29934752
0.36524048 0.25649074 0.30744982 0.28425854 0.26972762 0.36388656 0.2910073 0.2843472
0.42586282 0.41955456 0.24717335 0.3227514 0.42463136 0.24791628 0.33699864 0.33729717
0.26398757 0.27416056 0.22445181 0.47124583 0.30285677 0.4936503 0.26824996 0.3393865
0.4835308 0.23655713 0.28785118 0.3007398 0.3056956 0.24550265 0.32025763 0.31991166
0.32147473 0.4166637 0.2672159 0.3079655 0.31908995 0.44264725 0.2684758 0.44548357
0.3243062 0.3332862 0.34432453 0.33310157 0.24013898 0.4199033 0.3250347 0.3124312
0.3789871 0.1856013 0.2132186 0.33816463 0.37563634 0.33440506 0.18705752 0.26487964
0.23415951 0.31937507 0.2571228 0.29996118 0.3441639 0.2567393 0.29944038 0.2684521
0.3649644 0.28441975 0.32013118 0.38053203 0.35305306 0.33782968 0.332636 0.41343635

hidden3.weight f4 [16, 128]
00000000: a2ae ccbd dedd b3bd 5692 f4bc e654 2ebd
00000010: c99e 7d3d ea71 57bd f906 fbbc 61d9 4e3d
00000020: 33d5 98bd 25fb 4a3d 40ac b4bd 62f2 82bd
00000030: 50ed 83bd fa74 fdbc a14f 813d 3c9e ae3c
00000040: 01bc 413c 5fbe 9d3d 61d3 94bd 425b c6bc
00000050: 9101 2b3d 935a f63c 5a0c 2bbd 01e9 933d
00000060: 39e0 8ebd bbeb 413d efd1 543d e32a 8d3d
00000070: 1eec 613d 2b8b 1fbd 4408 19bd 1950 31bd
00000080: bbcc 183c bc00 c43c 397e ed3c 0395 2fbd
00000090: 6b22 25bd 0d54 563b 8555 0a3c ee9d da3d
000000a0: 72ce 313c 2f4c f7ba 5786 bfbd d957 0b3d
000000b0: d6de d7bb 5d58 f5bc ee88 913d 7283 f9bc
000000c0: 4e21 f2bc 90d5 e33b c52c 563d 37e8 a63b
000000d0: 65d4 333d 54b4 973d f95b 633c f04e 853c
000000e0: d3ee 4cbd 593a d3bc a4c0 96bd ff67 6539
000000f0: 1adc 1bbd bbf8 eabc b775 8fbd 99de cc3b
00000100: c1a0 6d3d ec3f 6bbd 8311 813d 4a89 88bd
00000110: 8141 67bd 2090 873d 4b31 09bc b550 7cbd
00000120: e7e1 8f3d 9607 25bc 13f3 52bd 6f74 203d
00000130: 0c50 d7bd 0d68 203a 50db b3bc 44d6 c8bb
00000140: c269 5d3d f39f 40bd f247 393d 06e3 133c
00000150: 2697 6fbd b720 853d bb8b 95bd 1aaf 953b
00000160: bab0 603d 65e7 53bd 7e80 9ebd 2546 153d
00000170: 049b bebb 5ab5 bf3c df26 cd3c 6518 afbd
00000180: 0c23 b13d 414e 59bc be37 52bd 330f 85bd
00000190: 4c4d 5bbd 75d0 7dbd 2d19 8dbd c824 723d
000001a0: e713 d53c 0542 f43c a55e 7cba bf2e 323d
000001b0: fda5 23bd 8328 a9bd 7e29 8cbc 2a05 4abc
000001c0: 6e47 2dbd 24f4 0cbd ba8d a63b ead1 55bd
000001d0: ea65 0ebc 886c 313c bdf0 98bd 21dd d83d
000001e0: aed3 ed3c 9152 453c b583 99bd 78ca ecbb
000001f0: cd58 40bd 9159 09bd e1be 1e3c bbc7 f63c
00000200: cf02 cc3c b329 5abb fc3c ac3d 987d aebd
00000210: 62d6 0fbb 83d7 bcbd ea93 273d c618 493c
00000220: 1d86 a83a 4a18 9fbc 1899 80bc 7862 1a3d
00000230: 8f19 a6bd 3266 2ebd 519b 72bd bddd 6f3c
00000240: a0e6 2f3d acfd fdbc 03b3 8f3c 4028 bfbb
00000250: 1a80 a0bd df42 9a3c d4fd 923d 1a5a 41bd
00000260: 589d 0fbd cddd eb3d 5f2e 623d 3265 383d
00000270: f6ea 06bc 3acd fb3c 3959 e23c 6e9c a3bd
00000280: a74c b4bd 7c94 c4bd db99 eabd 756b 993d
00000290: 5fd8 6bbd abf0 163c ccd7 f83c afb6 a3bd
000002a0: 819b a73b b80d 84bd 62a1 483d d3ef a6bb
000002b0: d857 ad3d 974c a33c 593f 0abc 73a1 7ebd
000002c0: f1ad a93d b663 32bd 101b 87bd 993e 933d
000002d0: e926 ecbc b593 9fbb b71f 9d3c cd1e 3cbd
000002e0: 169b fabc 8f85 df3c bbf2 ea3d 4c09 013c
000002f0: a9d6 5abc 7246 93bc cd2d fd3d 0770 aebd
00000300: df70 67bd 776d a43d 1189 89bd 4374 7e3d
00000310: a947 073e f58e 00bc 4478 d3bc 37e4 aa3c
00000320: 708b 86bd 8826 0fbd 1400 b33c 439e 493c
00000330: 9403 863d 2d99 f8bc 2b0b 3bbd 0380 26bd
00000340: 5cda 27bd c946 09bc 6ee3 85bd 177d f0bc
00000350: 9306 81bc 46ec 763c 9589 883d cf68 e6bc
00000360: 8cbc e03c 2c8d a33c 2126 7bbc 2d71 b83d
00000370: 4cc0 d5bd 88c6 81bd fdf0 aa3d bbd4 d0bc
00000380: 0a04 c9bc df9d 89bd a401 9f3d ef21 73bd
00000390: 2e24 53bb 2b52 a03d 59e6 d73d 6dd6 7d3c
000003a0: 2f16 00bc e307 e73c e467 01bd e24c 413d
000003b0: 5c9b 3cbc 93c9 853c fd06 dcbc 18b6 b3bd
000003c0: 9de5 093e 5186 bfbb ce31 85bd cdb1 173d
000003d0: 7058 0d3d 7024 e2bc a5a9 b6bd 20dc cd3c
000003e0: f82e 12bc c80f 4b3c b08b 613d e582 5a3d
000003f0: f980 bdbc bcfe cfbc 13ef df3d 1b72 cbb9
-0.09994246 -0.08782552 -0.029854935 -0.042561434 0.061919007 -0.05259887 -0.030642973 0.050500277
-0.074625395 0.049555916 -0.088219166 -0.06393887 -0.06441748 -0.030939568 0.06314016 0.021315686
0.011824609 0.07702326 -0.0726688 -0.024213437 0.04174954 0.030072486 -0.041759826 0.07222176
-0.06976361 0.04734395 0.05195802 0.068929456 0.05515682 -0.03895108 -0.0373614 -0.043289278
0.009326155 0.023926131 0.028990852 -0.042866718 -0.040316027 0.0032703907 0.008443241 0.10674654
0.010852443 -0.0018867309 -0.09351795 0.034019325 -0.0065878434 -0.029949361 0.071061954 -0.030458186
-0.029556897 0.006952949 0.05228879 0.0050936 0.043903727 0.07407442 0.013876908 0.016272992
-0.050032448 -0.025784658 -0.07360962 0.00021877883 -0.038051702 -0.028683057 -0.07004874 0.0062521216
0.058014635 -0.057434008 0.06302168 -0.06666811 -0.056458954 0.066192865 -0.008373569 -0.061600406
0.07025509 -0.010072609 -0.051501345 0.03917354 -0.105133146 0.00061190204 -0.021955162 -0.006129058
0.054055937 -0.04702754 0.045234628 0.009026295 -0.058493756 0.065003805 -0.07302042 0.004567993
0.05485604 -0.051734347 -0.07739352 0.03644385 -0.005816819 0.023401905 0.02504295 -0.08549575
0.08649263 -0.013263286 -0.05132269 -0.0649704 -0.053540513 -0.06196638 -0.068895675 0.05911711
0.026010467 0.029816637 -0.000962714 0.04350161 -0.03995322 -0.0825968 -0.017109629 -0.012330333
-0.04230445 -0.03441252 0.005082813 -0.052202143 -0.00869129 0.0108290985 -0.07467792 0.10589052
0.0290316 0.012043611 -0.07495824 -0.0072262846 -0.046959687 -0.033532683 0.009689064 0.030124536
0.024903683 -0.0033289015 0.08410069 -0.08520049 -0.002194785 -0.09220793 0.040912546 0.012273973
0.0012857352 -0.019420762 -0.015698 0.037691563 -0.08110344 -0.04257793 -0.059230153 0.014640269
0.04294455 -0.03100475 0.017541414 -0.0058336556 -0.078369334 0.018830715 0.0717732 -0.04720507
-0.035062164 0.115169145 0.055220004 0.045018382 -0.00823473 0.030737508 0.027630435 -0.07988821
-0.08803683 -0.09598634 -0.11455127 0.07491199 -0.057579394 0.009212653 0.030376337 -0.079938285
0.005114973 -0.06447929 0.04898203 -0.0050945072 0.084640205 0.019933982 -0.008437955 -0.06216569
0.0828513 -0.043552123 -0.06596959 0.07189674 -0.028827148 -0.004869903 0.019180162 -0.04592781
-0.030591529 0.027285365 0.114720784 0.007875752 -0.013356843 -0.017977927 0.123622514 -0.08517461
-0.056504127 0.08028691 -0.067155965 0.062122595 0.1321093 -0.007846584 -0.025814183 0.020860774
-0.06569564 -0.034948856 0.021850623 0.012305799 0.06543651 -0.030346477 -0.045664947 -0.040649425
-0.040979728 -0.008378693 -0.065375194 -0.029356522 -0.015750205 0.01507098 0.06666867 -0.028126149
0.027433656 0.019964777 -0.015328915 0.090059616 -0.10437068 -0.06336695 0.08346746 -0.025492063
-0.024538059 -0.06719565 0.07763985 -0.059358533 -0.003221761 0.07828172 0.10541982 0.015493018
-0.007817789 0.028202003 -0.03159322 0.04719246 -0.01151165 0.01633147 -0.026858801 -0.08774966
0.13466497 -0.005844869 -0.0650364 0.0370348 0.03450817 -0.027605265 -0.08919076 0.025129378
-0.008922331 0.012393899 0.055064857 0.053347487 -0.023132788 -0.025390022 0.10934272 -0.00038804192

bn3.weight f4 [16]
00000000: b67d 7d3f bdb7 703f 4596 7c3f 359b 873f
00000010: c51c 6e3f ae16 803f ba74 6e3f 50ba 7c3f
00000020: f062 823f 6ac4 853f 3451 6c3f 7da3 863f
00000030: ac8b 773f 0422 7f3f 1548 7e3f 6aeb 7e3f
0.99019945 0.9403036 0.98666793 1.059424 0.9301265 1.0006921 0.9314686 0.9872179
1.0186443 1.0450566 0.92311406 1.0518643 0.966975 0.9966128 0.9932874 0.99577963

bn3.bias f4 [16]
00000000: 71eb e2bd eacc c7be c9ec ddbd 9fc5 5d3e
00000010: f70e 903e 991b a93d beb8 ec3e 8d0e 1f3e
00000020: 02c3 e1be 0302 c4be 396f e13e 2544 143f
00000030: 70ff 84be c93b 1bbe 64ba c93d 60aa 643c
-0.11080063 -0.39023525 -0.10836179 0.21657418 0.28136417 0.08257217 0.46234697 0.15532894
-0.44094092 -0.38282785 0.4403017 0.5791648 -0.25976133 -0.15159525 0.09850004 0.013956636

bn3.running_mean f4 [16]
00000000: 8f9d 71bd 36a7 13bd baaf 19bd 36ff 183d
00000010: d054 ae3b 5509 1c3d 9926 f73d 285e b83b
00000020: 0b96 45bb 87c0 1ebe 656a 733b f0eb 343e
00000030: 23cd 11bb c8a1 29bd e996 ab3c 0327 9d3b
-0.05898815 -0.036048137 -0.0375211 0.037352763 0.005320169 0.038094837 0.12067909 0.0056264587
-0.0030149247 -0.15503131 0.0037142274 0.17668128 -0.0022247515 -0.041414052 0.020945983 0.0047959103

bn3.running_var f4 [16]
00000000: e076 2d3f 307a a73f f9a0 1f3f e0b3 d33f
00000010: 3144 6d3f febf 0e3f 0a54 c33f 3640 4d3f
00000020: 4ba9 e53f 100e 2940 1bc4 8a3f d69c 3840
00000030: 7119 3b3f f792 4e3f d147 973e 3cc9 793e
0.67759514 1.3084164 0.62355 1.6539268 0.92682177 0.55761707 1.5260022 0.80176103
1.7942289 2.6414833 1.0841097 2.8845725 0.73085696 0.80693 0.2954698 0.24393171

output.weight f4 [1, 16]
00000000: f6cf 933d 31b4 e83e 4a6d 993d 5480 fdbe
00000010: d7ad 9bbe 1251 13be ea08 f4be e3ad 38be
00000020: cd90 183f ed15 083f f69d 08bf 2123 4bbf
00000030: 4172 933e 893a 523e 86e0 0b3c c59e 843c
0.072174 0.45449975 0.07491548 -0.4951197 -0.30406067 -0.14386395 -0.4766305 -0.18035083
0.5959595 0.53158456 -0.5336603 -0.7935048 0.28798106 0.20530142 0.008537417 0.016188988
