models/focal_loss_checkpoints/checkpoint_epoch_450.pth (torch, 100242 bytes, 16 tensors)

hidden1.weight f4 [128, 30]
00000000: bc1c d43d 6fcd 23be 794d 8bbd 5e31 68bd
00000010: a61d d13d 48e2 d6bd 203c 0c3d ed5e ba3c
00000020: 73f3 973c ae64 e8bd ab5b 08be 2155 503e
00000030: d8c8 a7bd e31f 4b3c d44f 81bd c8f4 ee3d
00000040: 4c28 57be 2c58 553d c330 203e 0f78 883e
00000050: d671 493d 400d 483d af5c eebd df0a 7d3c
00000060: ae10 933d 6068 bb3d fcb6 b8bd cd34 d33d
00000070: f082 e73d 4aec 84bd 5581 40be 2963 033b
00000080: dba6 1d3d 7104 0d3d f104 5abc 82e5 bc39
00000090: 3277 a2bd a181 d9ba 8a5a 2cbd 66d2 17be
000000a0: ec30 7dbd 55f3 29be 2505 2f3e 9bd4 213e
000000b0: 83d4 713d 88bc 3abd 6c2c d9bd b802 863d
000000c0: fda2 e43d edad d13d db8d 2ebe 7c51 01be
000000d0: f02a f5bd d741 e03c 2beb 5a3e 2380 21be
000000e0: e7b6 c33d c7fc 513c 7a7e 0abe 3418 18bd
000000f0: 070c 153e 6840 1d3c 4594 133d a9df 0dbe
00000100: 4564 0d3c 9fc9 ba3d 7ff2 b83d c973 31bd
00000110: 1c3f b73d edfe e13d 29ac 893c 6c6a 0ebe
00000120: 74d8 37be 4827 eb3d 6537 063e fad9 213e
00000130: dbea 2abe b0b9 40be 54d3 afbd f128 e9bd
00000140: 9da6 473d b2e4 0cbd ded8 28be 2c73 abbd
00000150: 76ac d9bd 1a40 b6bd eeb1 4c3d df5f 85bd
00000160: c626 5d3c d391 153e 7ed0 b3bc d57c 2b3e
00000170: 4dda a4bd 0166 a4bc c635 9ebd a678 653c
00000180: 5800 343d 66bc 0a3d 76b4 84bc c07d 78bd
00000190: 13e8 103e 1634 35be 0cec 2b3d 2909 713d
000001a0: a78d 6dbd f873 163e e6de fbbd 94a2 76bc
000001b0: e884 bdbd 28f2 aabc c658 b4bc c914 14be
000001c0: d012 883d fcb9 82bc ead1 703e a832 453e
000001d0: 7f32 18be 5c05 693d 9936 e73c ae01 eebd
000001e0: 8a69 823d e389 6d3c d32b 50be cdb6 fbbd
000001f0: d48e 2bbe 859c eabd da1b f23d 159e debd
00000200: 62c0 4b3c 0113 3c3e 886b e43d 1444 903d
00000210: a9a9 593e ceea b2bd d052 c73d fb6b bebd
00000220: 9d14 e23d 4893 88bc a21c f9bd 8a38 69be
00000230: 0641 b23c 08e4 a53b 3aa4 a4bd 2135 c93c
00000240: f88a 0c3e 1477 1f3e 1273 c13c 74c9 50bd
00000250: d767 a43c adab a03c fbbd 90bd aae2 92bd
00000260: 42b2 263e c790 5a3d 0ebb 5e3e be43 823d
00000270: 46a6 383e 3b46 a53c dd41 ebbc 579c d53c
00000280: b44b 853d f774 b33d 2404 3abd fd72 d83d
00000290: 0a1d 23be fc80 6d3d 06ec c43d 941c 93bd
000002a0: a7c3 58bd 9be5 0a3e 371d 9f3d c2ae d4bc
000002b0: 3f7e febd 833a c23c dae9 c33d b201 01be
000002c0: ef0a 97bd 751f fbbd bc68 71bd 65d3 723d
000002d0: 2fbf b8bd 921f 5cbd 7669 353d 1d0d 27be
000002e0: 9933 5ebd 856d 283e 6757 5cbd a31c 083e
000002f0: 622e 06bb ee58 05be 62a6 3ebd 3e58 2abe
00000300: a67f 453e 724b 4b3e cc99 fd3d 00fd 023d
00000310: 8275 dd3d 8472 8b3d 527f 803c c807 fc3c
00000320: 2def 5d3d 5a67 8cbc e437 2ebe 3e48 f03d
00000330: 4872 e33d 698d 12be 81f6 793d 3327 613d
00000340: c35c cc3b 5bf3 f2bc c2ed 79bc 3f08 88bd
00000350: ac14 293c 52f6 153e ee8d 36be f7cc 0dbe
00000360: 20c6 873d d0b8 e0bc 1b82 ccbd fb12 09bc
00000370: 6f73 8f3d 2a96 4bbe 2965 f6bb 888e 9d3c
00000380: b0e1 a83d 7aa7 9dbc 2524 223e 4096 0b3e
00000390: 89a2 cabd 80ce 0a3d fdf3 dd3d 22b9 56bd
000003a0: 5cef 243e 9811 adbc bbe7 303e 22a6 3dbd
000003b0: f738 3f3e fe55 cebd 05dd ac3d 8c0e 1cbd
000003c0: 36b0 ccbd 1cfb 973d e17e 24be a9cc 343e
000003d0: e94f b53d 7a77 05bd 7b83 fe3c 017b 033e
000003e0: 42c9 e63c 184a 333d 8f2f 4e3e 4ad3 c53d
000003f0: c8c6 dbbc 8a42 ef3c d486 833e 6d12 f2bd
0.10357043 -0.15996335 -0.06801886 -0.056687705 0.10210733 -0.104923785 0.034237027 0.022750342
0.018548703 -0.11347328 -0.13316219 0.20344974 -0.08192605 0.012397739 -0.06314054 0.11667782
-0.21011466 0.05208604 0.15643601 0.26654097 0.049180828 0.04884076 -0.11638772 0.015444486
0.07180916 0.09150767 -0.090192765 0.10312805 0.11304271 -0.06490381 -0.18799336 0.0020048118
0.038489204 0.034428064 -0.013306842 0.0003602915 -0.07932891 -0.0016594419 -0.042078532 -0.14826354
-0.061814234 -0.1659673 0.17091806 0.15803759 0.059040558 -0.045589954 -0.10604176 0.06543487
0.111639 0.10238252 -0.17046301 -0.1262874 -0.1197108 0.027375145 0.21378772 -0.15771537
0.0955637 0.0128166145 -0.1352481 -0.037132457 0.1455537 0.009597875 0.036030073 -0.13854851
0.008629863 0.091204874 0.090306275 -0.043323312 0.08947584 0.11034951 0.016805725 -0.13907784
-0.17953664 0.11482102 0.13107069 0.15805808 -0.16691153 -0.18820834 -0.085852295 -0.11384762
0.04874288 -0.03439779 -0.16488978 -0.08371577 -0.106285974 -0.08898945 0.049974374 -0.065124266
0.013498014 0.14606409 -0.021950003 0.16746838 -0.0804945 -0.02006817 -0.077251 0.014005816
0.04394564 0.033871077 -0.016199332 -0.0606668 0.1415103 -0.1769565 0.04197316 0.058846626
-0.05799642 0.14692676 -0.12298374 -0.01505341 -0.092538655 -0.020867422 -0.022014987 -0.14461054
0.06644213 -0.015957825 0.23517576 0.19257605 -0.14863013 0.056889877 0.028224276 -0.11621414
0.06367786 0.014498207 -0.20329218 -0.12290726 -0.16753703 -0.11455635 0.118217185 -0.108699955
0.012436004 0.18366624 0.111533225 0.07044235 0.21256126 -0.08736192 0.09732592 -0.092979394
0.11039088 -0.016671792 -0.121636644 -0.22775474 0.021759521 0.005062584 -0.08039136 0.024561467
0.13724887 0.15572768 0.02361444 -0.05097337 0.020069046 0.019613111 -0.07067486 -0.07172139
0.16278937 0.053360727 0.21751043 0.06360577 0.18032178 0.02017509 -0.02871793 0.026075525
0.0650858 0.08762544 -0.045414105 0.10568807 -0.15929046 0.057984337 0.096153304 -0.07183185
-0.052920964 0.1356415 0.07769244 -0.025962237 -0.12426423 0.023709541 0.09566088 -0.12598303
-0.07375132 -0.12261859 -0.058937773 0.059283633 -0.090208404 -0.053741045 0.04429003 -0.16313596
-0.054248426 0.16448028 -0.05379429 0.13292174 -0.0020474424 -0.13022205 -0.046545394 -0.16635224
0.19286975 0.19852999 0.1238285 0.03197956 0.108134285 0.068089515 0.015685711 0.03076543
0.054183174 -0.017139126 -0.17013508 0.11732529 0.11105782 -0.14311756 0.0610261 0.054969024
0.006236644 -0.029657057 -0.01525444 -0.06642198 0.01031987 0.14644745 -0.1782758 -0.13847719
0.06629586 -0.027431875 -0.09985753 -0.008366342 0.07004439 -0.19881502 -0.0075193834 0.019233003
0.082461715 -0.019244898 0.158341 0.13631535 -0.09894282 0.03388834 0.10837553 -0.05242265
0.16106933 -0.021126553 0.17275898 -0.046301015 0.18674074 -0.100749955 0.08440594 -0.03809981
-0.09994547 0.07420942 -0.16064025 0.17656197 0.08853132 -0.032584645 0.031068554 0.12839891
0.02817214 0.043771833 0.2013533 0.09659441 -0.026828185 0.029206533 0.25688803 -0.11819921

bn1.weight f4 [128]
00000000: 5129 843f ea45 803f bd19 813f d1d0 813f
00000010: 4f9a 813f da9f 883f ecdc 863f 47a9 803f
00000020: 7d27 843f e7b3 813f ac1f 813f 9233 813f
00000030: 5604 823f b50f 803f 018c 823f 5f40 843f
00000040: b12e 823f 2b15 823f 6e88 843f 0824 823f
00000050: bbe9 833f 4847 803f 8dd1 823f 1ae1 833f
00000060: 1abf 833f 2c5f 833f 8c45 7f3f 3de2 843f
00000070: b266 833f 0b8f 813f fce8 833f ac3f 823f
00000080: 7460 833f 4580 883f bc9c 823f af38 853f
00000090: 8bee 823f 9c7d 833f d76f 843f e75b 863f
000000a0: e258 823f f62c 823f 124c 823f a3e2 8b3f
000000b0: a77a 823f d53c 803f ef36 7e3f 1e44 843f
000000c0: ee69 813f 7d95 7d3f ed63 7f3f fea8 843f
000000d0: d0c5 833f f6fa 813f 46d0 873f 336e 843f
000000e0: 1088 803f aff0 823f e697 803f df8d 833f
000000f0: 8ea4 823f 269f 803f 0484 833f d6ca 863f
00000100: 837a 853f a88d 833f 8701 833f b76c 853f
00000110: ba7b 843f 836b 833f f969 873f 82ce 843f
00000120: 9c66 813f 26f6 813f bfb4 7e3f f9c3 863f
00000130: e12b 883f 902b 843f f2ae 823f 276a 7e3f
00000140: 57fc 823f 9418 873f 6ca1 823f 4e4b 833f
00000150: bc04 823f 546d 863f 7184 7e3f de6f 833f
00000160: 5492 823f 8088 843f cd67 863f e99a 7b3f
00000170: 09dd 813f daf4 803f cf2a 813f cd56 823f
00000180: 3a2f 873f 0cb5 823f cd3d 833f 8c57 873f
00000190: c349 8e3f e781 803f 8259 7c3f 8ad7 803f
000001a0: 81c8 883f 1237 8b3f 357d 823f 32ed 803f
000001b0: bc5f 823f 0f9b 7c3f 03d6 813f 5b1a 843f
000001c0: cb35 843f 310a 833f 0336 823f aa75 843f
000001d0: 2d77 843f 858a 813f 85a8 853f 7344 803f
000001e0: 88cd 813f 9384 863f e507 7c3f ba97 803f
000001f0: 86eb 843f 908b 843f cea7 803f 544d 833f
1.0325109 1.0021336 1.008598 1.0141851 1.0125216 1.0673783 1.053617 1.0051659
1.0324551 1.0133027 1.008779 1.0093863 1.0157573 1.0004793 1.0198976 1.0332144
1.0170499 1.016271 1.0354135 1.0167246 1.0305704 1.0021753 1.02202 1.030307
1.0292695 1.0263419 0.99715495 1.0381542 1.0265715 1.0121778 1.0305476 1.0175681
1.026381 1.0664145 1.0204082 1.0407923 1.0229048 1.0272708 1.0346631 1.0496796
1.0183375 1.0169971 1.0179465 1.0928539 1.019368 1.0018564 0.9930257 1.0333288
1.0110452 0.99056226 0.9976185 1.0364072 1.0294743 1.0154712 1.0610435 1.034613
1.0041523 1.0229701 1.0046356 1.0277671 1.0206468 1.0048568 1.0274663 1.0530651
1.0428013 1.0277605 1.0234841 1.0423802 1.0350258 1.0267185 1.0579215 1.0375521
1.0109439 1.0153244 0.99494547 1.0528556 1.0638391 1.0325794 1.0209639 0.99380726
1.0233258 1.0554376 1.0205512 1.0257356 1.0157695 1.0502114 0.9942084 1.0268514
1.0200906 1.0354156 1.0500427 0.9828325 1.014558 1.0074723 1.0091189 1.018274
1.0561287 1.0211501 1.0253235 1.0573592 1.111626 1.0039643 0.9857408 1.0065777
1.0686189 1.0876181 1.019446 1.0072386 1.0185466 0.986741 1.0143436 1.0320543
1.0328916 1.0237485 1.0172733 1.0348408 1.034887 1.0120398 1.0442053 1.0020889
1.0140848 1.0509208 0.98449546 1.0046303 1.0384376 1.0355091 1.005121 1.0257974

bn1.bias f4 [128]
00000000: 5d33 aebd 4dee 853d 090e 58ba 5135 3e3d
00000010: fdad cb3d 7df0 8fbd fe4a 4e3d 9d0f 593d
00000020: 7743 5d3d 4557 df3d 1689 81bd ea17 803b
00000030: b947 653d ce13 de3c 0c92 08be 67fd fdbc
00000040: 0ec1 75bc f7a9 86bc f8fa 6d3d 590a bc3c
00000050: c694 8dbd 9de4 083d fafb c03a d498 363d
00000060: 1ef9 54bd 9016 303d fb00 6ebb d413 b3bd
00000070: 8359 453d 1bb7 a1ba eb93 8f3d 8763 b8bc
00000080: 2204 ba3d 50f1 47be f95d c53c 78a9 c83c
00000090: 2414 27bd 6a5b 86bc fffd e0bc 37f6 253e
000000a0: 5579 d0bd e95f 7dbd a11b f03d 7542 323d
000000b0: 8361 9c3d 0c2b ce3c 1079 a1bd e1e7 083c
000000c0: 0e3a 063d 2b51 36bd 0f9a 163d 2faf 05bd
000000d0: e625 883c 2dab ed3d 56c0 e4bd ab24 0abd
000000e0: f51b 0ebd f493 d3bc fbc3 af3b 1f6c 053e
000000f0: aded 37bd 8bf6 203d 1a29 6c3d d8f6 943d
00000100: 325e 0a3c 8525 6d3c 005a e43c f4ee a5bd
00000110: d287 bd3b 749b 83bd ad32 283d abbe 373d
00000120: 548c 1f3e a9c3 73bd e711 b0bd 4aaf 943d
00000130: 18f0 113e 1dde 993d 0bfa a9bd f069 99bc
00000140: b589 003e d81c 833d 660c 0a3d 6a69 073d
00000150: 2874 e9bd 276a 24bd 80e7 0d3e b4ac eabd
00000160: ed57 7d3d 8cd2 153b 5b6b 68bd 7a53 90bd
00000170: 45f9 9a3d 541c eabc 349e 553d a079 a63d
00000180: 584c 3e3d 27f1 dd3c 1ae7 ddbc 678a b63d
00000190: 8ebb 643d b2f6 183d 7116 9abd ded3 2bbd
000001a0: ab25 91bd c32a 793d 5380 b73b bea0 09bd
000001b0: b29b 7d3c 7a7c 8abd 2d62 e33d e85f b03d
000001c0: 0a9d 313d cbc2 a7bc 3b88 36bd 5c70 873d
000001d0: 2911 993d ed2d 713c 8abf 5f3d d316 ddba
000001e0: 2740 4e3b cbd9 903d 09dc 1abe fbe8 84bc
000001f0: 6602 883d e46f 11bd 9923 c5bd eaa4 823d
-0.085058905 0.06539593 -0.00082418375 0.046437565 0.09945295 -0.070282914 0.050364487 0.052993406
0.054019418 0.10905317 -0.06324975 0.003909101 0.055976603 0.027109053 -0.13336962 -0.03100462
-0.014999641 -0.016438467 0.05810067 0.022954153 -0.06913142 0.033421148 0.0014723532 0.044579342
-0.05199539 0.042990267 -0.0036316502 -0.08744016 0.04818107 -0.0012337895 0.07010635 -0.022508396
0.090828195 -0.19525647 0.024092661 0.024494871 -0.040790692 -0.016401011 -0.027464865 0.16207205
-0.10179392 -0.061859045 0.1172402 0.04352041 0.076357864 0.02516701 -0.07884419 0.0083560655
0.03277021 -0.044511 0.036768015 -0.03263777 0.016619634 0.11604915 -0.11169498 -0.033726376
-0.03469463 -0.025827385 0.005363939 0.13029526 -0.0449044 0.03929762 0.057656385 0.07273644
0.0084453095 0.014474277 0.027874947 -0.08102217 0.0057840133 -0.06426135 0.041063953 0.04485957
0.15580875 -0.059512768 -0.085971646 0.07259996 0.14251745 0.07513068 -0.08299645 -0.018727273
0.12552531 0.06401986 0.03370323 0.033059515 -0.11399108 -0.040140297 0.13857841 -0.11458722
0.06185143 0.0022861091 -0.056743007 -0.07047172 0.07567076 -0.028577961 0.052152827 0.08128667
0.046459526 0.02709253 -0.027087737 0.08913117 0.05584293 0.037344642 -0.075238116 -0.0419501
-0.07087263 0.060831796 0.0056000142 -0.03360056 0.015479015 -0.06762023 0.1110271 0.08612043
0.043362655 -0.020478627 -0.044563513 0.06613228 0.07473976 0.014720422 0.054626025 -0.0016867764
0.0031471343 0.07072791 -0.15122999 -0.016224375 0.066410825 -0.035507098 -0.0962593 0.06379111

bn1.running_mean f4 [128]
00000000: 1183 f4bc 3f74 02be e539 643e e65a 07be
00000010: 1832 443d e284 e33d e888 83bd 8703 c2bc
00000020: 1ee3 a43d 9a3e 783e 1642 213c 995c 283e
00000030: 7ecd d0bc be90 b13c 1e7d 5bbc 8ff2 8ebd
00000040: a2e7 4e3e 5076 b2bc 82cb 2b3d 2ecf 083d
00000050: 629c f1bd 0cb8 01be 9d0e 0dbe cf5f 4d3d
00000060: 6286 54bd 17f3 8dbd c0a1 323d d0c5 7e3d
00000070: 675e dcbd 456f 1b3d cac5 34bc db4b 0e3e
00000080: 2087 dc3b 51e7 f93c 30eb 4b3d e6b7 9fbc
00000090: fd9b 723e 2de5 383e 9bba 513d ac88 00be
000000a0: f567 d8bd 2ee4 0dbe 40c9 c3bd b754 9dbc
000000b0: 0f23 2b3e 5c48 113e 66b7 163a e34c df3c
000000c0: 0bd9 80bd 9b43 2b3e 41bf f83d 7ae4 20bc
000000d0: 023b a53d fb1a b03c 9ab5 163e f36b 61bd
000000e0: c6ca 153e dfc7 a4bc ea69 14bd a0f1 083e
000000f0: 28b8 edbb cc98 213d a915 81be 3e0b a43d
00000100: c976 6cbd 7b50 6a3d b921 0b3e 76d3 c9bb
00000110: c5ae 263e 7e35 cfbd fd0b b03c c6ee 0abd
00000120: a9b3 643a be7e ecbd f4bc 973d 35ec 463e
00000130: b745 c1bd 3c57 163d 48dd 34be 9892 7e3e
00000140: c22a 8d3d 6065 023c 4a6c ea3d 6702 cbbc
00000150: ec60 86bd 0467 93bd e8b2 92bd b0aa 763e
00000160: da68 0dbe 2caf ec3c 3684 b83d f65a 3c3e
00000170: 1fee 11be 0cea 033d 59ec 30bd aac4 efbd
00000180: 1084 d23c 36be 573d 32c5 a5bd 0ccc ddbd
00000190: b2de 863a fb2f 19be 3c34 053e 0d9a 593d
000001a0: be9a 253e a4d3 a0bd 4a1b 70bc d341 ec3d
000001b0: 326c 1f3c 4dd5 b23d ad22 713d f443 24bd
000001c0: 76d8 91bd 1799 c13c a9a0 9b3d e769 99bd
000001d0: 93d4 d53d 5436 e53d 9e6c cd3d 8cf0 d0bd
000001e0: 38fb d13d c092 bbbd c7f1 b63d a60e a53d
000001f0: fc7d 83bd eff9 c4bd dccb a0bd adb8 e5bd
-0.029847654 -0.12739657 0.2228771 -0.13218269 0.047899336 0.1110933 -0.06422597 -0.023683323
0.08051132 0.2424263 0.009842416 0.16441573 -0.025488611 0.021675464 -0.0133965295 -0.06979858
0.20205548 -0.021784931 0.041942127 0.033400707 -0.11797406 -0.12667865 -0.13775106 0.0501402
-0.05188597 -0.06931131 0.043611288 0.062200367 -0.10760193 0.03794791 -0.011033485 0.13896124
0.0067299753 0.030505808 0.04978484 -0.01949687 0.23692317 0.18056174 0.05120335 -0.12552136
-0.10566703 -0.13856575 -0.0955987 -0.019205434 0.16712593 0.14187759 0.00057493744 0.027258342
-0.06291398 0.16725008 0.12145854 -0.009820098 0.080678955 0.02149724 0.14717713 -0.05503459
0.14628133 -0.020114837 -0.03623382 0.13373423 -0.007254619 0.03945236 -0.25211838 0.08009957
-0.05773047 0.05720566 0.13587083 -0.0061592413 0.16277607 -0.10117625 0.021490091 -0.03391912
0.0008724281 -0.11547612 0.07409087 0.19426043 -0.09437125 0.036704287 -0.17662537 0.24860609
0.06892921 0.00795874 0.11446436 -0.024781419 -0.06561455 -0.07197383 -0.0716303 0.2408855
-0.13809529 0.028892122 0.09009592 0.18394074 -0.14250992 0.032205626 -0.04319415 -0.117074326
0.025697738 0.052671634 -0.08094253 -0.108299345 0.0010289757 -0.1495971 0.13008207 0.05312543
0.1617231 -0.07852867 -0.014654944 0.115359925 0.009730386 0.0873209 0.05887096 -0.040103868
-0.07121365 0.02363257 0.07599003 -0.074909024 0.10440936 0.11192003 0.10030483 -0.10202131
0.10252994 -0.0915885 0.08932834 0.080594346 -0.06420514 -0.096179835 -0.07851383 -0.11216865

bn1.running_var f4 [128]
00000000: 8baf b33e e1cb 0b3f 2843 133f f0da d73e
00000010: 3b31 c03e ff08 cb3e b20f a03e 7dd4 c83e
00000020: cd07 1b3f d001 8c3f b899 0d3f d47b 1a3f
00000030: 5f24 be3e 3ecc 1c3f 6cff a63e a95d 993e
00000040: 3455 283f 7e7b 053f bdfd 123f 0864 ee3e
00000050: d890 f73e 3c41 1d3f 804c 0b3f 6e4c e43e
00000060: 7005 d73e 0787 b23e f123 073f 052f c93e
00000070: 6e32 f43e edca cc3e 27db ac3e 2ea2 1b3f
00000080: 2d6d 223f 0a1b ad3e 53b0 243f 6748 8e3e
00000090: 714e 453f 7388 453f d7bd da3e b090 013f
000000a0: dc66 1b3f 7610 f83e 1a56 0f3f c52f 9f3e
000000b0: 2b87 1d3f affa 323f 03e9 a63e 5c19 af3e
000000c0: 3ac6 023f f903 483f c5f9 403f 523b 953e
000000d0: 0611 283f 4299 033f cb51 ef3e a06c c53e
000000e0: 6117 3c3f 7c37 8e3e ab12 223f c19b 343f
000000f0: a795 983e da46 163f 1944 b83e f3b9 5e3f
00000100: 996d ba3e 579f 113f 70de 503f 34bf 073f
00000110: 6197 043f 627e e83e 3e61 c03e 60a0 c23e
00000120: dd7c fa3e 75e6 253f 7ad5 023f e4c5 703f
00000130: 8d34 9c3e 2677 ce3e 7843 383f 2283 a13f
00000140: 73db bb3e 363e b53e 6b92 003f 3114 923e
00000150: bb98 273f 707d c53e b135 e43e dda0 0b3f
00000160: ae3f db3e 1e7c 993e 227c 953e 7c05 2c3f
00000170: eb03 0d3f bc7e e23e 2248 d93e 101f 303f
00000180: 7341 733e 90c9 fd3e 652f 083f 59e9 e53e
00000190: 5ed9 ae3e f1b9 1e3f e0a0 e43e dade b73e
000001a0: 797c e73e 1ba2 9c3e 7090 203f 82c8 8e3f
000001b0: d44e c23e 50a0 853f 2ab2 1c3f f075 0a3f
000001c0: 4962 803e cbab c63e 64a7 e03e b5ca ae3e
000001d0: a804 0f3f 6f9e a13e 665c 5f3f f14d 333f
000001e0: 8fe3 3e3f 3a60 cd3e b3ce 0d3f d386 053f
000001f0: 1281 fc3e 74ff 083f 6b0a 173f 8686 e73e
0.35094866 0.5460797 0.5752435 0.42159224 0.3753756 0.396553 0.31261975 0.39224616
0.6055878 1.0938053 0.5531268 0.60345197 0.37137124 0.6124915 0.32616746 0.2995427
0.6575501 0.5214156 0.57418424 0.46560693 0.48352695 0.61427665 0.54413605 0.4458956
0.41996336 0.34868643 0.5278922 0.39293686 0.47694725 0.3999857 0.3376095 0.6079434
0.6344784 0.33809692 0.6433155 0.27789614 0.7707282 0.7716133 0.4272296 0.506114
0.60703826 0.4845006 0.55990756 0.31091133 0.61534375 0.6991376 0.3259965 0.34199035
0.5108372 0.7813106 0.7538112 0.2914682 0.65650976 0.5140573 0.4674209 0.38559437
0.73473173 0.27776706 0.63309735 0.7055016 0.29801676 0.5870186 0.35989454 0.87002486
0.3641174 0.5688376 0.8158941 0.5302613 0.51793486 0.45408922 0.3757419 0.3801298
0.48923388 0.64804775 0.5110699 0.9405196 0.30508843 0.40325278 0.7197795 1.2618144
0.36690864 0.35399026 0.50223416 0.2853103 0.65467423 0.38572264 0.44572213 0.5454233
0.4282202 0.29977506 0.29196268 0.6719587 0.55084103 0.44237316 0.42437845 0.687974
0.23755436 0.49567842 0.5319732 0.44904593 0.34150213 0.62002474 0.44653988 0.3591221
0.45212153 0.30592427 0.62720394 1.115494 0.37950766 1.0439548 0.61209357 0.5408621
0.25074986 0.38802943 0.4387771 0.34139028 0.5586648 0.31566188 0.87250364 0.70040804
0.74565977 0.40112478 0.5539352 0.5215885 0.49317223 0.5351479 0.5900027 0.4521982

hidden2.weight f4 [128, 128]
00000000: c5c5 993d e099 9f3a 9fcb 82bd 5b18 193d
00000010: 1c1a 1b3d 882a 8dbc 522a a43c 116e cd3c
00000020: c065 ad3c 1782 e0bc f1d2 57bd 9ef0 5b3d
00000030: ab20 6f3c b1ff b53d 511f 6fbd 2ac0 e5bc
00000040: d7e8 75bc 3af9 b53c 872a 78bc 60e5 0dbd
00000050: 7f70 6cbc f51f 67bd 533f 353c f8de adbd
00000060: c303 11bd ab6c 193c 336c 89bd 529a 6d3c
00000070: 51f6 cc3d c2cf 6bbc 3181 b33c c446 abbd
00000080: c86d 8f3b 8994 bf3c b734 bbbb b0b5 893b
00000090: 5845 cabd dce3 b33c e0d8 c8bc f960 6a3b
000000a0: 1ea6 463d 6e2d 893d 751e 93b8 a77e aa3d
000000b0: 91c1 173c 1c11 a9bb 6c3f 743d b8f6 b13d
000000c0: 53f0 903d 0d7c 95bd 0ee1 1abd f4be 133d
000000d0: e423 38bd a03d 71bb 004c 333d 7afa 793c
000000e0: 1c10 193a af31 173d c8fc d23c 09d2 aebd
000000f0: 20d5 793d e022 7e3c 6657 803d b389 8e3a
00000100: 979a 6d3b 6b1e d73c 00bd d6bb ec85 8e3d
00000110: 6dab 9fbd 1f8e 1dbd ed1e 92bd ee57 d13a
00000120: 0602 77bd 2756 8b3d ff90 e5bc acaf 633d
00000130: a500 d53d 2cc9 5cbd 4000 35bd 0a40 14bd
00000140: e2c7 26bd be6a bb3d 5035 403d 5be8 dfbb
00000150: 340b 86bd 16a5 1c3d bb2d ab3d 2939 9a3b
00000160: 083a 1dbc 21a4 36bd 8cc3 cabd 3a80 423d
00000170: d40c 6b3d 36d8 903d bed0 b23d c77d b23c
00000180: 7e8b f9ba 2b16 6c3c 2bde 9dbc 5507 85bc
00000190: 92fb 8f38 b603 a73c 7233 82bd 8492 9abd
000001a0: 0f55 04be a900 d8bb f98f fa3b a854 743d
000001b0: ab30 3dbd 150d 9ebc d862 323d c016 2a3d
000001c0: 6f69 06bd 63b6 87bd 82d3 89bd 35e0 953b
000001d0: 6751 a43b edc8 473d e0b3 eb3c 655c 6c3d
000001e0: f04e 09bd 8d1c cc3b 8ae1 08bd 9d65 ac3d
000001f0: ad6f 8abc eb4b 4b3d 1793 543d 6058 323c
00000200: 8982 e63c 2ea1 a6bb fc59 8f3c 6e86 9c3d
00000210: b2f8 24bc 2f05 a33d c21e 64bd 5ec4 8fbc
00000220: 361f 1a3c 751c d33b c3f8 da3d 1ab2 c5bd
00000230: f6b5 6abd 2024 dbba 2de1 053d fcf7 ddbc
00000240: 2507 e8bb a8ea 89bd 3e1d c0bd 5f35 03bd
00000250: f57d 693b 402f a53d 4892 d9bc 540a acbd
00000260: d169 053d cab5 a03d 6b4d bc3b fb70 943d
00000270: 5a5e f93c 58a1 bbbb 31c3 7cbd b834 cc3c
00000280: 063f 7e3d e465 4dbd 7fb0 753d 5ed0 6e3b
00000290: 4566 35bd 48c2 283c a0be 9bbc 1d9b 3bbd
000002a0: 14a0 2e3d 220e bf3d 6546 99bc 4335 86bd
000002b0: 5ca0 3cbd 431e 88bd 7dd1 8cbd c5ef 2bbd
000002c0: 5dac 4ebd 13d2 c8bc 15b9 553d 72ef 58bd
000002d0: 35ee 983c ef6b 3cbc 9a4d 8cbd a3d7 29bd
000002e0: 80be 40bd b085 d43c 22f0 893d 9bb7 61bd
000002f0: c167 bdb9 e1eb b7bd 058f d23d 0e5f 0b3d
00000300: 5aeb 073d 0fa5 99bd 74e9 6b3c 6eff 963d
00000310: 1c4b aabc fc21 113d a20e 32ba 80b4 14bc
00000320: 9bd6 18bd 06d4 883c 5e4a 003d e3ab 8fbb
00000330: dcc1 d7bc e615 c2bd c1c9 13bd 8e4a 32bd
00000340: 3462 90bd c17c a0bd 1d41 5abd 781c e3bc
00000350: c858 0e3d 859c 303d faf8 84bd 48e5 503d
00000360: ad65 afbb 7899 b03d 874f 3e3d 873e e93c
00000370: e381 7c3d 9af1 82bc 07c3 703c fa20 8cbd
00000380: db86 80bd bdd5 3437 5771 453d e9d3 413c
00000390: 4f94 9fbd bc8d 3cbd 5374 efbc bae2 583c
000003a0: abc9 433c 58a5 283d 1ed2 a6bd fce8 533d
000003b0: 70fc c7bd 8c48 20bd 95e2 0d3d 7c2b 7cbd
000003c0: be98 6abd 953f c83d 30c0 4abd c79a 523c
000003d0: b8a3 b5bd 7e22 dbbd 969f 37bd f709 b63d
000003e0: 3b06 73bd abc0 693d e025 05bc 991d 4b3b
000003f0: 34b1 4b3d 481a 023d 4861 9d3d 8461 0f3d
0.07508425 0.0012176596 -0.06386494 0.037376743 0.037866697 -0.017232195 0.020039711 0.025076898
0.021166682 -0.027405782 -0.052691404 0.053696267 0.014595191 0.0888666 -0.058379475 -0.028045733
-0.015009127 0.022213567 -0.015146858 -0.034642577 -0.014431118 -0.05642696 0.011062461 -0.084897935
-0.035403978 0.009364287 -0.067100905 0.014502125 0.100079186 -0.014392795 0.02191219 -0.08363107
0.0043771006 0.023386257 -0.005713071 0.004202567 -0.098765075 0.021959238 -0.024517477 0.0035763367
0.048498265 0.06698118 -7.015179e-05 0.08324938 0.009262458 -0.0051595103 0.059630796 0.08689636
0.07077088 -0.072990514 -0.037812285 0.03607078 -0.044956103 -0.0036810413 0.04377365 0.015257472
0.00058388873 0.036912616 0.025755301 -0.08536155 0.060994267 0.015511245 0.0626667 0.0010874778
0.0036255473 0.026259622 -0.0065532923 0.06959137 -0.07796369 -0.038465615 -0.07134805 0.001597164
-0.060304664 0.06803542 -0.028023241 0.055587456 0.104005136 -0.05390279 -0.04418969 -0.036193885
-0.040717967 0.09151219 0.046925843 -0.006833119 -0.065451056 0.038243376 0.08358332 0.004706521
-0.009596355 -0.04459012 -0.09900579 0.047485568 0.05738528 0.07072489 0.08731221 0.021788491
-0.0019038764 0.014409582 -0.019270977 -0.016238848 6.86563e-05 0.020387512 -0.06357469 -0.07547477
-0.12923072 -0.0065918756 0.0076465574 0.059651047 -0.04618899 -0.019293347 0.043551296 0.041525602
-0.032815393 -0.066265844 -0.06729795 0.0045738467 0.0050145867 0.048775602 0.028772295 0.0577053
-0.033522546 0.0062289895 -0.033418216 0.08417819 -0.016898954 0.049632948 0.05189809 0.010885328
0.028138416 -0.005085132 0.017498963 0.07642828 -0.010069059 0.07959973 -0.055693395 -0.01754969
0.009406855 0.0064426013 0.10691979 -0.09653111 -0.057302438 -0.001671914 0.032685447 -0.027095787
-0.00708093 -0.0673421 -0.093805775 -0.03203332 0.0035628055 0.08065653 -0.02655901 -0.084004074
0.032571618 0.078471735 0.0057465336 0.07248112 0.030440498 -0.005726021 -0.061709587 0.024927482
0.062071823 -0.050146 0.059982773 0.0036440114 -0.044286985 0.0103002265 -0.019011796 -0.045802224
0.04263313 0.093288675 -0.018710325 -0.065531276 -0.046051368 -0.06646397 -0.06875894 -0.04197671
-0.050457347 -0.024514234 0.05217846 -0.052962728 0.018668273 -0.011500343 -0.06850739 -0.041465413
-0.047056675 0.025942653 0.06735255 -0.05510674 -0.00036126192 -0.08980537 0.10281185 0.034026198
0.033183433 -0.075021856 0.014398921 0.07372938 -0.020787768 0.0354328 -0.00067923416 -0.009076238
-0.03731404 0.016702663 0.031320922 -0.004384504 -0.026337557 -0.09476833 -0.03608108 -0.043528132
-0.07049981 -0.07836295 -0.053284753 -0.027723536 0.034752637 0.04311802 -0.06492801 0.05099991
-0.005352697 0.08623022 0.046462562 0.028472198 0.061647307 -0.015984345 0.014694936 -0.06842227
-0.06275722 1.0778601e-05 0.048203792 0.0118303085 -0.077919595 -0.046033606 -0.029230272 0.01323765
0.011949937 0.04117331 -0.081455454 0.051735863 -0.097649455 -0.039131686 0.034639914 -0.061564907
-0.057274573 0.09777752 -0.04949969 0.012854285 -0.088691175 -0.10699938 -0.044829927 0.088886194
-0.059332114 0.057068508 -0.008126706 0.0030992983 0.04972954 0.031763345 0.076845706 0.035005108

bn2.weight f4 [128]
00000000: 7163 803f c1c6 7f3f 63d9 7f3f 6503 7d3f
00000010: e8cf 7e3f 1404 803f e45f 7f3f 338e 7c3f
00000020: 3a2a 803f 5dbc 7e3f 431d 803f 4781 7f3f
00000030: 8a03 803f f327 803f 6a72 7f3f 0746 7e3f
00000040: c236 7e3f 95b2 7e3f cbfa 7f3f a71b 803f
00000050: bf87 7f3f beb7 7d3f 26f5 7d3f 9641 803f
00000060: 3dae 7c3f 8359 813f 0b82 7f3f 0a7b 803f
00000070: 62cd 7e3f 4b44 803f a071 7f3f 47ba 7d3f
00000080: 0c54 7f3f 29ab 7c3f 6453 7b3f d3a8 7e3f
00000090: bf92 7f3f d4fa 7f3f d8c8 7d3f 09e8 7c3f
000000a0: 7b4a 803f 7d9b 7e3f 1571 7e3f e135 7e3f
000000b0: b75a 7d3f f90f 7f3f 4c3b 803f e766 7c3f
000000c0: 995e 7f3f 83e5 803f c016 7f3f a319 7e3f
000000d0: 5474 7f3f d2fe 7f3f bc9a 7d3f 8e1a 7d3f
000000e0: 75ec 7e3f 5e30 7a3f e10b 7e3f 49c8 7d3f
000000f0: b2cc 7e3f 9547 803f 0604 7f3f 9e29 7e3f
00000100: 7be8 803f d891 803f e702 7f3f bab3 7e3f
00000110: 42d3 803f 6800 7d3f 40a6 803f bb61 803f
00000120: 9a92 803f 2144 7e3f bf93 7f3f 5d82 7f3f
00000130: fb37 803f 5c08 7e3f 9a47 7c3f 928e 7c3f
00000140: 6001 7c3f 4010 7d3f 9aa3 7e3f 4428 803f
00000150: fdee 7d3f 69f1 7f3f 8e4a 7e3f 61f5 7c3f
00000160: 776f 7c3f 7fb2 7d3f ed0c 7f3f 2907 803f
00000170: ed4c 7f3f 6929 7e3f 9cd8 7d3f 5094 7d3f
00000180: 0b0f 803f 12ac 7d3f f31a 7e3f 5391 813f
00000190: 4217 7d3f 8f99 7c3f cd8a 7c3f dcd8 7f3f
000001a0: a71d 803f 5503 803f 82e3 7f3f 0f9b 803f
000001b0: cb12 7f3f 37ca 7e3f bb17 803f 85a6 7c3f
000001c0: ec90 7f3f 3dc8 813f 4c2a 803f 5278 7e3f
000001d0: 60a3 803f 676b 7f3f b620 7e3f 1547 813f
000001e0: 5b45 7f3f 98e4 7f3f 2daa 7f3f 2720 7a3f
000001f0: cffc 803f 1046 813f 0551 803f 5845 7c3f
1.0030347 0.9991265 0.9994108 0.98833305 0.9953599 1.0001245 0.9975569 0.9865448
1.0012887 0.9950617 1.000893 0.99806637 1.000108 1.0012192 0.99783957 0.99325603
0.99302304 0.99491245 0.99992055 1.0008439 0.9981651 0.99108493 0.9920219 1.0020015
0.98703367 1.0105442 0.99807805 1.0037549 0.9953214 1.0020841 0.99782753 0.9911236
0.9973762 0.9869867 0.9817412 0.99476355 0.9983329 0.9999211 0.9913459 0.9879156
1.002273 0.99456006 0.993913 0.9930096 0.98966545 0.9963375 1.0018096 0.98594517
0.9975372 1.0070041 0.9964409 0.9925787 0.9978688 0.999982 0.9906423 0.98868644
0.99579555 0.9773005 0.99236876 0.99133736 0.9953109 1.0021845 0.99615514 0.9928225
1.0070947 1.0044508 0.99613804 0.9949299 1.0064471 0.98828745 1.0050735 1.0029825
1.0044739 0.99322706 0.9983482 0.99808294 1.0017084 0.99231505 0.98546755 0.98655045
0.984396 0.9885292 0.99468386 1.0012288 0.9919279 0.9997774 0.9933251 0.9881192
0.9860758 0.9910049 0.996291 1.0002185 0.99726754 0.99281937 0.99158645 0.9905443
1.0004591 0.99090683 0.9925987 1.0122474 0.98863614 0.9867181 0.98649293 0.99940276
1.0009049 1.0001017 0.99956524 1.004732 0.9963805 0.99527305 1.0007242 0.9869159
0.9983051 1.0139233 1.0012908 0.99402344 1.0049858 0.9977326 0.9926866 1.0099818
0.99715203 0.9995818 0.9986904 0.9770531 1.0077151 1.0099506 1.0024725 0.9854331

bn2.bias f4 [128]
00000000: 0329 143c 9f3d 63bd e729 f9bc 4575 973d
00000010: 1a53 bc3c 545c 3e3d 3f28 c6bc 6d20 3bbd
00000020: b676 e4bc a907 433d bb04 843c 9590 3f3d
00000030: 145b 133d 34bd 7c3d 3c57 033d 673f d8bc
00000040: 0e53 5ebd 8224 393d 9c9f 04bd ec6f 6abd
00000050: 0311 cc3c c658 a3bc dc89 02bd d901 08bd
00000060: add7 223d ce3d 1dbd 6495 91bd 5253 15bd
00000070: 3d2e 07bd 62a5 acbc 3cbc dc3c d1bb 69bd
00000080: f6f2 123d ac76 253d 3b4b 533d 912c 02bd
00000090: 2276 693d a0f9 afbc 5262 963d 8680 3c3d
000000a0: b8f8 f13c b54e 2fbd 064d ea3c 9b31 cdbc
000000b0: fec1 233d 7d83 fb3c 2134 54bc 14a0 113d
000000c0: b08f 32bd e6c6 22bd b6cc ae3c 5f58 16bd
000000d0: 7694 693b 22af efbc b5bf 27bd ca51 66bd
000000e0: 64c6 2c3d 9eba 4c3d de30 a23d 1e50 303d
000000f0: 4ecf d7bc d314 5abd 9b1a 35bd 8aff 5f3d
00000100: 627f 90bd 82ca 3fbd 895b e7bc 111e 16bd
00000110: d8a8 95bd c504 1ebd 8c71 1dbd 72d0 eebc
00000120: 2d06 edbc 8cde ec3c 3128 0fbc f590 473d
00000130: a23b b6bc 3804 a5bd 29ed 843d 2db4 61bd
00000140: e575 88bd 9029 4b3d 2000 06bd 86da 0bbd
00000150: 7484 4ebd 3e56 e83a 8b41 10bd 5fc2 753d
00000160: ed21 57bd a105 56bd 8913 ed3c d070 64bd
00000170: d7ba e53c 0e5e 803d 2805 0f3d f51a 563d
00000180: 025b bfbc df69 e33c e0aa 2a3d 220a e13c
00000190: 096d 203d 0146 86bd c73f 67bd a113 c2bc
000001a0: 239e 353c ab63 843c 1bff bebc 1d1e 2a3d
000001b0: a45c 1dbd 571b 083d 44af 0a3c 7fa3 31bd
000001c0: f264 9739 e27a 5ebd 3d1f e9bc 0977 3c3d
000001d0: d16d 273d 9dc8 423d fd16 033d bb8e 38bd
000001e0: 7557 82bd 0912 32bd 8bbf 273d c16d 93bd
000001f0: 0644 0f3d 67a4 2f3d a480 82bc c84e a8bd
0.009042981 -0.05547869 -0.030415488 0.07395414 0.022988845 0.04647477 -0.024189113 -0.04568522
-0.027888637 0.047614727 0.016115537 0.046768744 0.03597553 0.061703876 0.032065615 -0.02639742
-0.054278426 0.045200832 -0.032378778 -0.057235643 0.024910456 -0.019939791 -0.031869754 -0.033204887
0.039756466 -0.03838902 -0.07108572 -0.036456414 -0.03300308 -0.021074954 0.026945226 -0.05706388
0.035876237 0.040396377 0.051585417 -0.031780783 0.056997426 -0.021481335 0.07342972 0.046021007
0.029537544 -0.04279967 0.02860118 -0.025048068 0.039979927 0.030702347 -0.012951882 0.035553053
-0.043594062 -0.039740466 0.021337848 -0.03670537 0.0035641468 -0.029258315 -0.04095431 -0.056230344
0.042181388 0.04998266 0.07919477 0.043045156 -0.026343968 -0.053242516 -0.044214826 0.05468706
-0.07055546 -0.046823986 -0.02824189 -0.036649767 -0.07307595 -0.038578767 -0.038438365 -0.029152129
-0.028933609 0.028914712 -0.00873761 0.048722226 -0.022245232 -0.08057445 0.06490547 -0.05510347
-0.066631116 0.049600184 -0.032714963 -0.034143947 -0.050419286 0.0017725897 -0.035218757 0.05999982
-0.05252259 -0.052251462 0.02893998 -0.05577165 0.028043194 0.062679395 0.034917027 0.052271802
-0.023358826 0.027760444 0.041666865 0.027470652 0.039166484 -0.06556321 -0.056457307 -0.023691
0.011085066 0.016160807 -0.023315003 0.041532625 -0.038418427 0.0332292 0.008464638 -0.043368813
0.00028876174 -0.05431641 -0.028457278 0.04601196 0.040876213 0.0475546 0.032004345 -0.045057993
-0.06364337 -0.04347423 0.040954154 -0.07198668 0.03497698 0.042881396 -0.015930481 -0.08218151

bn2.running_mean f4 [128]
00000000: 7756 b93d 2150 66bd 7dea c3bd 3ba0 003e
00000010: 9795 473d 8166 bf3d 010a e4bd c8c7 a9bd
00000020: 0294 68bd 0809 6c3d 992e 053d b0e6 013e
00000030: 1b4e c03c cc34 eb3d 8575 db3d b4d1 a9bd
00000040: 6820 77bd e67c 983d 3f80 8abd 8b04 aebd
00000050: c4c5 853d c943 fcbc 2a9a aabd 0cb9 9fbd
00000060: 34f6 903d 08d3 62bd 4a1f babd 624e 62bd
00000070: a025 dfbd e0eb 8abd f607 8c3d fcda fbbd
00000080: aafb a63d 96a9 8d3d 83b3 443d d7b5 13bd
00000090: c435 f43d fa06 653a 8018 1f3e 6225 5f3d
000000a0: a6c5 ba3d d8ca 96bd 93c2 af3d 1b40 dfbd
000000b0: d7dd b63d 833b 093e 3e23 cdbd a124 ab3d
000000c0: 3d3a 903b d27f d5bd 995c d83d 162a 3ebd
000000d0: 7cb8 83b9 8b18 09be 0a20 79bd 8ae7 30bd
000000e0: 463c 423c 1b3a 993d 54aa c23c 439f ff3d
000000f0: 7684 31bd 50c0 22bd c280 a9bd 0581 a63d
00000100: 6732 0fbe f69c a8bd 21d6 ebbd 3798 57bc
00000110: 2fa6 61bd 6668 9abd 45d3 a5bd 204c e5bd
00000120: c4b4 16bd 9999 233d 6a0e b6bd ab19 1d3e
00000130: 7ce8 1abc 9f39 e9bd 043b 4e3d a75f 98bd
00000140: f046 fabd 8602 703d 8934 a7bd 123d c2bd
00000150: db84 b0bd 0dc6 58bd c6f4 80bd 9933 483c
00000160: e913 afbd a82a 7bbd dd3f 7f3d 5ca1 a0bd
00000170: 2e72 c53d 7c77 033e 9f11 313d f648 0c3e
00000180: 0821 e8bd 210b a73d c1e5 423d 4861 1d3d
00000190: 530b d33d d0a5 e6bd 5d74 01bd 4d28 8bbd
000001a0: 9fa0 033e 4252 563d 6a3c aebd 75a4 933d
000001b0: 317a 36bd 3598 ec3d 2203 ca3c 753d 42bd
000001c0: f45b d83c 2225 d2bd 88c4 e13a b2f3 f13d
000001d0: de80 aa3d 5198 a83d 00e0 963d 74d5 54bd
000001e0: 47fe 73bd 516c 52bd 4a43 de3c 70fe 84bd
000001f0: ee30 dc3d 8861 9c3d 1bb4 bebd 64ef d8bd
0.09049695 -0.05622876 -0.095662095 0.12561123 0.048726644 0.09345723 -0.111347206 -0.082900584
-0.056781776 0.0576258 0.032515142 0.12685657 0.023474744 0.114846796 0.107157744 -0.08291951
-0.06033364 0.074456975 -0.06762742 -0.0849696 0.065318614 -0.030794041 -0.08330186 -0.07798967
0.070782095 -0.055377036 -0.09087999 -0.055250533 -0.10895848 -0.06783271 0.06837456 -0.12297627
0.0815347 0.069171116 0.04802276 -0.036062088 0.119243175 0.00087366963 0.1553669 0.05447901
0.0911973 -0.07362908 0.08582034 -0.10900899 0.08929031 0.13401608 -0.100164875 0.08356596
0.004401474 -0.104247704 0.105645366 -0.046426855 -0.0002512372 -0.13388269 -0.06082157 -0.043189563
0.011855191 0.07481786 0.02376286 0.12481549 -0.043339215 -0.039734185 -0.08276512 0.08130077
-0.1398407 -0.08233063 -0.11515451 -0.013158849 -0.055090126 -0.07539444 -0.08096937 -0.1119616
-0.036793485 0.039941404 -0.08889468 0.15341823 -0.009454843 -0.113879435 0.05034925 -0.07440119
-0.122205615 0.058596157 -0.08164317 -0.094843045 -0.0861909 -0.05292325 -0.06296687 0.012219333
-0.085487194 -0.061319977 0.062316764 -0.07843277 0.09640919 0.12838548 0.043229695 0.13699707
-0.11334425 0.081564195 0.04758239 0.038422853 0.10304894 -0.11262095 -0.031605113 -0.06794796
0.12854241 0.05232454 -0.08507617 0.07209102 -0.044550125 0.11552469 0.024659697 -0.04742189
0.026411034 -0.10260989 0.0017224709 0.11814059 0.08325361 0.08232177 0.07366943 -0.051961377
-0.05956867 -0.05137283 0.027131695 -0.064938426 0.1075152 0.0763579 -0.09311696 -0.10592535

bn2.running_var f4 [128]
00000000: 5470 bd3e b5ad ea3e 9f2b c53e 04ff cd3e
00000010: b677 923e 0038 fa3e 416a 773e 7583 ac3e
00000020: c201 b03e 896c ad3e 2a27 623e 8fcb b63e
00000030: f867 573e f6f0 f43e 19d1 a63e e368 a33e
00000040: df23 883e 4ee9 d43e 7cbe b93e 4773 073f
00000050: 9726 853e bc47 6e3e 1112 6f3e cf96 c93e
00000060: 5820 a33e 37dc bc3e b548 ee3e bf9c c03e
00000070: b1c2 db3e f451 a03e 8ce6 8b3e 0028 e53e
00000080: 7c0d 043f 8644 af3e 3ea2 b13e c58a b43e
00000090: 3221 093f dbff 743e 106c cc3e f54a e03e
000000a0: 99d6 943e 3bb4 a83e 0300 ad3e 4d3b a33e
000000b0: e513 ad3e fff9 df3e 1e07 c83e c35b 9e3e
000000c0: 4f83 c83e 3b85 e43e a67d d33e 3a9b 8d3e
000000d0: a772 6d3e a948 c83e 23eb bb3e 9567 b23e
000000e0: 3aa2 d83e be64 953e d6b3 aa3e bbf5 aa3e
000000f0: a47a 9a3e 6a2f d23e 7746 bf3e a2b4 ad3e
00000100: 463c 0b3f 7c2f ea3e b174 a03e 590c cc3e
00000110: e384 043f c494 933e 8d21 d23e 8023 c63e
00000120: 5026 9e3e 1253 ac3e 3e3a 963e bf9c 063f
00000130: 3532 af3e 4ef9 173f c2f0 9d3e f73a c23e
00000140: 6029 073f 5940 913e ba14 a53e 7a86 a73e
00000150: 826c b83e 500b 8c3e 986f da3e 5eef b83e
00000160: d11b be3e 938e e23e 3ca7 9b3e 9a6f b83e
00000170: 54d4 ba3e 38f2 fb3e 8627 ad3e feed fe3e
00000180: 3b61 c73e 2fb0 c03e db18 d93e 6e49 bc3e
00000190: 89d5 8b3e 41fe 003f 7fdd c53e 5694 be3e
000001a0: 8a29 de3e 3361 603e 255c 813e 6b1c d53e
000001b0: 3381 ee3e c93b d13e 2f88 583e e538 923e
000001c0: 7d3d 7c3e 268b ca3e ff09 903e 231a 9c3e
000001d0: 47fc d43e 4fc1 983e 5119 bb3e c721 a83e
000001e0: 9d06 ee3e 4fcd ba3e 9ddd c43e 8e37 f53e
000001f0: f1b4 d03e 2496 d03e 61d9 bf3e 0471 f53e
0.36999762 0.45835653 0.38509843 0.40233624 0.28606957 0.4887085 0.24161626 0.33694044
0.3437634 0.33871868 0.22085252 0.35702178 0.21035755 0.4784009 0.32581404 0.3191596
0.26589867 0.41584247 0.3627814 0.52910274 0.26006004 0.23269552 0.23346736 0.3937287
0.31860614 0.3688676 0.46539846 0.37619588 0.42921975 0.31312525 0.2732433 0.4475708
0.51583076 0.34231967 0.34694093 0.35262123 0.5356628 0.23925726 0.39926195 0.43807188
0.29069975 0.32950005 0.3378907 0.3188118 0.3380424 0.4374542 0.3906793 0.30929384
0.3916268 0.44632897 0.413068 0.2765749 0.23188268 0.39117935 0.36702833 0.34844652
0.4231127 0.29178423 0.3334033 0.33390602 0.30171692 0.410518 0.37358448 0.33926874
0.54388845 0.45739353 0.31339028 0.3985317 0.5176527 0.28824437 0.41041222 0.3869896
0.30888605 0.33657128 0.2934131 0.52582926 0.34217992 0.59364784 0.30847746 0.37935612
0.5279751 0.28369406 0.32242376 0.32719785 0.36020285 0.2735238 0.42663264 0.36120123
0.37130597 0.442494 0.30401027 0.36022645 0.36490119 0.49208236 0.33819216 0.4979095
0.38941368 0.37634417 0.42401776 0.36774772 0.27311352 0.5038796 0.3864555 0.37222546
0.43391067 0.21912079 0.25265613 0.41623244 0.46582946 0.40865925 0.211457 0.28559032
0.24632831 0.39559287 0.28132626 0.3048869 0.41598722 0.29834983 0.36542752 0.3283827
0.4648942 0.36484763 0.38450328 0.47893947 0.40763047 0.40739548 0.37470534 0.47937787

hidden3.weight f4 [16, 128]
00000000: fdbe dcbd de09 c0bd 2d6e 0bbd ba9e 21bd
00000010: fc5b 8a3d f457 4ebd 02cf 05bd 4d9d 323d
00000020: 2f46 a1bd ab36 573d a541 b1bd 6698 80bd
00000030: 85f3 69bd 50a6 e1bc 8c0a 8d3d ba8e 983c
00000040: 81dc a43c 8a4c a93d fdbe 98bd 3d6a e0bc
00000050: 7cef 2b3d a9d5 c93c fd25 46bd 9387 863d
00000060: a306 8dbd ef54 2a3d 692b 463d 9f29 893d
00000070: d11f 7d3d 90dc 19bd 5e8b 03bd 35bc 3abd
00000080: 59e1 353c f3d9 d83c 53e0 ef3c fb06 40bd
00000090: d096 2abd b8cb 00bb acdf 2e3c 2ee6 e33d
000000a0: 92c8 453c 83c9 ecbb 02d0 b5bd d9e9 083d
000000b0: 984f c5bb fb31 d6bc d03d 933d 4389 08bd
000000c0: cc7a 16bd 0485 bf3a 6e8a 623d 7873 443b
000000d0: b018 263d 1597 983d 9aa0 f63b 8c7c 953c
000000e0: 0fee 2ebd cd96 adbc f1f0 93bd 24c6 2a3b
000000f0: 3dce 2abd b78a 11bd b541 96bd 5224 353c
00000100: b392 7f3d c1b4 81bd e9f7 773d e2b1 87bd
00000110: eb8c 69bd 4c2c 7a3d ceb8 82bc 2456 86bd
00000120: 0777 8f3d d2ba e8bb 392f 5bbd 66bd 183d
00000130: bbb0 e2bd d295 0a39 5673 9cbc 3e74 17bc
00000140: af9d 5c3d c9a2 1fbd 8eb6 223d 79e8 163c
00000150: 24b0 68bd 3598 7a3d f293 9cbd 54c4 e23b
00000160: b4a6 5f3d e9fb 60bd 2d0e 9fbd dfdb ef3c
00000170: a5bf 8abb 4b85 cd3c 3afb da3c 6329 adbd
00000180: 66c5 b03d 3edb 2cbc dada 3ebd cd5e 6ebd
00000190: 7393 68bd 0864 87bd dc30 8cbd c3a6 613d
000001a0: b26f dc3c c003 103d 6591 bbba cd36 273d
000001b0: e79c 28bd b8d6 9fbd 47cd a4bc e47d 82bc
000001c0: b562 2bbd 2f43 03bd a178 89ba 37bf 52bd
000001d0: eec9 20bc c78b 193c 50f6 95bd db72 d73d
000001e0: b514 c33c 7da7 2b3b 3d9d 8fbd e808 14bc
000001f0: a345 33bd 904a dbbc d94d 033c 8fd6 ec3c
00000200: 9900 223d 8f91 b2bb 27f2 9f3d 7662 91bd
00000210: 81bc eb3a 8921 e9bd a30a 083d b9e7 21bb
00000220: d6f9 62bc 0d85 b8bc e40d bdbc b854 2a3d
00000230: 56ef a7bd d0a6 f0bc 6909 7dbd 276f ed3c
00000240: 9d22 c53c b22f 2dbd 8970 e23c e478 2e3c
00000250: ebd8 c2bd e54b 803c 4cde 423d bbdd 68bd
00000260: 4b4c 53bc 0f7e f43d 0e48 4a3d 0608 693d
00000270: 6f02 8ebc f11d 3b3d 60be 3a3c 7137 90bd
00000280: 279c abbd d401 cebd c059 f6bd 1207 853d
00000290: 88a7 82bd 1f19 743c f2dd 373d b56e 88bd
000002a0: 7507 b43c b4e7 85bd 2bd1 863d 5f84 883b
000002b0: 260b 883d 1e36 c13c 7f89 8b3c 2eeb 6ebd
000002c0: 18aa a63d 28a1 41bd 7080 91bd 35b1 893d
000002d0: df8a fbbc 2be4 0bbc 7e2f 1c3c e134 4bbd
000002e0: 0806 e5bc dd32 933c b92c e83d 37d8 603c
000002f0: 7e59 65bc 4502 f7bc c9ea d03d db40 a6bd
00000300: 72b5 53bd 26d2 9c3d aba0 72bd 51ca 853d
00000310: 0b94 273e df9c 2dbc a870 cebc 1e15 063c
00000320: 5067 adbd 05a0 59bd 7d48 223d da9c ad3b
00000330: 6bb7 863d 97a4 91bc b0b8 77bd 016c 65bd
00000340: 0389 05bd 4e30 463c d907 49bd ab67 c7bc
00000350: ad27 ec39 fd93 a23c 27a9 a23d c2e2 2fbd
00000360: 3e7d a53c a1fd b5bc 704c e7bc c0cb c93d
00000370: cfca acbd 8c38 83bd 5a78 c13d d601 e9bc
00000380: ad70 f9bc bf23 9abd e7fe 973d 08f1 36bd
00000390: ba9a 4ebb bac1 aa3d 370f 073e fd74 763c
000003a0: 53ae aebc b318 203d b90c b3bc 29bb 373d
000003b0: 59d4 8abc 4dd2 b03b c4b9 72bd 85a7 c7bd
000003c0: 9d8f 083e ff97 e8bc 0b9d 8abd aff8 c43c
000003d0: 1149 eb3c dc34 f6bc ad76 dfbd b5d7 333d
000003e0: 41af 68bb 6dbf 5f3b d321 e23c 5ebe 923d
000003f0: da06 d1bb e9eb 2cbd 04d2 b43d 1b52 c53b
-0.107786156 -0.09376882 -0.03404062 -0.039458014 0.06755826 -0.050376847 -0.03266812 0.043607045
-0.078747146 0.05254237 -0.08655099 -0.06279068 -0.057117004 -0.027545124 0.06886777 0.018622745
0.020124676 0.08266552 -0.07458303 -0.027394408 0.041976437 0.024638014 -0.048376072 0.065688275
-0.068860315 0.041584905 0.048381243 0.06697392 0.06179792 -0.03756386 -0.032115333 -0.045589644
0.01110109 0.026471114 0.02928177 -0.046881657 -0.041647732 -0.0019652676 0.010673445 0.11127888
0.0120717455 -0.0072261705 -0.08877565 0.03342614 -0.006021451 -0.02614688 0.07189524 -0.033334028
-0.036738202 0.0014611785 0.055307798 0.0029976051 0.040550888 0.074506916 0.0075264694 0.018247865
-0.0427075 -0.021190071 -0.0722369 0.0026058042 -0.04170059 -0.03553268 -0.07336751 0.011056023
0.062395763 -0.06333304 0.06053916 -0.06625725 -0.057019155 0.0610774 -0.015957262 -0.06559399
0.070051245 -0.007102349 -0.053511832 0.03729 -0.11068865 0.00013216518 -0.019097965 -0.009244023
0.053861316 -0.038973603 0.03972488 0.009210699 -0.056808606 0.061180312 -0.07645406 0.006920377
0.05460234 -0.05492774 -0.07766376 0.029279647 -0.0042342716 0.025087973 0.026731122 -0.084551595
0.08631401 -0.010550318 -0.046595432 -0.058195878 -0.056781244 -0.06610876 -0.06845257 0.055090677
0.02690873 0.035159826 -0.0014310299 0.040823746 -0.04116526 -0.07804626 -0.020117415 -0.01592917
-0.04184218 -0.032046493 -0.0010488221 -0.051451888 -0.009813769 0.009371704 -0.07322371 0.10519954
0.023813585 0.002619236 -0.07012413 -0.009035327 -0.043767583 -0.026768953 0.008014166 0.028910903
0.03955135 -0.005449481 0.07809859 -0.07098858 0.0017985256 -0.113833494 0.03321327 -0.0024704768
-0.013853511 -0.022524381 -0.023077913 0.0415847 -0.081999466 -0.029376417 -0.061776552 0.028983666
0.024064356 -0.042281814 0.027641552 0.01064894 -0.0951403 0.01566119 0.04757528 -0.056852084
-0.012896608 0.11938106 0.049385123 0.056892417 -0.017335145 0.04568285 0.011397928 -0.070418246
-0.08379393 -0.100589424 -0.12028837 0.06495489 -0.0637961 0.014898567 0.044889398 -0.06661741
0.021976212 -0.065383345 0.065828644 0.0041661705 0.066427514 0.023585375 0.017033337 -0.058329754
0.081379116 -0.04727283 -0.07104576 0.06723253 -0.030705867 -0.008538286 0.009532807 -0.049610976
-0.027956977 0.01796859 0.11336655 0.013723425 -0.013998387 -0.03015245 0.10201032 -0.08117839
-0.05168671 0.0765727 -0.059235256 0.065327294 0.16365068 -0.010596483 -0.025200203 0.008183746
-0.08466971 -0.053131122 0.03961991 0.005298239 0.06577953 -0.017778678 -0.060478866 -0.056011204
-0.032601368 0.012096478 -0.04907975 -0.024341425 0.00045042988 0.019845957 0.079424195 -0.042940862
0.020201322 -0.022215666 -0.02823469 0.09853315 -0.0843712 -0.0640727 0.09446783 -0.028443258
-0.030449236 -0.07526349 0.07421666 -0.04466346 -0.003152533 0.08337732 0.13189398 0.015042541
-0.021323359 0.039086055 -0.021856653 0.044856224 -0.016946958 0.0053961636 -0.05925919 -0.09748749
0.13336034 -0.02839279 -0.06768235 0.024044363 0.028721364 -0.030054502 -0.109113075 0.043906886
-0.003550485 0.0034141198 0.02760402 0.07165216 -0.0063789906 -0.04221717 0.0882912 0.0060217506

bn3.weight f4 [16]
00000000: fd28 7e3f 6961 7f3f c624 7c3f ed26 923f
00000010: 7d46 743f 906d 833f 4beb 7d3f 865d 803f
00000020: d3b3 893f 0101 8e3f dcb3 7d3f d047 903f
00000030: 62ae 7d3f 4f61 853f 6c3b 7e3f f5d6 7e3f
0.99281293 0.9975801 0.9849361 1.1418129 0.95420057 1.0267811 0.99187154 1.0028541
1.0758003 1.1094056 0.9910257 1.1271915 0.9909421 1.0420321 0.9930942 0.9954675

bn3.bias f4 [16]
00000000: ad98 e5bd 5f48 cabe b399 e8bd 8010 503e
00000010: e288 923e 2b27 8f3d 4688 eb3e 292d 1a3e
00000020: d6b5 e5be e6a3 c7be 21a1 e43e 1654 163f
00000030: 59b3 7cbe f81a 06be d434 ca3d 4aa3 763c
-0.11210761 -0.3950834 -0.11357441 0.20318794 0.28620058 0.069898926 0.46002406 0.1505629
-0.44865292 -0.38992232 0.44654182 0.58722055 -0.2467779 -0.13096225 0.098733574 0.01505358

bn3.running_mean f4 [16]
00000000: 9966 62bd 5605 3dbd 5071 efbc 32e2 533d
00000010: 7e95 943c b22d 133d 35d4 f33d 05dd 883c
00000020: 0f07 01bc 8099 2abe 3935 523c cdd4 473e
00000030: a3af debb 38f6 92bd 74e3 873c 10f6 933b
-0.055273626 -0.046147667 -0.029228836 0.05172939 0.01813769 0.03593225 0.1190571 0.016706953
-0.007875218 -0.16660118 0.012830072 0.19514771 -0.00679584 -0.07175869 0.01658795 0.004515417

bn3.running_var f4 [16]
00000000: a326 393f 8472 b93f 3956 113f 60e1 e83f
00000010: faea 833f 1e68 463f bafe de3f 8b75 7b3f
00000020: f12e fd3f e706 3440 b077 b33f 1d15 4740
00000030: f541 533f ebfc 893f ad4a a03e 8b78 843e
0.7232458 1.4488072 0.5677219 1.8193779 1.0306084 0.7750262 1.7421486 0.9822623
1.977995 2.8129213 1.4020901 3.1106637 0.8252252 1.078031 0.31306973 0.25873217

output.weight f4 [1, 16]
00000000: dd5f a03d 5e92 fd3e 7df6 b53d 79f5 12bf
00000010: 516c b6be 7d40 5dbe 47a5 03bf c651 40be
00000020: 0c29 1e3f a482 0d3f fa0c 23bf bd51 51bf
00000030: 5786 a23e 74b9 8c3e 8b51 d03b 4aae 9e3c
0.078307845 0.49525732 0.088849045 -0.5740581 -0.35629514 -0.21606632 -0.5142407 -0.18781194
0.6178138 0.55277467 -0.63691676 -0.8176535 0.31743118 0.2748524 0.006357377 0.019370217
