models/focal_loss_checkpoints/checkpoint_epoch_160.pth (torch, 100242 bytes, 16 tensors)

hidden1.weight f4 [128, 30]
0.10537733 -0.15985677 -0.053505864 -0.038044427 0.10832825 -0.09398195 0.0051673977 0.013696411
-0.024657125 -0.10109584 -0.14108147 0.18776374 -0.116626106 0.03481687 -0.036261424 0.06700779
-0.19687723 0.058871664 0.15995719 0.21786028 0.1108998 0.0077471067 -0.11934768 0.07683511
0.098962806 0.05633769 -0.058128852 0.18420392 0.10634086 -0.10733054 -0.17421342 -0.0054078926
0.019942785 0.02551536 -0.029378228 0.021051146 -0.076012604 -0.0006942694 -0.042176645 -0.14198068
-0.08179927 -0.15737168 0.16703098 0.14158599 0.059063975 -0.032117702 -0.12434876 0.06560829
0.09704001 0.126909 -0.18524638 -0.12914178 -0.08902625 0.08041114 0.18929826 -0.16097757
0.11320979 0.01572948 -0.15374501 -0.03945664 0.13065818 0.007026583 0.049370013 -0.12604603
-0.007835993 0.071915865 0.11850692 -0.041702267 0.11189992 0.113831155 0.020680327 -0.12314127
-0.17830952 0.11365182 0.13509703 0.16886264 -0.1736585 -0.17968467 -0.09054238 -0.11657724
0.018980205 -0.040055726 -0.17240605 -0.10475252 -0.097995766 -0.08188016 0.045221135 -0.07125655
-0.0047789933 0.12798254 0.00075303146 0.16796155 -0.082434826 -0.027544588 -0.08666731 0.055148367
0.038290486 0.034356315 -0.053426534 -0.09046849 0.14497097 -0.17965282 0.024327407 0.100879826
-0.034768905 0.113485865 -0.07127099 -0.04186433 -0.12672463 -0.023440035 -0.037342913 -0.16989414
0.06634173 -0.048827022 0.19416378 0.18573691 -0.14329912 0.03299816 0.07208465 -0.10860557
0.09056296 0.020971905 -0.19577277 -0.10800459 -0.16896226 -0.10146025 0.1427262 -0.043140974
0.07561289 0.18340439 0.14509149 0.120256506 0.21782325 -0.03374868 0.07077411 -0.15616918
0.05129185 -0.06608695 -0.100184165 -0.17239252 -0.016773805 0.036621876 -0.06035142 0.050548643
0.16506174 0.11137674 -0.03195601 -0.09248131 -0.0127427885 0.031773206 -0.08907598 -0.0655045
0.16551393 0.01574183 0.19131842 0.033900592 0.21650076 -0.0070254747 -0.042353064 0.037365664
0.044812817 0.09940906 -0.06927563 0.10158699 -0.15717605 0.0985074 0.0841292 -0.100156784
-0.06524064 0.093279846 0.06740779 -0.044965133 -0.08467868 -0.01652464 0.09641317 -0.06006465
-0.06937798 -0.14351241 -0.08521184 0.058929574 -0.1195614 -0.05127269 0.042922303 -0.11751014
-0.03181666 0.14992212 -0.05381434 0.09048533 -0.012441252 -0.15140963 -0.046088222 -0.19686225
0.17688753 0.15468547 0.13308808 0.049127914 0.13638537 0.05121933 0.01657833 0.054091893
0.035292324 -0.032274764 -0.122934535 0.12680939 0.13429382 -0.06953898 0.06092917 0.13334669
0.012479836 -0.1234263 -0.0063087917 -0.06957839 -0.0033929746 0.1356657 -0.18415318 -0.068467595
0.034669902 -0.040467504 -0.11082186 -0.012027837 0.08427169 -0.18376818 -0.042281706 0.06625982
0.081257895 -0.017360935 0.1633146 0.1439361 -0.09696792 0.04161577 0.089182384 -0.050478972
0.15689577 0.011446521 0.1632575 -0.085646465 0.14847678 -0.14843318 0.08224578 -0.10974672
-0.12991555 0.094113715 -0.15856147 0.15218824 0.06782241 -0.050420508 0.032126542 0.14532529
0.03289446 0.025974207 0.18514352 0.1300463 -0.020455725 0.027326602 0.21798545 -0.10313875
00000000: 12d0 d73d 7eb1 23be f728 5bbd 79d4 1bbd
00000010: 34db dd3d 9c79 c0bd 4653 a93b e966 603c
00000020: bdfd c9bc 560b cfbd a977 10be 2345 403e
00000030: abd9 eebd 229c 0e3d dc86 14bd 613b 893d
00000040: 2f9a 49be 6a23 713d d1cb 233e c416 5f3e
00000050: 6f1f e33d 71db fd3b 8e6c f4bd ba5b 9d3d
00000060: 03ad ca3d 5ac2 663d 8518 6ebd f49f 3c3e
00000070: 3dc9 d93d 1dd0 dbbd 0165 32be b134 b1bb
00000080: 0d5f a33c 9705 d13c 9caa f0bc 7473 ac3c
00000090: 7fac 9bbd a1ff 35ba 6bc1 2cbd 6263 11be
000000a0: 6086 a7bd 0b26 21be 2b0a 2b3e ebfb 103e
000000b0: 11ed 713d da8d 03bd 90aa febd a45d 863d
000000c0: eabc c63d 6ff4 013e 3ab1 3dbe be3d 04be
000000d0: 6553 b6bd 99ae a43d 67d7 413e 4ed7 24be
000000e0: 89da e73d 1cdb 803c 556f 1dbe 499d 21bd
000000f0: 42cb 053e 403f e63b 3638 4a3d 3612 01be
00000100: 8962 00bc a048 933d c2b3 f23d ffcf 2abd
00000110: c92b e53d 4f20 e93d ca69 a93c 7d31 fcbd
00000120: c596 36be 49c2 e83d e056 0a3e 54ea 2c3e
00000130: 89d3 31be 42ff 37be 496e b9bd 0cc0 eebd
00000140: 607c 9b3c 7911 24bd 368b 30be 7d88 d6bd
00000150: 01b2 c8bd c9b0 a7bd cc39 393d f4ee 91bd
00000160: 1a99 9cbb db0d 033e 1667 453a 1dfe 2b3e
00000170: 97d3 a8bd 30a5 e1bc a17e b1bd 41e3 613d
00000180: 7cd6 1c3d 35b9 0c3d c8d5 5abd 8b47 b9bd
00000190: 4573 143e e9f6 37be 454a c73c 159a ce3d
000001a0: d769 0ebd 476b e83d 86f6 91bd ef79 2bbd
000001b0: 1ac4 01be 5105 c0bc e2f4 18bd bbf8 2dbe
000001c0: 2cde 873d d8fe 47bd dfd2 463e d131 3e3e
000001d0: 01bd 12be 1429 073d 1ea1 933d 996c debd
000001e0: 1379 b93d 46cd ab3c a878 48be 8331 ddbd
000001f0: 7104 2dbe 64ca cfbd d126 123e 97b4 30bd
00000200: eeda 9a3d 5cce 3b3e dd92 143e 0b49 f63d
00000210: 0f0d 5f3e 0e3c 0abd 04f2 903d d0ea 1fbe
00000220: 6717 523d 9858 87bd 5b2d cdbd aa87 30be
00000230: 3869 89bc d200 163d 0d33 77bd 180c 4f3d
00000240: f205 293e 7d19 e43d 4ee4 02bd d766 bdbd
00000250: 21c7 50bc 9f24 023d 786d b6bd 3927 86bd
00000260: 7c7c 293e 03f5 803c fae8 433e 59db 0a3d
00000270: 60b2 5d3e f435 e6bb 687a 2dbd bd0c 193d
00000280: a58d 373d fa96 cb3d 62e0 8dbd d70c d03d
00000290: c2f2 20be 3fbe c93d ee4b ac3d 001f cdbd
000002a0: e29c 85bd 8109 bf3d 180d 8a3d 5c2d 38bd
000002b0: 046c adbd af5e 87bc 4574 c53d 5a06 76bd
000002c0: 0b16 8ebd ebf4 12be 8c83 aebd 2360 713d
000002d0: 9bdc f4bd 5003 52bd 4ccf 2f3d 28a9 f0bd
000002e0: 3052 02bd 2f85 193e 6d6c 5cbd 5f50 b93d
000002f0: 65d6 4bbc 200b 1bbe 01c7 3cbd 4296 49be
00000300: 0122 353e de65 1e3e 3e48 083e 5a3a 493d
00000310: 9ba8 0b3e 5ccb 513d 47cf 873c 768f 5d3d
00000320: af8e 103d 8b32 04bd 1ac5 fbbd 52da 013e
00000330: 5284 093e 746a 8ebd de90 793d 098c 083e
00000340: 3a78 4c3c eec6 fcbd fbb9 cebb 1d7f 8ebd
00000350: ab5c 5ebb f3eb 0a3e a792 3cbe bd38 8cbd
00000360: 0702 0e3d 41c1 25bd 92f6 e2bd 6810 45bc
00000370: a396 ac3d ba2d 3cbe 952f 2dbd 3ab3 873d
00000380: 8a6a a63d 8538 8ebc f13b 273e fc63 133e
00000390: 1e97 c6bd 4c75 2a3d 41a5 b63d 0ac3 4ebd
000003a0: 49a9 203e 308a 3b3c f92c 273e 6a67 afbd
000003b0: 4c0a 183e defe 17be 7a70 a83d e3c2 e0bd
000003c0: 9508 05be b1be c03d f05d 22be 3cd7 1b3e
000003d0: 7ae6 8a3d bc85 4ebd 1f97 033d 27d0 143e
000003e0: 57bc 063d dcc7 d43c 4396 3d3e db2a 053e
000003f0: c492 a7bc 0adc df3c 9437 5f3e 693a d3bd

bn1.weight f4 [128]
1.0032827 0.9964513 1.0045487 0.99856323 0.9879507 1.0236802 1.005735 0.9996564
1.0129893 1.0025761 1.0043967 0.99835205 1.0033726 1.0001123 0.985902 0.99754983
1.0007259 1.0015001 1.0051043 1.0046933 1.0100961 0.9995988 1.0036774 1.0075667
1.0089325 1.0114129 0.99944067 1.0102684 1.0006557 1.0003442 0.9977881 1.0059634
1.0046545 1.0068749 1.0020833 1.013149 1.0133532 1.0114949 0.9983708 1.0062851
0.9955629 0.9891647 1.0012383 1.0250928 1.0029341 1.000684 0.9885921 1.0055679
1.0002415 0.98737496 0.99812436 1.0073531 1.0041924 1.0006845 1.0139737 1.013871
1.0028374 1.0011888 0.9981186 1.00615 0.9979547 1.0023619 1.0043617 1.0152739
1.0152837 1.0063876 1.0086162 1.0210731 1.0101873 1.0106864 1.010227 1.007758
0.9921253 0.9995362 0.9945902 1.0208431 1.0190995 1.0081387 1.0054126 0.9976502
0.9915305 1.0064126 1.0089569 1.0007666 0.9888428 1.0103242 0.9899043 0.9949219
0.9953351 0.9981414 1.010952 0.98130894 0.99303764 1.0027108 0.9923771 0.99742514
1.0010991 1.0086528 1.0048159 1.0160084 1.0394168 0.99456936 0.97917277 0.9977147
1.0171784 1.0293006 1.0004501 0.99605995 1.0029557 0.9934655 0.99362385 1.0053409
1.0126559 1.01042 1.0063683 1.002537 1.0091804 1.0001621 1.0187993 0.9994034
1.0076163 1.0217621 0.9813174 1.00244 1.0194691 1.006573 0.99631363 1.0092154
00000000: 916b 803f 6f17 7f3f 0d95 803f d7a1 7f3f
00000010: 56ea 7c3f f407 833f edbb 803f 7be9 7f3f
00000020: a2a9 813f 6a54 803f 1290 803f 0094 7f3f
00000030: 836e 803f ae03 803f 1364 7c3f 6d5f 7f3f
00000040: c917 803f 2831 803f 42a7 803f ca99 803f
00000050: d44a 813f b5e5 7f3f 8078 803f f2f7 803f
00000060: b324 813f fa75 813f 58db 7f3f 7a50 813f
00000070: 7c15 803f 470b 803f 0a6f 7f3f 69c3 803f
00000080: 8598 803f 47e1 803f 4444 803f deae 813f
00000090: 8fb5 813f aa78 813f 3b95 7f3f f3cd 803f
000000a0: 36dd 7e3f e639 7d3f 9428 803f 3e36 833f
000000b0: 2560 803f 6a16 803f 5f14 7d3f 73b6 803f
000000c0: ea07 803f 9bc4 7c3f 1485 7f3f f2f0 803f
000000d0: 6089 803f 6e16 803f e4c9 813f 86c6 813f
000000e0: fa5c 803f f426 803f b384 7f3f 86c9 803f
000000f0: f679 7f3f 654d 803f ed8e 803f 7ff4 813f
00000100: d1f4 813f 4fd1 803f 561a 813f 86b2 823f
00000110: d14d 813f 2c5e 813f 1e4f 813f 37fe 803f
00000120: ecfb 7d3f 9be1 7f3f 779d 7e3f fdaa 823f
00000130: da71 823f b00a 813f 5cb1 803f 0166 7f3f
00000140: f1d4 7d3f 21d2 803f 8025 813f 1f19 803f
00000150: cd24 7d3f 4e52 813f 5e6a 7d3f 34b3 7e3f
00000160: 48ce 7e3f 3286 7f3f e066 813f 1037 7b3f
00000170: b737 7e3f d458 803f 6d0c 7e3f 4157 7f3f
00000180: 0424 803f 891b 813f cf9d 803f 900c 823f
00000190: 9c0b 853f 199c 7e3f 11ab 7a3f 3b6a 7f3f
000001a0: e732 823f 1fc0 833f c00e 803f c9fd 7e3f
000001b0: da60 803f c153 7e3f 225e 7e3f 03af 803f
000001c0: b59e 813f 7155 813f add0 803f 2253 803f
000001d0: d32c 813f 5005 803f 0468 823f e7d8 7f3f
000001e0: 92f9 803f 1ac9 823f 9e37 7b3f f44f 803f
000001f0: f77d 823f 62d7 803f 690e 7f3f f82d 813f

bn1.bias f4 [128]
-0.05341771 0.041581072 -0.004177836 0.024689604 0.056296196 -0.04348299 0.031062443 0.03017016
0.024024585 0.06366898 -0.027013237 -0.0044134054 0.03202578 0.0151726315 -0.08689864 -0.02809214
-0.0011188263 -0.01648213 0.052953005 0.012473442 -0.04733414 0.03018392 -0.008157204 0.022531563
-0.03258056 0.02940007 0.01052251 -0.05422283 0.022412065 0.0032948584 0.050206073 -0.011270847
0.0587667 -0.11732169 0.011805225 -0.0010548794 -0.014784556 -0.014959637 -0.022618135 0.102653146
-0.079200506 -0.04857532 0.05836926 0.03460106 0.040727086 0.0149852615 -0.04438056 0.008775495
0.02369561 -0.016774513 0.025173048 -0.011545329 0.02619646 0.047092333 -0.079318374 -0.009511071
-0.026442206 -0.017680403 0.011300101 0.0746652 -0.026727246 0.03437892 0.017592896 0.026466414
0.004085018 0.0038486384 0.02201883 -0.037556857 0.010879805 -0.020255595 0.03311631 0.039288983
0.09500881 -0.045218587 -0.04606324 0.0363748 0.08423525 0.04132915 -0.040014554 -0.014952727
0.08109504 0.026101828 0.025386214 0.02954632 -0.07490136 -0.02408679 0.07247577 -0.08963869
0.051061984 -0.001125281 -0.008080825 -0.04141735 0.04872763 -0.024946125 0.027336784 0.045533217
0.0106326295 0.0040344503 -0.016865628 0.057999816 0.015402002 0.010311575 -0.03123732 -0.013027827
-0.03161944 0.05262067 -0.004370357 -0.02807369 0.016594958 -0.03834054 0.06791085 0.043220814
0.026573524 -0.01610108 -0.007084143 0.037671413 0.025825135 0.011256225 0.030173615 0.0017684366
-0.004742345 0.046116944 -0.08811409 -0.009588405 0.033656716 -0.0056784186 -0.058038186 0.02513438
00000000: 87cc 5abd ea50 2a3d 3ae6 88bb da41 ca3c
00000010: d796 663d 381b 32bd aa76 fe3c 6927 f73c
00000020: 35cf c43c e264 823d dd4a ddbc 549e 90bb
00000030: 772d 033d a196 783c eaf7 b1bd 7d21 e6bc
00000040: 95a5 92ba 8805 87bc 40e5 583d 685d 4c3c
00000050: 71e1 41bd 4544 f73c cba5 05bc 1d94 b83c
00000060: 3173 05bd 6ad8 f03c 9b66 2c3c c218 5ebd
00000070: 8299 b73c 8dee 573b e2a4 4d3d 5ca9 38bc
00000080: 5ab5 703d 5b46 f0bd b46a 413c e143 8aba
00000090: ec3a 72bc 4419 75bc ab49 b9bc d03b d23d
000000a0: e033 a2bd eaf6 46bd 9b14 6f3d d7b9 0d3d
000000b0: 72d1 263d be84 753c 64c8 35bd 18c7 0f3c
000000c0: 4c1d c23c b46a 89bc b537 ce3c 9f28 3dbc
000000d0: f599 d63c e4e3 403d ac71 a2bd 53d4 1bbc
000000e0: 539d d8bc 7ed6 90bc 0f24 393c 12ea 983d
000000f0: 19f3 dabc e9d0 0c3d fa1e 903c 18d0 d83c
00000100: 9ddb 853b 7039 7c3b d560 b43c 38d5 19bd
00000110: 3641 323c 10ef a5bc f8a4 073d 7ced 203d
00000120: fb93 c23d 2037 39bd cfac 3cbd befd 143d
00000130: 8883 ac3d c148 293d 4de6 23bd 48fc 74bc
00000140: 2815 a63d 80d3 d53c c0f6 cf3c 200b f23c
00000150: e265 99bd a951 c5bc 2d6e 943d 7d94 b7bd
00000160: 5f26 513d 2a7e 93ba 7065 04bc 3da5 29bd
00000170: a096 473d d15b ccbc 64f1 df3c 0a81 3a3d
00000180: 7b34 2e3c 6c33 843b c929 8abc 3791 6d3d
00000190: ae58 7c3c e1f1 283c 68e5 ffbc ab72 55bc
000001a0: 6383 01bd c688 573d 3635 8fbb ccfa e5bc
000001b0: 26f2 873c f80a 1dbd d814 8b3d 4f08 313d
000001c0: b8b0 d93c 6ae6 83bc 1922 e8bb 574d 1a3d
000001d0: 3c8f d33c 086c 383c a82e f73c e3ca e73a
000001e0: ac65 9bbb 1fe5 3c3d 2975 b4bd af18 1dbc
000001f0: a0db 093d 0712 babb 73b9 6dbd 9ee6 cd3c

bn1.running_mean f4 [128]
-0.058652773 -0.13451114 0.20948981 -0.15702109 0.058053363 0.11172986 -0.18384318 -0.10011336
0.100977175 0.25125742 -0.025913639 0.14722116 -0.07398523 0.06063332 0.0101374695 -0.03481649
0.23596632 -0.021999525 0.12246378 -0.016694438 -0.147717 -0.15507713 -0.1727909 0.08941123
-0.028657276 -0.13205549 -0.028696148 0.11989656 -0.08764709 0.05287981 -0.05480714 0.19974801
-0.053533766 0.04371048 0.055963334 0.066242024 0.21515648 0.20853193 0.07855231 -0.16521627
-0.09813455 -0.11379491 -0.12829418 -0.012453564 0.16997845 0.17359711 0.058271542 0.06472823
-0.044581186 0.20540704 0.108000204 0.029652186 0.101911694 -0.031740427 0.18568 -0.05235348
0.15631084 -0.040995903 -0.06917223 0.12586974 0.034731057 0.08580572 -0.2646739 0.11398529
-0.10161167 0.07289384 0.16373673 0.00917917 0.1584021 -0.10564569 -0.0026023062 -0.047367554
-0.05792774 -0.08843767 0.09687755 0.16848373 -0.11845843 0.037349023 -0.1716358 0.25377423
0.043130253 0.019612804 0.1362791 -0.033026718 -0.0661057 -0.012498371 -0.09372222 0.28391096
-0.13389355 0.0610606 0.12117507 0.20026806 -0.15748665 0.008583681 -0.085660964 -0.12891999
0.019676758 0.04970467 -0.069396995 -0.13991156 0.012579665 -0.19987945 0.15168384 0.04319261
0.119645946 -0.113405794 -0.05438628 0.109158486 -0.02901746 0.13075255 0.058185957 -0.049201954
-0.123227954 0.01215093 0.07654873 -0.053189464 0.09301273 0.072839834 0.1057833 -0.16359083
0.07826546 -0.1035651 0.1388776 0.13350616 -0.08034454 -0.09655769 -0.090168856 -0.118744045
00000000: e43d 70bd 4abd 09be 7f84 563e 23ca 20be
00000010: 5dc9 6d3d a0d2 e43d 6341 3cbe 3c08 cdbd
00000020: 1fcd ce3d d0a4 803e d748 d4bc 25c1 163e
00000030: 9185 97bd a55a 783d a117 263c bc9b 0ebd
00000040: 28a1 713e 5938 b4bc 4ace fa3d c6c2 88bc
00000050: 2043 17be 8acc 1ebe 19f0 30be 3c1d b73d
00000060: aac2 eabc 8e39 07be 2f14 ebbc 548c f53d
00000070: 5180 b3bd 8098 583d 747d 60bd be8a 4c3e
00000080: 3946 5bbd c309 333d cf39 653d e6a9 873d
00000090: fb51 5c3e 6589 553e 09e0 a03d 742e 29be
000000a0: c4fa c8bd 4e0d e9bd 8d5f 03be 090a 4cbc
000000b0: d50e 2e3e 71c3 313e 24ae 6e3d 3c90 843d
000000c0: c39a 36bd 3956 523e 362f dd3d 24e9 f23c
000000d0: 14b7 d03d 4002 02bd e622 3e3e 9a70 56bd
000000e0: f30f 203e 52eb 27bd 2caa 8dbd ffe3 003e
000000f0: 2742 0e3d e9ba af3d 5683 87be 1f71 e93d
00000100: c719 d0bd 5e49 953d 9aaa 273e 3b64 163c
00000110: 2934 223e c45c d8bd 748b 2abb 7b04 42bd
00000120: a345 6dbd cf1e b5bd bd67 c63d 0087 2c3e
00000130: 559a f2bd 4afb 183d 4cc1 2fbe b2ee 813e
00000140: 59a9 303d 08ab a03c c08c 0b3e 0647 07bd
00000150: 6d62 87bd f8c5 4cbc 6ff1 bfbd c75c 913e
00000160: 641b 09be ae1a 7a3d a32a f83d 1213 4d3e
00000170: 2e44 21be 91a2 0c3c 046f afbd 9a03 04be
00000180: 2731 a13c 2097 4b3d 0320 8ebd fa44 0fbe
00000190: f01a 4e3c 33ad 4cbe 0253 1b3e bcea 303d
000001a0: ef08 f53d 4c41 e8bd 26c4 5ebd 7c8e df3d
000001b0: 06b6 edbc ffe3 053e 6654 6e3d fd87 49bd
000001c0: f05e fcbd b214 473c 95c5 9c3d 32dd 59bd
000001d0: 757d be3d 0d2d 953d eaa4 d83d 5b84 27be
000001e0: a449 a03d f019 d4bd ee35 0e3e d7b5 083e
000001f0: ae8b a4bd 0ac0 c5bd 73aa b8bd 1430 f3bd

bn1.running_var f4 [128]
0.5584426 0.6626941 0.60417694 0.53293234 0.47948936 0.49098894 0.59786266 0.57573664
0.83778805 1.1756463 0.7155185 0.64767087 0.45182335 0.77419364 0.43210688 0.31427714
0.9289914 0.542005 0.9750599 0.6064992 0.5516022 0.83245766 0.73507684 0.5139796
0.4144386 0.48380074 0.4830957 0.48313454 0.4879688 0.5026366 0.4394932 0.82510614
0.69697887 0.38328576 0.6916464 0.43553248 0.87259394 0.86999434 0.4969975 0.6426788
0.65567976 0.55968344 0.69070375 0.26740834 0.73319536 0.85191226 0.41945592 0.41207767
0.58788145 1.0166806 0.85116976 0.3250131 0.6947678 0.6979434 0.5384787 0.4485686
0.9619826 0.3472602 0.70009094 0.7248789 0.36552703 0.7521454 0.57794964 0.95418346
0.51958185 0.6998109 0.9925561 0.5906909 0.5606772 0.49999654 0.46640688 0.4434506
0.67869645 0.7086997 0.6724255 0.95041835 0.4455917 0.45337316 0.7464201 1.4853711
0.46463516 0.39401013 0.6567346 0.4083616 0.76734704 0.569435 0.60135573 0.6991183
0.45843306 0.46251807 0.4914337 0.83659744 0.70331055 0.5583131 0.62141484 0.7193834
0.2442664 0.6449359 0.7166798 0.5552888 0.41222095 0.943282 0.6288442 0.49893197
0.5683319 0.42866588 0.8694421 1.2111331 0.5219708 1.323826 0.70207554 0.6267622
0.3853243 0.5152053 0.47824568 0.45540512 0.6492618 0.36930883 1.0797924 0.8891717
0.91979647 0.44396 0.8864059 0.67225915 0.5150279 0.6398764 0.7341403 0.5061639
00000000: 18f6 0e3f 52a6 293f 57ab 1a3f 416e 083f
00000010: a17f f53e e762 fb3e 870d 193f 7a63 133f
00000020: 4779 563f 947b 963f 382c 373f c2cd 253f
00000030: 6455 e73e 8e31 463f 1d3d dd3e efe8 a03e
00000040: 61d2 6d3f d7c0 0a3f 879d 793f 8843 1b3f
00000050: cd35 0d3f f21b 553f ff2d 3c3f 2b94 033f
00000060: 4c31 d43e bbb4 f73e 5258 f73e 695d f73e
00000070: 0cd7 f93e cbac 003f 4105 e13e 283a 533f
00000080: 356d 323f 083e c43e bd0f 313f 1dfe de3e
00000090: 5162 5f3f f3b7 5e3f 7576 fe3e 9986 243f
000000a0: a1da 273f 6a47 0f3f f6d1 303f bfe9 883e
000000b0: b1b2 3b3f ec16 5a3f edc2 d63e d8fb d23e
000000c0: 667f 163f 9722 823f 43e6 593f 1e68 a63e
000000d0: 4ddc 313f 6bac 323f bdd9 093f c9aa e53e
000000e0: 7e44 763f 17cc b13e 2939 333f aa91 393f
000000f0: 5c26 bb3e 9a8c 403f 82f4 133f 5e45 743f
00000100: 5103 053f cf26 333f 2818 7e3f 8537 173f
00000110: 8a88 0f3f 8cff ff3e e2cc ee3e f50b e33e
00000120: 0dbf 2d3f 586d 353f 1424 2c3f 9e4e 733f
00000130: 9824 e43e 8720 e83e 6315 3f3f a420 be3f
00000140: a9e4 ed3e b2bb c93e c21f 283f c614 d13e
00000150: db70 443f 7ec6 113f 73f2 193f 6bf9 323f
00000160: bdb7 ea3e 2bcf ec3e 339d fb3e 402b 563f
00000170: 290c 343f 9bed 0e3f 0b15 1f3f 8329 383f
00000180: f920 7a3e 851a 253f 5478 373f 6827 0e3f
00000190: a00e d33e ee7a 713f effb 203f 0374 ff3e
000001a0: 337e 113f 187a db3e c293 5e3f 6906 9b3f
000001b0: e19f 053f 2173 a93f 39bb 333f 7d73 203f
000001c0: 3a49 c53e 7fe4 033f 9edc f43e dc2a e93e
000001d0: 0536 263f 0c16 bd3e a336 8a3f c2a0 633f
000001e0: c877 6b3f ba4e e33e 7feb 623f 2d19 2c3f
000001f0: ded8 033f f1ce 233f 9ef0 3b3f f593 013f

hidden2.weight f4 [128, 128]
0.08353877 -0.008025653 -0.06678833 0.012865594 0.034132656 -0.0074284174 0.01712931 0.022543957
0.034197837 -0.028012104 -0.05244709 0.066060595 0.016599936 0.07618509 -0.055495508 -0.022701578
0.017738262 0.020991635 -0.035778876 -0.035983622 -0.02215651 -0.06689502 0.0037547094 -0.07980452
-0.027275003 -0.0009713092 -0.066282086 0.040553726 0.06859869 -6.271807e-05 0.019432735 -0.09208207
0.0075348127 0.033773057 -0.0344431 -0.0141085815 -0.08576019 0.03925539 -0.032410838 -0.0077238292
0.049992085 0.07339166 4.9078608e-05 0.08416432 0.019861056 -0.0053257435 0.06937331 0.08898933
0.08105231 -0.042574596 -0.047929592 0.053415254 -0.04686499 -0.025936292 0.046812326 0.021290384
-0.0064244852 0.036187634 0.028902547 -0.092656255 0.06776379 0.02805281 0.051149752 -0.0015093535
0.0060503175 0.00024188797 -0.010806637 0.08567567 -0.068255 -0.04297548 -0.0715982 -0.004750115
-0.067735165 0.06817753 -0.03840896 0.07035826 0.08770625 -0.05803058 -0.06074226 -0.032611165
-0.047795516 0.041176163 0.060425054 -0.011144441 -0.07215118 0.041579273 0.084139 0.020350333
-0.0210455 -0.06228099 -0.070085615 0.042534642 0.04755521 0.062597536 0.08957779 -0.005598775
-0.009291293 0.01861977 -0.025380574 -0.025543887 -0.015586495 0.02014831 -0.0571496 -0.079350285
-0.09349925 -0.004110231 0.018423602 0.064421825 -0.056681924 -0.012063233 0.05020813 0.02698325
-0.041490186 -0.06944272 -0.06462602 -0.022186391 0.017357737 0.06166024 0.031805377 0.061153363
-0.032267187 0.007815247 -0.025780844 0.08236114 -0.0073959595 0.050231352 0.046586305 -0.006899587
0.03262227 -0.02092993 0.023923118 0.06914907 -0.009194412 0.078977734 -0.05640111 -0.007113883
0.017359024 0.018504405 0.115848206 -0.08030488 -0.050705772 -0.018275645 0.021870391 -0.044472564
-0.009577197 -0.0692051 -0.07964711 -0.022927696 0.014677711 0.07777191 -0.04758669 -0.08984735
0.027111333 0.082493365 0.014432253 0.07610903 0.043524865 -0.0079669645 -0.067258514 0.019693987
0.07426228 -0.06451545 0.07302606 0.016374173 -0.033978198 0.02473566 -0.025575222 -0.055519376
0.04943094 0.06395962 -0.012876743 -0.052618485 -0.04636649 -0.056811333 -0.075359054 -0.044976383
-0.053144693 -0.019187108 0.048441082 -0.062831834 0.025215158 -0.0060487622 -0.054956052 -0.06460133
-0.04305545 0.009326274 0.051522207 -0.058010988 0.00039378926 -0.091784626 0.09616934 0.05024656
0.026926689 -0.06398887 0.01261283 0.08318034 -0.022623587 0.01963813 0.015413769 -0.008173305
-0.021856392 0.01730081 0.04872666 -0.01063385 -0.031629577 -0.09641476 -0.048935004 -0.039345745
-0.045751013 -0.07586071 -0.05077818 -0.04144403 0.02990818 0.0346701 -0.07111178 0.05610345
-0.020844975 0.07696022 0.04715844 0.035802018 0.0660945 -0.009513042 0.0006972934 -0.07421339
-0.050123733 0.013622677 0.04552435 0.021102404 -0.08453917 -0.060584694 -0.026939558 0.012933514
0.015185684 0.03537205 -0.08071091 0.0536472 -0.09946141 -0.034424428 0.028626962 -0.07488223
-0.051930234 0.092212014 -0.06631937 0.017910725 -0.0770045 -0.08636093 -0.033062987 0.08667606
-0.05729966 0.050048053 -0.01751597 0.02523336 0.049398117 0.028311422 0.07242856 0.029394154
00000000: 6016 ab3d 077e 03bc 52c8 88bd 36ca 523c
00000010: afce 0b3d 156a f3bb c452 8c3c 1bae b83c
00000020: 0813 0c3d a479 e5bc c3d2 56bd c74a 873d
00000030: 97fc 873c ee06 9c3d 424f 63bd a9f8 b9bc
00000040: d54f 913c a6f6 ab3c df8c 12bd 9063 13bd
00000050: 9281 b5bc 4200 89bd 9211 763b 8d70 a3bd
00000060: d46f dfbc 759f 7eba e7be 87bd aa1b 263d
00000070: 787d 8c3d 8287 83b8 6631 9f3c 8695 bcbd
00000080: 97e6 f63b 9e55 0a3d 3514 0dbd ae27 67bc
00000090: 0aa3 afbd 43ca 203d 3ac1 04bd 2d18 fdbb
000000a0: 80c4 4c3d 5e4e 963d c1d9 4d38 585e ac3d
000000b0: a7b3 a23c 9383 aebb 9813 8e3d 0a40 b63d
000000c0: c1fe a53d b362 2ebd d251 44bd f4c9 5a3d
000000d0: 81f5 3fbd 5978 d4bc 48be 3f3d 2c69 ae3c
000000e0: 7d84 d2bb 7c39 143d 09c5 ec3c 90c2 bdbd
000000f0: bec7 8a3d 02cf e53c 6782 513d 80d5 c5ba
00000100: be41 c63b 4fa3 7d39 520e 31bc ba76 af3d
00000110: 47c9 8bbd 0f07 30bd 14a2 92bd daa6 9bbb
00000120: bcb8 8abd a9a0 8b3d b752 1dbd fe17 903d
00000130: 569f b33d 79b1 6dbd e0cc 78bd 4993 05bd
00000140: 3bc5 43bd 56a8 283d 4380 773d 2c97 36bc
00000150: ffc3 93bd 074f 2a3d 1151 ac3d beb5 a63c
00000160: 9d67 acbc 5a1a 7fbd 0c89 8fbd ce38 2e3d
00000170: 40c9 423d 2333 803d 8f74 b73d ee75 b7bb
00000180: 823a 18bc 7d88 983c ecea cfbc 6a41 d1bc
00000190: 805e 7fbc 120e a53c b315 6abd 6782 a2bd
000001a0: 897c bfbd 1eaf 86bb 18ed 963c 97ef 833d
000001b0: 4e2b 68bd dea4 45bc 0aa7 4d3d fa0b dd3c
000001c0: 9df1 29bd fc37 8ebd a65a 84bd 3cc0 b5bc
000001d0: d031 8e3c 738f 7c3d 5b46 023d f37b 7a3d
000001e0: 992a 04bd 860b 003c 5932 d3bc f5ac a83d
000001f0: ce59 f2bb 64bf 4d3d 48d1 3e3d ee15 e2bb
00000200: ee9e 053d 3f75 abbc 6afa c33c 079e 8d3d
00000210: 29a4 16bc 14bf a13d da04 67bd 931b e9bb
00000220: 8334 8e3c 8d96 973c d341 ed3d e376 a4bd
00000230: dbb0 4fbd ceb6 95bc 8929 b33c dd28 36bd
00000240: ade9 1cbc 67bb 8dbd 061e a3bd ddd2 bbbc
00000250: c87a 703c e146 9f3d 43ea 42bd e301 b8bd
00000260: 9618 de3c 48f2 a83d 4275 6c3c 0ddf 9b3d
00000270: 2147 323d df87 02bc d5be 89bd 4955 a13c
00000280: d216 983d ad20 84bd b08e 953d 2123 863c
00000290: b92c 0bbd 70a2 ca3c 2183 d1bc 4968 63bd
000002a0: 1978 4a3d 43fd 823d faf8 52bc 7b86 57bd
000002b0: caea 3dbd 00b3 68bd d955 9abd 2839 38bd
000002c0: 40ae 59bd 482e 9dbc 286a 463d faad 80bd
000002d0: 0590 ce3c b234 c6bb 9919 61bd b44d 84bd
000002e0: e95a 30bd 3acd 183c f308 533d ee9c 6dbd
000002f0: 8075 ce39 94f9 bbbd 6ef4 c43d 56cf 4d3d
00000300: 5c95 dc3c 990c 83bd 0ba6 4e3c 745a aa3d
00000310: 1a55 b9bc 25e0 a03c 088a 7c3c 53e9 05bc
00000320: 2d0c b3bc 6eba 8d3c 9b95 473d 9939 2ebc
00000330: 048e 01bd 1a75 c5bd 1270 48bd 0129 21bd
00000340: 6a65 3bbd dc5c 9bbd c8fc 4fbd 37c1 29bd
00000350: 0002 f53c 3c02 0e3d 0ea3 91bd bbcc 653d
00000360: 15c3 aabc 529d 9d3d 3529 413d 23a5 123d
00000370: 8e5c 873d 97dc 1bbc 91ca 363a 31fd 97bd
00000380: 8b4e 4dbd a631 5f3c be77 3a3d f3de ac3c
00000390: df22 adbd a827 78bd 59b0 dcbc 17e7 533c
000003a0: 60cd 783c 48e2 103d c34b a5bd 2bbd 5b3d
000003b0: 6cb2 cbbd a100 0dbd 1783 ea3c db5b 99bd
000003c0: ccb4 54bd a7d9 bc3d 73d2 87bd 83b9 923c
000003d0: 89b4 9dbd 00de b0bd 0e6d 07bd 3883 b13d
000003e0: 0cb3 6abd 30ff 4c3d a77d 8fbc 31b6 ce3c
000003f0: ae55 4a3d 5bed e73c 6d55 943d 02cc f03c

bn2.weight f4 [128]
1.0012578 0.992302 0.99672014 0.9855292 0.9967203 0.9936668 0.9935103 0.9872752
0.99811715 0.9879432 0.99946237 0.9935497 0.9955272 0.99259967 0.9931261 0.99650365
0.99385685 0.99014646 0.99433976 0.9889918 1.0000428 0.99635816 0.9929487 0.99696255
0.9901385 0.99903446 0.9921684 0.9980772 0.99475974 1.0005579 1.0002621 0.9930594
0.9933559 0.9836595 0.9878416 0.99501425 0.99440247 0.9990057 0.9891703 0.9935076
0.9961242 0.99263835 0.9946837 0.9972237 0.99175656 0.99907047 1.0003083 0.98628855
0.997303 1.0002458 0.9940879 0.9901684 0.9989107 0.9976077 0.9871954 0.9844155
0.9945166 0.98151326 0.9884829 0.9909238 0.99583423 0.9988455 0.991973 0.9896198
0.99800164 0.9982348 0.9962476 0.99654293 0.9968971 0.990143 0.99440086 1.0006957
0.99958193 0.9936871 0.99257106 0.99338216 1.0031941 0.99015766 0.9896009 0.98651993
0.98929346 0.99011177 0.99794513 0.9990955 0.9925048 0.9988823 0.99364835 0.9954143
0.990556 0.9918134 0.99583083 0.9942948 0.9962689 0.99238336 0.9952656 0.9900152
1.0015302 0.9921888 0.9936295 0.9997044 0.98969483 0.9853045 0.9916738 0.99800116
0.9997005 0.99880296 0.9957405 1.0012474 0.9970631 0.9972019 0.9995053 0.9877942
0.9982438 0.99773777 0.99658704 0.99450403 0.99849963 0.9946832 0.99080974 1.0009595
0.9854001 0.9929781 0.9964845 0.97809714 1.0005394 1.001565 1.0008512 0.9803048
00000000: 3729 803f 8107 7e3f 0d29 7f3f a44b 7c3f
00000010: 1029 7f3f f360 7e3f b156 7e3f 11be 7c3f
00000020: 9b84 7f3f d8e9 7c3f c4dc 7f3f 4659 7e3f
00000030: dfda 7e3f 031b 7e3f 833d 7e3f dd1a 7f3f
00000040: 676d 7e3f 3d7a 7d3f 0d8d 7e3f 912e 7d3f
00000050: 6701 803f 5411 7f3f e331 7e3f f038 7f3f
00000060: b779 7d3f b9c0 7f3f c0fe 7d3f fd81 7f3f
00000070: 93a8 7e3f 4812 803f 9708 803f 2439 7e3f
00000080: 924c 7e3f 1cd1 7b3f 30e3 7c3f 41b9 7e3f
00000090: 2991 7e3f d6be 7f3f 443a 7d3f 8456 7e3f
000000a0: ff01 7f3f 8c1d 7e3f 97a3 7e3f 0d4a 7f3f
000000b0: c2e3 7d3f 15c3 7f3f 1a0a 803f 687d 7c3f
000000c0: 404f 7f3f 0e08 803f 8b7c 7e3f ad7b 7d3f
000000d0: 9db8 7f3f 3863 7f3f d6b8 7c3f a702 7c3f
000000e0: a498 7e3f 7444 7b3f 370d 7d3f 2fad 7d3f
000000f0: feee 7e3f 57b4 7f3f f1f1 7d3f b957 7d3f
00000100: 097d 7f3f 518c 7f3f 150a 7f3f 701d 7f3f
00000110: a634 7f3f 037a 7d3f 0e91 7e3f cc16 803f
00000120: 9ae4 7f3f 4762 7e3f 2319 7e3f 4b4e 7e3f
00000130: aa68 803f f97a 7d3f 7c56 7d3f 928c 7c3f
00000140: 5642 7d3f f777 7d3f 5579 7f3f b9c4 7f3f
00000150: cb14 7e3f c0b6 7f3f bd5f 7e3f 79d3 7e3f
00000160: 1495 7d3f 7ce7 7d3f c5ee 7e3f 1b8a 7e3f
00000170: 7b0b 7f3f d60c 7e3f bac9 7e3f a371 7d3f
00000180: 2432 803f 1600 7e3f 815e 7e3f a1ec 7f3f
00000190: a45c 7d3f ea3c 7c3f 56de 7d3f 017d 7f3f
000001a0: 5fec 7f3f 8db1 7f3f d9e8 7e3f e028 803f
000001b0: 873f 7f3f a048 7f3f 94df 7f3f 15e0 7c3f
000001c0: e88c 7f3f be6b 7f3f 5420 7f3f d197 7e3f
000001d0: ac9d 7f3f 8fa3 7e3f b5a5 7d3f 711f 803f
000001e0: 2e43 7c3f d033 7e3f 9c19 7f3f 9364 7a3f
000001f0: ad11 803f 4833 803f e41b 803f 41f5 7a3f

bn2.bias f4 [128]
0.0023078013 -0.038432516 -0.015865015 0.046155658 0.011020092 0.036701575 -0.014552578 -0.03155396
-0.016486261 0.03224022 0.008039245 0.02971155 0.02111505 0.041403398 0.022168737 -0.015813196
-0.022963248 0.02962766 -0.019669475 -0.043862298 0.0121987425 -0.016258793 -0.016601538 -0.013919364
0.02364065 -0.017178984 -0.033579446 -0.020395955 -0.014228049 -0.0057905144 0.01307349 -0.027319083
0.02581807 0.033530094 0.035444427 -0.015898168 0.03139186 -0.010152015 0.044306334 0.024264231
0.017320443 -0.0219844 0.011725667 -0.011044508 0.025007078 0.009264906 -0.004333532 0.024232596
-0.021249996 -0.016135667 0.0108167 -0.023117444 0.003307042 -0.019439638 -0.029424377 -0.04209436
0.022786641 0.033429254 0.04173352 0.034120627 -0.010482776 -0.0311507 -0.030140249 0.039012417
-0.035548333 -0.029164447 -0.012274358 -0.017271414 -0.036932267 -0.025815383 -0.023620669 -0.009519382
-0.013149806 0.011153819 -0.010508195 0.03001249 -0.0070497817 -0.04720651 0.0326573 -0.037084203
-0.033943146 0.02912786 -0.014309483 -0.018232375 -0.03244934 -0.0022792465 -0.016739199 0.028084463
-0.032904897 -0.03322144 0.01718637 -0.02680201 0.014444192 0.042151287 0.013332182 0.02672793
-0.0061403597 0.017069139 0.02454722 0.01840987 0.024180988 -0.038333796 -0.024542518 -0.011817737
0.008115808 0.007676767 -0.014442659 0.008205478 -0.01944048 0.011272283 -0.0009772347 -0.027756177
0.006021747 -0.024018006 -0.01307339 0.02273885 0.01794371 0.025676679 0.021330526 -0.011257507
-0.041993633 -0.022414058 0.023848064 -0.046580166 0.01512657 0.014905993 -0.007699189 -0.05882958
00000000: 7b3e 173b 6a6b 1dbd 59f7 81bc b70d 3d3d
00000010: 9e8d 343c 6454 163d f06d 6ebc ba3e 01bd
00000020: 320e 87bc 520e 043d 0ab7 033c a365 f33c
00000030: 78f9 ac3c 9c96 293d 369b b53c ad8a 81bc
00000040: 6c1d bcbc b5b5 f23c e121 a1bc f4a8 33bd
00000050: 3cdd 473c 2931 85bc f3ff 87bc 0b0e 64bc
00000060: 09aa c13c f1ba 8cbc 9a8a 09bd 6b15 a7bc
00000070: c31c 69bc 5bbe bdbb 3132 563c 45cc dfbc
00000080: 6b80 d33c da56 093d 2d2e 113d e03c 82bc
00000090: c094 003d a354 26bc 8f7a 353d c8c5 c63c
000000a0: 9ae3 8d3c a118 b4bc 031d 403c 06f4 34bc
000000b0: a5db cc3c d5cb 173c 4d00 8ebb 7083 c63c
000000c0: 7914 aebc f22e 84bc 8738 313c cb60 bdbc
000000d0: f5ba 583b e03f 9fbc 640b f1bc 236b 2cbd
000000e0: 0dab ba3c 1ded 083d c4f0 2a3d 12c2 0b3d
000000f0: f3bf 2bbc c12f ffbc afe8 f6bc 7ccb 1f3d
00000100: 219b 11bd 47ea eebc 641a 49bc c87c 8dbc
00000110: 4a46 17bd c87a d3bc 2280 c1bc 2ff7 1bbc
00000120: 4972 57bc 82be 363c 902a 2cbc c1dc f53c
00000130: db01 e7bb 9d5b 41bd a9c3 053d 9be5 17bd
00000140: f807 0bbd 8d9d ee3c 5272 6abc 105c 95bc
00000150: 99e9 04bd 695f 15bb a520 89bc 6311 e63c
00000160: 49c7 06bd 3413 08bd 6eca 8c3c e48f dbbc
00000170: 55a7 6c3c d4a6 2c3d 396f 5a3c 88f4 da3c
00000180: 1235 c9bb 94d4 8b3c 4017 c93c 4cd0 963c
00000190: 3517 c63c e603 1dbd 640d c9bc 2e9f 41bc
000001a0: 2af8 043c 648d fb3b e7a0 6cbc 4570 063c
000001b0: a441 9fbc 62af 383c 8e16 80ba ec60 e3bc
000001c0: 1352 c53b 69c1 c4bc c631 56bc d346 ba3c
000001d0: b0fe 923c e657 d23c 5bbd ae3c 6871 38bc
000001e0: 8401 2cbd b09d b7bc 045d c33c d8ca 3ebd
000001f0: 6fd5 773c 4438 743c 7a49 fcbb 49f7 70bd

bn2.running_mean f4 [128]
0.018815866 -0.043633893 -0.077812284 0.099623784 0.0070793987 0.08300854 -0.062399805 -0.064429745
-0.009348027 0.03294096 0.013523519 0.10123173 0.023008429 0.07248318 0.07406494 -0.031740654
-0.049521055 0.07403988 -0.03988212 -0.07531294 0.01759538 -0.015015564 -0.07929447 -0.06689694
0.037898265 -0.05046221 -0.05613255 -0.024509698 -0.06542635 -0.031735722 0.057949707 -0.09103259
0.078312896 0.013448022 0.01677392 0.0002906057 0.1159169 0.008151982 0.11794098 0.03394576
0.0632359 -0.062970236 0.07473664 -0.06026507 0.060185097 0.10226982 -0.05701597 0.051117007
0.013176566 -0.07695017 0.06155016 -0.00021742482 0.055032536 -0.10908119 -0.015371187 -0.031112576
0.015978906 0.057674512 0.020082898 0.08073265 0.0018082062 -0.0012450507 -0.0350504 0.08000236
-0.103205904 -0.08556903 -0.07356219 -0.031380754 -0.04388758 -0.06037421 -0.05332157 -0.075801216
-0.0054401504 0.0050142636 -0.05596803 0.107331656 0.027302038 -0.090110496 0.04475049 -0.033593684
-0.09836412 0.054803703 -0.06621393 -0.061451834 -0.07116887 -0.00010970258 -0.026118288 0.0018363039
-0.0796702 -0.014010506 0.060462307 -0.048375875 0.05326632 0.11063808 0.0077885482 0.098765865
-0.1101879 0.042363282 0.016778823 0.00038275542 0.0592742 -0.0778163 -0.04169053 -0.061073583
0.09923485 0.004611243 -0.04462268 0.040187187 -0.025697006 0.07699566 -0.022814238 -0.035536975
0.008344458 -0.07530007 -0.0036221694 0.08618284 0.06412013 0.046438515 0.06737471 -0.050679073
-0.037230585 -0.026046177 0.015919838 -0.060635444 0.07827108 0.055816043 -0.05120089 -0.08618227
00000000: bb23 9a3c 74b9 32bd 0c5c 9fbd 8e07 cc3d
00000010: 4dfa e73b 6200 aa3d f096 7fbd bef3 83bd
00000020: 7828 19bc 1aed 063d c091 5d3c 9552 cf3d
00000030: 2c7c bc3c 1072 943d 5caf 973d 7d02 02bd
00000040: 97d6 4abd 38a2 973d 6f5b 23bd ac3d 9abd
00000050: 3024 903c d703 76bc 2465 a2bd 4301 89bd
00000060: 363b 1b3d 76b1 4ebd 3feb 65bd 90c8 c8bc
00000070: 40fe 85bd 51fd 01bd ac5c 6d3d 4b6f babd
00000080: 8362 a03d 1855 5c3c 7669 893c 705c 9839
00000090: d765 ed3d e48f 053c 0a8b f13d b60a 0b3d
000000a0: d381 813d 8af6 80bd 860f 993d 82d8 76bd
000000b0: a684 763d d772 d13d 9489 69bd 1160 513d
000000c0: 86e2 573c 0d98 9dbd 051c 7c3d 88fc 63b9
000000d0: cc69 613d f565 dfbd 6ed7 7bbc cddf febc
000000e0: 32e6 823c 1c3c 6c3d e484 a43c 2957 a53d
000000f0: 5501 ed3a f830 a3ba 0291 0fbd 47d8 a33d
00000100: 9e5d d3bd d13e afbd c6a7 96bd 1b89 00bd
00000110: 77c3 33bd f34a 77bd b867 5abd ab3d 9bbd
00000120: 4a43 b2bb b14e a43b bc3e 65bd b3d0 db3d
00000130: 86a8 df3c da8b b8bd 4a4c 373d 8899 09bd
00000140: 2173 c9bd d979 603d 2b9b 87bd ebb4 7bbd
00000150: fcc0 91bd 2010 e6b8 05f6 d5bc 22b0 f03a
00000160: 212a a3bd 528c 65bc 53a7 773d c825 46bd
00000170: c92d 5a3d 3896 e23d 1437 ff3b c245 ca3d
00000180: 32aa e1bd 1f85 2d3d be73 893c 90ac c839
00000190: 81c9 723d 275e 9fbd b0c3 2abd 4b28 7abd
000001a0: a43b cb3d e919 973b 45c6 36bd 529b 243d
000001b0: 8782 d2bc e7af 9d3d ede4 babc 388f 11bd
000001c0: 32b7 083c ec36 9abd eb61 6dbb a180 b03d
000001d0: 6a51 833d 5036 3e3d c1fb 893d dc94 4fbd
000001e0: 197f 18bd cb5e d5bc 526a 823c df5c 78bd
000001f0: 974c a03d 5d9f 643d 06b8 51bd 5480 b0bd

bn2.running_var f4 [128]
0.21434875 0.29494134 0.26260883 0.27947736 0.22431563 0.36713424 0.15951271 0.27703792
0.24443321 0.21974528 0.1752943 0.24493831 0.15594912 0.3023007 0.2497865 0.20696472
0.1747415 0.24645618 0.22076164 0.35517144 0.21464299 0.16055058 0.2141528 0.2797704
0.21550861 0.30817592 0.28215194 0.25265113 0.25910693 0.23032804 0.22917485 0.3619145
0.31519142 0.27501202 0.25435016 0.27267212 0.37789372 0.18501098 0.3133479 0.3221369
0.1807143 0.24424861 0.29104203 0.19928703 0.25729856 0.3405105 0.26801768 0.19557132
0.31162766 0.32925543 0.26156345 0.21383499 0.23546314 0.33197904 0.20069633 0.26179639
0.30478382 0.24055016 0.2465847 0.22850493 0.21604624 0.33302915 0.20698906 0.2242352
0.37076023 0.36022383 0.20447554 0.29298395 0.3268888 0.22106543 0.26364067 0.29300013
0.20838156 0.20129892 0.1854362 0.41543 0.2940488 0.39762014 0.2146497 0.26594016
0.415827 0.2023737 0.25708887 0.25052625 0.26200703 0.23342243 0.25573027 0.27441442
0.2910913 0.3492976 0.24070857 0.24312016 0.2696624 0.3867015 0.21867143 0.36904016
0.26841953 0.30340648 0.28352252 0.25964326 0.20287886 0.33907333 0.27696803 0.25248715
0.35960898 0.17093667 0.18566264 0.24968506 0.3163238 0.2539541 0.16556635 0.22397046
0.21739505 0.2428546 0.23378211 0.25614515 0.2521321 0.20725769 0.23426244 0.23364758
0.2693932 0.20086204 0.25008044 0.30066696 0.35061485 0.26498756 0.29649204 0.335543
00000000: 3d7e 5b3e 8d02 973e aa74 863e a817 8f3e
00000010: ffb2 653e 05f9 bb3e 4d57 233e ead7 8d3e
00000020: b34c 7a3e e804 613e 5980 333e 1cd1 7a3e
00000030: 20b1 1f3e 28c7 9a3e 08c8 7f3e 8fee 533e
00000040: 70ef 323e 025f 7c3e 570f 623e 08d9 b53e
00000050: 5fcb 5b3e 5f67 243e df4a 5b3e 113e 8f3e
00000060: 4aae 5c3e 3cc9 9d3e 3876 903e 7d5b 813e
00000070: aaa9 843e 1ddb 6b3e d0ac 6a3e db4c b93e
00000080: c560 a13e 60ce 8c3e 2f3a 823e ae9b 8b3e
00000090: 497b c13e 8573 3d3e 236f a03e 21ef a43e
000000a0: 2b0d 393e 4f1c 7a3e 7603 953e e611 4c3e
000000b0: a3bc 833e 6457 ae3e 9d39 893e d943 483e
000000c0: a98d 9f3e 2b94 a83e a5eb 853e 8ff7 5a3e
000000d0: 401d 713e 28f9 a93e 5783 4d3e 2d0a 863e
000000e0: a00c 9c3e c852 763e b380 7c3e 32fd 693e
000000f0: 3a3b 5d3e cc82 aa3e f1f4 533e ea9d 653e
00000100: 49d4 bd3e 426f b83e 0962 513e fe01 963e
00000110: f85d a73e fa5e 623e e9fb 863e 1d04 963e
00000120: fa61 553e 4e21 4e3e fde2 3d3e 3eb3 d43e
00000130: 908d 963e de94 cb3e 22cd 5b3e 4f29 883e
00000140: 47e7 d43e 0d3b 4f3e 27a1 833e fa44 803e
00000150: c925 863e 4a06 6f3e 14ef 823e 0c80 8c3e
00000160: eb09 953e 23d7 b23e 4f7c 763e 7ef4 783e
00000170: 3111 8a3e bdfd c53e 67eb 5f3e d5f2 bc3e
00000180: 496e 893e 1858 9b3e dd29 913e f6ef 843e
00000190: 7abf 4f3e 059b ad3e c1ce 8d3e ff45 813e
000001a0: ab1e b83e 060a 2f3e 591e 3e3e 71ad 7f3e
000001b0: 31f5 a13e 4606 823e 3a8a 293e 8358 653e
000001c0: cf9c 5e3e e0ae 783e 9464 6f3e 7525 833e
000001d0: 7517 813e 5c3b 543e 7ee2 6f3e 5041 6f3e
000001e0: e8ed 893e c7ae 4d3e 8b0a 803e 05f1 993e
000001f0: ca83 b33e 73ac 873e cecd 973e 4bcc ab3e

hidden3.weight f4 [16, 128]
-0.09317518 -0.08161103 -0.029214147 -0.042174954 0.058689263 -0.05184013 -0.033820182 0.051879354
-0.07060656 0.05005741 -0.09243952 -0.064764805 -0.06755103 -0.034449976 0.058067232 0.018435646
0.007010768 0.07332526 -0.07048229 -0.025317986 0.04309131 0.031981856 -0.041696403 0.07378616
-0.07027369 0.053656254 0.057055295 0.063587524 0.055127893 -0.0367128 -0.040619954 -0.04496045
0.007817396 0.025060005 0.027168628 -0.04345615 -0.040576927 0.007780458 0.012038586 0.10166932
0.0095458375 -0.0004900338 -0.09349608 0.030689452 -0.008432247 -0.028247565 0.065553345 -0.027344003
-0.022248145 0.0071134837 0.049479492 0.007939593 0.046386275 0.0765508 0.018586097 0.015883297
-0.060486976 -0.032145362 -0.07690092 0.0007886561 -0.034839734 -0.020275915 -0.070904166 0.0061469264
0.04993751 -0.05712115 0.06394555 -0.06748935 -0.061005663 0.06642417 -0.0022850751 -0.06396272
0.0721203 -0.0110817505 -0.048226535 0.041956894 -0.09924744 -0.0015685816 -0.025541434 0.0015332019
0.051620238 -0.053138845 0.047109567 0.0060693924 -0.058992967 0.06564857 -0.07127142 0.0013761062
0.051006485 -0.046776164 -0.07571521 0.034587696 0.00014934067 0.032162674 0.021403775 -0.08326668
0.0807195 -0.016095806 -0.058420934 -0.07324709 -0.04707848 -0.061031133 -0.070869155 0.05970656
0.028409272 0.025954861 -0.002333714 0.0469054 -0.03632657 -0.07879304 -0.014022466 -0.0047684084
-0.049015902 -0.039448734 0.01364363 -0.050027113 -0.008672789 0.012361279 -0.07654754 0.10421909
0.03234904 0.02360983 -0.07579313 -0.010072599 -0.046349462 -0.039243806 0.007246117 0.03138244
0.024045432 -0.006054454 0.07933339 -0.08623798 -0.02017018 -0.07765792 0.036246393 0.019072764
0.019260803 -0.0034925356 -0.013752652 0.040815245 -0.08877087 -0.036728304 -0.056581985 0.011188336
0.037717022 -0.026697678 0.012893965 -0.020369953 -0.058286976 0.023871897 0.06499872 -0.029278163
-0.05689819 0.106646836 0.05513904 0.028476577 -0.009902474 0.0299141 0.027273418 -0.08100716
-0.08609489 -0.09548934 -0.12449046 0.07912153 -0.06859728 0.004684801 0.065825425 -0.07972415
0.0017849479 -0.063797496 0.03451928 0.0013341974 0.07855062 0.04044256 -0.025549537 -0.074100725
0.09792263 -0.0446563 -0.07052717 0.07711902 -0.026962467 0.0040435023 0.027536582 -0.03342257
-0.033711594 0.034208063 0.10180935 -0.010335634 -0.015026396 -0.0054811817 0.12107668 -0.082173854
-0.060972143 0.07578946 -0.07118604 0.056264535 0.10165602 -0.018255325 -0.043095518 0.017325353
-0.04817476 -0.02429658 0.026809081 0.007895809 0.08088292 -0.036050707 -0.041909575 -0.010844938
-0.050443143 -0.029932333 -0.07457159 -0.034277156 -0.025655547 0.011827144 0.0582642 -0.029201306
0.035019774 0.048768077 0.00327457 0.073608905 -0.10258162 -0.05922854 0.060419314 -0.02122925
-0.035702918 -0.06733097 0.07077371 -0.070232004 0.008189291 0.079591915 0.068197235 0.0149839185
-0.004323325 0.020391569 -0.031460986 0.045905024 0.016139437 0.037594292 -0.004682446 -0.06852821
0.11004072 0.0034427843 -0.041983224 0.045589276 0.019602535 -0.039402843 -0.086898796 0.015556256
-0.029048089 0.011259957 0.05358958 0.033020232 -0.029396953 -0.016017022 0.118864335 0.0010424731
00000000: a1d2 bebd af23 a7bd 8252 efbc a5bf 2cbd
00000010: 2764 703d 5156 54bd 0887 0abd 727f 543d
00000020: 2c9a 90bd 0009 4d3d ee50 bdbd 69a3 84bd
00000030: 3258 8abd 6b1b 0dbd e8d7 6d3d 5a06 973c
00000040: 96ba e53b 8e2b 963d 0559 90bd aa67 cfbc
00000050: 8380 303d 68ff 023d d9c9 2abd 331d 973d
00000060: a7eb 8fbd a9c6 5b3d d0b2 693d 2d3a 823d
00000070: c9cd 613d 2960 16bd 1c61 26bd 7328 38bd
00000080: 8914 003c a44a cd3c be90 de3c 13ff 31bd
00000090: fe33 26bd 36f3 fe3b 7d3d 453c 0138 d03d
000000a0: 2566 1c3c 9d75 00ba df7a bfbd 7268 fb3c
000000b0: 6827 0abc 7067 e7bc d540 863d 8800 e0bc
000000c0: be41 b6bc 3a18 e93b 02ab 4a3d 1115 023c
000000d0: 89ff 3d3d aac6 9c3d df41 983c b01d 823c
000000e0: 31c1 77bd dbaa 03bd 3b7e 9dbd d1bd 4e3a
000000f0: 1cb4 0ebd ad19 a6bc 3436 91bd 286c c93b
00000100: 468b 4c3d def7 69bd e2f5 823d db37 8abd
00000110: 13e1 79bd 6509 883d 33c1 15bb e3fe 82bd
00000120: cfb3 933d 3b90 35bc 3089 45bd feda 2b3d
00000130: 3e42 cbbd dd98 cdba 453c d1bc b8f5 c83a
00000140: be6f 533d 1ea8 59bd f6f5 403d c1e1 c63b
00000150: 9ca2 71bd c272 863d c0f6 91bd 765e b43a
00000160: 2dec 503d 5d98 3fbd 9310 9bbd d4ab 0d3d
00000170: 5598 1c39 02bd 033d f856 af3c b987 aabd
00000180: 4450 a53d 5adb 83bc ca4a 6fbd 9202 96bd
00000190: 5dd5 40bd c8fb 79bd d923 91bd de8e 743d
000001a0: 90ba e83c 4a9f d43c 39f1 18bb e01f 403d
000001b0: 2bcb 14bd 3f5e a1bd 7cbe 65bc 4f40 9cbb
000001c0: e6c4 48bd ff94 21bd 8889 5f3c 3be9 4cbd
000001d0: 5018 0ebc f686 4a3c f5c4 9cbd d170 d53d
000001e0: 6d80 043d 6769 c13c 6e39 9bbd 8b07 25bc
000001f0: efd8 3dbd 1dbe 20bd d670 ed3b e08a 003d
00000200: edfa c43c 7164 c6bb 8b79 a23d 8a9d b0bd
00000210: ef3b a5bc 1e0b 9fbd 1977 143d 7c3e 9c3c
00000220: d5c8 9d3c 06e3 64bb ce52 61bc e32d 273d
00000230: 80cd b5bd 6b70 16bd 83c2 67bd 484f 373c
00000240: 2a7d 1a3d 17b5 dabc 3541 533c e3de a6bc
00000250: 53be 6ebd ff8e c33c 0d1e 853d c2d8 efbc
00000260: 140e 69bd a869 da3d 79d9 613d b647 e93c
00000270: fc3d 22bc 6a0e f53c 816c df3c 15e7 a5bd
00000280: 8552 b0bd ea8f c3bd dbf4 febd 780a a23d
00000290: bb7c 8cbd f682 993b 7bcf 863d 6a46 a3bd
000002a0: eaf4 e93a 43a8 82bd 1764 0d3d 3ce0 ae3a
000002b0: 26df a03d 19a7 253d 434d d1bc 1fc2 97bd
000002c0: a98b c83d 86e9 36bd 8d70 90bd 94f0 9d3d
000002d0: 64e0 dcbc 5b7f 843b 6694 e13c 1be6 08bd
000002e0: 2b15 0abd c11d 0c3d 6c81 d03d cb56 29bc
000002f0: 4631 76bc 7c9b b3bb 0df7 f73d c44a a8bd
00000300: edbd 79bd 8137 9b3d fdc9 91bd a475 663d
00000310: 0831 d03d 318c 95bc ed84 30bd e6ed 8d3c
00000320: e652 45bd 9f09 c7bc b89e db3c 6c5d 013c
00000330: f2a5 a53d e8a9 13bd 60a9 2bbd f8ae 31bc
00000340: 789d 4ebd a734 f5bc fdb8 98bd 3466 0cbd
00000350: 952b d2bc a3c6 413c 71a6 6e3d 9437 efbc
00000360: e570 0f3d 09c1 473d 2b9a 563b 44c0 963d
00000370: 5016 d2bd a099 72bd 3e7a 773d f7e8 adbc
00000380: 393d 12bd d2e4 89bd cff1 903d ccd5 8fbd
00000390: 602c 063c 1601 a33d feaa 8b3d 1c7f 753c
000003a0: aeaa 8dbb 380c a73c 3cdd 00bd e806 3c3d
000003b0: da36 843c 79fc 193d 346f 99bb 8558 8cbd
000003c0: 075d e13d 56a0 613b 9af6 2bbd d2bb 3a3d
000003d0: 7f95 a03c e064 21bd fff7 b1bd abdf 7e3c
000003e0: 42f6 edbc af7b 383c bf80 5b3d 3940 073d
000003f0: e1d1 f0bc 2136 83bc 256f f33d 98a3 883a

bn3.weight f4 [16]
0.9888383 0.9094038 0.9886282 1.0025187 0.9279814 0.9867343 0.8956927 0.9789134
0.96961 0.98027307 0.88633084 0.9637307 0.958268 0.97252345 0.99391353 0.99635017
00000000: 8224 7d3f b0ce 683f bd16 7d3f 8852 803f
00000010: 3090 6d3f 9e9a 7c3f 1e4c 653f 129a 7a3f
00000020: 5c38 783f 2df3 7a3f 94e6 623f 0eb7 763f
00000030: 0d51 753f 4cf7 783f 1e71 7e3f ce10 7f3f

bn3.bias f4 [16]
-0.110354885 -0.37724125 -0.100990556 0.23514952 0.27438045 0.08942831 0.45065495 0.16329928
-0.41543418 -0.39392325 0.40681967 0.5786884 -0.25634545 -0.16473319 0.09816544 0.013624877
00000000: be01 e2bd c425 c1be 23d4 cebd 09cb 703e
00000010: 987b 8c3e 3126 b73d 3fbc e63e ed37 273e
00000020: cab3 d4be 4fb0 c9be ab4a d03e ec24 143f
00000030: b63f 83be d1af 28be f60a c93d e03a 5f3c

bn3.running_mean f4 [16]
-0.052676667 -0.015740627 -0.05194938 0.005730289 -0.0076821605 0.027403643 0.100116394 -0.0092541855
0.009466751 -0.14111936 -0.009276172 0.15457124 0.010579296 -0.02122818 0.018536204 0.0034792405
00000000: 7dc3 57bd 7df2 80bc e0c8 54bd 26c5 bb3b
00000010: a2ba fbbb 9b7d e03c d309 cd3d de9e 17bc
00000020: 6e1a 1b3c 9881 10be 16fb 17bc ec47 1e3e
00000030: c954 2d3c b8e6 adbc 3dd9 973c f803 643b

bn3.running_var f4 [16]
0.6248982 1.1407757 0.61588234 1.2468032 0.7162056 0.41356546 1.3289976 0.57183087
1.4853445 2.1266427 0.8239721 2.4306588 0.61050725 0.50101805 0.29906395 0.2202739
00000000: 54f9 1f3f f004 923f 77aa 1d3f 3f97 9f3f
00000010: 4059 373f dabe d33e 981c aa3f 8263 123f
00000020: c51f be3f ea1a 0840 d6ef 523f ea8f 1b40
00000030: 344a 1c3f b842 003f e91e 993e 7b8f 613e

output.weight f4 [1, 16]
0.10807261 0.42494392 0.082823984 -0.41067353 -0.28667673 -0.105110236 -0.4690679 -0.19300553
0.5624476 0.51909655 -0.43623635 -0.77252597 0.28081834 0.1538341 -0.02044519 0.026733415
00000000: 2c55 dd3d 4092 d93e 9f9f a93d cd43 d2be
00000010: 4bc7 92be 0944 d7bd ab29 f0be 3ea3 45be
00000020: 91fc 0f3f 83e3 043f 5f5a dfbe 43c4 45bf
00000030: 6cc7 8f3e b086 1d3e ac7c a7bc 0900 db3c
