models/focal_loss_checkpoints/checkpoint_epoch_110.pth (torch, 100242 bytes, 16 tensors)

hidden1.weight f4 [128, 30]
0.11214123 -0.15780257 -0.05784722 -0.042117633 0.10699858 -0.09389416 0.002089576 -4.7459147e-05
-0.03185429 -0.09969872 -0.13787037 0.18105413 -0.1135321 0.038795304 -0.03991319 0.051058616
-0.18790762 0.060572524 0.1624643 0.21018296 0.12008821 0.0001005164 -0.12692401 0.08862843
0.10338551 0.053733937 -0.046721376 0.1896706 0.10569999 -0.11599422 -0.17199583 -0.008492308
0.013650944 0.02576325 -0.030452665 0.022726608 -0.07493976 -0.005689634 -0.044148903 -0.14313594
-0.084343135 -0.15675712 0.17070982 0.14196877 0.058709588 -0.029168192 -0.12896256 0.057256944
0.093025304 0.13515398 -0.17795685 -0.1270108 -0.08393284 0.091686845 0.18336274 -0.16166519
0.11469113 0.019786675 -0.15749085 -0.031123212 0.13013591 0.0049901027 0.047350705 -0.12342362
-0.007201625 0.07876352 0.11971534 -0.036070067 0.12194133 0.11276091 0.02794612 -0.118651524
-0.17979176 0.11358243 0.13385591 0.17450424 -0.17354105 -0.17752276 -0.09249029 -0.11472954
0.010918184 -0.03230799 -0.17121677 -0.105707854 -0.09710254 -0.083078876 0.044492412 -0.06670348
-0.0044309483 0.12417179 0.004140283 0.16726479 -0.08197453 -0.026543023 -0.07962846 0.05763798
0.04369376 0.029387536 -0.0554921 -0.09415396 0.14969645 -0.18270472 0.020261966 0.10898854
-0.02639507 0.10423627 -0.06046055 -0.052196104 -0.13243455 -0.025451338 -0.03954904 -0.17588927
0.07180747 -0.051249295 0.18798512 0.18226416 -0.13254218 0.021486478 0.07935926 -0.10888514
0.10119091 0.02188751 -0.18052049 -0.108541325 -0.16859615 -0.09359403 0.14744477 -0.021628205
0.07489536 0.17988238 0.15381211 0.133303 0.21477316 -0.025453568 0.06626801 -0.16321318
0.043103877 -0.076629885 -0.09351627 -0.16847719 -0.04139058 0.041416474 -0.048898526 0.051217757
0.17194155 0.10023847 -0.041774053 -0.0998026 -0.0062070866 0.009706784 -0.0935059 -0.067160524
0.16864708 0.013704308 0.18508556 0.030683987 0.21288642 -0.011688898 -0.05170388 0.041326676
0.035891224 0.10278899 -0.07728514 0.10642834 -0.14464729 0.10893937 0.0837021 -0.098328084
-0.06292292 0.07507283 0.07059892 -0.049531613 -0.084769115 -0.019432493 0.10383596 -0.04796187
-0.086554885 -0.13572927 -0.09172677 0.056113675 -0.13166705 -0.046954885 0.035540294 -0.107587636
-0.026068885 0.14001682 -0.050664257 0.08038376 -0.0061155586 -0.15200327 -0.04911752 -0.19864325
0.18020323 0.14749745 0.119430125 0.040733643 0.14348988 0.049710475 0.013763838 0.06758739
0.024675926 -0.032904472 -0.11305011 0.1340766 0.13504136 -0.052037124 0.06772757 0.14595483
0.02659081 -0.13343415 -0.0010588366 -0.066665925 -0.0009620333 0.12862979 -0.18401326 -0.063646704
0.0345251 -0.048616968 -0.13460521 -0.014026933 0.08915598 -0.18403777 -0.044335503 0.07000433
0.080599576 -0.021459458 0.16514732 0.13623337 -0.0966482 0.03891299 0.078914255 -0.02702386
0.15215047 0.020273093 0.15892422 -0.09036714 0.14001815 -0.15430462 0.07739069 -0.12191821
-0.13540193 0.09914669 -0.15849738 0.14202553 0.06373015 -0.049801305 0.029951997 0.1485241
0.03778126 0.021265287 0.18390128 0.13797113 -0.027180592 0.029311994 0.21453674 -0.09449748
00000000: 4daa e53d ff96 21be 35f1 6cbd 8a83 2cbd
00000010: 1222 db3d 954b c0bd 45f1 083b df0e 47b8
00000020: a579 02bd d82e ccbd e42d 0dbe 4166 393e
00000030: 8583 e8bd d3e7 1e3d 037c 23bd d722 513d
00000040: db6a 40be e51a 783d 0b5d 263e 343a 573e
00000050: cff0 f53d 55cc d238 5ef8 01be d382 b53d
00000060: c8bb d33d 1e18 5c3d ea5e 3fbd 0339 423e
00000070: 3d79 d83d 618e edbd ad1f 30be 5223 0bbc
00000080: 36a8 5f3c 740d d33c de77 f9bc 272d ba3c
00000090: 047a 99bd 1c70 babb 7bd5 34bd 3a92 12be
000000a0: 18bc acbd f084 20be 8ece 2e3e 4360 113e
000000b0: 7779 703d 22f2 eebc c30e 04be 4286 6a3d
000000c0: 0d84 be3d ce65 0a3e 523a 36be 1f0f 02be
000000d0: fbe4 abbd 50c6 bb3d 71c3 3b3e 8f8b 25be
000000e0: 2fe3 ea3d aa17 a23c 4845 21be 1bf6 febc
000000f0: 5942 053e 0484 a33b d0f2 413d 86c5 fcbd
00000100: 9cfb ebbb c54e a13d 512d f53d 35be 13bd
00000110: 60bc f93d 31ef e63d 43ef e43c 92ff f2bd
00000120: 551b 38be e89d e83d 8611 093e 3db1 323e
00000130: bfb4 31be 87c8 35be 8d6b bdbd 52f7 eabd
00000140: 2fe2 323c 6255 04bd 7353 2fbe 5c7d d8bd
00000150: b2dd c6bd 4225 aabd ad3d 363d d69b 88bd
00000160: 7d31 91bb c84d fe3d 36ab 873b 7647 2b3e
00000170: 43e2 a7bd c170 d9bc 3f14 a3bd cd15 6c3d
00000180: 3af8 323d 21be f03c af4b 63bd cbd3 c0bd
00000190: 074a 193e f216 3bbe 6cfc a53c 6235 df3d
000001a0: 793a d8bc d379 d53d 7ba5 77bd 95cb 55bd
000001b0: ec9c 07be 537f d0bc 2dfe 21bd 511c 34be
000001c0: cb0f 933d c8ea 51bd 2c7f 403e 75a3 3a3e
000001d0: 23b9 07be 6904 b03c 1c87 a23d 2cff debd
000001e0: 2e3d cf3d 6f4d b33c 5dda 38be ea4a debd
000001f0: 78a4 2cbe 3aae bfbd c3fb 163e a22d b1bc
00000200: bd62 993d 1633 383e ec80 1d3e 9580 083e
00000210: 7fed 5b3e 0084 d0bc 86b7 873d 5b21 27be
00000220: b18d 303d 21f0 9cbd 7585 bfbd 4985 2cbe
00000230: 2b89 29bd 52a4 293d d249 48bd b6c9 513d
00000240: 7211 303e d449 cd3d 451b 2bbd 4e65 ccbd
00000250: d164 cbbb 3409 1f3c 0580 bfbd 758b 89bd
00000260: d2b1 2c3e 0988 603c 1287 3d3e fc5c fb3c
00000270: e6fe 593e cb82 3fbc 73c7 53bd 2946 293d
00000280: ad02 133d 0983 d23d ac47 9ebd 1af7 d93d
00000290: 6b1e 14be 9b1b df3d 026c ab3d 3c60 c9bd
000002a0: bbdd 80bd c9bf 993d 2b96 903d a9e1 4abd
000002b0: 6e9b adbd e430 9fbc f3a7 d43d aa73 44bd
000002c0: b043 b1bd 9dfc 0abe 3fdb bbbd 74d7 653d
000002d0: bad3 06be c453 40bd b392 113d e856 dcbd
000002e0: 6a8e d5bc 9260 0f3e 5385 4fbd 3ea0 a43d
000002f0: 0665 c8bb bfa6 1bbe 742f 49bd 2369 4bbe
00000300: 3287 383e 9209 173e c897 f43d 52d8 263d
00000310: 03ef 123e 369d 4b3d b981 613c 426b 8a3d
00000320: 2b25 ca3c d7c6 06bd d186 e7bd 604b 093e
00000330: 4848 0a3e e124 55bd c1b4 8a3d 2f75 153e
00000340: f8d4 d93c f6a2 08be a9c8 8aba 2588 88bd
00000350: f630 7cba 87b7 033e f96d 3cbe 3459 82bd
00000360: 316a 0d3d 9622 47bd f3d5 09be 39d1 65bc
00000370: 6997 b63d 6674 3cbe 2599 35bd 6e5e 8f3d
00000380: 6411 a53d bfcb afbc 611c 293e c380 0b3e
00000390: 7eef c5bd 3a63 1f3d cc9d a13d 2461 ddbc
000003a0: 55cd 1b3e c213 a63c 08bd 223e 6812 b9bd
000003b0: eb60 0f3e 0802 1ebe 037f 9e3d 41b0 f9bd
000003c0: cea6 0abe 6b0d cb3d 234d 22be 246f 113e
000003d0: f484 823d 74fc 4bbd e45d f53c b416 183e
000003e0: 86c0 1a3d 8a34 ae3c 9e50 3c3e 4e48 0d3e
000003f0: d5a9 debc b51f f03c 85af 5b3e e587 c1bd

bn1.weight f4 [128]
0.99960834 0.99593776 1.0046605 0.99796987 0.9866428 1.0145746 1.0010686 0.99968654
1.0100989 1.0030458 1.00343 0.99593586 1.0014982 1.0010343 0.9855403 0.99481165
0.99996465 0.99859494 1.0012683 1.003903 1.0077488 0.9999156 1.0014913 1.0039339
1.0056862 1.0075225 1.0004352 1.0066024 0.9961581 0.99972755 0.99616057 1.0060325
1.00111 1.0018023 1.0001426 1.0089588 1.011033 1.0082921 0.9951546 0.99840313
0.9938432 0.98806626 1.0001245 1.0155274 1.0006387 1.0006672 0.99148095 1.0037985
0.99750125 0.98879004 0.9986354 1.005332 1.0011705 0.998907 1.0051925 1.0116311
1.0025593 0.9978909 0.9980534 1.0037894 0.9984243 1.001917 1.0033219 1.0115018
1.0103858 1.0033563 1.0050172 1.0147744 1.0049849 1.0073246 1.0032221 1.0025492
0.99166536 0.9978976 0.99503845 1.0162826 1.014198 1.0035919 1.0030109 0.9992606
0.9881007 1.0025247 1.0070153 0.9994763 0.98888445 1.0039171 0.988793 0.9905353
0.9926425 0.995787 1.0068172 0.98419523 0.99080306 1.0015867 0.99348813 0.99518484
0.9985865 1.0069541 1.0022238 1.0101744 1.0248904 0.99242866 0.9825256 0.99731624
1.0096151 1.0213252 0.9993764 0.9957372 1.0020233 0.99375486 0.9924044 1.0006287
1.0087557 1.0075707 1.0050868 1.0012668 1.0067555 1.0009329 1.0138991 1.0001485
1.0062168 1.0156041 0.982379 1.0022972 1.012618 1.0033706 0.9972766 1.0065752
00000000: 55e6 7f3f c7f5 7e3f b798 803f f47a 7f3f
00000010: 9f94 7c3f 95dd 813f 0423 803f 75eb 7f3f
00000020: ec4a 813f ce63 803f 6570 803f a7f5 7e3f
00000030: 1831 803f e421 803f 5e4c 7c3f faab 7e3f
00000040: affd 7f3f eba3 7f3f 8f29 803f e57f 803f
00000050: eafd 803f 78fa 7f3f de30 803f e880 803f
00000060: 53ba 803f 7ff6 803f 430e 803f 59d8 803f
00000070: 3804 7f3f 25ee 7f3f 6104 7f3f acc5 803f
00000080: 5f24 803f 0f3b 803f ac04 803f 9025 813f
00000090: 8869 813f b70f 813f 74c2 7e3f 5997 7f3f
000000a0: 826c 7e3f e9f1 7c3f 1404 803f cdfc 813f
000000b0: ee14 803f dd15 803f b2d1 7d3f 787c 803f
000000c0: 3e5c 7f3f 5821 7d3f 92a6 7f3f b8ae 803f
000000d0: 5b26 803f 5fb8 7f3f 26aa 803f 217d 813f
000000e0: dd53 803f c775 7f3f 6d80 7f3f 2c7c 803f
000000f0: bc98 7f3f d13e 803f da6c 803f e478 813f
00000100: 5254 813f fb6d 803f 67a4 803f 21e4 813f
00000110: 58a3 803f 03f0 803f 9569 803f 8853 803f
00000120: c8dd 7d3f 3876 7f3f d7ba 7e3f 8c15 823f
00000130: 3dd1 813f b375 803f a962 803f 8bcf 7f3f
00000140: 2bf4 7c3f bb52 803f e1e5 803f aedd 7f3f
00000150: 8827 7d3f 5b80 803f 8a21 7d3f b993 7d3f
00000160: d21d 7e3f e6eb 7e3f 63df 803f 38f4 7b3f
00000170: 45a5 7d3f fe33 803f 3d55 7e3f 6fc4 7e3f
00000180: 5da3 7f3f dfe3 803f df48 803f 654d 813f
00000190: 9c2f 833f ce0f 7e3f cc86 7b3f 1e50 7f3f
000001a0: 113b 813f c9ba 823f 22d7 7f3f a2e8 7e3f
000001b0: 4d42 803f b866 7e3f 370e 7e3f 9a14 803f
000001c0: e81e 813f 14f8 803f afa6 803f 8329 803f
000001d0: 5ddd 803f 921e 803f 72c7 813f de04 803f
000001e0: b6cb 803f 51ff 813f 317d 7b3f 464b 803f
000001f0: 779d 813f 736e 803f 854d 7f3f 75d7 803f

bn1.bias f4 [128]
-0.048422888 0.034583665 -0.006752904 0.019850992 0.045886304 -0.030104775 0.028865276 0.021775065
0.015738636 0.05216434 -0.020309942 -0.004375192 0.02573603 0.010721735 -0.06620487 -0.027335087
0.0016970127 -0.019252105 0.0512878 0.014023604 -0.03964149 0.028667817 -0.007762556 0.017840834
-0.023467297 0.026277196 0.011614078 -0.042536065 0.020064201 0.0017849334 0.044687103 -0.0063846167
0.050167043 -0.09403648 0.007368924 0.0030548112 -0.008475812 -0.014509193 -0.018845953 0.08767605
-0.0649786 -0.04249776 0.0429263 0.026990775 0.027965687 0.013263081 -0.03430449 0.0071901195
0.01636331 -0.012267475 0.022229394 -0.0075712595 0.02411865 0.026300734 -0.06741017 -0.0033043232
-0.021703554 -0.0100761065 0.011571473 0.0567363 -0.021398576 0.03240474 0.013359922 0.01556885
0.0018330755 0.004069772 0.021360759 -0.030264834 0.010092147 -0.016382918 0.032950148 0.03363037
0.075917594 -0.039689496 -0.036347214 0.029128894 0.06765989 0.03233043 -0.031417843 -0.012133818
0.061430965 0.01810907 0.020315168 0.026295027 -0.06262719 -0.017324967 0.05650455 -0.07867632
0.042030662 -0.0036336388 -0.0042183236 -0.03702282 0.0425441 -0.020825699 0.020772552 0.036735695
0.007406972 0.0025763956 -0.015891237 0.049045224 0.014991011 0.008004962 -0.023338648 -0.008893105
-0.022610733 0.037628863 -0.004908617 -0.022111932 0.015077749 -0.031296317 0.053763952 0.032979596
0.021634398 -0.0143397115 -0.003222783 0.029353958 0.016569851 0.009644005 0.024456492 0.0024099771
-0.007831173 0.039234128 -0.072777525 -0.0056359563 0.02684738 -0.0004870208 -0.041311175 0.0152755575
00000000: 1457 46bd 9aa7 0d3d 7747 ddbb 8c9e a23c
00000010: 47f3 3b3d 4a9e f6bc df76 ec3c 9f61 b23c
00000020: 50ee 803c 46aa 553d 0961 a6bc c55d 8fbb
00000030: 5ed4 d23c 37aa 2f3c 6b96 87bd d5ed dfbc
00000040: 4c6e de3a 97b6 9dbc 2813 523d 42c3 653c
00000050: 1d5f 22bd c5d8 ea3c 0a5d febb f126 923c
00000060: 7d3e c0bc 4643 d73c f948 3e3c 4c3a 2ebd
00000070: ae5d a43c 6df4 e93a d309 373d 0c36 d1bb
00000080: f57b 4d3d 3396 c0bd 0477 f13b 3a33 483b
00000090: 22de 0abc f7b7 6dbc d462 9abc 808f b33d
000000a0: 8013 85bd 2212 2ebd 7dd3 2f3d c21b dd3c
000000b0: 4c18 e53c 654d 593c dd82 0cbd 189b eb3b
000000c0: 590c 863c 85fd 48bc 6b1a b63c 5418 f8bb
000000d0: 7a94 c53c a374 d73c 580e 8abd 588d 58bb
000000e0: a7cb b1bc 4116 25bc 4796 3d3c 5364 683d
000000f0: 114c afbc d5ba 043d 93e3 5a3c 7d14 7f3c
00000100: cf43 f03a b95b 853b c2fc ae3c f5ed f7bc
00000110: 8859 253c 7835 86bc bcf6 063d 00c0 093d
00000120: af7a 9b3d 7491 22bd d1e0 14bd b89f ee3c
00000130: 4591 8a3d ea6c 043d ffaf 00bd eccc 46bc
00000140: 099f 7b3d 7959 943c ff6b a63c ab68 d73c
00000150: af42 80bd 17ed 8dbc 5171 673d 0d21 a1bd
00000160: 5828 2c3d 5822 6ebb dd39 8abb 3ea5 17bd
00000170: b942 2e3d a89a aabc 332b aa3c 2b78 163d
00000180: 2fb6 f23b bfd8 283b 572e 82bc a5e3 483d
00000190: db9c 753c 3e27 033c b130 bfbc 63b4 11bc
000001a0: 253a b9bc b920 1a3d 77d8 a0bb 1524 b5bc
000001b0: aa08 773c 9130 00bd 9737 5c3d 9d15 073d
000001c0: 9f3a b13c 1cf1 6abc 5435 53bb b677 f03c
000001d0: 7fbd 873c e401 1e3c fb58 c83c b5f0 1d3b
000001e0: 524e 00bc f7b3 203d 620c 95bd d4ad b8bb
000001f0: 09ef db3c d356 ffb9 e835 29bd 5546 7a3c

bn1.running_mean f4 [128]
-0.06328162 -0.100425616 0.19082181 -0.12883721 0.03782015 0.09922684 -0.17674854 -0.08444694
0.07538209 0.20022517 -0.04279954 0.14346857 -0.087960675 0.04116773 0.0038229232 -0.04236406
0.20057175 -0.03290669 0.1015344 0.0006016628 -0.1184928 -0.121956244 -0.17180099 0.08676844
-0.014022431 -0.13106403 -0.031340566 0.12165972 -0.099407665 0.04675062 -0.04615023 0.15209058
-0.04742712 0.037010465 0.055926118 0.08058239 0.18550742 0.1927667 0.06923921 -0.14795582
-0.0880747 -0.1050393 -0.10433385 0.026013406 0.15485893 0.15896207 0.053885445 0.033302616
-0.049015798 0.17504475 0.0826579 0.03065309 0.0821663 -0.004464917 0.16972056 -0.047630575
0.13369212 -0.038429342 -0.052229226 0.115836665 0.019242652 0.08801267 -0.22643013 0.0904989
-0.08967294 0.042084634 0.12542444 0.0043570697 0.1737518 -0.086897776 0.020545078 -0.01946354
-0.023716023 -0.0796579 0.06433113 0.13599272 -0.09780974 0.040797763 -0.12776272 0.20104167
0.067953005 0.020204743 0.13348232 -0.0142300725 -0.05343454 -0.013304519 -0.08195617 0.2524574
-0.119807586 0.018586759 0.09788866 0.16640572 -0.13669926 0.0024953892 -0.09235113 -0.1249488
0.014483352 0.032715462 -0.07136054 -0.118176065 0.014652314 -0.1785062 0.10130793 0.023980837
0.1082622 -0.10110505 -0.054237988 0.082963064 -0.0043755267 0.11358381 0.07898693 -0.032845836
-0.12740201 0.01465698 0.047506027 -0.047592968 0.08446049 0.076885514 0.101238064 -0.1433486
0.05963369 -0.09197199 0.12620871 0.11144792 -0.073579885 -0.088749714 -0.09971846 -0.086501434
00000000: cb99 81bd f2ab cdbd cb66 433e e7ed 03be
00000010: 4de9 1a3d 7137 cb3d 92fd 34be 84f2 acbd
00000020: ed61 9a3d d407 4d3e 924e 2fbd 6de9 123e
00000030: ba24 b4bd 7e9f 283d 028a 7a3b f085 2dbd
00000040: ae62 4d3e 2ac9 06bd 44f1 cf3d e8b8 1d3a
00000050: 5aac f2bd 32c4 f9bd 99ec 2fbe a7b3 b13d
00000060: 57be 65bc a635 06be f75e 00bd bb28 f93d
00000070: 3f96 cbbd 947d 3f3d 0608 3dbd a2bd 1b3e
00000080: f142 42bd 4998 173d c912 653d 6108 a53d
00000090: a8f5 3d3e a264 453e 49cd 8d3d bb81 17be
000000a0: 8260 b4bd d81e d7bd fcac d5bd 111a d53c
000000b0: 5793 1e3e f4c6 223e fcb6 5c3d 5368 083d
000000c0: cac4 48bd ee3e 333e 8c48 a93d 301c fb3c
000000d0: ce46 a83d 704e 92bb 3acb 2d3e 4718 43bd
000000e0: 96e6 083e 1668 1dbd 50ee 55bd c63b ed3d
000000f0: c4a2 9d3c fd3f b43d 4ddd 67be 7d57 b93d
00000100: 72a6 b7bd f060 2c3d 446f 003e c0c5 8e3b
00000110: feeb 313e 76f7 b1bd 274e a83c 0072 9fbc
00000120: 1b48 c2bc ae23 a3bd 0ac0 833d ad41 0b3e
00000130: 7950 c8bd 8e1b 273d 3bd4 02be dedd 4d3e
00000140: f22a 8b3d 6b84 a53c 97af 083e 4025 69bc
00000150: 2dde 5abd 32fb 59bc a3d8 a7bd 1942 813e
00000160: ae5d f5bd 4243 983c da79 c83d 4366 2a3e
00000170: e4fa 0bbe af89 233b 9722 bdbd 28e5 ffbd
00000180: 954b 6d3c a600 063d 7a25 92bd 4b06 f2bd
00000190: 4210 703c 54ca 36be 887a cf3d 7673 c43c
000001a0: 93b8 dd3d 2a10 cfbd a728 5ebd 8ae8 a93d
000001b0: 9460 8fbb a19e e83d e6c3 a13d 5b89 06bd
000001c0: ac75 02be d423 703c ae95 423d d8f0 42bd
000001d0: 9ff9 ac3d 2776 9d3d e755 cf3d fac9 12be
000001e0: 7542 743d d05b bcbd db3c 013e cf3e e43d
000001f0: 0db1 96bd 69c2 b5bd 3139 ccbd aa27 b1bd

bn1.running_var f4 [128]
0.58879006 0.52436626 0.5185595 0.47254258 0.4471673 0.46081692 0.5910578 0.560832
0.651651 0.83337116 0.6688559 0.6489257 0.4500366 0.71546334 0.37837878 0.30083585
0.72459286 0.56966716 0.85819924 0.5378066 0.47974375 0.6611064 0.6292862 0.46506196
0.38543844 0.43727162 0.57943547 0.44760108 0.53915876 0.37121055 0.4062637 0.5534873
0.6832673 0.3645587 0.64291453 0.47094578 0.7888872 0.85738 0.5307752 0.57583386
0.5297661 0.47478777 0.5948227 0.29974577 0.65763605 0.7398517 0.37275094 0.37147525
0.5469376 0.9061638 0.7755556 0.3070716 0.6458503 0.6158215 0.4346984 0.35918698
0.8030309 0.37334257 0.7575893 0.61293095 0.38932252 0.67913723 0.4859732 0.7796777
0.5372836 0.6066168 0.7829812 0.49602324 0.66347057 0.4834828 0.39752683 0.389849
0.5050803 0.6694918 0.5381315 0.66223294 0.40715384 0.45360237 0.5765924 1.0880238
0.47662252 0.4072963 0.60134035 0.3665217 0.6185861 0.5354139 0.47460392 0.59231997
0.43097517 0.43895355 0.53708166 0.7063848 0.6046102 0.5217346 0.58751655 0.8001736
0.24385042 0.5904751 0.7681096 0.5706895 0.44154721 0.85711366 0.5116409 0.49593082
0.5452351 0.42809066 0.7940647 1.0226194 0.4140774 1.1491526 0.61307603 0.6314769
0.3942148 0.5183283 0.46313366 0.44844043 0.6275935 0.37506533 0.91882896 0.8612153
0.86358756 0.42081478 0.8508376 0.6223278 0.47359025 0.59228224 0.6934076 0.44021553
00000000: f2ba 163f de3c 063f 51c0 043f 1af1 f13e
00000010: 1df3 e43e 32f0 eb3e 904f 173f b092 0f3f
00000020: 9ad2 263f d057 553f 243a 2b3f ff1f 263f
00000030: 326b e63e 9b28 373f ddba c13e 2807 9a3e
00000040: eb7e 393f b5d5 113f f2b2 5b3f b1ad 093f
00000050: f9a0 f53e 453e 293f e718 213f 9a1c ee3e
00000060: 3058 c53e 11e2 df3e e255 143f f82b e53e
00000070: 4f06 0a3f 4f0f be3e cc01 d03e 58b1 0d3f
00000080: 9bea 2e3f 70a7 ba3e 0c96 243f ce1f f13e
00000090: 83f4 493f 417d 5b3f e2e0 073f d969 133f
000000a0: c09e 073f 6217 f33e 4d46 183f 4778 993e
000000b0: d65a 283f ec66 3d3f 36d9 be3e 0132 be3e
000000c0: 1a04 0c3f 5afa 673f d08a 463f 7d38 9d3e
000000d0: 7256 253f 7aa6 1d3f ca90 de3e 5be7 b73e
000000e0: 6f93 4d3f c226 bf3e 5ff1 413f 0be9 1c3f
000000f0: 4855 c73e f0db 2d3f 7bd1 f83e f598 473f
00000100: 6b8b 093f 3d4b 1b3f 7571 483f c2f6 fd3e
00000110: 35d9 293f 0f8b f73e a388 cb3e 4a9a c73e
00000120: f14c 013f d163 2b3f fcc2 093f 1988 293f
00000130: 7876 d03e 923e e83e 8f9b 133f 5d44 8b3f
00000140: de07 f43e 2489 d03e 71f1 193f bba8 bb3e
00000150: a95b 1e3f e310 093f 49ff f23e 48a2 173f
00000160: c7a8 dc3e 85be e03e 2f7e 093f a2d5 343f
00000170: bcc7 1a3f 6690 053f 7c67 163f 2dd8 4c3f
00000180: edb3 793e 6029 173f d5a2 443f b518 123f
00000190: 7a12 e23e cd6b 5b3f e6fa 023f a5ea fd3e
000001a0: 8794 0b3f b32e db3e d347 4b3f 31e5 823f
000001b0: f401 d43e 6f17 933f 8df2 1c3f 78a8 213f
000001c0: 86d6 c93e 2ab1 043f db1f ed3e fc99 e53e
000001d0: f8a9 203f 9008 c03e 6038 6b3f 9b78 5c3f
000001e0: 1314 5d3f 0975 d73e 7ed0 593f e050 1f3f
000001f0: 6c7a f23e cf9f 173f 2983 313f ee63 e13e

hidden2.weight f4 [128, 128]
0.082279496 -0.007407651 -0.06723962 0.011883326 0.03271957 -0.0065932036 0.016230367 0.022505036
0.04036183 -0.02799155 -0.05387006 0.06524623 0.018677022 0.07755178 -0.053681128 -0.020797074
0.019478017 0.021302626 -0.03745844 -0.038339984 -0.02306133 -0.066583976 0.0034355365 -0.08080633
-0.026568146 -0.0012927767 -0.065675706 0.042442497 0.064916566 0.0013722411 0.02161713 -0.09249631
0.0054944023 0.035227373 -0.03658432 -0.00990502 -0.08511524 0.040049188 -0.03657707 -0.0070145456
0.04822171 0.0737661 -0.0010643405 0.08609196 0.023085361 -0.004548496 0.07081086 0.08772998
0.082349114 -0.04343322 -0.046696655 0.055384003 -0.044808377 -0.026964556 0.050424416 0.018948585
-0.0044280803 0.03507063 0.031264175 -0.0891329 0.06636123 0.030158134 0.051301718 -0.002021923
0.0066446606 -0.0029039723 -0.010850522 0.08386472 -0.06533845 -0.04559652 -0.07390595 -0.0044465293
-0.06896937 0.06622295 -0.03776923 0.07228484 0.0863889 -0.05614299 -0.066133425 -0.030581685
-0.047964122 0.03990818 0.060331836 -0.010610236 -0.07339227 0.039788563 0.0836038 0.02252136
-0.02364895 -0.061679304 -0.06671391 0.04209029 0.047197316 0.06173459 0.087833755 -0.0057243896
-0.009082427 0.017022382 -0.027283076 -0.026597658 -0.017275391 0.021737324 -0.05856301 -0.07915952
-0.09258983 -0.0017708706 0.017933287 0.062237 -0.058205616 -0.012878147 0.054137215 0.025399175
-0.042361513 -0.069123164 -0.06303405 -0.022171764 0.020256022 0.062388975 0.031919956 0.0628228
-0.03308347 0.006789319 -0.024545036 0.07920179 -0.0073844222 0.04834949 0.04292614 -0.007800534
0.028724475 -0.018189246 0.01946674 0.068622105 -0.0036357841 0.07180866 -0.060975064 -0.0037122513
0.024491021 0.015719604 0.11056125 -0.070776746 -0.051108073 -0.020461358 0.020899711 -0.049383022
-0.013207876 -0.06712526 -0.07975951 -0.020301728 0.022156615 0.07429703 -0.053475093 -0.08510162
0.024064228 0.07723328 0.009691706 0.074052855 0.049075242 -0.006280034 -0.06727461 0.01922605
0.078568265 -0.06894264 0.0714233 0.017403452 -0.028933724 0.029079832 -0.021013035 -0.053992257
0.052229457 0.055197563 -0.0091394875 -0.052432366 -0.04729077 -0.0581422 -0.08010239 -0.041569915
-0.053307228 -0.01879694 0.05167393 -0.06420638 0.021999862 -0.0029383618 -0.051950432 -0.07008969
-0.042697825 0.0057848254 0.05342318 -0.062245186 0.0051282733 -0.0910612 0.09564933 0.05259294
0.02419579 -0.060071133 0.014739907 0.08634924 -0.017382877 0.018865872 0.012617154 -0.011998208
-0.024416622 0.022409055 0.050536204 -0.018773977 -0.030912103 -0.09733339 -0.046633128 -0.04248592
-0.04275301 -0.07065571 -0.04927142 -0.039401 0.033022024 0.0373027 -0.079059675 0.057791255
-0.019616628 0.08193283 0.043382917 0.034894552 0.07003129 -0.0075916876 0.008076715 -0.074861236
-0.045125168 0.017217377 0.04909158 0.020975161 -0.07945684 -0.05353833 -0.02678006 0.011887574
0.015513951 0.032353286 -0.077747665 0.051048145 -0.09651447 -0.043800335 0.026214732 -0.07558801
-0.054434497 0.086531244 -0.06686957 0.021925522 -0.08021434 -0.08552227 -0.029520836 0.086056806
-0.0630652 0.052885912 -0.024392093 0.025906831 0.048753217 0.027504725 0.07983355 0.031872638
00000000: 2782 a83d e1bb f2bb edb4 89bd 48b2 423c
00000010: f504 063d cd0b d8bb 8cf5 843c 7b5c b83c
00000020: 7252 253d 894e e5bc daa6 5cbd d19f 853d
00000030: 8e00 993c 78d3 9e3d bee0 5bbd a05e aabc
00000040: 5d90 9f3c d882 ae3c 056e 19bd 630a 1dbd
00000050: 1deb bcbc 2e5d 88bd bd26 613b ca7d a5bd
00000060: 71a5 d9bc 6372 a9ba fc80 86bd 2fd8 2d3d
00000070: faf2 843d c5dc b33a 6816 b13c b56e bdbd
00000080: 630a b43b 944a 103d 71d9 15bd aa48 22bc
00000090: e650 aebd 9e0a 243d d6d1 15bd 46da e5bb
000000a0: 2184 453d ae12 973d 5781 8bba fb50 b03d
000000b0: 831d bd3c 8d0b 95bb 4905 913d c7ab b33d
000000c0: a7a6 a83d 08e7 31bd fe44 3fbd 56da 623d
000000d0: fd88 37bd c6e4 dcbc d589 4e3d 103a 9b3c
000000e0: 6e19 91bb 39a6 0f3d dd0e 003d 4f8b b6bd
000000f0: 66e8 873d 310e f73c c021 523d 3d82 04bb
00000100: 74bb d93b 9250 3ebb 63c6 31bc 44c1 ab3d
00000110: 2ad0 85bd 6bc3 3abd 015c 97bd 31b4 91bb
00000120: d03f 8dbd e69f 873d e8b3 1abd 130a 943d
00000130: aaec b03d 31f6 65bd f670 87bd 7186 fabc
00000140: 0776 44bd c276 233d 841e 773d 8ed6 2dbc
00000150: b04e 96bd 55f9 223d 7838 ab3d b77e b83c
00000160: 71bb c1bc 70a3 7cbd 4da1 88bd de66 2c3d
00000170: f951 413d 69dd 7c3d 2fe2 b33d a993 bbbb
00000180: 76ce 14bc 8672 8b3c c280 dfbc 55e3 d9bc
00000190: 1f85 8dbc 7912 b23c c4df 6fbd 631e a2bd
000001a0: bd9f bdbd 8f1c e8ba d4e8 923c 39ec 7e3d
000001b0: 0369 6ebd ddfe 52bc fcbe 5d3d ee11 d03c
000001c0: 4483 2dbd 7290 8dbd ff17 81bd 8fa1 b5bc
000001d0: f5ef a53c 958b 7f3d 80be 023d 3da9 803d
000001e0: 8882 07bd f078 de3b ac12 c9bc 8c34 a23d
000001f0: 06f9 f1bb 1d0a 463d 52d3 2f3d 9f9b ffbb
00000200: 974f eb3c 9d01 95bc b678 9f3c bf89 8c3d
00000210: 5646 6ebb 6b10 933d fdc0 79bd 3e49 73bb
00000220: 65a1 c83c 66c6 803c f06d e23d 66f3 90bd
00000230: b356 51bd 949e a7bc df35 ab3c da45 4abd
00000240: d965 58bc f878 89bd f458 a3bd cf4f a6bc
00000250: ca81 b53c 0b29 983d b308 5bbd c249 aebd
00000260: 5822 c53c 7b2c 9e3d f6c9 1e3c 06a9 973d
00000270: 1f03 493d bec8 cdbb 45c7 89bd f37f 9d3c
00000280: 66e8 a03d cd31 8dbd 6146 923d af91 8e3c
00000290: 6b06 edbc d438 ee3c 8723 acbc fc26 5dbd
000002a0: 8eee 553d d716 623d cabd 15bc 52c3 56bd
000002b0: f7b3 41bd 8426 6ebd b90c a4bd 3745 2abd
000002c0: ae58 5abd 0afc 99bc 0ba8 533d a27e 83bd
000002d0: 0e39 b43c 8891 40bb fac9 54bd 2f8b 8fbd
000002e0: eae3 2ebd a28e bd3b 44d2 5a3d cff4 7ebd
000002f0: 130b a83b 4b7e babd cce3 c33d b26b 573d
00000300: 4036 c63c 260d 76bd a77f 713c dfd7 b03d
00000310: 8966 8ebc 9a8c 9a3c 2eb8 4e3c 2294 44bc
00000320: 5e05 c8bc 3293 b73c 0dff 4e3d e2cb 99bc
00000330: 613b fdbc ba56 c7bd 6102 3fbd b705 2ebd
00000340: c81d 2fbd f1b3 90bd d4d0 49bd f162 21bd
00000350: 1a42 073d b7ca 183d 0aea a1bd 86b6 6c3d
00000360: 0db3 a0bc 66cc a73d 49b2 313d 97ed 0e3d
00000370: 916c 8f3d b1c3 f8bb 3354 043c d950 99bd
00000380: 2bd5 38bd 750b 8d3c 4114 493d 1ad4 ab3c
00000390: 45ba a2bd 024b 5bbd db61 dbbc 19c4 423c
000003a0: 3a2e 7e3c e184 043d 2b3a 9fbd dc17 513d
000003b0: 61a9 c5bd fb67 33bd 47c0 d63c e3cd 9abd
000003c0: b5f6 5ebd 4b37 b13d eaf2 88bd 279d b33c
000003d0: 6a47 a4bd 4d26 afbd aed5 f1bc 8d3e b03d
000003e0: 5428 81bd e69e 583d edd1 c7bc 903a d43c
000003f0: 74b1 473d 9751 e13c c67f a33d e28c 023d

bn2.weight f4 [128]
1.0010387 0.9932226 0.9980279 0.9864253 0.996977 0.99334276 0.99369705 0.98791844
0.99768597 0.98944044 1.0000288 0.99442255 0.9956433 0.99137753 0.99240005 0.9974654
0.9950733 0.9908305 0.9944137 0.99011827 1.0008543 0.996717 0.99360764 0.99809587
0.99216384 0.9980406 0.99159753 0.99842685 0.99618787 1.001334 1.0009197 0.9941354
0.99289244 0.9844965 0.9892013 0.99665654 0.9941754 0.9995861 0.98939604 0.99467593
0.99592173 0.99338746 0.99652433 0.9980459 0.9935181 0.99978805 1.0002943 0.98741525
0.9983321 0.9993331 0.99598724 0.99074125 0.9988079 0.998677 0.98870224 0.9850443
0.9954747 0.98420435 0.98903495 0.99171233 0.99715686 0.9990195 0.9927175 0.98943603
0.99755865 0.99670273 0.9978965 0.9973779 0.99654883 0.99164903 0.9951272 1.0002086
0.9991303 0.99477863 0.99381596 0.99351597 1.0027862 0.99061984 0.99184906 0.98729897
0.9916279 0.9905073 0.99964833 1.0001336 0.9934206 0.99922824 0.99464285 0.99710244
0.99275047 0.99311507 0.99750954 0.9957615 0.9971463 0.9932873 0.99609476 0.9905883
1.0022202 0.9938771 0.99420375 0.9982802 0.98997515 0.9856674 0.9936095 0.9981415
0.99963635 0.99892795 0.9958073 1.001738 0.9982097 0.9974516 0.9992912 0.9897483
0.9990496 0.99765 0.99614114 0.99637836 0.99868155 0.9955578 0.9917909 0.9992904
0.9858191 0.9930427 0.99706364 0.9812604 1.000282 1.00053 1.0011348 0.9802415
00000000: 0922 803f d643 7e3f c27e 7f3f 5e86 7c3f
00000010: e239 7f3f b64b 7e3f ee62 7e3f 39e8 7c3f
00000020: 5968 7f3f f84b 7d3f f200 803f 7a92 7e3f
00000030: 7be2 7e3f ebca 7d3f ee0d 7e3f e459 7f3f
00000040: 20bd 7e3f 11a7 7d3f e591 7e3f 6478 7d3f
00000050: fe1b 803f d828 7f3f 125d 7e3f 3683 7f3f
00000060: 73fe 7d3f 977f 7f3f 56d9 7d3f e798 7f3f
00000070: 2b06 7f3f b62b 803f 231e 803f a87f 7e3f
00000080: 332e 7e3f f607 7c3f 4c3c 7d3f e224 7f3f
00000090: 4782 7e3f e0e4 7f3f 0f49 7d3f 15a3 7e3f
000000a0: baf4 7e3f a44e 7e3f 381c 7f3f f07f 7f3f
000000b0: 3457 7e3f 1cf2 7f3f a509 803f 3fc7 7c3f
000000c0: b192 7f3f 4bd4 7f3f 05f9 7e3f 38a1 7d3f
000000d0: e0b1 7f3f 4ca9 7f3f 971b 7d3f dd2b 7c3f
000000e0: 6ed7 7e3f d1f4 7b3f 6531 7d3f dce0 7d3f
000000f0: ac45 7f3f bebf 7f3f bc22 7e3f ae4b 7d3f
00000100: 0160 7f3f e927 7f3f 2576 7f3f 2854 7f3f
00000110: d31d 7f3f b6dc 7d3f a8c0 7e3f d606 803f
00000120: 01c7 7f3f d0a9 7e3f b96a 7e3f 1057 7e3f
00000130: 4c5b 803f 4399 7d3f d2e9 7d3f a0bf 7c3f
00000140: 53db 7d3f e391 7d3f f4e8 7f3f 6104 803f
00000150: d050 7e3f 6ccd 7f3f eaa0 7e3f 1b42 7f3f
00000160: e524 7e3f ca3c 7e3f c95c 7f3f 3aea 7e3f
00000170: fb44 7f3f 1448 7e3f 1100 7f3f 3297 7d3f
00000180: c048 803f bb6e 7e3f 2384 7e3f 4b8f 7f3f
00000190: 036f 7d3f b354 7c3f 315d 7e3f 3486 7f3f
000001a0: 2be8 7f3f beb9 7f3f 3aed 7e3f f338 803f
000001b0: ac8a 7f3f fd58 7f3f 8cd1 7f3f 2560 7d3f
000001c0: b7c1 7f3f fe65 7f3f 1b03 7f3f a712 7f3f
000001d0: 98a9 7f3f e0dc 7e3f 02e6 7d3f 7fd1 7f3f
000001e0: a45e 7c3f 0c38 7e3f 903f 7f3f e233 7b3f
000001f0: 3e09 803f 5e11 803f 2f25 803f 1bf1 7a3f

bn2.bias f4 [128]
0.0012699222 -0.034071185 -0.012734592 0.03828841 0.008598642 0.0324976 -0.01275792 -0.028281435
-0.014223943 0.02640146 0.0062737833 0.024160137 0.019043978 0.034392525 0.019298526 -0.013198936
-0.017876068 0.026182525 -0.015551823 -0.038578525 0.008751801 -0.013662205 -0.013978978 -0.009566178
0.020202361 -0.013807632 -0.025561683 -0.014447747 -0.009358482 -0.0036685942 0.010218959 -0.01880401
0.025394503 0.03116964 0.028198859 -0.011607994 0.024618503 -0.007548138 0.038263485 0.0187465
0.015000382 -0.020292649 0.010577488 -0.0077932267 0.020600775 0.0046749855 -0.0031079957 0.02165647
-0.014096047 -0.010943237 0.0059596784 -0.01913228 0.0026249634 -0.014687787 -0.023944069 -0.035715677
0.017276682 0.028845629 0.0367186 0.030412003 -0.0069092456 -0.024793865 -0.023271963 0.033448797
-0.029966256 -0.024993693 -0.00883477 -0.0158067 -0.02934646 -0.022119097 -0.021429602 -0.005709121
-0.01034743 0.00807814 -0.009626988 0.024814235 -0.0048507275 -0.038038168 0.024365637 -0.029986769
-0.026949843 0.026753698 -0.010767601 -0.013351298 -0.02775138 -0.0020380488 -0.014250459 0.023320578
-0.028077967 -0.026196174 0.014002917 -0.020501833 0.010080597 0.0327556 0.010863464 0.02123503
-0.0047186664 0.013567234 0.021914098 0.012785798 0.021873059 -0.032856 -0.019274652 -0.007939868
0.0083340295 0.0062981728 -0.014826388 0.0044088527 -0.0136036975 0.0098737 -0.0018716663 -0.02279244
0.005703543 -0.017083831 -0.009864871 0.017800184 0.01085423 0.017086485 0.018044837 -0.006779027
-0.036470894 -0.017784523 0.01990252 -0.03824753 0.011446667 0.009765364 -0.0043906616 -0.050796565
00000000: 8573 a63a 3a8e 0bbd c0a4 50bc 4fd4 1c3d
00000010: 52e1 0c3c 341c 053d 9806 51bc 78ae e7bc
00000020: 8b0b 69bc e047 d83c 4f94 cd3b 7beb c53c
00000030: 1e02 9c3c 2ddf 0c3d f117 9e3c 5a40 58bc
00000040: d570 92bc bc7c d63c 13cd 7ebc 8404 1ebd
00000050: b763 0f3c 71d7 5fbc 1508 65bc 75bb 1cbc
00000060: 6c7f a53c 6839 62bc bc66 d1bc 3eb6 6cbc
00000070: 5254 19bc cc6c 70bb 6c6d 273c de0a 9abc
00000080: 2208 d03c 7957 ff3c 4b01 e73c 752f 3ebc
00000090: beac c93c 5f56 f7bb 2cba 1c3d 4392 993c
000000a0: 2ac4 753c c53c a6bc 334d 2d3c 535e ffbb
000000b0: f5c2 a83c 9f30 993b 84af 4bbb e968 b13c
000000c0: 1bf3 66bc 434b 33bc 6849 c33b 4dbb 9cbc
000000d0: 9407 2c3b 0ba5 70bc 5a26 c4bc 9a4a 12bd
000000e0: d487 8d3c ab4d ec3c 3e66 163d 9822 f93c
000000f0: f466 e2bb 811c cbbc d8a4 bebc 9b01 093d
00000100: cb7b f5bc 93bf ccbc b6bf 10bc 0d7d 81bc
00000110: fd67 f0bc 1c33 b5bc 228d afbc 9413 bbbb
00000120: 4488 29bc 2d5a 043c 84ba 1dbc 3947 cb3c
00000130: daf2 9ebb e9cd 1bbd 729a c73c d0a6 f5bc
00000140: ebc5 dcbc 922a db3c 986a 30bc 67bf 5abc
00000150: dd56 e3bc c990 05bb c27a 69bc cc0a bf3c
00000160: c403 e6bc 5c99 d6bc 7e6c 653c 76f3 a7bc
00000170: 1729 253c bc2a 063d acfc 313c 16f5 ad3c
00000180: 0b9f 9abb 1b49 5e3c 3285 b33c 867b 513c
00000190: 212f b33c 0394 06bd e0e5 9dbc 3816 02bc
000001a0: 748b 083c e760 ce3b 61ea 72bc 2378 903b
000001b0: 0be2 5ebc 4dc5 213c b352 f5ba 36b7 babc
000001c0: c9e4 ba3b 64f3 8bbc 45a0 21bc b1d1 913c
000001d0: f1d5 313c f5f8 8b3c c4d2 933c 9a22 debb
000001e0: 8162 15bd d9b0 91bc 9c0a a33c 71a9 1cbd
000001f0: cd8a 3b3c e8fe 1f3c 8adf 8fbb 0f10 50bd

bn2.running_mean f4 [128]
0.02450599 -0.02222727 -0.057846 0.085626304 0.0067380206 0.0791064 -0.048260108 -0.05111616
0.005536183 0.022942785 0.0128384065 0.0807121 0.018116264 0.06247942 0.06911809 -0.013420499
-0.040809326 0.045184422 -0.029213792 -0.05841097 0.012288428 0.007972937 -0.06929475 -0.050180644
0.033857815 -0.029599449 -0.04353533 -0.037106507 -0.038714834 -0.011807562 0.045971166 -0.07926165
0.053239334 -0.003033744 0.0012083018 0.022515003 0.09611962 0.0019835792 0.09809884 0.022278216
0.04621262 -0.040898573 0.053324033 -0.0326665 0.0461079 0.07341507 -0.036931463 0.0356769
0.0044619706 -0.05810062 0.0333078 0.0022277515 0.04516244 -0.0758219 0.0038498023 -0.017829504
0.016192539 0.034357443 0.0065532713 0.06090145 0.0022407598 -0.006227841 -0.017435286 0.07844287
-0.079968296 -0.06509882 -0.062894136 -0.012832723 -0.03751645 -0.0535916 -0.03258023 -0.049996994
0.0068420055 -0.0042901975 -0.045816433 0.078720324 0.041602 -0.07485129 0.033405315 -0.026390163
-0.071508005 0.03984326 -0.054464735 -0.05238139 -0.052198555 -0.00041573704 -0.021446452 -0.011372084
-0.06053588 -0.005632937 0.043556083 -0.035346076 0.05331658 0.09081629 -0.0052415747 0.080477
-0.08814669 0.028978584 -0.00064689317 -0.004684042 0.040758066 -0.060208246 -0.03308271 -0.035300396
0.07077521 0.0014572766 -0.027446017 0.032245602 -0.02064984 0.06171982 -0.02262436 -0.025474653
0.00525895 -0.06000952 -0.01697418 0.07177428 0.044938143 0.040088303 0.048900645 -0.043320164
-0.02765555 -0.018485717 0.011633869 -0.048371166 0.05181922 0.03783018 -0.035680223 -0.062004454
00000000: c9c0 c83c f715 b6bc edef 6cbd d85c af3d
00000010: 9dca dc3b 8902 a23d 64ac 45bd 2e5f 51bd
00000020: de68 b53b 82f2 bb3c 2e58 523c 634c a53d
00000030: 8f68 943c 6cea 7f3d c98d 8d3d a7e1 5bbc
00000040: ae27 27bd 4d13 393d c351 efbc 5740 6fbd
00000050: 6755 493c eca0 023c 68ea 8dbd 388a 4dbd
00000060: 7eae 0a3d 8b7a f2bc 1a52 32bd fefc 17bd
00000070: 7293 1ebd 8174 41bc 434c 3c3d ef53 a2bd
00000080: 7d11 5a3d c7d1 46bb e15f 9e3a 6271 b83c
00000090: 5dda c43d f0fe 013b 0be8 c83d ce80 b63c
000000a0: 7249 3d3d 4385 27bd 4d6a 5a3d 4fcd 05bd
000000b0: a3db 3c3d a45a 963d 7245 17bd f121 123d
000000c0: b935 923b eafa 6dbd c26d 083d 78ff 113b
000000d0: 40fc 383d 8348 9bbd f74c 7c3b 2e0f 92bc
000000e0: 37a6 843c 64ba 0c3d d3bc d63b cd73 793d
000000f0: b6d9 123b eb12 ccbb 72d4 8ebc a8a6 a03d
00000100: 6bc6 a3bd 8852 85bd a4ce 80bd 5740 52bc
00000110: d9aa 19bd de82 5bbd d972 05bd a6c9 4cbd
00000120: e732 e03b c994 8cbb 03aa 3bbd 1f38 a13d
00000130: dc66 2a3d a24b 99bd 03d4 083d 2f30 d8bc
00000140: ca72 92bd b032 233d 6a16 5fbd de8d 56bd
00000150: 27ce 55bd 48f7 d9b9 78b0 afbc fa51 3abc
00000160: 79f4 77bd 8094 b8bb dd67 323d 0cc7 10bd
00000170: 7c62 5a3d e4fd b93d 84c1 abbb 20d1 a43d
00000180: 4086 b4bd 7f64 ed3c 4494 29ba 987c 99bb
00000190: eef1 263d ec9c 76bd bc81 07bd 2697 10bd
000001a0: 98f2 903d 1702 bf3a 78d6 e0bc f713 043d
000001b0: da29 a9bc eccd 7c3d b956 b9bc 38b0 d0bc
000001c0: 4553 ac3b 8bcc 75bd 6f0d 8bbc 65fe 923d
000001d0: 0f11 383d a233 243d 0b4c 483d 7c70 31bd
000001e0: e48d e2bc 5c6f 97bc fc9b 3e3c d820 46bd
000001f0: 6440 543d d2f3 1a3d 6d25 12bd 62f8 7dbd

bn2.running_var f4 [128]
0.20553896 0.27261195 0.2563362 0.26667836 0.21109581 0.34101367 0.15172796 0.28758186
0.22843654 0.20602633 0.16627558 0.23828706 0.15861385 0.2647669 0.24041906 0.20506813
0.16205944 0.23463976 0.21121596 0.31622583 0.20424853 0.162216 0.2146936 0.24855927
0.1978808 0.29286125 0.25200626 0.23351513 0.23541623 0.21926959 0.21494068 0.3017431
0.2843721 0.26920208 0.24795216 0.24543256 0.31378773 0.17434627 0.28863367 0.29643062
0.1730751 0.21198314 0.284023 0.18257758 0.2609287 0.2856626 0.25368562 0.17832509
0.29368845 0.27860928 0.21722162 0.18821177 0.23683324 0.29669127 0.18865691 0.2427634
0.29218355 0.2314994 0.24831526 0.20369121 0.21723212 0.30015454 0.19369957 0.20328294
0.32173464 0.3088813 0.19457586 0.28971708 0.32780075 0.22376555 0.24464653 0.24813688
0.19922689 0.20072387 0.18493785 0.37190568 0.29676098 0.35002223 0.2000034 0.24874462
0.36168104 0.20004877 0.23120493 0.24455918 0.23247336 0.23645203 0.23182112 0.28068787
0.26433924 0.32406273 0.23327161 0.23489413 0.25677687 0.35457447 0.2090853 0.3466996
0.2538604 0.291596 0.27227676 0.23461606 0.18588978 0.29426536 0.26987872 0.24284463
0.3328328 0.16963084 0.18125948 0.233697 0.27812165 0.21653992 0.16518104 0.21920422
0.21953052 0.22077055 0.22975707 0.23548247 0.23362426 0.19023074 0.21070907 0.23502004
0.26989418 0.18941762 0.23269215 0.28771034 0.3210769 0.25113007 0.28147003 0.29880264
00000000: ce78 523e cb93 8b3e 803e 833e 118a 883e
00000010: 8029 583e 5899 ae3e 935e 1b3e ee3d 933e
00000020: 45eb 693e 91f8 523e 2544 2a3e 8601 743e
00000030: ab6b 223e 878f 873e 6a30 763e 61fd 513e
00000040: e9f2 253e 6845 703e ff48 583e 5ae8 a13e
00000050: 8726 513e f31b 263e a4d8 5b3e 5286 7e3e
00000060: 44a1 4a3e e9f1 953e f706 813e 971e 6f3e
00000070: f410 713e 3588 603e 6919 5c3e 127e 9a3e
00000080: 3899 913e dbd4 893e 2ce7 7d3e ac52 7b3e
00000090: c9a8 a03e d487 323e cbc7 933e c1c5 973e
000000a0: 993a 313e 1c12 593e 766b 913e 9ef5 3a3e
000000b0: 7298 853e 5e42 923e 15e3 813e da9a 363e
000000c0: 555e 963e e0a5 8e3e 586f 5e3e 96ba 403e
000000d0: 6a84 723e ebe7 973e 472f 413e f896 783e
000000e0: 1599 953e 2e0e 6d3e 5b46 7e3e 6e94 503e
000000f0: 1972 5e3e dbad 993e 2e59 463e 6729 503e
00000100: 67ba a43e b125 9e3e e53e 473e cc55 943e
00000110: 80d5 a73e cc22 653e 9f84 7a3e 9817 7e3e
00000120: 2202 4c3e 8f8a 4d3e 5960 3d3e 6c6a be3e
00000130: 0ef1 973e 1d36 b33e b1cd 4c3e e9b6 7e3e
00000140: 422e b93e 96d9 4c3e fcc0 6c3e b96d 7a3e
00000150: 7f0d 6e3e 7b20 723e 8462 6d3e 52b6 8f3e
00000160: 7957 873e 8deb a53e c1de 6e3e 1688 703e
00000170: 4278 833e c98a b53e 751a 563e 9c82 b13e
00000180: fef9 813e 124c 953e dc67 8b3e 313f 703e
00000190: e459 3e3e f3a9 963e 8b2d 8a3e 43ac 783e
000001a0: 1069 aa3e b5b3 2d3e 169c 393e 444e 6f3e
000001b0: f665 8e3e a4bc 5d3e 3825 293e 1277 603e
000001c0: 9ccc 603e ad11 623e 7045 6b3e 5122 713e
000001d0: 333b 6f3e d9cb 423e 1ec4 573e 18a9 703e
000001e0: 922f 8a3e b1f6 413e da46 6e3e c54e 933e
000001f0: 3164 a43e 1f94 803e d71c 903e a9fc 983e

hidden3.weight f4 [16, 128]
-0.086315155 -0.07569071 -0.029531986 -0.042924393 0.06144955 -0.05050051 -0.03341498 0.05216093
-0.070332 0.048649196 -0.09246573 -0.063309185 -0.06873845 -0.034537736 0.061536517 0.015684
0.001210958 0.074831896 -0.071610816 -0.02272152 0.043288708 0.03180484 -0.04391624 0.07443824
-0.0712271 0.056850985 0.05912182 0.06261417 0.055421628 -0.038887482 -0.03850609 -0.046897072
0.011993054 0.027496887 0.023701495 -0.041768983 -0.038292624 0.00878691 0.008752791 0.09827567
0.006991051 0.0009869721 -0.09257199 0.02611005 -0.010674899 -0.027307812 0.060577687 -0.027782323
-0.01944291 0.008583169 0.0479201 0.0062085935 0.044364035 0.07894872 0.018068349 0.016616408
-0.0658691 -0.03373984 -0.0754538 0.0001303851 -0.033145994 -0.016144365 -0.070048235 0.008605851
0.043944787 -0.059512075 0.06818427 -0.06904756 -0.060728613 0.068419814 0.0033412876 -0.06300419
0.073608875 -0.011476904 -0.048691306 0.04582495 -0.097913876 -0.0031531225 -0.025345212 0.0044134487
0.0533906 -0.055501044 0.050151948 0.00037455378 -0.05446685 0.06184654 -0.07424832 0.0018368622
0.04825175 -0.04626277 -0.07893798 0.033930402 0.001196288 0.035427064 0.01673345 -0.07753677
0.08112922 -0.017842017 -0.06007482 -0.07207145 -0.045317527 -0.06326986 -0.071489476 0.060425397
0.032914966 0.02447567 -0.0005261672 0.05041739 -0.035125766 -0.07960954 -0.012437579 -0.0017783424
-0.050900858 -0.040684782 0.01647998 -0.053509627 -0.006452697 0.012599341 -0.071894094 0.09689172
0.035551276 0.02610907 -0.07800584 -0.006971044 -0.048887502 -0.040117797 0.008965712 0.030060051
0.032829814 0.002201515 0.08353274 -0.07919181 -0.02515862 -0.06995125 0.0364245 0.011142354
0.0237566 -0.00706034 -0.024736987 0.05453822 -0.10289242 -0.035721052 -0.04541095 0.0042782985
0.021848448 -0.011520554 0.007046556 -0.02492894 -0.059316862 0.02421186 0.05162703 -0.025544178
-0.07168908 0.1003622 0.05116811 0.02902668 -0.00068698375 0.015243249 0.03528831 -0.08199656
-0.08321184 -0.09264275 -0.123246506 0.08128791 -0.061850417 0.008386845 0.062101573 -0.0808325
-0.0043930826 -0.07245536 0.02809831 -0.008593027 0.07329867 0.049928535 -0.028459389 -0.079143345
0.109521195 -0.045356493 -0.08046219 0.07018626 -0.027007546 0.0064268024 0.028786384 -0.03435007
-0.037430268 0.03482092 0.09741359 -0.019193286 -0.017953698 0.004707566 0.12367218 -0.076167844
-0.0634696 0.07125841 -0.059718624 0.049855664 0.09014581 -0.0172413 -0.03799322 0.021571638
-0.040182546 -0.017188175 0.022939185 0.016509974 0.07935997 -0.03642748 -0.041198287 -0.0065738535
-0.048464768 -0.038231954 -0.072612114 -0.050856452 -0.027662609 0.014331303 0.053927824 -0.021428524
0.039489005 0.05198919 0.013848186 0.072918534 -0.11199426 -0.057846386 0.051089417 -0.015169961
-0.034561746 -0.07052434 0.066968136 -0.068647474 0.007932003 0.069825806 0.05268681 0.012190241
0.0025894202 0.01023191 -0.034566518 0.05649978 0.011621724 0.034854673 0.0058871745 -0.054928325
0.1086759 -0.00025368037 -0.037125908 0.039127532 0.020220807 -0.042971835 -0.07751325 0.0024817504
-0.03107729 0.0075792223 0.045176767 0.032056145 -0.03405499 -0.0035507968 0.120863184 -0.0059363153
00000000: 00c6 b0bd bb03 9bbd 10ed f1bc 7dd1 2fbd
00000010: 86b2 7b3d 9fd9 4ebd 25de 08bd b3a6 553d
00000020: 390a 90bd 6144 473d ac5e bdbd 3fa8 81bd
00000030: bfc6 8cbd 7177 0dbd b70d 7c3d bb7b 803c
00000040: 02b9 9e3a 7741 993d b1a8 92bd 7b22 babc
00000050: 804f 313d cb45 023d 84e1 33bd 1373 983d
00000060: 84df 91bd 94dc 683d b929 723d dc3b 803d
00000070: ca01 633d 7b48 1fbd 90b8 1dbd 2517 40bd
00000080: 847e 443c 2741 e13c a329 c23c f415 2bbd
00000090: bad8 1cbd f9f6 0f3c de67 0f3c c144 c93d
000000a0: 3015 e53b 4a5d 813a 6296 bdbd bee4 d53c
000000b0: c6e5 2ebc a2b4 dfbc 4f20 783d c197 e3bc
000000c0: bd46 9fbc 6ca0 0c3c de47 443d 7571 cb3b
000000d0: 10b7 353d deaf a13d 1304 943c 221f 883c
000000e0: 61e6 86bd c932 0abd 8687 9abd fcb7 0839
000000f0: 18c4 07bd 3041 84bc 7375 8fbd 8eff 0c3c
00000100: 73ff 333d efc2 73bd 32a4 8b3d cf68 8dbd
00000110: 91be 78bd b01f 8c3d 81f9 5a3b 5708 81bd
00000120: 40c0 963d a009 3cbc 8970 47bd f1b2 3b3d
00000130: 1287 c8bd 9ea4 4ebb c3a0 cfbc b19e 903b
00000140: 1ab0 5a3d 1055 63bd 216c 4d3d c25f c439
00000150: a218 5fbd cc52 7d3d 810f 98bd dec2 f03a
00000160: a1a3 453d 087e 3dbd 3caa a1bd 9bfa 0a3d
00000170: c4cc 9c3a f81b 113d 9714 893c 99cb 9ebd
00000180: 1427 a63d 6c29 92bc 0411 76bd 329a 93bd
00000190: df9e 39bd a193 81bd 1369 92bd 9f80 773d
000001a0: d8d1 063d 3381 c83c 7cee 09ba 7782 4e3d
000001b0: 09e0 0fbd 540a a3bd fdc6 4bbc 4517 e9ba
000001c0: 6b7d 50bd 16a5 26bd 0601 873c e92c 5bbd
000001d0: 2571 d3bb 776d 4e3c 363d 93bd 2b6f c63d
000001e0: 379e 113d b0e2 d53c 87c1 9fbd 5b6d e4bb
000001f0: 433e 48bd 8f52 24bd ece4 123c 7f40 f63c
00000200: 8e78 063d 4b47 103b 3713 ab3d 512f a2bd
00000210: 7319 cebc 9a42 8fbd db31 153d 6c8e 363c
00000220: 349d c23c 6d5a e7bb 39a5 cabc 7863 5f3d
00000230: 43b9 d2bd 3d50 12bd d500 3abd f830 8c3b
00000240: 84fb b23c b5c0 3cbc cce6 e63b c737 ccbc
00000250: 3df6 72bd f357 c63c dd76 533d 0642 d1bc
00000260: b9d1 92bd b28a cd3d a795 513d 5cc9 ed3c
00000270: b316 34ba d2be 793c 7a8a 103d d0ed a7bd
00000280: f86a aabd 7bbb bdbd aa68 fcbd 477a a63d
00000290: dd56 7dbd fa68 093c 385e 7e3d 828b a5bd
000002a0: d9f3 8fbb 7a63 94bd 6d2e e63c c4c9 0cbc
000002b0: 9d1d 963d dd81 4c3d aa23 e9bc e815 a2bd
000002c0: a64c e03d bbc7 39bd 5cc9 a4bd d0bd 8f3d
000002d0: ee3e ddbc ed97 d23b 6cd1 eb3c a9b2 0cbd
000002e0: 7b50 19bd 62a0 0e3d c780 c73d 3d3b 9dbc
000002f0: a213 93bc ed41 9a3b d747 fd3d e3fd 9bbd
00000300: 5afc 81bd eeef 913d 849b 74bd 7435 4c3d
00000310: 5e9e b83d a03d 8dbc c79e 1bbd 01b7 b03c
00000320: 7496 24bd 37ce 8cbc f5ea bb3c ed3f 873c
00000330: 7b87 a23d fb34 15bd 89bf 28bd 7b69 d7bb
00000340: fe82 46bd 1c99 1cbd a9b5 94bd db4e 50bd
00000350: b29c e2bc d7cd 6a3c 6ce3 5c3d df8a afbc
00000360: 39bf 213d 9ef2 543d 80e3 623c 5056 953d
00000370: 3f5d e5bd 55f0 6cbd 2343 513d 6e8b 78bc
00000380: 9e90 0dbd 116f 90bd 9726 893d 0c97 8cbd
00000390: 3bf5 013c d500 8f3d 20ce 573d 94b9 473c
000003a0: 43b3 293b bea3 273c 9f95 0dbd 506c 673d
000003b0: 0b69 3e3c c6c3 0e3d 33e9 c03b 86fc 60bd
000003c0: 7891 de3d 6700 85b9 5611 18bd 3144 203d
000003d0: 1ba6 a53c 3c03 30bd 44bf 9ebd dda4 223b
000003e0: cd95 febc 205b f83b 460b 393d 4e4d 033d
000003f0: 3f7d 0bbd 7cb4 68bb 1e87 f73d 6c85 c2bb

bn3.weight f4 [16]
0.989397 0.9064783 0.9909028 0.9811913 0.9343535 0.98655117 0.8896141 0.9776849
0.94470954 0.95691067 0.88001865 0.9322639 0.95725244 0.9694928 0.99418896 0.9964974
00000000: 1f49 7d3f f60e 683f ceab 7d3f 5a2f 7b3f
00000010: ca31 6f3f 9e8e 7c3f c0bd 633f 8f49 7a3f
00000020: 7cd8 713f 19f8 743f e748 613f d9a8 6e3f
00000030: 7f0e 753f ae30 783f 2b83 7e3f 741a 7f3f

bn3.bias f4 [16]
-0.10807199 -0.37122598 -0.09811505 0.23919742 0.2639856 0.09006891 0.4352988 0.16231577
-0.40410754 -0.39771348 0.3943567 0.58320856 -0.24826618 -0.16664581 0.09798236 0.013429967
00000000: d954 ddbd 5511 bebe 8bf0 c8bd 2bf0 743e
00000010: 1f29 873e 0c76 b83d 7cdf de3e 1b36 263e
00000020: 2fe7 cebe 1aa1 cbbe 1fe9 c93e 284d 153f
00000030: 7d39 7ebe 33a5 2abe faaa c83d 5d09 5c3c

bn3.running_mean f4 [16]
-0.040890303 -0.00773592 -0.048284095 0.003768516 -0.0014054553 0.03584689 0.092185736 -0.021488246
0.015388641 -0.1196633 -0.020633675 0.12808411 0.01952075 -0.032509618 0.013011176 0.0027004578
00000000: 977c 27bd 9a7d fdbb 8bc5 45bd 35f9 763b
00000010: 4137 b8ba 30d4 123d e0cb bc3d 1e08 b0bc
00000020: a320 7c3c 0812 f5bd f407 a9bc 7b28 033e
00000030: fbe9 9f3c ce28 05bd d42c 553c 2afa 303b

bn3.running_var f4 [16]
0.55477226 1.0245034 0.5213885 0.9990523 0.6502751 0.36233804 1.1406668 0.5182414
1.2817966 1.7551473 0.7853134 1.9506631 0.56176263 0.4309367 0.29396975 0.22057083
00000000: 8e05 0e3f ed22 833f b779 053f e4c1 7f3f
00000010: 6e78 263f 5f84 b93e 5f01 923f 78ab 043f
00000020: e911 a43f aba8 e03f 4d0a 493f 54af f93f
00000030: adcf 0f3f bca3 dc3e 3483 963e 52dd 613e

output.weight f4 [1, 16]
0.12168436 0.41122615 0.096523724 -0.3629134 -0.2763911 -0.10600033 -0.45538935 -0.18520638
0.53088915 0.5061222 -0.407989 -0.76423645 0.27577564 0.1382503 -0.024152925 0.024345644
00000000: a635 f93d 3c8c d23e 3bae c53d c9cf b9be
00000010: 2283 8dbe b316 d9bd cb28 e9be bea6 3dbe
00000020: 5ae8 073f 3991 013f efe3 d0be 00a5 43bf
00000030: 7732 8d3e 7d91 0d3e 5bdc c5bc 8470 c73c
