models/focal_loss_checkpoints/checkpoint_epoch_60.pth (torch, 100218 bytes, 16 tensors)

hidden1.weight f4 [128, 30]
000000 3d ec eb 3d d2 ec 21 be 88 8a 6f bd 00 8d 2d bd
       0.11519668 -0.15812996 -0.058481723 -0.042370796
000010 54 76 d9 3d b0 45 bf bd 2f 5b 06 bb 40 c4 d7 bb
       0.106182724 -0.09339464 -0.0020501127 -0.006584674
000020 3d 76 30 bd c2 ab c8 bd 89 1a 15 be ec e5 31 3e
       -0.04308151 -0.09798385 -0.14560904 0.17372864
000030 04 fb e7 bd 42 d1 21 3d 1d 19 28 bd a2 47 16 3d
       -0.11327174 0.039506204 -0.041039575 0.036689408
000040 18 20 38 be f9 b4 92 3d cb 62 26 3e a8 4e 46 3e
       -0.17980993 0.07163424 0.16248624 0.19365942
000050 c1 e4 0c 3e b0 a3 bc bb 83 84 0a be 00 48 d3 3d
       0.13759138 -0.0057568178 -0.13527112 0.10316467
000060 a4 8c d9 3d cb 73 61 3d b3 e3 11 bd ba 39 40 3e
       0.10622528 0.05504207 -0.03561754 0.18772021
000070 22 47 cd 3d c3 f1 ef bd 60 8e 2b be 2a 2c a2 bc
       0.10023333 -0.11716034 -0.1675353 -0.01979645
000080 2f a6 58 3a 29 79 c1 3c 2a f6 c4 bc 56 82 fe 3c
       0.00082645094 0.023617344 -0.024043161 0.031068008
000090 d8 ab 96 bd ad 21 a5 bc d2 b4 2b bd 19 e9 16 be
       -0.07356995 -0.02015766 -0.04192049 -0.14737357
0000a0 16 d3 aa bd c6 29 23 be 88 f4 29 3e d5 32 09 3e
       -0.08341043 -0.15933904 0.16597188 0.13398297
0000b0 49 20 7e 3d 5d 1f ea bc 63 f4 10 be 8b 92 1c 3d
       0.06204251 -0.028579408 -0.14155726 0.03822569
0000c0 4e a1 a7 3d 3c 73 13 3e 04 23 32 be 91 2d f0 bd
       0.08185063 0.14399427 -0.1739617 -0.11727441
0000d0 20 a3 9e bd c7 09 e1 3d ea 56 36 3e 53 7b 2d be
       -0.077459574 0.10988193 0.17806593 -0.16941576
0000e0 35 66 e8 3d cb b5 d1 3c 4f 47 25 be 51 b4 a7 bc
       0.113476194 0.025599381 -0.16140483 -0.020471724
0000f0 5f 2a 05 3e f8 11 8c 3b cb 3d 48 3d 72 8a f9 bd
       0.13004445 0.004274603 0.048887055 -0.121846095
000100 e2 bf 08 bc 7e 9a ab 3d e8 c2 00 3e 9f 2a 14 bd
       -0.00834653 0.083790764 0.12574351 -0.03617346
000110 bc d6 00 3e f5 3d ec 3d e6 99 0c 3d d8 ba eb bd
       0.12581915 0.11535255 0.034326456 -0.11510247
000120 f3 e9 36 be d1 ec ee 3d 89 ac 0a 3e 11 25 33 3e
       -0.17862682 0.11666263 0.1354238 0.17494608
000130 9b 73 2f be e1 a0 2f be 6b 58 bf bd 4d b4 ec bd
       -0.17133944 -0.17151214 -0.09343036 -0.11557827
000140 4a e6 64 ba 4e 75 09 bd 2a 8a 2e be 76 11 e6 bd
       -0.00087318255 -0.033559136 -0.17044893 -0.11233799
000150 a5 65 c5 bd c0 98 a8 bd f7 33 32 3d 5a 18 95 bd
       -0.09638528 -0.0823226 0.04350659 -0.07280035
000160 42 c5 37 bb 37 de e0 3d f0 df 79 3b 21 3b 27 3e
       -0.0028041159 0.10979884 0.0038127862 0.1633115
000170 e6 33 ae bd 89 94 d9 bc 98 1b 98 bd 12 c1 80 3d
       -0.085059926 -0.026560085 -0.07427138 0.06286825
000180 e6 49 35 3d 90 95 b7 3c e7 97 6d bd 66 e1 c2 bd
       0.04425993 0.022410184 -0.058006193 -0.095156476
000190 ce a5 18 3e 7b 66 3f be 9b a8 59 3c 3e c7 e4 3d
       0.14907 -0.18691437 0.013284828 0.11170815
0001a0 ff 13 88 bc 41 7b c0 3d 48 2f 6b bd bd ca 7e bd
       -0.016611097 0.09398509 -0.057418138 -0.062205065
0001b0 ce 86 0f be a9 6c df bc 3c e1 57 bd 3e 5d 38 be
       -0.14016268 -0.027273493 -0.052705035 -0.18004319
0001c0 fb e3 96 3d b9 21 88 bd 9d f7 37 3e 68 f5 34 3e
       0.073677026 -0.06647057 0.1796555 0.1767174
0001d0 0d 18 fd bd 95 73 a6 3c 95 d3 bb 3d c8 9d d0 bd
       -0.12358103 0.020318786 0.091712154 -0.101863444
0001e0 bf b0 df 3d 3e 22 9c 3c b9 e7 2d be 63 f1 d3 bd
       0.109223835 0.019059297 -0.16982926 -0.10348775
0001f0 3f 1c 2f be 38 f0 aa bd c7 62 1b 3e c5 ed 13 3c
       -0.17100619 -0.08346599 0.151744 0.009028857
000200 3f 1d ad 3d ea 2d 36 3e ac 95 29 3e ba 73 12 3e
       0.08452844 0.17790952 0.16561002 0.14301959
000210 d9 22 51 3e dc 60 a2 bc d0 28 93 3d 51 cc 2a be
       0.2042345 -0.019821577 0.07185519 -0.16679503
000220 46 9e f1 3c 1d 04 be bd 8f 11 b7 bd a4 8b 19 be
       0.029494416 -0.09278128 -0.08938896 -0.14994675
000230 93 c5 ac bd 3d 4b 6e 3c 83 9c fb bc 20 fa 30 3d
       -0.08436122 0.014544305 -0.030714279 0.043207288
000240 47 19 33 3e 17 90 ae 3d 0f 34 75 bd 08 18 d2 bd
       0.17490111 0.08523577 -0.0598641 -0.1025849
000250 3e db 85 3c 57 09 36 bc d9 d2 c4 bd 84 ab 87 bd
       0.016339894 -0.011110625 -0.096105285 -0.06624511
000260 64 37 30 3e 03 d9 f7 3a 9b 53 24 3e e2 7a 9f 3c
       0.1720863 0.0018909279 0.16047518 0.019467775
000270 f7 57 50 3e bf 59 0c ba 54 ea 7f bd 3b 59 4c 3d
       0.20346056 -0.00053539494 -0.062479332 0.049889784
000280 68 e9 43 3c 9d 20 d2 3d 0b c5 83 bd 77 d6 f4 3d
       0.011957504 0.10260127 -0.06434067 0.119549684
000290 a4 09 0a be f6 ef 07 3e da 60 ab 3d f7 d4 bc bd
       -0.1348024 0.13275132 0.08368082 -0.09220307
0002a0 e1 ee 6d bd 36 1b 5c 3d 8d d9 ba 3d 56 43 36 bd
       -0.05808914 0.053736888 0.09123526 -0.04449781
0002b0 a1 5d bc bd d5 19 6f bc b4 37 dc 3d 97 5a f3 bc
       -0.09197546 -0.014593561 0.10752812 -0.029706283
0002c0 6f d9 da bd 24 e1 01 be b8 3d b1 bd ff 1b be 3d
       -0.106860034 -0.1268354 -0.0865435 0.092826836
0002d0 5e d4 15 be f0 b6 45 bd 35 42 bb 3c e0 fb b6 bd
       -0.14631793 -0.048270166 0.022858718 -0.0893476
0002e0 d6 9f bc 38 ab 25 06 3e f4 4c 25 bd 80 f5 84 3d
       8.99431e-05 0.13100307 -0.04035659 0.06492138
0002f0 f6 28 a5 3b 6a d5 1f be 1e 78 10 bd 63 22 4b be
       0.0050402833 -0.15608755 -0.035270803 -0.19837336
000300 73 b7 34 3e 14 24 0d 3e a7 29 e8 3d 03 5b 08 3d
       0.17648105 0.13783294 0.113360696 0.03328992
000310 1b c7 14 3e 53 e6 3a 3d f3 2a 24 3c 6f b0 99 3d
       0.14529078 0.04562981 0.0100200055 0.07504355
000320 8d 67 6c 3b de 74 f3 bc 2b d4 d8 bd a2 95 1d 3e
       0.0036072463 -0.029718813 -0.10587343 0.15389112
000330 2e 1a 0f 3e d4 d9 1b bd d8 72 90 3d f5 fc 1c 3e
       0.1397483 -0.038049534 0.07053155 0.1533087
000340 b9 47 45 3d ba 79 10 be df aa 3a 3b de ff 8b bd
       0.048164103 -0.14108935 0.0028483195 -0.06835912
000350 56 fa 54 3a 8b a9 fc 3d a3 ec 38 be 65 76 54 bd
       0.0008124461 0.12337025 -0.1805902 -0.051870722
000360 72 80 10 3d d1 a9 59 bd 9e e4 17 be 01 72 78 bc
       0.035278745 -0.053140465 -0.14833304 -0.015163899
000370 3e 18 bd 3d e3 07 3c be 50 10 45 bd 07 be 8f 3d
       0.092331395 -0.18362384 -0.04811126 0.07018667
000380 f8 8f a6 3d f9 ea ca bc d7 ef 28 3e 1e 35 06 3e
       0.081329286 -0.024770247 0.16497742 0.131062
000390 34 c5 c0 bd 4a 92 30 3d 55 c5 95 3d eb d5 98 bb
       -0.094126135 0.043108262 0.07313029 -0.004664173
0003a0 45 ad 19 3e 46 38 e0 3c 30 18 1c 3e 68 8e ca bd
       0.15007503 0.027370583 0.15243602 -0.09890443
0003b0 a7 e2 0a 3e 4c f7 22 be 6a 3f 8e 3d 5c 26 07 be
       0.13563024 -0.15914649 0.06945689 -0.13198227
0003c0 63 4e 11 be af dd df 3d f6 47 23 be 76 12 03 3e
       -0.14190058 0.10930955 -0.1594542 0.12800011
0003d0 8e b3 8c 3d 3d e5 47 bd 83 9a a0 3c 11 e9 1b 3e
       0.06870185 -0.048802603 0.019604927 0.15225627
0003e0 b0 80 7e 3d e3 63 62 3c 5d dc 34 3e 2c 6f 1a 3e
       0.062134445 0.01381776 0.17662187 0.15081471
0003f0 91 98 12 bd 31 f7 c3 3c eb f4 49 3e 64 05 b7 bd
       -0.03579003 0.023921581 0.19722335 -0.08936575

bn1.weight f4 [128]
000000 57 f8 7e 3f 87 d2 7e 3f e5 5f 80 3f b1 83 7f 3f
       0.99597687 0.9953999 1.0029265 0.9981032
000010 90 11 7d 3f f7 94 80 3f a3 6c 7f 3f 95 05 80 3f
       0.98854923 1.004546 0.9977514 1.0001704
000020 d5 a2 80 3f 8c 15 80 3f 19 08 80 3f 5c 1b 7f 3f
       1.0049692 1.0006576 1.0002471 0.9965112
000030 58 eb 7f 3f 1c 11 80 3f 82 7b 7c 3f 54 c2 7e 3f
       0.9996848 1.0005221 0.9862596 0.9951527
000040 22 cc 7f 3f cb 32 7f 3f b3 86 7f 3f 6c 7b 80 3f
       0.99920857 0.9968688 0.9981491 1.0037665
000050 45 96 80 3f a1 2d 80 3f 7d 3a 80 3f f0 1b 80 3f
       1.0045859 1.0013925 1.0017849 1.0008526
000060 fc 6c 80 3f f9 5c 80 3f 51 28 80 3f 7b 8f 80 3f
       1.0033259 1.0028373 1.0012304 1.0043787
000070 6b 9a 7e 3f 96 8f 7f 3f 75 cf 7e 3f c3 da 80 3f
       0.99454373 0.9982847 0.99535304 1.0066761
000080 44 c3 7f 3f 9a 13 7f 3f 0a 7d 7f 3f e9 81 80 3f
       0.99907327 0.99639285 0.9980017 1.0039645
000090 5d c3 80 3f 58 aa 80 3f b6 f8 7e 3f 0c 60 7e 3f
       1.005962 1.0051985 0.9959825 0.99365306
0000a0 d3 6a 7e 3f 9f 39 7d 3f c4 8e 7f 3f 9a b7 80 3f
       0.9938175 0.9891605 0.9982722 1.0056031
0000b0 7a ba 7f 3f 28 ec 7f 3f ce 61 7e 3f d6 21 80 3f
       0.99893916 0.9996972 0.9936799 1.0010326
0000c0 cd f0 7e 3f ec cd 7d 3f 14 ed 7f 3f 58 79 80 3f
       0.9958618 0.99142337 0.9997113 1.0037031
0000d0 ea 96 7f 3f 1a 25 80 3f 30 46 80 3f 57 0e 81 3f
       0.9983965 1.0011322 1.002142 1.0082501
0000e0 26 61 80 3f 55 4a 7f 3f 2c 98 7f 3f 9c 2d 80 3f
       1.0029647 0.99722797 0.9984157 1.0013919
0000f0 4c ed 7f 3f 9a 0e 80 3f e6 43 80 3f 58 d9 80 3f
       0.9997146 1.0004456 1.0020721 1.0066328
000100 d9 a4 80 3f 3e 4a 80 3f 5a 13 80 3f f8 f1 80 3f
       1.0050308 1.0022657 1.0005906 1.0073843
000110 aa 14 80 3f c0 51 80 3f d3 ba 7f 3f 7b 65 7f 3f
       1.0006306 1.0024948 0.99894446 0.9976422
000120 3a 37 7f 3f 0e f0 7e 3f 61 55 7f 3f af 24 81 3f
       0.99693644 0.99585044 0.9973965 1.008932
000130 df 1d 81 3f 61 2c 80 3f 3d 3f 80 3f 95 dd 7f 3f
       1.0087241 1.0013543 1.0019299 0.9994748
000140 84 3b 7d 3f b2 72 7f 3f a2 8a 80 3f de f5 7f 3f
       0.9891894 0.99784386 1.0042307 0.9998454
000150 5f 31 7d 3f 34 3c 7f 3f 50 db 7d 3f a1 9a 7d 3f
       0.9890346 0.9970124 0.9916277 0.9906407
000160 7d 20 7e 3f 53 e6 7e 3f 49 9a 80 3f 98 66 7d 3f
       0.99268323 0.99570197 1.0047084 0.9898467
000170 0d b5 7d 3f ed 00 80 3f af d9 7e 3f 7a 2b 7f 3f
       0.99104387 1.0000283 0.9955091 0.99675715
000180 ae 86 7f 3f 59 81 80 3f 09 0d 80 3f 4f ac 80 3f
       0.9981488 1.0039474 1.0003978 1.0052584
000190 b7 9c 81 3f c4 4e 7e 3f 77 d2 7c 3f b5 72 7f 3f
       1.012595 0.99338937 0.98758644 0.99784404
0001a0 3e 4f 80 3f ff 67 81 3f c6 8e 7f 3f 7a 55 7f 3f
       1.0024183 1.0109862 0.9982723 0.997398
0001b0 63 18 80 3f 37 f2 7e 3f a7 36 7e 3f 87 ab 7f 3f
       1.0007442 0.9958834 0.9930214 0.99871105
0001c0 41 be 80 3f a5 6b 80 3f 94 76 80 3f 69 50 80 3f
       1.0058061 1.003285 1.0036187 1.0024539
0001d0 e4 68 80 3f ba f2 7f 3f ba 47 81 3f 8b 04 80 3f
       1.003201 0.99979746 1.0100014 1.0001386
0001e0 01 77 80 3f 1d eb 80 3f 24 63 7c 3f 8d 28 80 3f
       1.0036317 1.0071751 0.98588777 1.0012375
0001f0 2d ac 80 3f 53 45 80 3f cc 98 7f 3f ba 68 80 3f
       1.0052544 1.0021156 0.99842525 1.003196

bn1.bias f4 [128]
000000 29 23 08 bd 77 b7 d5 3c 81 62 ae bb 31 08 4b 3c
       -0.033236656 0.02608846 -0.005321801 0.01239209
000010 12 e2 f8 3c 72 3d a6 bc eb f5 84 3c f3 ca 73 3c
       0.030381236 -0.020292971 0.016230544 0.01487993
000020 36 d0 dc 3b 69 cf 08 3d bb 38 55 bc a6 0f b8 bb
       0.006738688 0.033400927 -0.013014014 -0.0056171
000030 6c 47 9a 3c 1d 21 d3 3b 61 7b 4c bd e7 f7 a8 bc
       0.018832885 0.0064431564 -0.04992235 -0.020626022
000040 34 c2 6d 3b 3f 2d 8e bc 77 23 22 3d b2 e8 3c 3c
       0.0036279084 -0.01735556 0.039584603 0.011530088
000050 8f 88 dc bc ed 93 a4 3c 72 c9 04 bc 39 ae 60 3c
       -0.026920585 0.020090068 -0.008104669 0.013713413
000060 89 d9 85 bc 5d 20 9b 3c 81 db 35 3c 3a f0 bd bc
       -0.01633908 0.01893633 0.011099697 -0.023185838
000070 8f f6 5c 3c 3c ee 6d 39 4c 09 09 3d 2a d7 b8 bb
       0.0134865185 0.0002269083 0.03345613 -0.005640884
000080 0c f6 0f 3d ea c2 8b bd cd e5 8f 3b 2d d0 02 3c
       0.035146758 -0.06824286 0.004391408 0.007984203
000090 9d d0 0b bc 2d ad 24 bc c3 03 89 bc 36 5b 85 3d
       -0.008533624 -0.010051054 -0.016725427 0.06511538
0000a0 1a a4 35 bd 3b 4b 09 bd 00 25 bd 3c a6 6c 83 3c
       -0.044345953 -0.03351901 0.023088932 0.016043019
0000b0 6e 16 a7 3c be 07 44 3c 33 31 cd bc f3 09 27 3c
       0.020396437 0.0119647365 -0.025047874 0.010195243
0000c0 d3 b2 40 3c 86 a2 19 bc c4 4a 80 3c 0a 08 e2 bb
       0.011761385 -0.0093771275 0.015660651 -0.006897931
0000d0 66 62 c1 3c 69 14 28 3c 10 69 33 bd b3 49 ab 3a
       0.02360649 0.010258772 -0.043801367 0.0013068229
0000e0 31 fe 95 bc 5c b0 e5 bb f0 6c 21 3c ac 8a 2a 3d
       -0.018309684 -0.007009549 0.009852633 0.041636154
0000f0 45 fa 55 bc 9e 28 d1 3c 14 64 f2 3b ec c3 c8 3b
       -0.013060157 0.025532063 0.007397184 0.0061268713
000100 9c 45 49 39 46 55 1d 3b ac 51 a4 3c 7d fc a8 bc
       0.00019194785 0.0024007126 0.020058475 -0.020628208
000110 a6 d8 19 3c b7 db 2f bc 1e 5e ec 3c 4f 18 c7 3c
       0.009390032 -0.010733536 0.028853472 0.024303583
000120 ae 26 43 3d de 81 ff bc df d5 d6 bc d3 f0 78 3c
       0.04764431 -0.031189855 -0.026225029 0.015194136
000130 1e d6 32 3d 31 b1 a1 3c 46 f6 8f bc 64 de 10 bc
       0.04366123 0.019737812 -0.017573487 -0.008842085
000140 0d 8a 3e 3d ed 04 40 3c b3 2f 4a 3c cb 06 b7 3c
       0.046518374 0.011719924 0.012340474 0.022342106
000150 57 2f 3f bd 3c 84 64 bc df 26 12 3d 9d e8 6b bd
       -0.046676006 -0.013947543 0.0356816 -0.057594884
000160 c3 70 07 3d a4 b9 d9 bb 7b f5 04 bb 83 a7 da bc
       0.033066522 -0.0066444445 -0.002028792 -0.026691204
000170 95 27 e3 3c 29 43 6b bc 4e a6 41 3c 0c fb b7 3c
       0.027728835 -0.014359274 0.011819435 0.022458576
000180 a4 c9 a6 3b af e3 fe b7 ad b1 5d bc 6b a7 0f 3d
       0.0050899554 -3.0385183e-05 -0.013531131 0.03507177
000190 b8 66 3c 3c b3 73 eb 3b d0 c4 88 bc 89 ef df ba
       0.011499099 0.0071854233 -0.01669541 -0.0017084937
0001a0 d0 9f 60 bc ce aa 02 3d 14 8e 5e bb 16 8c 43 bc
       -0.013709977 0.031901173 -0.0033959197 -0.011935255
0001b0 39 b1 26 3c 92 45 c1 bc 71 63 20 3d 3a 17 b2 3c
       0.010174089 -0.023592744 0.039157335 0.02173959
0001c0 f4 14 8d 3c 27 13 5c bc 9c d6 8d b9 09 09 b6 3c
       0.017221905 -0.013432301 -0.00027053512 0.022221105
0001d0 0d 49 0a 3c a8 c5 b0 3b e7 68 8d 3c 44 ba 27 3b
       0.008440268 0.005394656 0.017261935 0.00255932
0001e0 43 77 c0 bb f0 2f fa 3c 29 1a 4e bd cf 08 15 bb
       -0.005873592 0.030540437 -0.050317917 -0.0022740846
0001f0 f1 5a 96 3c 65 bb ec b9 2d f2 cd bc 3b 3c 07 3c
       0.018353911 -0.00045153048 -0.025139892 0.008254106

bn1.running_mean f4 [128]
000000 10 06 88 bd 27 ed bd bd 20 fa 35 3e 47 80 00 be
       -0.06641781 -0.09273749 0.17771196 -0.12548934
000010 10 c8 88 3c ac 8e fa 3d ad d3 4b be 59 e0 c4 bd
       0.01669696 0.12234244 -0.19904967 -0.096131034
000020 15 b8 b0 3d 4e 4c 58 3e 9b 09 2a bd d3 33 06 3e
       0.08628861 0.21122858 -0.041513067 0.13105707
000030 81 71 d8 bd 91 a6 5e 3d f8 6b b5 3c 9b 64 24 bd
       -0.10568524 0.05435807 0.02214621 -0.040135007
000040 6b 96 54 3e 2d fa c7 bc eb b5 fb 3d 11 d6 aa 3a
       0.20760505 -0.024411285 0.122905575 0.0013033767
000050 4e f6 06 be f4 dd 07 be 02 24 2f be fc 09 e0 3d
       -0.13179895 -0.13268262 -0.1710358 0.10939404
000060 ff d6 40 bc 85 05 16 be b1 56 3f bd c1 13 0e 3e
       -0.011770009 -0.14650543 -0.046713535 0.13874723
000070 42 dd ee bd 37 bb 39 3d 8e 4a 69 bd 80 43 24 3e
       -0.11663295 0.045344558 -0.056955867 0.16041374
000080 83 b0 a5 bd 18 5a 33 3d 68 7a 87 3d 28 bf e3 3d
       -0.080903076 0.043787092 0.06615144 0.111204445
000090 ab 42 21 3e d3 2c 2d 3e 03 ae 5d 3d 23 28 1b be
       0.15748088 0.1691163 0.05412103 -0.1515203
0000a0 f4 ac 82 bd 39 fb ef bd 7f 4d ed bd c2 fe 14 3d
       -0.063806444 -0.11717839 -0.11587047 0.03637577
0000b0 ce 05 19 3e b1 39 2d 3e 04 02 9e 3d 8d 84 13 3d
       0.1494362 0.16916539 0.07715228 0.036015082
0000c0 1c a3 85 bd 1c ce 45 3e a9 93 c3 3d 53 0f 33 3d
       -0.06525251 0.19316906 0.09549648 0.043715786
0000d0 d3 aa d3 3d ef 02 26 3b 00 b3 49 3e a0 0a 4a bd
       0.103353165 0.0025331338 0.1969719 -0.04932654
0000e0 29 5f 03 3e 0b ba 28 bd 59 f9 7d bd f7 e9 11 3e
       0.1282927 -0.04119305 -0.062005375 0.14249407
0000f0 96 85 62 3c 03 f4 c4 3d b5 35 63 be d9 35 92 3d
       0.013825795 0.09616854 -0.22188456 0.07139177
000100 a9 88 a7 bd dc f4 27 3d 8a 6d 10 3e 76 f5 76 3c
       -0.08180363 0.041005 0.14104286 0.015073171
000110 73 7f 42 3e fe 24 0b be 64 eb fc 3c ac 6d b6 bc
       0.1899393 -0.1358833 0.030873962 -0.022269093
000120 b2 9e 26 bd 50 34 9e bd dd 5e 5c 3d 18 09 fd 3d
       -0.040678687 -0.077248216 0.053801406 0.1235525
000130 58 02 d6 bd e0 9b b4 3c 28 e4 0f be e6 d7 4e 3e
       -0.10449666 0.022046983 -0.14051878 0.20199546
000140 fe db 14 3d 9c 51 00 3d d0 fc 06 3e 9c 81 a1 bc
       0.036342613 0.03132783 0.13182378 -0.019715123
000150 66 b8 09 bd d5 d9 65 3c de 0b c8 bd 3a 88 76 3e
       -0.03362312 0.014028986 -0.097678885 0.24075404
000160 7f 7b 06 be 96 02 1a 3c 34 dc e5 3d fd b7 38 3e
       -0.13133048 0.009400031 0.11223641 0.18038936
000170 e6 d3 22 be b9 95 92 3b 98 76 bc bd ee 9f 10 be
       -0.15901145 0.0044734147 -0.092023075 -0.14123508
000180 e7 60 6d 3c 1b d0 1b 3d 94 f6 83 bd 68 da fa bd
       0.014488435 0.03804026 -0.064435154 -0.12248689
000190 55 96 80 3c 88 26 42 be 1a 06 cb 3d d4 0b ce 3c
       0.015696684 -0.18960011 0.09913273 0.025152124
0001a0 c0 4b b9 3d 23 e3 ed bd 59 74 9f bd 56 10 a3 3d
       0.09047651 -0.116155885 -0.077858634 0.079621
0001b0 5e 2b 2f 3c af fd f0 3d 19 16 89 3d ee 14 82 bd
       0.010691492 0.11767136 0.06693668 -0.06351648
0001c0 3e 07 04 be 30 ee 72 bb 5e 46 39 3d b6 e5 31 bd
       -0.12893388 -0.003706824 0.045233123 -0.04343196
0001d0 5d 61 d3 3d fb e2 a5 3d 19 22 ae 3d 0c 5e 17 be
       0.10321305 0.08099934 0.08502597 -0.1478197
0001e0 b2 ad 5b 3d 6e 90 d2 bd 73 6a 0d 3e 18 58 e3 3d
       0.053632446 -0.10281454 0.13810138 0.11100787
0001f0 0c 96 b0 bd a4 cd c8 bd fc 55 e2 bd 72 6c a7 bd
       -0.08622369 -0.09804848 -0.110515565 -0.08174981

bn1.running_var f4 [128]
000000 59 a1 12 3f 6d 6e 17 3f 17 e8 f5 3e e5 48 f7 3e
       0.57277447 0.5915287 0.48028633 0.48297802
000010 70 ed d5 3e 18 25 f2 3e 2c 36 1b 3f 77 15 18 3f
       0.41782713 0.47293925 0.60629535 0.5940775
000020 8e 6c 34 3f c2 35 72 3f e0 ef 1d 3f 28 6f 25 3f
       0.7047814 0.9461328 0.61694145 0.64622736
000030 af 9e ff 3e 57 f0 30 3f f2 71 d0 3e f1 7c 9e 3e
       0.49925753 0.6911673 0.40711933 0.30954698
000040 86 f3 3a 3f ff 8e d9 3e 36 d8 65 3f 27 aa 06 3f
       0.7302784 0.4249191 0.89783037 0.5260338
000050 8b 56 01 3f 38 11 2c 3f 4f 3a 26 3f f8 ae 08 3f
       0.5052268 0.67213774 0.6493272 0.5339198
000060 33 ea b5 3e 2c 39 fb 3e 9d 48 07 3f 44 2d f7 3e
       0.35530242 0.49067056 0.52845174 0.48276722
000070 5d d6 03 3f 15 d6 c7 3e fc 04 cf 3e 3b 5f 14 3f
       0.5149897 0.3903052 0.4043349 0.5795781
000080 b0 45 3f 3f 27 f8 bc 3e 79 58 2e 3f 5e 9b 09 3f
       0.7471571 0.36908075 0.6810375 0.53752697
000090 0f 28 20 3f ee fc 4a 3f 1e f8 07 3f d7 b0 10 3f
       0.62561125 0.7929219 0.5311297 0.56519836
0000a0 ab 9e 06 3f 74 82 d8 3e 0d b8 25 3f 41 8d 92 3e
       0.5258586 0.42287028 0.64733964 0.28623393
0000b0 35 a2 27 3f 17 65 48 3f c0 81 ed 3e 11 11 b6 3e
       0.65481883 0.7827925 0.46388054 0.35559896
0000c0 ac d8 fd 3e 26 2d 6c 3f fa bb 38 3f e2 6a be 3e
       0.4957937 0.9225639 0.7216183 0.3719092
0000d0 f6 3b 2c 3f 3d 50 30 3f eb 9a ec 3e 28 95 c2 3e
       0.67278993 0.68872434 0.46211943 0.38004422
0000e0 bb bd 45 3f 71 02 be 3e 75 48 2a 3f ef 3c 36 3f
       0.7724263 0.37111238 0.6651681 0.7118673
0000f0 59 ed cc 3e 75 2d 4b 3f fd cd 05 3f 14 a2 26 3f
       0.40024832 0.79366237 0.5226744 0.6509106
000100 f8 65 ee 3e 46 c8 0e 3f a2 86 58 3f c2 3b 1e 3f
       0.4656217 0.55774343 0.84580433 0.61809933
000110 63 eb 1c 3f 00 5f 0f 3f ea 28 c3 3e d8 9b c3 3e
       0.6129667 0.56004333 0.38117152 0.38204837
000120 43 71 0f 3f d0 e4 1d 3f ad 1c 03 3f a9 66 2d 3f
       0.560322 0.61677265 0.5121563 0.6773477
000130 94 43 d2 3e 24 93 d3 3e 3a 5f 31 3f c3 0a 91 3f
       0.41067183 0.41323197 0.6928593 1.1331409
000140 61 95 05 3f 3f 48 d5 3e 14 aa 0e 3f 96 81 c2 3e
       0.5218106 0.41656682 0.5572827 0.3798949
000150 86 c3 21 3f ee 58 09 3f ff 70 09 3f c8 71 0f 3f
       0.6318897 0.5365132 0.53688043 0.5603299
000160 50 5f b8 3e 52 96 e7 3e a4 bb 01 3f a1 dd 2e 3f
       0.36010218 0.45231873 0.5067694 0.6830693
000170 49 66 22 3f db 6b 0c 3f fb 7f 0e 3f d2 9a 3c 3f
       0.63437325 0.54852074 0.5566403 0.7367374
000180 07 11 75 3e 06 84 22 3f 38 e9 30 3f af d6 09 3f
       0.23932277 0.634827 0.69105864 0.53843206
000190 78 b5 dd 3e 51 e4 5c 3f 3e 90 0f 3f fe 7c e6 3e
       0.43302512 0.86285883 0.5607947 0.45017236
0001a0 b1 fa 09 3f 0a 0f f3 3e df 45 52 3f b8 39 80 3f
       0.5389815 0.4747241 0.82137865 1.0017614
0001b0 bf 8f d7 3e 44 88 98 3f 1e 86 1c 3f 00 f4 1d 3f
       0.42101857 1.1916585 0.61142147 0.6170044
0001c0 ea c4 b8 3e c8 8e 0d 3f a2 a3 c8 3e b6 38 ff 3e
       0.36087734 0.5529599 0.39187342 0.49847955
0001d0 49 6a 1d 3f 7c e8 ed 3e 3f 03 6a 3f 4c 07 52 3f
       0.61490303 0.46466434 0.91411203 0.82042384
0001e0 46 64 44 3f e2 bf e7 3e 07 f5 7c 3f a0 f3 1f 3f
       0.76715505 0.45263582 0.9881138 0.6248112
0001f0 6b 76 e9 3e 44 a9 18 3f 9c dc 38 3f 54 f5 bf 3e
       0.45598158 0.5963328 0.72211623 0.37491858

hidden2.weight f4 [128, 128]
000000 d7 8a a1 3d ca 5f c3 bb 19 33 8e bd 97 d5 26 3c
       0.0788781 -0.0059623467 -0.0694334 0.01018276
000010 a4 ef ee 3c 93 d1 7d bb a4 17 51 3c 1d 29 bc 3c
       0.029167004 -0.0038729652 0.012761984 0.022968823
000020 93 95 2f 3d da 69 f4 bc cd 30 5c bd dd 52 87 3d
       0.042867254 -0.02983563 -0.053757478 0.06607602
000030 b5 33 a4 3c eb 09 9e 3d 22 55 4d bd 03 4f c5 bc
       0.020044187 0.077167355 -0.050130017 -0.024085527
000040 e7 cb b3 3c 66 0d ad 3c d7 b1 1d bd 8c 50 23 bd
       0.021947814 0.021124553 -0.03849968 -0.039871737
000050 b5 4f c6 bc 9f 35 89 bd 15 95 58 3b 5f 17 a8 bd
       -0.02420793 -0.066996805 0.0033047844 -0.08207583
000060 93 22 e6 bc 8b 82 d0 ba ab 24 85 bd 37 0b 37 3d
       -0.028092658 -0.0015908045 -0.065011345 0.04468843
000070 85 22 7e 3d 5c 6d 87 3b 25 45 b8 3c 5f da b9 bd
       0.06204464 0.0041329097 0.022493908 -0.09074854
000080 42 ae e1 3b 00 08 15 3d 0c c1 1a bd 14 a0 41 bc
       0.006887228 0.036384583 -0.03778176 -0.011817951
000090 5f b7 ac bd aa dd 26 3d a3 d2 1a bd 7f 69 ee bb
       -0.08433413 0.04073874 -0.037798535 -0.0072757597
0000a0 7d bf 3c 3d fb 77 9b 3d 4a 42 ac 39 b8 2e b5 3d
       0.046081055 0.07591244 0.00032855786 0.088468015
0000b0 02 c9 bf 3c 41 ed 9e bb a6 05 94 3d 26 d8 af 3d
       0.023411278 -0.00485006 0.0722764 0.08586149
0000c0 e7 1c a6 3d eb 7e 23 bd fb e4 3e bd 79 54 6e 3d
       0.081109814 -0.03991596 -0.04660509 0.05818603
0000d0 95 c9 34 bd ae 7b f0 bc 70 25 60 3d 4c 65 aa 3c
       -0.044137556 -0.02935585 0.054723203 0.020800255
0000e0 64 47 94 bb 53 7c 0e 3d 10 d7 08 3d 16 b1 b2 bd
       -0.004525112 0.034786534 0.033408225 -0.08725183
0000f0 25 4d 84 3d 4f 08 e8 3c 41 be 4b 3d 19 1c 82 bb
       0.06460027 0.028324274 0.049741987 -0.0039706347
000100 66 1a e2 3b 27 2b 4d bb fc 10 21 bc fa de ad 3d
       0.0069001196 -0.0031306238 -0.00983071 0.08489795
000110 e9 7d 7d bd cd 20 3e bd 0d e9 9a bd 8c 94 bf bb
       -0.061887655 -0.046418 -0.07563982 -0.0058465656
000120 08 fb 8f bd 35 61 8a 3d 8f e1 13 bd 82 d8 8f 3d
       -0.07030302 0.06756822 -0.03610378 0.070237175
000130 d8 14 aa 3d b5 b5 68 bd 7d e9 91 bd 9e 12 ee bc
       0.08304757 -0.056813914 -0.071246125 -0.029061612
000140 a8 5f 4b bd a5 a5 15 3d cc d2 76 3d ff 66 e3 bb
       -0.04965177 0.036534924 0.060259625 -0.0069397683
000150 fc b1 97 bd b3 21 16 3d 38 e8 a4 3d 72 f9 c9 3c
       -0.07406995 0.03665323 0.08052105 0.024655078
000160 e3 4f e0 bc 6b c8 84 bd dd b4 82 bd 99 b3 2f 3d
       -0.027381843 -0.06483539 -0.06382153 0.042895887
000170 5c 0d 43 3d 4b 52 7c 3d 7d 6b b3 3d 6b e1 19 bc
       0.047620162 0.06160192 0.08760736 -0.009392123
000180 0b 7e 86 bb 9b f4 8b 3c 79 62 02 bd 06 67 c3 bc
       -0.004104381 0.01708441 -0.031832192 -0.023852836
000190 92 11 8a bc 39 49 bf 3c 17 75 6b bd 0b 41 a7 bd
       -0.016854081 0.023350345 -0.057484712 -0.08166703
0001a0 d0 f6 b7 bd 11 dc 23 bb 0d 4e a5 3c b6 b7 7c 3d
       -0.089826226 -0.0025002996 0.02017882 0.061698638
0001b0 27 84 67 bd 3a 33 4b bc ca 01 65 3d 34 fa cf 3c
       -0.056522515 -0.01240235 0.05590991 0.02538786
0001c0 aa d1 2a bd ea c7 8e bd af a6 6e bd 25 f1 bd bc
       -0.041703857 -0.06971724 -0.05826443 -0.023186276
0001d0 08 df ab 3c 0f 73 82 3d 07 d1 fa 3c 81 2c 87 3d
       0.020980373 0.06369602 0.03061725 0.06600285
0001e0 47 a0 0f bd c4 33 a0 3b ab 24 cd bc f1 6a a0 3d
       -0.03506496 0.0048889834 -0.025041899 0.078328975
0001f0 a5 4b 39 bc 91 dd 42 3d 29 32 29 3d ef f8 10 bc
       -0.011309539 0.047574583 0.041307602 -0.008848413
000200 d4 c0 04 3d 68 7b b5 bc 4c 1b 9e 3c c3 74 93 3d
       0.032410458 -0.022153571 0.019300126 0.07200005
000210 3b 80 5d 39 7f 91 88 3d 68 3c 80 bd 6b 46 10 3b
       0.00021123972 0.06668376 -0.062615216 0.0022014629
000220 ff ff f8 3c 64 75 91 3c 3f 05 d1 3d a3 7e 78 bd
       0.030395506 0.017756172 0.10206079 -0.060667645
000230 3e 39 58 bd b3 ac b5 bc df 1e 53 3c 97 9f 6e bd
       -0.052788965 -0.022177076 0.012885778 -0.058257665
000240 1b 64 7d bc 07 5a 87 bd 38 f9 a8 bd 93 49 d4 bc
       -0.015465762 -0.06608968 -0.0825066 -0.02591399
000250 ed 77 ca 3c 6f c4 91 3d 0b 34 73 bd eb a5 ad bd
       0.024715388 0.07117545 -0.059375804 -0.08478912
000260 f9 7e 8d 3c 19 96 a0 3d f9 e5 69 3c aa 42 9c 3d
       0.01727246 0.07841129 0.014276021 0.07629903
000270 45 79 58 3d 0f 7c fd ba e7 3e 90 bd df 51 9e 3c
       0.052850027 -0.001933934 -0.07043248 0.019326149
000280 d7 76 a5 3d f3 96 8d bd 54 05 98 3d 29 e4 94 3c
       0.080793075 -0.06913557 0.07422891 0.018175201
000290 3a 8e a8 bc 7b 14 0b 3d 17 44 99 bc c7 ef 60 bd
       -0.020575631 0.03395508 -0.018709226 -0.05491617
0002a0 08 1c 39 3d 84 13 73 3d 54 fd 16 bb 8e d2 45 bd
       0.04519275 0.059344783 -0.002303918 -0.048296504
0002b0 1c 18 41 bd 67 a5 60 bd 32 f8 aa bd ef ab 29 bd
       -0.047142133 -0.05484524 -0.08348121 -0.041423734
0002c0 c5 f8 6a bd 72 2e 62 bc ed 21 3e 3d df be 83 bd
       -0.05736615 -0.013805019 0.046419073 -0.0643289
0002d0 98 42 b1 3c ea f0 df bb 4b 75 48 bd 7e 63 93 bd
       0.0216382 -0.006834139 -0.048939984 -0.07196711
0002e0 85 ab 28 bd 78 be 09 3b 89 1f 5b 3d 9e db 7c bd
       -0.0411792 0.002101807 0.05349687 -0.06173288
0002f0 7c f3 50 3c fc d2 b8 bd ce 81 ba 3d 42 65 58 3d
       0.012753364 -0.09024617 0.091067895 0.052830942
000300 6a 4f 66 3c 21 a2 62 bd 5f d0 4d 3c ef ff b5 3d
       0.01405702 -0.0553304 0.012561887 0.08886706
000310 17 fd 59 bc be b7 4b 3c 8e 78 e0 3b 43 bf 6b bc
       -0.01330497 0.012433944 0.0068503087 -0.014388862
000320 97 ba cd bc 71 a3 a2 3c 3a 64 6c 3d 18 1c 84 bc
       -0.025113387 0.019853326 0.05771277 -0.016126677
000330 6b 03 e5 bc c1 2b c4 bd ed a7 49 bd 9f 62 33 bd
       -0.027955731 -0.09578658 -0.049232412 -0.043795224
000340 58 b5 0d bd c2 bf 87 bd 7e 59 60 bd 71 ad 31 bd
       -0.03459677 -0.06628372 -0.054772846 -0.043378297
000350 63 58 13 3d d8 86 1b 3d 23 60 a6 bd 88 fb 7c 3d
       0.035972964 0.037970394 -0.081238054 0.061763316
000360 49 be 8f bc 6d f1 ae 3d 29 7e 16 3d e8 a5 21 3d
       -0.01754679 0.08542142 0.03674141 0.03946486
000370 aa ac 92 3d f8 9f d3 bb 4d 0b 0b 3c 44 c2 97 bd
       0.07161839 -0.0064582787 0.008486581 -0.074101
000380 59 7a 14 bd 38 82 93 3c 66 29 50 3d 51 e0 8e 3c
       -0.036249492 0.01800643 0.05082073 0.017440947
000390 97 94 9b bd a1 dd 61 bd cd e9 cf bc 94 ee 99 3c
       -0.07596701 -0.055143002 -0.02538004 0.01879052
0003a0 0c ba 8b 3c 90 c4 f2 3c ad 1e a4 bd 12 41 49 3d
       0.017056488 0.029634744 -0.080136634 0.04913432
0003b0 e5 48 cc bd f5 09 32 bd 83 3a c3 3c 64 e3 8f bd
       -0.09974841 -0.043466527 0.023831611 -0.07025793
0003c0 0b a5 4e bd 77 aa ad 3d 94 dd 91 bd cb 32 f0 3c
       -0.050450366 0.08479779 -0.07122341 0.029321095
0003d0 7a 5b 98 bd e2 ef 92 bd 1e 8a c2 bc 66 e2 b5 3d
       -0.07439323 -0.0717466 -0.0237475 0.08881073
0003e0 8f fa 94 bd 63 58 62 3d 9b d4 01 bd bb 8c 08 3d
       -0.07274353 0.055260073 -0.031696897 0.033337336
0003f0 f2 8d 38 3d d7 68 cc 3c 04 97 9d 3d 2f 96 fa 3c
       0.045057245 0.024952335 0.076948196 0.030589191

bn2.weight f4 [128]
000000 c5 1a 80 3f 4e 5c 7e 3f 2d e4 7f 3f 37 42 7d 3f
       1.000817 0.99359596 0.99957544 0.9892916
000010 b7 ab 7f 3f ca 58 7e 3f a4 fc 7e 3f c7 8b 7d 3f
       0.9987139 0.9935423 0.9960425 0.9904141
000020 e3 87 7f 3f 3a cb 7d 3f 14 0e 80 3f 11 1b 7f 3f
       0.9981672 0.99138224 1.0004296 0.99650675
000030 ee 22 7f 3f 7d d3 7d 3f fb 1a 7e 3f b9 a8 7f 3f
       0.99662673 0.9915083 0.9925992 0.99866825
000040 73 5f 7f 3f 63 40 7e 3f a8 fd 7e 3f 48 e9 7d 3f
       0.9975502 0.99316996 0.996058 0.99184084
000050 28 0c 80 3f a3 6f 7f 3f 1a f3 7e 3f 60 be 7f 3f
       1.000371 0.9977972 0.99589694 0.99899864
000060 46 fd 7e 3f 5b 73 7f 3f 5e 47 7e 3f 2d 98 7f 3f
       0.99605215 0.99785393 0.9932765 0.99841577
000070 06 50 7f 3f de 3c 80 3f 4c 28 80 3f 82 3f 7f 3f
       0.9973148 1.0018575 1.0012298 0.9970628
000080 1d b3 7e 3f fe 5b 7c 3f 98 39 7e 3f be 76 7f 3f
       0.99492055 0.9857787 0.9930663 0.9979056
000090 1c a1 7e 3f 17 00 80 3f b4 31 7e 3f 8f e4 7e 3f
       0.99464583 1.0000027 0.9929459 0.995675
0000a0 90 62 7f 3f 1c d1 7e 3f 58 98 7f 3f cc c8 7f 3f
       0.9975977 0.99537826 0.99841833 0.99915767
0000b0 89 a7 7e 3f 39 0b 80 3f 48 0b 80 3f 2e 35 7d 3f
       0.9947439 1.0003425 1.0003443 0.9890927
0000c0 94 01 80 3f 9e 14 80 3f 90 4c 7f 3f b5 16 7e 3f
       1.0000482 1.0006292 0.997262 0.992534
0000d0 0f 9e 7f 3f 28 ba 7f 3f 35 04 7e 3f 62 dd 7c 3f
       0.99850553 0.99893427 0.9922517 0.98775303
0000e0 08 3a 7f 3f ac 04 7d 3f 17 f1 7d 3f f6 42 7e 3f
       0.99697924 0.98835254 0.99196 0.99320924
0000f0 45 ed 7f 3f 46 df 7f 3f 0d c5 7e 3f 4f cc 7d 3f
       0.9997142 0.99950063 0.99519426 0.99139875
000100 03 99 7f 3f 4e 3f 7f 3f 0e ae 7f 3f 1a 4b 7f 3f
       0.9984285 0.9970597 0.9987496 0.9972397
000110 9e 67 7f 3f bb 85 7e 3f 78 be 7e 3f 2c 1c 80 3f
       0.9976748 0.99422807 0.9950938 1.0008597
000120 ee d8 7f 3f a0 c6 7e 3f fd e5 7e 3f 90 e6 7e 3f
       0.99940383 0.9952183 0.99569684 0.9957056
000130 1d 4c 80 3f 32 a6 7e 3f b1 78 7e 3f 7e 44 7d 3f
       1.0023228 0.99472344 0.9940291 0.98932636
000140 31 5c 7e 3f 61 fd 7d 3f 45 39 80 3f c1 14 80 3f
       0.9935942 0.9921475 1.0017477 1.0006334
000150 42 0e 7f 3f 86 d3 7f 3f 9d 32 7f 3f c9 c3 7f 3f
       0.9963113 0.99932134 0.99686605 0.9990812
000160 19 d7 7e 3f 1f 70 7f 3f 9e b6 7f 3f 7e f5 7e 3f
       0.9954696 0.9978046 0.99888027 0.9959334
000170 76 95 7f 3f 62 b1 7e 3f 59 6b 7f 3f 48 65 7e 3f
       0.99837434 0.99489415 0.99773175 0.9937329
000180 14 40 80 3f a0 c4 7e 3f 12 e6 7e 3f 98 d5 7f 3f
       1.0019555 0.99518776 0.9956981 0.99935293
000190 e9 f8 7d 3f b3 67 7d 3f c1 1a 7f 3f c7 c2 7f 3f
       0.9920793 0.9898636 0.996502 0.9990658
0001a0 5b e8 7f 3f d0 d0 7f 3f 76 09 7f 3f 52 2c 80 3f
       0.9996392 0.99928 0.9962381 1.0013525
0001b0 fd 8b 7f 3f 55 e7 7f 3f 42 db 7f 3f 7e e0 7d 3f
       0.9982298 0.9996236 0.99943936 0.9917067
0001c0 62 c4 7f 3f 2e 94 7f 3f f7 b7 7e 3f 82 a2 7f 3f
       0.9990903 0.9983548 0.9949946 0.9985734
0001d0 9e d8 7f 3f 32 4f 7f 3f fa 8d 7e 3f e4 d7 7f 3f
       0.99939907 0.9973022 0.9943539 0.999388
0001e0 16 f9 7c 3f c3 b7 7e 3f d8 6c 7f 3f d0 62 7c 3f
       0.98817575 0.9949915 0.9977546 0.98588276
0001f0 53 0f 80 3f d0 0a 80 3f 35 21 80 3f a4 6c 7b 3f
       1.0004677 1.00033 1.0010134 0.9821265

bn2.bias f4 [128]
000000 4b 62 d2 3a 25 2e dc bc 9b ea 04 bc 74 7f e4 3c
       0.0016051022 -0.026877472 -0.008112575 0.027892806
000010 d1 44 ab 3b e8 fe b3 3c 86 0b 22 bc 2d 87 bb bc
       0.0052267094 0.021972135 -0.009890443 -0.022891605
000020 c5 af 1d bc 02 6a a7 3c 89 72 b1 3b 2d 7c 86 3c
       -0.009624426 0.02043629 0.005415265 0.016416634
000030 58 ff 57 3c 1c f8 d5 3c 8c c5 81 3c d9 de 32 bc
       0.013183437 0.026119284 0.015841268 -0.010917389
000040 f7 c1 45 bc f2 07 a9 3c 25 ac 34 bc fd 21 f5 bc
       -0.012070171 0.020633671 -0.011027371 -0.029923433
000050 1a 17 ce 3b ca 6b 30 bc 75 c8 2a bc 85 06 ce bb
       0.006289375 -0.010767886 -0.010423769 -0.0062873983
000060 4b 5b 5e 3c b0 e8 22 bc c3 a2 91 bc d9 c9 43 bc
       0.013571571 -0.009943172 -0.017777806 -0.01194998
000070 09 7d b6 bb 94 54 70 ba 27 7a b9 3b 4e e2 26 bc
       -0.0055691046 -0.00091678766 0.0056603136 -0.010185791
000080 72 9d 9f 3c fa 98 be 3c 71 d2 91 3c e2 38 ed bb
       0.019484255 0.023266304 0.017800542 -0.007239447
000090 77 bb 9a 3c 06 1f b3 bb f9 d9 db 3c 19 ff 47 3c
       0.018888218 -0.0054663448 0.026837336 0.012206816
0000a0 5b ed 31 3c a9 13 78 bc d2 9a 0c 3c 4a f3 3f bb
       0.010859813 -0.015141406 0.008581834 -0.0029289299
0000b0 2d 02 74 3c 91 17 44 3b 28 8d 1e bb f8 17 83 3c
       0.014893097 0.0029921273 -0.0024193022 0.01600264
0000c0 3f 1b af bb 38 ea 26 bb d5 6d 62 3b dc 57 86 bc
       -0.005343824 -0.0025469195 0.0034550328 -0.016399316
0000d0 bb bb 1c 3b 5f d0 06 bc ea b8 9c bc f6 3d eb bc
       0.0023915607 -0.0082283905 -0.019131143 -0.028716069
0000e0 78 7a 28 3c 78 f7 b4 3c 89 75 db 3c c0 1b d3 3c
       0.010283105 0.022090659 0.026789444 0.025770068
0000f0 a6 62 c8 3a f2 2a 8b bc 9f 71 8d bc f9 10 cd 3c
       0.0015288189 -0.016988251 -0.017266093 0.025032507
000100 b0 d6 99 bc f1 ed 9d bc 33 b3 98 bb dd 79 29 bc
       -0.018779129 -0.019278498 -0.004660034 -0.010343996
000110 ee 02 9a bc 04 f5 7b bc 80 ea 76 bc 91 29 30 bb
       -0.018800225 -0.0153782405 -0.015070558 -0.0026880244
000120 70 8e dc bb ac 16 d0 3b 01 34 fc bb b9 a8 90 3c
       -0.006730847 0.006350359 -0.007696629 0.017658578
000130 6b b7 35 bb f0 18 d3 bc b5 54 8b 3c cf 11 b6 bc
       -0.0027727734 -0.025768727 0.017008165 -0.022225289
000140 6f 85 8b bc 6f 39 b9 3c 58 3c ac bb e6 7d 4b bc
       -0.0170314 0.022610394 -0.005256217 -0.012420153
000150 75 12 a0 bc 17 cb 05 bb 40 8a 02 bc d8 89 57 3c
       -0.019540051 -0.002041524 -0.007967532 0.013155423
000160 00 28 a1 bc 70 96 73 bc 16 07 31 3c 70 48 6a bc
       -0.019672394 -0.01486741 0.010804912 -0.014299497
000170 3c 0e cb 3b fb ab bc 3c ae 3c d3 3b c7 2b 69 3c
       0.006196765 0.023031225 0.0064464426 0.014231629
000180 95 72 08 bb 45 5d 20 3c fe 3e 6b 3c 27 92 f1 3b
       -0.002082025 0.009787862 0.01435828 0.007372159
000190 a3 35 83 3c 5c 7a c8 bc e3 af 59 bc 42 90 ad bb
       0.016016787 -0.024472408 -0.013286564 -0.005296738
0001a0 16 90 07 3c 97 d1 7b 3b 63 32 32 bc 22 a8 20 3b
       0.008274099 0.0038424486 -0.010876271 0.0024514277
0001b0 f3 31 e8 bb 65 de a1 3b f6 fe e0 ba 88 fe 96 bc
       -0.0070860325 0.0049398416 -0.0017165828 -0.018431917
0001c0 1f 5f 89 3b 95 1b 01 bc f9 64 fa bb f6 4a 3e 3c
       0.0041922475 -0.007880111 -0.0076414314 0.011614552
0001d0 2e 9a be 3b db d7 38 3c db 4d 35 3c f7 9c f6 ba
       0.0058167195 0.011281933 0.0110659255 -0.001881509
0001e0 fb 49 db bc 73 82 3d bc 02 8e 2e 3c a1 05 ee bc
       -0.026768675 -0.011566746 0.0106539745 -0.029055418
0001f0 66 4c a4 3b 59 a7 cf 3b 47 1e 11 3a 62 d0 28 bd
       0.00501399 0.006337088 0.0005535823 -0.041214354

bn2.running_mean f4 [128]
000000 57 96 90 3c 22 90 0f bc 3f c6 26 bd e8 c3 92 3d
       0.017649813 -0.008762391 -0.040716406 0.071662724
000010 b1 a6 16 bb d2 35 8b 3d 71 2c c2 bc 2a 2f 3d bd
       -0.002298754 0.06797375 -0.023702832 -0.046187557
000020 50 55 4a ba 5f 10 9f 3c c0 9e d5 bb 7f 5b 8b 3d
       -0.0007718401 0.019416986 -0.0065191686 0.06804561
000030 85 50 42 3c 72 91 42 3d 41 cf 81 3d dd a7 c7 bb
       0.011860018 0.04750199 0.06338359 -0.006093009
000040 e6 49 1c bd 20 d4 15 3d d5 60 a8 bc 49 28 48 bd
       -0.038156413 0.03657925 -0.020553986 -0.048866544
000050 90 03 1b bb a1 0e b3 3b ba 59 89 bd ae 9c 25 bd
       -0.0023653246 0.0054643904 -0.06706567 -0.040432625
000060 2b b7 b4 3c 91 37 97 bc 5f 4f cd bc 7f e5 f3 bc
       0.022059998 -0.018459113 -0.025062261 -0.029772518
000070 14 ae ec bc b6 ec 32 3b 8d c6 fc 3c 94 a8 86 bd
       -0.0288916 0.0027301735 0.030856395 -0.065751225
000080 81 d6 46 3d 8f 63 9f bb 71 ee 1c bc b6 a0 a1 3c
       0.04854441 -0.004864163 -0.009578333 0.019729953
000090 16 69 ad 3d a5 3e 98 3c 62 8a a7 3d 25 55 a1 3c
       0.08467309 0.018584559 0.08180691 0.01969392
0000a0 5a 48 aa 3c fe cc eb bc 71 90 2b 3d 03 a3 b6 bc
       0.020786453 -0.028784271 0.041885797 -0.022294527
0000b0 7b b7 57 3d f5 32 7e 3d 9e 33 b4 bc 62 b7 7f 3c
       0.052665215 0.062060315 -0.02199727 0.015607687
0000c0 b6 44 67 3c 51 51 39 bd 89 7b c5 3c 58 c6 57 3c
       0.014115503 -0.045243565 0.024106758 0.013169847
0000d0 4e 3d 54 3d be 38 9d bd d9 65 e6 3b d4 ba b0 bc
       0.051816277 -0.07676838 0.007031184 -0.021573462
0000e0 52 a4 13 3c 51 ed e6 3c f8 d4 33 3c f0 bc 2c 3d
       0.009011345 0.028189333 0.010976069 0.042172372
0000f0 5b 56 d6 3b b0 d9 d9 b9 8e a5 1b bb c7 0e 93 3d
       0.006541056 -0.00041551655 -0.0023749801 0.07180553
000100 fc 0b 99 bd d6 56 5f bd f3 c4 37 bd 4f 94 75 bc
       -0.07472989 -0.054526173 -0.04486556 -0.014988973
000110 3c 6f e7 bc 25 6f 14 bd 5e 1b 00 bd 3d a7 2e bd
       -0.028251283 -0.03623881 -0.0312761 -0.04263996
000120 29 9d 83 3b f4 96 64 bc 6c 89 1a bd 8f e4 87 3d
       0.0040165377 -0.013952006 -0.037728712 0.06635391
000130 a7 95 84 3d ab 8e 85 bd 6d 71 0b 3d d5 b1 9f bc
       0.064738564 -0.065213524 0.034043718 -0.019493977
000140 c1 6e 75 bd 3a c7 06 3d 37 62 2b bd cf d8 2a bd
       -0.059920076 0.03290484 -0.04184171 -0.04171067
000150 70 83 41 bd a8 22 bb ba 3c 90 4b bc 5b e0 20 bc
       -0.04724449 -0.0014277296 -0.012424525 -0.0098191155
000160 7f 27 2f bd 4a 00 03 bc 6e 82 24 3d 8e 9b d1 bc
       -0.042762276 -0.007995674 0.04016345 -0.02558687
000170 8e 61 1d 3d ff 8a a1 3d 5f f2 24 bc ae a0 84 3d
       0.038423114 0.078878395 -0.010067551 0.0647596
000180 99 20 9c bd 56 7e b8 3c 52 a2 86 bb 06 dd 52 3b
       -0.07623405 0.02252118 -0.0041087056 0.0032175197
000190 e8 d9 1a 3d 5d 90 5e bd 26 0a e8 bc 4b fc 2f bd
       0.037805468 -0.054336894 -0.028325152 -0.042965215
0001a0 4c 2a 95 3d aa ab 09 bc 75 4e d0 bc fb f7 8e 3c
       0.07283458 -0.008402744 -0.025428036 0.01745223
0001b0 d0 02 16 bc 70 26 00 3d 8f e6 b8 bc 2e 26 ef bc
       -0.009155944 0.031286657 -0.022570876 -0.02919301
0001c0 bc 0c 38 bc 0a 28 8b bd cb cc 13 bc ca 38 4c 3d
       -0.011233505 -0.06794746 -0.009020994 0.049858846
0001d0 aa 46 06 3d 19 6a c4 3c c2 b6 12 3d 33 56 44 bd
       0.032782234 0.023976373 0.035818823 -0.04793377
0001e0 39 15 fe bc b2 38 8d bb 34 a1 85 3c a2 1d 1a bd
       -0.03101598 -0.004309737 0.01631222 -0.037625916
0001f0 bd 6c 3b 3d af 26 4e 3c ca 92 c5 bc fd a6 58 bd
       0.045757998 0.012582465 -0.024117846 -0.052893627

bn2.running_var f4 [128]
000000 5a d9 46 3e 19 88 7f 3e 3f 67 81 3e 97 f4 7a 3e
       0.1941885 0.24954261 0.25274083 0.24507366
000010 4c f8 3e 3e ff 63 92 3e 17 f5 16 3e 38 51 84 3e
       0.18649405 0.28591916 0.14741932 0.25843215
000020 13 38 61 3e 7d 28 3a 3e 3c 6b 27 3e f1 11 67 3e
       0.21994047 0.18179508 0.163495 0.22565438
000030 58 4c 1b 3e 26 ec 5d 3e 15 aa 60 3e 09 28 33 3e
       0.15165842 0.21672115 0.21939881 0.17495741
000040 68 5f 1b 3e fc 0d 58 3e 9b 85 42 3e 9f 26 77 3e
       0.15173113 0.21099085 0.18996279 0.24135827
000050 d0 7f 4a 3e 19 01 2a 3e 1b 95 51 3e 60 bf 55 3e
       0.19775319 0.16601981 0.20467035 0.20873785
000060 f5 ff 34 3e 8c 43 85 3e 2f 29 4a 3e ab 52 5c 3e
       0.17675765 0.26028097 0.19742273 0.2151591
000070 d6 3d 65 3e 7e 64 52 3e b4 26 44 3e 8e c6 88 3e
       0.2238687 0.20546147 0.19155389 0.26713985
000080 23 cc 72 3e b9 ed 7b 3e 36 95 4f 3e d2 71 60 3e
       0.23710684 0.24602403 0.20271763 0.21918419
000090 cf 48 7e 3e fd 21 29 3e 2e a4 7f 3e 5c 65 84 3e
       0.24832462 0.16516872 0.24964973 0.2585858
0000a0 30 ad 1b 3e 26 4f 40 3e ef 55 8d 3e 0c bd 22 3e
       0.15202785 0.18780193 0.27604625 0.15892428
0000b0 9d f5 75 3e 2c 7f 8c 3e 7f f1 68 3e 64 c9 21 3e
       0.24019475 0.27440774 0.22748373 0.1579948
0000c0 2f 95 8a 3e 38 04 73 3e 3a 86 43 3e f0 7e 2c 3e
       0.27066943 0.23732078 0.19094172 0.16845298
0000d0 0c 38 7f 3e e1 59 9a 3e 23 0c 1e 3e 59 d4 5d 3e
       0.24923724 0.30146697 0.15434317 0.21663035
0000e0 75 e0 78 3e 47 89 50 3e 59 af 62 3e 62 58 38 3e
       0.24304374 0.20364867 0.22137202 0.18002465
0000f0 9f d7 49 3e 43 fa 82 3e a9 10 35 3e 57 a8 2d 3e
       0.19711159 0.2558156 0.17682137 0.16958748
000100 32 27 91 3e 63 1d 93 3e 65 1e 30 3e 65 78 84 3e
       0.28350216 0.28733358 0.17199095 0.25873104
000110 98 ae 84 3e 49 48 5a 3e b2 79 5e 3e 29 8d 73 3e
       0.25914454 0.21316637 0.2172611 0.23784317
000120 81 ee 3c 3e 09 1a 44 3e ba ee 29 3e 5f 55 a8 3e
       0.18450357 0.19150557 0.16594973 0.32877633
000130 ef 8e 99 3e 5b f4 8c 3e 88 da 40 3e 01 f7 51 3e
       0.29991862 0.27530178 0.18833363 0.20504381
000140 5b 90 9d 3e c9 26 3f 3e cb a9 4f 3e 12 c4 73 3e
       0.30774197 0.18667139 0.20279615 0.23805264
000150 82 b6 4c 3e 56 c8 73 3e 60 2a 66 3e b3 9b 79 3e
       0.19991496 0.23806891 0.22477102 0.24375801
000160 96 e8 6d 3e aa f3 87 3e 9e 33 64 3e 12 c6 54 3e
       0.23233256 0.26553088 0.22285315 0.20778683
000170 85 1a 6f 3e 7b 1b 90 3e 1a ac 3f 3e a7 c5 97 3e
       0.2334996 0.28145966 0.18717995 0.29642984
000180 57 8d 70 3e c8 0f 87 3e d7 9d 6e 3e 1f fb 40 3e
       0.23491417 0.26379228 0.23302399 0.18845795
000190 42 cf 37 3e 9c 11 81 3e 46 2a 6b 3e 7a 67 6c 3e
       0.17950156 0.25208747 0.22965345 0.23086348
0001a0 9a b3 9b 3e 0f 28 21 3e 5f 1a 41 3e 49 60 60 3e
       0.30410463 0.15737937 0.18857716 0.2191173
0001b0 e5 d9 64 3e 45 3c 2f 3e e6 b7 25 3e 6f 33 50 3e
       0.22348745 0.17112835 0.16183433 0.2033212
0001c0 6b 81 52 3e 45 74 4f 3e e8 66 6f 3e ec ae 41 3e
       0.20557182 0.20259197 0.233791 0.18914384
0001d0 56 09 4e 3e 9e 43 32 3e 85 27 39 3e ad 49 65 3e
       0.20120749 0.17408606 0.18081482 0.22391386
0001e0 3f 77 68 3e 8b 2e 2a 3e ba 12 55 3e cb 01 74 3e
       0.22701739 0.16619317 0.20807925 0.23828809
0001f0 92 53 97 3e cf 37 7a 3e b8 7b 7b 3e fd 78 7b 3e
       0.29555947 0.24435352 0.24558914 0.24557872

hidden3.weight f4 [16, 128]
000000 b2 ad a2 bd ce 00 8f bd 04 aa fc bc 99 f3 32 bd
       -0.07943286 -0.06982575 -0.030842789 -0.043689344
000010 d3 17 6b 3d 05 a1 52 bd 0d 0b 0a bd 96 b7 68 3d
       0.057395767 -0.05142309 -0.033701945 0.056815706
000020 15 36 87 bd 4e 6e 47 3d a4 ad bd bd b3 17 87 bd
       -0.06602112 0.04868918 -0.09261635 -0.06596317
000030 d5 9f 94 bd c3 ee 1b bd 34 40 62 3d e3 c5 a3 3c
       -0.07257048 -0.038069498 0.05523701 0.01999182
000040 bc 16 5e 3a f9 e8 94 3d 76 6d 91 bd 4b fe d3 bc
       0.00084720156 0.072709985 -0.07100956 -0.025878092
000050 9b 54 36 3d 79 40 e4 3c 58 87 24 bd ed dd 88 3d
       0.04451428 0.027862774 -0.040168136 0.06682954
000060 13 cf 98 bd ad 14 82 3d 1a fe 7e 3d 2b 8b 71 3d
       -0.07461371 0.063516 0.06225405 0.05897061
000070 05 a0 58 3d 7a 38 14 bd a9 f9 1e bd 39 a9 56 bd
       0.05288698 -0.036186673 -0.038812313 -0.052407477
000080 58 69 f9 3b 97 b7 d1 3c 9a 55 95 3c 5d cb 17 bd
       0.007611435 0.025600238 0.018229295 -0.037059177
000090 4c 8a 07 bd cf 20 37 3c 8f 69 b7 3b f5 10 ba 3d
       -0.033090875 0.011177256 0.0055973004 0.090852655
0000a0 63 82 6b 3b 52 c8 b8 3b 03 47 bd bd ec 9f d0 3c
       0.003593587 0.0056391144 -0.0924206 0.025466882
0000b0 bc a0 25 bb 41 b0 c3 bc 53 bd 62 3d fe 60 ce bc
       -0.0025272807 -0.023887755 0.055356335 -0.025192734
0000c0 be 0b 4b bc 23 ea 0f 3c 44 6a 57 3d 87 e9 1f 3c
       -0.012392936 0.00878385 0.052591577 0.009760267
0000d0 6e ab 40 3d b5 91 a0 3d 97 4a 93 3c 43 3b a4 3c
       0.047038488 0.078402914 0.017979903 0.02004779
0000e0 d6 e1 91 bd 4b c5 21 bd fd 8d 9c bd 4b a9 93 3a
       -0.07123153 -0.039494794 -0.076442696 0.0011265663
0000f0 20 e5 f0 bc 1d 79 3a bc 3c 85 8a bd 11 6e 55 3c
       -0.02940613 -0.011381415 -0.06763694 0.01302673
000100 53 52 17 3d 11 10 87 bd 22 8e 84 3d 5c a1 7f bd
       0.036943745 -0.06594861 0.06472422 -0.062409744
000110 a9 94 71 bd 83 bb 93 3d 63 8f ab 3b c3 ff 86 bd
       -0.058979664 0.072134994 0.005235599 -0.065917514
000120 7b 65 94 3d 43 dc 4f bc c8 97 4a bd a9 35 44 3d
       0.07245918 -0.012686792 -0.049461156 0.047902737
000130 0b 48 bf bd 68 87 88 bb ac 80 e8 bc 00 63 07 3c
       -0.09339913 -0.0041665323 -0.028381668 0.0082633495
000140 70 3a 43 3d d8 0e 78 bd 6f da 44 3d 4a 6f c5 bb
       0.047663152 -0.06056103 0.048059877 -0.0060252296
000150 d2 74 5d bd f9 d5 80 3d 7e 90 a1 bd 91 36 a7 bb
       -0.054066487 0.06290812 -0.07888888 -0.0051029404
000160 27 df 26 3d c8 7a 1a bd b5 d2 a8 bd 0d 75 0d 3d
       0.04074016 -0.03771475 -0.08243314 0.034535456
000170 fb b2 0d bb 1a b7 27 3d 18 ea 5d 3c d1 28 9a bd
       -0.0021621573 0.040946104 0.013544582 -0.07527316
000180 e0 a9 9c 3d 00 72 b0 bc 16 19 85 bd 69 0a 9d bd
       0.076495886 -0.021538734 -0.064989254 -0.07668001
000190 2d 3b 3d bd 31 12 86 bd b5 38 84 bd 14 0d 68 3d
       -0.046199013 -0.065464385 -0.064561285 0.056653097
0001a0 51 1f ff 3c 33 70 be 3c f1 c9 6f 39 6f da 77 3d
       0.031142863 0.02324686 0.00022868045 0.06051105
0001b0 49 80 11 bd 0e 9d a8 bd 2c f2 e0 bb 82 d7 eb 3a
       -0.035522733 -0.08233081 -0.0068648066 0.0017993303
0001c0 e2 7a 4e bd 19 09 3d bd e4 ea 86 3c 7a e0 4b bd
       -0.05041016 -0.046151254 0.016469426 -0.049774624
0001d0 4b b9 f8 ba 7f f2 2d 3c c8 8c 91 bd 3b bc cb 3d
       -0.001897612 0.010616898 -0.0710693 0.099480115
0001e0 fd 44 30 3d d5 c0 02 3d 50 8a a6 bd ca 4c 31 bb
       0.043034542 0.03192218 -0.0813185 -0.0027053826
0001f0 b9 6d 41 bd 95 be 3c bd c0 a3 26 3c e6 a2 00 3d
       -0.04722378 -0.04608019 0.010170877 0.031405352
000200 21 7d 1b 3d 1c a3 58 b9 a7 86 9d 3d 0a 03 99 bd
       0.03796113 -0.00020660128 0.076916985 -0.07471283
000210 f6 1e 13 bd 75 b7 70 bd 14 1a 40 3d 7a 0b d3 b9
       -0.0359182 -0.05876871 0.04689987 -0.00040253607
000220 d1 67 da 3c 5f d2 10 bc b5 1f cc bc 92 5c 6d 3d
       0.026660832 -0.008839219 -0.024917463 0.05794961
000230 2e fd e0 bd 4d f0 e0 bc 9f 59 2a bd c4 f0 12 3c
       -0.1098579 -0.027458334 -0.041589376 0.008968536
000240 57 82 a6 3c 23 e7 f3 b9 03 28 ed b7 11 98 1f bd
       0.020325823 -0.00046520782 -2.8271234e-05 -0.03896338
000250 f7 c5 45 bd 5f 0f ca 3c e1 db 44 3d f8 4d c5 bc
       -0.048284497 0.024665533 0.048061255 -0.02408503
000260 15 29 ad bd e5 bf b6 3d e3 42 4b 3d ac c0 9a 3c
       -0.084551014 0.0892332 0.049624335 0.018890701
000270 29 3a b7 ba 99 8c ca 39 45 bc 07 3d 3b 52 b2 bd
       -0.0013979125 0.00038633196 0.033138532 -0.087070905
000280 68 ea b7 bd da 1a a6 bd 6c 8c fa bd 73 cb a3 3d
       -0.08980256 -0.0811059 -0.122338146 0.07997789
000290 3b 23 66 bd 11 2d 4c 3b e4 b8 58 3d fb 3e 82 bd
       -0.056185942 0.0031154791 0.0529107 -0.06359669
0002a0 a5 12 d6 bb e7 bd 89 bd 99 29 90 3c 7b 9c c7 bb
       -0.0065329843 -0.06725674 0.01759796 -0.006091652
0002b0 2f f2 9c 3d b3 63 7b 3d 18 c8 13 bd 8a 59 9a bd
       0.0766338 0.061374377 -0.036079496 -0.075366095
0002c0 1c 80 db 3d 47 44 41 bd 82 ca a7 bd 41 b4 8f 3d
       0.10717794 -0.047184255 -0.08192922 0.070168026
0002d0 76 69 73 bc 23 ee f3 3b fa db 05 3d 4e 5c e9 bc
       -0.014856687 0.0074441596 0.03268049 -0.028486397
0002e0 1a ee e3 bc aa 84 09 3d 9a 70 c1 3d 1b d2 09 bd
       -0.027823497 0.033573784 0.09445305 -0.033647638
0002f0 d2 d9 da bc da d3 17 3c b8 fa e6 3d b0 ef 8d bd
       -0.026715193 0.009266818 0.112782896 -0.069304824
000300 36 96 88 bd ee 50 83 3d 7f 2e 83 bd 1f f6 34 3d
       -0.066692755 0.064119205 -0.06405353 0.044180032
000310 30 5a 95 3d 2f fb 01 bd 43 cb 3c bd 71 63 86 3c
       0.072925925 -0.031733688 -0.046092283 0.01640484
000320 37 22 58 bd 00 01 62 bc 50 8d 91 3c 53 41 49 3c
       -0.052767005 -0.013794184 0.017767578 0.012283641
000330 b9 10 a2 3d 98 1a 2b bd 59 10 1f bd dc aa 5e bb
       0.07913346 -0.04177341 -0.03883395 -0.0033976352
000340 0c 0d 73 bd 08 c7 59 bd 9b e7 85 bd b3 72 4f bd
       -0.059338614 -0.053168327 -0.06538316 -0.050646495
000350 05 e0 f0 bc 68 8f 47 3c 70 c0 32 3d 67 06 af bb
       -0.029403696 0.012180187 0.043640554 -0.0053413394
000360 b4 a5 47 3d 89 84 84 3d 3f 12 0c 3d d9 bf 87 3d
       0.04874201 0.064705916 0.03419709 0.06628389
000370 25 ee e6 bd 30 28 81 bd 95 96 48 3d 07 8f 99 bc
       -0.11275891 -0.06306493 0.04897173 -0.018744959
000380 cb ce 34 bd be ea 6b bd 33 93 80 3d d2 3d 9a bd
       -0.044142526 -0.057596914 0.06278076 -0.075313225
000390 9c 42 53 3c b1 0d 8c 3d 57 22 11 3d a4 64 1e 3c
       0.012894299 0.06838549 0.03543314 0.009667549
0003a0 73 b2 21 bc 8d 4b 81 3b fb 29 04 bd e6 17 95 3d
       -0.009869206 0.003945774 -0.0322666 0.07279949
0003b0 f6 0c 05 3c 28 fe ea 3c 86 fe 85 3c 0a 85 48 bd
       0.008120766 0.028685644 0.016356718 -0.048955
0003c0 ba 4f cc 3d eb 04 e9 bb 8e f2 ed bc 13 2f 3b 3d
       0.09976144 -0.007111182 -0.029046323 0.04569919
0003d0 20 4c ce 3c 73 91 1c bd b7 0b 8c bd 33 4d 0c bc
       0.025182784 -0.03822465 -0.06838172 -0.008563328
0003e0 59 8a 27 bd f9 20 61 3a 99 cb 13 3d 36 d4 1c 3d
       -0.040903423 0.0008587982 0.036082838 0.038288318
0003f0 20 81 bb bc 08 26 0d 3c 35 37 f5 3d d7 b4 c9 ba
       -0.02288872 0.008615024 0.119734205 -0.0015388977

bn3.weight f4 [16]
000000 31 a5 7d 3f 42 e3 69 3f 99 0d 7e 3f 22 37 77 3f
       0.9908019 0.9136239 0.992395 0.965685
000010 02 1e 71 3f e6 e1 7c 3f 60 23 65 3f 30 b0 7a 3f
       0.94186413 0.98782194 0.895071 0.9792509
000020 ea 34 6d 3f 47 4a 71 3f 1a 2a 66 3f 77 32 6a 3f
       0.92658865 0.94253963 0.8990799 0.91483253
000030 f7 a3 75 3f 39 ce 78 3f 0b 99 7e 3f 48 4e 7f 3f
       0.95953315 0.9718967 0.99452275 0.9972882

bn3.bias f4 [16]
000000 d9 42 d0 bd 9d e0 b8 be 72 11 c1 bd 08 cf 76 3e
       -0.10169 -0.36108866 -0.094271556 0.24102414
000010 33 a1 81 3e c8 5b b7 3d db 8c d1 3e bb 2f 1e 3e
       0.25318298 0.08953053 0.40927777 0.15447895
000020 56 9e c3 be 7b 0d c9 be 83 c0 c3 3e bf 66 12 3f
       -0.38206738 -0.39268097 0.38232812 0.5718803
000030 c9 d3 70 be ec fc 2c be 25 27 c7 3d 93 6b 68 3c
       -0.2351829 -0.16893357 0.09724263 0.014185804

bn3.running_mean f4 [16]
000000 f6 67 fb bc 88 47 ce ba 36 f9 0f bd 20 76 40 bb
       -0.03068922 -0.0015737871 -0.035149775 -0.0029367283
000010 fb c4 86 3b a2 15 9b 3c d0 29 8c 3d 07 a7 82 bc
       0.0041128374 0.018931214 0.068439126 -0.015948785
000020 70 91 80 3c 96 ac bd bd b4 f5 61 bc d6 e0 c4 3d
       0.01569435 -0.09261434 -0.01379149 0.096131966
000030 b3 0d 9f 3c ce d0 d0 bc be 5c f0 3b 62 8d df 3b
       0.019415712 -0.02549019 0.0073352745 0.006822274
