models/focal_loss_checkpoints/checkpoint_epoch_240.pth (torch, 100242 bytes, 16 tensors)

hidden1.weight f4 [128, 30]
0	0x3ddbbe72	0.10729684
1	0xbe23b338	-0.15986335
2	0xbd5afdac	-0.053464577
3	0xbd404843	-0.046943914
4	0x3de244e0	0.11048293
5	0xbdbd0215	-0.09228913
6	0x3c31036d	0.010804039
7	0x3ca5d00b	0.020240804
8	0xbc418b19	-0.011812949
9	0xbdd3c873	-0.10340967
10	0xbe12ebca	-0.14347759
11	0x3e454704	0.19265372
12	0xbde0f0e5	-0.10983447
13	0x3cea6530	0.028612703
14	0xbd54825e	-0.05188214
15	0x3db0eba6	0.08638696
16	0xbe4ff6c6	-0.2030898
17	0x3d66e4c3	0.056370508
18	0x3e2983d6	0.16554198
19	0x3e679826	0.22616634
20	0x3dc1fcee	0.09472071
21	0x3cd43ccb	0.025907895
22	0xbde7af7c	-0.11312768
23	0x3d5b0d2e	0.053479366
24	0x3dc02d05	0.09383587
25	0x3d784db7	0.06062099
26	0xbd9aacee	-0.07552515
27	0x3e2d9f10	0.16955209
28	0x3dd81807	0.10551458
29	0xbdc525c7	-0.09626346
30	0xbe378b5d	-0.17924257
31	0x39904427	0.00027516598
32	0x3cde86b5	0.027163843
33	0x3cf74d43	0.030188208
34	0xbd0ca3e7	-0.034335997
35	0x3c2b3ff8	0.010452263
36	0xbd9bfa6f	-0.07616126
37	0x3b90d2ea	0.004419674
38	0xbd1ff3a6	-0.03905072
39	0xbe1169b8	-0.14200485
40	0xbd972118	-0.07379359
41	0xbe2457b3	-0.1604908
42	0x3e2ee780	0.17080498
43	0x3e14fc7b	0.14549439
44	0x3d958a8b	0.073018156
45	0xbd1512b6	-0.036394797
46	0xbdf09928	-0.11747962
47	0x3d6eadb6	0.058271132
48	0x3dc763f3	0.09735861
49	0x3deeca7d	0.11659715
50	0xbe3c6496	-0.18397745
51	0xbe083e3a	-0.13304988
52	0xbdcbefc7	-0.09957843
53	0x3d7b5c61	0.061367396
54	0x3e4915eb	0.19637267
55	0xbe219ae4	-0.15781742
56	0x3dd92414	0.106025845
57	0x3c9c809e	0.019104298
58	0xbe1a03dc	-0.15040535
59	0xbd35ecaa	-0.044415154
60	0x3e09082a	0.1338202
61	0x3be1ddae	0.0068928814
62	0x3d42948f	0.047504958
63	0xbe025920	-0.12729311
64	0xbba91144	-0.005159529
65	0x3d960b1b	0.07326337
66	0x3dec00a9	0.115235634
67	0xbd3623e8	-0.044467837
68	0x3dceca98	0.100972354
69	0x3de8475c	0.11341736
70	0x3c934447	0.017976893
71	0xbe02064d	-0.12697716
72	0xbe37c8e5	-0.17947729
73	0x3de24d07	0.11049848
74	0x3e0c75fa	0.1371688
75	0x3e28a0f7	0.16467653
76	0xbe2dbb92	-0.16966084
77	0xbe39a4ef	-0.18129323
78	0xbdb69063	-0.08914258
79	0xbdee978f	-0.11650001
80	0x3cf1fc78	0.029539332
81	0xbd2970c2	-0.0413673
82	0xbe2f2c9a	-0.17106858
83	0xbdd9c632	-0.10633506
84	0xbdd0867f	-0.10181903
85	0xbda87cda	-0.082269385
86	0x3d33a4a7	0.043858197
87	0xbd916cfe	-0.07100867
88	0xbbaa7675	-0.0052021095
89	0x3e0b8a25	0.13626917
90	0xbbdf320d	-0.0068113864
91	0x3e2c3e80	0.16820717
92	0xbdac4283	-0.084111236
93	0xbce3b526	-0.02779634
94	0xbdbdb051	-0.09262145
95	0x3d3bf011	0.045883242
96	0x3d199c81	0.03750277
97	0x3d0d4775	0.034491975
98	0xbd3312d2	-0.04371912
99	0xbda6395e	-0.08116411
100	0x3e0ce166	0.13757858
101	0xbe342a52	-0.17594269
102	0x3cfb3852	0.030666504
103	0x3dbe199d	0.09282229
104	0xbd3e284f	-0.04642516
105	0x3e0091c8	0.12555611
106	0xbdaf9214	-0.08572784
107	0xbd02b05a	-0.031906463
108	0xbdf3f5b6	-0.119121
109	0xbc86fca0	-0.016477883
110	0xbd0b0f5d	-0.0339502
111	0xbe2a4c8f	-0.16630767
112	0x3d824c9f	0.063622706
113	0xbd1601d5	-0.03662284
114	0x3e4e6a71	0.20157792
115	0x3e41391b	0.1886944
116	0xbe18fc33	-0.14939956
117	0x3d32d0a1	0.043655995
118	0x3d91918d	0.0710784
119	0xbde2ad3b	-0.11068197
120	0x3d9eee22	0.07760264
121	0x3c7b2994	0.015329737
122	0xbe524b99	-0.2053665
123	0xbddfe0e9	-0.1093157
124	0xbe31f988	-0.17380345
125	0xbde27bc6	-0.11058764
126	0x3e06a3a5	0.13148363
127	0xbd9a3347	-0.075293116
128	0x3d22286f	0.03958934
129	0x3e3a6269	0.18201603
130	0x3e04da35	0.12973864
131	0x3dc628ef	0.09675776
132	0x3e69854b	0.22804753
133	0xbd56d134	-0.052445605
134	0x3dad5830	0.08464086
135	0xbe0c9bef	-0.13731359
136	0x3d6c91d7	0.05775627
137	0xbd56dfc2	-0.052459486
138	0xbde040be	-0.109498486
139	0xbe40d451	-0.18830992
140	0xbc1908b1	-0.009340451
141	0x3cb9ad57	0.022665663
142	0xbd947b79	-0.07250113
143	0x3d408d31	0.04700965
144	0x3e2390d8	0.15973222
145	0x3e062dcb	0.13103406
146	0xbc673b9d	-0.014113334
147	0xbd9e91d1	-0.07742656
148	0xbc0ebdbe	-0.00871223
149	0x3d0c45d4	0.03424628
150	0xbda3dcdf	-0.08001112
151	0xbd82db6d	-0.063895084
152	0x3e2fe4da	0.17177144
153	0x3ca57b19	0.0202003
154	0x3e4b3130	0.19842982
155	0x3d2a50fe	0.041581146
156	0x3e5be187	0.2147275
157	0x3b4d7bf4	0.00313544
158	0xbd15e984	-0.03659965
159	0x3d104ce6	0.035229586
160	0x3d3ac94e	0.045602135
161	0x3dc299da	0.09502001
162	0xbd76dd61	-0.060269717
163	0x3dd7490f	0.10511982
164	0xbe2e100c	-0.16998309
165	0x3da70011	0.081543095
166	0x3da5c7dc	0.08094761
167	0xbdc9145b	-0.098183356
168	0xbd72870a	-0.059210815
169	0x3de50306	0.11182217
170	0x3d67f243	0.056627523
171	0xbd2465a7	-0.040136006
172	0xbdc277ad	-0.094954826
173	0xbc87559c	-0.016520314
174	0x3dba4667	0.090954594
175	0xbda863ee	-0.08222185
176	0xbd5d7d60	-0.054074645
177	0xbe0cf3c2	-0.13764861
178	0xbdaba413	-0.08380904
179	0x3d566463	0.05234183
180	0xbdd4a972	-0.10383882
181	0xbd423fd2	-0.047424145
182	0x3d5fbef9	0.054625485
183	0xbe0a96aa	-0.13534036
184	0xbd413100	-0.04716587
185	0x3e2103b5	0.1572407
186	0xbd6c8b5c	-0.05775009
187	0x3dec1447	0.11527305
188	0xbc187f8f	-0.009307756
189	0xbe16acd2	-0.14714363
190	0xbd5c3891	-0.053764883
191	0xbe3f9288	-0.18708241
192	0x3e407295	0.1879371
193	0x3e2aea09	0.1669084
194	0x3dfdaca8	0.12386447
195	0x3d61875a	0.055060722
196	0x3e060692	0.13088444
197	0x3d7f4862	0.06232489
198	0x3cc435ae	0.023951378
199	0x3d3bb6c1	0.045828585
200	0x3d805aaa	0.06267293
201	0xbcbb5891	-0.02286938
202	0xbe04da12	-0.12973812
203	0x3df35d56	0.11883037
204	0x3e075571	0.13216187
205	0xbdb850aa	-0.089997604
206	0x3d675374	0.05647607
207	0x3dc53f82	0.09631254
208	0x3b9ef882	0.004851402
209	0xbdd34e32	-0.10317649
210	0xbc3aa56f	-0.0113919815
211	0xbd8f9a7b	-0.07011887
212	0xb9746da5	-0.00023310499
213	0x3e12b91a	0.14328423
214	0xbe475745	-0.19466884
215	0xbdbf2346	-0.093329
216	0x3d258a64	0.040415183
217	0xbd0ff694	-0.035147265
218	0xbdc83d81	-0.09777356
219	0xbc55e007	-0.013053901
220	0x3d96a608	0.07355887
221	0xbe40d4b7	-0.18831144
222	0xbcb85493	-0.022501266
223	0x3d51046f	0.05102962
224	0x3d9d14d7	0.076699905
225	0xbc35e9b0	-0.011103079
226	0x3e2067b7	0.15664564
227	0x3e1180e6	0.14209327
228	0xbdc9e0dc	-0.09857342
229	0x3d3df477	0.046375718
230	0x3dd88613	0.10572448
231	0xbd753c5f	-0.059872027
232	0x3e237d75	0.15965827
233	0xb842c4fb	-4.6436657e-05
234	0x3e2e0f00	0.1699791
235	0xbd92a45c	-0.07160255
236	0x3e21ea60	0.15812063
237	0xbe02caa8	-0.1277262
238	0x3db0c1bc	0.08630702
239	0xbdba39d0	-0.09093058
240	0xbdfaaf12	-0.12240423
241	0x3db2d32b	0.08731683
242	0xbe2658bb	-0.16244785
243	0x3e263e15	0.1623462
244	0x3d9a54ac	0.07535681
245	0xbd4c44ea	-0.04987041
246	0x3d0e0983	0.03467704
247	0x3e12a452	0.14320496
248	0x3d0a42d7	0.03375515
249	0x3ceba567	0.028765393
250	0x3e4334f1	0.19063164
251	0x3dee7ba7	0.116446786
252	0xbc9fddd1	-0.01951495
253	0x3ccc8dc4	0.024969943
254	0x3e674309	0.22584166
255	0xbddc0da7	-0.107447915

bn1.weight f4 [128]
0	0x3f811074	1.0083146
1	0x3f7f950f	0.9983682
2	0x3f80b98e	1.0056627
3	0x3f802695	1.0011774
4	0x3f7e5b04	0.9935763
5	0x3f84d03d	1.0376049
6	0x3f823b0d	1.0174271
7	0x3f7fa4fe	0.99861133
8	0x3f8241f0	1.0176373
9	0x3f80dd27	1.006749
10	0x3f80efee	1.0073221
11	0x3f800e87	1.0004433
12	0x3f80a2df	1.0049704
13	0x3f8021ac	1.0010276
14	0x3f7e0b4b	0.9923598
15	0x3f80968e	1.0045946
16	0x3f809568	1.0045595
17	0x3f80af5b	1.0053514
18	0x3f81beff	1.0136412
19	0x3f80f6d1	1.0075322
20	0x3f82388b	1.0173506
21	0x3f7fb501	0.99885565
22	0x3f80e80d	1.0070816
23	0x3f81e131	1.0146848
24	0x3f81af63	1.0131649
25	0x3f81c071	1.0136853
26	0x3f7f7ed3	0.99802893
27	0x3f8279ce	1.0193422
28	0x3f80cacf	1.0061892
29	0x3f8027d2	1.0012152
30	0x3f8078d0	1.0036869
31	0x3f81242f	1.0089167
32	0x3f8143bd	1.0098797
33	0x3f82d715	1.0221888
34	0x3f80d72d	1.0065666
35	0x3f825a87	1.0183877
36	0x3f822ff6	1.0170887
37	0x3f8209be	1.0159223
38	0x3f80bfbe	1.0058515
39	0x3f8246fa	1.017791
40	0x3f7fe75d	0.9996241
41	0x3f7e9e16	0.9945997
42	0x3f80a6dd	1.0050923
43	0x3f859594	1.0436273
44	0x3f8130b7	1.0092992
45	0x3f80034f	1.000101
46	0x3f7c4a42	0.9855081
47	0x3f81d877	1.0144185
48	0x3f8077ee	1.00366
49	0x3f7c690e	0.985978
50	0x3f7f24c9	0.99665505
51	0x3f817e2c	1.011663
52	0x3f816100	1.0107727
53	0x3f803c0c	1.0018325
54	0x3f837e7e	1.0272977
55	0x3f826503	1.0187076
56	0x3f805172	1.0024855
57	0x3f8103be	1.0079267
58	0x3f800f18	1.0004606
59	0x3f81d3c2	1.0142748
60	0x3f7fd783	0.9993822
61	0x3f806f4f	1.0033969
62	0x3f80d297	1.0064267
63	0x3f8304a9	1.0235797
64	0x3f830ad8	1.0237684
65	0x3f816a46	1.0110557
66	0x3f81a49f	1.0128363
67	0x3f836050	1.0263767
68	0x3f823a29	1.0173999
69	0x3f821b43	1.016457
70	0x3f82d644	1.0221639
71	0x3f81f9ac	1.0154319
72	0x3f7f8aad	0.9982098
73	0x3f805098	1.0024595
74	0x3f7eeda3	0.99581355
75	0x3f83f32a	1.0308583
76	0x3f83e35f	1.0303763
77	0x3f81c7d9	1.0139114
78	0x3f80f407	1.0074471
79	0x3f7f1adb	0.99650353
80	0x3f7fbe5a	0.9989983
81	0x3f81ed70	1.0150585
82	0x3f81979b	1.0124391
83	0x3f80cf10	1.006319
84	0x3f7e2bab	0.9928538
85	0x3f82cdcf	1.0219058
86	0x3f7deb23	0.99186915
87	0x3f808f65	1.004376
88	0x3f80568e	1.0026414
89	0x3f80da6c	1.0066657
90	0x3f825e52	1.0185034
91	0x3f7af5bb	0.98031205
92	0x3f7fa192	0.9985591
93	0x3f8093c2	1.0045092
94	0x3f7e8c5d	0.9943293
95	0x3f8075e8	1.0035982
96	0x3f813366	1.009381
97	0x3f81b360	1.0132866
98	0x3f814d6e	1.0101755
99	0x3f8394ea	1.027982
100	0x3f87a17f	1.059616
101	0x3f7ea22b	0.994662
102	0x3f7a7cac	0.97846484
103	0x3f7f3f7c	0.99706244
104	0x3f840fd1	1.0317327
105	0x3f859d4f	1.0438632
106	0x3f80933e	1.0044935
107	0x3f7f7951	0.9979449
108	0x3f80c3b4	1.0059724
109	0x3f7d76ab	0.990092
110	0x3f7fb605	0.99887115
111	0x3f81a04f	1.0127047
112	0x3f823724	1.0173078
113	0x3f81e00c	1.0146499
114	0x3f8132d9	1.0093642
115	0x3f80cb1a	1.0061982
116	0x3f81cfbe	1.0141523
117	0x3f8051a9	1.0024921
118	0x3f834968	1.0256777
119	0x3f7f8708	0.99815416
120	0x3f812e9a	1.0092347
121	0x3f843d25	1.033116
122	0x3f7a8550	0.9785967
123	0x3f80452d	1.0021111
124	0x3f8346f8	1.0256033
125	0x3f817cf6	1.011626
126	0x3f7f07da	0.99621356
127	0x3f81e8a8	1.0149126

bn1.bias f4 [128]
0	0xbd83467c	-0.06409928
1	0x3d4ba852	0.04972107
2	0xbb619e20	-0.0034426525
3	0x3cfceb9f	0.030874072
4	0x3d8771ab	0.06613477
5	0xbd5f168d	-0.054464865
6	0x3d275325	0.040850777
7	0x3d1b64ee	0.03793805
8	0x3d0f6bca	0.035014905
9	0x3d9f836c	0.077887386
10	0xbd2d11c4	-0.04225327
11	0xbb481a1e	-0.0030533145
12	0x3d288668	0.041143805
13	0x3c995b4a	0.018720288
14	0xbdd844ff	-0.10560035
15	0xbcf75c37	-0.030195339
16	0xbc0319f1	-0.00800179
17	0xbc82956d	-0.015940392
18	0x3d6ddcd7	0.058071937
19	0x3c621ace	0.013800336
20	0xbd750ca8	-0.059826523
21	0x3d041b65	0.032252688
22	0xbb4ca56a	-0.0031226524
23	0x3ceacce9	0.028662162
24	0xbd25a40c	-0.04043965
25	0x3d0968f7	0.033547368
26	0x3c000691	0.007814066
27	0xbd89ffa6	-0.06738214
28	0x3ce9d6a2	0.028544728
29	0x3b9e867b	0.0048378087
30	0x3d688723	0.0567695
31	0xbc6205c8	-0.013795324
32	0x3d97b593	0.074076794
33	0xbe195ae8	-0.14976084
34	0x3c824ab1	0.015904756
35	0x3a311e9a	0.0006756574
36	0xbca9e05f	-0.020736871
37	0xbc9b736a	-0.018975932
38	0xbc954792	-0.018222604
39	0x3dfda2ef	0.12384593
40	0xbdbb1918	-0.09135646
41	0xbd768644	-0.06018664
42	0x3da155d6	0.078777
43	0x3d2499ac	0.040185615
44	0x3d5cf5ff	0.053945538
45	0x3c8fa805	0.017536173
46	0xbd654aca	-0.055979528
47	0x3baab709	0.005209808
48	0x3ce0e1f6	0.027451497
49	0xbcbd6535	-0.023119548
50	0x3cffab01	0.03120947
51	0xbc71ac9b	-0.014750625
52	0x3cdcdf8a	0.02696206
53	0x3d8e9f62	0.069639936
54	0xbdbd400f	-0.09240734
55	0xbc85fea6	-0.016356777
56	0xbd0438e3	-0.032280814
57	0xbca35e9a	-0.01994257
58	0x3c38ccfa	0.011279339
59	0x3db967a4	0.09052971
60	0xbd01a2fa	-0.031649567
61	0x3d1675fc	0.036733612
62	0x3cf57139	0.029961215
63	0x3d223d08	0.039608985
64	0x3bf0f4f0	0.0073534176
65	0x3b8fbd05	0.0043865466
66	0x3cc8ef76	0.024528246
67	0xbd4d7145	-0.05015685
68	0x3c012716	0.007882854
69	0xbd13246f	-0.035923418
70	0x3d148910	0.036263525
71	0x3d3cc5fb	0.046087246
72	0x3dead9a8	0.11467296
73	0xbd600f12	-0.054701872
74	0xbd757540	-0.05992627
75	0x3d40301e	0.046920888
76	0x3ddbac45	0.10726217
77	0x3d497aac	0.049189255
78	0xbd5d7694	-0.054068163
79	0xbc6ad4f1	-0.014332996
80	0x3dce8aba	0.10085054
81	0x3d23abc8	0.039958745
82	0x3ceceb56	0.02892081
83	0x3d12bd24	0.03582491
84	0xbdbbce22	-0.09170176
85	0xbce3e7b8	-0.027820453
86	0x3dc61250	0.096714616
87	0xbdc36a12	-0.09541716
88	0x3d61bf2f	0.055113968
89	0x3b7c81c8	0.0038529504
90	0xbcb0c9f8	-0.021580681
91	0xbd5aad4c	-0.053387925
92	0x3d7d0403	0.061771404
93	0xbcd4e0bc	-0.025986068
94	0x3d19f9f2	0.037591882
95	0x3d64dd01	0.05587483
96	0x3c5f45d5	0.013627489
97	0x3bc78760	0.006089136
98	0xbc8faf78	-0.017539725
99	0x3d8c28ff	0.06843757
100	0x3cceda87	0.025250686
101	0x3c94b15a	0.018150974
102	0xbd329b27	-0.043604996
103	0xbcb8b641	-0.022547843
104	0xbd3ecc33	-0.04658146
105	0x3d6ad161	0.057328586
106	0xb718b35d	-9.101667e-06
107	0xbd053270	-0.032518804
108	0x3c9a443a	0.018831361
109	0xbd3baa60	-0.04581678
110	0x3db49370	0.08817184
111	0x3d703049	0.0586398
112	0x3d00951e	0.03139221
113	0xbc907349	-0.017633097
114	0xbc4e14c5	-0.012578194
115	0x3d31a1af	0.043367084
116	0x3d1f2dd5	0.03886207
117	0x3c53de14	0.0129313655
118	0x3d210a7f	0.03931665
119	0xbb38706c	-0.002814318
120	0xba3a1dcf	-0.0007099779
121	0x3d54ec29	0.051983032
122	0xbddef508	-0.1088658
123	0xbc3732d7	-0.011181555
124	0x3d2dbb55	0.042414982
125	0xbc84e296	-0.016221326
126	0xbd9a5ffd	-0.075378396
127	0x3d1a1705	0.03761961

bn1.running_mean f4 [128]
0	0xbd6bc025	-0.05755629
1	0xbe1110c4	-0.14166552
2	0x3e5eda2a	0.2176291
3	0xbe1bf5a3	-0.15230422
4	0x3da2a690	0.079419255
5	0x3dda83fe	0.10669707
6	0xbe30c3ce	-0.17262194
7	0xbda6df06	-0.08148007
8	0x3dcfcb53	0.10146203
9	0x3e719b74	0.23594457
10	0xbd053579	-0.0325217
11	0x3e3de9b8	0.18546188
12	0xbd91fce5	-0.07128314
13	0x3d940178	0.07226843
14	0x3c4fa739	0.012674146
15	0xbd5fbe87	-0.05462506
16	0x3e639701	0.22225572
17	0xbc4bc183	-0.0124362735
18	0x3da91101	0.08255196
19	0xba5217cc	-0.000801441
20	0xbdcfdb1d	-0.101492144
21	0xbe1838c5	-0.14865406
22	0xbe359732	-0.17733458
23	0x3d8e79c8	0.06956822
24	0xbd248ebd	-0.04017519
25	0xbe09ca38	-0.13456047
26	0x3c2754c6	0.010213083
27	0x3ded28d6	0.115800545
28	0xbdb1eac9	-0.0868736
29	0x3d59f2d4	0.053210095
30	0xbcf0aaad	-0.02937826
31	0x3e3fdff1	0.1873777
32	0xbd1e3771	-0.03862709
33	0x3d1ffd1b	0.03905974
34	0x3d0a447a	0.03375671
35	0x3cc7ad76	0.024374705
36	0x3e7cf69f	0.24703453
37	0x3e58475e	0.21120974
38	0x3d763663	0.06011046
39	0xbe2cc119	-0.16870536
40	0xbe01e587	-0.12685214
41	0xbdf7e19c	-0.121035784
42	0xbdfcac68	-0.123375714
43	0xbcab0691	-0.020877155
44	0x3e19264d	0.14956017
45	0x3e3796e0	0.17928648
46	0x3bb85c09	0.005626206
47	0x3d8329a9	0.064044304
48	0xbd52210d	-0.05130105
49	0x3e4428b6	0.19156155
50	0x3de7aa23	0.11311748
51	0x3d0e5b63	0.034755122
52	0x3db09086	0.08621316
53	0xbc7d33c2	-0.015454235
54	0x3e3914db	0.18074362
55	0xbd599fad	-0.053130794
56	0x3e2c13aa	0.16804376
57	0xbcd08c83	-0.025457626
58	0xbd6f8487	-0.058475997
59	0x3e05f4db	0.13081686
60	0x3d01ddfb	0.031705838
61	0x3d9f059a	0.0776474
62	0xbe8ae8bc	-0.27130687
63	0x3dd5c9c9	0.10438878
64	0xbdf247b5	-0.11830083
65	0x3d602ea8	0.054731995
66	0x3e1b516a	0.15167776
67	0xbc20fe53	-0.009826261
68	0x3e2933ac	0.16523618
69	0xbde1f5c4	-0.11033204
70	0xbc84d0ae	-0.016212787
71	0xbd018ed0	-0.031630337
72	0xbd270907	-0.040780094
73	0xbdd2d691	-0.102948315
74	0x3db0d23e	0.086338505
75	0x3e29c636	0.16579518
76	0xbdfb55da	-0.12272234
77	0x3d281160	0.041032195
78	0xbe295cdc	-0.1653933
79	0x3e7c44d3	0.2463563
80	0x3d7fd932	0.062462993
81	0x3c8b618b	0.017014286
82	0x3e0e4d26	0.13896617
83	0xbcda592b	-0.026653847
84	0xbd436ff0	-0.047714174
85	0xbcbcbdd2	-0.023039732
86	0xbdc97059	-0.09835882
87	0x3e8a2cbb	0.26987252
88	0xbe0af8ec	-0.13571519
89	0x3d70c55d	0.05878197
90	0x3dde8f2e	0.10867153
91	0x3e57a863	0.21060328
92	0xbe260c35	-0.16215594
93	0x3b7b2428	0.0038321111
94	0xbd867cb7	-0.06566756
95	0xbe06ec4c	-0.13176078
96	0x3c465328	0.012104787
97	0x3d464348	0.04840401
98	0xbd5c776e	-0.053824835
99	0xbe0f99e5	-0.1402355
100	0x3c4bb2be	0.012432752
101	0xbe3bd0a4	-0.18341309
102	0x3e0f19d4	0.13974696
103	0x3d604149	0.05474976
104	0x3e12a232	0.14319685
105	0xbde7e778	-0.11323446
106	0xbd118de7	-0.03553572
107	0x3dee2d77	0.116297655
108	0xbbf6ddd5	-0.0075337687
109	0x3dd265e4	0.1027334
110	0x3d9579e6	0.07298641
111	0xbd53cec1	-0.051710848
112	0xbe0bf7f8	-0.13668811
113	0x3ce00103	0.027344232
114	0x3d9133a7	0.0708993
115	0xbd919153	-0.071077965
116	0x3dc28112	0.094972745
117	0x3dc82e4a	0.09774454
118	0x3dc8dcf7	0.09807771
119	0xbe22cc66	-0.15898284
120	0x3dac5b4d	0.08415852
121	0xbdc6cfad	-0.0970758
122	0x3e072283	0.13196759
123	0x3dfbba6b	0.12291416
124	0xbd99a853	-0.075028084
125	0xbdd97ec4	-0.10619882
126	0xbd9e96cf	-0.07743608
127	0xbded08aa	-0.11573918

bn1.running_var f4 [128]
0	0x3f129df2	0.57272255
1	0x3f2e73e1	0.6814557
2	0x3f205a22	0.6263753
3	0x3f0c77b4	0.5487015
4	0x3ee14e34	0.44004977
5	0x3eeaf30f	0.45888564
6	0x3f043aee	0.5165242
7	0x3f179c21	0.5922261
8	0x3f67ff63	0.90624064
9	0x3fa858a5	1.3152052
10	0x3f46b23c	0.77615714
11	0x3f55e7bb	0.8355672
12	0x3f012be2	0.50457585
13	0x3f7458ee	0.95448196
14	0x3eccd02b	0.4000257
15	0x3eae07ce	0.3399033
16	0x3f5e97d9	0.8695045
17	0x3f225f86	0.6342701
18	0x3f7437dd	0.9539774
19	0x3f245075	0.6418527
20	0x3f229695	0.6351102
21	0x3f6afc50	0.9179125
22	0x3f677f4f	0.9042863
23	0x3f0dbff4	0.5537102
24	0x3f0489d0	0.51772785
25	0x3efaa6b2	0.48955303
26	0x3f10decc	0.5658996
27	0x3f05e7c7	0.5230679
28	0x3ef6a94f	0.48176047
29	0x3f0d2a53	0.55142707
30	0x3eca95f4	0.3956753
31	0x3f4903b7	0.78521293
32	0x3f5d1c5e	0.8637141
33	0x3ed3bfa4	0.41357148
34	0x3f49df9d	0.7885683
35	0x3ea4e42e	0.32205337
36	0x3f84d732	1.0378172
37	0x3f8cf4a9	1.1012164
38	0x3f048206	0.517609
39	0x3f28ff65	0.660147
40	0x3f81d4f4	1.0143113
41	0x3f0a781b	0.54089516
42	0x3f2de229	0.6792322
43	0x3e9f3694	0.31096327
44	0x3f422950	0.7584429
45	0x3f5a31b6	0.852321
46	0x3ec20f37	0.37902233
47	0x3ed40e42	0.41417128
48	0x3f05007a	0.5195385
49	0x3f7d72ae	0.9900311
50	0x3f65eefe	0.898178
51	0x3ea2305c	0.3167752
52	0x3f3f4a68	0.7472291
53	0x3f25add9	0.64718395
54	0x3f02bf37	0.5107302
55	0x3f02c3f2	0.5108024
56	0x3f87cc54	1.0609231
57	0x3eb1d808	0.3473513
58	0x3f5ece1e	0.8703326
59	0x3f62d525	0.8860648
60	0x3ebfed05	0.3748552
61	0x3f4e8cc4	0.8068354
62	0x3f068ac0	0.52555466
63	0x3f86633c	1.0499034
64	0x3f13a59b	0.5767457
65	0x3f25ecb4	0.64814305
66	0x3f617845	0.8807414
67	0x3f2cf953	0.6756794
68	0x3f1ac1f7	0.60452217
69	0x3f079d1c	0.52974105
70	0x3ee65abf	0.4499111
71	0x3eedfc93	0.4648176
72	0x3f16ae5b	0.58859795
73	0x3f44f68f	0.7693872
74	0x3f20a920	0.62758064
75	0x3f8312aa	1.0240071
76	0x3eee758c	0.46574056
77	0x3f17849a	0.5918671
78	0x3f66e02e	0.9018582
79	0x3fccddc9	1.6005183
80	0x3ed94c2d	0.4244093
81	0x3ee66fa1	0.4500704
82	0x3f2e4330	0.6807127
83	0x3ecf7922	0.40522105
84	0x3f3d6655	0.7398427
85	0x3efe0224	0.49611008
86	0x3f17d9ab	0.5931651
87	0x3f35fbf4	0.71087575
88	0x3efdff69	0.49608925
89	0x3ed03298	0.406636
90	0x3f112013	0.56689566
91	0x3f59148c	0.8479698
92	0x3f3761f6	0.7163385
93	0x3f188dd4	0.5959141
94	0x3f379a48	0.7171979
95	0x3f5c7074	0.8610909
96	0x3e861f47	0.26195738
97	0x3f243ae8	0.64152384
98	0x3f3210fe	0.6955718
99	0x3f0f4912	0.5597087
100	0x3ec4d9f1	0.38447526
101	0x3f6db8ce	0.92860115
102	0x3f195aa0	0.5990391
103	0x3effd012	0.49963433
104	0x3f189b71	0.59612185
105	0x3ecc1106	0.39856738
106	0x3f4607d6	0.77355707
107	0x3f9a6b48	1.206399
108	0x3f100510	0.56257725
109	0x3fac2763	1.344952
110	0x3f613dae	0.8798474
111	0x3f2951fb	0.6614072
112	0x3eee6cd0	0.46567392
113	0x3f05f906	0.52333105
114	0x3ee66f02	0.45006567
115	0x3ef62d8a	0.4808162
116	0x3f3867ad	0.72033197
117	0x3ebe7891	0.3720136
118	0x3f71e426	0.9448875
119	0x3f64836b	0.8926303
120	0x3f54f723	0.831896
121	0x3eeebb09	0.46627071
122	0x3f56ca53	0.8390247
123	0x3f408cd6	0.752149
124	0x3f1d779a	0.6151062
125	0x3f5941d3	0.84866065
126	0x3f5ac5ab	0.8545787
127	0x3f087b5a	0.5331322

hidden2.weight f4 [128, 128]
0	0x3da25b45	0.079275645
1	0xbb9f5c32	-0.0048632855
2	0xbd8a45b8	-0.06751579
3	0x3c8b02b8	0.01696907
4	0x3d1ec2ad	0.038759876
5	0xbc4ebf66	-0.012618875
6	0x3ca91d0c	0.020643733
7	0x3cdc3fd1	0.026885899
8	0x3cf101fb	0.02941989
9	0xbcde9d95	-0.02717475
10	0xbd673947	-0.05645111
11	0x3d84a8cb	0.06477507
12	0x3c919b7a	0.017774332
13	0x3da1e0f1	0.07904232
14	0xbd7aadb1	-0.0612008
15	0xbce699ae	-0.028149452
16	0x3c349e33	0.011024046
17	0x3c8ead68	0.01741667
18	0xbcf9cf22	-0.030494276
19	0xbd065b57	-0.032801952
20	0xbcc882cb	-0.02447643
21	0xbd82e135	-0.06390611
22	0x3b842220	0.0040323883
23	0xbd98b908	-0.07457167
24	0xbce9fa08	-0.028561607
25	0x3b9f7c12	0.0048670853
26	0xbd84051d	-0.06446288
27	0x3d0d5381	0.034503464
28	0x3d9a5e4b	0.07537516
29	0xbb322235	-0.0027181034
30	0x3cb3100e	0.021858241
31	0xbdbd55e4	-0.09244898
32	0x3c308a04	0.010775093
33	0x3ce038a2	0.027370755
34	0xbcdfa5a2	-0.02730066
35	0xbc1a091a	-0.009401584
36	0xbdb5f91a	-0.08885403
37	0x3d10e12a	0.035370983
38	0xbd15b2d1	-0.036547486
39	0xbaec1bf2	-0.00180137
40	0x3d4d8f5a	0.05018554
41	0x3d8c2e59	0.068447776
42	0x3bb7cdc5	0.0056092464
43	0x3db20641	0.08692599
44	0x3ca04056	0.019561928
45	0xbbba1716	-0.0056790216
46	0x3d86e726	0.06587057
47	0x3db9836b	0.09058269
48	0x3da6635e	0.081244215
49	0xbd509696	-0.05092486
50	0xbd3493b0	-0.04408616
51	0x3d392198	0.045198053
52	0xbd3f433b	-0.046694975
53	0xbc8cbdb5	-0.017180303
54	0x3d2feccc	0.042950436
55	0x3c98cc2c	0.018652044
56	0xbb924681	-0.004463971
57	0x3d1237d5	0.035697777
58	0x3ce489c5	0.027897725
59	0xbdb6c178	-0.0892362
60	0x3d824021	0.06359888
61	0x3cf27b0d	0.02959969
62	0x3d5f688b	0.05454306
63	0xb858d33d	-5.1695144e-05
64	0x3ba6fbbc	0.005095927
65	0x3bd79bb2	0.0065798396
66	0xbc2f4218	-0.01069691
67	0x3da98fbd	0.08279369
68	0xbd929faa	-0.0715936
69	0xbd3db8be	-0.046318762
70	0xbd8e2677	-0.0694093
71	0xbae4a6f0	-0.0017444771
72	0xbd7b8709	-0.061408076
73	0x3d8d575a	0.069014266
74	0xbd23f9fb	-0.04003332
75	0x3d889fe8	0.06671125
76	0x3dc2247f	0.09479617
77	0xbd628abd	-0.055308092
78	0xbd58f063	-0.052963626
79	0xbd104908	-0.035225898
80	0xbd2e39a7	-0.04253545
81	0x3d56fc3b	0.05248664
82	0x3d7c5ca8	0.0616118
83	0xbc0b42bf	-0.0084998
84	0xbd936edf	-0.07198881
85	0x3d22ae2f	0.039716896
86	0x3db42956	0.08796947
87	0x3c58abbc	0.013224538
88	0xbc849418	-0.016183898
89	0xbd713e0a	-0.058897056
90	0xbd985e1a	-0.074398234
91	0x3d255c54	0.040371254
92	0x3d4dd825	0.05025496
93	0x3d841d69	0.06450922
94	0x3dbd8d79	0.092554994
95	0x3ab0cb04	0.0013488238
96	0xbb9b0e57	-0.004731934
97	0x3cbd26a7	0.02308972
98	0xbccd6fdd	-0.025077755
99	0xbcb41326	-0.021981787
100	0xbbf872d6	-0.007582049
101	0x3caf7b18	0.021421
102	0xbd8570fe	-0.06515692
103	0xbd9b4800	-0.07582092
104	0xbdd0f058	-0.10202092
105	0xbb3bc335	-0.0028650288
106	0x3c989adb	0.018628528
107	0x3d849628	0.064739525
108	0xbd480680	-0.048834324
109	0xbc71642d	-0.014733356
110	0x3d421528	0.047383457
111	0x3d02e6ee	0.031958513
112	0xbd2e5a72	-0.042566724
113	0xbd947620	-0.07249093
114	0xbd8b2828	-0.067947686
115	0xbc820b53	-0.01587454
116	0x3c42ea03	0.011896613
117	0x3d7d90ad	0.06190555
118	0x3cec7dcd	0.02886858
119	0x3d7cca51	0.06171638
120	0xbd120abc	-0.03565477
121	0x3c5a687b	0.013330574
122	0xbcfc7794	-0.030818738
123	0x3da5d71f	0.08097672
124	0xbbf35d7c	-0.0074269157
125	0x3d563689	0.052298103
126	0x3d40e05f	0.047088977
127	0x3a785907	0.00094737153
128	0x3cffd9aa	0.03123172
129	0xbca8454e	-0.02054086
130	0x3cab9f8a	0.020950098
131	0x3d8f0fb0	0.06985414
132	0xbc5c82ed	-0.0134589495
133	0x3d9fe239	0.078068204
134	0xbd5c63a1	-0.05380595
135	0xbc4d680a	-0.012537012
136	0x3c94cf80	0.01816535
137	0x3c54c865	0.012987231
138	0x3de938bf	0.113877766
139	0xbdae9c53	-0.0852591
140	0xbd5bfebe	-0.053709738
141	0xbc3c877b	-0.01150691
142	0x3ce012fd	0.027352804
143	0xbd25325f	-0.04033124
144	0xbc0aef86	-0.008479958
145	0xbd7a7076	-0.061142407
146	0xbda7244a	-0.081612185
147	0xbcca0119	-0.024658727
148	0x3c49bcf9	0.012313121
149	0x3da8daa2	0.08244826
150	0xbd28b6db	-0.04119001
151	0xbdb597e4	-0.088668615
152	0x3ce1c408	0.027559295
153	0x3daa9c7b	0.083306275
154	0x3c3b995c	0.011450138
155	0x3d9c9dbe	0.076472744
156	0x3d2f1cf1	0.04275221
157	0xbc0ea061	-0.0087052295
158	0xbd820bde	-0.0634992
159	0x3c95939d	0.018258864
160	0x3d8df0f0	0.06930721
161	0xbd822db5	-0.06356374
162	0x3d88c56d	0.06678281
163	0x3c3d9e3b	0.01157337
164	0xbd207f0d	-0.039183665
165	0x3ca5c4cd	0.020235443
166	0xbcb8d3c1	-0.02256191
167	0xbd66e192	-0.056367464
168	0x3d3cdc0f	0.0461083
169	0x3d90a843	0.070633434
170	0xbc526ede	-0.012843816
171	0xbd6ab4c3	-0.057301294
172	0xbd518fc5	-0.0511625
173	0xbd6e8195	-0.058229048
174	0xbd93f8a5	-0.072251596
175	0xbd31e055	-0.04342683
176	0xbd4d9bf8	-0.05019757
177	0xbca1066f	-0.019656388
178	0x3d476421	0.048679475
179	0xbd75f3df	-0.060047027
180	0x3c9a9dc6	0.01887406
181	0xbb9d1978	-0.004794296
182	0xbd80856b	-0.062754475
183	0xbd6d0b01	-0.057871822
184	0xbd31b048	-0.043381006
185	0x3c54478d	0.012956512
186	0x3d67ba66	0.056574248
187	0xbd7ad5af	-0.06123894
188	0x38dd1483	0.00010541922
189	0xbdb8b9fd	-0.090198494
190	0x3dc9ed76	0.09859745
191	0x3d3bef77	0.04588267
192	0x3cf6f4bc	0.030145995
193	0xbd8a1a4a	-0.067432955
194	0x3c47242f	0.012154623
195	0x3da65aa7	0.08122759
196	0xbcc0231b	-0.02345424
197	0x3ce7abfb	0.028280249
198	0x3c76e8b1	0.015070126
199	0xbc526b53	-0.012842971
200	0xbce49509	-0.027903097
201	0x3c89b4ed	0.016809905
202	0x3d2f459c	0.042790994
203	0xbc33efb5	-0.010982444
204	0xbd060d22	-0.03272737
205	0xbdce4564	-0.10071829
206	0xbd263e8d	-0.040586997
207	0xbd299772	-0.041404195
208	0xbd5abd8a	-0.053403415
209	0xbd9f90bd	-0.077912785
210	0xbd405ec3	-0.04696537
211	0xbd1bdeb6	-0.03805419
212	0x3cf425f2	0.02980325
213	0x3d18ff89	0.037353072
214	0xbd8b6eca	-0.06808241
215	0x3d62058c	0.05518107
216	0xbc8b2c8b	-0.016989013
217	0x3da34803	0.079727195
218	0x3d40b3fe	0.047046654
219	0x3d12f1cc	0.035875127
220	0x3d853669	0.065045185
221	0xbc918d7b	-0.017767658
222	0x3a980052	0.0011596775
223	0xbd976be3	-0.07393625
224	0xbd700a7e	-0.058603756
225	0x3c1307e3	0.008974048
226	0x3d4b9b5d	0.049708713
227	0x3c9f81dd	0.019471103
228	0xbda5d31e	-0.08096908
229	0xbd66b9c3	-0.0563295
230	0xbcefddd5	-0.029280582
231	0x3c23472f	0.009965702
232	0x3c8048a4	0.015659638
233	0x3d181448	0.037128717
234	0xbdac1845	-0.084030665
235	0x3d60f855	0.054924328
236	0xbdc7441b	-0.09729787
237	0xbd14f392	-0.0363651
238	0x3cfb8a12	0.030705485
239	0xbd973e19	-0.07384891
240	0xbd608da4	-0.05482258
241	0x3dbf26ef	0.09333598
242	0xbd7d3ff6	-0.061828576
243	0x3c606867	0.013696766
244	0xbda60336	-0.08106081
245	0xbdbe7837	-0.09300273
246	0xbd13f735	-0.036124427
247	0x3dacd639	0.08439297
248	0xbd66645f	-0.056248065
249	0x3d57f7d8	0.052726597
250	0xbc713b83	-0.014723661
251	0x3c9380cb	0.01800575
252	0x3d540d50	0.05177051
253	0x3cdb43f8	0.026765808
254	0x3d93260b	0.071849905
255	0x3cedb404	0.029016502

bn2.weight f4 [128]
0	0x3f800ce2	1.0003932
1	0x3f7e5ac6	0.9935726
2	0x3f7f2f8e	0.9968194
3	0x3f7bc575	0.9834817
4	0x3f7ee17b	0.99562806
5	0x3f7eb8d5	0.9950078
6	0x3f7e7127	0.99391407
7	0x3f7c6376	0.98589265
8	0x3f7f9c0e	0.99847496
9	0x3f7ce866	0.9879211
10	0x3f7ff939	0.9998966
11	0x3f7e833c	0.99419
12	0x3f7f19bc	0.9964864
13	0x3f7e72f3	0.9939415
14	0x3f7e185f	0.9925594
15	0x3f7e7dab	0.99410504
16	0x3f7e0ce5	0.99238425
17	0x3f7d1f72	0.98876107
18	0x3f7e9e62	0.99460423
19	0x3f7db8e3	0.9911024
20	0x3f7fda5e	0.99942577
21	0x3f7e7104	0.993912
22	0x3f7e14c2	0.99250424
23	0x3f7f6f15	0.9977887
24	0x3f7d3a68	0.98917246
25	0x3f802626	1.0011642
26	0x3f7e3523	0.9929983
27	0x3f7f971f	0.9983997
28	0x3f7e9719	0.99449307
29	0x3f7fddbc	0.99947715
30	0x3f7fb33d	0.9988287
31	0x3f7df087	0.9919514
32	0x3f7ed8a7	0.99549335
33	0x3f7be910	0.984025
34	0x3f7be5e4	0.9839766
35	0x3f7e5625	0.99350196
36	0x3f7ea516	0.9947065
37	0x3f7f9390	0.9983454
38	0x3f7d0100	0.9882965
39	0x3f7e1213	0.9924633
40	0x3f7f3f65	0.9970611
41	0x3f7dbd58	0.9911704
42	0x3f7e41e2	0.9931928
43	0x3f7eeb9f	0.9957828
44	0x3f7d9539	0.9905582
45	0x3f7fa97d	0.99867994
46	0x3f800f66	1.0004699
47	0x3f7c264a	0.98495924
48	0x3f7f2605	0.9966739
49	0x3f802b9c	1.0013309
50	0x3f7e533b	0.9934575
51	0x3f7d5e91	0.9897242
52	0x3f7fb426	0.9988426
53	0x3f7f722e	0.997836
54	0x3f7c8273	0.9863655
55	0x3f7bd59b	0.9837281
56	0x3f7ea7e9	0.9947496
57	0x3f7a9197	0.978784
58	0x3f7d2012	0.9887706
59	0x3f7d53be	0.98955905
60	0x3f7e8959	0.99428326
61	0x3f7f9d93	0.99849814
62	0x3f7ded0f	0.9918985
63	0x3f7d5b68	0.989676
64	0x3f7fe246	0.9995464
65	0x3f7fca9a	0.9991852
66	0x3f7f0643	0.9961893
67	0x3f7efcb6	0.99604356
68	0x3f7f55d4	0.9974034
69	0x3f7d41e6	0.9892868
70	0x3f7f3cea	0.9970232
71	0x3f802852	1.0012305
72	0x3f7fcccc	0.9992187
73	0x3f7e170f	0.99253935
74	0x3f7e1f3b	0.99266404
75	0x3f7eacee	0.9948262
76	0x3f802ea2	1.0014231
77	0x3f7dbb85	0.9911426
78	0x3f7cc2f7	0.9873499
79	0x3f7c30b1	0.985118
80	0x3f7ccc5c	0.9874933
81	0x3f7d5058	0.9895072
82	0x3f7f33a8	0.99688196
83	0x3f7f5244	0.997349
84	0x3f7dfb10	0.99211216
85	0x3f7f96e0	0.9983959
86	0x3f7e0b44	0.9923594
87	0x3f7dcd9c	0.9914186
88	0x3f7d3519	0.98909146
89	0x3f7d2216	0.98880136
90	0x3f7ec9e1	0.9952679
91	0x3f7eaed0	0.9948549
92	0x3f7f2457	0.99664825
93	0x3f7de04f	0.9917039
94	0x3f7e2d40	0.99287796
95	0x3f7d2f08	0.9889989
96	0x3f80228e	1.0010545
97	0x3f7db58d	0.9910515
98	0x3f7e1292	0.99247086
99	0x3f8031c7	1.0015191
100	0x3f7cff12	0.98826706
101	0x3f7c1d90	0.9848261
102	0x3f7d1b66	0.9886993
103	0x3f7f20c9	0.996594
104	0x3f7fb8ea	0.9989153
105	0x3f7fbc22	0.9989644
106	0x3f7eeb24	0.99577546
107	0x3f80367c	1.0016627
108	0x3f7ee830	0.9957304
109	0x3f7eb06a	0.99487936
110	0x3f7fe568	0.9995942
111	0x3f7cee72	0.9880134
112	0x3f7fa54e	0.9986161
113	0x3f8001bc	1.0000529
114	0x3f7f531c	0.9973619
115	0x3f7e2ed9	0.99290234
116	0x3f7fa8f2	0.99867165
117	0x3f7eac4c	0.99481654
118	0x3f7d1b03	0.9886934
119	0x3f805efb	1.0028986
120	0x3f7c7d35	0.9862855
121	0x3f7ea71c	0.9947374
122	0x3f7f131b	0.9963853
123	0x3f7a4c27	0.9777245
124	0x3f8044d1	1.0021001
125	0x3f807c38	1.0037909
126	0x3f80082d	1.0002495
127	0x3f7b5277	0.98172706

bn2.bias f4 [128]
0	0x3b035538	0.0020039808
1	0xbd320c84	-0.043468967
2	0xbcb1e340	-0.021714807
3	0x3d60535f	0.05476701
4	0x3c8f4871	0.017490597
5	0x3d257bd0	0.04040128
6	0xbc8b4ca8	-0.017004326
7	0xbd1b9861	-0.037987117
8	0xbca65d56	-0.020308178
9	0x3d165057	0.03669771
10	0x3c4025bb	0.011727746
11	0x3d12e469	0.03586236
12	0x3cc7ac02	0.024374012
13	0x3d42bc11	0.047542635
14	0x3cdaffa6	0.02673323
15	0xbca007db	-0.019534996
16	0xbd0403cc	-0.032230183
17	0x3d158fcc	0.03651409
18	0xbcbaa930	-0.022785753
19	0xbd452651	-0.048132244
20	0x3c6e21e8	0.014534451
21	0xbc990687	-0.01867987
22	0xbcaf69fc	-0.021412842
23	0xbc9e326a	-0.019311149
24	0x3ce8be5c	0.028411083
25	0xbcc7e03e	-0.02439892
26	0xbd3460b3	-0.044037532
27	0xbcd3156f	-0.025767056
28	0xbca7ea31	-0.020497413
29	0xbc3b34f0	-0.0114261955
30	0x3c9d674f	0.0192143
31	0xbd12ec3a	-0.035869814
32	0x3cea58c0	0.028606772
33	0x3d1b6f3e	0.037947886
34	0x3d27892d	0.040902305
35	0xbca6a968	-0.020344451
36	0x3d21c7c6	0.03949716
37	0xbc668859	-0.014070594
38	0x3d5a71b9	0.05333111
39	0x3cf8def9	0.03037976
40	0x3cb08719	0.021548795
41	0xbcf8cb08	-0.03037025
42	0x3c879a31	0.016553016
43	0xbc6d48ab	-0.014482657
44	0x3cf45175	0.029823998
45	0x3c7cc0df	0.015426843
46	0xbbe7b953	-0.007071653
47	0x3ce35d88	0.02775456
48	0xbce4ae92	-0.027915273
49	0xbcc815b7	-0.024424417
50	0x3c7455c9	0.014913031
51	0xbcd7f56e	-0.026362147
52	0x3b979c8a	0.004626815
53	0xbcd6b216	-0.026207965
54	0xbd0be4f1	-0.034153882
55	0xbd46a648	-0.048498422
56	0x3ce8160c	0.028330825
57	0x3d27856c	0.040898725
58	0x3d49ca2b	0.049265068
59	0x3d1c7625	0.03819861
60	0xbc75c3d9	-0.015000307
61	0xbd1d062a	-0.038335957
62	0xbd0dbb3e	-0.034602396
63	0x3d3c0eef	0.04591268
64	0xbd32ccdc	-0.0436524
65	0xbd0e4a23	-0.03473867
66	0xbc918010	-0.01776126
67	0xbcc686ab	-0.024234137
68	0xbd4bfd69	-0.049802218
69	0xbcfe5769	-0.03104754
70	0xbd0756dc	-0.03304182
71	0xbc74da5d	-0.01494464
72	0xbc9f5ebf	-0.019454358
73	0x3c815e44	0.01579202
74	0xbc400fb8	-0.011722498
75	0x3d11d170	0.035600126
76	0xbc51f12e	-0.012813849
77	0xbd67aefd	-0.056563366
78	0x3d3b2eec	0.045699045
79	0xbd342948	-0.04398468
80	0xbd2f2ea5	-0.042769093
81	0x3d0d9468	0.03456536
82	0xbcaa13aa	-0.02076133
83	0xbcd37229	-0.025811272
84	0xbd1e5cf9	-0.038662884
85	0xbac24723	-0.0014822226
86	0xbcb29e16	-0.021803897
87	0x3d26eeee	0.040755205
88	0xbd2170fa	-0.039414383
89	0xbd30f19e	-0.043199174
90	0x3cb7e06d	0.022445882
91	0xbd0a6768	-0.033790022
92	0x3ca4d0a6	0.020119023
93	0x3d406751	0.04697353
94	0x3ca3f028	0.020011976
95	0x3d1acad5	0.037791092
96	0xbc26944b	-0.010167192
97	0x3ca1c831	0.019748779
98	0x3cfcd956	0.030865353
99	0x3cbe4e02	0.023230556
100	0x3cf2a15b	0.029617956
101	0xbd4768c2	-0.04868389
102	0xbd1640fb	-0.036683064
103	0xbc8343e1	-0.016023578
104	0x3c0f6244	0.008751456
105	0x3c2bc4ce	0.010483934
106	0xbc964184	-0.018341787
107	0x3ca6b136	0.020348173
108	0xbcd6124e	-0.026131775
109	0x3c946ad5	0.018117348
110	0x3ae05352	0.0017114675
111	0xbd024a68	-0.03180924
112	0x3b929bb6	0.0044741286
113	0xbd0b7359	-0.03404555
114	0xbc9d171b	-0.019176057
115	0x3cf4ede5	0.029898593
116	0x3cd1df9f	0.025619326
117	0x3d0b29fc	0.033975586
118	0x3cbd596c	0.023113929
119	0xbca718c0	-0.020397544
120	0xbd4e5c91	-0.050381247
121	0xbce19b44	-0.027539857
122	0x3cf56223	0.029954022
123	0xbd54799b	-0.051873785
124	0x3cc6ef61	0.024284067
125	0x3cd98bcb	0.026555916
126	0xbc450a64	-0.012026403
127	0xbd87f3e9	-0.06638319

bn2.running_mean f4 [128]
0	0x3d25285a	0.040321685
1	0xbd65508a	-0.05598501
2	0xbdcc4a7e	-0.09975146
3	0x3ddd4f75	0.10806171
4	0x3cc2823b	0.02374374
5	0x3dc120f9	0.09430117
6	0xbdc7e900	-0.09761238
7	0xbd8e927d	-0.06961534
8	0xbcde8c5b	-0.027166536
9	0x3d340c75	0.043957192
10	0x3ce141c1	0.027497174
11	0x3df7c1b2	0.12097491
12	0x3cf78fc7	0.030219926
13	0x3dc50fc2	0.09622146
14	0x3dc1c5e7	0.09461575
15	0xbd5fe8de	-0.05466544
16	0xbd2525ac	-0.04031913
17	0x3d9f6c66	0.07784347
18	0xbd5d83dd	-0.054080833
19	0xbda62aef	-0.08113658
20	0x3d3ada1c	0.04561816
21	0xbc991019	-0.018684434
22	0xbdbd86d0	-0.09254229
23	0xbda25875	-0.07927028
24	0x3d618ae4	0.055064097
25	0xbd60cdb4	-0.054883674
26	0xbda75840	-0.08171129
27	0xbd1e231d	-0.038607705
28	0xbda7abe8	-0.081870854
29	0xbd3b82f9	-0.045779202
30	0x3d87b123	0.06625583
31	0xbdeb271c	-0.11482069
32	0x3db49403	0.088172935
33	0x3d1c7d08	0.038205177
34	0x3d39825a	0.04529033
35	0xbca1cff1	-0.019752475
36	0x3e040fab	0.12896602
37	0xbc2b589a	-0.010458136
38	0x3e110c02	0.14164737
39	0x3d4af1d5	0.049547035
40	0x3dad2e3c	0.08456084
41	0xbd7dec19	-0.06199274
42	0x3da572e0	0.08078551
43	0xbdacde0e	-0.08440791
44	0x3d9813eb	0.07425674
45	0x3dfec091	0.12439073
46	0xbd90375a	-0.070418075
47	0x3d8f51ff	0.069980614
48	0xbbd5c7f8	-0.0065240823
49	0xbdb3b906	-0.08775525
50	0x3dabddfc	0.083919495
51	0xbcaaada7	-0.020834757
52	0x3d212e5e	0.03935086
53	0xbdee64c8	-0.11640316
54	0xbd1b218f	-0.0378738
55	0xbd2075e0	-0.039174914
56	0x3ce3ccde	0.02780765
57	0x3d953ec9	0.07287366
58	0x3cad6923	0.021168297
59	0x3dd9eeb8	0.10641235
60	0xbc8fec6f	-0.017568795
61	0xbcb1ddbd	-0.021712178
62	0xbd655531	-0.055989448
63	0x3dba5c4f	0.09099638
64	0xbdfa5b2e	-0.122244224
65	0xbdcfa48d	-0.101388074
66	0xbdb13d05	-0.08654217
67	0xbcf3b3a2	-0.029748742
68	0xbd467d5c	-0.048459396
69	0xbd888978	-0.06666845
70	0xbd89e235	-0.06732599
71	0xbdd630f2	-0.10458554
72	0xbccd9b18	-0.025098369
73	0x3cea34d9	0.028589653
74	0xbd8a33d0	-0.06748164
75	0x3e0a4323	0.13502173
76	0xbb51d907	-0.0032020228
77	0xbde5cfe4	-0.112212926
78	0x3d37ece8	0.044903666
79	0xbd3592b8	-0.044329375
80	0xbdfae030	-0.122497916
81	0x3d6d6b1a	0.057963468
82	0xbdac079e	-0.0839989
83	0xbda9f22f	-0.08298146
84	0xbdb082ec	-0.08618721
85	0xbc4c9626	-0.01248697
86	0xbd4650eb	-0.048417013
87	0x3c15f1c0	0.009151876
88	0xbdc56968	-0.09639245
89	0xbcf7935d	-0.030221635
90	0x3d645538	0.055745333
91	0xbd8ff5c5	-0.07029299
92	0x3d81ea73	0.06343546
93	0x3e051774	0.12997228
94	0x3cef7b07	0.029233469
95	0x3dfa5d43	0.122248195
96	0xbdf216d0	-0.118207574
97	0x3d7a143c	0.061054453
98	0x3d164ca2	0.036694176
99	0x3c072aa1	0.00824991
100	0x3d8e922f	0.06961476
101	0xbdc58cf0	-0.09646022
102	0xbd2ed10c	-0.04267983
103	0xbd893704	-0.066999465
104	0x3ded9e52	0.11602463
105	0x3cf2c00d	0.029632593
106	0xbd74333b	-0.05961917
107	0x3d5220d2	0.05130083
108	0xbd0cf397	-0.034411993
109	0x3dd13f9f	0.10217213
110	0xbc916432	-0.017747972
111	0xbd1e2d0a	-0.03861717
112	0x3c751495	0.01495852
113	0xbda12ef0	-0.07870281
114	0xbc144ef3	-0.009052026
115	0x3ddff856	0.10936038
116	0x3d8ff55a	0.07029219
117	0x3d9003f4	0.07032004
118	0x3da74aa0	0.081685305
119	0xbd3ad1ea	-0.045610346
120	0xbd61b454	-0.055103615
121	0xbd4066a5	-0.04697289
122	0x3ce3e8eb	0.027821025
123	0xbda5041c	-0.080574244
124	0x3dae60e9	0.08514578
125	0x3d98495f	0.074358694
126	0xbd8fcd2d	-0.07021556
127	0xbddd4f57	-0.108061485

bn2.running_var f4 [128]
0	0x3e72d328	0.23713362
1	0x3ea3439a	0.31887513
2	0x3e93abee	0.2884211
3	0x3e8e9191	0.27845433
4	0x3e71df91	0.2362044
5	0x3ec3a651	0.38212827
6	0x3e306764	0.1722694
7	0x3e907950	0.28217554
8	0x3e875098	0.26428676
9	0x3e830949	0.25593022
10	0x3e3bda31	0.18344952
11	0x3e80dac9	0.2516692
12	0x3e28fc2b	0.16502444
13	0x3eaa163a	0.33220083
14	0x3e7e9a52	0.24863556
15	0x3e69ea56	0.22843298
16	0x3e336bdd	0.17521615
17	0x3e8cc7e1	0.27496246
18	0x3e7ca736	0.24673161
19	0x3ecd70b7	0.40125057
20	0x3e64807f	0.22314642
21	0x3e26f8e3	0.1630588
22	0x3e5eee12	0.21770504
23	0x3e981126	0.29700583
24	0x3e71f2b8	0.23627746
25	0x3e9ed092	0.31018502
26	0x3ea3aa2b	0.31965765
27	0x3e8559e5	0.26045147
28	0x3e9a4c7e	0.30136484
29	0x3e714c86	0.23564348
30	0x3e75aaea	0.2399098
31	0x3ebfba38	0.3744676
32	0x3eb46d7a	0.35239774
33	0x3e8a5d2f	0.27024218
34	0x3e94f69d	0.290944
35	0x3e973717	0.29534218
36	0x3ed8e2a4	0.42360413
37	0x3e41f255	0.18940099
38	0x3ea07ece	0.31346744
39	0x3eb3d60d	0.35124245
40	0x3e4f220f	0.20227836
41	0x3e812cb1	0.2522941
42	0x3e95513d	0.29163542
43	0x3e6632f4	0.22480375
44	0x3e89d266	0.26918334
45	0x3eaf7bef	0.3427424
46	0x3e8fe6ab	0.28105673
47	0x3e571823	0.21005301
48	0x3ea71dd1	0.32639936
49	0x3eae9123	0.34095106
50	0x3e9a5b54	0.30147803
51	0x3e5cef58	0.21575677
52	0x3e68cbe3	0.22734027
53	0x3ea9ed1e	0.3318872
54	0x3e7361c4	0.23767763
55	0x3e87f7ae	0.26556152
56	0x3ea24bbc	0.31698406
57	0x3e7610f4	0.24029905
58	0x3e8bd7de	0.2731313
59	0x3e8c86d7	0.27446625
60	0x3e74ccd4	0.2390626
61	0x3eae4d42	0.34043318
62	0x3e6dc475	0.23219474
63	0x3e7fc2b5	0.24976619
64	0x3ec9151c	0.39273918
65	0x3ec946e0	0.39311886
66	0x3e5ec068	0.21753085
67	0x3e99e40a	0.30056792
68	0x3eb8f137	0.36121532
69	0x3e6430dd	0.22284265
70	0x3e9aff4f	0.3027291
71	0x3e9ffa72	0.31245762
72	0x3e6649f1	0.22489144
73	0x3e72192e	0.23642418
74	0x3e4fbac6	0.20286092
75	0x3ee03971	0.43793824
76	0x3e8f40a2	0.27978998
77	0x3ee78efe	0.45226282
78	0x3e698dca	0.22807994
79	0x3e9afcf2	0.30271107
80	0x3edd95d9	0.43278387
81	0x3e634214	0.22193176
82	0x3e88fde8	0.26756215
83	0x3e8cf964	0.2753402
84	0x3e90fab7	0.2831628
85	0x3e6a31ae	0.22870514
86	0x3e933244	0.28749287
87	0x3e947619	0.2899635
88	0x3e9c9ef2	0.30590016
89	0x3ebb0940	0.36530495
90	0x3e81a915	0.25324312
91	0x3e899e66	0.2687866
92	0x3e9325d8	0.2873981
93	0x3edc48cf	0.430243
94	0x3e71bb76	0.23606667
95	0x3ece642e	0.40310806
96	0x3e939dfc	0.2883147
97	0x3ea0ba9b	0.3139237
98	0x3ea2d255	0.31801096
99	0x3e90cd44	0.28281605
100	0x3e4cb53b	0.19991009
101	0x3ebef473	0.37295875
102	0x3e953646	0.2914297
103	0x3e8f6bb1	0.2801185
104	0x3eb88b79	0.3604391
105	0x3e2aab58	0.16666925
106	0x3e3e157f	0.18562888
107	0x3e923188	0.28553414
108	0x3eb4c7be	0.3530864
109	0x3e950466	0.29104918
110	0x3e24e614	0.16103393
111	0x3e76c144	0.24097162
112	0x3e56730b	0.20942323
113	0x3e8abb68	0.27096105
114	0x3e6e2e5b	0.2325987
115	0x3e8bc40f	0.27298018
116	0x3e965123	0.29358777
117	0x3e546ac7	0.20743857
118	0x3e8734e9	0.26407555
119	0x3e745583	0.23860745
120	0x3ea4b88c	0.32172048
121	0x3e6a9145	0.22906978
122	0x3e8ca176	0.27466935
123	0x3eae10b3	0.33997115
124	0x3ea9bac2	0.33150297
125	0x3e917a7d	0.28413764
126	0x3e99ee5f	0.30064675
127	0x3ec08775	0.37603346

hidden3.weight f4 [16, 128]
0	0xbdcb0ed8	-0.099149406
1	0xbdaf2770	-0.08552444
2	0xbcf19906	-0.029491913
3	0xbd263bbb	-0.040584307
4	0x3d77f63b	0.060537558
5	0xbd5793d2	-0.052631207
6	0xbcf166ba	-0.02946793
7	0x3d497d47	0.04919174
8	0xbd9475ab	-0.07249006
9	0x3d515b0a	0.051112212
10	0xbdb7d862	-0.089768186
11	0xbd8698a3	-0.06572082
12	0xbd846472	-0.06464471
13	0xbcf22474	-0.029558398
14	0x3d7ffa41	0.06249452
15	0x3ca424d0	0.020037085
16	0x3c1c4c28	0.009539641
17	0x3d9d366f	0.07676398
18	0xbd94a11f	-0.07257294
19	0xbcc8e290	-0.024522096
20	0x3d295825	0.041343827
21	0x3cebdfc6	0.028793227
22	0xbd2d1a99	-0.042261694
23	0x3d9222f7	0.07135575
24	0xbd8f21ae	-0.06988846
25	0x3d495409	0.049152408
26	0x3d5b3936	0.053521357
27	0x3d88f759	0.06687803
28	0x3d688ff9	0.056777928
29	0xbd1fd2a4	-0.039019242
30	0xbd1a176f	-0.037620004
31	0xbd3e4a5b	-0.04645763
32	0x3beda75d	0.0072526173
33	0x3cc489a1	0.023991408
34	0x3ce6db59	0.028180765
35	0xbd3283c1	-0.04358268
36	0xbd214e56	-0.039381348
37	0x3ba4f71a	0.0050343396
38	0x3c2a55c6	0.010396427
39	0x3dd6ada6	0.104823396
40	0x3c2de827	0.010614431
41	0xbb6ec351	-0.0036432336
42	0xbdbf81c0	-0.0935092
43	0x3d0de53c	0.034642443
44	0xbbeadc4d	-0.007167375
45	0xbcedecce	-0.029043581
46	0x3d8e5435	0.06949655
47	0xbcecd1dd	-0.028908664
48	0xbce9ff77	-0.028564198
49	0x3be8a014	0.007099161
50	0x3d51630e	0.051119857
51	0x3ba6de49	0.0050924164
52	0x3d30cf61	0.043166522
53	0x3d9c1fc8	0.07623249
54	0x3c59ee7a	0.013301486
55	0x3c7ba0a6	0.015358126
56	0xbd5bbde1	-0.05364788
57	0xbcdfbc05	-0.027311334
58	0xbd96955a	-0.07352705
59	0x3a25259e	0.0006299856
60	0xbd169c70	-0.036770284
61	0xbcdda4d4	-0.027056135
62	0xbd905429	-0.07047302
63	0x3bd1a3b6	0.0063976897
64	0x3d5d6174	0.054048017
65	0xbd773600	-0.060354233
66	0x3d85d9d8	0.06535691
67	0xbd8ba29c	-0.06818125
68	0xbd6f4e0f	-0.05842405
69	0x3d860696	0.06544225
70	0xbb8d2f02	-0.0043085823
71	0xbd7af272	-0.06126637
72	0x3d91e6be	0.07124089
73	0xbc2028ff	-0.009775399
74	0xbd51ea1c	-0.051248655
75	0x3d184915	0.03717907
76	0xbdd12bf6	-0.10213463
77	0xba95b209	-0.0011420856
78	0xbcbeee58	-0.02330701
79	0xbb92abf9	-0.004476067
80	0x3d5cfc72	0.053951688
81	0xbd49ab1b	-0.049235445
82	0x3d33c9dc	0.04389368
83	0x3c0151b3	0.007893014
84	0xbd76ef47	-0.060286786
85	0x3d86a4e7	0.065744214
86	0xbd975193	-0.07388606
87	0x3b377799	0.002799487
88	0x3d5e20e3	0.054230582
89	0xbd550f58	-0.052016586
90	0xbd9e7b27	-0.07738333
91	0x3d149a4c	0.03627996
92	0xbb8b5acc	-0.004252767
93	0x3cc9b72c	0.024623476
94	0x3cd05c00	0.025434494
95	0xbdaeaa64	-0.08528593
96	0x3dad1f50	0.08453238
97	0xbc5c8740	-0.0134599805
98	0xbd586775	-0.05283304
99	0xbd89d76d	-0.06730542
100	0xbd51b974	-0.051202253
101	0xbd7daf71	-0.061934892
102	0xbd8debe5	-0.06929759
103	0x3d724d1c	0.05915557
104	0x3cd19c68	0.025587276
105	0x3ce97d00	0.028501987
106	0xba3cd3e8	-0.00072032074
107	0x3d392c12	0.045208044
108	0xbd1f485c	-0.038887367
109	0xbda4c67b	-0.0804567
110	0xbc881856	-0.016613167
111	0xbc27c5c9	-0.010240027
112	0xbd32972d	-0.043601204
113	0xbd17ee5f	-0.037092563
114	0x3c11c304	0.008896593
115	0xbd546880	-0.05185747
116	0xbc0e15b8	-0.00867217
117	0x3c2dfb36	0.010618975
118	0xbd93729d	-0.07199595
119	0x3dd820f3	0.105531596
120	0x3cfc3fcb	0.030792138
121	0x3c88d386	0.016702425
122	0xbd9ba6cc	-0.07600173
123	0xbc08ac06	-0.008341795
124	0xbd418e65	-0.04725494
125	0xbd10c14d	-0.035340596
126	0x3c167d53	0.009185153
127	0x3d04ebac	0.032451317
128	0x3c424eba	0.01185959
129	0xbb0d7949	-0.0021587184
130	0x3db30c3e	0.087425694
131	0xbdb34222	-0.08752848
132	0xbbbe905a	-0.005815548
133	0xbdaf1b70	-0.08550155
134	0x3d3de9f6	0.0463657
135	0x3c956337	0.018235786
136	0x3c020b7e	0.00793731
137	0xbc12b0e4	-0.008953307
138	0xbc2cf41e	-0.010556249
139	0x3cfb7259	0.030694174
140	0xbd9e2a27	-0.07722884
141	0xbd12be06	-0.03582575
142	0xbd680b58	-0.056651443
143	0x3c2a5faa	0.010398785
144	0x3d2e2ebd	0.04252504
145	0xbcf9d01f	-0.030494748
146	0x3c78c385	0.015183334
147	0xbc533f2c	-0.012893479
148	0xbd977c37	-0.07396739
149	0x3c5314b2	0.012883352
150	0x3d8790c2	0.06619407
151	0xbd4a1a7e	-0.04934167
152	0xbd56abd7	-0.052409973
153	0x3decad73	0.1155652
154	0x3d4d7b17	0.050166216
155	0x3d1e1db3	0.038602542
156	0xbba1cd0c	-0.0049377736
157	0x3cf01f2c	0.029311739
158	0x3d048806	0.032356285
159	0xbdaf4603	-0.085582756
160	0xbdb93004	-0.090423614
161	0xbdc94a0b	-0.09828576
162	0xbdf8db7c	-0.12151238
163	0x3d94d903	0.07267954
164	0xbd84ea2d	-0.06489978
165	0x3c0910cd	0.008365822
166	0x3d32f472	0.043690152
167	0xbda6d46e	-0.081459865
168	0x3bd7a198	0.006580543
169	0xbd7c8817	-0.061653223
170	0x3d37e0bc	0.044892058
171	0x3b246e2c	0.0025090082
172	0x3da8a811	0.08235181
173	0x3cfa3811	0.030544313
174	0xbc82b322	-0.015954558
175	0xbd8c30fa	-0.06845279
176	0x3dad45c9	0.08460576
177	0xbd31990e	-0.043358855
178	0xbd86442d	-0.06555972
179	0x3d880a75	0.066426195
180	0xbd0920cb	-0.03347854
181	0x3bc2acb3	0.0059409975
182	0x3c3ab799	0.011396312
183	0xbd1f0a6a	-0.03882829
184	0xbd007c29	-0.03136841
185	0x3cf054bd	0.029337281
186	0x3de515c1	0.1118579
187	0x3adc1349	0.0016790415
188	0xbc5b76b3	-0.013394999
189	0xbc458957	-0.01205667
190	0x3dfaa47f	0.122384064
191	0xbdacc32d	-0.08435664
192	0xbd7f6806	-0.062355064
193	0x3d93ef18	0.07223338
194	0xbd7df354	-0.061999634
195	0x3d67b5cf	0.05656987
196	0x3df3cc93	0.11904254
197	0xbbe8124a	-0.0070822584
198	0xbd012893	-0.031532835
199	0x3cdff2fa	0.02733754
200	0xbd51ec7e	-0.051250927
201	0xbd05e680	-0.032690525
202	0x3cdda24b	0.027054926
203	0xbb5cc195	-0.003368472
204	0x3d8fab05	0.07015041
205	0xbd15917c	-0.036515698
206	0xbd3a66fe	-0.045508377
207	0xbd1ddbee	-0.03853982
208	0xbd360296	-0.04443606
209	0xbc87c58b	-0.016573688
210	0xbd9dae09	-0.0769921
211	0xbce5dc99	-0.02805929
212	0xbc76de0b	-0.015067588
213	0x3c800d07	0.015631212
214	0x3d67aa74	0.05655904
215	0xbce7e0b0	-0.028305382
216	0x3d148427	0.036258843
217	0x3cdb067d	0.026736492
218	0xbc2ef244	-0.010677878
219	0x3db6da83	0.089283966
220	0xbdddd917	-0.10832422
221	0xbd853ffd	-0.065063454
222	0x3d9cbcb1	0.076531775
223	0xbc86155e	-0.01636761
224	0xbcd202ee	-0.025636163
225	0xbd8cdcf0	-0.06878078
226	0x3d9c0d1a	0.076196864
227	0xbd5b90e7	-0.053604987
228	0x3b9b2bee	0.0047354614
229	0x3d9c3060	0.07626414
230	0x3dc1e855	0.09468142
231	0x3c86e080	0.016464472
232	0xbc0229a4	-0.007944498
233	0x3cf32ce6	0.029684495
234	0xbcca2d34	-0.024679758
235	0x3d2d4651	0.042303387
236	0xba9740c3	-0.0011539686
237	0x3cdface3	0.027304118
238	0xbc93e8ab	-0.01805528
239	0xbda1852a	-0.07886727
240	0x3e0629bc	0.13101858
241	0x390d5177	0.00013477156
242	0xbd707695	-0.05870684
243	0x3d1e9ff7	0.038726773
244	0x3cdca56a	0.026934344
245	0xbd23b42a	-0.03996674
246	0xbda216c4	-0.079144984
247	0x3ca8d38f	0.020608691
248	0xbc7921c0	-0.0152058005
249	0x3c3d1889	0.011541494
250	0x3d722b20	0.05912316
251	0x3d4ef67a	0.050528027
252	0xbd091496	-0.033466898
253	0xbcd3e08a	-0.025863905
254	0x3de7958f	0.11307823
255	0x3b3f3e6a	0.0029181489

bn3.weight f4 [16]
0	0x3f7d40fa	0.9892727
1	0x3f6c0b54	0.92204785
2	0x3f7cb18c	0.98708415
3	0x3f846646	1.0343711
4	0x3f6d7290	0.92752934
5	0x3f7e50bb	0.99341935
6	0x3f692eaa	0.9108683
7	0x3f7b6e26	0.9821495
8	0x3f7eb884	0.995003
9	0x3f820bf9	1.0159904
10	0x3f66eea7	0.90207905
11	0x3f81d38b	1.0142683
12	0x3f763da3	0.961878
13	0x3f7bc77c	0.98351264
14	0x3f7e4ca7	0.9933571
15	0x3f7f012d	0.9961117

bn3.bias f4 [16]
0	0xbde5172c	-0.1118606
1	0xbec46348	-0.38356996
2	0xbddae151	-0.10687507
3	0x3e63e863	0.22256617
4	0x3e8f4505	0.27982345
5	0x3db22ec4	0.08700326
6	0x3eecbb2f	0.4623656
7	0x3e2391ae	0.15973541
8	0xbee02ff1	-0.43786576
9	0xbec6a712	-0.3879934
10	0x3edc6156	0.4304301
11	0x3f14bda0	0.58101845
12	0xbe86e332	-0.2634521
13	0xbe231e12	-0.1592944
14	0x3dc9e87d	0.09858797
15	0x3c61c86a	0.013780693

bn3.running_mean f4 [16]
0	0xbd4c63cc	-0.04989986
1	0xbd0ca865	-0.03434028
2	0xbd258293	-0.04040773
3	0x3cbabcb4	0.022795059
4	0x3c80e461	0.0157339
5	0x3d1ef877	0.038811173
6	0x3de7d929	0.11320717
7	0x3b934346	0.0044941036
8	0x3c2f1676	0.010686507
9	0xbe1d4257	-0.15357338
10	0xbb38bfe6	-0.0028190552
11	0x3e2ae218	0.1668781
12	0x3c2b70e8	0.010463931
13	0xbd1dec93	-0.038555693
14	0x3c6e2a6d	0.014536482
15	0x3b59ccbc	0.0033233603

bn3.running_var f4 [16]
0	0x3f30740f	0.6892709
1	0x3f9a8818	1.2072783
2	0x3f1f72d9	0.6228462
3	0x3fc04b00	1.5022888
4	0x3f4fc43e	0.81158817
5	0x3ef561e3	0.47926244
6	0x3fbeb23e	1.4898145
7	0x3f41ca4b	0.756993
8	0x3fdd0a8c	1.7268844
9	0x4020a057	2.5097864
10	0x3f73c5c9	0.9522367
11	0x402f677f	2.740692
12	0x3f2d08db	0.6759164
13	0x3f26099b	0.64858407
14	0x3e9a7f77	0.30175373
15	0x3e6efcd5	0.23338635

output.weight f4 [1, 16]
0	0x3da64851	0.08119262
1	0x3ee12935	0.4397675
2	0x3d9444dd	0.07239697
3	0xbeedf876	-0.46478623
4	0xbe9af6ca	-0.3026641
5	0xbe05d8a9	-0.1307093
6	0xbef1b333	-0.4720703
7	0xbe338826	-0.17532405
8	0x3f15c479	0.5850292
9	0x3f06c758	0.52647924
10	0xbefa16a4	-0.48845398
11	0xbf4a3b7c	-0.78997016
12	0x3e92c161	0.2866316
13	0x3e3a68ee	0.1820409
14	0xbb48f9b1	-0.0030666406
15	0x3d0af2a9	0.033922825
