models/focal_loss_checkpoints/checkpoint_epoch_370.pth (torch, 100242 bytes, 16 tensors)

hidden1.weight f4 [128, 30]
0.110094585 -0.16351007 -0.067811124 -0.05608308 0.105941854 -0.09250941 0.023418255 0.025693318
0.024476927 -0.10637175 -0.13552883 0.2032135 -0.09165167 0.018918332 -0.06341841 0.1050782
-0.2147612 0.050921883 0.15983476 0.25451747 0.05929415 0.045545038 -0.11061043 0.0280441
0.08435603 0.07030803 -0.0860769 0.11805692 0.115783736 -0.07225808 -0.18531305 0.000623232
0.03421177 0.035320096 -0.022484157 0.008202095 -0.07997743 0.0006329367 -0.04045766 -0.14582604
-0.06616597 -0.16329634 0.16850647 0.15192045 0.07080557 -0.040692847 -0.11270913 0.060397215
0.106071614 0.10252948 -0.17205429 -0.12575473 -0.11117328 0.03871879 0.20753194 -0.16105148
0.09569794 0.014123158 -0.15241575 -0.044910535 0.13988426 0.007193376 0.037464548 -0.13418351
0.0054681273 0.085852504 0.09964999 -0.04717951 0.09495078 0.11150334 0.017699074 -0.13487786
-0.17923884 0.11213866 0.132775 0.16353697 -0.16803037 -0.18518984 -0.085882194 -0.11136491
0.046275154 -0.038039844 -0.16791059 -0.08966536 -0.107102916 -0.086130716 0.048165467 -0.06667659
0.009753204 0.14413461 -0.018379603 0.16976583 -0.08201191 -0.020419732 -0.085768774 0.025431301
0.04516262 0.03778422 -0.023066197 -0.06772552 0.14002219 -0.17314093 0.039912473 0.07333028
-0.05515848 0.14230697 -0.10949601 -0.020423656 -0.10386819 -0.01688402 -0.03489053 -0.15193307
0.06329967 -0.010348441 0.21866453 0.19248186 -0.14817458 0.05539356 0.048223224 -0.12152266
0.06567028 0.012219117 -0.20481554 -0.12078148 -0.16761044 -0.11853723 0.12174512 -0.107616514
0.010200779 0.1815016 0.113636665 0.08017058 0.21901876 -0.075385 0.08961989 -0.11069966
0.09100048 -0.03102559 -0.11758205 -0.21564384 0.015234278 -0.0023970087 -0.07654066 0.033452787
0.14677662 0.15194032 0.012397359 -0.06162711 0.0059670294 0.025787892 -0.073019646 -0.06124126
0.17224146 0.039444946 0.20775108 0.04944409 0.19467345 0.019954417 -0.02788699 0.028498016
0.05843309 0.09111095 -0.05422793 0.10853227 -0.16467166 0.060964454 0.094258666 -0.08750482
-0.054090284 0.12625273 0.06643453 -0.039273687 -0.11042087 0.005832103 0.095847234 -0.106700696
-0.057916164 -0.13770491 -0.07680396 0.046150055 -0.085817754 -0.050195426 0.050102383 -0.15542519
-0.046732403 0.16651464 -0.05805097 0.13215376 -0.0007064153 -0.13752547 -0.044246987 -0.17491937
0.19038032 0.18931137 0.11979588 0.035102613 0.11811297 0.06902027 0.022732953 0.02833998
0.053018387 -0.027374681 -0.14866556 0.11887862 0.12784772 -0.12780075 0.05843356 0.06940323
0.0023582182 -0.059834536 -0.014427802 -0.06477401 0.006001082 0.14607118 -0.19320188 -0.12849818
0.054312352 -0.028158186 -0.09219428 -0.013528793 0.07043364 -0.19409287 -0.00984022 0.031908203
0.07948798 -0.015689507 0.15892152 0.1342103 -0.101834625 0.040428814 0.11204556 -0.057666965
0.16116773 -0.017575467 0.17339061 -0.05206531 0.17226209 -0.10945862 0.08260326 -0.05681403
-0.10981579 0.08047467 -0.15962522 0.1732099 0.083856314 -0.04144517 0.03209605 0.13370322
0.03418371 0.03542303 0.1969111 0.10572782 -0.025385223 0.029228799 0.24351023 -0.11669203
00000000: 4579 e13d 2f6f 27be 8fe0 8abd 5fb7 65bd
00000010: 0bf8 d83d 9375 bdbd a4d7 bf3c cb7a d23c
00000020: d683 c83c 6fd9 d9bd 12c8 0abe 3317 503e
00000030: dfb3 bbbd 9efa 9a3c 83e1 81bd 3d33 d73d
00000040: 5cea 5bbe 7793 503d b9ab 233e 1d50 823e
00000050: 6cde 723d 6f8d 3a3d b987 e2bd bebc e53c
00000060: dbc2 ac3d a8fd 8f3d 1649 b0bd d4c7 f13d
00000070: 0620 ed3d 0bfc 93bd b4c2 3dbe 6460 233a
00000080: a421 0c3d ceab 103d b230 b8bc 1462 063c
00000090: 35cb a3bd aaeb 253a eeb6 25bd 6c53 15be
000000a0: 0682 87bd 2837 27be f68c 2c3e 0991 1b3e
000000b0: 8302 913d 8bad 26bd 0bd4 e6bd 1263 773d
000000c0: 133c d93d fafa d13d 002f 30be d9c5 00be
000000d0: d1ae e3bd 9897 1e3d 4183 543e aeea 24be
000000e0: 48fd c33d d164 673c e012 1cbe 1cf4 37bd
000000f0: d23d 0f3e 69b6 eb3b 6d74 193d 6767 09be
00000100: fa2d b33b 70d3 af3d 4b15 cc3d 4d3f 41bd
00000110: 8e75 c23d dd5b e43d a6fd 903c 6c1d 0abe
00000120: 638a 37be f4a8 e53d 2bf6 073e 3c76 273e
00000130: 2710 2cbe 68a2 3dbe 01e3 afbd 4913 e4bd
00000140: 048b 3d3d abcf 1bbd c1f0 2bbe 79a2 b7bd
00000150: c658 dbbd 4d65 b0bd 2749 453d bc8d 88bd
00000160: e7cb 1f3c 0698 133e d290 96bc 18d7 2d3e
00000170: dcf5 a7bd 4847 a7bc 8aa7 afbd 4e55 d03c
00000180: 70fc 383d a0c3 1a3d 52f5 bcbc adb3 8abd
00000190: fa61 0f3e db4b 31be 437b 233d 302e 963d
000001a0: dced 61bd ebb8 113e 723f e0bd 834f a7bc
000001b0: d8b8 d4bd 5b50 8abc 5fe9 0ebd 5894 1bbe
000001c0: 42a3 813d 828c 29bc 98e9 5f3e f719 453e
000001d0: 14bb 17be 5ce4 623d b785 453d dfe0 f8bd
000001e0: 247e 863d b132 483c 2abb 51be 485c f7bd
000001f0: 12a2 2bbe a6c3 f2bd 8155 f93d 0c66 dcbd
00000200: 2b21 273c 8edb 393e 57ba e83d 7930 a43d
00000210: 7446 603e 7363 9abd a28a b73d 81b6 e2bd
00000220: 765e ba3d 6129 febc dcce f0bd bdd1 5cbe
00000230: 3199 793c 2217 1dbb 59c1 9cbd ca05 093d
00000240: 9c4c 163e 3e96 1b3e 4b1e 4b3c b56c 7cbd
00000250: 1287 c33b 2141 d33c 538b 95bd 1ed8 7abd
00000260: 1160 303e 0691 213d b3bc 543e e385 4a3d
00000270: 7a58 473e 7277 a33c 4273 e4bc ac74 e93c
00000280: 8957 6f3d 6198 ba3d 1b1e 5ebd 2b46 de3d
00000290: b09f 28be ddb5 793d b00a c13d ba35 b3bd
000002a0: c68d 5dbd 6548 013e d40e 883d 72dd 20bd
000002b0: 5624 e2bd 3a1b bf3b 8e4b c43d e585 dabd
000002c0: 8039 6dbd 8402 0dbe 654b 9dbd d707 3d3d
000002d0: 38c1 afbd b899 4dbd 2838 4d3d c827 1fbe
000002e0: 7a6a 3fbd d082 2a3e dbc6 6dbd 5153 073e
000002f0: ba2e 39ba 7ad3 0cbe 543c 35bd 101e 33be
00000300: 0ff3 423e d7da 413e 8b57 f53d c2c7 0f3d
00000310: 36e5 f13d 805a 8d3d 753a ba3c 3f29 e83c
00000320: cf29 593d de40 e0bc c93b 18be a276 f33d
00000330: 83ea 023e 33de 02be 0758 6f3d 4823 8e3d
00000340: 568c 1a3b 0f15 75bd 9662 6cbc 3ca8 84bd
00000350: b9a4 c43b af93 153e b7d6 45be 0795 03be
00000360: a176 5e3d ffab e6bc 5bd0 bcbd dfa7 5dbc
00000370: 833f 903d 48c0 46be e038 21bc 2db2 023d
00000380: 98ca a23d 4887 80bc 53bc 223e 6d6e 093e
00000390: ac8e d0bd af98 253d 2478 e53d 3234 6cbd
000003a0: 2709 253e 6dfa 8fbc 4f8d 313e 6f42 55bd
000003b0: 7965 303e d72b e0bd e62b a93d d4b5 68bd
000003c0: 1ae7 e0bd e7cf a43d cb74 23be f05d 313e
000003d0: dcbc ab3d 69c2 29bd 2677 033d 7fe9 083e
000003e0: 3804 0c3d bd17 113d 10a3 493e d487 d83d
000003f0: acf4 cfbc 3c71 ef3c bf5a 793e 3bfc eebd

bn1.weight f4 [128]
1.020968 0.99897027 1.0081414 1.0080907 1.0030715 1.0577002 1.0393449 1.0027299
1.02744 1.0090454 1.0075097 1.0058676 1.01202 0.9993551 1.0094532 1.0225279
1.0116383 1.011636 1.0268797 1.013374 1.0248015 1.0003607 1.0163196 1.0239205
1.0233692 1.0212644 0.99758583 1.0303264 1.0200268 1.0070881 1.0175135 1.014617
1.0221721 1.0481015 1.0159807 1.0297219 1.0199035 1.0233784 1.022104 1.0370142
1.0132617 1.0080571 1.0111687 1.0731325 1.015463 1.0009108 0.9886717 1.0265999
1.0088035 0.9879801 0.9969613 1.027214 1.021574 1.0094697 1.0502985 1.0283017
1.0037471 1.0167621 1.0019071 1.0233737 1.0113447 1.004118 1.0187609 1.0423106
1.0340986 1.0215997 1.0187798 1.0363535 1.0283812 1.023783 1.043534 1.028011
1.0046606 1.010475 0.9940269 1.0462981 1.0490199 1.024546 1.0148801 0.99446535
1.0129714 1.0369686 1.0177842 1.0157608 1.0066702 1.0390239 0.99224156 1.0176091
1.0135634 1.023818 1.0359598 0.98125887 1.0083611 1.0060669 1.0006689 1.0138301
1.0392634 1.0188054 1.0206126 1.0445111 1.0929774 0.9985384 0.981673 1.0004525
1.0532382 1.0703812 1.014512 1.0023096 1.014407 0.98630506 1.0081505 1.0245955
1.0260079 1.0197277 1.0149283 1.0221305 1.0254977 1.0085359 1.0381242 0.99932265
1.012723 1.0451041 0.9812746 1.0043893 1.0352906 1.0260714 0.9999144 1.0220294
00000000: 14af 823f 84bc 7f3f c70a 813f 1e09 813f
00000010: a664 803f b862 873f 4109 853f 7459 803f
00000020: 2783 833f 6628 813f 14f6 803f 45c0 803f
00000030: df89 813f bcd5 7f3f c335 813f 32e2 823f
00000040: 5d7d 813f 4a7d 813f cb70 833f 3db6 813f
00000050: b22c 833f d20b 803f c316 823f d40f 833f
00000060: c3fd 823f cbb8 823f c961 7f3f bce1 833f
00000070: 3d90 823f 43e8 803f e23d 823f f8de 813f
00000080: 89d6 823f 3128 863f a80b 823f edcd 833f
00000090: 338c 823f 10fe 823f 4ed4 823f e2bc 843f
000000a0: 8fb2 813f 0408 813f fa6d 813f 685c 893f
000000b0: b1fa 813f d81d 803f 9719 7d3f a067 833f
000000c0: 7920 813f 44ec 7c3f db38 7f3f c07b 833f
000000d0: f0c2 823f 4e36 813f 2e70 863f 649f 833f
000000e0: c97a 803f 4325 823f 7e3e 803f e9fd 823f
000000f0: be73 813f f086 803f c266 823f 6f6a 853f
00000100: 585d 843f c7c3 823f 6067 823f 3ba7 843f
00000110: ffa1 833f 520b 833f 8692 853f dd95 833f
00000120: b898 803f 3f57 813f 8c78 7e3f 19ed 853f
00000130: 4946 863f 5324 833f 97e7 813f 4895 7e3f
00000140: 0ca9 813f 63bb 843f c146 823f 7304 823f
00000150: 92da 803f bcfe 843f 8b03 7e3f 0441 823f
00000160: 72bc 813f 780c 833f 559a 843f c833 7b3f
00000170: fa11 813f cdc6 803f eb15 803f 2fc5 813f
00000180: 9506 853f 3768 823f 6fa3 823f 8ab2 853f
00000190: afe6 8b3f 36a0 7f3f ec4e 7b3f d40e 803f
000001a0: 82d0 863f 4002 893f 87db 813f ae4b 803f
000001b0: 17d8 813f 7d7e 7c3f 130b 813f f225 833f
000001c0: 3a54 833f 7086 823f 2ce9 813f 2cd5 823f
000001d0: 8243 833f b417 813f 41e1 843f 9cd3 7f3f
000001e0: e8a0 813f f9c5 853f d034 7b3f d48f 803f
000001f0: 6784 843f 4f56 833f 64fa 7f3f dcd1 823f

bn1.bias f4 [128]
-0.07602855 0.059920136 -0.0023952401 0.0404816 0.08912408 -0.064855255 0.048099894 0.04823656
0.04851126 0.10139693 -0.05746451 -0.0014206616 0.050494146 0.02432856 -0.12366657 -0.03279652
-0.011731889 -0.0192696 0.06093438 0.019561827 -0.06555381 0.033161983 0.00079678453 0.038437754
-0.047891207 0.03850565 0.0017487784 -0.082679674 0.040973037 0.0027513858 0.069262065 -0.023020128
0.08659706 -0.18481615 0.022880781 0.014813221 -0.032176193 -0.019427381 -0.024141258 0.1470979
-0.09602276 -0.057812758 0.10977929 0.046276312 0.07057962 0.021864008 -0.07123071 0.007121928
0.03139214 -0.042119123 0.03376694 -0.028431412 0.018894965 0.098008156 -0.10910103 -0.027105875
-0.035135634 -0.026951566 0.008895621 0.11400563 -0.04301703 0.039999753 0.047542863 0.054873
0.0074683977 0.0070580523 0.026454631 -0.07574351 0.007604448 -0.05329473 0.04091041 0.046720777
0.14815329 -0.057675507 -0.078415655 0.06466739 0.13386272 0.06529241 -0.071236156 -0.017142054
0.12049815 0.05591727 0.03554161 0.032896895 -0.10541723 -0.037630823 0.12608074 -0.1118791
0.05850428 0.0035190422 -0.043978535 -0.06848772 0.07099167 -0.028870797 0.049737737 0.07470317
0.033876326 0.017457826 -0.022250202 0.0843441 0.041832823 0.030061277 -0.06374139 -0.03451529
-0.06260754 0.061445367 0.002319914 -0.03203423 0.016791428 -0.0641272 0.10248078 0.08106848
0.04091825 -0.018415794 -0.029332457 0.056428023 0.059643384 0.014045135 0.048160624 -0.0026331984
0.0038755464 0.067283876 -0.1391841 -0.0155989695 0.058235444 -0.028035376 -0.0940912 0.05240938
00000000: dbb4 9bbd d16e 753d 76f9 1cbb 09d0 253d
00000010: b086 b63d d5d2 84bd 6504 453d b393 453d
00000020: beb3 463d 32a9 cf3d e85f 6bbd 7e35 baba
00000030: f3d2 4e3d b04c c73c e644 fdbd a555 06bd
00000040: 1c37 40bc 48db 9dbc 5496 793d 2040 a03c
00000050: 1341 86bd dcd4 073d 4edf 503a e870 1d3d
00000060: 9229 44bd 1ab8 1d3d 4437 e53a f653 a9bd
00000070: 58d3 273d 9850 343b 45d9 8d3d b594 bcbc
00000080: cd59 b13d 7240 3dbe 7a70 bb3c 27b3 723c
00000090: 2fcb 03bd 2c26 9fbc e3c3 c5bc d5a0 163e
000000a0: 95a7 c4bd 12cd 6cbd f7d3 e03d 3b8c 3d3d
000000b0: 0c8c 903d 261c b33c 68e1 91bd 105f e93b
000000c0: 0b95 003d 1a85 2cbd 344f 0a3d fee8 e8bc
000000d0: 9dc9 9a3c 80b8 c83d 5c70 dfbd 240d debc
000000e0: 62ea 0fbd 88c9 dcbc f0be 113c c97b e93d
000000f0: a032 30bd c8d6 233d 4ebc 423d 83c2 603d
00000100: 76b9 f43b 3c47 e73b 62b7 d83c 6a1f 9bbd
00000110: bc2e f93b 934b 5abd ad91 273d 495e 3f3d
00000120: 7fb5 173e 273d 6cbd 6398 a0bd 5670 843d
00000130: 4f13 093e 07b8 853d 43e4 91bd 7e6d 8cbc
00000140: bcc7 f63d 8209 653d 1494 113d e5be 063d
00000150: fde4 d7bd c722 1abd 4f1b 013e df20 e5bd
00000160: 2fa2 6f3d bb9f 663b d622 34bd 4a43 8cbd
00000170: 1564 913d 7382 ecbc ccb9 4b3d fafd 983d
00000180: e7c1 0a3d b703 8f3c 0e46 b6bc 99bc ac3d
00000190: e558 2b3d 1143 f63c d98a 82bd e85f 0dbd
000001a0: 6238 80bd 23ae 7b3d b309 183b 5336 03bd
000001b0: 2d8e 893c 1f55 83bd 71e1 d13d 3b07 a63d
000001c0: e599 273d b8dc 96bc 9f4a f0bc 1221 673d
000001d0: 9f4c 743d 911d 663c 1344 453d bd91 2cbb
000001e0: e1fc 7d3b 21cc 893d 4786 0ebe d292 7fbc
000001f0: 4a88 6e3d 72aa e5bc e3b2 c0bd 38ab 563d

bn1.running_mean f4 [128]
-0.030229855 -0.13681844 0.21271066 -0.13700466 0.054680523 0.088008046 -0.0968506 -0.04011507
0.08008334 0.24028715 -0.00785508 0.17813659 -0.035575464 0.04125772 -0.0020301763 -0.07315158
0.19352318 -0.014940222 0.05997801 0.01265361 -0.11292431 -0.13852601 -0.1466673 0.04950224
-0.038655367 -0.08943485 0.035681937 0.07624463 -0.09239871 0.055773634 -0.02365131 0.16332188
0.012438843 0.04395479 0.030614426 -0.0143652465 0.23496339 0.19086643 0.062233943 -0.13535361
-0.10997151 -0.1287776 -0.09969854 -0.016569495 0.1454688 0.15084158 -0.0028682863 0.037826985
-0.06712673 0.17070054 0.096759416 -0.012402144 0.06617339 0.0039853486 0.15131642 -0.04757627
0.1336606 -0.037303206 -0.046271637 0.12158715 0.02469389 0.049857743 -0.27404782 0.068986595
-0.09108211 0.07080728 0.12911132 0.00568172 0.1481654 -0.10156043 0.009243507 -0.030494597
0.0032361485 -0.101101704 0.07272927 0.15338023 -0.09854485 0.054288447 -0.1640429 0.24250059
0.054176997 0.009003218 0.1046213 -0.039201338 -0.048667435 -0.052532952 -0.09197194 0.23052423
-0.14354411 0.028906446 0.0856521 0.20251362 -0.13853748 0.024879444 -0.03793271 -0.107502505
0.017900558 0.05868216 -0.08305619 -0.112251505 -0.0033240546 -0.1739825 0.14420415 0.06610897
0.16613223 -0.09839501 -0.025333889 0.10678668 -0.0038200952 0.095925994 0.03709048 -0.03518642
-0.08863703 0.019719107 0.06489769 -0.07156995 0.09043294 0.1042131 0.09868784 -0.12806205
0.08213394 -0.09238067 0.09690345 0.09689233 -0.06016583 -0.0862556 -0.07774428 -0.113619104
00000000: 9aa4 f7bc 221a 0cbe d3d0 593e f34a 0cbe
00000010: aff8 5f3d 903d b43d 9b59 c6bd b34f 24bd
00000020: bc02 a43d d60d 763e 98b2 00bc 7069 363e
00000030: 94b7 11bd dbfd 283d b50c 05bb 7fd0 95bd
00000040: f12a 463e d5c7 74bc 80ab 753d 1651 4f3c
00000050: dc44 e7bd c3d9 0dbe f42f 16be dcc2 4a3d
00000060: 1755 1ebd 9e29 b7bd 3927 123d 2526 9c3d
00000070: 893b bdbd e572 643d 64c0 c1bc da3d 273e
00000080: 4acc 4b3c f009 343d 1bcb fa3c 365c 6bbc
00000090: 3e9a 703e 7d72 433e 05e9 7e3d 239a 0abe
000000a0: be38 e1bd 46de 03be c02e ccbd c0bc 87bc
000000b0: c6f5 143e 3776 1a3e dcf9 3bbb 78f0 1a3d
000000c0: bd79 89bd 1fcc 2e3e cd29 c63d 5d32 4bbc
000000d0: ea85 873d 8797 823b b1f2 1a3e 56df 42bd
000000e0: 53de 083e 3fcb 18bd 5487 3dbd af02 f93d
000000f0: d74a ca3c a237 4c3d ff4f 8cbe d848 8d3d
00000100: 4289 babd 6803 913d c235 043e b92d ba3b
00000110: acb8 173e eafe cfbd 1472 173c cecf f9bc
00000120: 9015 543b 690e cfbd 15f3 943d b50f 1d3e
00000130: e2d1 c9bd 905d 5e3d ddfa 27be 1352 783e
00000140: b3e8 5d3d 3c82 133c b143 d63d 9591 20bd
00000150: 8157 47bd cb2c 57bd c95b bcbd 8b0e 6c3e
00000160: 3afd 12be 36cd ec3c 5e6a af3d bb5f 4f3e
00000170: c5dc 0dbe facf cb3c 545f 1bbd 462a dcbd
00000180: 31a4 923c b45c 703d 5d19 aabd 1ee4 e5bd
00000190: 62d8 59bb 7828 32be 41aa 133e 2464 873d
000001a0: 911e 2a3e 5383 c9bd 0489 cfbc fab2 da3d
000001b0: 905a 7abb d974 c43d 30ec 173d a31f 10bd
000001c0: 5587 b5bd f789 a13c 15e9 843d 4493 92bd
000001d0: e834 b93d ae6d d53d da1c ca3d b322 03be
000001e0: d735 a83d 1432 bdbd 5175 c63d 7c6f c63d
000001f0: 7270 76bd c7a6 b0bd 6538 9fbd 22b1 e8bd

bn1.running_var f4 [128]
0.36932695 0.5451544 0.5478992 0.4480113 0.39072105 0.39200667 0.37403116 0.41466507
0.62100977 1.0174596 0.5522595 0.6436969 0.4304662 0.66015774 0.3459517 0.3009219
0.6835222 0.5280128 0.6689783 0.44528064 0.5271203 0.6383986 0.5948841 0.4692275
0.427287 0.3586775 0.5238685 0.40062764 0.473433 0.37791365 0.35608304 0.6038397
0.69816303 0.3625126 0.65274626 0.27343747 0.7984155 0.785595 0.4475036 0.5198356
0.59502435 0.48185357 0.55115056 0.31279168 0.5900036 0.650588 0.31599292 0.35495532
0.51805323 0.7825797 0.7500721 0.31166402 0.5945744 0.543946 0.44954956 0.40907407
0.7895794 0.29938716 0.64278203 0.6914326 0.3243807 0.62976336 0.39594457 0.8230332
0.44093886 0.49821356 0.74371314 0.5494165 0.5070846 0.47044176 0.38606662 0.39578244
0.4984596 0.6453418 0.4807816 0.83233094 0.3449491 0.4956067 0.6855305 1.1269262
0.3889538 0.38720682 0.5174808 0.30912042 0.68678844 0.38269886 0.47793195 0.5176327
0.42388886 0.31898263 0.33310503 0.70493436 0.5857289 0.4672511 0.4812028 0.6808423
0.23650482 0.48356062 0.5668528 0.49051994 0.35922164 0.6238441 0.44790632 0.36049527
0.49523893 0.32734805 0.6491821 1.0436436 0.38470694 0.99323875 0.6723057 0.55674726
0.29492953 0.4140035 0.39064986 0.37735945 0.5790779 0.30179936 0.8228317 0.75422454
0.76104575 0.43310985 0.6156363 0.52571636 0.44179368 0.6159504 0.605783 0.4589053
00000000: 6c18 bd3e 3d8f 0b3f 1f43 0c3f bd61 e53e
00000010: 970c c83e 19b5 c83e 0381 bf3e fb4e d43e
00000020: 7ffa 1e3f 1e3c 823f e160 0d3f 52c9 243f
00000030: 1166 dc3e 1900 293f 9520 b13e 6f12 9a3e
00000040: 50fb 2e3f d92b 073f 2942 2b3f d3fb e33e
00000050: 5bf1 063f 176e 233f 534a 183f 963e f03e
00000060: 5dc5 da3e 94a4 b73e 3f1c 063f 111f cd3e
00000070: cf65 f23e e67d c13e 8450 b63e 3d95 1a3f
00000080: d0ba 323f 409b b93e 611a 273f ffff 8b3e
00000090: f564 4c3f c11c 493f 311f e53e f213 053f
000000a0: 8453 183f 83b5 f63e 3418 0d3f 3b26 a03e
000000b0: 7a0a 173f ef8c 263f d3c9 a13e b4bc b53e
000000c0: 239f 043f 2557 483f ba04 403f 6d92 9f3e
000000d0: 0736 183f 0c40 0b3f 5c2b e63e 2872 d13e
000000e0: e021 4a3f 4649 993e 5d8d 243f ba01 313f
000000f0: 3a15 a63e 2c38 213f 3fb9 ca3e 4eb2 523f
00000100: bdc2 e13e d915 ff3e fc63 3e3f 8fa6 0c3f
00000110: 4cd0 013f bedd f03e 86aa c53e ffa3 ca3e
00000120: 1936 ff3e 1f35 253f 0229 f63e a413 553f
00000130: 2b9d b03e 29c0 fd3e ed7e 2f3f 1e3f 903f
00000140: f424 c73e f93f c63e 9f79 043f 0845 9e3e
00000150: 5ed1 2f3f 1bf1 c33e 7fb3 f43e 9483 043f
00000160: f607 d93e b151 a33e be8c aa3e 9476 343f
00000170: 54f2 153f 893b ef3e 3760 f63e ae4b 2e3f
00000180: 522e 723e 4295 f73e 441d 113f 6e25 fb3e
00000190: e6eb b73e 3fb4 1f3f fa53 e53e d692 b83e
000001a0: f58f fd3e 2a9a a73e cc30 263f 1d96 853f
000001b0: 4ff8 c43e e544 7e3f 3a1c 2c3f fd86 0e3f
000001c0: 0101 973e 44f8 d33e 4203 c83e 4235 c13e
000001d0: 733e 143f 7285 9a3e 19a5 523f dc14 413f
000001e0: e5d3 423f 93c0 dd3e 579a 1d3f 5995 063f
000001f0: c832 e23e edae 1d3f 9814 1b3f a3f5 ea3e

hidden2.weight f4 [128, 128]
0.07294462 0.003146115 -0.06629859 0.031727638 0.04036722 -0.017196266 0.020560322 0.025125338
0.021808777 -0.027034834 -0.054551613 0.060131352 0.017029021 0.08409766 -0.06093098 -0.026497588
-0.0052314773 0.018357687 -0.020623209 -0.031714004 -0.015850674 -0.060396828 0.007539717 -0.08054739
-0.03051976 0.01036145 -0.06586775 0.021630721 0.09345635 -0.011427422 0.021946963 -0.09057461
0.007909164 0.024766535 -0.012792459 -0.0023507357 -0.095902845 0.02570577 -0.030361535 0.0021070745
0.050578434 0.062652506 0.0045594163 0.08492161 0.008797276 -0.008503836 0.059532862 0.08765669
0.075588495 -0.06386819 -0.04085122 0.039525937 -0.048932586 -0.0081295455 0.0458032 0.014848918
-0.00092981826 0.03649966 0.028252719 -0.08916511 0.06140115 0.021789828 0.060525 -4.874579e-05
0.0031601419 0.021825997 -0.008720063 0.07351101 -0.07718614 -0.042941265 -0.07042245 0.00052552676
-0.05648441 0.06864898 -0.033249546 0.06027473 0.10340381 -0.05593044 -0.048065867 -0.0386769
-0.041381475 0.07617471 0.052516434 -0.006613975 -0.06780175 0.038170647 0.08304625 0.005520943
-0.010934831 -0.05080279 -0.09005315 0.04314554 0.053895857 0.065597534 0.09236695 0.015453845
-0.0027888424 0.017572442 -0.019650437 -0.019423947 0.0019772898 0.019537868 -0.0662279 -0.07252177
-0.118271254 -0.006280756 0.0118964575 0.060575012 -0.049376346 -0.018745853 0.044963516 0.037892226
-0.038461823 -0.07183674 -0.07175747 -0.0022484986 0.008936833 0.054718185 0.028995229 0.05704602
-0.03588535 0.008765176 -0.03588981 0.081692934 -0.01054584 0.053404886 0.050323524 0.009493968
0.030912064 -0.011877258 0.02148018 0.071061976 -0.012365557 0.07995072 -0.05380868 -0.013409629
0.008023236 0.008235368 0.11197425 -0.09186077 -0.05992914 -0.006258691 0.03270573 -0.02986308
-0.0053921975 -0.06421741 -0.09082942 -0.026927082 0.0068610637 0.08075786 -0.02864714 -0.085677765
0.03416262 0.076824404 0.0034414346 0.0764359 0.035713833 -0.0038454682 -0.06071543 0.026879849
0.06519446 -0.051770348 0.06347286 0.0077047055 -0.038270805 0.014040486 -0.018984748 -0.05177613
0.046276342 0.08342898 -0.015498994 -0.060090754 -0.05087657 -0.06535717 -0.070989706 -0.039896786
-0.050063033 -0.024837222 0.046344507 -0.055871237 0.018206004 -0.010978816 -0.06536319 -0.04908076
-0.048194557 0.020590289 0.063917704 -0.059088446 0.0013285761 -0.09256916 0.099400744 0.03777957
0.034004316 -0.072367065 0.013742153 0.07777791 -0.020643245 0.033883933 0.0068948786 -0.009190606
-0.034741692 0.014034611 0.037204474 -0.0055443896 -0.031908445 -0.09666172 -0.037382495 -0.042720992
-0.06426288 -0.08064361 -0.05298199 -0.030046197 0.03432007 0.040456753 -0.06530753 0.05470015
-0.008761926 0.08385826 0.046544924 0.032762635 0.061615214 -0.013191068 0.009116765 -0.07069321
-0.06146386 0.005676167 0.04702384 0.015885625 -0.076664954 -0.046559826 -0.026561817 0.010562032
0.015461042 0.041826334 -0.082033016 0.047896426 -0.098016605 -0.04162436 0.03223199 -0.063261785
-0.055689335 0.09863771 -0.054107502 0.012285967 -0.08534457 -0.10700332 -0.04287003 0.087673165
-0.057313092 0.05336988 -0.007879379 0.008697253 0.05300662 0.031206572 0.076975636 0.028709311
00000000: fd63 953d 0d2f 4e3b 8ec7 87bd d7f4 013d
00000010: 1958 253d 2fdf 8cbc 1f6e a83c a7d3 cd3c
00000020: 52a8 b23c 2878 ddbc 8371 5fbd 4b4c 763d
00000030: 7280 8b3c 653b ac3d c392 79bd 7811 d9bc
00000040: d06c abbb dc62 963c 01f2 a8bc 8be6 01bd
00000050: 46d9 81bc aa62 77bd bb0f f73b 08f6 a4bd
00000060: 9304 fabc 12c3 293c ace5 86bd e932 b13c
00000070: 0b66 bf3d 153a 3bbc 1eca b33c 2e7f b9bd
00000080: 7095 013c 30e3 ca3c 7697 51bc cd0e 1abb
00000090: b668 c4bd e894 d23c c1b8 f8bc d816 0a3b
000000a0: 552b 4f3d f54f 803d 2867 953b 62eb ad3d
000000b0: 7322 103c ac53 0bbc bbd8 733d 5a85 b33d
000000c0: 24ce 9a3d 53cd 82bd 9c53 27bd f3e5 213d
000000d0: 896d 48bd c931 05bc 239c 3b3d e048 733c
000000e0: 0cbf 73ba ab80 153d 3f72 e73c 329c b6bd
000000f0: c67f 7b3d 9580 b23c 10e9 773d 6574 4cb8
00000100: 621a 4f3b 6fcc b23c 98de 0ebc f18c 963d
00000110: c413 9ebd 2ee3 2fbd a539 90bd 81c3 093a
00000120: 325c 67bd d697 8c3d ad30 08bd a3e2 763d
00000130: 60c5 d33d 5117 65bd b7e0 44bd ab6b 1ebd
00000140: 9f7f 29bd 7d01 9c3d 791b 573d 0bba d8bb
00000150: a5db 8abd d358 1c3d 2714 aa3d 07e9 b43b
00000160: 0128 33bc 9616 50bd c96d b8bd 61b9 303d
00000170: e7c1 5c3d 0058 863d e22a bd3d 2032 7d3c
00000180: 03c5 36bb 15f4 8f3c f4f9 a0bc f81e 9fbc
00000190: 6b95 013b e10d a03c 7ea2 87bd 4b86 94bd
000001a0: 3338 f2bd cdce cdbb 5ce9 423c 811d 783d
000001b0: da3e 4abd e790 99bc aa2b 383d e134 1b3d
000001c0: 258a 1dbd 241f 93bd 95f5 92bd 8c5b 13bb
000001d0: cb6b 123c 2d20 603d 6787 ed3c 16a9 693d
000001e0: 84fc 12bd d09b 0f3c 3201 13bd a04e a73d
000001f0: 75c8 2cbc 15bf 5a3d 0a20 4e3d 978c 1b3c
00000200: 4c3b fd3c d598 42bc 34f7 af3c f188 913d
00000210: e898 4abc 34bd a33d 7e66 5cbd 10b4 5bbc
00000220: e473 033c a3ed 063c c152 e53d 8021 bcbd
00000230: 4278 75bd b515 cdbb 72f6 053d 6ba3 f4bc
00000240: 08b1 b0bb 6b84 83bd c604 babd 2f96 dcbc
00000250: c6d2 e03b 6064 a53d 68ad eabc d377 afbd
00000260: 1aee 0b3d 1d56 9d3d b189 613b 6d8a 9c3d
00000270: ab48 123d 4004 7cbb beb0 78bd 2133 dc3c
00000280: ac84 853d 250d 54bd 0ffe 813d c177 fc3b
00000290: d9c1 1cbd 110a 663c e785 9bbc 3513 54bd
000002a0: 438c 3d3d d0dc aa3d 7eef 7dbc b921 76bd
000002b0: f363 50bd fbd9 85bd 0d63 91bd d06a 23bd
000002c0: e50e 4dbd 6e77 cbbc bdd3 3d3d 3dd9 64bd
000002d0: c224 953c 7ee0 33bc 23dd 85bd e808 49bd
000002e0: a867 45bd f7ac a83c 49e7 823d ba06 72bd
000002f0: 9e23 ae3a e694 bdbd 9e92 cb3d c0be 1a3d
00000300: 1c48 0b3d 2f35 94bd c426 613c 064a 9f3d
00000310: 061c a9bc e1c9 0a3d 6fee e13b 3294 16bc
00000320: 4e4d 0ebd 6df1 653c b863 183d b6ad b5bb
00000330: 6eb2 02bd 94f6 c5bd 631e 19bd 35fc 2ebd
00000340: 429c 83bd 7a28 a5bd a503 59bd 7123 f6bc
00000350: 3493 0c3d fbb5 253d f4bf 85bd 440d 603d
00000360: 2e8e 0fbc e1bd ab3d e4a5 3e3d 1d32 063d
00000370: 3c60 7c3d 591f 58bc 7c5e 153c 9ac7 90bd
00000380: 87c1 7bbd 24ff b93b 129c 403d 9222 823c
00000390: 8402 9dbd 84b5 3ebd 2b98 d9bc 600c 2d3c
000003a0: 4f50 7d3c 1752 2b3d ed00 a8bd 0b2f 443d
000003b0: eebc c8bd 4e7e 2abd b105 043d 658f 81bd
000003c0: 801a 64bd 9102 ca3d d49f 5dbd 154b 493c
000003d0: 22c9 aebd 8e24 dbbd 7c98 2fbd fd8d b33d
000003e0: 22c1 6abd 609a 5a3d 8318 01bc ec7e 0e3c
000003f0: 781d 593d eda4 ff3c 67a5 9d3d ca2f eb3c

bn2.weight f4 [128]
1.0016754 0.9962927 0.9985453 0.9853434 0.9950185 0.9974866 0.9953854 0.98585266
1.0004247 0.99098027 1.0004681 0.99583715 0.99831384 0.9984025 0.9951867 0.99311996
0.9924729 0.9910613 0.99760526 0.9958553 0.9985665 0.9917549 0.9919699 1.000112
0.98721546 1.0061125 0.9954586 1.0011563 0.99464846 1.0004004 0.99735063 0.9914226
0.99626416 0.98559815 0.9816836 0.99385566 0.99589 0.99869615 0.99012035 0.9897034
0.9996478 0.99358505 0.9939102 0.9947009 0.9897385 0.99689764 0.99970424 0.98525834
0.99609166 1.0047976 0.99530095 0.9915055 0.99842983 0.9991254 0.9885008 0.9861242
0.9952728 0.9778462 0.99036396 0.9906444 0.9951952 0.9998871 0.99403006 0.99026173
1.0045348 1.0023353 0.9955736 0.9961373 1.0030605 0.9882135 1.0013602 1.0016772
1.0019658 0.9927108 0.9955207 0.99597234 1.0006771 0.9918346 0.9862599 0.9857056
0.9839897 0.9886359 0.99609417 0.9996182 0.99149173 0.9987859 0.99242467 0.98890465
0.9869063 0.98986685 0.9951952 0.9973529 0.99779004 0.9911508 0.99186414 0.98992306
1.0005867 0.9902526 0.9939314 1.0085727 0.9883968 0.9859895 0.9869326 0.9984642
0.99963886 0.9999753 0.9980274 1.0020713 0.99619156 0.993594 1.0008796 0.9874458
0.99814045 1.0084581 0.99942964 0.99253136 1.0017277 0.99530447 0.9906727 1.006735
0.99294835 0.99886763 0.9972555 0.9760109 1.0057528 1.0073444 1.0014772 0.98305744
00000000: e636 803f 0a0d 7f3f aaa0 7f3f 773f 7c3f
00000010: 88b9 7e3f 485b 7f3f 94d1 7e3f d760 7c3f
00000020: eb0d 803f e2b0 7d3f 570f 803f 2fef 7e3f
00000030: 7f91 7f3f 4e97 7f3f 8ec4 7e3f 1c3d 7e3f
00000040: b412 7e3f 31b6 7d3f 0f63 7f3f 5ff0 7e3f
00000050: 0ea2 7f3f a6e3 7d3f bdf1 7d3f ac03 803f
00000060: 27ba 7c3f 4bc8 803f 60d6 7e3f e425 803f
00000070: 48a1 7e3f 1f0d 803f 5f52 7f3f dfcd 7d3f
00000080: 2b0b 7f3f 2950 7c3f 9e4f 7b3f 536d 7e3f
00000090: a6f2 7e3f 8daa 7f3f 8778 7d3f 345d 7d3f
000000a0: ebe8 7f3f 975b 7e3f e670 7e3f b8a4 7e3f
000000b0: 815f 7d3f af34 7f3f 9eec 7f3f e439 7c3f
000000c0: ddff 7e3f 359d 803f 0bcc 7e3f 4ed3 7d3f
000000d0: 1999 7f3f afc6 7f3f 630e 7d3f a372 7c3f
000000e0: 33ca 7e3f 2154 7a3f 7e88 7d3f df9a 7d3f
000000f0: 1dc5 7e3f 9af8 7f3f c178 7e3f cb81 7d3f
00000100: 9994 803f 864c 803f e9dd 7e3f db02 7f3f
00000110: 4964 803f 8ffb 7c3f 922c 803f f536 803f
00000120: 6a40 803f 4c22 7e3f 72da 7e3f 0bf8 7e3f
00000130: 3016 803f dfe8 7d3f 877b 7c3f 3457 7c3f
00000140: c0e6 7b3f 3e17 7d3f 0700 7f3f fae6 7f3f
00000150: 67d2 7d3f 6fb0 7f3f 8b0f 7e3f db28 7d3f
00000160: e4a5 7c3f ea67 7d3f 1dc5 7e3f 8552 7f3f
00000170: 2b6f 7f3f 0fbc 7d3f cfea 7d3f 996b 7d3f
00000180: 3a13 803f 3281 7d3f 4a72 7e3f e918 813f
00000190: 9307 7d3f cf69 7c3f 9da7 7c3f 5a9b 7f3f
000001a0: 55e8 7f3f 62fe 7f3f b97e 7f3f df43 803f
000001b0: 6906 7f3f 2d5c 7e3f d31c 803f 3fc9 7c3f
000001c0: 2286 7f3f 2815 813f 9fda 7f3f 8916 7e3f
000001d0: 9d38 803f 46cc 7e3f ba9c 7d3f b1dc 803f
000001e0: dd31 7e3f cab5 7f3f 234c 7f3f dadb 793f
000001f0: 82bc 803f a9f0 803f 6830 803f a7a9 7b3f

bn2.bias f4 [128]
0.00559007 -0.05031682 -0.026322315 0.069661 0.021869242 0.045943677 -0.022496497 -0.04362118
-0.025227055 0.042202327 0.015179666 0.04490728 0.03324054 0.05700218 0.030239146 -0.023344172
-0.04771651 0.04335704 -0.027485559 -0.05798856 0.02040323 -0.019103847 -0.027562976 -0.029821005
0.03639569 -0.03324138 -0.06186234 -0.03158028 -0.02805542 -0.017754799 0.023530483 -0.05105675
0.032405365 0.039505206 0.04943024 -0.028053405 0.053562988 -0.020189654 0.06718552 0.042915627
0.026822947 -0.037638772 0.0236867 -0.018801292 0.035746038 0.024452241 -0.011601098 0.033366937
-0.037981436 -0.03611941 0.017879728 -0.032864768 0.0037796213 -0.0281206 -0.03844868 -0.05461786
0.039293647 0.045816626 0.07058551 0.040879246 -0.01913985 -0.047488477 -0.04158055 0.053744663
-0.061173253 -0.044111896 -0.024751654 -0.031744473 -0.06586339 -0.037284926 -0.03586758 -0.025425538
-0.026508382 0.023187852 -0.00976966 0.04504115 -0.020324277 -0.0714429 0.057580687 -0.05176744
-0.057979036 0.044691686 -0.026372775 -0.031617045 -0.047722034 0.0003547429 -0.028334526 0.055309776
-0.04739051 -0.04951605 0.027142879 -0.048565064 0.0251063 0.05742133 0.029782373 0.048788533
-0.018110063 0.027262773 0.03740654 0.027098313 0.03526589 -0.059671577 -0.04852686 -0.021785507
0.009749745 0.014148396 -0.021851117 0.034853093 -0.03521773 0.027919525 0.004795943 -0.03770869
0.0010740439 -0.04770293 -0.025986448 0.0406341 0.035004195 0.042907987 0.027373824 -0.03673915
-0.060887527 -0.040464234 0.03647224 -0.066164605 0.032122243 0.038147092 -0.015504191 -0.07537581
00000000: e82c b73b 0319 4ebd e5a1 d7bc 6daa 8e3d
00000010: 2027 b33c 702f 3c3d 934a b8bc 1fac 32bd
00000020: f8a8 cebc 59dc 2c3d 22b4 783c b2f0 373d
00000030: 3c27 083d 1e7b 693d 16b8 f73c 473c bfbc
00000040: 6372 43bd 2797 313d 6529 e1bc 6a85 6dbd
00000050: ad24 a73c ac7f 9cbc c0cb e1bc 2e4b f4bc
00000060: a613 153d 1d28 08bd 5d63 7dbd 535a 01bd
00000070: 7bd4 e5bc 8372 91bc 00c3 c03c e220 51bd
00000080: 7dbb 043d 36d0 213d 5d77 4a3d 41d0 e5bc
00000090: dd64 5b3d c664 a5bc 9098 893d 4cc8 2f3d
000000a0: ccbb db3c 1d2b 1abd 9c0a c23c 2b05 9abc
000000b0: 706a 123d 1150 c83c 8812 3ebc c5ab 083d
000000c0: 6c92 1bbd f2f1 13bd 8278 923c 359d 06bd
000000d0: 86b3 773b 2c5d e6bc 5d7c 1dbd fab6 5fbd
000000e0: 60f2 203d 37aa 3b3d 238f 903d ff70 273d
000000f0: 2dcb 9cbc 4783 42bd 5e50 2abd 5d23 5c3d
00000100: ce90 7abd adae 34bd fbc3 cabc 7e06 02bd
00000110: 63e3 86bd 14b8 18bd e2e9 12bd 3849 d0bc
00000120: 1b28 d9bc 73f4 bd3c ed10 20bc 127d 383d
00000130: 197f a6bc a850 92bd bad9 6b3d 180a 54bd
00000140: 6d7b 6dbd a10e 373d b80b d8bc e080 01bd
00000150: 2e78 43bd c9fc b939 cf1d e8bc 818c 623d
00000160: 8d1c 42bd 57d1 4abd be5a de3c 29ec 46bd
00000170: baab cd3c a132 6b3d 2afa f33c 7cd6 473d
00000180: 8e5b 94bc 2e56 df3c 9a37 193d 48fd dd3c
00000190: f772 103d 2f6a 74bd 1ac4 46bd 8577 b2bc
000001a0: 65bd 1f3c adce 673c 1d01 b3bc 1ec2 0e3d
000001b0: 7740 10bd 7db7 e43c 4927 9d3b 6d74 1abd
000001c0: efc6 8c3a 2664 43bd 88e1 d4bc f16f 263d
000001d0: 8f60 0f3d 49c0 2f3d 123f e03c ca7b 16bd
000001e0: 3365 79bd d3bd 25bd ea63 153d 4f81 87bd
000001f0: 9d92 033d 2040 1c3d 4a05 7ebc a25e 9abd

bn2.running_mean f4 [128]
0.078396305 -0.06013503 -0.09987401 0.11335929 0.036876127 0.10414926 -0.10963066 -0.088851385
-0.04550136 0.05241085 0.031585705 0.11356906 0.040334128 0.10601539 0.10877058 -0.07704066
-0.049966253 0.07210272 -0.06861484 -0.07686796 0.06320712 -0.024534443 -0.08998575 -0.076777704
0.07124877 -0.058430336 -0.08488555 -0.04600105 -0.098449074 -0.057426363 0.0720443 -0.11966456
0.08658833 0.052580796 0.053431798 -0.03572063 0.11064119 -0.005132033 0.14601484 0.04681734
0.08737412 -0.059218347 0.08475402 -0.11015134 0.08835201 0.13547635 -0.098766744 0.073960185
-0.00520836 -0.09087681 0.10075687 -0.039664056 0.017668525 -0.123231 -0.059675694 -0.035968125
0.021764733 0.06819393 0.016708083 0.11712348 -0.047399238 -0.038674153 -0.07129169 0.08980482
-0.1367786 -0.09156776 -0.10872176 -0.025338255 -0.05530062 -0.06770189 -0.076068595 -0.11519403
-0.024468865 0.04343863 -0.0830838 0.14740412 -0.01650301 -0.12094447 0.05566813 -0.060007717
-0.12411579 0.08268754 -0.093862146 -0.08548109 -0.0717186 -0.038554285 -0.05738217 0.011909185
-0.0930754 -0.051331945 0.06073507 -0.073484294 0.08882236 0.13745496 0.03078516 0.12896663
-0.11570709 0.07671494 0.036809165 0.033993773 0.08882976 -0.108866215 -0.035763342 -0.07068395
0.12571889 0.05105235 -0.07666657 0.059447784 -0.048349466 0.10631453 0.0045464057 -0.050684664
0.026626885 -0.09595853 -0.006103942 0.10944665 0.081121996 0.07822836 0.088624425 -0.057530954
-0.039002456 -0.045269184 0.03845068 -0.063118234 0.10299629 0.07707929 -0.09007114 -0.11485501
00000000: 3e8e a03d 2650 76bd bf8a ccbd ea28 e83d
00000010: 6c0b 173d 354c d53d 0a86 e0bd b7f7 b5bd
00000020: a25f 3abd c2ac 563d 0360 013d e596 e83d
00000030: 6635 253d 991e d93d 1cc3 de3d 7ec7 9dbd
00000040: 6aa9 4cbd 97aa 933d f085 8cbd f36c 9dbd
00000050: bc72 813d 75fc c8bc 734a b8bd a13d 9dbd
00000060: e0ea 913d a654 6fbd 7ad8 adbd 996b 3cbd
00000070: ab9f c9bd e837 6bbd f68b 933d b112 f5bd
00000080: 3955 b13d f65e 573d 4ddb 5a3d cc4f 12bd
00000090: d997 e23d 9d2a a8bb ea84 153e 8ac3 3f3d
000000a0: 34f1 b23d f08e 72bd 8493 ad3d 0797 e1bd
000000b0: e6f1 b43d 50ba 0a3e 3846 cabd 7078 973d
000000c0: e4aa aabb 9f1d babd 9e59 ce3d c776 22bd
000000d0: 95bd 903c 8960 fcbd 806e 74bd 5053 13bd
000000e0: f44b b23c 42a9 8b3d 64df 883c 6fde ef3d
000000f0: b425 42bd ca68 1ebd 6101 92bd 97eb b73d
00000100: b00f 0cbe e187 bbbd 84a9 debd 2c92 cfbc
00000110: e782 62bd 4aa7 8abd dac9 9bbd d9ea ebbd
00000120: ee72 c8bc b4ec 313d d727 aabd 1bf1 163e
00000130: 5231 87bc bcb1 f7bd 4404 643d a7ca 75bd
00000140: 6b30 febd 1658 a93d cc3a c0bd b610 afbd
00000150: 34e1 92bd 19eb 1dbd 9109 6bbd be1e 433c
00000160: 519e bebd 7241 52bd 56c5 783d ef7e 96bd
00000170: 7fe8 b53d fec0 0c3e 2931 fc3c d40f 043e
00000180: d7f7 ecbd b91c 9d3d 35c5 163d 0e3d 0b3d
00000190: 61ec b53d 40f5 debd 957c 12bd bfc2 90bd
000001a0: 74bc 003e 451c 513d 5d03 9dbd 857f 733d
000001b0: 170a 46bd 6fbb d93d 04fa 943b b99a 4fbd
000001c0: a020 da3c e885 c4bd 9403 c8bb 9125 e03d
000001d0: 4a23 a63d 3136 a03d b980 b53d 94a5 6bbd
000001e0: 0ac1 1fbd 2e6c 39bd 767e 1d3d 2244 81bd
000001f0: b8ef d23d bfdb 9d3d 3877 b8bd 1a39 ebbd

bn2.running_var f4 [128]
0.32160822 0.40385818 0.36274877 0.34973156 0.27283216 0.4517445 0.22261354 0.32773903
0.30997044 0.32337707 0.21249536 0.31952196 0.19046316 0.4284154 0.3022674 0.29817015
0.24487211 0.37476337 0.33488545 0.48323146 0.24580485 0.21347801 0.23065881 0.37378976
0.3014073 0.36148727 0.41024736 0.3357421 0.3826074 0.28536928 0.2634208 0.4169765
0.46363047 0.32873538 0.32387987 0.33832058 0.51801735 0.2288154 0.37189516 0.42261598
0.26944014 0.3074642 0.32854816 0.29525077 0.31191614 0.40717712 0.35880202 0.28253627
0.38399246 0.42012826 0.36755493 0.28214982 0.23356473 0.3734848 0.3155112 0.3147208
0.39416566 0.2862647 0.31816053 0.3067593 0.28239682 0.3815155 0.3351375 0.32211825
0.48241875 0.44332618 0.2817842 0.3508336 0.45524165 0.27429172 0.3736389 0.36664885
0.27949172 0.28696066 0.2606509 0.521704 0.3220188 0.5531056 0.28590855 0.3614796
0.5099464 0.26332974 0.29746142 0.32824904 0.33277678 0.25861076 0.3729943 0.3336669
0.35581532 0.4398037 0.2914914 0.3345967 0.35348174 0.47497633 0.30832058 0.4634611
0.35597143 0.35675538 0.37712714 0.35231924 0.2580015 0.4626717 0.35536787 0.334971
0.3953108 0.20078619 0.23025969 0.3847037 0.42044836 0.3804877 0.19217508 0.27109
0.24242854 0.3670559 0.27167693 0.311638 0.376115 0.2827076 0.3290248 0.31589958
0.43283162 0.32071358 0.35780498 0.45154497 0.38953608 0.35932896 0.35538808 0.42894864
00000000: d5a9 a43e 80c6 ce3e 35ba b93e 0410 b33e
00000010: a8b0 8b3e 0e4b e73e cef4 633e 69cd a73e
00000020: 72b4 9e3e ae91 a53e 6298 593e 6298 a33e
00000030: c608 433e 4359 db3e cbc2 9a3e c2a9 983e
00000040: c1bf 7a3e fce0 bf3e 1b76 ab3e 1d6a f73e
00000050: 44b4 7b3e fb99 5a3e d331 6c3e 5f61 bf3e
00000060: 0f52 9a3e dc14 b93e f10b d23e 63e6 ab3e
00000070: 1ee5 c33e ec1b 923e 17df 863e f27d d53e
00000080: f960 ed3e 0150 a83e 95d3 a53e 5b38 ad3e
00000090: c99c 043f 964e 6a3e 0b69 be3e 1f61 d83e
000000a0: 0ff4 893e f36b 9d3e 7737 a83e 1c2b 973e
000000b0: 79b3 9f3e 8579 d03e e6b4 b73e 98a8 903e
000000c0: a99a c43e 0d1b d73e 2930 bc3e f175 903e
000000d0: 982b 6f3e 6639 bf3e af8a a13e 1623 a13e
000000e0: 15d0 c93e 4991 923e f0e5 a23e 8e0f 9d3e
000000f0: 5196 903e 0056 c33e 2497 ab3e afec a43e
00000100: 97ff f63e a6fb e23e 0546 903e 76a0 b33e
00000110: 6f15 e93e f76f 8c3e 994d bf3e 66b9 bb3e
00000120: 8a19 8f3e 82ec 923e 0974 853e 658e 053f
00000130: a6df a43e 5498 0d3f 9b62 923e db13 b93e
00000140: d98b 023f 28d3 863e dd4c 983e 4210 a83e
00000150: b861 aa3e a168 843e 1cf9 be3e 63d6 aa3e
00000160: 6d2d b63e f32d e13e 5c3e 953e 4250 ab3e
00000170: 8ffb b43e 1930 f33e 32dc 9d3e c64a ed3e
00000180: e341 b63e a4a8 b63e cf16 c13e 3063 b43e
00000190: c618 843e 4ee3 ec3e c7f2 b53e 5281 ab3e
000001a0: 2d66 ca3e e59a 4d3e 32c9 6b3e e2f7 c43e
000001b0: 0245 d73e 49cf c23e 8bc9 443e 4fcc 8a3e
000001c0: 303f 783e c0ee bb3e 3d19 8b3e 048f 9f3e
000001d0: 2592 c03e 0dbf 903e f075 a83e 97bd a13e
000001e0: 1b9c dd3e 9234 a43e 3732 b73e e730 e73e
000001f0: 4671 c73e f7f9 b73e 6df5 b53e 289f db3e

hidden3.weight f4 [16, 128]
-0.104209304 -0.092514575 -0.032197285 -0.03902354 0.06566172 -0.049899533 -0.03234821 0.04798009
-0.07691561 0.05170536 -0.08657598 -0.062299248 -0.058620702 -0.030169325 0.06683032 0.018449849
0.014663784 0.080290966 -0.07268571 -0.025315186 0.04294179 0.026599186 -0.045818184 0.06887722
-0.07031782 0.0444235 0.049378898 0.0659256 0.05782079 -0.038610034 -0.03324463 -0.045624312
0.01055205 0.02578222 0.029898716 -0.046279017 -0.04065972 0.00096618844 0.011617816 0.110393845
0.011151421 -0.0043435823 -0.091588706 0.03481079 -0.0062352065 -0.027382772 0.069617316 -0.031582776
-0.035920523 0.0044321767 0.054626178 0.003271973 0.042847965 0.07390998 0.010511842 0.017741038
-0.047408484 -0.023971986 -0.072174765 0.0019990325 -0.04113438 -0.030947398 -0.07403423 0.008341058
0.060391136 -0.060070638 0.06063547 -0.06728866 -0.056074552 0.06264674 -0.012744674 -0.06415837
0.06970897 -0.008436433 -0.052709993 0.03907893 -0.11097885 0.0005021176 -0.019693239 -0.00825187
0.05271516 -0.044236768 0.04221251 0.01001062 -0.059964146 0.06312407 -0.07611948 0.007049725
0.054094058 -0.053836253 -0.07672746 0.033646245 -0.005467724 0.026708752 0.025490884 -0.08377344
0.08637691 -0.011787689 -0.048389968 -0.06162688 -0.052340996 -0.06310962 -0.06961734 0.058362152
0.026494188 0.031993218 -0.0030699852 0.042676874 -0.041393235 -0.07813831 -0.017580003 -0.014054427
-0.041803066 -0.032363787 0.00024007437 -0.05023015 -0.008070546 0.011010945 -0.07543767 0.10417803
0.025767712 0.007132737 -0.070913434 -0.007985214 -0.046317954 -0.028719278 0.0061786002 0.030121073
0.025539225 -0.00988281 0.08553595 -0.0774734 0.0009128751 -0.0990747 0.039636403 0.012846513
-0.002773338 -0.014683084 -0.019057674 0.034368753 -0.07758337 -0.04224227 -0.057170834 0.016546182
0.034099046 -0.034997843 0.024974508 0.002488007 -0.08481791 0.016463306 0.05891554 -0.052845158
-0.023584947 0.11728325 0.056646287 0.046591155 -0.009897709 0.041443866 0.024525838 -0.07869689
-0.082790874 -0.09922508 -0.11147598 0.07068609 -0.063173935 0.011767663 0.040984273 -0.07308739
0.010082754 -0.06862057 0.056424268 0.008367877 0.07354617 0.027601983 0.0021385802 -0.062732324
0.07624194 -0.048532702 -0.06136917 0.07149941 -0.031182446 -0.0030076788 0.014465229 -0.040772907
-0.03779429 0.023711234 0.11720747 0.016106477 -0.015962128 -0.023810871 0.11261504 -0.08079003
-0.059735622 0.08438515 -0.06572503 0.07262362 0.15130901 -0.010499631 -0.024945267 0.01216182
-0.08085425 -0.046063147 0.029756261 0.009885251 0.05747801 -0.024438439 -0.04774933 -0.044222467
-0.044576578 -0.0063931723 -0.05704397 -0.027562238 -0.008404371 0.013654233 0.07255264 -0.032813944
0.015696844 0.0038418605 -0.022464124 0.09495428 -0.09799182 -0.060168408 0.08368823 -0.02186891
-0.027509654 -0.07322372 0.07270297 -0.057403564 0.0040927 0.08686213 0.11962583 0.013671825
-0.014139896 0.038054273 -0.027244033 0.044660524 -0.011621876 0.017562281 -0.044483915 -0.08865582
0.1367497 -0.01572059 -0.07166529 0.035653044 0.029126143 -0.02671963 -0.10132707 0.034029
-0.0041172733 0.018884845 0.044184722 0.065520056 -0.022969794 -0.032244224 0.09579094 0.009340904
00000000: b06b d5bd 4878 bdbd 4de1 03bd 26d7 1fbd
00000010: a779 863d 7463 4cbd 8f7f 04bd c586 443d
00000020: ee85 9dbd 00c9 533d bf4e b1bd 7f2d 7fbd
00000030: 431c 70bd a925 f7bc 56de 883d 2324 973c
00000040: 5e40 703c 976f a43d 3fdc 94bd cb61 cfbc
00000050: bbe3 2f3d 89e6 d93c d9ab 3bbd 800f 8d3d
00000060: ca02 90bd 6af5 353d 8741 4a3d 0004 873d
00000070: 7ed5 6c3d 8e25 1ebd 852b 08bd 8fe0 3abd
00000080: 81e2 2c3c 3c35 d33c 27ee f43c 118f 3dbd
00000090: ce8a 26bd cf47 7d3a a758 3e3c 2b16 e23d
000000a0: 73b4 363c 9c54 8ebb dc92 bbbd c295 0e3d
000000b0: b450 ccbb d651 e0bc 8693 8e3d f15c 01bd
000000c0: 6621 13bd cb3b 913b b3bf 5f3d 996e 563b
000000d0: 5981 2f3d 1e5e 973d dc39 2c3c a755 913c
000000e0: 662f 42bd e660 c4bc 5dd0 93bd 3302 033b
000000f0: 867c 28bd 6685 fdbc 429f 97bd efa8 083c
00000100: b25c 773d a10c 76bd e65c 783d a3ce 89bd
00000110: 6eae 65bd ef4c 803d 0acf 50bc 7765 83bd
00000120: 94c3 8e3d f738 0abc 6fe6 57bd 3a11 203d
00000130: e148 e3bd 8ba0 033a b753 a1bc da32 07bc
00000140: daeb 573d 9d31 35bd 06e7 2c3d 9503 243c
00000150: f79c 75bd 3147 813d 88e4 9bbd 6101 e73b
00000160: bb91 5d3d 6783 5cbd 4923 9dbd a5d0 093d
00000170: 982a b3bb 50cc da3c 42d2 d03c 6991 abbd
00000180: 61e6 b03d 2721 41bc 8f34 46bd 786c 7cbd
00000190: 8363 56bd 9e3f 81bd 8993 8ebd 270d 6f3d
000001a0: 570a d93c 520b 033d ce31 49bb f2cd 2e3d
000001b0: f48b 29bd fa06 a0bd f003 90bc 8a44 66bc
000001c0: b139 2bbd e48f 04bd 79bc 7b39 21be 4dbd
000001d0: 533a 04bc 4067 343c 117f 9abd 4a5b d53d
000001e0: cf16 d33c bcb9 e93b 103b 91bd 6ad4 02bc
000001f0: e5b7 3dbd b144 ebbc db75 ca3b 78c0 f63c
00000200: a337 d13c 82eb 21bc 792d af3d 60aa 9ebd
00000210: 034e 6f3a ade7 cabd c859 223d 2e7a 523c
00000220: e4c0 35bb 5191 70bc d71e 9cbc 40c6 0c3d
00000230: 08e4 9ebd 3b06 2dbd f72b 6abd dc8b 873c
00000240: 71ab 0b3d e659 0fbd 5797 cc3c d50d 233b
00000250: 03b5 adbd 0ede 863c 6c51 713d 2a74 58bd
00000260: 3835 c1bc 3332 f03d f005 683d 5ed6 3e3d
00000270: 002a 22bc 0bc1 293d 69ea c83c d62b a1bd
00000280: 438e a9bd 8536 cbbd 854d e4bd dec3 903d
00000290: 5661 81bd 28cd 403c 20df 273d d7ae 95bd
000002a0: 2332 253c f188 8cbd 221d 673d 6c19 093c
000002b0: 609f 963d 8e1d e23c 6c27 0c3b ce79 80bd
000002c0: bc24 9c3d 3aca 46bd 3d5e 7bbd 486e 923d
000002d0: 5472 ffbc 7a1c 45bb 91ff 6c3c 7e01 27bd
000002e0: 2fce 1abd 103e c23c 780a f03d bbf1 833c
000002f0: 02c3 82bc 040f c3bc b7a2 e63d 3e75 a5bd
00000300: 57ad 74bd 1fd2 ac3d d89a 86bd b1bb 943d
00000310: c0f0 1a3e a506 2cbc 045a ccbc 5f42 473c
00000320: ea96 a5bd b6ac 3cbd 67c3 f33c bff5 213c
00000330: 106e 6b3d 1f33 c8bc cd94 43bd 9e22 35bd
00000340: ee95 36bd d17d d1bb f0a6 69bd 34ca e1bc
00000350: 7db2 09bc 01b6 5f3c 7b96 943d ea67 06bd
00000360: ab96 803c b9c7 7b3b af06 b8bc 6477 c23d
00000370: efaf c8bd 2673 76bd bc64 ab3d 6e26 b3bc
00000380: ed5b e1bc 51f6 95bd 4be5 943d 0020 6bbd
00000390: 0e1c 863b c6e4 b13d 63fe f43d caff 5f3c
000003a0: 06ab 67bc ccde 1b3d e12e dfbc f4ed 363d
000003b0: ae69 3ebc c6de 8f3c c434 36bd 2f91 b5bd
000003c0: 1d08 0c3e 77c8 80bc 40c5 92bd ed08 123d
000003d0: f399 ee3c 20e3 dabc 9184 cfbd fe61 0b3d
000003e0: 31ea 86bb 64b4 9a3c 0afb 343d 612f 863d
000003f0: 262b bcbc 8512 04bd 0a2e c43d 970a 193c

bn3.weight f4 [16]
0.9910419 0.9625325 0.9861693 1.0938671 0.93986785 1.0117899 0.95450604 0.99317366
1.0423416 1.0759407 0.95277965 1.0902283 0.9786559 1.0156083 0.9933429 0.9956099
00000000: ecb4 7d3f 8868 763f 9775 7c3f d603 8c3f
00000010: 2e9b 703f 5582 813f 825a 743f a140 7e3f
00000020: 736b 853f 6db8 893f 5ee9 733f 9a8c 8b3f
00000030: 3189 7a3f 74ff 813f b84b 7e3f 4ae0 7e3f

bn3.bias f4 [16]
-0.1124945 -0.39793438 -0.111101896 0.20794617 0.2848812 0.078041345 0.46474203 0.1528958
-0.44994998 -0.38359383 0.4444841 0.57880336 -0.25587562 -0.14449415 0.09844845 0.014229477
00000000: 8463 e6bd 0ebe cbbe 6489 e3bd d7ef 543e
00000010: f3db 913e 24d4 9f3d abf2 ed3e b790 1c3e
00000020: d85f e6be 6966 c4be 6c93 e33e 752c 143f
00000030: 2102 83be 46f6 13be 579f c93d c122 693c

bn3.running_mean f4 [16]
-0.04751892 -0.037674826 -0.026733726 0.055082995 0.014561113 0.032100867 0.11772406 0.013407892
0.0018726756 -0.15902491 0.0017562856 0.1865028 -0.00979103 -0.059212107 0.012316185 0.00209621
00000000: 33a3 42bd eb50 1abd b000 dbbc b59e 613d
00000010: bc91 6e3c 337c 033d 5019 f13d c6ac 5b3c
00000020: 9174 f53a 6dd7 22be 2a33 e63a 97fa 3e3e
00000030: 8e6a 20bc 6588 72bd d3c9 493c 9160 093b

bn3.running_var f4 [16]
0.70914304 1.3412182 0.579322 1.6678795 0.9240021 0.65625286 1.6077564 0.9014155
1.8750932 2.6819267 1.2660663 2.9646673 0.7553523 0.92470604 0.3023211 0.24592511
00000000: 668a 353f 0aad ab3f 724e 143f 137d d53f
00000010: 678b 6c3f 3000 283f f6ca cd3f 2bc3 663f
00000020: 0e03 f03f b0a4 2b40 760e a23f 1cbd 3d40
00000030: c55e 413f 89b9 6c3f d5c9 9a3e cbd3 7b3e

output.weight f4 [1, 16]
0.07547053 0.46874228 0.085034564 -0.5276233 -0.325082 -0.18153752 -0.48847252 -0.17673875
0.6077356 0.54061383 -0.57883704 -0.79992795 0.3122113 0.23439825 0.022324124 0.017311785
00000000: 4b90 9a3d fdfe ef3e 9a26 ae3d 5212 07bf
00000010: 2671 a6be f9e4 39be 1219 fabe 01fb 34be
00000020: 8f94 1b3f ab65 0a3f aa2e 14bf 14c8 4cbf
00000030: 29da 9f3e 1806 703e 15e1 b63c 72d1 8d3c
