models/focal_loss_checkpoints/checkpoint_epoch_180.pth (torch, 100242 bytes, 16 tensors)

hidden1.weight f4 [128, 30]
0.10493201 -0.15761118 -0.051679675 -0.041804425 0.11116274 -0.09377449 0.00596542 0.012541532
-0.020858457 -0.10135896 -0.14184032 0.18897513 -0.11945419 0.034442287 -0.044159558 0.07211981
-0.1926437 0.061298326 0.16329424 0.2187827 0.10724866 0.005363356 -0.11813727 0.07346225
0.09567793 0.059544437 -0.06483531 0.1763342 0.10878168 -0.11275441 -0.17727883 -0.0031183157
0.02212133 0.027245337 -0.033816617 0.017136602 -0.075983845 0.0010561856 -0.041263457 -0.14061192
-0.08101344 -0.15830638 0.17022517 0.14083885 0.064344645 -0.03125447 -0.12341152 0.065457955
0.096841194 0.12510529 -0.18800732 -0.1317472 -0.09262895 0.0719461 0.18922232 -0.15789832
0.11134798 0.020769395 -0.1483493 -0.04260525 0.13075604 0.007364518 0.049157362 -0.124899715
-0.007230932 0.07330078 0.11753935 -0.040992647 0.113084994 0.11374122 0.021011427 -0.12399154
-0.17943265 0.11251566 0.13588044 0.16793282 -0.17151627 -0.17997935 -0.08972735 -0.11892553
0.01916384 -0.037688807 -0.17251006 -0.10669984 -0.09943569 -0.08132654 0.043913204 -0.07170277
-0.0049645468 0.12690245 -0.0013576405 0.16988786 -0.08053336 -0.027985109 -0.0899152 0.05256857
0.03831792 0.034266587 -0.05206033 -0.08816042 0.14147489 -0.17780238 0.026934667 0.09839159
-0.041196965 0.115628995 -0.07446344 -0.03773934 -0.12445729 -0.01924124 -0.034969527 -0.16873829
0.06477318 -0.053294115 0.19436301 0.18697833 -0.14466596 0.03747116 0.0716487 -0.11265567
0.087159894 0.019784 -0.19738832 -0.10929579 -0.16928957 -0.1034876 0.13865821 -0.0513631
0.06740163 0.1816276 0.1417644 0.112081945 0.2212166 -0.03555949 0.076852396 -0.15416788
0.052632876 -0.06447487 -0.10276643 -0.17910479 -0.014665965 0.034978036 -0.06539579 0.05217668
0.16294457 0.117553905 -0.025009694 -0.088296026 -0.010011305 0.030022047 -0.08294131 -0.064790584
0.1681638 0.014884119 0.19266325 0.03825144 0.21711309 -0.0036260157 -0.044325083 0.03578838
0.043914717 0.09718572 -0.05949739 0.09931417 -0.16780467 0.093872644 0.080840856 -0.09304045
-0.059663072 0.102760874 0.065078184 -0.0439394 -0.08602278 -0.015705207 0.09765708 -0.0691409
-0.059799995 -0.1453689 -0.0857974 0.055594053 -0.114848025 -0.049624 0.046099287 -0.12349306
-0.041218523 0.15180606 -0.05796314 0.096123256 -0.011488882 -0.1503913 -0.052540492 -0.19269319
0.18142948 0.15638389 0.12607229 0.05212086 0.13553175 0.05963592 0.018011495 0.05474585
0.04893981 -0.031161757 -0.12573083 0.12085579 0.13392977 -0.075054705 0.05722639 0.12476556
0.011703821 -0.11929767 -0.007233557 -0.070588455 -0.002903612 0.13757874 -0.1888838 -0.07399094
0.036157764 -0.037079718 -0.10592564 -0.012004876 0.08060693 -0.18474285 -0.035132103 0.06382651
0.080925055 -0.014637178 0.16101594 0.14213791 -0.098810166 0.044276856 0.094919 -0.056517262
0.15760851 0.0074183545 0.16485845 -0.08197366 0.15143646 -0.1428297 0.08594051 -0.1026713
-0.12802686 0.091314055 -0.15836321 0.15595356 0.06857615 -0.051319424 0.032767598 0.14637671
0.033051345 0.027098596 0.18448897 0.12548684 -0.020249221 0.02702668 0.22187486 -0.10387713
00000000: 98e6 d63d d364 21be 11ae 53bd 1e3b 2bbd
00000010: 4aa9 e33d d70c c0bd 9279 c33b ff7a 4d3c
00000020: 5bdf aabc 4995 cfbd 973e 11be b282 413e
00000030: 66a4 f4bd 5b13 0d3d a7e0 34bd 8db3 933d
00000040: 6444 45be f413 7b3d 9b36 273e 9208 603e
00000050: 2fa5 db3d 17bf af3b f4f1 f1bd 6073 963d
00000060: caf2 c33d dee4 733d 60c8 84bd f490 343e
00000070: eec8 de3d c9eb e6bd 9588 35be a85c 4cbb
00000080: cb37 b53c 9d31 df3c 4b83 0abd 0f62 8c3c
00000090: 6b9d 9bbd b56f 8a3a df03 29bd 92fc 0fbe
000000a0: 60ea a5bd 111b 22be 824f 2e3e 0f38 103e
000000b0: 20c7 833d b004 00bd 2ebf fcbd d20e 863d
000000c0: ad54 c63d 9a1b 003e fe84 40be bde8 06be
000000d0: 3fb4 bdbd 7a58 933d 7fc3 413e 19b0 21be
000000e0: 690a e43d 9424 aa3c e1e8 17be d882 2ebd
000000f0: e9e4 053e 0e52 f13b 3b59 493d 6ccb ffbd
00000100: 74f1 ecbb b81e 963d 79b8 f03d e8e7 27bd
00000110: 1b99 e73d 28f1 e83d 2820 ac3c 47ef fdbd
00000120: 31bd 37be 9c6e e63d 3e24 0b3e 95f6 2b3e
00000130: f6a1 2fbe 824c 38be f9c2 b7bd 3a8f f3bd
00000140: 7cfd 9c3c 945f 1abd 7aa6 30be 7285 dabd
00000150: f0a4 cbbd 878e a6bd 55de 333d e7d8 92bd
00000160: a3ad a2bb b7f2 013e dbf2 b1ba 15f7 2d3e
00000170: adee a4bd 0741 e5bc 7625 b8bd 2452 573d
00000180: 40f3 1c3d 1f5b 0c3d 363d 55bd 738d b4bd
00000190: cbde 103e d411 36be 17a6 dc3c 8881 c93d
000001a0: 26be 28bd e5ce ec3d 4a80 98bd 9194 1abd
000001b0: 77e3 febd ce9f 9dbc 353c 0fbd bbc9 2cbe
000001c0: cda7 843d ee4a 5abd 1907 473e 3f77 3f3e
000001d0: 5023 14be 5c7b 193d 8ebc 923d 04b8 e6bd
000001e0: e380 b23d 0e12 a23c 2a20 4abe 79d6 dfbd
000001f0: 3f5a 2dbe 4ff1 d3bd 6bfc 0d3e 1d62 52bd
00000200: de09 8a3d 96fc 393e b02a 113e 388b e53d
00000210: 9b86 623e d4a6 11bd ca64 9d3d 2fde 1dbe
00000220: 9295 573d 670b 84bd 3577 d2bd 3f67 37be
00000230: 8449 70bc 2145 0f3d 3aee 85bd 37b7 553d
00000240: f1da 263e 1ac0 f03d 21e1 ccbc 8cd4 b4bd
00000250: 7506 24bc ccf0 f53c 22dd a9bd edb0 84bd
00000260: 2233 2c3e 85dc 733c 8449 453e 8bad 1c3d
00000270: e552 5e3e 73a2 6dbb 388e 35bd d696 123d
00000280: ebdf 333d 4f09 c73d 89b3 73bd 3a65 cb3d
00000290: fdd4 2bbe 4d40 c03d e48f a53d fe8b bebd
000002a0: 4461 74bd 4b74 d23d b647 853d cdf9 33bd
000002b0: b62c b0bd 35a8 80bc 6f00 c83d bf99 8dbd
000002c0: d7f0 74bd 96db 14be 8cb6 afbd 97b6 633d
000002d0: 7135 ebbd 8942 4bbd 9bd2 3c3d eee9 fcbd
000002e0: c1d4 28bd 0c73 1b3e c26a 6dbd 45dc c43d
000002f0: dd3b 3cbc 2d00 1abe b334 57bd 5d51 45be
00000300: a6c8 393e 1923 203e 1819 013e af7c 553d
00000310: d6c8 0a3e cb44 743d d88c 933c 2f3d 603d
00000320: 1c75 483d f146 ffbc 95bf 00be 3e83 f73d
00000330: e324 093e 48b6 99bd 3866 6a3d 1685 ff3d
00000340: 62c1 3f3c 5652 f4bd 7907 edbb ae90 90bd
00000350: 874a 3ebb 71e1 0c3e c16a 41be 9088 97bd
00000360: 2a1a 143d e7e0 17bd 8bef d8bd 19b0 44bc
00000370: 3f15 a53d 3b2d 3dbe aee6 0fbd 79b7 823d
00000380: 09bc a53d c6d0 6fbc 5de1 243e 9a8c 113e
00000390: fc5c cabd a65b 353d e564 c23d a57e 67bd
000003a0: 2064 213e ab15 f33b a7d0 283e cee1 a7bd
000003b0: 2912 1b3e f341 12be 9401 b03d 5545 d2bd
000003c0: 7919 03be dd02 bb3d f729 22be 4ab2 1f3e
000003d0: a771 8c3d 5134 52bd 5137 063d c7e3 153e
000003e0: d960 073d e0fd dd3c adea 3c3e 9f7f 003e
000003f0: b2e1 a5bc 0e67 dd3c 2a33 633e 88bd d4bd

bn1.weight f4 [128]
1.0046053 0.9972392 1.0049393 0.99904084 0.9900428 1.0277687 1.0089206 0.999131
1.0146749 1.0031812 1.0057299 0.99762994 1.0054444 1.0010602 0.9857585 0.99848586
1.0016251 1.0023129 1.006837 1.0056766 1.0124716 0.99947304 1.0048401 1.0090559
1.0106909 1.0119456 0.99854904 1.012167 1.0015956 1.0006534 0.99837625 1.0066099
1.0049942 1.0099013 1.0027225 1.015333 1.0147711 1.0125563 1.0000044 1.0091903
0.9952179 0.9905559 1.0031489 1.0313538 1.0043962 0.99973214 0.988196 1.0081369
1.0006126 0.9867119 0.9971017 1.0082686 1.0056679 1.0007442 1.0181782 1.014835
1.0030577 1.0037534 0.9983423 1.0077249 0.99827844 1.0034608 1.0046437 1.0174174
1.0176911 1.0069115 1.0098103 1.022336 1.0123498 1.0127256 1.0131416 1.0090139
0.9929876 1.0003097 0.99531406 1.022684 1.0217892 1.0088016 1.0059372 0.9973806
0.9935735 1.008572 1.0090157 1.0016813 0.9901713 1.0122105 0.98964816 0.99647254
0.997323 1.0002723 1.0123419 0.9802325 0.99416065 1.0034075 0.99239707 0.9986621
1.0013394 1.0095695 1.0053812 1.0190457 1.0452974 0.993743 0.9779283 0.9980605
1.022565 1.0323997 1.001798 0.9973235 1.0039319 0.9925589 0.9955679 1.0064261
1.0133147 1.011735 1.0072541 1.0036731 1.0097499 1.0003575 1.0206515 0.99918044
1.007947 1.0255073 0.97937566 1.0021085 1.021856 1.0082675 0.9959977 1.0106369
00000000: e896 803f 114b 7f3f daa1 803f 24c1 7f3f
00000010: 7273 7d3f ed8d 833f 4f24 813f 0dc7 7f3f
00000020: dee0 813f 3e68 803f c2bb 803f ad64 7f3f
00000030: 67b2 803f be22 803f ab5a 7c3f c59c 7f3f
00000040: 4035 803f ca4b 803f 09e0 803f 03ba 803f
00000050: ab98 813f 77dd 7f3f 9a9e 803f be28 813f
00000060: 525e 813f 6f87 813f e9a0 7f3f b08e 813f
00000070: 4934 803f 6915 803f 9695 7f3f 98d8 803f
00000080: a6a3 803f 7244 813f 3659 803f 6ff6 813f
00000090: 05e4 813f 729b 813f 2500 803f 262d 813f
000000a0: 9ac6 7e3f 1295 7d3f 2f67 803f 6703 843f
000000b0: 0e90 803f 72ee 7f3f 6afa 7c3f a10a 813f
000000c0: 1314 803f 2799 7c3f 0f42 7f3f f20e 813f
000000d0: bab9 803f 6318 803f aa53 823f 1de6 813f
000000e0: 3264 803f fe7a 803f 5c93 7f3f 21fd 803f
000000f0: 2d8f 7f3f 6771 803f 2a98 803f bc3a 823f
00000100: b443 823f 7ae2 803f 7741 813f e8db 823f
00000110: ae94 813f fea0 813f a0ae 813f 5e27 813f
00000120: 6f34 7e3f 260a 803f e7cc 7e3f 4fe7 823f
00000130: fdc9 823f 6920 813f 8dc2 803f 5654 7f3f
00000140: d55a 7e3f e318 813f 6d27 813f 1837 803f
00000150: de7b 7d3f 1d90 813f 9559 7d3f d318 7f3f
00000160: 8f50 7f3f ec08 803f 6b94 813f 84f0 7a3f
00000170: 5081 7e3f a86f 803f bc0d 7e3f 52a8 7f3f
00000180: e42b 803f 9339 813f 55b0 803f 1770 823f
00000190: 4ecc 853f f165 7e3f 8259 7a3f e580 7f3f
000001a0: 69e3 823f ac25 843f eb3a 803f 9850 7f3f
000001b0: d780 803f 5718 7e3f 8add 7e3f 92d2 803f
000001c0: 4cb4 813f 8880 813f b4ed 803f 5c78 803f
000001d0: 7c3f 813f b70b 803f b5a4 823f 4aca 7f3f
000001e0: 6804 813f d343 833f 5db8 7a3f 1745 803f
000001f0: 2dcc 823f e90e 813f b5f9 7e3f 8d5c 813f

bn1.bias f4 [128]
-0.056680363 0.043201707 -0.0040934803 0.026384644 0.05796188 -0.048118394 0.033224907 0.03159381
0.028047482 0.067396194 -0.03169683 -0.002911801 0.033886287 0.014829468 -0.09446043 -0.02996096
-0.003869773 -0.016000826 0.052525934 0.013096836 -0.048344783 0.03193525 -0.0062584267 0.02429121
-0.033731505 0.030181099 0.009708298 -0.056835853 0.021245576 0.0040490343 0.052534703 -0.013469552
0.0623329 -0.12689544 0.01399378 -0.0011313362 -0.01660919 -0.014690924 -0.02097833 0.10839031
-0.081545874 -0.05168762 0.061209846 0.033597697 0.04526049 0.01596317 -0.04843105 0.008310653
0.0267734 -0.018846275 0.027233763 -0.014364477 0.028364457 0.054667898 -0.07927382 -0.011365172
-0.028375333 -0.01779655 0.011889658 0.078508645 -0.029800268 0.034617726 0.020479904 0.030332807
0.0047652097 0.004037402 0.023565061 -0.040832818 0.009151639 -0.023871746 0.034985278 0.040715214
0.10139971 -0.04637307 -0.04750025 0.040969376 0.09041503 0.042963378 -0.04155008 -0.013780418
0.08329311 0.02897439 0.025960218 0.03152313 -0.08005631 -0.026498757 0.07924791 -0.09100448
0.051066626 -0.00081227813 -0.012196356 -0.045474138 0.051104873 -0.026062176 0.028337639 0.04797542
0.011866785 0.0040099765 -0.017663134 0.05947875 0.017564446 0.012581871 -0.034032453 -0.015323314
-0.033303075 0.0547003 -0.003784638 -0.029718893 0.016855149 -0.03967229 0.070710406 0.04923682
0.027801264 -0.015829742 -0.008237265 0.037654325 0.027973415 0.012639347 0.033871714 -0.00032840882
-0.0034768418 0.046428073 -0.094240114 -0.009859959 0.034700446 -0.0068681 -0.06353656 0.025116907
00000000: ab29 68bd 46f4 303d 9a22 86bb 9c24 d83c
00000010: 7069 6d3d cb17 45bd d716 083d 8368 013d
00000020: d5c3 e53c 0407 8a3d 89d4 01bd ead3 3ebb
00000030: 59cc 0a3d 4cf7 723c 7874 c1bd b070 f5bc
00000040: 049c 7dbb 2a14 83bc 6f25 573d 1d94 563c
00000050: 2e05 46bd 89ce 023d 7d13 cdbb 5cfe c63c
00000060: 0c2a 0abd 5a3e f73c 8e0f 1f3c b6cc 68bd
00000070: 340b ae3c c3ad 843b a12e 573d 65af 5cbc
00000080: c850 7f3d e1f0 01be 2b46 653c 5849 94ba
00000090: ff0f 88bc 34b2 70bc bfda abbc bdfb dd3d
000000a0: 8601 a7bd 66b6 53bd 2db7 7a3d bd9d 093d
000000b0: 1063 393d 32c5 823c a35f 46bd 6829 083c
000000c0: e453 db3c 8163 9abc 5719 df3c fc58 6bbc
000000d0: 945c e83c 72eb 5f3d 505a a2bd fd34 3abc
000000e0: 6373 e8bc 12ca 91bc d7cc 423c 24c9 a03d
000000f0: b11f f4bc 51cb 0d3d 79c5 a73c 827c f83c
00000100: 7a25 9c3b 2f4c 843b 840b c13c 5040 27bd
00000110: c2f0 153c ae8e c3bc b94c 0f3d ffc4 263d
00000120: a7aa cf3d b0f1 3dbd 9f8f 42bd 81cf 273d
00000130: 842b b93d 5efa 2f3d 6b30 2abd 43c7 61bc
00000140: 9495 aa3d b35b ed3c 86aa d43c 661e 013d
00000150: 90f4 a3bd ec13 d9bc ba4c a23d 8f60 babd
00000160: 3d2b 513d 10ef 54ba 3ad3 47bc 1743 3abd
00000170: 5853 513d 5880 d5bc 5624 e83c e081 443d
00000180: e76c 423c 1f66 833b 47b2 90bc fd9f 733d
00000190: 50e3 8f3c 3124 4e3c 9d65 0bbd a30e 7bbc
000001a0: ce68 08bd 6c0d 603d b007 78bb 0975 f3bc
000001b0: cf13 8a3c 697f 22bd 9ed0 903d 8cac 493d
000001c0: 7abf e33c 60ad 81bc 98f5 06bc 6c3b 1a3d
000001d0: 8128 e53c 4415 4f3c 11bd 0a3d 492e acb9
000001e0: badb 63bb 5d2b 3e3d f600 c1bd aa8b 21bc
000001f0: 0e22 0e3d cc0d e1bb 751f 82bd f9c1 cd3c

bn1.running_mean f4 [128]
-0.06215588 -0.12661691 0.19477487 -0.14167663 0.056453668 0.09857008 -0.16334465 -0.09899201
0.10491092 0.2365375 -0.032614417 0.14439699 -0.07657182 0.07005966 0.0029757116 -0.064641126
0.21622774 -0.033444896 0.1096013 -0.01381756 -0.13261156 -0.15657362 -0.15625045 0.07142864
-0.04657182 -0.12146118 -0.014129485 0.12457917 -0.093287565 0.06380129 -0.04246836 0.19664513
-0.05358465 0.04520308 0.062381096 0.04716176 0.19874616 0.18008642 0.08128868 -0.15074632
-0.11287838 -0.11207222 -0.115959644 -0.0103609385 0.16718636 0.16017023 0.049238417 0.047904607
-0.039994203 0.18698746 0.1014006 0.031171365 0.09380455 -0.019452292 0.16494687 -0.03967514
0.14617467 -0.0339823 -0.067841575 0.116666265 0.033479568 0.08770046 -0.25894558 0.07425115
-0.08963745 0.058672678 0.14305918 0.015346979 0.1528324 -0.09122839 0.0013150017 -0.035924263
-0.044137333 -0.09201085 0.091673836 0.16148616 -0.11393725 0.0382693 -0.15818284 0.24464333
0.044679135 0.024593428 0.12403288 -0.027284611 -0.06123125 -0.020345213 -0.0846337 0.26684645
-0.12291622 0.06655016 0.12792869 0.20953095 -0.15030275 0.023799583 -0.076630846 -0.13667959
0.023683574 0.03779554 -0.078697555 -0.1291718 -0.0005438314 -0.18600349 0.14521638 0.056098226
0.116219416 -0.10170159 -0.053154267 0.09216808 -0.027243996 0.12257754 0.057113957 -0.049258918
-0.12809406 0.010945208 0.07661433 -0.051122893 0.09471522 0.076312184 0.108474396 -0.17513353
0.07113225 -0.095758915 0.1246856 0.13577002 -0.09268753 -0.09136269 -0.09826632 -0.10119707
00000000: 2a97 7ebd dda7 01be 1073 473e ae13 11be
00000010: f63b 673d 1cdf c93d d243 27be 53bc cabd
00000020: 89db d63d e336 723e b296 05bd cedc 133e
00000030: b0d1 9cbd 707b 8f3d 2804 433b 9162 84bd
00000040: ce6a 5d3e 84fd 08bd a576 e03d 0c63 62bc
00000050: 53cb 07be d654 20be 1e00 20be 2e49 923d
00000060: 18c2 3ebd a4c0 f8bd 5b7f 67bc 5d23 ff3d
00000070: 8d0d bfbd 40aa 823d 4ef3 2dbd 575d 493e
00000080: 947b 5bbd dd26 393d 5283 7f3d b12c 413d
00000090: 1d84 4b3e 9368 383e ae7a a63d 3e5d 1abe
000000a0: c82c e7bd 1f86 e5bd 407c edbd edc0 29bc
000000b0: e732 2b3e aa03 243e 39ae 493d 9f37 443d
000000c0: f6d0 23bd a479 3f3e 1eab cf3d 175b ff3c
000000d0: 9a1c c03d 6a5a 9fbc d5e7 283e 6682 22bd
000000e0: d0ae 153e 0631 0bbd 86f0 8abd b9ee ee3d
000000f0: df21 093d 4c9c b33d 8494 84be fd10 983d
00000100: d793 b7bd c352 703d 1b7e 123e e571 7b3c
00000110: 1980 1c3e f3d5 babd 235c ac3a 5225 13bd
00000120: 59c9 34bd 2f70 bcbd 7ebf bb3d a15c 253e
00000130: ef57 e9bd 45c0 1c3d affa 21be c883 7a3e
00000140: 7801 373d 2878 c93c f304 fe3d fa83 dfbc
00000150: 9fcd 7abd 01ab a6bc 6f54 adbd 19a0 883e
00000160: 80bb fbbd 734b 883d bdff 023e 488f 563e
00000170: f7e8 19be 58f7 c23c a2f0 9cbd bcf5 0bbe
00000180: 0e04 c23c 7fcf 1a3d 2f2c a1bd 9d45 04be
00000190: e88f 0eba b377 3ebe 9ab3 143e 41c7 653d
000001a0: 7204 ee3d ec48 d0bd 4ab8 59bd 9ec2 bc3d
000001b0: cd2e dfbc ef09 fb3d 53f0 693d b8c3 49bd
000001c0: 172b 03be 8853 333c f9e7 9c3d 3d66 51bd
000001d0: 0efa c13d 9049 9c3d d327 de3d 3456 33be
000001e0: c9ad 913d 401d c4bd 2a5b ff3d 4c07 0b3e
000001f0: f6d2 bdbd 5d1c bbbd da3f c9bd 6940 cfbd

bn1.running_var f4 [128]
0.50336283 0.76108056 0.7176407 0.61239624 0.46295667 0.49742627 0.6308318 0.56670815
0.8807168 1.4371707 0.71020114 0.70671284 0.42269698 0.80879486 0.45848006 0.27836877
1.1163126 0.53492945 1.0194813 0.6088898 0.5457716 0.8448348 0.89019275 0.48938674
0.43671975 0.5545338 0.49621728 0.6038473 0.5174439 0.48978248 0.49924284 0.87729543
0.6922899 0.4128774 0.6921201 0.4101475 0.99247795 1.0624157 0.47266555 0.7735759
0.68575674 0.5274366 0.83195555 0.2754084 0.80106425 0.85601664 0.39946014 0.42759764
0.65526605 1.2298406 1.0068854 0.34871805 0.7444818 0.68633175 0.5630507 0.4154559
1.0539275 0.31244016 0.7678473 0.77253056 0.4004666 0.76104534 0.6258139 1.2696575
0.63467425 0.655768 1.0323815 0.62198555 0.56668323 0.55645573 0.49991325 0.5207033
0.6708153 0.7430388 0.6464608 1.0783685 0.49103668 0.42645857 0.76055944 1.8680702
0.47446516 0.41993493 0.70565784 0.34807137 0.82587886 0.47260633 0.52221745 0.83134574
0.43157002 0.43239814 0.5243594 0.84374297 0.74884456 0.5287855 0.6241379 0.8303584
0.23890096 0.60383135 0.6713988 0.5576023 0.41341314 1.0601404 0.7583336 0.49222612
0.52520233 0.3880238 0.73194623 1.5421661 0.50888157 1.498411 0.6870129 0.58433646
0.46670774 0.4990994 0.5327517 0.43098283 0.6146391 0.33129373 1.0657436 0.9156455
0.88262105 0.48410496 1.0617197 0.681082 0.5434302 0.6981881 0.8138989 0.5283524
00000000: 63dc 003f 2dd6 423f 4db7 373f 00c6 1c3f
00000010: a808 ed3e a8ae fe3e 317e 213f c913 113f
00000020: a876 613f 36f5 b73f becf 353f 22eb 343f
00000030: bd6b d83e 2e0d 4f3f e6bd ea3e 5a86 8e3e
00000040: 55e3 8e3f 23f1 083f 5d7e 823f 34e0 1b3f
00000050: b0b7 0b3f 1847 583f ace3 633f e690 fa3e
00000060: bb99 df3e edf5 0d3f 3110 fe3e bd95 1a3f
00000070: 3477 043f c5c4 fa3e c29c ff3e 6f96 603f
00000080: e939 313f ab64 d33e c82e 313f dafe d13e
00000090: 0913 7e3f 3dfd 873f 3801 f23e 1209 463f
000000a0: c18d 2f3f 1606 073f 0afb 543f 5402 8d3e
000000b0: 8c12 4d3f e823 5b3f 0a86 cc3e 14ee da3e
000000c0: 84bf 273f 6b6b 9d3f 9fe1 803f 2c8b b23e
000000d0: 5c96 3e3f 70b3 2f3f 1724 103f a3b6 d43e
000000e0: 19e7 863f 28f8 9f3e a491 443f 90c4 453f
000000f0: f509 cd3e ded3 423f 5735 203f 2384 a23f
00000100: 037a 223f 69e0 273f 1425 843f 723a 1f3f
00000110: 2712 113f e273 0e3f a1f4 ff3e d04c 053f
00000120: 8dba 2b3f ca37 3e3f 747e 253f fb07 8a3f
00000130: 2969 fb3e c758 da3e 06b4 423f ed1c ef3f
00000140: 19ed f23e b601 d73e fea5 343f 6936 b23e
00000150: cc6c 533f 75f9 f13e 0bb0 053f 13d3 543f
00000160: bff6 dc3e 4a63 dd3e 6b3c 063f 8aff 573f
00000170: 47b4 3f3f 7d5e 073f 80c7 1f3f 5e92 543f
00000180: 74a2 743e b194 1a3f cbe0 2b3f 06bf 0e3f
00000190: e3aa d33e aeb2 873f 2722 423f 1005 fc3e
000001a0: a973 063f 0eab c63e d460 3b3f b365 c53f
000001b0: 1046 023f efcb bf3f 14e0 2f3f 1397 153f
000001c0: 51f4 ee3e f589 ff3e 6a62 083f c8a9 dc3e
000001d0: fd58 1d3f 559f a93e 496a 883f be67 6a3f
000001e0: 74f3 613f 9bdc f73e 6ee6 873f 645b 2e3f
000001f0: 3e1e 0b3f 75bc 323f ae5b 503f 1a42 073f

hidden2.weight f4 [128, 128]
0.08383192 -0.008348162 -0.06704335 0.012061981 0.03329917 -0.008355641 0.01759915 0.023438273
0.03286195 -0.028875211 -0.05261048 0.0661967 0.016247788 0.07685524 -0.056220897 -0.024295487
0.017070992 0.020141346 -0.03499688 -0.035618275 -0.021981612 -0.066885136 0.0036806797 -0.07964875
-0.026214948 -0.0016094369 -0.06618801 0.039190885 0.06995092 -0.0005104206 0.019648358 -0.091535896
0.007824034 0.033241183 -0.03486872 -0.013728376 -0.08511002 0.039640553 -0.032014668 -0.007213502
0.050585143 0.07322244 0.0001201332 0.0845971 0.019017497 -0.0046957703 0.06947457 0.08926299
0.080362394 -0.0430952 -0.04766144 0.052491866 -0.04849745 -0.024517976 0.04639381 0.02112862
-0.00609547 0.036385454 0.028004315 -0.09294568 0.0677598 0.027128568 0.05053018 -0.0013865804
0.0037133081 0.0017254811 -0.011166571 0.08504243 -0.06921596 -0.0434544 -0.072135784 -0.004778886
-0.06747401 0.06936161 -0.037668288 0.06949359 0.087599955 -0.05744855 -0.059505768 -0.032417934
-0.046885166 0.042705003 0.06070955 -0.011115887 -0.07204186 0.042470362 0.085092574 0.019526176
-0.019269945 -0.06219385 -0.06956843 0.04232141 0.0471706 0.062363826 0.08965062 -0.007086759
-0.008276814 0.018975751 -0.025434721 -0.024569722 -0.014936881 0.018372128 -0.056898773 -0.07904337
-0.09436255 -0.004617248 0.017925702 0.06511444 -0.056851685 -0.011278686 0.04832272 0.027184017
-0.041966233 -0.07002878 -0.06539136 -0.021257397 0.015777463 0.06190495 0.031351615 0.06080213
-0.032606855 0.008853921 -0.026115058 0.08327771 -0.007452971 0.051494036 0.04765267 -0.007146616
0.03154249 -0.021780103 0.023969179 0.07041243 -0.011049395 0.07800515 -0.055322733 -0.00870635
0.019430576 0.018008912 0.11406691 -0.08250838 -0.053028017 -0.017070044 0.021462603 -0.04341567
-0.008437103 -0.06920811 -0.079818495 -0.024096351 0.012822696 0.07941089 -0.045853138 -0.08936958
0.025480373 0.085062765 0.016946865 0.075692736 0.042471245 -0.008661902 -0.066347405 0.019185817
0.07521364 -0.062770456 0.07268329 0.01442696 -0.03683584 0.023678154 -0.02394988 -0.056953438
0.04853171 0.06428857 -0.012747109 -0.054969247 -0.047105674 -0.05854467 -0.07218706 -0.0455266
-0.052203804 -0.01987141 0.051043615 -0.06331855 0.024536382 -0.0045831697 -0.058154605 -0.06399105
-0.041788537 0.009140632 0.05319277 -0.056703128 -0.0014114018 -0.09192074 0.09766007 0.04918191
0.026384508 -0.0653228 0.012664958 0.08233352 -0.023312513 0.0219362 0.015809149 -0.0074752397
-0.022850528 0.01698797 0.04776191 -0.00703478 -0.031875663 -0.09722545 -0.04588569 -0.04008459
-0.047793932 -0.07524207 -0.05162131 -0.038516566 0.028636567 0.034606352 -0.06908816 0.05565733
-0.021026704 0.07626501 0.04804618 0.03411052 0.06653272 -0.009286784 0.00031153733 -0.074913286
-0.051519092 0.010677711 0.04629895 0.020780852 -0.084298536 -0.057629235 -0.029330341 0.010612805
0.019470878 0.03759183 -0.08113894 0.051671386 -0.09810193 -0.035403986 0.029882308 -0.07402059
-0.053434722 0.09227692 -0.06331332 0.016983913 -0.07671693 -0.09036451 -0.0340214 0.08658944
-0.05734818 0.05051673 -0.01814426 0.022583952 0.050615028 0.027364084 0.07032217 0.02910067
00000000: 12b0 ab3d bbc6 08bc 064e 89bd 9d9f 453c
00000010: b664 083d 19e6 08bc 182c 903c 9f01 c03c
00000020: 419a 063d b58b ecbc 167e 57bd 2392 873d
00000030: 151a 853c 4866 9d3d e247 66bd 5407 c7bc
00000040: 77d8 8b3c 77ff a43c e358 0fbd 78e4 11bd
00000050: c812 b4bc 13fb 88bd 8f37 713b e21e a3bd
00000060: bbc0 d6bc bef3 d2ba 948d 87bd 9f86 203d
00000070: 6e42 8f3d bfcd 05ba 98f5 a03c 2c77 bbbd
00000080: 6130 003c e827 083d 81d2 0ebd fbec 60bc
00000090: 2a4e aebd 225e 223d d021 03bd 3e5f ecbb
000000a0: 5e32 4f3d a6f5 953d 05f0 fb38 3f41 ad3d
000000b0: 95ca 9b3c fade 99bb af48 8e3d 84cf b63d
000000c0: 0a95 a43d 9884 30bd a438 43bd b601 573d
000000d0: 43a5 46bd ecd9 c8bc 7007 3e3d ed15 ad3c
000000e0: 82bc c7bb ea08 153d 4e69 e53c 4e5a bebd
000000f0: a6c5 8a3d bb3c de3c bcf8 4e3d ebbd b5ba
00000100: f95a 733b 8a29 e23a fef3 36bc ba2a ae3d
00000110: 19c1 8dbd 3efd 31bd edbb 93bd 3498 9cbb
00000120: d02f 8abd 760d 8e3d 104a 1abd a852 8e3d
00000130: 9b67 b33d 2c4f 6bbd 52bc 73bd abc8 04bd
00000140: a90a 40bd 71eb 2e3d 94aa 783d 691f 36bc
00000150: af8a 93bd 67f5 2d3d 0445 ae3d 5cf5 9f3c
00000160: 01dc 9dbc fabe 7ebd e579 8ebd 3759 2d3d
00000170: f635 413d 3671 7f3d bf9a b73d 0b38 e8bb
00000180: 799b 07bc 0973 9b3c 7a5c d0bc 7146 c9bc
00000190: d2b9 74bc 2581 963c b00e 69bd 7ee1 a1bd
000001a0: 2741 c1bd 494c 97bb ecd8 923c b85a 853d
000001b0: 50dd 68bd 3dca 38bc 0bee 453d 04b1 de3c
000001c0: c9e4 2bbd 406b 8fbd e8eb 85bd fe23 aebc
000001d0: bd3f 813c 0b90 7d3d 8d6a 003d a70b 793d
000001e0: c48e 05bd 0910 113c 3fef d5bc 818d aa3d
000001f0: 0d38 f4bb 69eb 523d 722f 433d 292e eabb
00000200: b332 013d 306c b2bc 035b c43c 6434 903d
00000210: 8608 35bc 2ac1 9f3d 179a 62bd 14a5 0ebc
00000220: df2c 9f3c 6d87 933c ea9b e93d 27fa a8bd
00000230: e833 59bd 7ad6 8bbc 57d2 af3c a1d4 31bd
00000240: c63b 0abc fbbc 8dbd e177 a3bd b665 c5bc
00000250: 4916 523c 2da2 a23d 80d0 3bbd 6607 b7bd
00000260: 37bc d03c 6335 ae3d 27d4 8a3c cb04 9b3d
00000270: 54f6 2d3d a6ea 0dbc 26e1 87bd 932b 9d3c
00000280: 9c09 9a3d cc8d 80bd fada 943d 0e5f 6c3c
00000290: 2ee1 16bd b0f8 c13c 8a32 c4bc 0248 69bd
000002a0: 30c9 463d baa9 833d 40d9 50bc 6f27 61bd
000002b0: e1f1 40bd 89cc 6fbd cfd6 93bd 1a7a 3abd
000002c0: a8d3 55bd 5ec9 a2bc 1c13 513d 28ad 81bd
000002d0: 8600 c93c 6a2e 96bb 8633 6ebd bd0d 83bd
000002e0: 752a 2bbd 97c2 153c a9e0 593d 8a41 68bd
000002f0: c9fe b8ba f140 bcbd 0102 c83d f872 493d
00000300: 5324 d83c f6c7 85bd af80 4f3c 7a9e a83d
00000310: e2f9 bebc 8cb3 b33c 3082 813c dbf2 f4bb
00000320: 0831 bbbc 5b2a 8b3c fea1 433d 0384 e6bb
00000330: 0e90 02bd 231e c7bd a2f2 3bbd bd2f 24bd
00000340: 92c3 43bd 8418 9abd de70 53bd 8cc3 1dbd
00000350: 3c97 ea3c 64bf 0d3d 187e 8dbd f1f8 633d
00000360: 3240 acbc d430 9c3d 12cc 443d 79b7 0b3d
00000370: 4f42 883d 9827 18bc d555 a339 236c 99bd
00000380: af05 53bd 91f1 2e3c f8a3 3d3d 9b3c aa3c
00000390: b6a4 acbd a20c 6cbd 2f46 f0bc 55e1 2d3c
000003a0: 6481 9f3c e4f9 193d 2c2c a6bd 60a5 533d
000003b0: aae9 c8bd c503 11bd becb f43c 1b98 97bd
000003c0: 5ede 5abd affb bc3d 6aaa 81bd d921 8b3c
000003d0: c41d 9dbd 0711 b9bd 065a 0bbd ce55 b13d
000003e0: ede5 6abd a1ea 4e3d 45a3 94bc fb01 b93c
000003f0: b451 4f3d a52a e03c 1205 903d 8764 ee3c

bn2.weight f4 [128]
1.0011946 0.99183214 0.9969098 0.984508 0.99660015 0.9931676 0.99319476 0.9866505
0.99805707 0.98739946 0.999718 0.99359345 0.9958075 0.99274796 0.99267405 0.9960888
0.99324363 0.9893269 0.99408114 0.98903877 1.0000606 0.9955386 0.9925304 0.9974636
0.989913 0.99911195 0.99169695 0.99835265 0.99493825 1.0003867 0.9996967 0.9925334
0.9932137 0.98401403 0.9866828 0.99454314 0.99384856 0.9988641 0.9890156 0.99359053
0.99706745 0.9924072 0.99423015 0.9967153 0.99133456 0.9997516 1.0000426 0.98592776
0.9972406 1.0004673 0.9940725 0.98964053 0.9987053 0.9969134 0.98711056 0.98390377
0.9951024 0.98053694 0.9886851 0.9903262 0.9954893 0.9988413 0.99145544 0.9892618
0.9980106 0.9975731 0.99598026 0.9964323 0.996998 0.9903532 0.9963747 1.0005164
0.9995713 0.9933311 0.9920242 0.99402976 1.0031298 0.9902754 0.98926884 0.985799
0.9890902 0.99004066 0.9977751 0.9980388 0.992857 0.99875885 0.9924817 0.9947966
0.99001426 0.9909472 0.9960783 0.9948418 0.9967236 0.9919503 0.9944666 0.98910314
1.0013505 0.9917721 0.9925431 0.99986184 0.989756 0.9849019 0.990626 0.99726826
0.99951553 0.99899745 0.9959765 1.0016935 0.9956434 0.9966834 0.99908274 0.9878766
0.9987151 0.9983852 0.99694234 0.99461454 0.99877244 0.99501204 0.98987824 1.0011243
0.9855146 0.9931802 0.99649566 0.97849417 1.0008099 1.0019757 1.0008242 0.98031247
00000000: 2527 803f b6e8 7d3f 7b35 7f3f b708 7c3f
00000010: 3021 7f3f 3b40 7e3f 0342 7e3f 2195 7c3f
00000020: ab80 7f3f 36c6 7c3f 85ed 7f3f 245c 7e3f
00000030: 3eed 7e3f bb24 7e3f e31f 7e3f adff 7e3f
00000040: 3745 7e3f 8744 7d3f 1a7c 7e3f a531 7d3f
00000050: fc01 803f 9edb 7e3f 7916 7e3f c659 7f3f
00000060: f06a 7d3f cdc5 7f3f dadf 7d3f 0a94 7f3f
00000070: 46b4 7e3f ac0c 803f 1fec 7f3f ab16 7e3f
00000080: 4143 7e3f 58e8 7b3f 3e97 7c3f 619a 7e3f
00000090: dc6c 7e3f 8fb5 7f3f 2030 7d3f f35b 7e3f
000000a0: d03f 7f3f 660e 7e3f de85 7e3f bc28 7f3f
000000b0: 1ac8 7d3f b9ef 7f3f 6501 803f c365 7c3f
000000c0: 294b 7f3f 500f 803f 897b 7e3f 1559 7d3f
000000d0: 27ab 7f3f b735 7f3f 47b3 7c3f 1ee1 7b3f
000000e0: 08bf 7e3f 7804 7b3f 771a 7d3f 0586 7d3f
000000f0: 63d8 7e3f 10b4 7f3f 06d0 7d3f 4340 7d3f
00000100: 9f7d 7f3f f360 7f3f 90f8 7e3f 3016 7f3f
00000110: 433b 7f3f ca87 7d3f 6a12 7f3f ec10 803f
00000120: e8e3 7f3f f24a 7e3f 4cf5 7d3f bc78 7e3f
00000130: 8f66 803f b082 7d3f b940 7d3f 535d 7c3f
00000140: 0435 7d3f 4e73 7d3f 306e 7f3f 797f 7f3f
00000150: e02b 7e3f a9ae 7f3f 4813 7e3f fdaa 7e3f
00000160: 9371 7d3f b7ae 7d3f fdfe 7e3f f4ad 7e3f
00000170: 4729 7f3f 74f0 7d3f 5d95 7e3f dd35 7d3f
00000180: 412c 803f c7e4 7d3f 4e17 7e3f f2f6 7f3f
00000190: a660 7d3f 8822 7c3f aa99 7d3f f94c 7f3f
000001a0: 40e0 7f3f 4cbe 7f3f 51f8 7e3f 7e37 803f
000001b0: 7ce2 7e3f a526 7f3f e3c3 7f3f 7be5 7c3f
000001c0: cbab 7f3f 2c96 7f3f 9d37 7f3f 0f9f 7e3f
000001d0: 8daf 7f3f 1cb9 7e3f a968 7d3f d724 803f
000001e0: af4a 7c3f 0f41 7e3f 571a 7f3f 987e 7a3f
000001f0: 8a1a 803f bd40 803f 021b 803f c2f5 7a3f

bn2.bias f4 [128]
0.0027161515 -0.040368248 -0.016418062 0.0490863 0.012828532 0.038367074 -0.015147824 -0.033655055
-0.017886978 0.03410502 0.008468856 0.031456444 0.022338327 0.043169178 0.023360394 -0.01630358
-0.025373539 0.032197792 -0.02076083 -0.045447428 0.012225457 -0.017061338 -0.01905232 -0.017505651
0.024743253 -0.018153384 -0.036265843 -0.021866463 -0.015212354 -0.006628188 0.014394128 -0.030848466
0.025981084 0.03397719 0.036662646 -0.016815709 0.034339223 -0.010567231 0.045637596 0.025361905
0.017415473 -0.024029939 0.012913681 -0.012535465 0.026235608 0.010571396 -0.005563142 0.025106225
-0.023329007 -0.017737977 0.012213224 -0.022979258 0.0036223028 -0.0219667 -0.03177795 -0.04461025
0.025677172 0.035166975 0.043366972 0.034592155 -0.011293553 -0.032772288 -0.031169655 0.04142758
-0.039119914 -0.031174654 -0.013678193 -0.019540036 -0.040235817 -0.026821062 -0.025870984 -0.010840511
-0.014546978 0.012666148 -0.011410359 0.03160723 -0.0084166275 -0.05011802 0.035249546 -0.04117138
-0.035657074 0.03075138 -0.016156346 -0.019982316 -0.03350476 -0.002101974 -0.01858371 0.03270488
-0.034960624 -0.03616479 0.019108307 -0.027840717 0.015855867 0.042744853 0.01653957 0.029929366
-0.007093413 0.017543187 0.025714729 0.019635651 0.024881346 -0.04100746 -0.027791062 -0.014781622
0.008018628 0.008423006 -0.015403209 0.011480986 -0.021649498 0.0131998975 -0.0006997015 -0.028685438
0.0054296306 -0.027034035 -0.015449329 0.02298294 0.020718928 0.027772844 0.021689989 -0.0130701475
-0.044116974 -0.02400961 0.025087832 -0.04657041 0.01776373 0.019074954 -0.008593798 -0.060746323
00000000: 7601 323b 2d59 25bd 2c7f 86bc b70e 493d
00000010: c32e 523c cb26 1d3d 942e 78bc e2d9 09bd
00000020: b687 92bc b5b1 0b3d f5c0 0a3c 79d8 003d
00000030: defe b63c 2ad2 303d 4c5e bf3c 168f 85bc
00000040: 2bdc cfbc d5e1 033d 9e12 aabc 1527 3abd
00000050: 484d 483c 38c4 8bbc 9c13 9cbc 0368 8fbc
00000060: 5db2 ca3c 68b6 94bc 7e8b 14bd 4c21 b3bc
00000070: 3d3d 79bc 4531 d9bb 59d5 6b3c ecb5 fcbc
00000080: 48d6 d43c aa2b 0b3d 922b 163d 19c1 89bc
00000090: 49a7 0c3d 2e22 2dbc 7dee 3a3d c5c3 cf3c
000000a0: e5aa 8e3c 6fda c4bc e793 533c 8d61 4dbc
000000b0: 0fec d63c a633 2d3c 044b b6bb 92ab cd3c
000000c0: 791c bfbc 3c4f 91bc f919 483c ff3e bcbc
000000d0: 2864 6d3b 82f3 b3bc 9829 02bd 3db9 36bd
000000e0: ef58 d23c 3f0b 103d 91a1 313d 81b0 0d3d
000000f0: 9808 39bc 3c3c 06bd 8157 ffbc f7af 293d
00000100: 343c 20bd fd61 ffbc 801a 60bc 6d12 a0bc
00000110: 50ce 24bd d8b7 dbbc 63ef d3bc 669c 31bc
00000120: 7356 6ebc ad85 4f3c 84f2 3abc 9576 013d
00000130: e5e5 09bc 8e48 4dbd d461 103d 52a3 28bd
00000140: 270d 12bd 51ea fb3c 505a 84bc f4b1 a3bc
00000150: 4a3c 09bd 46c1 09bb dd3c 98bc 8df5 053d
00000160: df32 0fbd 8821 14bd 0689 9c3c 3712 e4bc
00000170: 2ae4 813c 3a15 2f3d fe7d 873c 6e2e f53c
00000180: dc6f e8bb bbb6 8f3c b2a7 d23c f2da a03c
00000190: f7d3 cb3c 70f7 27bd 15aa e3bc 9e2e 72bc
000001a0: 9060 033c a600 0a3c be5d 7cbc bf1a 3c3c
000001b0: 4a5a b1bc 6244 583c 2c6c 37ba b9fd eabc
000001c0: 0beb b13b 7b76 ddbc 2f1f 7dbc b846 bc3c
000001d0: beba a93c e083 e33c 34af b13c 2c24 56bc
000001e0: 00b4 34bd cdaf c4bc ff84 cd3c 9dc0 3ebd
000001f0: 3e85 913c 1443 9c3c 00cd 0cbc 23d1 78bd

bn2.running_mean f4 [128]
0.017112926 -0.04342781 -0.07809069 0.09910536 0.010179083 0.084473886 -0.06776706 -0.065268345
-0.009908216 0.03470847 0.018868808 0.11072347 0.017354881 0.07810611 0.08044808 -0.034182623
-0.049638826 0.07135612 -0.03665729 -0.071351275 0.02865594 -0.023913391 -0.07238576 -0.0633993
0.05258471 -0.050336786 -0.05883959 -0.02612045 -0.06543958 -0.033061687 0.055721615 -0.08974083
0.08263717 0.024986269 0.026615025 -0.007368497 0.10207166 -0.0017864758 0.12747529 0.034668215
0.06520085 -0.060875427 0.07547079 -0.06918737 0.06852196 0.0993503 -0.05985853 0.054236952
0.005419097 -0.074360885 0.066824995 -0.017024718 0.044111643 -0.10985428 -0.023474863 -0.035437237
0.008934734 0.057578783 0.018662613 0.09526528 -0.0038800137 -0.0042180195 -0.04549472 0.075304106
-0.10675025 -0.08956125 -0.07435338 -0.02743032 -0.040472995 -0.06028849 -0.04844883 -0.087867826
-0.016539957 0.0149953235 -0.055976123 0.11228879 0.016916096 -0.09512498 0.049816262 -0.0422946
-0.096720345 0.05495954 -0.068789065 -0.0758234 -0.06336514 -0.001388407 -0.026410203 0.007681553
-0.072826944 -0.023059677 0.063009635 -0.060989365 0.05760297 0.10821592 0.013134415 0.10012058
-0.1013516 0.055424068 0.024271088 0.00882462 0.07008244 -0.081901655 -0.03311129 -0.053171776
0.101886295 0.011605449 -0.043798547 0.046143267 -0.02899529 0.07569555 -0.010150473 -0.027068788
0.005397307 -0.076926686 -0.00736821 0.08770863 0.06243601 0.05410046 0.061934024 -0.047834318
-0.04629051 -0.027705647 0.0116589675 -0.06483862 0.08315372 0.055952705 -0.06954412 -0.09054064
00000000: 6830 8c3c 5ce1 31bd 03ee 9fbd c0f7 ca3d
00000010: 2bc6 263c a500 ad3d 75c9 8abd 69ab 85bd
00000020: 1256 22bc 782a 0e3d c292 9a3c fdc2 e23d
00000030: d32b 8e3c 19f6 9f3d f7c1 a43d 1403 0cbd
00000040: 1552 4bbd 2823 923d f425 16bd 9e20 92bd
00000050: ddbf ea3c 04e6 c3bc fc3e 94bd 7ed7 81bd
00000060: 1163 573d f22d 4ebd c801 71bd 8efa d5bc
00000070: 3005 86bd b16b 07bd 593c 643d 0aca b7bd
00000080: ad3d a93d 01b0 cc3c c107 da3c 6f73 f1bb
00000090: f20a d13d 2e28 eaba e288 023e 4200 0e3d
000000a0: 0688 853d 8358 79bd 6e90 9a3d 1cb2 8dbd
000000b0: 3e55 8c3d 2c78 cb3d 382e 75bd 9127 5e3d
000000c0: ae92 b13b 854a 98bd 8bdb 883d 6c77 8bbc
000000d0: 69ae 343d 48fb e0bd 5b4e c0bc a326 11bd
000000e0: fe62 123c bbd7 6b3d 56e2 983c 711a c33d
000000f0: d447 7ebb 5037 8abb ac58 3abd 0a39 9a3d
00000100: e09f dabd e36b b7bd 9646 98bd 8db5 e0bc
00000110: 03c7 25bd 10f1 76bd 4872 46bd 0cf4 b3bd
00000120: ce7e 87bc f2ae 753c 3847 65bd aaf7 e53d
00000130: a093 8a3c e3d0 c2bd 230c 4c3d 1a3d 2dbd
00000140: 5115 c6bd 411d 613d 48e1 8cbd 4c49 9bbd
00000150: 95c5 81bd 35fb b5ba 365a d8bc 89b5 fb3b
00000160: 4b26 95bd a6e7 bcbc 320b 813d fccf 79bd
00000170: 18f1 6b3d 4fa0 dd3d bb31 573c 050c cd3d
00000180: 6d91 cfbd 5904 633d 29d4 c63c 2495 103c
00000190: 6287 8f3d 0ebc a7bd b49f 07bd a6ca 59bd
000001a0: c3a9 d03d c824 3e3c 1b66 33bd b900 3d3d
000001b0: 8887 edbc 4506 9b3d 2b4e 26bc 5dbf ddbc
000001c0: e5db b03b bd8b 9dbd 0671 f1bb 95a0 b33d
000001d0: e7bc 7f3d 7298 5d3d 88ae 7d3d ebed 43bd
000001e0: 1e9b 3dbd f4f6 e2bc 4105 3f3c 1cca 84bd
000001f0: 7f4c aa3d aa2e 653d 266d 8ebd 5f6d b9bd

bn2.running_var f4 [128]
0.21699496 0.30526605 0.27748913 0.27511793 0.22520448 0.36139664 0.16862719 0.28372046
0.25376874 0.23198971 0.17816105 0.24473566 0.15804844 0.31689245 0.24844734 0.21967861
0.17148274 0.25762498 0.2337935 0.36126518 0.21497968 0.16125144 0.21528696 0.29217958
0.20869313 0.31259492 0.29913446 0.2548592 0.27640256 0.2340261 0.23389855 0.3679212
0.32965922 0.28887433 0.26190823 0.27957007 0.37405708 0.17928103 0.30561605 0.3440255
0.18843266 0.24389477 0.2964418 0.20766065 0.2628732 0.3136691 0.27824828 0.20053418
0.31087166 0.32077003 0.27346948 0.2186704 0.23039183 0.33501363 0.2153515 0.26388052
0.31097162 0.23644784 0.2646071 0.24080576 0.22126256 0.33047953 0.21558008 0.22801253
0.37592757 0.36515036 0.20422009 0.29917875 0.34480256 0.23240215 0.2782043 0.29579753
0.21079168 0.21759234 0.19191496 0.4247147 0.28123328 0.4042702 0.22645767 0.28640485
0.4076671 0.21009904 0.26972362 0.26367515 0.25936618 0.23828553 0.26608178 0.282039
0.27634045 0.34876195 0.2477017 0.24150926 0.2803453 0.38132966 0.22738352 0.3830121
0.2625699 0.29420805 0.30220747 0.26440123 0.20671847 0.34124568 0.29078606 0.2665122
0.3385426 0.16551721 0.19149372 0.25694695 0.3329581 0.26279223 0.17008589 0.23037861
0.22469483 0.25104603 0.23856738 0.26037163 0.26780486 0.21406186 0.24977064 0.23498988
0.2943486 0.21012737 0.25721216 0.30528125 0.3429648 0.27553344 0.2973636 0.33444354
00000000: ed33 5e3e d54b 9c3e 0e13 8e3e 42dc 8c3e
00000010: 019c 663e fb08 b93e 9bac 2c3e cf43 913e
00000020: faed 813e b68e 6d3e da6f 363e fc9b 7a3e
00000030: 73d7 213e ba3f a23e fb68 7e3e 6ef3 603e
00000040: 2c99 2f3e 6ce7 833e 9067 6f3e c0f7 b83e
00000050: a223 5c3e 191f 253e 2f74 5c3e 9098 953e
00000060: a7b3 553e 710c a03e 2728 993e e87c 823e
00000070: a384 8d3e 8aa4 6f3e 1a83 6f3e 2b60 bc3e
00000080: 18c9 a83e 56e7 933e d618 863e cf23 8f3e
00000090: 6984 bf3e 7295 373e b579 9c3e 1c24 b03e
000000a0: 7ef4 403e 8dbf 793e 38c7 973e fea4 543e
000000b0: 5197 863e 3c99 a03e 8f76 8e3e d558 4d3e
000000c0: 922a 9f3e f83b a43e 3104 8c3e 22eb 5f3e
000000d0: d6eb 6b3e e886 ab3e 1b85 5c3e 591b 873e
000000e0: ac37 9f3e 621f 723e 957a 873e c995 763e
000000f0: a792 623e 9d34 a93e 06c1 5c3e 1e7c 693e
00000100: 9479 c03e fdf4 ba3e 121f 513e f52d 993e
00000110: f689 b03e d4fa 6d3e cb70 8e3e c672 973e
00000120: c6d9 573e 87d0 5e3e 5b85 443e 3574 d93e
00000130: cffd 8f3e 81fc ce3e 85e4 673e a8a3 923e
00000140: beb9 d03e 3424 573e 3719 8a3e 6e00 873e
00000150: a5cb 843e 1f01 743e df3b 883e 6a67 903e
00000160: 7f7c 8d3e ed90 b23e 84a5 7d3e 344e 773e
00000170: 6b89 8f3e a43d c33e 3ad7 683e 291a c43e
00000180: 906f 863e 70a2 963e f0ba 9a3e 995f 873e
00000190: 02ae 533e c1b7 ae3e e9e1 943e 4974 883e
000001a0: 7555 ad3e 587d 293e ee16 443e 8d8e 833e
000001b0: 7c79 aa3e b48c 863e ff2a 2e3e 5fe8 6b3e
000001c0: 6716 663e 1b89 803e 024b 743e 6e4f 853e
000001d0: b81d 893e 0833 5b3e e0c3 7f3e 30a1 703e
000001e0: dcb4 963e a12b 573e 50b1 833e d34d 9c3e
000001f0: 1599 af3e b812 8d3e 0b40 983e 2f3c ab3e

hidden3.weight f4 [16, 128]
-0.09315085 -0.08390518 -0.029431462 -0.04108932 0.057240613 -0.051414356 -0.032957256 0.04993629
-0.072226055 0.051717814 -0.093595184 -0.06457467 -0.068657085 -0.031515278 0.06124073 0.017106399
0.0070591317 0.07627975 -0.07275469 -0.025851328 0.042405862 0.030420497 -0.044697143 0.07347398
-0.07008237 0.05335331 0.05524577 0.06694465 0.055253904 -0.038147084 -0.039855212 -0.046754364
0.010212088 0.023130458 0.029050265 -0.042999804 -0.038399354 0.007867224 0.0120019475 0.10161636
0.0076002255 -0.0004266283 -0.09247353 0.030862328 -0.0072109103 -0.029954547 0.066038616 -0.026215708
-0.023712948 0.0065224045 0.0508493 0.0070118876 0.045419022 0.074495494 0.017018164 0.013862676
-0.059461463 -0.030406946 -0.07564647 0.001462448 -0.033705264 -0.02292329 -0.07170928 0.003469404
0.049211103 -0.0596573 0.0636219 -0.06950987 -0.059410203 0.06878131 -0.00075817876 -0.0639656
0.072382696 -0.011912138 -0.048722316 0.040709548 -0.09950549 -0.0021347972 -0.025289124 -0.0017025304
0.052238557 -0.05365957 0.046036303 0.0052611046 -0.05695011 0.06738692 -0.07158969 -0.00024026005
0.051350478 -0.04678495 -0.0771591 0.034591608 -0.0020368504 0.032579944 0.02043616 -0.08200111
0.07954629 -0.014855198 -0.05474904 -0.070501365 -0.049383834 -0.061740562 -0.06968563 0.05730766
0.028140485 0.025090536 -0.0012838647 0.04573172 -0.03927666 -0.08009041 -0.012494549 -0.0097772665
-0.0479216 -0.039547447 0.011101411 -0.051910937 -0.009027212 0.01255142 -0.07525611 0.10482679
0.03173479 0.019927442 -0.076988414 -0.0077937194 -0.044507373 -0.039378066 0.007739397 0.030059643
0.025117677 -0.008350555 0.082770914 -0.08186275 -0.01816994 -0.078964345 0.036299586 0.016930101
0.008748833 0.0009465222 -0.017857086 0.035119087 -0.08526872 -0.029893106 -0.054262802 0.008340337
0.034430463 -0.022790806 0.010772575 -0.0200629 -0.061678275 0.015732264 0.06212452 -0.033538308
-0.057961352 0.10934025 0.051034056 0.03446544 -0.0074440017 0.03190186 0.024733981 -0.08535729
-0.080509156 -0.09940459 -0.12246874 0.076536305 -0.06576626 0.0072956714 0.05990285 -0.08127813
-0.00290734 -0.06260414 0.04144288 0.0059841415 0.08164094 0.031744376 -0.022568583 -0.07506758
0.0955979 -0.046292067 -0.06739848 0.07537846 -0.02743824 -0.002530787 0.021931883 -0.038528137
-0.038043883 0.03509025 0.10818848 -0.008007294 -0.011731578 -0.012725066 0.12169479 -0.08507686
-0.06774193 0.07301423 -0.071106926 0.05229958 0.10870392 -0.011036344 -0.039578483 0.020749744
-0.046758268 -0.03118812 0.023903066 0.005497308 0.08124333 -0.039336726 -0.04455251 -0.022729447
-0.049440768 -0.023669602 -0.07726149 -0.032799456 -0.016108511 0.015946597 0.05312291 -0.03212531
0.03491582 0.045942433 -0.0032460631 0.07840099 -0.107387036 -0.05576473 0.060538035 -0.014264856
-0.037586674 -0.069564626 0.07899928 -0.057582114 6.001834e-05 0.07850453 0.073856175 0.010062287
0.0009148732 0.019942068 -0.030282011 0.042701803 0.0060726823 0.03216961 -0.005200993 -0.08047454
0.1164479 0.0019863176 -0.050354775 0.039915085 0.020965362 -0.03708532 -0.084526084 0.019803898
-0.025872067 0.008280224 0.054656122 0.039288938 -0.028946538 -0.018467758 0.11952023 0.0019848675
00000000: dfc5 bebd 7bd6 abbd 401a f1bc 464d 28bd
00000010: 2275 6a3d dc97 52bd 30fe 06bd ff89 4c3d
00000020: 41eb 93bd 0fd6 533d d5ae bfbd b93f 84bd
00000030: 169c 8cbd 2a16 01bd 8fd7 7a3d b822 8c3c
00000040: 4a50 e73b 8f38 9c3d 6900 95bd 2ac6 d3bc
00000050: c5b1 2d3d 6834 f93c 5a14 37bd 8779 963d
00000060: 5887 8fbd 0089 5a3d 6349 623d 471a 893d
00000070: eb51 623d 1e40 1cbd 383f 23bd 8181 3fbd
00000080: 9a50 273c 167c bd3c d2fa ed3c 9020 30bd
00000090: a448 1dbd 87e5 003c d1a3 443c 3d1c d03d
000000a0: 500b f93b 15ad dfb9 c362 bdbd fed2 fc3c
000000b0: 8049 ecbb 3d63 f5bc 413f 873d 53c2 d6bc
000000c0: a841 c2bc e5b9 d53b 5b47 503d fac3 e53b
000000d0: 4c09 3a3d 1891 983d ad69 8b3c 4720 633c
000000e0: dd8d 73bd fd17 f9bc 89ec 9abd 9daf bf3a
000000f0: 880e 0abd a0c9 bbbc 51dc 92bd f15e 633b
00000100: 9591 493d 375b 74bd 334c 823d 315b 8ebd
00000110: 1d58 73bd 37dd 8c3d 84c0 46ba 6600 83bd
00000120: 613d 943d 212b 43bc 0d91 47bd 0ebf 263d
00000130: 89c9 cbbd f4e7 0bbb 232b cfbc 7127 dfba
00000140: 19f8 553d 23ca 5bbd 9090 3c3d 5865 ac3b
00000150: 8544 69bd 2702 8a3d 9e9d 92bd 51ee 7bb9
00000160: e154 523d 93a1 3fbd 9705 9ebd eeaf 0d3d
00000170: ae7c 05bb 8c72 053d bc69 a73c 33f0 a7bd
00000180: 2ae9 a23d 3763 73bc 8840 60bd 0563 90bd
00000190: b446 4abd ace3 7cbd 57b7 8ebd 70bb 6a3d
000001a0: e086 e63c ab8a cd3c 5a47 a8ba 2f51 3b3d
000001b0: 90e0 20bd 7106 a4bd f0b5 4cbc d430 20bc
000001c0: 7149 44bd 81fc 21bd b1e2 353c 90a0 54bd
000001d0: dfe6 13bc 79a4 4d3c e01f 9abd 6eaf d63d
000001e0: 57fc 013d e03e a33c 1aac 9dbd 7562 ffbb
000001f0: 5d4d 36bd e54a 21bd c59a fd3b a43f f63c
00000200: 96c3 cd3c c4d0 08bc cc83 a93d a8a7 a7bd
00000210: 20d9 94bc 0fb8 a1bd e0ae 143d ffb0 8a3c
00000220: 4457 0f3c 0820 783a 0649 92bc 08d9 0f3d
00000230: 5ea1 aebd 63e2 f4bc ac42 5ebd e9a5 083c
00000240: f506 0d3d c9b3 babc 747f 303c f35a a4bc
00000250: 5ca2 7cbd f3e0 803c 4876 7e3d 775f 09bd
00000260: e268 6dbd c8ed df3d 1609 513d a22b 0d3d
00000270: d0ec f3bb 86ab 023d eb9e ca3c cecf aebd
00000280: fce1 a4bd a294 cbbd e4d0 fabd 11bf 9c3d
00000290: 76b0 86bd 8710 ef3b b15c 753d 2675 a6bd
000002a0: 1289 3ebb 9936 80bd 02c0 293d 9e16 c43b
000002b0: 5d33 a73d 6406 023d c0e1 b8bc 08bd 99bd
000002c0: d5c8 c33d c09c 3dbd 3708 8abd 0660 9a3d
000002d0: 29c6 e0bc 8fdb 25bb 7eaa b33c aecf 1dbd
000002e0: e7d3 1bbd cbba 0f3d ec91 dd3d 0631 03bc
000002f0: ce35 40bc cc7c 50bc 1e3b f93d c73c aebd
00000300: 48bc 8abd 7c88 953d 82a0 91bd 1638 563d
00000310: 29a0 de3d c8d1 34bc 0c1d 22bd 5efb a93c
00000320: 9985 3fbd 3a7e ffbc 5dd0 c33c c322 b43b
00000330: e762 a63d 8c1f 21bd b17c 36bd 1b33 babc
00000340: 6782 4abd c1e6 c1bc 463b 9ebd b958 06bd
00000350: fff5 83bc 70a2 823c 6997 593d d495 03bd
00000360: e403 0f3d 222e 3c3d e7bb 54bb b390 a03d
00000370: bced dbbd 8f69 64bd bbf6 773d 25b7 69bc
00000380: 7cf4 19bd e677 8ebd 60ca a13d 39db 6bbd
00000390: 34bc 7b38 fcc6 a03d e841 973d 4adc 243c
000003a0: 1ad4 6f3a 8c5d a33c fb11 f8bc 16e8 2e3d
000003b0: 5afd c63b 48c4 033d 176d aabb d6cf a4bd
000003c0: 3d7c ee3d e12c 023b cf40 4ebd 007e 233d
000003d0: 8dbf ab3c c7e6 17bd 031c adbd c93b a23c
000003e0: a8f1 d3bc c7a9 073c 19df 5f3d 70ed 203d
000003f0: 4a21 edbc b249 97bc 06c7 f43d 8d14 023b

bn3.weight f4 [16]
0.98909277 0.9088823 0.9887281 1.008164 0.92523414 0.9877138 0.9005505 0.98099756
0.9758096 0.98635966 0.89109063 0.9739855 0.9590003 0.97458816 0.9938095 0.99607915
00000000: 2f35 7d3f 83ac 683f 491d 7d3f 850b 813f
00000010: 25dc 6c3f d0da 7c3f 7a8a 663f a822 7b3f
00000020: a8ce 793f 1182 7c3f 841e 643f 1d57 793f
00000030: 0b81 753f 9c7e 793f 4d6a 7e3f 0bff 7e3f

bn3.bias f4 [16]
-0.11137217 -0.37831822 -0.10221477 0.2310428 0.27739042 0.08984951 0.45708102 0.16327776
-0.4221616 -0.3953018 0.41437495 0.58357936 -0.2606836 -0.16346762 0.09841964 0.0136952335
00000000: 1817 e4bd edb2 c1be fa55 d1bd 7c96 6c3e
00000010: 1e06 8e3e 0503 b83d 8606 ea3e 4932 273e
00000020: 9125 d8be ff64 cabe f428 d43e 7565 153f
00000030: 5278 85be 0e64 27be 3c90 c93d f961 603c

bn3.running_mean f4 [16]
-0.053569067 -0.020248689 -0.050300363 0.012997369 -0.0023895497 0.02797108 0.11727791 -0.012625192
0.02421613 -0.1438079 -0.009876343 0.1651245 0.012791701 -0.028517902 0.016297255 0.008972038
00000000: 3d6b 5bbd 94e0 a5bc c107 4ebd ebf2 543c
00000010: fe99 1cbb 9b23 e53c 672f f03d e5d9 4ebc
00000020: e860 c63c 6142 13be 63d0 21bc 6616 293e
00000030: 4894 513c 609e e9bc d281 853c 74ff 123c

bn3.running_var f4 [16]
0.6474034 1.2543302 0.62772316 1.3065618 0.794453 0.42644882 1.3663756 0.6289794
1.5731475 2.2804763 0.8521744 2.5159495 0.6271885 0.53233397 0.3038098 0.22233512
00000000: 3bbc 253f e48d a03f 77b2 203f 6b3d a73f
00000010: 4661 4b3f 8057 da3e 65e5 ae3f cb04 213f
00000020: e65c c93f 53f3 1140 1a28 5a3f 5105 2140
00000030: 6d8f 203f 0a47 083f f58c 9b3e d1ab 633e

output.weight f4 [1, 16]
0.110650696 0.42206836 0.08789233 -0.42314115 -0.28265104 -0.11364654 -0.4745666 -0.19025417
0.56852686 0.5211995 -0.45488694 -0.7786421 0.28633475 0.15666859 -0.03045981 0.0067074164
00000000: d59c e23d 5819 d83e e500 b43d f5a5 d8be
00000010: a3b7 90be 84bf e8bd 65fa f2be fdd1 42be
00000020: fa8a 113f 556d 053f f1e6 e8be 1755 47bf
00000030: 789a 923e bb6d 203e da86 f9bc e3c9 db3b
