models/focal_loss_checkpoints/checkpoint_epoch_200.pth (torch, 100242 bytes, 16 tensors)

hidden1.weight f4 [128, 30]
0.10607104 -0.15806274 -0.051815253 -0.042630892 0.11359176 -0.09255684 0.0073162955 0.018013647
-0.015368581 -0.10112029 -0.14189216 0.18873873 -0.114519425 0.03418307 -0.0422629 0.07688981
-0.20011221 0.058528006 0.16565117 0.22009751 0.10882743 0.009191782 -0.11666526 0.07088004
0.09680225 0.056851912 -0.06613061 0.17332865 0.10833057 -0.102111004 -0.17807351 -0.0009922715
0.024107417 0.02811958 -0.034176476 0.016477399 -0.076870576 0.0036574819 -0.0383127 -0.14248203
-0.07947011 -0.15828077 0.16986409 0.14203045 0.063713364 -0.03288363 -0.119185224 0.06855083
0.09787027 0.12233009 -0.1831557 -0.13706794 -0.09559484 0.068230785 0.19163693 -0.1567393
0.10929696 0.019884316 -0.15034884 -0.044452988 0.13154061 0.0071013556 0.04857128 -0.12645563
-0.0069063543 0.07182058 0.11643947 -0.04450174 0.10793824 0.11355511 0.018578893 -0.124282226
-0.17998116 0.11337226 0.13693301 0.16562763 -0.17158903 -0.18060598 -0.089967564 -0.11700816
0.025058944 -0.041419473 -0.17240483 -0.10442008 -0.098549135 -0.082804024 0.04546341 -0.07192049
-0.0047990633 0.13043359 -0.0027736044 0.16846271 -0.08123893 -0.029210992 -0.090343766 0.052699074
0.03592631 0.035698634 -0.050915826 -0.08584607 0.13778396 -0.17753813 0.027346669 0.09549447
-0.046534684 0.12046698 -0.07884372 -0.034734674 -0.122013584 -0.019826215 -0.03699784 -0.16665064
0.06362952 -0.04840323 0.19683631 0.18711674 -0.14855312 0.042420402 0.07338006 -0.110482015
0.082412325 0.019438047 -0.19977583 -0.106002174 -0.16938406 -0.105548 0.13859835 -0.056171354
0.062294398 0.18293312 0.13842136 0.10559492 0.22262886 -0.042364985 0.0820717 -0.14874889
0.055248965 -0.058562055 -0.10566345 -0.18496573 -0.014282009 0.031907246 -0.067176566 0.04889383
0.1594831 0.12335211 -0.021103123 -0.08765741 -0.013331195 0.03292504 -0.08362535 -0.06443944
0.16793326 0.017195081 0.19493204 0.035669725 0.21822797 -0.00127987 -0.040063947 0.037275035
0.04799281 0.095898904 -0.062410247 0.10194946 -0.16096638 0.08909744 0.07904911 -0.09740057
-0.060355708 0.10719879 0.05739479 -0.046292163 -0.089685 -0.016011335 0.09476497 -0.07198285
-0.05798082 -0.14579429 -0.08580336 0.059482925 -0.11064847 -0.048885413 0.0469434 -0.12760267
-0.045622885 0.15169664 -0.057752367 0.10350624 -0.009057614 -0.15088072 -0.051047463 -0.19297208
0.18190153 0.16104189 0.13104711 0.052590784 0.13133514 0.057714086 0.015938092 0.0553737
0.06402275 -0.035189666 -0.12433136 0.12473363 0.13380715 -0.0807193 0.05447805 0.10944654
0.013738222 -0.10886412 -0.008798766 -0.07117916 -0.004556348 0.14040847 -0.18952695 -0.07844843
0.036725145 -0.037574373 -0.09921928 -0.014033236 0.08041696 -0.18639661 -0.030789701 0.05855654
0.078699835 -0.011992205 0.15984121 0.14224938 -0.10004464 0.048243083 0.10125015 -0.059646267
0.15885068 0.0023767068 0.16588233 -0.07824486 0.15481862 -0.13663732 0.08599737 -0.09849585
-0.12503946 0.08963399 -0.16072612 0.15856522 0.06626799 -0.052180056 0.034842066 0.14483024
0.034757577 0.027083818 0.18819702 0.12135747 -0.01619043 0.026169423 0.22380957 -0.10459819
00000000: c63b d93d 33db 21be 3b3c 54bd bb9d 2ebd
00000010: cca2 e83d 718e bdbd 89bd ef3b 5b91 933c
00000020: 80cc 7bbc 2818 cfbd 2e4c 11be ba44 413e
00000030: 2989 eabd 8c03 0c3d dd1b 2dbd 6878 9d3d
00000040: 37ea 4cbe 10bb 6f3d 76a0 293e 3e61 613e
00000050: eae0 de3d 2199 163c 32ee eebd 8e29 913d
00000060: 4240 c63d 8ddd 683d 7c6f 87bd 117d 313e
00000070: 6bdc dd3d 931f d1bd e758 36be 1b0f 82ba
00000080: eb7c c53c 095b e63c a2fc 0bbd 9cfb 863c
00000090: 526e 9dbd 5db2 6f3b c7ed 1cbd cfe6 11be
000000a0: 3ac1 a2bd 5b14 22be daf0 2d3e 6e70 113e
000000b0: 277c 823d fcb0 06bd 6217 f4bd 6164 8c3d
000000c0: 3570 c83d 3388 fa3d 2b8d 3bbe 8a5b 0cbe
000000d0: 3ac7 c3bd 95bc 8b3d 793c 443e 4480 20be
000000e0: 16d7 df3d 6fe4 a23c 0cf5 19be 5614 36bd
000000f0: 95b2 063e 7db2 e83b aef2 463d 967d 01be
00000100: b34e e2bb ab16 933d d177 ee3d 7547 36bd
00000110: b90e dd3d 958f e83d c332 983c ae87 febd
00000120: fb4c 38be b72f e83d 2b38 0c3e 4a9a 293e
00000130: 09b5 2fbe c6f0 38be ea40 b8bd f9a1 efbd
00000140: 6a48 cd3c 77a7 29bd e48a 30be 32da d5bd
00000150: 21d4 c9bd 2895 a9bd d737 3a3d 0d4b 93bd
00000160: 7641 9dbb 6290 053e 5cc5 35bb 7d81 2c3e
00000170: 9960 a6bd e44b efbc 2706 b9bd fcda 573d
00000180: 7727 133d bb38 123d 1d8d 50bd 10d0 afbd
00000190: 3d17 0d3e 8ecc 35be 1f06 e03c 9b92 c33d
000001a0: 279b 3ebd 64b7 f63d d178 a1bd f245 0ebd
000001b0: 42e2 f9bd 966a a2bc 0c8b 17bd 77a6 2abe
000001c0: 3250 823d 7742 46bd 758f 493e 889b 3f3e
000001d0: 4f1e 18be 04c1 2d3d 4948 963d 6544 e2bd
000001e0: cbc7 a83d 8a3c 9f3c 0992 4cbe ab17 d9bd
000001f0: 0473 2dbe 8d29 d8bd baec 0d3e ef13 66bd
00000200: 6928 7f3d d252 3b3e 54be 0d3e 2642 d83d
00000210: d2f8 633e e886 2dbd 3515 a83d a151 18be
00000220: bd4c 623d c4de 6fbd 1466 d8bd a867 3dbe
00000230: 16ff 69bc 2cb1 023d de93 89bd e644 483d
00000240: 8a4f 233e 08a0 fc3d 75e0 acbc ba85 b3bd
00000250: 166b 5abc 68dc 063d c443 abbd d3f8 83bd
00000260: b2f6 2b3e b3dc 8c3c 449c 473e 6b1a 123d
00000270: 2777 5f3e 50c1 a7ba 181a 24bd b5ad 183d
00000280: 1c94 443d a566 c43d e3a1 7fbd e1ca d03d
00000290: 5fd4 24be b878 b63d 80e4 a13d f379 c7bd
000002a0: 8c37 77bd 0a8b db3d cd16 6b3d da9c 3dbd
000002b0: c5ac b7bd 342a 83bc 2314 c23d bf6b 93bd
000002c0: 4c7d 6dbd 194b 15be acb9 afbd 5ea4 733d
000002d0: aa9b e2bd 123c 48bd b947 403d 46aa 02be
000002e0: 10df 3abd 5d56 1b3e bf8d 6cbd 14fb d33d
000002f0: 6366 14bc 7a80 1abe 2517 51bd 799a 45be
00000300: 6544 3a3e 2ae8 243e 3731 063e 6f69 573d
00000310: b87c 063e 9b65 6c3d 9a90 823c 88cf 623d
00000320: 5c1e 833d 0a23 10bd 71a1 febd 5874 ff3d
00000330: be04 093e 2950 a5bd 6024 5f3d 8225 e03d
00000340: 4816 613c 27f4 debd b328 10bc 61c6 91bd
00000350: 6b4d 95bb 3dc7 0f3e 5a13 42be 92a9 a0bd
00000360: 1b6d 163d 96e7 19bd 7a33 cbbd a8eb 65bc
00000370: a6b1 a43d c1de 3ebe af3a fcbc fcd8 6f3d
00000380: 612d a13d f47a 44bc 6aad 233e d2a9 113e
00000390: 34e4 ccbd 8a9a 453d 3d5c cf3d a54f 74bd
000003a0: c1a9 223e 86c2 1b3b 0fdd 293e d73e a0bd
000003b0: c688 1e3e a7ea 0bbe 641f b03d 31b8 c9bd
000003c0: 580a 00be 0692 b73d 6395 24be ec5e 223e
000003d0: 83b7 873d c1ba 55bd 8eb6 0e3d 614e 143e
000003e0: f65d 0e3d e2de dd3c b8b6 403e 448a f83d
000003f0: cba1 84bc 4261 d63c 562e 653e 9337 d6bd

bn1.weight f4 [128]
1.0057542 0.99687415 1.0052885 0.99993485 0.99019235 1.0307801 1.0118343 0.9990894
1.0153478 1.0040389 1.0065948 0.9985236 1.0049272 1.0012237 0.98850954 1.0009917
1.0022789 1.0038053 1.009349 1.0068283 1.0143403 0.9987775 1.0047303 1.0115324
1.0117592 1.0128951 0.99826217 1.013844 1.0032432 1.0003242 1.0004492 1.0077739
1.006506 1.014902 1.0032897 1.0164304 1.0154202 1.0141114 1.0018182 1.0121756
0.9970835 0.99238014 1.0034398 1.0345758 1.0053484 1.00002 0.98716885 1.0103914
1.0014762 0.98602134 0.9974504 1.0094943 1.0073651 1.0012325 1.0212417 1.0154508
1.0026487 1.0048642 0.9986365 1.0104429 0.99744886 1.0034544 1.0056396 1.019478
1.0190626 1.0082496 1.0112298 1.0240545 1.0139096 1.0138378 1.0157201 1.0108045
0.9942388 1.0010293 0.99536407 1.0260365 1.0233982 1.0095242 1.0063334 0.9974505
0.99523777 1.011101 1.0099212 1.002813 0.99107796 1.0148655 0.9901308 0.9980247
0.9999785 1.0019916 1.0143658 0.9800072 0.99489725 1.0033671 0.99305594 1.0000129
1.0030129 1.0109209 1.0065651 1.0220532 1.0507464 0.9938399 0.978221 0.99734396
1.0256071 1.0363522 1.0026983 0.99765056 1.0042478 0.99216044 0.99588645 1.0086898
1.0151306 1.0135763 1.0084207 1.0048679 1.0117303 1.0006478 1.0229489 0.99941355
1.008316 1.027693 0.9790351 1.0018852 1.0241008 1.0094284 0.99655074 1.0123681
00000000: 8ebc 803f 2533 7f3f 4bad 803f bbfb 7f3f
00000010: 3f7d 7d3f 9af0 833f c983 813f 53c4 7f3f
00000020: ebf6 813f 5984 803f 19d8 803f 3e9f 7f3f
00000030: 74a1 803f 1928 803f f60e 7d3f 7f20 803f
00000040: ad4a 803f b17c 803f 5932 813f c0df 803f
00000050: e7d5 813f e2af 7f3f 019b 803f e579 813f
00000060: 5381 813f 8ca6 813f 1c8e 7f3f a4c5 813f
00000070: 466a 803f a00a 803f b80e 803f bcfe 803f
00000080: 30d5 803f 4fe8 813f cc6b 803f 641a 823f
00000090: 4af9 813f 67ce 813f 943b 803f f88e 813f
000000a0: dd40 7f3f a00c 7e3f b770 803f fb6c 843f
000000b0: 42af 803f a800 803f 19b7 7c3f 8154 813f
000000c0: 5f30 803f e56b 7c3f e958 7f3f 1c37 813f
000000d0: 57f1 803f 6328 803f 0cb8 823f 4bfa 813f
000000e0: cb56 803f 649f 803f a4a6 7f3f 3156 813f
000000f0: cf58 7f3f 3271 803f ccb8 803f 417e 823f
00000100: a570 823f 530e 813f fa6f 813f 3814 833f
00000110: cac7 813f 70c5 813f 1e03 823f 0b62 813f
00000120: 6f86 7e3f ba21 803f 2ed0 7e3f 2a55 833f
00000130: b6fe 823f 1738 813f 88cf 803f ea58 7f3f
00000140: e7c7 7e3f c26b 813f 1945 813f 2d5c 803f
00000150: 49b7 7d3f 1de7 813f 3679 7d3f 8c7e 7f3f
00000160: 97fe 7f3f 4341 803f bdd6 813f c0e1 7a3f
00000170: 96b1 7e3f 556e 803f ea38 7e3f 6c00 803f
00000180: ba62 803f db65 813f 20d7 803f a4d2 823f
00000190: dc7e 863f 4b6c 7e3f b16c 7a3f ef51 7f3f
000001a0: 1847 833f 30a7 843f 6b58 803f 0766 7f3f
000001b0: 318b 803f 3afe 7d3f 6af2 7e3f bf1c 813f
000001c0: cdef 813f debc 813f ee13 813f 839f 803f
000001d0: 6180 813f 3a15 803f fdef 823f 91d9 7f3f
000001e0: 8010 813f 728b 833f 0ba2 7a3f c63d 803f
000001f0: bc15 833f f334 813f f31d 7f3f 4795 813f

bn1.bias f4 [128]
-0.0600539 0.045280807 -0.0041224295 0.028108878 0.060660858 -0.052172653 0.035230864 0.03477847
0.029664915 0.07263153 -0.03638959 -0.004311161 0.038000908 0.014989159 -0.09863168 -0.029591307
-0.005294147 -0.016945528 0.053472653 0.013572768 -0.053147383 0.033030305 -0.006282803 0.02559301
-0.03642169 0.031447355 0.009409966 -0.059431408 0.024431787 0.0053294194 0.052942425 -0.014468408
0.06553703 -0.13204068 0.0122784525 -0.0003456941 -0.016310457 -0.017184928 -0.019253923 0.114199065
-0.08545101 -0.05441329 0.06742666 0.038542833 0.049014974 0.016208794 -0.05205114 0.0053937454
0.026506132 -0.020929575 0.02778712 -0.012868211 0.027864309 0.060027894 -0.08242252 -0.012731015
-0.029325323 -0.0187034 0.0119714355 0.08138219 -0.03020632 0.034827106 0.024013778 0.033437587
0.0055455635 0.0047437223 0.024177993 -0.04367403 0.008182622 -0.028216552 0.033708367 0.043618686
0.108809955 -0.04945945 -0.05275065 0.04321379 0.09731536 0.046951793 -0.046841174 -0.014441051
0.08785989 0.03347502 0.027047368 0.03233821 -0.08402345 -0.026448451 0.087173894 -0.09250326
0.049861014 0.0011453854 -0.015291742 -0.047726713 0.055693537 -0.025859145 0.031726442 0.0503655
0.010105213 0.00343777 -0.016253546 0.06181105 0.019915551 0.014522474 -0.03733016 -0.01827141
-0.038978994 0.056609225 -0.003125825 -0.030618371 0.01840623 -0.042914223 0.080004975 0.052693427
0.028500346 -0.016473517 -0.00981539 0.038871955 0.03251267 0.0115624815 0.036029153 -0.0008873349
-0.0027937277 0.050269436 -0.09827495 -0.010797241 0.036310647 -0.010009076 -0.06719141 0.028477484
00000000: 14fb 75bd 5e78 393d 7215 87bb 9744 e63c
00000010: 8577 783d feb2 55bd 3d4e 103d de73 0e3d
00000020: d603 f33c d7bf 943d 400d 15bd a444 8dbb
00000030: d7a6 1b3d 1795 753c 68ff c9bd 7869 f2bc
00000040: 867a adbb 59d1 8abc 2406 5b3d 5160 5e3c
00000050: 12b1 59bd c94a 073d f9df cdbb 6fa8 d13c
00000060: e92e 15bd f1ce 003d 422c 1a3c 596e 73bd
00000070: 2c25 c83c 69a2 ae3b 28da 583d e70c 6dbc
00000080: 4738 863d ac35 07be 902b 493c 473e b5b9
00000090: 829d 85bc 68c7 8cbc 67ba 9dbc 33e1 e93d
000000a0: f000 afbd 78e0 5ebd fd16 8a3d 17df 1d3d
000000b0: edc3 483d 4ec8 843c 9433 55bd 04be b03b
000000c0: 6323 d93c 8074 abbc d0a1 e33c 30d5 52bc
000000d0: b143 e43c cfdf 753d 23cd a8bd bf95 50bc
000000e0: a93b f0bc df37 99bc d723 443c b5ab a63d
000000f0: 3f73 f7bc dea6 0e3d 8bb8 c43c daf5 083d
00000100: 8fb7 b53b 3a71 9b3b ed10 c63c 8ae3 32bd
00000110: 6710 063c 6626 e7bc c911 0a3d 82a9 323d
00000120: c1d7 de3d fe95 4abd 1111 58bd f100 313d
00000130: 474d c73d 8650 403d 88dc 3fbd 289a 6cbc
00000140: e3ef b33d 1a1d 093d 7192 dd3c 1275 043d
00000150: 7d14 acbd 6caa d8bc 3a88 b23d 5972 bdbd
00000160: 103b 4c3d c220 963a 378a 7abc 167d 43bd
00000170: e81e 643d 8fd6 d3bc 96f3 013d 0e4c 4e3d
00000180: 5690 253c 364c 613b 2826 85bc 952d 7d3d
00000190: f025 a33c acef 6d3c 83e7 18bd edad 95bc
000001a0: 70a8 1fbd 13df 673d a4da 4cbb 61d3 fabc
000001b0: a9c8 963c d3c6 2fbd a6d9 a33d 10d5 573d
000001c0: 8f79 e93c 78f3 86bc bbd0 20bc 3338 1f3d
000001d0: 012c 053d 9070 3d3c 4e93 133d 0a9c 68ba
000001e0: f916 37bb 53e7 4d3d 6144 c9bd e9e6 30bc
000001f0: 79ba 143d 1cfd 23bc a69b 89bd 9d49 e93c

bn1.running_mean f4 [128]
-0.0551597 -0.1538076 0.21123861 -0.15631679 0.06321524 0.11228809 -0.16941433 -0.08859852
0.09537545 0.24742444 -0.018802755 0.17314874 -0.07600629 0.07634882 0.025288431 -0.04860858
0.23960252 -0.029640298 0.104431026 0.0027886517 -0.11753693 -0.15697804 -0.19151594 0.07694031
-0.031900506 -0.13216269 -0.016323458 0.13222063 -0.08837858 0.04868749 -0.050512448 0.1856699
-0.04428868 0.02968446 0.040563256 0.050699655 0.22860748 0.20777671 0.07258626 -0.1723703
-0.11553902 -0.11143315 -0.12915236 -0.029319834 0.17462093 0.19124015 0.0410301 0.047034826
-0.03500062 0.20434554 0.1098857 0.03750856 0.095870405 -0.03316801 0.17015386 -0.04372325
0.16854917 -0.026541926 -0.07536698 0.124876685 0.038328633 0.068558246 -0.27405542 0.101690754
-0.10791261 0.057487868 0.14358407 0.003276419 0.16481191 -0.094433635 0.0067289458 -0.034718994
-0.039531127 -0.11965865 0.09198856 0.18000305 -0.1199247 0.049160387 -0.16281563 0.25701824
0.05575223 0.010750736 0.14935663 -0.034403577 -0.066840306 -0.021076124 -0.09414564 0.27888405
-0.1391188 0.06424528 0.12607257 0.22626624 -0.17313686 0.002623831 -0.08319982 -0.13300417
0.00831104 0.038720317 -0.08006867 -0.14516841 -0.006038263 -0.21537222 0.15331097 0.055479378
0.12738942 -0.1088162 -0.050034575 0.12357466 -0.007718361 0.14969043 0.06775053 -0.057241857
-0.1354902 0.032417748 0.06835776 -0.069058515 0.09102214 0.09784532 0.116733484 -0.17560756
0.09301865 -0.0981731 0.14694446 0.13567562 -0.083118826 -0.10751157 -0.08710551 -0.11223662
00000000: 23ef 61bd bd7f 1dbe ef4e 583e 8211 20be
00000010: fe76 813d 4cf7 e53d f37a 2dbe 2473 b5bd
00000020: 3454 c33d d55c 7d3e 3c08 9abc e74d 313e
00000030: 30a9 9bbd c55c 9c3d af29 cf3c ca19 47bd
00000040: 5d5a 753e 36d0 f2bc efdf d53d d0c1 363b
00000050: 34b7 f0bd dabe 20be c11c 44be e292 9d3d
00000060: 1baa 02bd a855 07be c6b8 85bc d864 073e
00000070: d4ff b4bd 896c 473d 24e6 4ebd 4020 3e3e
00000080: 0c68 35bd d32c f33c a825 263d 71aa 4f3d
00000090: 1418 6a3e 6bc3 543e 1ba8 943d d781 30be
000000a0: b99f ecbd 1037 e4bd 8440 04be 2630 f0bc
000000b0: d4cf 323e 75d4 433e 2e0f 283d 97a7 403d
000000c0: cf5c 0fbd f53f 513e c10b e13d 93a2 193d
000000d0: b457 c43d 2edb 07bd d03c 2e3e 2717 33bd
000000e0: 2798 2c3e 746e d9bc 015a 9abd 59bf ff3d
000000f0: 7cfe 1c3d 4468 8c3d fe50 8cbe 3e43 d03d
00000100: 4901 ddbd 6678 6b3d b407 133e 30b9 563b
00000110: 74c4 283e 6c66 c1bd 7d7e dc3b 8135 0ebd
00000120: 64eb 21bd 980f f5bd 8064 bc3d b852 383e
00000130: 159b f5bd 675c 493d 24b9 26be e597 833e
00000140: 735c 643d db23 303c f2f0 183e c4ea 0cbd
00000150: 92e3 88bd d6a7 acbc 6ecf c0bd e4c9 8e3e
00000160: 2975 0ebe 0893 833d 2b19 013e 56b2 673e
00000170: ca4a 31be 94f4 2b3b ab64 aabd 3f32 08be
00000180: 072b 083c 3299 1e3d 0bfb a3bd 07a7 14be
00000190: 9fdc c5bb 898a 5cbe 8dfd 1c3e 583e 633d
000001a0: 5f72 023e 07db debd 0ef1 4cbd b614 fd3d
000001b0: 4eea fcbb 7348 193e cac0 8a3d 7076 6abd
000001c0: f1bd 0abe 79c8 043d 27ff 8b3d 8d6e 8dbd
000001d0: d169 ba3d 2163 c83d f711 ef3d 78d2 33be
000001e0: 9080 be3d fa0e c9bd 9c78 163e 8dee 0a3e
000001f0: 343a aabd 072f dcbd 6064 b2bd 50dc e5bd

bn1.running_var f4 [128]
0.54332197 0.62303156 0.5439317 0.5334637 0.46842387 0.50870085 0.53963715 0.51884496
0.7954413 1.1576481 0.7883097 0.7924812 0.49363166 0.8658984 0.44702527 0.27352074
0.93550175 0.5782492 0.9137574 0.5088262 0.6169493 0.8388207 0.90806824 0.53875494
0.42352408 0.45114005 0.4953702 0.53663063 0.47273007 0.51834434 0.42102432 0.7263718
0.6880564 0.41916022 0.7572536 0.37628874 1.0301671 1.1382289 0.4983442 0.67724466
0.78687394 0.56581014 0.66548634 0.30668 0.75141066 0.90491134 0.3797483 0.41990247
0.5907585 0.95421636 0.78899544 0.3336033 0.69428426 0.63484824 0.45313486 0.54064614
1.0157421 0.3306023 0.88448626 0.7919655 0.37176248 0.70838624 0.5085365 0.90599155
0.552368 0.56900775 0.7719298 0.56189394 0.56688225 0.4681564 0.43571064 0.4304568
0.5737716 0.78476614 0.5869367 0.93368673 0.43219596 0.562626 0.70969594 1.3700901
0.4057208 0.4587216 0.669835 0.39709002 0.8284291 0.5347106 0.5873621 0.68597794
0.5361362 0.44852066 0.6239908 0.9484243 0.77517885 0.55722624 0.6921108 0.787764
0.26030892 0.66130364 0.68744284 0.5719308 0.39604533 1.0784142 0.5734967 0.5496559
0.60050774 0.4259733 0.8523894 1.1179342 0.4459435 1.422652 0.87461424 0.66698205
0.45713094 0.53362006 0.38006952 0.4887026 0.65665275 0.36962476 1.0469509 0.9483426
0.928117 0.47324726 0.89592224 0.7307817 0.59034574 0.82725817 0.8722224 0.56360936
00000000: 2617 0b3f ff7e 1f3f 1c3f 0b3f 1491 083f
00000010: 41d5 ef3e 383a 023f a925 0a3f 06d3 043f
00000020: 0ba2 4b3f d02d 943f aace 493f 0ce0 4a3f
00000030: 4abd fc3e 84ab 5d3f 7fe0 e43e e90a 8c3e
00000040: 0b7d 6f3f 2408 143f 01ec 693f 6f42 023f
00000050: 64f0 1d3f f4bc 563f 2977 683f d8eb 093f
00000060: 26d8 d83e d4fb e63e 2aa1 fd3e a060 093f
00000070: ad09 f23e 37b2 043f 8090 d73e 81f3 393f
00000080: 7724 303f 2b9c d63e 5fdb 413f eba8 c03e
00000090: 84dc 833f 7cb1 913f f926 ff3e e85f 2d3f
000000a0: 9270 493f efd8 103f 505d 2a3f 2905 9d3e
000000b0: 735c 403f 45a8 673f 5f6e c23e 75fd d63e
000000c0: f33b 173f 8647 743f 9bfb 493f 0dce aa3e
000000d0: 9dbc 313f 6a85 223f 4b01 e83e c967 0a3f
000000e0: d603 823f b444 a93e b16d 623f 40be 4a3f
000000f0: a757 be3e cd58 353f 732f 023f 10ef 673f
00000100: fd67 0d3f 7eaa 113f 319d 453f 48d8 0f3f
00000110: 321f 113f 32b2 ef3e 7715 df3e d564 dc3e
00000120: b2e2 123f 6fe6 483f 7c41 163f 1806 6f3f
00000130: ca48 dd3e 4208 103f a2ae 353f 1d5f af3f
00000140: a3ba cf3e 8fdd ea3e 4e7a 2b3f 624f cb3e
00000150: ee13 543f cbe2 083f 5d5d 163f 409c 2f3f
00000160: 3940 093f 80a4 e53e dcbd 1f3f efcb 723f
00000170: 1f72 463f 61a6 0e3f 2c2e 313f e7aa 493f
00000180: 3647 853e 324b 293f 41fc 2f3f 0f6a 123f
00000190: 74c6 ca3e 7a09 8a3f aed0 123f 40b6 0c3f
000001a0: e0ba 193f 2c19 da3e 3136 5a3f 7818 8f3f
000001b0: b552 e43e 7619 b63f b8e6 5f3f 56bf 2a3f
000001c0: 110d ea3e 539b 083f 7998 c23e 3a37 fa3e
000001d0: 651a 283f 753f bd3e 7d02 863f 95c6 723f
000001e0: 1399 6d3f 774d f23e 295b 653f 8214 3b3f
000001f0: e620 173f 31c7 533f f849 5f3f b448 103f

hidden2.weight f4 [128, 128]
0.082693145 -0.006793883 -0.06794334 0.014316922 0.03489344 -0.010106498 0.019336548 0.025416112
0.03175578 -0.027597073 -0.05451759 0.066562824 0.016938755 0.07869453 -0.05901101 -0.02629456
0.014118556 0.018949006 -0.0334674 -0.03460921 -0.02182739 -0.06624967 0.0038780659 -0.07795803
-0.025617823 0.0008052597 -0.066267535 0.03884389 0.07197616 -0.00087254803 0.01971981 -0.091929555
0.0085817175 0.03139742 -0.033007648 -0.01300041 -0.085810214 0.038436398 -0.03260836 -0.005652078
0.050216664 0.07142481 0.0029577257 0.08587314 0.017630083 -0.0054891 0.066144995 0.09065512
0.0820053 -0.045493323 -0.047253933 0.049809568 -0.04867896 -0.021442864 0.044890232 0.019884912
-0.0053802053 0.036419757 0.026782313 -0.092076465 0.06705422 0.02812158 0.052214164 -0.0012212186
0.003585074 0.002531976 -0.010287699 0.08415818 -0.069812685 -0.043964084 -0.07061889 -0.004108422
-0.06381912 0.06865309 -0.038503155 0.06806593 0.09054012 -0.055718694 -0.057871982 -0.03368911
-0.043990422 0.045298155 0.062135752 -0.010621303 -0.07205945 0.04126767 0.0852692 0.016935471
-0.01773865 -0.06141447 -0.070515364 0.041802555 0.047699008 0.064356446 0.09094807 -0.0050820154
-0.0066411574 0.019608898 -0.026373584 -0.02253579 -0.01375177 0.018894136 -0.05908959 -0.076551564
-0.09592796 -0.002608492 0.017458152 0.06535832 -0.053498674 -0.011745279 0.047827903 0.028706413
-0.043013446 -0.07261531 -0.06916167 -0.018344887 0.013428619 0.061777428 0.031625066 0.060053572
-0.032841604 0.009828813 -0.028587198 0.08339716 -0.007226642 0.051929615 0.04576648 -0.0045833183
0.031097734 -0.021051034 0.022245865 0.070426844 -0.009987562 0.07847616 -0.054243393 -0.009753253
0.019881418 0.01627635 0.11410685 -0.08500366 -0.052009698 -0.016634606 0.023452437 -0.04125707
-0.008245752 -0.064444035 -0.079985246 -0.025478987 0.013766707 0.08026443 -0.04461363 -0.08851912
0.024348734 0.08358059 0.014008028 0.075278044 0.043464325 -0.01038857 -0.064883105 0.01724399
0.074983284 -0.06430177 0.069164924 0.0129194595 -0.03967075 0.023660414 -0.022758335 -0.05400346
0.04905108 0.067452796 -0.011893881 -0.057055593 -0.046655633 -0.058171153 -0.072361656 -0.047234852
-0.05065046 -0.01927248 0.05148099 -0.064064376 0.021709805 -0.0054149916 -0.061389443 -0.06293548
-0.043253746 0.009468429 0.05235433 -0.05870175 -0.002452254 -0.090694144 0.09808218 0.04809655
0.02837666 -0.06561557 0.011729759 0.080761306 -0.02526561 0.025196873 0.016798299 -0.01026545
-0.024041763 0.017613763 0.045055855 -0.008411103 -0.031787004 -0.097651444 -0.04300824 -0.04060941
-0.050766572 -0.07587647 -0.049307827 -0.036325157 0.030057203 0.034526035 -0.0687147 0.056827024
-0.019510003 0.07605252 0.04652743 0.034607656 0.06731125 -0.0118148085 0.0014340387 -0.07358192
-0.05505196 0.010119618 0.046600826 0.020845778 -0.08369808 -0.056960896 -0.02982329 0.008626356
0.018133624 0.038320154 -0.080953784 0.051793538 -0.09737292 -0.034909364 0.031443916 -0.07589719
-0.05650042 0.09375622 -0.06327291 0.015112254 -0.07719563 -0.09133314 -0.035076827 0.08634921
-0.05593133 0.05305882 -0.017198833 0.020026626 0.05086063 0.027116675 0.07219714 0.02823584
00000000: 065b a93d 399f debb e125 8bbd 8691 6a3c
00000010: 6cec 0e3d ba95 25bc ae67 9e3c 7335 d03c
00000020: 5912 023d 4213 e2bc d64d 5fbd 1752 883d
00000030: 25c3 8a3c 992a a13d 87b5 71bd b067 d7bc
00000040: 8451 673c f23a 9b3c 1d15 09bd 63c2 0dbd
00000050: 5bcf b2bc e8ad 87bd 2627 7e3b 76a8 9fbd
00000060: 78dc d1bc 1018 533a 46b7 87bd c51a 1f3d
00000070: 3d68 933d b5bb 64ba 708b a13c 9045 bcbd
00000080: 559a 0c3c 959a 003d 0733 07bd acff 54bc
00000090: 44bd afbd 7c6f 1d3d 5890 05bd 1135 b9bb
000000a0: fdaf 4d3d 2c47 923d 67d6 413b 42de af3d
000000b0: f76c 903c e8dd b3bb 0777 873d 64a9 b93d
000000c0: 65f2 a73d 3557 3abd 578d 41bd 1e05 4c3d
000000d0: 9763 47bd f2a8 afbc d2de 373d afe5 a23c
000000e0: 6f4c b0bb e22c 153d 9566 db3c 9692 bcbd
000000f0: b953 893d 3a5f e63c 85de 553d 4c11 a0ba
00000100: 90f3 6a3b 82ef 253b bd8d 28bc 205b ac3d
00000110: f4f9 8ebd af13 34bd a3a0 90bd f19f 86bb
00000120: 99b3 82bd fe99 8c3d 7cb5 1dbd 2666 8b3d
00000130: 196d b93d 4939 64bd 2c0b 6dbd 98fd 09bd
00000140: 4d2f 34bd 8f8a 393d 0f82 7e3d f904 2ebc
00000150: e893 93bd 4a08 293d 9ea1 ae3d 42bc 8a3c
00000160: a550 91bc bd8d 7bbd 5c6a 90bd 2839 2b3d
00000170: 0960 433d 50cd 833d fb42 ba3d 0987 a6bb
00000180: 119e d9bb d7a2 a03c 6a0d d8bc fa9c b8bc
00000190: 1b4f 61bc e0c7 9a3c ed07 72bd 11c7 9cbd
000001a0: e175 c4bd 3cf3 2abb 6604 8f3c 95da 853d
000001b0: 6d21 5bbd 456f 40bc 31e7 433d b629 eb3c
000001c0: de2e 30bd 56b7 94bd a2a4 8dbd 0448 96bc
000001d0: b603 5c3c 540a 7d3d 4989 013d bcfa 753d
000001e0: eb84 06bd 0809 213c b32f eabc 21cc aa3d
000001f0: 78cd ecbb 26b4 543d a275 3b3d a92f 96bb
00000200: adc0 fe3c 3873 acbc f63c b63c f33b 903d
00000210: dfa2 23bc 1cb8 a03d 522e 5ebd 1ccc 1fbc
00000220: 5bde a23c fb55 853c dab0 e93d 6616 aebd
00000230: 1f08 55bd 4c45 88bc 531f c03c 2cfd 28bd
00000240: 3119 07bc 3cfb 83bd 4ecf a3bd 4fb9 d0bc
00000250: c18d 613c ad61 a43d c8bc 36bd 8349 b5bd
00000260: ff76 c73c 4d2c ab3d ee81 653c 602b 9a3d
00000270: a607 323d d234 2abc 6fe1 84bd 4543 8d3c
00000280: d690 993d a5b0 83bd 57a6 8d3d 24ac 533c
00000290: cc7d 22bd 7cd3 c13c b06f babc bb32 5dbd
000002a0: c9e9 483d b124 8a3d 8dde 42bc 20b3 69bd
000002b0: fa19 3fbd e044 6ebd 5932 94bd 5579 41bd
000002c0: db76 4fbd 52e1 9dbc bbdd 523d 2f34 83bd
000002d0: c3d8 b13c 3e70 b1bb 7f73 7bbd 51e4 80bd
000002e0: d72a 31bd 7821 1b3c 7e71 563d 3f71 70bd
000002f0: ffb5 20bb dabd b9bd 4fdf c83d e300 453d
00000300: 2b76 e83c 7561 86bd 2d2e 403c 2f66 a53d
00000310: d3f9 cebc ac69 ce3c 969c 893c 6b30 28bc
00000320: 3bf3 c4bc bd4a 903c 7d8c 383d b9ce 09bc
00000330: 1733 02bd 7bfd c7bd 6929 30bd 0d56 26bd
00000340: 9cf0 4fbd 1f65 9bbd 01f7 49bd b0c9 14bd
00000350: 863a f63c 2c6b 0d3d 4bba 8cbd 74c3 683d
00000360: 71d3 9fbc 6cc1 9b3d 8c93 3e3d c2c0 0d3d
00000370: 7bda 893d e692 41bc 5bf6 bb3a 1eb2 96bd
00000380: 2a7e 61bd c1cc 253c 82e0 3e3d c4c4 aa3c
00000390: e669 abbd d44f 69bd f94f f4bc 8f55 0d3c
000003a0: f78c 943c 98f5 1c3d 19cb a5bd 7625 543d
000003b0: 746b c7bd 1ffd 0ebd 56cb 003d fc6f 9bbd
000003c0: fc6c 67bd 4303 c03d 3a95 81bd 6399 773c
000003d0: be18 9ebd df0c bbbd b8ac 0fbd dbd7 b03d
000003e0: 4018 65bd 3554 593d 91e4 8cbc e10e a43c
000003f0: 3c53 503d ca23 de3c 18dc 933d d94e e73c

bn2.weight f4 [128]
1.0009464 0.99256635 0.9971335 0.9842202 0.9961006 0.9941574 0.993263 0.98638755
0.99744105 0.9877064 0.9994539 0.99303573 0.99618304 0.99344134 0.9925383 0.9962052
0.99236155 0.9896454 0.9937906 0.990262 1.000276 0.9950446 0.9928172 0.9974423
0.9894042 0.9993008 0.9922371 0.99836653 0.9951146 1.0001673 0.9994484 0.9922081
0.9942014 0.9837162 0.986064 0.9940159 0.9942342 0.9983191 0.9884949 0.9935133
0.99740326 0.9918614 0.99415106 0.9964722 0.9913807 0.9997455 0.9997513 0.9859737
0.9967226 1.0006722 0.9936808 0.98991704 0.99865234 0.997013 0.98663265 0.98386544
0.99520564 0.9803477 0.98831725 0.9896792 0.9952543 0.99855673 0.9909204 0.98816884
0.9988426 0.99779356 0.9961491 0.99623936 0.99670166 0.9896243 0.9960425 1.0007503
0.9995543 0.9931806 0.99251235 0.99338686 1.0027901 0.99122095 0.987964 0.9855134
0.98861104 0.9895376 0.99733585 0.9976923 0.9921979 0.99853605 0.9921687 0.99353945
0.9896637 0.99034095 0.9959698 0.9948111 0.99715936 0.9917308 0.99328953 0.98947704
1.0013031 0.99139035 0.9924624 1.0008901 0.98898447 0.9850311 0.9897824 0.99694616
0.99943227 0.9994571 0.99584943 1.0008639 0.9958344 0.9965322 0.99935275 0.98805505
0.9986397 0.99895567 0.9968982 0.99367243 0.9986396 0.9948281 0.98938316 1.0021225
0.9857936 0.9932042 0.9963381 0.97846305 1.0012528 1.0028739 1.0009584 0.98132885
00000000: 031f 803f d418 7e3f 2444 7f3f dbf5 7b3f
00000010: 7300 7f3f 1981 7e3f 7c46 7e3f e583 7c3f
00000020: 4c58 7f3f 54da 7c3f 36dc 7f3f 9737 7e3f
00000030: da05 7f3f 2c52 7e3f fd16 7e3f 4e07 7f3f
00000040: 680b 7e3f 6759 7d3f 1069 7e3f cf81 7d3f
00000050: 0b09 803f 3ebb 7e3f 4529 7e3f 6158 7f3f
00000060: 9849 7d3f 2dd2 7f3f 4003 7e3f f394 7f3f
00000070: d5bf 7e3f 7b05 803f dadb 7f3f 5a01 7e3f
00000080: fc83 7e3f d3d4 7b3f b16e 7c3f d377 7e3f
00000090: 2286 7e3f d791 7f3f 000e 7d3f e356 7e3f
000000a0: d255 7f3f a1ea 7d3f af80 7e3f cd18 7f3f
000000b0: 20cb 7d3f 52ef 7f3f b4ef 7f3f c668 7c3f
000000c0: 3629 7f3f 0716 803f dd61 7e3f 346b 7d3f
000000d0: aea7 7f3f 3e3c 7f3f f593 7c3f 9bde 7b3f
000000e0: ccc5 7e3f 11f8 7a3f 5c02 7d3f 9e5b 7d3f
000000f0: fcc8 7e3f 6aa1 7f3f f6ac 7d3f a2f8 7c3f
00000100: 26b4 7f3f 666f 7f3f a103 7f3f 8b09 7f3f
00000110: d727 7f3f 0558 7d3f a4fc 7e3f 9618 803f
00000120: cae2 7f3f 1541 7e3f 4a15 7e3f 9a4e 7e3f
00000130: 6d5b 803f a8c0 7d3f 35eb 7c3f 9b4a 7c3f
00000140: 9d15 7d3f 5652 7d3f 6751 7f3f c368 7f3f
00000150: ae00 7e3f 0fa0 7f3f c5fe 7d3f 9a58 7e3f
00000160: 9a5a 7d3f fc86 7d3f e0f7 7e3f f1ab 7e3f
00000170: d645 7f3f 12e2 7d3f 3948 7e3f 5e4e 7d3f
00000180: b32a 803f c2cb 7d3f 0412 7e3f 2b1d 803f
00000190: 162e 7d3f 002b 7c3f 6162 7d3f dd37 7f3f
000001a0: cbda 7f3f 6cdc 7f3f fdef 7e3f 4f1c 803f
000001b0: 01ef 7e3f bc1c 7f3f 95d5 7f3f 2df1 7c3f
000001c0: daa6 7f3f 8fbb 7f3f b834 7f3f 5161 7e3f
000001d0: d8a6 7f3f 0ead 7e3f 3748 7d3f 8d45 803f
000001e0: f85c 7c3f a142 7e3f 0410 7f3f 8e7c 7a3f
000001f0: 0d29 803f 2c5e 803f 681f 803f 5e38 7b3f

bn2.bias f4 [128]
0.0021424564 -0.041890517 -0.017731162 0.050729282 0.0147850355 0.037902843 -0.016696965 -0.03541474
-0.018818405 0.033651326 0.009271792 0.032671742 0.022117255 0.043961715 0.025249302 -0.01727918
-0.028220812 0.033479586 -0.020572893 -0.046350468 0.012610897 -0.017257797 -0.019616708 -0.019504046
0.026166692 -0.020231022 -0.039474767 -0.023488717 -0.017281817 -0.0076997182 0.015739763 -0.03290453
0.026269712 0.035549384 0.037770227 -0.017629968 0.036041304 -0.012087313 0.050150186 0.026668824
0.019135894 -0.02559016 0.013464675 -0.012650156 0.028460009 0.011662566 -0.006322583 0.02590233
-0.023600016 -0.019257063 0.012951045 -0.024511471 0.0038119832 -0.02292083 -0.03323372 -0.046029452
0.026090983 0.037055578 0.044726223 0.03586009 -0.012154383 -0.034193557 -0.032852516 0.043257784
-0.040214308 -0.033437572 -0.01566034 -0.020803172 -0.044481974 -0.027608842 -0.028362667 -0.012328563
-0.01557297 0.013245471 -0.011274904 0.033361174 -0.0092912745 -0.05297008 0.03867275 -0.040930916
-0.038181253 0.032342367 -0.018181251 -0.022808889 -0.036093336 -0.002071507 -0.019395692 0.035361238
-0.03665672 -0.040136013 0.019763263 -0.029498028 0.017492251 0.04488842 0.017981214 0.033120353
-0.008330433 0.018473051 0.027174221 0.019866563 0.02732868 -0.044886835 -0.030406233 -0.015110236
0.008436281 0.009167916 -0.016606212 0.014558004 -0.022573426 0.015606725 -9.9158504e-05 -0.029623514
0.0047975527 -0.029999632 -0.015898185 0.025281258 0.022337746 0.030613901 0.021804182 -0.015854426
-0.04521209 -0.025780665 0.02770086 -0.047714766 0.020340448 0.02187931 -0.010264522 -0.0620619
00000000: 7468 0c3b 6495 2bbd f140 91bc 82c9 4f3d
00000010: ef3c 723c 0340 1b3d 13c8 88bc 0c0f 11bd
00000020: 0e29 9abc f9d5 093d b7e8 173c ced2 053d
00000030: 3f2f b53c 3311 343d a0d7 ce3c 118d 8dbc
00000040: 552f e7bc e421 093d 7c88 a8bc fdd9 3dbd
00000050: f09d 4e3c 3960 8dbc 38b3 a0bc f3c6 9fbc
00000060: 885b d63c 87bb a5bc 4bb0 21bd 696b c0bc
00000070: 9992 8dbc eb4d fcbb adf0 803c e7c6 06bd
00000080: 9433 d73c 3b9c 113d f4b4 1a3d b96c 90bc
00000090: 0ca0 133d de09 46bc 486a 4d3d 9478 da3c
000000a0: e1c2 9c3c 75a2 d1bc f19a 5c3c 9a42 4fbc
000000b0: f724 e93c 5914 3f3c ac2d cfbb 2031 d43c
000000c0: d254 c1bc fdc0 9dbc 9f30 543c 48cc c8bc
000000d0: 77d2 793b 77c4 bbbc 1520 08bd 6189 3cbd
000000e0: c2bc d53c 97c7 173d d832 373d 08e2 123d
000000f0: 2d23 47bc 8b0e 0cbd 5c90 06bd 132f 313d
00000100: c2b7 24bd d6f5 08bd 1d4a 80bc 6a6b aabc
00000110: bb32 36bd f02b e2bc d358 e8bc befd 49bc
00000120: c525 7fbc 8803 593c 60ba 38bc baa5 083d
00000130: 6e3a 18bc 28f7 58bd 5167 1e3d 2da7 27bd
00000140: f263 1cbd 6e79 043d d9f0 94bc b5d9 babc
00000150: 9bd6 13bd 1fc2 07bb b7e3 9ebc f2d6 103d
00000160: 5b25 16bd a965 24bd 91e6 a13c d9a5 f1bc
00000170: e94b 8f3c ebdc 373d 574d 933c 35a9 073d
00000180: 5e7c 08bc cc54 973c 799c de3c 34bf a23c
00000190: 65e0 df3c 42db 37bd 7e16 f9bc ec90 77bc
000001a0: 5438 0a3c 0735 163c c009 88bc b284 6e3c
000001b0: e8eb b8bc 59b3 7f3c 51f3 cfb8 03ad f2bc
000001c0: ca34 9d3b cac1 f5bc e93c 82bc a41a cf3c
000001d0: a6fd b63c 01ca fa3c af9e b23c 24e1 81bc
000001e0: 5030 39bd f931 d3bc eaec e23c 8f70 43bd
000001f0: 03a1 a63c 3d3c b33c 872c 28bc 9e34 7ebd

bn2.running_mean f4 [128]
0.027995508 -0.03919021 -0.09052614 0.103822686 0.018576317 0.09778579 -0.07247448 -0.06909653
-0.021991653 0.03945367 0.01685653 0.11969598 0.021700805 0.086798206 0.081985906 -0.046412032
-0.041899472 0.073286116 -0.054528482 -0.08833204 0.033753023 -0.011422187 -0.08121881 -0.066481054
0.056165684 -0.049548626 -0.06917801 -0.03189651 -0.076117605 -0.034718882 0.059804246 -0.10612823
0.08513535 0.020054223 0.035589743 -0.008350109 0.12665813 0.0040449994 0.13307428 0.034712903
0.07546924 -0.06429162 0.07440695 -0.070969336 0.06639791 0.11911617 -0.060428288 0.06761145
0.00025019218 -0.08532547 0.07481763 -0.015307525 0.055656187 -0.1236173 -0.027872354 -0.0461473
0.01656576 0.06766643 0.021696419 0.1013986 -0.00942904 -0.009008821 -0.032226052 0.083442956
-0.11590203 -0.103224404 -0.07802132 -0.03460391 -0.042939775 -0.06420095 -0.05367937 -0.09468598
-0.018956764 0.023403917 -0.063043155 0.12913756 0.019076489 -0.10400664 0.042275738 -0.04002185
-0.11374722 0.054809872 -0.07453835 -0.07716177 -0.080969095 0.003475045 -0.03000912 -0.0014134538
-0.086871006 -0.014819462 0.073647074 -0.057999406 0.05350367 0.11646425 0.012305262 0.10276627
-0.116183676 0.05914054 0.029412013 0.0008851453 0.067839034 -0.08779416 -0.041500468 -0.06363172
0.102572784 0.018791795 -0.05005039 0.057628356 -0.025897197 0.085152276 -0.018816449 -0.043806907
0.011597766 -0.077416584 -0.015980994 0.10630832 0.06857965 0.050644405 0.07544568 -0.056071177
-0.042869177 -0.032949325 0.013067682 -0.0726159 0.09074789 0.06861012 -0.061339498 -0.102702476
00000000: d656 e53c ea85 20bd c565 b9bd fda0 d43d
00000010: 5c2d 983c eb43 c83d 806d 94bd 7b82 8dbd
00000020: d727 b4bc 2c9a 213d b516 8a3c 2a23 f53d
00000030: e3c5 b13c 42c3 b13d 3ae8 a73d 8b1a 3ebd
00000040: c89e 2bbd 0817 963d 4259 5fbd 6ee7 b4bd
00000050: 9c40 0a3d 2024 3bbc 0c56 a6bd 3827 88bd
00000060: fd0d 663d 80f3 4abd 33ad 8dbd eaa5 02bd
00000070: 8ce3 9bbd 6335 0ebd 4cf5 743d c259 d9bd
00000080: 715b ae3d c148 a43c 8dc6 113d e5ce 08bc
00000090: abb2 013e ea8b 843b a044 083e 1e2f 0e3d
000000a0: 9e8f 9a3d 53ab 83bd ac62 983d 5f58 91bd
000000b0: a1fb 873d 2ef3 f33d a783 77bd df77 8a3d
000000c0: 3a2c 8339 1fbf aebd fc39 993d 6acc 7abc
000000d0: bef7 633d 112b fdbd 9054 e4bc f404 3dbd
000000e0: ebb4 873c b294 8a3d b0bc b13c 12aa cf3d
000000f0: 437c 1abc bc99 13bc 77ff 03bd 24e4 aa3d
00000100: 0b5e edbd 5167 d3bd a4c9 9fbd d4bc 0dbd
00000110: 9ee1 2fbd ca7b 83bd e6de 5bbd b9ea c1bd
00000120: 374b 9bbc 92b9 bf3c c51c 81bd a33c 043e
00000130: 4c46 9c3c 6f01 d5bd 5329 2d3d f4ed 23bd
00000140: 4df4 e8bd 5180 603d 90a7 98bd fd06 9ebd
00000150: 20d3 a5bd 95bd 633b b0d5 f5bc a443 b9ba
00000160: 6de9 b1bd 54cd 72bc 47d4 963d c990 6dbd
00000170: aa26 5b3d cf84 ee3d 029c 493c 1f77 d23d
00000180: b5f1 edbd 5a3d 723d 76f1 f03c 1809 683a
00000190: 31ef 8a3d 6dcd b3bd 65fc 29bd 5951 82bd
000001a0: ae11 d23d 40f1 993c a301 4dbd b60b 6c3d
000001b0: 5c26 d4bc 5164 ae3d f424 9abc df6e 33bd
000001c0: 8e04 3e3c 968c 9ebd 93ea 82bc 2db8 d93d
000001d0: 7d73 8c3d 8270 4f3d 4483 9a3d e4aa 65bd
000001e0: 9797 2fbd dff5 06bd d519 563c a5b7 94bd
000001f0: 08da b93d 7683 8c3d 203f 7bbd ad55 d2bd

bn2.running_var f4 [128]
0.21916002 0.32193032 0.2802501 0.2877265 0.22945885 0.36925915 0.16916324 0.28551522
0.25118858 0.24017517 0.18864313 0.25589645 0.16067626 0.33863223 0.25346547 0.22880739
0.17854898 0.255967 0.23770069 0.38116086 0.22002912 0.16218291 0.21663769 0.29785204
0.2217428 0.31840792 0.31728917 0.25260887 0.28044403 0.23371242 0.23855108 0.38904727
0.3464665 0.27589536 0.27183017 0.29098922 0.41585281 0.1887098 0.3175963 0.35402045
0.19369096 0.24835189 0.28932023 0.22063987 0.27057964 0.34861183 0.28931987 0.2109296
0.33196035 0.34086132 0.2900385 0.22188635 0.23265418 0.33060995 0.22325698 0.2669657
0.31458333 0.24269386 0.25687972 0.26611933 0.23606803 0.34520635 0.22886759 0.25305182
0.38155025 0.38441738 0.21188347 0.29954553 0.3363707 0.22676669 0.2928072 0.2987577
0.22030784 0.22301285 0.20128275 0.43558577 0.29232037 0.43497995 0.21776977 0.29591238
0.4490023 0.21934623 0.2626965 0.27362457 0.27199775 0.23185109 0.26713696 0.2976735
0.29441303 0.36985785 0.24730702 0.2634605 0.29374877 0.4215175 0.22191083 0.40180266
0.28707322 0.3073755 0.3133103 0.2794335 0.2081234 0.35166255 0.29304796 0.27505434
0.37412745 0.17345461 0.18810396 0.28337863 0.3596766 0.2767181 0.16618885 0.23352917
0.21763861 0.25618273 0.23496036 0.288034 0.28702116 0.22220328 0.24901259 0.24019957
0.30630895 0.22160125 0.27134994 0.3265503 0.33505312 0.27970687 0.2991874 0.36088806
00000000: 7c6b 603e 0dd4 a43e f17c 8f3e e350 933e
00000010: 43f7 6a3e 890f bd3e 2139 2d3e 0d2f 923e
00000020: ca9b 803e 7bf0 753e aa2b 413e dc04 833e
00000030: 5188 243e 3461 ad3e 3ac6 813e 7c4c 6a3e
00000040: 8bd5 363e 1b0e 833e cf67 733e 8427 c33e
00000050: 504f 613e 4713 263e 45d6 5d3e 1080 983e
00000060: 8b10 633e 5d06 a33e ba73 a23e f355 813e
00000070: 5c96 8f3e 4f52 6f3e bc46 743e 3431 c73e
00000080: 0f64 b13e 2842 8d3e 532d 8b3e 8afc 943e
00000090: a9ea d43e 243d 413e fb9b a23e 2b42 b53e
000000a0: ec56 463e f54f 7e3e c821 943e 6bef 613e
000000b0: 6a89 8a3e 407d b23e bc21 943e eefd 573e
000000c0: b5f6 a93e 6085 ae3e ed7f 943e 2d36 633e
000000d0: e63c 6e3e b545 a93e 7a9d 643e baaf 883e
000000e0: 1111 a13e bd84 783e bd85 833e cb40 883e
000000f0: d1bb 713e e3be b03e 445c 6a3e 0290 813e
00000100: 8e5a c33e 5bd2 c43e fbf7 583e 085e 993e
00000110: c838 ac3e 8735 683e d3ea 953e c5f6 983e
00000120: 6198 613e 7b5d 643e 111d 4e3e 1905 df3e
00000130: 04ab 953e b1b5 de3e 0aff 5e3e d481 973e
00000140: a1e3 e53e 4c9c 603e 2880 863e 8518 8c3e
00000150: 4a43 8b3e 5f6a 6d3e 2dc6 883e a968 983e
00000160: 4ebd 963e 025e bd3e 0d3e 7d3e 4be4 863e
00000170: 3d66 963e 24d1 d73e 983c 633e 14b9 cd3e
00000180: 43fb 923e 5260 9d3e 356a a03e e811 8f3e
00000190: 4d1e 553e 1d0d b43e 620a 963e ecd3 8c3e
000001a0: a28d bf3e 169e 313e 539e 403e 0117 913e
000001b0: 8827 b83e ffad 8d3e 692d 2a3e 4522 6f3e
000001c0: a8dc 5e3e 622a 833e 7399 703e 3179 933e
000001d0: 70f4 923e 4289 633e 28fd 7e3e e0f6 753e
000001e0: 87d4 9c3e 70eb 623e 61ee 8a3e 9a31 a73e
000001f0: 158c ab3e bd35 8f3e 172f 993e 52c6 b83e

hidden3.weight f4 [16, 128]
-0.09572089 -0.083651714 -0.02890268 -0.041138064 0.058486667 -0.053147227 -0.031532206 0.04929244
-0.07143098 0.049447898 -0.09245312 -0.06307818 -0.06838475 -0.032675408 0.06173437 0.021553017
0.005724433 0.074222036 -0.07246242 -0.025294151 0.041518476 0.031203799 -0.044901382 0.07393311
-0.06910927 0.050635137 0.055600014 0.06656242 0.05699794 -0.038412806 -0.038678408 -0.046996165
0.008353525 0.024438586 0.028592179 -0.043586895 -0.038448267 0.008054824 0.013036729 0.10316323
0.007957919 -0.0015812448 -0.09415101 0.033168223 -0.008281186 -0.03024953 0.06584583 -0.02795035
-0.025015485 0.0039340574 0.050220765 0.0057576373 0.04357194 0.07340825 0.014548185 0.014028986
-0.05836757 -0.0300607 -0.07471335 0.0015022559 -0.03370557 -0.024908712 -0.07469502 0.006196071
0.049556315 -0.059281692 0.06383756 -0.06828194 -0.059149705 0.065695725 -0.0019197667 -0.06537896
0.07105103 -0.011615455 -0.049229804 0.042586356 -0.10056037 -0.0013217505 -0.023228537 -0.0018363984
0.052489575 -0.051339317 0.04635031 0.0058566164 -0.058708843 0.066014834 -0.07305529 0.0018216206
0.052657183 -0.049679395 -0.07827578 0.03485296 -0.0031641114 0.031220064 0.025327727 -0.08307929
0.080791354 -0.014834473 -0.054451138 -0.06869788 -0.04957829 -0.060840882 -0.06978782 0.058162224
0.026860159 0.027258571 -0.00046675917 0.04608617 -0.038712237 -0.0807936 -0.013459202 -0.010718902
-0.045864936 -0.03901001 0.011209004 -0.051302597 -0.006754634 0.013511702 -0.073483445 0.10587727
0.03141917 0.01688006 -0.07694285 -0.008819143 -0.043239076 -0.0379471 0.007491238 0.031937167
0.013501629 -0.0053600417 0.08608055 -0.08522482 -0.010238767 -0.08606903 0.037877228 0.020452993
0.008110208 -0.0067837373 -0.018586645 0.03715953 -0.08421254 -0.039881095 -0.054254152 0.016346022
0.034862015 -0.027706128 0.0123989275 -0.017558547 -0.06774601 0.018711064 0.06464471 -0.036616065
-0.051659048 0.10774904 0.05825396 0.03427274 -0.00255826 0.029387731 0.029060505 -0.08910173
-0.08612685 -0.09777301 -0.12088886 0.076962344 -0.06151434 0.0101806065 0.056300595 -0.082100876
-0.0019776863 -0.062421784 0.034972586 0.006969104 0.081026204 0.029853115 -0.022270521 -0.078293905
0.09546881 -0.052934904 -0.07089361 0.074892834 -0.026976235 -0.0022528423 0.01584821 -0.04102428
-0.035349276 0.028028613 0.105415106 -0.005563807 -0.0071007647 -0.012047067 0.11531784 -0.07973437
-0.06912842 0.0735119 -0.06824522 0.05313172 0.1113408 -0.013498749 -0.039715778 0.018653316
-0.049675588 -0.0326248 0.026434898 0.010013587 0.07780268 -0.03770124 -0.04239356 -0.0259687
-0.046801902 -0.021318054 -0.071744025 -0.031073561 -0.017426273 0.015918836 0.0530191 -0.026519172
0.03530895 0.037781224 -0.007174033 0.08302566 -0.11071249 -0.05337643 0.070886135 -0.015971502
-0.037041012 -0.071407564 0.07791247 -0.05636093 -0.0007563626 0.07890901 0.0810333 0.014559921
-0.0032232178 0.023201 -0.023730924 0.04349876 0.005030314 0.026005464 -0.008683015 -0.07902768
0.120138176 0.0029560416 -0.055758636 0.039780993 0.025757886 -0.034215838 -0.0803857 0.022330126
-0.023394778 0.0030930114 0.055761766 0.040960096 -0.026283355 -0.01935015 0.12021385 0.0052499236
00000000: 5009 c4bd 9751 abbd 50c5 ecbc 6380 28bd
00000010: b78f 6f3d e8b0 59bd ea27 01bd dfe6 493d
00000020: 684a 92bd e189 4a3d 1058 bdbd 222f 81bd
00000030: 4e0d 8cbd a6d6 05bd 2edd 7c3d f48f b03c
00000040: 0694 bb3b b901 983d 2d67 94bd ae35 cfbc
00000050: 470f 2a3d 1c9f ff3c 83ea 37bd 3e6a 973d
00000060: 2989 8dbd ca66 4f3d d7bc 633d e151 883d
00000070: ac76 693d bf56 1dbd 406d 1ebd 0d7f 40bd
00000080: 39dd 083c 6e33 c83c 253a ea3c 2c88 32bd
00000090: ee7b 1dbd 61f8 033c 0198 553c 3e47 d33d
000000a0: ee61 023c c541 cfba 3fd2 c0bd 67db 073d
000000b0: d0ad 07bc ddcd f7bc 2eda 863d 22f8 e4bc
000000c0: 46ed ccbc 44e9 803b 4ab4 4d3d 90aa bc3b
000000d0: 7e78 323d 1157 963d 835b 6e3c d5d9 653c
000000e0: d512 6fbd db41 f6bc 5003 99bd 58e7 c43a
000000f0: da0e 0abd 5b0d ccbc b4f9 98bd 6908 cb3b
00000100: 90fb 4a3d 5cd1 72bd 44bd 823d 67d7 8bbd
00000110: f646 72bd 7b8b 863d aea0 fbba 67e5 85bd
00000120: 3483 913d c04e 3ebc 31a5 49bd 086f 2e3d
00000130: 98f2 cdbd 963e adba c649 bebc 4eb3 f0ba
00000140: 4fff 563d 2d49 52bd d3d9 3d3d dce8 bf3b
00000150: af78 70bd c932 873d 039e 95bd 72c3 ee3a
00000160: 0faf 573d 9f7c 4bbd 0d4f a0bd fac1 0e3d
00000170: fb5c 4fbb 38c1 ff3c 187c cf3c 7a25 aabd
00000180: f075 a53d 4a0c 73bc 2808 5fbd 79b1 8cbd
00000190: 9b12 4bbd 4a34 79bd ebec 8ebd 833b 6e3d
000001a0: d609 dc3c 5e4d df3c 5bb7 f4b9 dac4 3c3d
000001b0: b990 1ebd 1d77 a5bd fc83 5cbc 559e 2fbc
000001c0: dfdc 3bbd f6c8 1fbd f8a5 373c ac22 52bd
000001d0: fa55 ddbb 3060 5d3c 7d7e 96bd 2fd6 d83d
000001e0: 63b1 003d 0d48 8a3c 3794 9dbd 2b7e 10bc
000001f0: 751b 31bd 6b6e 1bbd 0f79 f53b 8cd0 023d
00000200: f035 5d3c 4aa3 afbb 004b b03d 5a8a aebd
00000210: 80c0 27bc f644 b0bd 2725 1b3d 098d a73c
00000220: aee0 043c 1d4a debb 0543 98bc 9734 183d
00000230: a077 acbd 5c5a 23bd 9a39 5ebd 18e8 853c
00000240: 79cb 0e3d f6f7 e2bc df24 4b3c f1d6 8fbc
00000250: 6cbe 8abd f247 993c 7264 843d bafa 15bd
00000260: 7098 53bd 87ab dc3d b49b 6e3d 9361 0c3d
00000270: 7ba8 27bb 8abe f03c 4c10 ee3c f87a b6bd
00000280: 4663 b0bd 373d c8bd 9494 f7bd 6f9e 9d3d
00000290: 76f6 7bbd 8fcc 263c 749b 663d 8124 a8bd
000002a0: 129c 01bb fcad 7fbd 6a3f 0f3d 155d e43b
000002b0: 11f1 a53d 858e f43c ab70 b6bc 8e58 a0bd
000002c0: 2785 c33d 45d2 58bd ab30 91bd 6a61 993d
000002d0: 44fd dcbc 6ca4 13bb 1bd4 813c 1309 28bd
000002e0: 67ca 10bd 439c e53c e0e3 d73d 9950 b6bb
000002f0: 88ad e8bb 1061 45bc c22b ec3d c64b a3bd
00000300: 3393 8dbd 688d 963d 26c4 8bbd a5a0 593d
00000310: a506 e43d db29 5dbc 03ad 22bd d7ce 983c
00000320: a178 4bbd 95a1 05bd 008e d83c 0710 243c
00000330: 0357 9f3d 9e6c 1abd dfa4 2dbd 50bc d4bc
00000340: 5ab3 3fbd 33a3 aebc 88ee 92bd fb8d febc
00000350: 8bc1 8ebc 3868 823c 8e2a 593d bc3e d9bc
00000360: 1ea0 103d 7cc0 1a3d 2714 ebbb 5b09 aa3d
00000370: 3bbd e2bd 3ea1 5abd c02c 913d abd6 82bc
00000380: 51b8 17bd 213e 92bd 9390 9f3d b8da 66bd
00000390: a346 46ba 0c9b a13d c9f4 a53d bc8c 6e3c
000003a0: 9f3c 53bb 0610 be3c 5b67 c2bc c12b 323d
000003b0: 55d5 a43b 6909 d53c 3443 0ebc 44d9 a1bd
000003c0: 010b f63d 26ba 413b 2b63 64bd 65f1 223d
000003d0: 3402 d33c e825 0cbd 42a1 a4bd abed b63c
000003e0: 68a6 bfbc 1fb4 4a3b 7366 643d c6c5 273d
000003f0: 3150 d7bc 3584 9ebc ae32 f63d 8d07 ac3b

bn3.weight f4 [16]
0.9892406 0.9143231 0.9876872 1.0178702 0.9245055 0.9891427 0.9057302 0.9799398
0.98116016 0.995047 0.8926009 0.9843975 0.9598648 0.97647583 0.9935389 0.9960956
00000000: df3e 7d3f 1411 6a3f 11d9 7c3f 9249 823f
00000010: 64ac 6c3f 7538 7d3f efdd 673f 56dd 7a3f
00000020: 502d 7b3f 66bb 7e3f 7e81 643f 7901 7c3f
00000030: b3b9 753f 52fa 793f 9158 7e3f 1f00 7f3f

bn3.bias f4 [16]
-0.111939974 -0.380537 -0.104104295 0.22790366 0.27940932 0.089215405 0.4612307 0.16325334
-0.43185246 -0.3954121 0.4213727 0.58430564 -0.26202503 -0.1632675 0.098631516 0.013702596
00000000: c940 e5bd bfd5 c2be a234 d5bd 945f 693e
00000010: bd0e 8f3e 91b6 b63d 6e26 ec3e e22b 273e
00000020: c41b ddbe 7473 cabe 2abe d73e 0e95 153f
00000030: 2528 86be 982f 27be 52ff c93d da80 603c

bn3.running_mean f4 [16]
-0.041197546 -0.019809406 -0.046938084 0.0238724 0.010439646 0.037322693 0.10562178 -0.0031631254
0.010187473 -0.14046474 -0.0064901225 0.16375196 0.009973971 -0.028293982 0.012121314 -0.0015996934
00000000: c2be 28bd 5647 a2bc 2642 40bd 0d90 c33c
00000010: 0d0b 2b3c aedf 183d 3b50 d83d 704c 4fbb
00000020: 5ce9 263c fdd5 0fbe 18ab d4bb 98ae 273e
00000030: de69 233c c8c8 e7bc 7a98 463c ceac d1ba

bn3.running_var f4 [16]
0.64163804 1.2344377 0.61888033 1.4478683 0.81123716 0.4436871 1.4152478 0.7051447
1.6904404 2.4158056 0.91305536 2.6919754 0.62864035 0.5813296 0.3050847 0.22336519
00000000: 6442 243f 0e02 9e3f f16e 1e3f c053 b93f
00000010: 3dad 4f3f f52a e33e d726 b53f 5d84 343f
00000020: 5a60 d83f 8f9c 1a40 ffbd 693f 5349 2c40
00000030: 93ee 203f 04d2 143f 1034 9c3e d8b9 643e

output.weight f4 [1, 16]
0.10751368 0.4306876 0.08398788 -0.4404382 -0.2911188 -0.11573864 -0.47672346 -0.17653546
0.5770351 0.5220737 -0.46211058 -0.7777922 0.29072 0.16070533 -0.010593522 0.021940844
00000000: 2230 dc3d 1683 dc3e d601 ac3d 1e81 e1be
00000010: 860d 95be 6108 edbd 1915 f4be b6c5 34be
00000020: 93b8 133f 9fa6 053f c299 ecbe 641d 47bf
00000030: 40d9 943e f08f 243e 7490 2dbc 49bd b33c
