models/focal_loss_checkpoints/checkpoint_epoch_410.pth (torch, 100242 bytes, 16 tensors)

hidden1.weight f4 [128, 30]
000000 fc 8e da 3d 84 fe 24 be 35 0b 88 bd 63 3a 66 bd
       0.10671803 -0.16112715 -0.066427626 -0.056208026
000010 eb ff d2 3d f6 f5 ca bd 9f ee e3 3c b0 4b b4 3c
       0.10302719 -0.099101946 0.027823744 0.022008747
000020 66 9e b9 3c b3 7e e2 bd a1 13 0c be cb 52 52 3e
       0.022658538 -0.11059322 -0.13679363 0.20539396
000030 13 5e b8 bd c1 78 a0 3c e3 7e 8b bd 86 1b e0 3d
       -0.09002318 0.01958883 -0.06811311 0.1094275
000040 da ed 54 be d0 4f 5f 3d 27 7e 21 3e 21 5d 84 3e
       -0.20793858 0.054519475 0.1577078 0.25852302
000050 ff 2a 60 3d 69 b6 4e 3d dc 2a ee bd fa e6 bc 3c
       0.054728504 0.05046693 -0.116292685 0.023059357
000060 82 83 a3 3d d1 b9 a2 3d 07 cd b4 bd 23 f9 df 3d
       0.079840675 0.07945598 -0.08828168 0.10936191
000070 5e ea e7 3d a4 37 95 bd cf b4 3c be 0a ac cb 3a
       0.11323999 -0.07286003 -0.18428348 0.0015538943
000080 31 53 0f 3d e0 54 05 3d 98 c2 83 bc a6 07 f5 3b
       0.034991447 0.032551646 -0.016084 0.0074777184
000090 65 ac a7 bd 53 44 16 3b c8 87 2b bd c5 77 16 be
       -0.081871785 0.0022928908 -0.041877538 -0.14694126
0000a0 6a 83 7c bd 76 44 28 be d3 3d 2e 3e e6 86 1e 3e
       -0.061648764 -0.16432366 0.17015772 0.15481147
0000b0 5d cb 81 3d 13 58 39 bd 20 81 e0 bd 80 f5 81 3d
       0.063376166 -0.04525001 -0.10962129 0.063456535
0000c0 9f 4a de 3d b8 41 d2 3d 57 ec 31 be f9 dd 00 be
       0.108540766 0.10266441 -0.17375313 -0.12584676
0000d0 ac ee e9 bd 30 e0 0b 3d bf b6 59 3e 1b 62 24 be
       -0.11422476 0.03414935 0.21261118 -0.1605305
0000e0 7d fc c4 3d 60 ee 32 3c d6 9e 11 be ad 78 20 bd
       0.09618471 0.010921091 -0.14220747 -0.039177585
0000f0 4c c1 11 3e e6 a2 0a 3c 45 7f 1c 3d 2b 26 0a be
       0.14233893 0.00846169 0.03820731 -0.13491122
000100 ad 94 e2 3b 3f 1c b2 3d 0c 70 c7 3d 7e 85 39 bd
       0.006914696 0.08696794 0.09738168 -0.045293324
000110 ad 68 bb 3d f9 5c e3 3d 0a f5 90 3c 57 ab 0c be
       0.09150825 0.111017175 0.017694969 -0.13737236
000120 75 25 38 be 84 d3 e5 3d 1f 83 08 3e c9 e7 22 3e
       -0.17983039 0.11221984 0.13331269 0.15908732
000130 7e 19 2b be c0 ef 40 be 3d 3d b0 bd 5d c3 e7 bd
       -0.16708943 -0.18841457 -0.0860543 -0.113165595
000140 36 f7 38 3d cc 5d 1b bd 38 45 2a be 22 38 b7 bd
       0.045157634 -0.03793125 -0.16627967 -0.08946253
000150 d1 c2 db bd 81 74 b0 bd 60 5e 46 3d b7 35 8a bd
       -0.10730518 -0.08615971 0.048429847 -0.067485265
000160 5a e6 17 3c d9 0d 13 3e 45 f6 a9 bc 94 01 2c 3e
       0.009271229 0.14360751 -0.020747313 0.16797477
000170 0d 83 a5 bd 98 29 99 bc 3a b8 af bd 24 8e 78 3c
       -0.080816366 -0.018696591 -0.0858006 0.015170608
000180 27 a7 43 3d ba 1c 1b 3d e3 37 99 bc 9a 7e 83 bd
       0.04776683 0.037869193 -0.018703407 -0.06420632
000190 60 26 0f 3e ba 1b 33 be a1 97 30 3d 41 7d 89 3d
       0.13979483 -0.17491046 0.043113355 0.067133434
0001a0 4a 76 62 bd dc 0d 14 3e 92 b9 f1 bd 7e 9a ae bc
       -0.05528859 0.14458412 -0.11802973 -0.021313902
0001b0 ef 36 cb bd 8c 4d 6b bc 03 e5 d8 bc 1d 3d 19 be
       -0.09922587 -0.01436175 -0.026476389 -0.14964719
0001c0 2f 11 87 3d f8 24 37 bc 93 62 67 3e 5a 05 47 3e
       0.065950744 -0.011178248 0.22596197 0.19435635
0001d0 09 16 17 be 24 88 57 3d 58 39 20 3d ac 6f ed bd
       -0.147545 0.05262007 0.039117187 -0.11593565
0001e0 00 ac 85 3d 09 67 8e 3c 4b fe 51 be 32 52 f9 bd
       0.06526947 0.017383115 -0.20507161 -0.12173881
0001f0 ae c1 25 be 1c 78 ed bd 20 e1 f6 3d 15 d5 dd bd
       -0.16187164 -0.11595175 0.12054658 -0.10831658
000200 76 bb 26 3c 20 44 3a 3e d0 e9 ea 3d bb 87 9b 3d
       0.01017653 0.1819005 0.114703774 0.07594248
000210 7d a7 5a 3e aa 0e aa bd cf 23 b1 3d 59 e1 db bd
       0.21352954 -0.08303578 0.08649408 -0.10736341
000220 e2 1c d8 3d 3b 7f a3 bc 68 73 f3 bd 22 18 64 be
       0.10552384 -0.01995813 -0.11887246 -0.22274831
000230 3f 01 b9 3c 1a 98 55 3b fd 7f a2 bd 28 fc f3 3c
       0.022583602 0.003259188 -0.07934568 0.029783323
000240 2c cd 12 3e 72 22 1e 3e 94 ac 99 3c 44 c3 72 bd
       0.1433608 0.15442827 0.01875905 -0.05926825
000250 de 3c 06 3c 47 b0 b6 3c b7 cd 94 bd 66 a7 85 bd
       0.008193223 0.022300852 -0.072657995 -0.06526069
000260 6c d3 2d 3e 00 ce 4f 3d b8 91 58 3e 40 2a 69 3d
       0.16975182 0.050733566 0.21149337 0.05692506
000270 93 78 42 3e c7 01 a8 3c 52 30 fe bc 40 8e e3 3c
       0.18991308 0.02050866 -0.0310289 0.027777791
000280 41 5a 84 3d c0 02 b6 3d 9c b7 4b bd e9 c5 e1 3d
       0.06462527 0.08887243 -0.04973565 0.110240765
000290 d9 7f 20 be 5e 07 6f 3d b7 96 ce 3d ac 35 a2 bd
       -0.1567377 0.058356635 0.1008734 -0.07920393
0002a0 67 f9 54 bd e1 2c 02 3e 09 81 92 3d 7e 40 11 bd
       -0.05199566 0.12712432 0.07153518 -0.035461895
0002b0 55 38 ef bd 05 a0 a6 3c a7 a2 c5 3d 03 68 ec bd
       -0.11680666 0.020339975 0.09650164 -0.11543276
0002c0 87 2f 83 bd 0d 5f 09 be 39 e2 86 bd 3e c1 35 3d
       -0.064055495 -0.13415165 -0.06586117 0.044373743
0002d0 80 c1 b5 bd 21 d7 57 bd 41 06 3d 3d 28 66 20 be
       -0.08874798 -0.052695397 0.046148542 -0.1566397
0002e0 9e 9c 66 bd 71 08 24 3e c1 5c 53 bd 87 b9 09 3e
       -0.056301706 0.16018845 -0.05160213 0.1344968
0002f0 e3 13 d5 3b 96 be 07 be 23 2b 35 bd c3 08 31 be
       0.006502615 -0.13256297 -0.04423059 -0.17288499
000300 53 be 43 3e 5d ed 47 3e a1 91 03 3e 6d e1 16 3d
       0.19115572 0.1952414 0.12848522 0.036836077
000310 f5 49 e5 3d 1a 93 82 3d 5f 2f 56 3c b9 93 10 3d
       0.11195747 0.06375714 0.013072818 0.03529713
000320 0a 3a 6a 3d 68 bb c7 bc 80 93 23 be c2 31 f5 3d
       0.057184257 -0.024381354 -0.15974236 0.11972381
000330 c3 19 f6 3d 1c e0 0b be 44 88 7a 3d 3d 6d 6c 3d
       0.120166324 -0.1365971 0.06116511 0.057721365
000340 ed cc fa 3a c8 72 1d bd dd 54 6c bc 70 90 88 bd
       0.0019134559 -0.038439542 -0.01442453 -0.06668174
000350 24 fc 7a 3b 0d ca 15 3e 4e 7b 3d be 5d da 05 be
       0.003829726 0.14627858 -0.18504068 -0.1307158
000360 f2 7b 71 3d cf 34 f3 bc 51 10 c3 bd e2 fe 32 bc
       0.058956094 -0.029688267 -0.095245965 -0.010925027
000370 22 0c 90 3d 12 fc 48 be 7f ee 98 bb 72 fd cb 3c
       0.07033564 -0.19627407 -0.004667103 0.024901126
000380 e5 a3 9b 3d 0c d0 80 bc 3c 33 22 3e 28 f7 0b 3e
       0.0759962 -0.015724204 0.15839857 0.13668501
000390 47 1b cc bd 67 7c 2a 3d de 15 e8 3d 42 13 66 bd
       -0.0996614 0.041622546 0.11332296 -0.05617071
0003a0 dc 9d 27 3e 05 6a 9b bc d2 03 31 3e b9 e2 48 bd
       0.16368812 -0.018971452 0.17286614 -0.049044345
0003b0 c8 a0 37 3e f7 39 d7 bd c6 3d b2 3d bb 34 3a bd
       0.17932427 -0.10509103 0.087031886 -0.045460444
0003c0 54 90 d6 bd c6 a6 9e 3d 70 d3 21 be e8 2c 33 3e
       -0.10476747 0.07746653 -0.15803313 0.17497599
0003d0 b3 1e b0 3d 76 49 18 bd 52 40 ff 3c fe 9b 06 3e
       0.085996054 -0.037179433 0.0311586 0.13145444
0003e0 84 e7 d9 3c c2 8a 22 3d a6 56 4b 3e 20 ef cd 3d
       0.026599653 0.03968311 0.19857273 0.10055375
0003f0 b9 98 cf bc 8e 7e f7 3c 11 b0 80 3e ec 34 f1 bd
       -0.025341379 0.030211713 0.25134328 -0.11777672

bn1.weight f4 [128]
000000 5d 5d 83 3f 33 28 80 3f f2 01 81 3f a9 82 81 3f
       1.0262867 1.0012268 1.0078719 1.0117999
000010 6f e9 80 3f 25 f3 87 3f e2 f0 85 3f 1d 76 80 3f
       1.0071238 1.0621077 1.0464137 1.0036045
000020 d6 df 83 3f a7 50 81 3f 43 13 81 3f 96 14 81 3f
       1.0302684 1.0102738 1.0084003 1.0084407
000030 82 cb 81 3f 24 e1 7f 3f 23 03 82 3f 4b 9b 83 3f
       1.0140231 0.9995291 1.0157207 1.0281767
000040 a6 c0 81 3f 05 ec 81 3f 3d f0 83 3f dc f9 81 3f
       1.0136917 1.0150152 1.030769 1.0154376
000050 9e 8a 83 3f 48 29 80 3f 55 84 82 3f 16 52 83 3f
       1.0276678 1.0012598 1.0196635 1.0259426
000060 e1 58 83 3f 5c 26 83 3f 36 61 7f 3f 18 59 84 3f
       1.0261499 1.0246081 0.9975771 1.0339689
000070 a8 07 83 3f 24 44 81 3f 92 e9 82 3f f7 f8 81 3f
       1.0236712 1.009892 1.022753 1.0154103
000080 8a 04 83 3f bb 04 87 3f 40 59 82 3f 60 92 84 3f
       1.023576 1.0548319 1.0183487 1.035717
000090 79 b1 82 3f e2 4c 83 3f 00 90 83 3f f6 8b 85 3f
       1.021041 1.0257838 1.027832 1.0433338
0000a0 71 13 82 3f a0 7e 81 3f 00 f2 81 3f 80 9a 8a 3f
       1.0162183 1.0116768 1.0151978 1.08284
0000b0 31 2b 82 3f e5 36 80 3f af 82 7d 3f 65 e0 83 3f
       1.0169431 1.0016752 0.9902753 1.0302855
0000c0 7e 4b 81 3f b6 08 7d 3f a9 64 7f 3f 2b 30 84 3f
       1.0101163 0.98841417 0.9976297 1.03272
0000d0 a3 47 83 3f cb a6 81 3f 4a 10 87 3f bf 1a 84 3f
       1.0256237 1.0129026 1.0551846 1.0320662
0000e0 f2 8c 80 3f 9d 6c 82 3f 37 7a 80 3f 74 3b 83 3f
       1.0043013 1.0189396 1.0037297 1.0252519
0000f0 cb f2 81 3f da 68 80 3f 75 c8 82 3f 03 15 86 3f
       1.015222 1.0031998 1.0217425 1.0475162
000100 25 f4 84 3f f2 2a 83 3f 89 9d 82 3f 5d fe 84 3f
       1.0387007 1.0247481 1.0204326 1.0390126
000110 9a 13 84 3f 58 2f 83 3f ab 58 86 3f e9 66 84 3f
       1.0318482 1.0248823 1.0495809 1.0343906
000120 47 02 81 3f 70 b4 81 3f 28 8f 7e 3f 19 53 86 3f
       1.007882 1.013319 0.9943719 1.0494109
000130 ac 44 87 3f 0b b7 83 3f 98 19 82 3f 01 85 7e 3f
       1.0567832 1.0290235 1.016406 0.994217
000140 d6 5a 82 3f e6 d7 85 3f 16 67 82 3f fb a6 82 3f
       1.0183971 1.0456512 1.0187709 1.0207208
000150 a5 6e 81 3f 28 b0 85 3f 04 74 7e 3f a6 e3 82 3f
       1.0111891 1.0444384 0.99395776 1.0225723
000160 17 3b 82 3f 7f cb 83 3f 92 98 85 3f f6 38 7b 3f
       1.0174283 1.0296477 1.0437186 0.9813379
000170 4a 7f 81 3f a2 d1 80 3f d1 90 80 3f 63 0f 82 3f
       1.011697 1.0063975 1.0044194 1.0160946
000180 8a 4f 86 3f a2 8a 82 3f 3b f2 82 3f dc 81 86 3f
       1.0493023 1.0198557 1.0230173 1.050838
000190 2a 29 8d 3f d9 20 80 3f 92 9d 7b 3f 5f 70 80 3f
       1.1028187 1.0010024 0.9828731 1.0034293
0001a0 88 e7 87 3f 99 f0 89 3f ae 34 82 3f 7c bb 80 3f
       1.0617533 1.077655 1.0172327 1.0057216
0001b0 fd 15 82 3f ed 85 7c 3f 11 5e 81 3f 8a 9c 83 3f
       1.016296 0.98641855 1.0106832 1.0282147
0001c0 fb d4 83 3f e8 9b 82 3f de 01 82 3f cc 81 83 3f
       1.0299371 1.0203829 1.015682 1.0273986
0001d0 6d c9 83 3f 29 58 81 3f 35 4e 85 3f 70 1f 80 3f
       1.0295845 1.0105029 1.0414492 1.0009594
0001e0 23 c3 81 3f cf 26 86 3f eb ad 7b 3f 3e 7f 80 3f
       1.0137676 1.0480593 0.9831225 1.0038831
0001f0 70 ba 84 3f b7 eb 83 3f c0 39 80 3f 14 25 83 3f
       1.0369396 1.030631 1.0017624 1.024569

bn1.bias f4 [128]
000000 fe 21 a2 bd 4f 2c 82 3d f4 c3 94 ba d1 7e 2c 3d
       -0.0791664 0.063561074 -0.0011349902 0.04211313
000010 71 a8 c8 3d b8 d4 8c bd d3 77 41 3d 03 60 51 3d
       0.09797753 -0.068765104 0.047233414 0.051116955
000020 dd 47 51 3d cd da db 3d 49 45 7b bd 60 c9 bf 3a
       0.051093925 0.10735092 -0.061345372 0.0014632158
000030 d7 a2 5a 3d 98 a0 d2 3c b3 4a 02 be 32 da 03 bd
       0.053377952 0.025711343 -0.12723808 -0.03219051
000040 4e 42 62 bc 5d 95 81 bc c2 ee 72 3d 58 9d a8 3c
       -0.013809754 -0.015818292 0.05930973 0.02058284
000050 df 0a 85 bd ee f4 05 3d 10 b5 27 3b 75 e9 2c 3d
       -0.06496214 0.032704286 0.00255901 0.04221483
000060 a3 aa 4f bd 24 0a 28 3d db 10 80 ba 36 93 ae bd
       -0.05069984 0.041025296 -0.0009770648 -0.08524172
000070 fb f5 37 3d 46 31 4a 3b 41 45 92 3d ac 57 c5 bc
       0.04491232 0.0030852123 0.071421154 -0.024089657
000080 8a 1b b5 3d 9f 9d 46 be 69 e4 c5 3c 0b f9 a0 3c
       0.08843143 -0.19396065 0.024156766 0.019650003
000090 0b c6 0a bd f0 a6 94 bc be 10 dc bc 96 54 1d 3e
       -0.033880275 -0.018146008 -0.026863452 0.15364298
0000a0 4d d1 c8 bd 00 70 79 bd 3d 17 e7 3d 98 a0 34 3d
       -0.09805546 -0.060897827 0.11283729 0.044098467
0000b0 d5 ea 97 3d e5 8a c4 3c ae f9 9b bd 91 e6 fc 3b
       0.074178375 0.023992011 -0.07615982 0.0077179153
0000c0 39 7f fd 3c e1 a5 30 bd 9a 43 0e 3d 74 dc fe bc
       0.030944454 -0.043126944 0.03473244 -0.03111098
0000d0 ca 52 8a 3c 11 f2 db 3d 1f f8 e5 bd 2d 52 f4 bc
       0.01688518 0.1073953 -0.11228966 -0.02982434
0000e0 65 ee 0f bd 70 46 d7 bc 2d c1 e7 3b 1d 3c f9 3d
       -0.03513946 -0.026278704 0.007072589 0.12169669
0000f0 57 0f 3b bd 94 57 23 3d 9d 22 5b 3d 09 c6 83 3d
       -0.045668926 0.039878443 0.053499807 0.064342566
000100 02 42 0f 3c 6e 04 32 3c dc ac e3 3c 6d da a1 bd
       0.008743765 0.010865314 0.027792387 -0.079029895
000110 4f 58 d1 3b ae cf 72 bd 7a e0 35 3d 89 da 39 3d
       0.006388701 -0.05928009 0.04440353 0.045374427
000120 a2 53 1e 3e be 6e 72 bd 93 68 a7 bd 87 15 8f 3d
       0.15461591 -0.059187643 -0.08174243 0.06986528
000130 56 dc 0d 3e 3a 55 8f 3d a2 7d a0 bd 59 6b 95 bc
       0.13853583 0.069986776 -0.078364626 -0.018239664
000140 83 81 fb 3d 1c 3c 6f 3d ec 64 0a 3d 5e b0 08 3d
       0.12280562 0.058406934 0.033787653 0.03337132
000150 de 25 e1 bd 1c 6d 1e bd 1f 7a 07 3e 96 ac e6 bd
       -0.10993551 -0.038678274 0.13230179 -0.11263387
000160 0b 60 7c 3d 6b 04 5a 3b fc 5b 48 bd f0 cd 8f bd
       0.06161503 0.0033266793 -0.048915848 -0.07021701
000170 64 e6 93 3d cb a6 f5 bc 2c 1a 52 3d fb 1b 9e 3d
       0.07221678 -0.02998676 0.05129449 0.077201806
000180 dd 5d 23 3d a5 02 c5 3c 6b af d1 bc ba 78 ae 3d
       0.039884437 0.024049113 -0.025596341 0.085191205
000190 3b ba 38 3d 3c 48 07 3d 6a ff 8d bd d4 15 22 bd
       0.04509948 0.033027872 -0.06933482 -0.0395716
0001a0 7c 0f 87 bd f1 32 7c 3d 01 9b 96 3b 9a bb 04 bd
       -0.0659475 0.06157202 0.0045961146 -0.032405473
0001b0 e7 9b 8d 3c 66 0e 87 bd 2e 5c dc 3d 5b d2 aa 3d
       0.017286254 -0.06594543 0.107597694 0.08340903
0001c0 5c a8 2b 3d 65 58 ad bc 57 41 1c bd da a0 84 3d
       0.041908607 -0.021160314 -0.03814825 0.064759925
0001d0 3c 07 8a 3d 2c 41 5c 3c e7 71 52 3d d2 89 bb ba
       0.06739661 0.013443273 0.051378157 -0.0014308041
0001e0 41 10 fc 3a a5 62 8a 3d bc 71 14 be 51 7b 80 bc
       0.0019230918 0.06757096 -0.14496511 -0.015683802
0001f0 e8 48 7e 3d 9a a9 05 bd 3f ae c6 bd e3 94 78 3d
       0.062081248 -0.032632448 -0.097012036 0.060688864

bn1.running_mean f4 [128]
000000 72 a7 06 bd fc 58 fc bd 4d 24 50 3e f1 b4 0a be
       -0.032874532 -0.1232166 0.20326348 -0.13545586
000010 90 9d 3e 3d ac 47 ac 3d 82 b5 8d bd 10 08 ed bc
       0.046536982 0.08412108 -0.069193855 -0.028934509
000020 30 e1 ae 3d 28 81 70 3e e1 f9 ae 3b 88 49 31 3e
       0.08539045 0.23486769 0.0053398465 0.17313206
000030 9c 0b a7 bc f6 28 2b 3d 28 26 ae ba a3 a6 96 bd
       -0.020391278 0.04178711 -0.0013286518 -0.07356002
000040 8e e1 48 3e 84 b5 4e bc 00 7a 64 3d 22 83 02 3d
       0.19617292 -0.012616519 0.05578041 0.03186334
000050 fd 9a e5 bd bc 37 04 be 60 11 1a be ed 94 43 3d
       -0.11211202 -0.12911886 -0.1504569 0.04774945
000060 0b 2f 65 bd 0f 3b 8a bd 4b 7e 2e 3d a0 7a ab 3d
       -0.055953067 -0.06749546 0.04260091 0.08372998
000070 89 2a d0 bd 97 03 5a 3d 22 38 fa 3b ea e4 14 3e
       -0.10164363 0.05322608 0.007636086 0.14540449
000080 88 d8 31 3c b8 09 cd 3c 49 79 25 3d 51 36 20 bc
       0.010854848 0.025029048 0.04039887 -0.009778575
000090 07 ba 73 3e 47 18 44 3e 07 2a 66 3d c6 dc f9 bd
       0.23801433 0.19149886 0.056192424 -0.12200312
0000a0 9e f9 e2 bd 54 1d fb bd 57 5c ae bd 6b 18 37 bc
       -0.11082767 -0.12261453 -0.08513706 -0.011175255
0000b0 08 04 1e 3e 89 11 1d 3e 84 2e 36 bc 5d ec ff 3c
       0.15431225 0.1533872 -0.011119489 0.031240636
0000c0 03 5f 8d bd f8 c5 33 3e 55 9c e1 3d 53 93 9e bc
       -0.06902888 0.17555988 0.11016146 -0.019357359
0000d0 ad 45 8e 3d ef 65 8a bb bf 29 14 3e 75 d3 42 bd
       0.06946883 -0.004223577 0.1446905 -0.047564942
0000e0 9e c3 0c 3e 04 b2 1d bd 29 a8 40 bd 00 74 09 3e
       0.13746497 -0.038499847 -0.04703537 0.13423157
0000f0 6d b6 f6 3b 2a ec 71 3d 69 08 86 be 96 64 9a 3d
       0.007529071 0.059063114 -0.2617829 0.075387165
000100 e2 79 a3 bd 70 8b 8a 3d d5 30 12 3e 0b f9 32 3b
       -0.07982232 0.06764877 0.1427644 0.0027309086
000110 02 68 1e 3e f5 e8 df bd 43 e2 0b 3c e9 58 be bc
       0.15469363 -0.10933105 0.008537832 -0.023235755
000120 61 6d 40 3c 4c 59 d9 bd 54 10 8d 3d cd 8d 34 3e
       0.011744828 -0.10612735 0.0688788 0.17632218
000130 ec ce ae bd 49 a7 3a 3d ff a7 35 be a5 d6 7d 3e
       -0.08535561 0.04556969 -0.17739867 0.24788912
000140 16 c7 8e 3d c6 79 14 3c 54 b4 e1 3d 4d f6 bd bc
       0.069715664 0.009062236 0.11020723 -0.023188734
000150 d3 28 87 bd 99 a4 80 bd ea 6f ac bd 0e 91 7a 3e
       -0.065995835 -0.062813945 -0.084197834 0.24469396
000160 56 43 fc bd d8 48 3a 3c 7b 63 c1 3d 37 0e 40 3e
       -0.12317531 0.011369906 0.094428025 0.18755423
000170 48 eb 09 be b3 4e 97 3c 19 8d 21 bd 6e 5a dc bd
       -0.13468659 0.018470144 -0.0394412 -0.107594356
000180 50 e6 7e 3c 87 a2 6c 3d e2 50 c2 bd 60 f3 d9 bd
       0.0155578405 0.057772186 -0.094880834 -0.10642123
000190 b8 0c a3 b9 69 84 20 be ec a6 0e 3e b9 6d 80 3d
       -0.0003109926 -0.1567551 0.13930863 0.06270928
0001a0 ef 03 15 3e e8 9d 9b bd 84 c5 cd bc a5 62 dc 3d
       0.14552282 -0.075984776 -0.025118597 0.107610025
0001b0 ce c0 58 3b ec e9 c3 3d fd 6d 5e 3d f1 f0 06 bd
       0.0033073905 0.095661014 0.05430411 -0.032944623
0001c0 05 49 a6 bd 90 aa ff 3b 94 1f 96 3d 0a 9a 92 bd
       -0.08119396 0.007802315 0.07330242 -0.07158287
0001d0 0e 7e d4 3d 73 33 dc 3d 75 5f c5 3d 9f 27 db bd
       0.103756055 0.10752001 0.096373476 -0.107009165
0001e0 cc b2 a4 3d be e0 b1 bd f5 ae ad 3d b5 a3 ad 3d
       0.08041915 -0.08685444 0.08480636 0.0847849
0001f0 0d 03 96 bd 82 d8 c8 bd be 25 a4 bd 7c 5e e3 bd
       -0.07324801 -0.098069206 -0.08015011 -0.11102006

bn1.running_var f4 [128]
000000 26 64 a8 3e b8 ae 15 3f 9b 88 18 3f 10 5a fb 3e
       0.32888907 0.58469725 0.59583443 0.4909215
000010 7b d3 be 3e 10 79 d0 3e 4e 9a 99 3e dc 1d bf 3e
       0.37270722 0.40717363 0.30000538 0.37327468
000020 c5 6f 1d 3f e9 66 96 3f 69 b6 22 3f 67 c5 19 3f
       0.6149867 1.1750156 0.63559586 0.6006684
000030 48 16 b8 3e c8 78 3f 3f dc 7e 9b 3e d3 57 8a 3e
       0.359545 0.7479367 0.30370224 0.2702013
000040 39 4c 6a 3f b9 b2 f5 3e 99 a0 2b 3f 60 68 e5 3e
       0.91522557 0.47987917 0.6704193 0.44806194
000050 c4 5e eb 3e 15 26 40 3f 87 a1 1e 3f a8 9a ca 3e
       0.45970738 0.7505811 0.6196522 0.39571118
000060 c3 ed d7 3e 8f 18 a6 3e 00 ea 07 3f 26 73 e0 3e
       0.42173585 0.32440612 0.5309143 0.4383785
000070 8d 89 fb 3e 8e 2a c5 3e 0e 2b c1 3e 2b 7e 27 3f
       0.4912838 0.3850903 0.3772816 0.6542689
000080 7f f1 1e 3f f5 f6 a4 3e ac cb 36 3f 5e 5f 8b 3e
       0.62087244 0.32219663 0.7140453 0.27221197
000090 96 08 4e 3f ff 5c 45 3f f8 42 dd 3e 48 a4 00 3f
       0.8048185 0.77095026 0.43215156 0.50250673
0000a0 b8 f4 0e 3f 79 7a 00 3f 24 7e 0d 3f 97 e3 7e 3e
       0.5584216 0.5018688 0.552706 0.24891506
0000b0 1e 91 24 3f 50 c7 48 3f b3 20 a5 3e b3 25 b1 3e
       0.6428393 0.78429127 0.3225151 0.34599075
0000c0 4a 99 04 3f 6c e9 62 3f b2 5b 4a 3f 44 ad 91 3e
       0.517964 0.88637424 0.79046166 0.28452504
0000d0 2d ff 17 3f 68 55 0f 3f 8e 27 e5 3e 3f 5a c7 3e
       0.5937374 0.55989695 0.4475674 0.3893604
0000e0 5e c5 4b 3f 62 56 9a 3e d1 92 2c 3f b8 a4 29 3f
       0.79598033 0.3014403 0.67411524 0.66266966
0000f0 83 45 9e 3e f2 7d 18 3f 02 45 cd 3e 25 38 7e 3f
       0.30912408 0.5956718 0.4009171 0.9930442
000100 f8 1f c0 3e 28 ff 32 3f e9 3b 54 3f f8 67 03 3f
       0.3752439 0.6992059 0.82903916 0.5133052
000110 18 c8 0e 3f 93 8a e5 3e 75 bd c0 3e bd 9c c8 3e
       0.5577407 0.44832286 0.37644544 0.39182082
000120 1a 31 f7 3e c6 aa 39 3f 47 2f 0c 3f 34 90 82 3f
       0.4827965 0.72526205 0.5475964 1.0200257
000130 9f 60 9a 3e b9 29 d2 3e 55 37 2b 3f 6e 28 b3 3f
       0.3015184 0.41047457 0.66881305 1.3996713
000140 50 9f b2 3e b4 d0 ba 3e ff 9c 00 3f fd 7b 91 3e
       0.3488717 0.36487353 0.5023956 0.28414908
000150 68 0a 1b 3f df 5b ea 3e f0 6d dd 3e 97 82 16 3f
       0.60562754 0.45773217 0.43247938 0.58793014
000160 67 dd e6 3e 54 47 9a 3e dc 4d aa 3e 57 cb 40 3f
       0.45090792 0.30132544 0.33262527 0.7531027
000170 3e 2b 37 3f 8b d1 ee 3e b3 8b e1 3e dd 78 25 3f
       0.7155036 0.46644244 0.44051895 0.6463755
000180 dd 9d 5d 3e ef 56 05 3f 26 0d 17 3f 28 ca e6 3e
       0.21642251 0.52085775 0.5900444 0.45076108
000190 90 4f a3 3e ef 43 2e 3f eb b0 03 3f 70 4e db 3e
       0.3189664 0.6807241 0.5144183 0.4283328
0001a0 bc d7 04 3f 51 d1 a1 3e 0b f2 44 3f b7 c0 95 3f
       0.51891685 0.31605008 0.7693183 1.1699437
0001b0 60 ad c2 3e 7c 90 97 3f 20 c6 2a 3f 03 03 10 3f
       0.380229 1.1840968 0.66708565 0.56254596
0001c0 d6 91 91 3e 30 8b db 3e a8 e7 d1 3e 8b bf bf 3e
       0.28431576 0.4287963 0.40997052 0.37450823
0001d0 16 ec 0c 3f f2 d6 91 3e 14 3c 78 3f c6 75 4a 3f
       0.5504774 0.28484303 0.9696667 0.7908596
0001e0 31 3b 66 3f 3b a8 dd 3e fd 3c 13 3f 0c 3c 0b 3f
       0.8993407 0.43292412 0.57514936 0.543885
0001f0 d1 ce ff 3e 4b ef 20 3f 51 aa 1b 3f 95 bb e9 3e
       0.49962476 0.6286513 0.6080676 0.45650926

hidden2.weight f4 [128, 128]
000000 d3 1c 9a 3d 5e 37 c6 3a 29 80 82 bd 28 d6 0f 3d
       0.07525029 0.0015122702 -0.06372101 0.035116345
000010 50 9d 20 3d b3 68 88 bc 27 a0 9e 3c 50 42 c3 3c
       0.039212525 -0.016651487 0.019363476 0.023835331
000020 39 c1 b1 3c 91 0c da bc 58 e5 58 bd 32 52 6a 3d
       0.021698581 -0.02661732 -0.052953094 0.057207294
000030 2b fb 66 3c 60 db b4 3d d2 34 6b bd 61 93 cb bc
       0.014097969 0.08830905 -0.05742342 -0.02485055
000040 07 e4 1d bc 85 3b a2 3c 94 af 9d bc 01 56 01 bd
       -0.0096368855 0.019803772 -0.019248761 -0.03157616
000050 b2 11 7b bc a6 a6 6d bd 35 46 17 3c 41 93 ac bd
       -0.015324043 -0.058020256 0.009233047 -0.08426524
000060 be 9e 06 bd 6d 3d 23 3c 74 c3 8c bd ae 58 94 3c
       -0.032866232 0.0099633755 -0.06873217 0.018108692
000070 85 e2 c6 3d 4d aa 56 bc 03 f2 b2 3c ff 57 b2 bd
       0.09711174 -0.013102126 0.021843916 -0.0870819
000080 5d f0 9a 3b 0a 1c de 3c 44 77 19 bc be f3 13 ba
       0.0047283606 0.02711298 -0.009366814 -0.00056439254
000090 9c dd c6 bd 09 02 bf 3c 2e ec e8 bc a4 cc 00 3b
       -0.097102374 0.0233164 -0.028432932 0.0019653225
0000a0 5c 2c 52 3d 16 9a 86 3d 74 0c c4 3a eb 44 a9 3d
       0.051311836 0.06572358 0.0014957325 0.08265098
0000b0 3f b8 09 3c 8e 10 c2 bb 09 43 75 3d e4 2f b1 3d
       0.008405744 -0.0059223836 0.059878383 0.086517125
0000c0 55 8c 95 3d cf 77 89 bd 80 bb 22 bd fa 40 1a 3d
       0.07302157 -0.06712305 -0.039729595 0.037659623
0000d0 59 ce 43 bd da 52 e9 bb 38 6b 36 3d e9 93 56 3c
       -0.04780421 -0.0071204724 0.044535846 0.013096788
0000e0 f0 db f3 3a fd 08 16 3d 7a 24 d6 3c 39 ac b2 bd
       0.0018604975 0.036629666 0.02614044 -0.08724255
0000f0 f3 25 81 3d ab a9 93 3c dd 1f 6f 3d 1b e2 c1 39
       0.06306066 0.01802524 0.058379997 0.0003698029
000100 97 e8 12 3b 3a d4 c0 3c a0 6d f4 bb f8 bf 91 3d
       0.0022416466 0.023538698 -0.0074593574 0.07116693
000110 66 bd a2 bd 62 cf 22 bd b3 dc 8f bd de a6 8c 3a
       -0.07946281 -0.039748557 -0.07024517 0.0010730883
000120 3e f1 73 bd 26 fe 8a 3d 33 18 f8 bc 0d 0c 6a 3d
       -0.05955624 0.06786756 -0.030284977 0.0571404
000130 7d e7 d7 3d f7 5a 66 bd 6c 21 3c bd c2 e4 18 bd
       0.105422 -0.056239095 -0.04593031 -0.037327535
000140 22 8f 2f bd d3 2f ac 3d f1 60 52 3d 5e 93 02 bc
       -0.04286111 0.08407559 0.05136198 -0.007969705
000150 bc b8 85 bd b0 0b 1b 3d bb e6 aa 3d 4e 63 82 3b
       -0.06529376 0.037852943 0.083447896 0.003979123
000160 4b c6 37 bc f2 8c 44 bd f4 66 c3 bd bc 05 39 3d
       -0.01121671 -0.04798598 -0.09541121 0.045171484
000170 94 c5 63 3d ad d1 88 3d 9a 61 bd 3d 3f eb 9d 3c
       0.055608347 0.066806175 0.09247132 0.019277213
000180 d5 c9 3f bb ca 7b 97 3c 54 aa 96 bc e5 c3 95 bc
       -0.0029264588 0.018491644 -0.018391766 -0.018281886
000190 fd 1d 43 b9 7a 65 a6 3c bd 14 7d bd c0 97 99 bd
       -0.0001860782 0.02031206 -0.061787356 -0.07499647
0001a0 e5 87 fb bd 27 0b f8 bb 44 59 0e 3c 3d 1c 79 3d
       -0.12281779 -0.007569689 0.008688275 0.060817946
0001b0 7f fa 3e bd 8d 30 90 bc 9a 00 32 3d 2e 40 1e 3d
       -0.04662561 -0.017601276 0.043457605 0.038635425
0001c0 f7 07 0b bd 60 93 8c bd da 64 8e bd dd bf 25 37
       -0.033943143 -0.06864047 -0.0695283 9.879438e-06
0001d0 88 04 03 3c 6f 67 58 3d d1 71 d8 3c c7 a6 68 3d
       0.007996686 0.052833017 0.02642146 0.056799676
0001e0 6b 4c 15 bd 70 e6 d2 3b e2 37 07 bd 79 10 aa 3d
       -0.03644983 0.0064361617 -0.03301228 0.08303923
0001f0 25 e4 51 bc ad 27 58 3d 96 18 57 3d e9 cd 18 3c
       -0.012810742 0.052772213 0.05251368 0.009326437
000200 b4 48 ef 3c 69 75 0c bc f7 72 a7 3c 76 1d 93 3d
       0.029209472 -0.008572915 0.020440562 0.071833536
000210 ec f9 35 bc c3 be a1 3d 01 91 5f bd 25 bd 79 bc
       -0.011106949 0.07897713 -0.054581646 -0.0152428495
000220 c6 9d 15 3c f6 dd ee 3b 1c 80 de 3d 7f 7a c5 bd
       0.009131854 0.0072896434 0.10864279 -0.09642505
000230 96 62 6b bd 27 91 5e bb 68 ac 0c 3d e3 3e d2 bc
       -0.057467066 -0.003396103 0.034344107 -0.025664752
000240 ec 97 b4 bb 63 59 86 bd 59 dd bb bd 22 aa f6 bc
       -0.0055112746 -0.06560018 -0.09173078 -0.030110423
000250 1a a7 52 3b 13 97 a3 3d 30 2d db bc e3 e4 aa bd
       0.0032143057 0.079877995 -0.026754946 -0.08344438
000260 3a 36 05 3d 04 c4 a0 3d 35 01 2f 3b da 71 9b 3d
       0.032522418 0.07849887 0.00267036 0.07590075
000270 63 41 05 3d 1e ea 94 bb c9 ee 7a bd d7 28 e0 3c
       0.03253306 -0.0045445105 -0.06126288 0.027363224
000280 72 0a 80 3d f5 ca 4e bd f1 31 74 3d aa d8 aa 3b
       0.06251992 -0.050486524 0.05961794 0.0052138167
000290 e2 c2 34 bd e1 13 56 3c b6 26 a8 bc 96 7b 40 bd
       -0.044131167 0.013066263 -0.020526271 -0.04699286
0002a0 dc 67 35 3d 79 c5 b3 3d 51 79 8d bc 4c 18 7f bd
       0.0442885 0.08777899 -0.017269762 -0.06227903
0002b0 ad ce 46 bd 77 11 88 bd 6f 00 8f bd 38 ab 21 bd
       -0.048536945 -0.06643956 -0.069825046 -0.039469928
0002c0 88 88 50 bd 0a f4 c9 bc d4 ac 48 3d b5 73 61 bd
       -0.050911456 -0.0246525 0.048992947 -0.055041987
0002d0 14 80 9a 3c 74 19 3f bc 40 45 8b bd 49 59 39 bd
       0.0188599 -0.011663783 -0.06800318 -0.045251165
0002e0 83 c1 43 bd 96 2d b4 3c 05 7f 86 3d ad 78 68 bd
       -0.04779197 0.021994393 0.06567196 -0.05675571
0002f0 94 51 1a 3a 3a dd b5 bd 0c d9 d1 3d 1b 73 13 3d
       0.000588679 -0.08880086 0.102464765 0.035998445
000300 de 4c 12 3d be 4d 99 bd a0 30 86 3c 93 47 9a 3d
       0.035717838 -0.07485531 0.016380608 0.07533183
000310 80 3d b7 bc e1 6c 0f 3d cb 4b a0 3b d7 ba 2c bc
       -0.022368193 0.035015944 0.0048918477 -0.010542593
000320 0b 51 1c bd 6f 62 83 3c 09 b6 10 3d 2d a3 af bb
       -0.038163226 0.016038148 0.035329852 -0.0053600282
000330 a3 e0 e9 bc 93 ea c5 bd 47 29 1c bd fc c0 20 bd
       -0.028549498 -0.09663882 -0.038125303 -0.039246544
000340 28 df 8b bd 81 dd a5 bd 45 b9 62 bd 34 86 f7 bc
       -0.06829673 -0.08098889 -0.055352468 -0.03021536
000350 13 a9 0f 3d 28 35 31 3d f1 3d 84 bd dc a0 56 3d
       0.03507335 0.043263584 -0.06457127 0.0523995
000360 1a ec 0c bc cd 62 af 3d 9c d2 3b 3d 8e 14 f6 3c
       -0.008601213 0.08563767 0.04585515 0.030039098
000370 c1 dc 79 3d 37 a1 64 bc 2b 40 40 3c 19 06 8c bd
       0.061001543 -0.013954452 0.011734049 -0.068371005
000380 bf a9 81 bd 5f e5 46 3b ac db 40 3d 04 1a 4f 3c
       -0.063312046 0.0030349118 0.047084495 0.01264048
000390 d5 62 9e bd 98 fc 36 bd bf 6b fa bc b1 3e 2c 3c
       -0.077336945 -0.044674486 -0.030568955 0.010512994
0003a0 d8 79 5a 3c e5 56 2a 3d 33 a0 a6 bd 58 a8 51 3d
       0.013334714 0.041586775 -0.08136024 0.051185936
0003b0 af 8a c9 bd d5 46 26 bd 84 5f 0a 3d 21 84 80 bd
       -0.09840905 -0.040594894 0.033782497 -0.062752016
0003c0 55 9a 6f bd 5c a0 c8 3d be a6 47 bd b2 e2 60 3c
       -0.058496792 0.09796211 -0.048743002 0.013725923
0003d0 2b d7 af bd 84 c9 de bd f8 b7 35 bd c9 20 b4 3d
       -0.08585962 -0.1087828 -0.0443649 0.08795316
0003e0 8b b9 67 bd 04 f4 5f 3d 68 f6 01 bc 56 b6 c2 3b
       -0.056573432 0.05467607 -0.007932283 0.0059421463
0003f0 fe 76 56 3d 2c 0e f7 3c f1 e7 9c 3d 41 e4 03 3d
       0.052359574 0.030158125 0.07661427 0.0322001

bn2.weight f4 [128]
000000 47 4f 80 3f 41 3e 7f 3f 83 6f 7f 3f 16 b8 7c 3f
       1.0024194 0.99704367 0.9977953 0.9871839
000010 f6 d4 7e 3f a5 91 7f 3f db 05 7f 3f d7 66 7c 3f
       0.995437 0.9983161 0.9961831 0.9859442
000020 8f 1a 80 3f 84 44 7e 3f 39 13 80 3f 9f 2b 7f 3f
       1.0008105 0.99323297 1.0005866 0.99675936
000030 17 d8 7f 3f 57 d9 7f 3f 62 17 7f 3f a9 48 7e 3f
       0.999391 0.9994101 0.99645054 0.9932962
000040 1e 18 7e 3f 0f 1c 7e 3f 6c d0 7f 3f 1c 96 7f 3f
       0.9925555 0.99261564 0.999274 0.99838424
000050 45 84 7f 3f b3 c9 7d 3f 0e dc 7d 3f 00 1d 80 3f
       0.998112 0.99135894 0.991639 1.000885
000060 7c ac 7c 3f 48 e4 80 3f 9e 21 7f 3f 60 4e 80 3f
       0.9870069 1.0069666 0.9966067 1.0023918
000070 80 ba 7e 3f 97 24 80 3f e5 5e 7f 3f 2d ad 7d 3f
       0.99503326 1.0011166 0.9975417 0.9909237
000080 51 14 7f 3f 2c 9f 7c 3f 70 81 7b 3f 32 91 7e 3f
       0.99640375 0.98680377 0.9824438 0.994403
000090 6b 5f 7f 3f 84 ba 7f 3f 33 9e 7d 3f e2 ff 7c 3f
       0.9975497 0.99893975 0.9906952 0.98827946
0000a0 0b 1c 80 3f c3 5a 7e 3f 5e 75 7e 3f 7d 6e 7e 3f
       1.0008558 0.9935724 0.9939784 0.9938734
0000b0 3d 3f 7d 3f be 3c 7f 3f c4 23 80 3f 82 66 7c 3f
       0.9892462 0.9970206 1.0010915 0.98593915
0000c0 be f9 7e 3f 47 c1 80 3f 55 01 7f 3f 82 ea 7d 3f
       0.99599826 1.0058984 0.9961141 0.99185956
0000d0 ba 79 7f 3f f6 c9 7f 3f b0 8e 7d 3f db ec 7c 3f
       0.99795115 0.9991754 0.9904585 0.9879891
0000e0 e7 c9 7e 3f f1 2c 7a 3f 76 8d 7d 3f e4 c2 7d 3f
       0.9952683 0.97724825 0.9904398 0.99125504
0000f0 0c eb 7e 3f d7 19 80 3f 01 d1 7e 3f 85 ce 7d 3f
       0.99577403 1.0007886 0.99537665 0.9914325
000100 8f df 80 3f 6a 6d 80 3f d0 ec 7e 3f b2 d4 7e 3f
       1.0068225 1.003339 0.995801 0.995433
000110 a6 a6 80 3f 24 06 7d 3f 24 7c 80 3f 9e 60 80 3f
       1.0050857 0.98837495 1.0037885 1.0029485
000120 c6 5d 80 3f 80 1f 7e 3f 4f 2c 7f 3f 83 35 7f 3f
       1.0028617 0.99266815 0.99676985 0.9969103
000130 ea 0b 80 3f 74 ec 7d 3f 9d 63 7c 3f d9 8b 7c 3f
       1.0003636 0.99188924 0.985895 0.9865089
000140 20 ea 7b 3f ef 08 7d 3f 30 dd 7e 3f f7 0c 80 3f
       0.9840412 0.98841757 0.99556255 1.0003957
000150 20 b3 7d 3f 9b c8 7f 3f 49 2f 7e 3f 62 20 7d 3f
       0.9910145 0.99915475 0.992909 0.9887754
000160 1d 80 7c 3f 59 8e 7d 3f 7d e5 7e 3f 2f d0 7f 3f
       0.98632985 0.9904533 0.9956892 0.9992704
000170 49 52 7f 3f 7e f3 7d 3f 44 fe 7d 3f 9c 7a 7d 3f
       0.9973493 0.99199665 0.99216104 0.9901521
000180 91 17 80 3f 06 97 7d 3f ce 4a 7e 3f 2f 51 81 3f
       1.0007192 0.9905857 0.9933289 1.01029
000190 0b 06 7d 3f 3e c4 7c 3f e9 77 7c 3f 59 ca 7f 3f
       0.98837346 0.9873694 0.9862047 0.99918133
0001a0 3b 0a 80 3f b4 fb 7f 3f 13 94 7f 3f 86 8f 80 3f
       1.0003122 0.99993443 0.9983532 1.00438
0001b0 bd fb 7e 3f d9 66 7e 3f ad 21 80 3f 89 98 7c 3f
       0.9960287 0.99375683 1.0010277 0.9867025
0001c0 b8 84 7f 3f 38 9b 81 3f 1b 09 80 3f 07 29 7e 3f
       0.9981189 1.0125494 1.0002779 0.9928135
0001d0 db 62 80 3f 0c 2a 7f 3f 46 d0 7d 3f e8 15 81 3f
       1.0030168 0.99673533 0.99145925 1.008481
0001e0 f1 bf 7e 3f 59 e8 7f 3f 9d 70 7f 3f f4 2a 7a 3f
       0.9951163 0.9996391 0.9978121 0.9772179
0001f0 8e d6 80 3f c5 24 81 3f d3 44 80 3f 45 ce 7b 3f
       1.0065477 1.0089346 1.0021003 0.9836162

bn2.bias f4 [128]
000000 4a 2b d5 3b 88 e0 5b bd ee 4f ec bc f2 1c 92 3d
       0.0065054046 -0.053680927 -0.028846707 0.07134427
000010 5b 2c b1 3c 32 eb 44 3d fb 0f c1 bc c3 ce 3b bd
       0.021627596 0.048075862 -0.02356719 -0.04585148
000020 6a c1 d7 bc 31 d7 3a 3d ea 20 7a 3c f9 15 3c 3d
       -0.026337344 0.04561538 0.015266636 0.045919392
000030 f6 29 0e 3d b6 05 76 3d d2 50 f9 3c 79 63 c5 bc
       0.034707986 0.06006404 0.030434046 -0.024095284
000040 46 75 4d bd a7 cf 33 3d 95 65 f1 bc d2 9f 69 bd
       -0.05016067 0.043899205 -0.029467383 -0.057037182
000050 83 d0 b4 3c 48 15 a2 bc 00 86 fb bc c6 e8 03 bd
       0.022072082 -0.019785538 -0.030703545 -0.032204412
000060 90 4c 1c 3d e6 e9 15 bd 6d 6b 87 bd b0 68 0b bd
       0.038158953 -0.036600016 -0.06612287 -0.034035385
000070 1e 61 f0 bc 67 d1 a2 bc be 20 d0 3c 52 e0 5f bd
       -0.029343184 -0.019875241 0.025406238 -0.054657288
000080 76 15 0d 3d 3b b2 24 3d e1 23 4f 3d 6d 0f f3 bc
       0.034444295 0.040209036 0.050571326 -0.029670442
000090 05 8a 64 3d 18 ee a7 bc 98 c6 8f 3d 40 31 38 3d
       0.05579569 -0.020499274 0.070203006 0.044968843
0000a0 b8 60 e3 3c df 97 21 bd d2 9f d8 3c fc 7f b2 bc
       0.02775608 -0.039451476 0.026443396 -0.021789543
0000b0 99 32 1b 3d 50 26 e2 3c 40 d8 46 bc 01 30 0a 3d
       0.03789005 0.02760616 -0.012136519 0.033737186
0000c0 4b f8 22 bd 6a 25 1f bd 18 28 9a 3c 60 c2 10 bd
       -0.039787572 -0.03885404 0.018817946 -0.03534162
0000d0 7a 86 8d 3b c8 17 ee bc 7f f1 22 bd c6 07 64 bd
       0.0043190094 -0.029064074 -0.03978109 -0.055671476
0000e0 ff ed 24 3d 7f 59 46 3d 09 5e 9a 3d c2 c8 2d 3d
       0.040266033 0.048425194 0.07537467 0.042427786
0000f0 95 c0 b3 bc d6 3c 54 bd 2a 66 30 bd 15 b5 5d 3d
       -0.021942416 -0.05181583 -0.04306618 0.05412777
000100 8e 49 84 bd db 5e 3c bd f1 b4 d9 bc a0 7a 0c bd
       -0.06459342 -0.0459889 -0.026575537 -0.03429663
000110 aa d5 91 bd 38 b3 18 bd e3 80 12 bd ed 7f cb bc
       -0.07120831 -0.03728029 -0.035767447 -0.024841273
000120 bd 50 e6 bc 3d c0 ce 3c 16 f1 01 bc 6e 7a 3c 3d
       -0.02811467 0.02523815 -0.0079310145 0.046015196
000130 37 50 ae bc 61 35 9b bd 48 17 79 3d 50 e6 56 bd
       -0.021278484 -0.075785406 0.06081322 -0.052465737
000140 4a f7 7e bd 65 35 41 3d 34 73 ef bc e6 63 04 bd
       -0.062247552 0.04717006 -0.029229738 -0.032321833
000150 fa ec 4b bd 7a 4b ec 3a a2 55 fc bc 6e 96 6f 3d
       -0.049786545 0.0018027865 -0.030802552 0.05849307
000160 43 3b 47 bd 14 60 50 bd cd 04 ef 3c ab f3 59 bd
       -0.0486405 -0.050872877 0.029177094 -0.053210896
000170 1b e6 d6 3c e0 fd 6f 3d 6e 8f 03 3d d9 43 4f 3d
       0.02623277 0.058591723 0.032119207 0.050601814
000180 7a c3 a9 bc 69 87 d8 3c 12 a1 25 3d 82 25 e2 3c
       -0.020723093 0.026431756 0.04043681 0.027605776
000190 55 8b 19 3d 58 f8 7c bd e2 0f 5d bd be a8 b5 bc
       0.037486393 -0.061760277 -0.053970225 -0.02217519
0001a0 c3 fb 24 3c a4 7f 6e 3c ee ae b3 bc a8 99 1a 3d
       0.01006979 0.014556799 -0.021933999 0.037744194
0001b0 11 ff 17 bd c2 04 fd 3c d5 67 d8 3b 85 cf 24 bd
       -0.037108485 0.030886058 0.0066041746 -0.04023697
0001c0 ff e8 33 3a 77 03 54 bd 73 54 e5 bc c2 09 34 3d
       0.0006863027 -0.051761117 -0.02799437 0.04395462
0001d0 19 e4 1b 3d e9 6a 36 3d df fb fc 3c eb 64 26 bd
       0.038059328 0.04453555 0.03088182 -0.040623587
0001e0 e3 ef 7e bd 81 f2 24 bd 74 8b 18 3d 13 87 8f bd
       -0.062240493 -0.040270332 0.037242368 -0.07008185
0001f0 ba 5c 09 3d 54 06 29 3d 53 34 81 bc aa 86 a5 bd
       0.033535697 0.0412658 -0.01577202 -0.08082326

bn2.running_mean f4 [128]
000000 36 32 af 3d 16 7c 55 bd a9 9c c7 bd d5 8c e9 3d
       0.08554499 -0.05212029 -0.097466774 0.11403815
000010 48 da 17 3d da 9e c1 3d e1 47 d3 bd 32 b0 9e bd
       0.037073404 0.09454127 -0.10316444 -0.0774845
000020 e6 ce 2f bd c7 1d 48 3d a5 63 da 3c f6 5e 00 3e
       -0.042921923 0.048856523 0.026658842 0.12536225
000030 9b 30 ec 3c af d3 ec 3d 4e 0d d4 3d a7 2c 91 bd
       0.02883177 0.11563813 0.103541 -0.07088595
000040 21 11 82 bd 38 95 93 3d 06 c6 94 bd 2d 10 a6 bd
       -0.06350923 0.072061956 -0.072643325 -0.08108554
000050 b0 b4 76 3d 8c ad 99 bc e8 d8 b2 bd 88 3b 97 bd
       0.06023091 -0.018759511 -0.08732778 -0.073844016
000060 6f 79 81 3d e4 42 40 bd 56 43 b1 bd 45 5c 48 bd
       0.0632199 -0.046938792 -0.086554214 -0.04891612
000070 8d 8c e3 bd c2 81 78 bd 2b b2 57 3d a9 13 ff bd
       -0.11110792 -0.06067062 0.05266015 -0.12454922
000080 5a 3d 9d 3d a3 00 36 3d 88 1d 26 3d af c1 9c bc
       0.076777175 0.0444342 0.040555507 -0.019135324
000090 ba 05 f3 3d 0b 07 6c 3b c3 a8 1b 3e 5e 26 3d 3d
       0.11866327 0.003601494 0.15201096 0.046179168
0000a0 17 f0 b9 3d 61 93 8f bd bf c8 9f 3d 9b 44 d3 bd
       0.09078997 -0.07010532 0.07801961 -0.1031582
0000b0 97 c8 c3 3d 5a b8 06 3e 6a 44 ac bd ea 31 89 3d
       0.09559744 0.13156262 -0.084114864 0.066989735
0000c0 dc c6 55 3c 50 79 ce bd 51 a8 c4 3d f3 39 e7 bc
       0.0130479 -0.10081732 0.09602416 -0.028225875
0000d0 1f b7 c3 3c 65 79 0c be b8 f3 27 bd f7 3e 40 bd
       0.02389103 -0.13718183 -0.041003913 -0.046935048
0000e0 5b 69 2b 3c c0 c9 96 3d 1a 0b ea 3b 9b dc e3 3d
       0.01046213 0.073626995 0.0071424367 0.111260615
0000f0 c9 c9 08 bd 2a 54 f8 bc 39 18 8d bd 8b b5 ba 3d
       -0.033395562 -0.03031357 -0.06889386 0.09116658
000100 82 bc 0f be ed 2e c5 bd 76 07 ea bd 66 ff 2a bc
       -0.14036754 -0.09628091 -0.11427204 -0.010436868
000110 38 35 3b bd 99 02 9e bd 93 c0 9b bd 36 0c fc bd
       -0.04570505 -0.07715339 -0.0760509 -0.123070166
000120 f2 2d bc bc 11 44 31 3d 87 54 af bd 1a 1c 1f 3e
       -0.022971127 0.043277804 -0.08561044 0.15538064
000130 70 1a 94 38 44 3b f0 bd 30 77 19 3d c8 bf 79 bd
       7.062114e-05 -0.11730054 0.03746718 -0.060973912
000140 98 22 fa bd 1d 83 7f 3d fd 38 a9 bd 81 64 b5 bd
       -0.122136295 0.0623809 -0.08262823 -0.0885706
000150 ae 9c a3 bd 2b 17 1a bd 1a 34 4e bd 98 4d d5 38
       -0.07988869 -0.03761975 -0.050342657 0.000101710844
000160 74 1c c3 bd 2b 52 2d bd 34 4d 66 3d 68 96 86 bd
       -0.095269114 -0.04231469 0.05622597 -0.065716565
000170 37 76 aa 3d 0b 82 11 3e ec 5e 17 3d 1c d3 f1 3d
       0.08323329 0.14209764 0.03695576 0.11807844
000180 30 3d f5 bd e2 a1 95 3d 61 00 02 3d 6b ec c0 3c
       -0.11974561 0.07306267 0.031738643 0.023550233
000190 3c bd ba 3d ae 0e d9 bd 0e 6c e9 bc 29 cb 9c bd
       0.09118125 -0.10598503 -0.028493907 -0.07655937
0001a0 98 e8 ff 3d f0 ba 3e 3d d4 ba 9f bd ec f9 81 3d
       0.124955356 0.046564996 -0.077993065 0.06346497
0001b0 4d d9 40 bd 27 a7 d6 3d 22 97 d9 3b ae 2f 59 bd
       -0.047082234 0.104811005 0.006640331 -0.053023987
0001c0 2f 98 e1 3c 24 1a cf bd 52 ab 88 bb 61 4d e7 3d
       0.027538387 -0.10112408 -0.0041708136 0.11294056
0001d0 33 11 a7 3d 58 f8 96 3d 44 b3 93 3d 09 25 4c bd
       0.08157577 0.073715866 0.072119266 -0.049840007
0001e0 74 dd 1d bd 2f 6d 17 bd 67 03 ec 3c cc 80 6a bd
       -0.038541272 -0.03696936 0.028810216 -0.057251737
0001f0 7e e3 d1 3d 43 b8 90 3d 88 45 af bd be 3d dd bd
       0.10248469 0.07066395 -0.08558184 -0.10802792

bn2.running_var f4 [128]
000000 26 06 b1 3e 38 39 d5 3e 9b 05 bd 3e d5 63 c6 3e
       0.34575003 0.41645217 0.3691834 0.3874804
000010 c0 27 8c 3e 69 95 f1 3e 1a df 65 3e c1 ae b0 3e
       0.27374077 0.47184303 0.22448388 0.34508327
000020 42 a4 a6 3e 74 48 ae 3e 01 9f 53 3e c9 1a a4 3e
       0.32547194 0.34039652 0.20666124 0.32051685
000030 27 a2 42 3e 91 4a f2 3e 4e de a3 3e 78 c3 9d 3e
       0.19007169 0.47322515 0.32005543 0.30813193
000040 6a f2 78 3e ae 4b c9 3e eb 63 ac 3e e1 8b 04 3f
       0.24311224 0.39315552 0.3366998 0.5177594
000050 c0 f3 77 3e 40 07 5e 3e d0 01 70 3e 48 16 c8 3e
       0.24214077 0.21682453 0.23438191 0.390795
000060 63 30 9f 3e 17 ef be 3e 6d 33 e0 3e ce 65 af 3e
       0.31091604 0.37291786 0.43789235 0.34257358
000070 cf fc c8 3e fc f1 96 3e bc 02 87 3e 5e f9 dc 3e
       0.39255378 0.29481494 0.26369274 0.43159002
000080 ea da ff 3e 90 ed a2 3e 10 39 aa 3e 8b 20 a7 3e
       0.49971706 0.3182187 0.3324666 0.32642016
000090 02 9e 09 3f ea 26 63 3e 94 57 c3 3e 19 75 de 3e
       0.53756726 0.22182813 0.38152754 0.43448713
0000a0 c9 c4 8c 3e a1 59 a3 3e 18 0b a9 3e a4 3f 9a 3e
       0.27493885 0.3190432 0.33016276 0.3012668
0000b0 7b 5e a8 3e a4 b0 cb 3e 86 4a b7 3e fb 70 96 3e
       0.32884583 0.39783204 0.35799044 0.29383072
0000c0 07 9c c1 3e 7b 19 d8 3e 52 d6 bf 3e 3d 4e 8f 3e
       0.37814352 0.4220694 0.374682 0.2798938
0000d0 d9 6e 65 3e 40 91 b8 3e e7 9c a9 3e 9d 41 a8 3e
       0.22405566 0.36048317 0.3312752 0.3286256
0000e0 8e 9a cb 3e 7e e6 90 3e 4d 82 a3 3e 74 78 9b 3e
       0.39766353 0.28300852 0.3193535 0.30365336
0000f0 e8 c2 93 3e 97 c9 c9 3e da a7 ac 3e 82 55 a9 3e
       0.2885964 0.39411613 0.3372181 0.3307305
000100 45 38 00 3f 2c e4 e5 3e 71 b5 97 3e 30 6a b6 3e
       0.5008586 0.44900644 0.29630616 0.3562789
000110 a6 6b f8 3e 8f c4 89 3e 4b 2e cc 3e 80 e1 b9 3e
       0.4851963 0.26907775 0.3987907 0.36304855
000120 8e f9 98 3e e2 91 9a 3e 4d b3 8d 3e d6 d1 fe 3e
       0.29877895 0.30189425 0.27675858 0.49769467
000130 f3 a6 9f 3e 37 cf 0e 3f ff 53 9a 3e 2a 58 b2 3e
       0.3118206 0.55784935 0.3014221 0.3483289
000140 b1 25 07 3f 3f 1b 8a 3e 7b 5d 9d 3e 2a da a1 3e
       0.5279189 0.26973912 0.30735382 0.31611758
000150 f9 30 a9 3e bd 24 87 3e b8 7e d1 3e da 4b b2 3e
       0.33045176 0.26395217 0.4091699 0.34823495
000160 6c 38 b9 3e 16 66 da 3e 25 aa 96 3e 41 d5 b4 3e
       0.3617586 0.4265601 0.29426685 0.3531895
000170 46 6a b8 3e 8e 3b f6 3e 05 e5 a2 3e b5 d1 ea 3e
       0.3601858 0.48092312 0.31815353 0.4586312
000180 59 f1 b5 3e f2 70 ba 3e 62 19 d0 3e 16 4a b1 3e
       0.35535696 0.36414295 0.40644366 0.34626836
000190 e6 ec 85 3e 66 a5 f4 3e 4f 74 bb 3e 6a 12 b4 3e
       0.26157302 0.4778244 0.36612174 0.351703
0001a0 b7 fc cb 3e 20 bb 5b 3e df a8 72 3e 6d 60 ce 3e
       0.39841244 0.21458101 0.23697232 0.40307942
0001b0 9b 53 d6 3e 2e a3 c5 3e 59 2a 4c 3e f8 98 8d 3e
       0.4186066 0.3860106 0.1993803 0.27655768
0001c0 87 9a 81 3e f6 4c be 3e e5 5c 8a 3e 12 d2 99 3e
       0.25313208 0.37168092 0.27023998 0.30043083
0001d0 48 87 c7 3e b4 27 92 3e 25 ea ab 3e d6 40 a7 3e
       0.389704 0.28545916 0.33577076 0.32666653
0001e0 8d d1 e6 3e 93 0d af 3e 61 aa b8 3e eb b8 f0 3e
       0.4508175 0.34190044 0.3606749 0.4701608
0001f0 84 e9 ca 3e fd 7f c3 3e 62 e1 bc 3e 92 55 e5 3e
       0.39631283 0.38183585 0.36890703 0.44791847

hidden3.weight f4 [16, 128]
000000 e4 ef d8 bd 4e e8 be bd 2b b8 0d bd 96 25 22 bd
       -0.105926305 -0.09321652 -0.034599464 -0.039586626
000010 c2 d1 87 3d ba ea 4d bd 4e 0f 0b bd 22 d2 3c 3d
       0.06631805 -0.05027268 -0.033950143 0.046098836
000020 ba dd a0 bd 84 98 50 3d 79 e8 ae bd 3f b8 7c bd
       -0.07854791 0.0509267 -0.085404344 -0.06169915
000030 d6 d4 70 bd c5 7c ed bc 1c 7a 8b 3d b2 48 8e 3c
       -0.058796726 -0.028990159 0.068104 0.017368648
000040 c6 2b 82 3c cf e2 a2 3d c9 18 95 bd b1 33 da bc
       0.015890013 0.079534166 -0.07280118 -0.026635977
000050 97 70 2e 3d 4f a1 d1 3c 79 63 43 bd 6e 7f 89 3d
       0.042587843 0.025589613 -0.047702286 0.067137584
000060 df 6d 8e bd 9d 7f 2c 3d 23 a2 49 3d 37 f4 86 3d
       -0.0695455 0.04211389 0.04922689 0.06589549
000070 32 79 7b 3d 3c 2d 1c bd 53 c4 07 bd 8d 3d 44 bd
       0.061394878 -0.038129076 -0.033146214 -0.047910262
000080 f5 4c 3a 3c 9b c0 d1 3c 2f fd ec 3c 4a bd 3c bd
       0.011370887 0.025604537 0.028929321 -0.046078958
000090 5b 3c 2b bd ac 54 42 bb 20 c1 23 3c 8d db e2 3d
       -0.041805606 -0.002965252 0.009994775 0.11077032
0000a0 d0 2e 42 3c 2a 98 c9 bb 0d ca ba bd 98 ef 0d 3d
       0.011851981 -0.0061521726 -0.091205694 0.034652323
0000b0 3d 54 93 bb ff dc dc bc ac 24 91 3d a9 e4 04 bd
       -0.004496126 -0.026960848 0.07087073 -0.03244463
0000c0 15 07 17 bd 54 54 34 3b d7 ec 5e 3d 70 b0 1f 3b
       -0.03687199 0.0027516084 0.054425087 0.002436664
0000d0 14 87 27 3d f3 88 96 3d 65 c4 1a 3c a0 d1 99 3c
       0.040900305 0.0735034 0.009446238 0.018776715
0000e0 0b fd 36 bd 1f 8c b4 bc 2c 33 90 bd f7 fe ff 3a
       -0.044674914 -0.022039471 -0.0704101 0.0019530941
0000f0 3f a7 24 bd c8 39 fc bc 55 43 97 bd 1e 59 29 3c
       -0.04019856 -0.030789271 -0.073858894 0.010336189
000100 95 3b 7e 3d d3 95 81 bd 6f 74 7a 3d b6 9d 8a bd
       0.06206854 -0.06327405 0.061146196 -0.06768362
000110 44 9e 63 bd ee 24 7c 3d cf ee 6a bc 6a ce 85 bd
       -0.055570856 0.061558656 -0.014339163 -0.06533511
000120 76 c1 8d 3d 31 ff 08 bc 7e 45 59 bd e8 73 21 3d
       0.06921665 -0.008361624 -0.05304479 0.039417177
000130 0f 6a e5 bd f8 26 0d b9 e7 9a a3 bc 99 6a 07 bc
       -0.1120187 -0.00013461325 -0.019971324 -0.008265161
000140 4c b6 5a 3d 82 c3 2b bd 2f 79 28 3d a1 e4 2c 3c
       0.053396508 -0.041934498 0.041131195 0.010552556
000150 97 2e 73 bd b7 8e 7e 3d 76 b6 9d bd ae 84 ba 3b
       -0.059370603 0.062147822 -0.07700817 0.005692086
000160 6d 49 62 3d 46 c9 5f bd 59 a1 9c bd 1d da 02 3d
       0.055245806 -0.05463531 -0.07647962 0.03194629
000170 ac 48 9d bb cc be d7 3c 6c 88 d7 3c e9 0f aa bd
       -0.004799923 0.026336096 0.026310168 -0.08303816
000180 c6 89 b0 3d 30 4e 37 bc fe 81 4b bd af e3 74 bd
       0.08620028 -0.011188075 -0.049684517 -0.05978745
000190 e4 2e 61 bd 4d 32 85 bd 96 ac 8e bd 17 f4 6b 3d
       -0.05497636 -0.06503735 -0.06966512 0.05760583
0001a0 9e b7 df 3c 32 c2 04 3d 9b 5e 15 bb 6a 5f 29 3d
       0.027309235 0.03241176 -0.0022791985 0.04135076
0001b0 82 af 28 bd cb ec 9d bd 61 ce a1 bc 85 8b 81 bc
       -0.041183002 -0.0771118 -0.01975173 -0.015813598
0001c0 7c c6 28 bd 39 b7 fc bc 91 cf ee 39 b3 61 4f bd
       -0.041204914 -0.030849086 0.00045549546 -0.050630283
0001d0 95 94 0b bc dc 1d 28 3c 10 57 96 bd cf b6 d6 3d
       -0.008519311 0.010261025 -0.073408246 0.10484087
0001e0 63 ab ca 3c 18 ec 8d 3b 99 5e 90 bd 18 db eb bb
       0.024739927 0.004331123 -0.07049293 -0.007197749
0001f0 76 ed 36 bd 72 a4 de bc 8e 45 ed 3b 18 40 ed 3c
       -0.044660054 -0.027178023 0.0072409576 0.028961226
000200 75 bf 00 3d 35 45 f7 bb f6 6f a0 3d b3 3e a2 bd
       0.031432588 -0.007546092 0.07833855 -0.07922115
000210 42 6c e2 ba de 43 d8 bd b0 bb 11 3d fa 30 f6 3b
       -0.0017274695 -0.1055982 0.035579383 0.0075131627
000220 94 69 a1 bb 41 ac ad bc b3 e2 97 bc 8b 5d 1d 3d
       -0.004925916 -0.021200301 -0.018540716 0.038419288
000230 25 a8 ac bd 48 53 11 bd 7d 78 6d bd 5c f8 85 3c
       -0.084305085 -0.035479814 -0.057976235 0.016353779
000240 ac 18 fd 3c 71 8d 38 bd 63 fb fd 3c 7e dc a4 3b
       0.030895554 -0.045056764 0.03100366 0.0050311675
000250 14 46 b0 bd a2 03 86 3c c1 78 58 3d b5 b9 4a bd
       -0.08607116 0.016359154 0.052849535 -0.04949351
000260 ea 35 ac bc b5 b7 dd 3d d8 53 62 3d a7 05 58 3d
       -0.021021802 0.10826055 0.05525574 0.052739765
000270 e3 7b be bb 2f ff 3f 3d ef dd 3d 3c f2 1d a8 bd
       -0.0058131083 0.04687422 0.011588558 -0.082088366
000280 f9 95 a6 bd de 9c d6 bd 14 bf f6 bd 78 90 8c 3d
       -0.08134074 -0.10479139 -0.12048164 0.06863493
000290 1c ce 8e bd 4a c7 26 3c 8d 1b 2e 3d db a4 8c bd
       -0.06972906 0.01017935 0.042506743 -0.06867381
0002a0 5a e4 64 3c 06 8f 92 bd c2 7d 5e 3d eb 96 44 3c
       0.013970459 -0.07156186 0.05431915 0.011998872
0002b0 f4 fb 98 3d c3 8d a4 3c a2 1b 36 3c 4b 8a 82 bd
       0.07469931 0.020087129 0.011114987 -0.063740335
0002c0 e1 b6 9e 3d f4 53 41 bd 0a 52 99 bd ee bf 8b 3d
       0.07749725 -0.047199205 -0.07486351 0.06823717
0002d0 97 6a 0d bd fd c0 05 bc 2e 99 8b 3c 46 7d 1d bd
       -0.03452548 -0.008163688 0.017040815 -0.03844955
0002e0 49 b0 05 bd 04 6a ae 3c dc b0 f5 3d 01 59 55 3c
       -0.03263882 0.021290787 0.11996624 0.0130217085
0002f0 7f 7c 97 bb 65 f4 8e bc 3a ca e2 3d 8e 16 9c bd
       -0.0046229954 -0.01745052 0.11073728 -0.076214895
000300 57 bc 50 bd a6 f9 9a 3d 63 9a 7e bd 56 8e 8b 3d
       -0.050960865 0.07567148 -0.062158953 0.06814258
000310 97 df 24 3e 31 82 d8 bb db 5f c3 bc 31 ce 6f 3c
       0.16100918 -0.006607317 -0.023849418 0.014636562
000320 08 62 af bd 8d 0c 47 bd 13 5c 09 3d 70 98 1d 3c
       -0.0856362 -0.048595954 0.033535074 0.009618863
000330 ad ed 70 3d be 99 a8 bc 47 0d 6c bd 35 5c 35 bd
       0.058820415 -0.020581122 -0.05762985 -0.04427739
000340 76 04 13 bd 81 f0 28 3b 40 fd 5c bd df 78 9f bc
       -0.035892926 0.0025778117 -0.053952456 -0.019466816
000350 a2 1e 3e bc f9 3a 86 3c 75 d1 99 3d df 42 2d bd
       -0.011603983 0.016385542 0.07510654 -0.0423001
000360 5f c2 cf 3c 80 b3 cd bb c6 6a a3 bc 30 0e c9 3d
       0.025361238 -0.0062775016 -0.019948374 0.09817159
000370 a1 60 be bd eb a9 83 bd 28 16 b1 3d 9e 5a c7 bc
       -0.09295774 -0.06428894 0.08646804 -0.024335202
000380 ed af fb bc 26 df a0 bd 50 7b 8f 3d 54 ea 4a bd
       -0.030723536 -0.07855062 0.07005942 -0.04953988
000390 6d 79 ae bb 3a 39 b0 3d 7a a9 fc 3d 75 8d 71 3c
       -0.0053245337 0.08604665 0.123370126 0.014743199
0003a0 4b fb 9f bc 39 5d 07 3d 5f 5d ae bc 23 c3 2f 3d
       -0.019529006 0.03304789 -0.021284757 0.042910706
0003b0 10 69 2f bc 27 43 2d 3c d1 0d 64 bd de dc c0 bd
       -0.010706201 0.010575092 -0.05567724 -0.09417127
0003c0 55 03 09 3e fe 76 3e bc 54 cc 87 bd d2 35 ef 3c
       0.13380177 -0.01162505 -0.06630769 0.029200468
0003d0 a6 9b d3 3c 59 74 ed bc 89 58 cf bd f0 2b 21 3d
       0.025831055 -0.028986143 -0.101243086 0.039348543
0003e0 58 cb 9e bb 39 a4 68 3c 7d d4 06 3d a4 cc 9e 3d
       -0.004846018 0.01419931 0.03291749 0.07753876
0003f0 d2 ad 85 bc 2f d7 09 bd a5 42 c1 3d 2e 81 25 3c
       -0.016318236 -0.03365248 0.094365396 0.0101016

bn3.weight f4 [16]
000000 63 ee 7d 3f ae 85 7b 3f c8 5b 7c 3f 25 a3 8e 3f
       0.99191874 0.98250854 0.9857755 1.1143538
000010 f7 70 72 3f a3 8b 82 3f ad b5 77 3f 8b 23 7f 3f
       0.9470362 1.0198864 0.9676159 0.9966361
000020 2c bb 87 3f ff ce 8b 3f 46 f4 76 3f 99 dc 8d 3f
       1.0603995 1.0922545 0.9646648 1.1082946
000030 f6 02 7c 3f 83 6c 83 3f 23 47 7e 3f 17 db 7e 3f
       0.9844202 1.026749 0.99327296 0.99553055

bn3.bias f4 [16]
000000 c8 22 e7 bd 57 38 cc be 44 74 e6 bd 5c 55 59 3e
       -0.11285931 -0.39886734 -0.11252645 0.21223968
000010 6e a2 92 3e 4e 12 98 3d 43 e5 ee 3e 86 fc 1b 3e
       0.2863955 0.07425366 0.46659288 0.15233049
000020 1b 92 e6 be 8b dd c6 be e3 ad e5 3e 8d 6b 16 3f
       -0.45033345 -0.388409 0.44859228 0.5875786
000030 2d ca 80 be 42 84 0e be 13 ea c9 3d 1a a2 6e 3c
       -0.25154248 -0.1391764 0.09859099 0.014565015

bn3.running_mean f4 [16]
000000 62 a5 63 bd f1 38 5b bd be 30 e3 bc e7 85 2b 3d
       -0.055577643 -0.0535211 -0.027733203 0.041875746
000010 31 14 8b 3c 01 61 02 3d c5 3b ed 3d 50 3d 06 3c
       0.016977401 0.03183079 0.11583666 0.008193329
000020 06 a9 01 bc 66 a0 2c be bb 0e 2e 3c 35 1b 44 3e
       -0.0079138335 -0.16858062 0.010623629 0.19151004
000030 df 0a 6b bc 14 75 80 bd 3c e3 84 3c 06 79 fe ba
       -0.014345854 -0.06272331 0.016221635 -0.001941473
