models/focal_loss_checkpoints/checkpoint_epoch_10.pth (torch, 100218 bytes, 16 tensors)

hidden1.weight f4 [128, 30]
0	0x3dfd0867	0.12355118
1	0xbe20cb6b	-0.15702598
2	0xbd898984	-0.06715682
3	0xbd177bb6	-0.036983214
4	0x3dbd9d09	0.09258468
5	0xbdd37c0e	-0.10326396
6	0x3c57de0d	0.0131755
7	0xb636d104	-2.7241776e-06
8	0xbd6a5516	-0.05721005
9	0xbdca67f6	-0.0988311
10	0xbe0859a6	-0.13315448
11	0x3e1e305d	0.15448137
12	0xbdcf2939	-0.101152845
13	0x3d3fc4d4	0.04681857
14	0xbd05cd87	-0.03266671
15	0x3c9976e1	0.018733444
16	0xbe334dd9	-0.17510165
17	0x3dc06fa0	0.09396291
18	0x3e266764	0.16250378
19	0x3e3a2a58	0.18180215
20	0x3e3084a8	0.17238104
21	0xbb126f24	-0.0022344077
22	0xbe1301e3	-0.14356188
23	0x3e228433	0.15870742
24	0x3de6d532	0.112711325
25	0x3d7655e2	0.060140498
26	0xbcab7ca3	-0.020933455
27	0x3e1d1b5d	0.1534247
28	0x3dc25ef3	0.094907664
29	0xbdc25366	-0.09488563
30	0xbe281ef8	-0.16418064
31	0xbd0673bc	-0.032825217
32	0xbca05136	-0.019569974
33	0x3cc370fe	0.02385759
34	0xbbc64018	-0.006050121
35	0x3d07bf61	0.033141498
36	0xbd6c2f00	-0.05766201
37	0xbd19a2dc	-0.03750883
38	0xbd083df6	-0.033262216
39	0xbe1f552a	-0.15559831
40	0xbd8ae3f9	-0.067817636
41	0xbe1f0c63	-0.15532069
42	0x3e184cee	0.14873096
43	0x3e066f5c	0.13128418
44	0x3dbcfb2b	0.09227594
45	0xbcd14e42	-0.025550012
46	0xbe274562	-0.16335061
47	0xbc36fe2e	-0.011169
48	0x3d7d781c	0.061882123
49	0x3e25b5aa	0.1618258
50	0xbe21a496	-0.15785441
51	0xbdc869f8	-0.09785837
52	0xbd8fb052	-0.07016052
53	0x3e0d33c3	0.13789277
54	0x3e2aaf6e	0.16668484
55	0xbe36902b	-0.17828433
56	0x3de37e15	0.111080326
57	0x3d23a5c1	0.039952997
58	0xbe26469f	-0.16237877
59	0x3c9cb700	0.01913023
60	0x3e044556	0.12917075
61	0x3b51f8ff	0.0032039282
62	0x3d41aac9	0.047282014
63	0xbdf7f54d	-0.12107334
64	0xbbe19be8	-0.0068850406
65	0x3dae5b92	0.085135594
66	0x3e038e5b	0.12847273
67	0xbd1ad0dc	-0.03779684
68	0x3e092849	0.13394274
69	0x3df0479d	0.11732409
70	0x3d00862b	0.031377953
71	0xbdebfdbc	-0.11523005
72	0xbe32e48e	-0.17469999
73	0x3df75337	0.12076419
74	0x3e01b51b	0.12666743
75	0x3e357c20	0.17723131
76	0xbe30da96	-0.17270884
77	0xbe2a6139	-0.1663865
78	0xbdbdbb07	-0.09264188
79	0xbde909f2	-0.1137885
80	0x3b0e1788	0.0021681506
81	0xbcdd21f4	-0.02699373
82	0xbe2ca2f4	-0.16859037
83	0xbdf08496	-0.11744039
84	0xbdc7cabc	-0.097554654
85	0xbda35eba	-0.07977052
86	0x3d2fa73d	0.0428841
87	0xbd9d2547	-0.07673126
88	0x38c5a5b0	9.424554e-05
89	0x3de25c62	0.11052777
90	0x3989fd99	0.0002631962
91	0x3e1fbcbb	0.15599339
92	0xbdcc3140	-0.09970331
93	0xbce0fb4d	-0.02746358
94	0xbd855d19	-0.065118976
95	0x3d87cc71	0.06630791
96	0x3d3ee833	0.04660816
97	0x3bf73161	0.007543728
98	0xbd2e991a	-0.042626478
99	0xbdccfafe	-0.100088105
100	0x3e1f0326	0.15528545
101	0xbe387638	-0.18013847
102	0xbc5efc6f	-0.01360999
103	0x3de46268	0.11151582
104	0x3c93b4ce	0.01803055
105	0x3da80bb7	0.082053594
106	0xbd81c4da	-0.063363746
107	0xbdd8e313	-0.10590186
108	0xbe24d4a0	-0.16096735
109	0xbced9e63	-0.029006189
110	0xbda3eac0	-0.080037594
111	0xbe2c7012	-0.16839626
112	0x3da398f8	0.07988161
113	0xbd87c856	-0.06630008
114	0x3e2f7e51	0.1713803
115	0x3e2c966b	0.16854255
116	0xbde12f1d	-0.10995314
117	0x3cd2f3fa	0.025751103
118	0x3dbd3a24	0.09239605
119	0xbdad7bf4	-0.08470908
120	0x3dead4e4	0.11466387
121	0x3c7cabe6	0.015421843
122	0xbe1b47a8	-0.15164053
123	0xbdd49ac5	-0.103810824
124	0xbe261004	-0.16217047
125	0xbda8cb85	-0.08241943
126	0x3e0ae029	0.13562073
127	0x3c9cf053	0.019157564
128	0x3dd4de4e	0.10393964
129	0x3e316a3f	0.17325686
130	0x3e2cdfc4	0.16882235
131	0x3e233aa7	0.15940343
132	0x3e401d94	0.18761283
133	0xbc9b8455	-0.018984
134	0x3dab1157	0.08352917
135	0xbe2fbae2	-0.17161134
136	0x3c529d38	0.012854867
137	0xbe010eb8	-0.12603271
138	0xbdafad50	-0.085779786
139	0xbe0a68c7	-0.13516532
140	0xbdd8d624	-0.10587719
141	0xbbb53d22	-0.0055309692
142	0xbc29d6cb	-0.010366152
143	0x3cd71802	0.026256565
144	0x3e3aa5ca	0.18227306
145	0x3d92e7f4	0.07173148
146	0xbd9057d8	-0.07048005
147	0xbdc48390	-0.09595406
148	0x3cc85732	0.02445564
149	0xbd383b26	-0.044978283
150	0xbdc370d7	-0.09543007
151	0xbd86d1ce	-0.06582986
152	0x3e2f1205	0.17096718
153	0x39f15c33	0.00046035796
154	0x3e084d71	0.13310792
155	0x3c2bf348	0.0104950145
156	0x3e3cc2ab	0.18433635
157	0x3cfb976b	0.03071185
158	0xbd0d3821	-0.034477357
159	0x3d6eefff	0.058334347
160	0xbbc77734	-0.006087208
161	0x3dc31995	0.09526364
162	0xbd2c9d40	-0.042142153
163	0x3e02986c	0.12753457
164	0xbdfc2519	-0.12311763
165	0x3e211d20	0.15733767
166	0x3d93b5fe	0.07212447
167	0xbdb11018	-0.08645648
168	0xbd51b8be	-0.051201575
169	0x3d472a50	0.048624337
170	0x3de2ddae	0.11077438
171	0xbda48235	-0.080326475
172	0xbdb1b4d4	-0.08677068
173	0xbcbf82fa	-0.023377884
174	0x3df32a53	0.11873307
175	0xbc8e5bf5	-0.017377833
176	0xbdec3c2e	-0.11534916
177	0xbdfa48d1	-0.1222092
178	0xbdb30a84	-0.0874224
179	0x3dfc5a8e	0.123219594
180	0xbe2864ce	-0.16444704
181	0xbd3f6722	-0.046729214
182	0x3c45efa2	0.012081059
183	0xbdb3fde8	-0.08788663
184	0x3d64fb57	0.05590376
185	0x3e13e3ef	0.14442419
186	0xbd19aaf6	-0.037516557
187	0x3d6fa941	0.058511022
188	0x3cfe5570	0.0310466
189	0xbe2a6ecd	-0.1664383
190	0xbcd9e927	-0.026600434
191	0xbe330e9f	-0.17486046
192	0x3e0d76b5	0.13814814
193	0x3e057ffa	0.130371
194	0x3d937492	0.071999684
195	0x3cfa9e55	0.030593077
196	0x3e1dbdc2	0.15404418
197	0x3d92e183	0.07171919
198	0x3c90cb2b	0.017675003
199	0x3d89085d	0.06691048
200	0xbce70517	-0.02820067
201	0xbcb0aeeb	-0.021567782
202	0xbdcea450	-0.10089934
203	0x3e3a0470	0.18165755
204	0x3e0d93bd	0.13825889
205	0xbccc91e1	-0.024971904
206	0x3d8e4b37	0.0694794
207	0x3e155026	0.14581355
208	0x3d9a25da	0.07526751
209	0xbe154ab0	-0.14579272
210	0x3addf806	0.0016934879
211	0xbd8d0da8	-0.0688737
212	0x3b2f83b0	0.0026781373
213	0x3df4db4d	0.11955891
214	0xbe2441e6	-0.16040763
215	0xbd39c136	-0.045350276
216	0x3d32785a	0.043571807
217	0xbd7fda70	-0.062464178
218	0xbe26dcf5	-0.16295226
219	0xbc9b7418	-0.018976256
220	0x3dc7e0db	0.09759685
221	0xbe360b73	-0.17777805
222	0xbd7f7879	-0.06237075
223	0x3d8a3cd3	0.067498825
224	0x3d9c1b59	0.07622404
225	0xbcf71005	-0.030159006
226	0x3e275535	0.16341098
227	0x3e03b835	0.12863238
228	0xbdb57021	-0.088592775
229	0x3d58bc5e	0.052914016
230	0x3d8093e3	0.06278207
231	0x3c36d4da	0.011159146
232	0x3e1707a4	0.14749008
233	0x3d076cb2	0.033062644
234	0x3e162c6e	0.14665386
235	0xbdd0bf65	-0.101927556
236	0x3e0cfdc8	0.13768685
237	0xbe2f6f59	-0.1713232
238	0x3d8aebd8	0.06783265
239	0xbe0ce2f4	-0.13758451
240	0xbe1a6c09	-0.15080275
241	0x3de3f890	0.11131394
242	0xbe2c748c	-0.16841334
243	0x3dd8023a	0.105473
244	0x3dcb7daa	0.09936078
245	0xbd1ba762	-0.038001426
246	0xbc135839	-0.008993202
247	0x3e1e8377	0.15479837
248	0x3da36c7f	0.07979678
249	0xbab57b7f	-0.0013846009
250	0x3e22cb78	0.1589793
251	0x3e3167b5	0.17324717
252	0xbd76f9a2	-0.060296662
253	0x3be84e4d	0.0070894123
254	0x3e27047d	0.16310306
255	0xbd9b13b5	-0.07572118

bn1.weight f4 [128]
0	0x3f7ee211	0.995637
1	0x3f7fa31b	0.99858254
2	0x3f7ff34d	0.9998062
3	0x3f7feffb	0.99975556
4	0x3f7f05af	0.9961805
5	0x3f7fece7	0.9997086
6	0x3f7fd451	0.99933344
7	0x3f7ff9d4	0.9999058
8	0x3f7fcc8a	0.99921477
9	0x3f7fa3c1	0.99859244
10	0x3f7fdd29	0.9994684
11	0x3f7ff00a	0.99975646
12	0x3f7fb5ab	0.9988658
13	0x3f800ebe	1.0004499
14	0x3f7f4861	0.99719816
15	0x3f7fb2d6	0.99882257
16	0x3f7fdd92	0.99947464
17	0x3f7fa0a2	0.9985448
18	0x3f7fb503	0.99885577
19	0x3f8026cf	1.0011843
20	0x3f800e41	1.000435
21	0x3f800a71	1.0003186
22	0x3f800333	1.0000976
23	0x3f7ff3a7	0.9998116
24	0x3f8035c9	1.0016414
25	0x3f800c25	1.0003706
26	0x3f80243f	1.0011061
27	0x3f80475b	1.0021776
28	0x3f7f643d	0.99762326
29	0x3f7fadd1	0.998746
30	0x3f7f6a4d	0.9977158
31	0x3f8009b2	1.0002959
32	0x3f800242	1.0000689
33	0x3f7f2b3e	0.9967536
34	0x3f7f7766	0.9979156
35	0x3f7fd972	0.9994117
36	0x3f8007d8	1.0002394
37	0x3f801ff9	1.0009757
38	0x3f7fd380	0.999321
39	0x3f7f6e85	0.99778014
40	0x3f7fa34f	0.99858564
41	0x3f7eae40	0.99484634
42	0x3f8014b0	1.0006313
43	0x3f800703	1.000214
44	0x3f7fe3cf	0.99956983
45	0x3f7ff61c	0.9998491
46	0x3f7fbb86	0.99895513
47	0x3f7f8d95	0.9982541
48	0x3f7fe8ae	0.99964416
49	0x3f7f9d1a	0.9984909
50	0x3f800947	1.0002831
51	0x3f8029bf	1.001274
52	0x3f7fc7e5	0.9991439
53	0x3f8002d5	1.0000864
54	0x3f7fc3f5	0.9990838
55	0x3f805e0d	1.0028702
56	0x3f800e26	1.0004318
57	0x3f7f437a	0.99712336
58	0x3f7f6b8d	0.99773484
59	0x3f7fe196	0.9995359
60	0x3f801d83	1.0009006
61	0x3f7ffc68	0.99994516
62	0x3f8002b7	1.0000829
63	0x3f803f31	1.0019284
64	0x3f802732	1.0011961
65	0x3f8019b7	1.0007848
66	0x3f7f558e	0.9973992
67	0x3f7feb94	0.9996884
68	0x3f7fc63f	0.99911875
69	0x3f7fba25	0.9989341
70	0x3f7f9c93	0.9984829
71	0x3f7fefea	0.99975455
72	0x3f8023f0	1.0010967
73	0x3f7f5f83	0.99755114
74	0x3f7fe33a	0.99956095
75	0x3f8033ad	1.001577
76	0x3f7fef12	0.9997417
77	0x3f7fa398	0.99859
78	0x3f7fcbd8	0.99920416
79	0x3f7fd5d7	0.9993567
80	0x3f7fc16f	0.9990453
81	0x3f7f94d2	0.99836457
82	0x3f7ff3b0	0.9998121
83	0x3f800e8c	1.0004439
84	0x3f7f3bb1	0.99700457
85	0x3f7f0d2e	0.99629486
86	0x3f7f81c0	0.9980736
87	0x3f7f6cc5	0.99775344
88	0x3f7f4270	0.9971075
89	0x3f7f8529	0.9981256
90	0x3f802c11	1.0013448
91	0x3f7f8792	0.9981624
92	0x3f7f9d33	0.9984924
93	0x3f7ffb61	0.9999295
94	0x3f7fe6ee	0.99961746
95	0x3f8042a6	1.002034
96	0x3f7fbeb5	0.9990037
97	0x3f800993	1.0002922
98	0x3f7ff737	0.99986595
99	0x3f801bfb	1.0008539
100	0x3f800a26	1.0003097
101	0x3f7fc5fd	0.9991148
102	0x3f7f134e	0.9963883
103	0x3f7fcc03	0.9992067
104	0x3f7f8c14	0.9982312
105	0x3f7ff4c4	0.9998286
106	0x3f7ff242	0.9997903
107	0x3f7fdfaf	0.9995069
108	0x3f80130f	1.0005816
109	0x3f7f7b97	0.9979796
110	0x3f7f751a	0.9978806
111	0x3f7fd5f2	0.9993583
112	0x3f801b78	1.0008383
113	0x3f7fefec	0.99975467
114	0x3f8003a3	1.000111
115	0x3f802c70	1.0013561
116	0x3f8011c4	1.0005422
117	0x3f7ff22c	0.999789
118	0x3f806607	1.0031136
119	0x3f7fe523	0.9995901
120	0x3f7fc553	0.9991047
121	0x3f7fe1a1	0.9995366
122	0x3f7eaf92	0.9948665
123	0x3f7fb983	0.99892443
124	0x3f80032d	1.0000969
125	0x3f801b66	1.0008361
126	0x3f7ffd44	0.9999583
127	0x3f7fd049	0.9992719

bn1.bias f4 [128]
0	0xbc53196f	-0.012884482
1	0x3beebf04	0.0072859544
2	0x395632d6	0.00020427568
3	0x3ae83e7d	0.0017718818
4	0x3c2510df	0.010074823
5	0xbaa6ea1d	-0.0012734566
6	0x3b761990	0.0037551858
7	0x3bd219cb	0.006411766
8	0xba42c4d8	-0.00074298447
9	0x3c207d93	0.009795564
10	0xbbc4b705	-0.006003263
11	0xbaa0a778	-0.0012256941
12	0x3b2e09ef	0.0026556214
13	0x3a878365	0.0010338841
14	0xbc2f100e	-0.01068498
15	0xbc0f57b0	-0.008748934
16	0x3a940c03	0.0011295084
17	0xbc1ab83b	-0.009443338
18	0x3c6a42d0	0.014298156
19	0x3ba58d4b	0.005052244
20	0xbbfb5bf1	-0.0076708724
21	0x3c0afe06	0.0084834155
22	0xbb81a9e3	-0.0039570197
23	0x3bdb24e2	0.0066877464
24	0xbb928411	-0.00447131
25	0x3be0b84a	0.0068579065
26	0x3b10ba47	0.0022083686
27	0xbb91198d	-0.0044280947
28	0x3aa25cd9	0.001238729
29	0x3a767cd1	0.00094027544
30	0x3bd93fb1	0.006629907
31	0xbb544e52	-0.0032395315
32	0x3c2c7406	0.010525709
33	0xbca39f18	-0.019973323
34	0xba3a9739	-0.0007117871
35	0x3ba7dceb	0.005122771
36	0xba9bdb15	-0.0011890853
37	0xbba7f5dd	-0.0051257447
38	0xbbed110a	-0.007234697
39	0x3c6918e5	0.014227127
40	0xbc125727	-0.008931912
41	0xbc0a4863	-0.00844011
42	0x3bd888e8	0.0066081174
43	0x3b52139c	0.0032055145
44	0x3b6a4096	0.0035744063
45	0x3b9b9092	0.0047474587
46	0xbbb8bd12	-0.0056377733
47	0x3bdd56f7	0.006754752
48	0x3b2c1f2e	0.0026263702
49	0xbb5a7b8d	-0.0033337802
50	0xba0834c8	-0.00051958533
51	0xbb02e674	-0.0019973787
52	0x3c107cce	0.008818818
53	0x3aaf049f	0.0013352818
54	0xbbe6a272	-0.007038408
55	0x3ab0b084	0.001348034
56	0xbc03b102	-0.008037807
57	0xbba109e0	-0.0049145073
58	0x3bc43288	0.005987469
59	0x3c1e0555	0.009644826
60	0xbb13ca00	-0.0022550821
61	0x3c146bfa	0.009058947
62	0x3a658df8	0.0008756812
63	0x3b47e41d	0.0030500956
64	0xbabf27a6	-0.001458396
65	0x3ad2f501	0.0016094745
66	0x3c7e0f5f	0.015506594
67	0xbbfcb75a	-0.007712287
68	0x3bd7d495	0.006586621
69	0xbbbc9920	-0.0057555586
70	0x3c1b9b01	0.009497405
71	0x3b83b1f5	0.004019017
72	0x3bffe56d	0.007809332
73	0xbc264299	-0.010147714
74	0xbb83ddee	-0.004024259
75	0x3b67086f	0.003525283
76	0x3be3f1d4	0.0069563184
77	0x3bacd359	0.005274218
78	0xbbb8eb91	-0.005643316
79	0xbb7e39da	-0.0038791806
80	0x3c34b618	0.011029743
81	0x3b6d28a1	0.0036187547
82	0x3af5faf5	0.0018766808
83	0x3bdb120f	0.0066855024
84	0xbc83d12b	-0.01609095
85	0xbb267c03	-0.0025403507
86	0x3b9e2402	0.00482607
87	0xbc7607df	-0.015016525
88	0x3c5cd9b9	0.0134796435
89	0xbbba3be4	-0.005683409
90	0xbab8c3ae	-0.0014096403
91	0xbc0e99d4	-0.008703668
92	0x3c0e661e	0.008691339
93	0xbbaf4d95	-0.0053498247
94	0x3b0c6258	0.0021420922
95	0x3b24e067	0.0025158168
96	0x3b1a4599	0.0023540019
97	0x3b17581b	0.0023093286
98	0xbba12fab	-0.0049190125
99	0x3bf68bd6	0.007523994
100	0x3b69e70e	0.0035690698
101	0x3bdb3c15	0.006690512
102	0xbbdc8eac	-0.006730875
103	0x3a2b94e4	0.0006545319
104	0xbad22992	-0.0016034117
105	0x3c270c30	0.010195777
106	0x39e2464b	0.0004315845
107	0xbb324120	-0.0027199462
108	0x3ab45269	0.001375747
109	0xbc1bac59	-0.00950154
110	0x3c278163	0.010223719
111	0x3bed4410	0.0072407797
112	0x3bccd893	0.0062514036
113	0xbba61c4c	-0.005069291
114	0x3b30ec15	0.0026996185
115	0x3bc276ef	0.005934588
116	0x3ae5453c	0.0017491947
117	0x3a975769	0.0011546436
118	0x3bc7c86d	0.0060968907
119	0x3a83ee49	0.0010065521
120	0xbadfad8b	-0.001706527
121	0x3c27a77f	0.010232805
122	0xbc8f9824	-0.017528601
123	0xbb3acf58	-0.0028504934
124	0x3b5dd25d	0.003384731
125	0x3a9d6829	0.0012009192
126	0xbbd4760f	-0.0064838002
127	0x3a837783	0.0010030124

bn1.running_mean f4 [128]
0	0xbcf2fafe	-0.029660698
1	0xbd52dc3c	-0.051479563
2	0x3e3b25cf	0.18276142
3	0xbde8c758	-0.11366147
4	0xbd01a06e	-0.03164714
5	0x3e1ab66c	0.15108651
6	0xbe56adb6	-0.20964703
7	0xbdabb568	-0.0838421
8	0x3dd0abf9	0.10189051
9	0x3e4f66c0	0.2025404
10	0xbca8c946	-0.020603787
11	0x3e01aeab	0.12664287
12	0xbdf29f53	-0.11846795
13	0x3d470369	0.048587237
14	0x3d2a0f63	0.04151858
15	0xbcea35c6	-0.028590094
16	0x3e533c2b	0.20628421
17	0xbce2cacb	-0.02768459
18	0x3df7fea9	0.121091194
19	0x3c5652da	0.013081277
20	0xbe1a6b27	-0.15079938
21	0xbe0df9e3	-0.13864855
22	0xbe3ab626	-0.18233547
23	0x3ddc57df	0.107589476
24	0x3a336bec	0.000684439
25	0xbe24502e	-0.16046211
26	0xbd5407d2	-0.05176527
27	0x3e2a4cec	0.16630906
28	0xbe029ec3	-0.12755875
29	0x3d015f75	0.031585176
30	0xbdc662b1	-0.09686793
31	0x3e29d926	0.16586742
32	0xbddb150b	-0.10697373
33	0xbd347cfe	-0.044064514
34	0x3dac3ac2	0.08409645
35	0x3e076bc2	0.132247
36	0x3e1bf9ee	0.1523206
37	0x3e20a00c	0.15686053
38	0x3d2b2c72	0.041790433
39	0xbe3aba69	-0.18235172
40	0xbd31534e	-0.043292336
41	0xbe01ddb0	-0.12682223
42	0xbe0a3d43	-0.13499932
43	0x3d908556	0.07056682
44	0x3e1b3684	0.15157515
45	0x3e27aa70	0.1637361
46	0x3da996be	0.08280705
47	0x3d51ba1e	0.051202886
48	0xbd8cb3b8	-0.06870216
49	0x3e502b28	0.20328963
50	0x3db5dc50	0.08879912
51	0x3d45a2ca	0.04825095
52	0x3e099c1a	0.13438454
53	0x3c2cbc82	0.010542991
54	0x3e2f3ff1	0.17114235
55	0xbdb5c018	-0.088745296
56	0x3e049688	0.12948048
57	0xbd0eff2a	-0.034911312
58	0xbd86516a	-0.06558497
59	0x3e447f27	0.1918913
60	0xbc358a97	-0.011080406
61	0x3dee53d5	0.116370834
62	0xbe5008f5	-0.20315917
63	0x3d9b6f00	0.07589531
64	0xbda8503c	-0.082184285
65	0x3c50c75c	0.0127428435
66	0x3e0e54d7	0.13899551
67	0xbc581d55	-0.013190587
68	0x3e4b6356	0.19862112
69	0xbe299cc5	-0.16563709
70	0x3c82ca4b	0.015965601
71	0xbcd3bfa5	-0.02584822
72	0xbd6303f7	-0.055423703
73	0xbd980fac	-0.07424864
74	0x3c45fb60	0.012083858
75	0x3dcf5896	0.10124318
76	0xbd850e0c	-0.0649682
77	0x3d27e9d0	0.040994465
78	0xbe2e4e53	-0.17022066
79	0x3e4c4c37	0.19950949
80	0x3d44575d	0.04793488
81	0xbb8ca18a	-0.004291718
82	0x3dd267a9	0.10273678
83	0xbd1450a5	-0.03620972
84	0xbd79f7af	-0.061027225
85	0x3d456684	0.04819347
86	0xbdcb6bd1	-0.09932674
87	0x3e6d6f22	0.23186925
88	0xbe2cce5a	-0.16875592
89	0xbba82761	-0.0051316475
90	0x3deb30cb	0.11483916
91	0x3e3918c6	0.18075857
92	0xbe3520e8	-0.17688334
93	0xbc056818	-0.008142494
94	0xbdbc23bd	-0.09186504
95	0xbe0c115c	-0.13678497
96	0x3d61bb00	0.055109978
97	0x3cf755ac	0.030192219
98	0xbdc65b5a	-0.09685393
99	0xbe155325	-0.14582498
100	0x3db3eceb	0.08785423
101	0xbe40971b	-0.18807642
102	0x3db2b014	0.087249905
103	0x3c2248b5	0.00990503
104	0x3d6db8f2	0.058037706
105	0xbe064b97	-0.13114773
106	0xbdd6abed	-0.10482011
107	0x3d9bd574	0.07609072
108	0x3d4be53c	0.04977916
109	0x3e1330bc	0.1437406
110	0x3d0a0040	0.033691645
111	0xbdca275e	-0.0987079
112	0xbe10119d	-0.14069219
113	0x3b8d3e7d	0.0043104277
114	0x3d0638bb	0.032768946
115	0xbd0d21d4	-0.03445609
116	0x3df23bc4	0.11827806
117	0x3dc37239	0.095432706
118	0x3d937fde	0.07202123
119	0xbe0c634c	-0.13709754
120	0x3d85a793	0.06526103
121	0xbdebcde8	-0.11513883
122	0x3e335304	0.17512137
123	0x3dee6774	0.11640826
124	0xbda547c2	-0.08070327
125	0xbe0822d8	-0.13294542
126	0xbe06ee25	-0.13176782
127	0xbd447531	-0.047963325

bn1.running_var f4 [128]
0	0x3f2cf90a	0.67567503
1	0x3f119a75	0.5687631
2	0x3f195ee4	0.59910417
3	0x3f0b435a	0.54399645
4	0x3f0895bb	0.5335347
5	0x3f356049	0.70850044
6	0x3f5aa062	0.85400975
7	0x3f673a80	0.9032364
8	0x3f8514bc	1.0396953
9	0x3fa0881e	1.254154
10	0x3f60d848	0.8783002
11	0x3f35fb6e	0.71086776
12	0x3f1a4cfd	0.60273725
13	0x3f63c525	0.88972694
14	0x3f12bcb8	0.5731921
15	0x3ec7c281	0.39015582
16	0x3f6e1de0	0.93014336
17	0x3ef9562b	0.48698553
18	0x3f9ddc7a	1.2332909
19	0x3f2fbf75	0.68651515
20	0x3f3e6a59	0.74381024
21	0x3f734e4e	0.9504136
22	0x3f5c79e9	0.8612352
23	0x3f1f00b4	0.6211045
24	0x3ef084a8	0.4697621
25	0x3f25eb73	0.6481239
26	0x3f38ca1b	0.7218339
27	0x3f16de2d	0.58932763
28	0x3f2f4017	0.6845717
29	0x3f03ed4a	0.5153395
30	0x3f0fdd6e	0.5619725
31	0x3f384b46	0.7198986
32	0x3f865e0d	1.0497452
33	0x3f39f3ce	0.7263764
34	0x3f26f15e	0.6521205
35	0x3f48edcb	0.78487843
36	0x3f569809	0.8382574
37	0x3f811983	1.008591
38	0x3f1d7c3f	0.6151771
39	0x3f4cf464	0.8006041
40	0x3f4e2ab7	0.8053393
41	0x3ee7d894	0.45282423
42	0x3f5ceeee	0.8630208
43	0x3ee944f5	0.45560423
44	0x3f567043	0.8376505
45	0x3f4c9db0	0.7992811
46	0x3f1c978d	0.6116875
47	0x3f0a40c0	0.5400505
48	0x3f25c3b5	0.6475175
49	0x3f8d6918	1.1047697
50	0x3f82da0b	1.0222791
51	0x3ef95873	0.48700294
52	0x3f887f58	1.0663862
53	0x3f28edcd	0.65987855
54	0x3ef550c3	0.4791318
55	0x3f24bc90	0.64350224
56	0x3f87ea48	1.0618372
57	0x3ef82273	0.48463783
58	0x3f6f09ba	0.93374217
59	0x3f9bdc17	1.2176541
60	0x3ee94234	0.4555832
61	0x3f828b50	1.0198765
62	0x3f0e195c	0.55507445
63	0x3f3baf1c	0.7331407
64	0x3f1c8cf8	0.611526
65	0x3f1cf5a6	0.6131233
66	0x3f6ff029	0.9372583
67	0x3f4d270d	0.8013771
68	0x3f6d711f	0.92750734
69	0x3f7ff1fd	0.9997862
70	0x3f0a7761	0.5408841
71	0x3ed36793	0.41289958
72	0x3f349fe6	0.70556486
73	0x3f3ffd35	0.7499574
74	0x3f052d1f	0.52021974
75	0x3f2ea4c5	0.6822017
76	0x3eeaa1c9	0.45826557
77	0x3f0eca1f	0.5577716
78	0x3f8b51b0	1.0884304
79	0x3fb749ee	1.4319437
80	0x3f0f5dc5	0.56002456
81	0x3efea4fa	0.49735242
82	0x3f34c876	0.7061838
83	0x3eed2699	0.4631851
84	0x3f7a65f6	0.9781183
85	0x3f158771	0.5840979
86	0x3f45cf00	0.7726898
87	0x3f2281aa	0.634791
88	0x3f06e745	0.5269664
89	0x3f08dbda	0.53460467
90	0x3f339cdd	0.7016123
91	0x3f5b7166	0.8571991
92	0x3f5b320e	0.8562325
93	0x3f25901f	0.64673036
94	0x3f492b3a	0.78581583
95	0x3f8c596b	1.0964788
96	0x3ed324ef	0.41239116
97	0x3f42f5eb	0.7615649
98	0x3f780bc8	0.96892977
99	0x3f3ffae7	0.7499222
100	0x3f32c07a	0.69824946
101	0x3f8450eb	1.0337194
102	0x3f29af38	0.6628299
103	0x3efdbee8	0.49559712
104	0x3f18efd2	0.59740937
105	0x3f10206c	0.5629947
106	0x3f74907a	0.95532954
107	0x3f92a2c5	1.1455923
108	0x3f23428b	0.6377341
109	0x3fbe1e36	1.485297
110	0x3f28f5ec	0.66000247
111	0x3f4cdb3c	0.80022025
112	0x3f0d2e8b	0.55149144
113	0x3f1dfc32	0.61712945
114	0x3efeb8c2	0.49750334
115	0x3f37b112	0.7175456
116	0x3f4d4caf	0.80195135
117	0x3f1693b9	0.58819157
118	0x3f812b42	1.0091326
119	0x3f74bf72	0.9560462
120	0x3f80fecb	1.0077757
121	0x3f1852cc	0.5950134
122	0x3fba62c3	1.456139
123	0x3f4452d0	0.7668886
124	0x3f42bf6b	0.7607333
125	0x3f5b3666	0.8562988
126	0x3f8fe291	1.1241018
127	0x3efa7497	0.48917076

hidden2.weight f4 [128, 128]
0	0x3d96cdcf	0.073634736
1	0xbbe54013	-0.0069961636
2	0xbd87b316	-0.06625955
3	0x3c42d792	0.011892216
4	0x3d0ab6c5	0.03386571
5	0xbae6a20d	-0.0017595902
6	0x3c2c2a1a	0.010508085
7	0x3ce89b0e	0.028394248
8	0x3d476314	0.048678473
9	0xbcdc93c0	-0.026925921
10	0xbd576102	-0.05258275
11	0x3d86a1af	0.065738074
12	0x3cc72b42	0.02431262
13	0x3d9ee88c	0.077591985
14	0xbd4e3013	-0.050338816
15	0xbcdc2470	-0.026872844
16	0x3ccab259	0.024743246
17	0x3c90c63d	0.017672652
18	0xbd1fc013	-0.039001536
19	0xbd175da5	-0.03695454
20	0xbcd94030	-0.026519865
21	0xbd8c449c	-0.06849024
22	0x3b5d62ef	0.0033780893
23	0xbd9d66e4	-0.076856405
24	0xbd0358e1	-0.032067183
25	0xbabd4cb1	-0.0014442411
26	0xbd833c13	-0.064079426
27	0x3d346b83	0.044047844
28	0x3d7a8168	0.061158568
29	0x3bc8ca7b	0.006127653
30	0x3ccee583	0.025255924
31	0xbdb78f75	-0.08962909
32	0x3c17e144	0.009270016
33	0x3d22a405	0.039707202
34	0xbd093bc4	-0.033504263
35	0xbc195098	-0.009357594
36	0xbdaaa5c4	-0.083323985
37	0x3d27e0b1	0.040985767
38	0xbd34b534	-0.04411812
39	0xbc3d5f44	-0.011558358
40	0x3d39bb6d	0.04534476
41	0x3d8e5017	0.0694887
42	0x3a91e68e	0.0011131333
43	0x3dba4243	0.0909467
44	0x3cd6bce3	0.026213115
45	0xbb83022c	-0.0039980616
46	0x3d87ba5b	0.06627341
47	0x3db9cbed	0.09072099
48	0x3da0a938	0.07844776
49	0xbd2b234c	-0.04178171
50	0xbd4a7d30	-0.049435794
51	0x3d744481	0.059635643
52	0xbd3b9bd2	-0.0458029
53	0xbccbcf32	-0.024879072
54	0x3d7aef54	0.061263397
55	0x3cb8d49c	0.022562318
56	0xbc01cb20	-0.007921964
57	0x3cfdaaf1	0.0309653
58	0x3d0e4ffe	0.034744255
59	0xbdab5531	-0.08365858
60	0x3d879cc0	0.066216946
61	0x3d075426	0.033039235
62	0x3d361aa4	0.044459
63	0xbbf0fbe1	-0.007354245
64	0x3bf10747	0.007355604
65	0xbba83b0e	-0.005133993
66	0xbc0d69c4	-0.0086311735
67	0x3da2f37b	0.079565965
68	0xbd602647	-0.054724004
69	0xbd5303d9	-0.05151734
70	0xbd9bb2d4	-0.07602468
71	0xbba75905	-0.0051070475
72	0xbd86f64e	-0.06589948
73	0x3d855362	0.06510045
74	0xbd0964b9	-0.033543322
75	0x3d9b20c3	0.07574608
76	0x3da417f7	0.080123834
77	0xbd642e7e	-0.0557084
78	0xbda5f887	-0.081040435
79	0xbce880c1	-0.028381707
80	0xbd383632	-0.04497356
81	0x3d2bf41c	0.041980848
82	0x3d74c230	0.059755504
83	0xbb0d71d3	-0.0021582737
84	0xbd9ee25a	-0.07758017
85	0x3cefc226	0.029267382
86	0x3da049c2	0.07826568
87	0x3cc3c7bb	0.02389895
88	0xbcf20c5f	-0.029546915
89	0xbd92bc5a	-0.071648315
90	0xbd79ebac	-0.06101577
91	0x3d280a89	0.041025672
92	0x3d3dfd17	0.046383943
93	0x3d89a524	0.06720951
94	0x3db59c82	0.08867742
95	0xbc124407	-0.008927352
96	0xbb1c03ed	-0.002380605
97	0x3cae345c	0.021265201
98	0xbd05d036	-0.03266927
99	0xbcc05317	-0.02347712
100	0xbc1e0d61	-0.0096467445
101	0x3cc07df7	0.023497565
102	0xbd738d3f	-0.059460875
103	0xbd9d7cbf	-0.07689809
104	0xbdb4f68e	-0.08836089
105	0xbbab52d1	-0.0052283783
106	0x3cc07436	0.023492914
107	0x3d60576b	0.05477087
108	0xbd51eb40	-0.051249743
109	0xbc9307b0	-0.017948002
110	0x3d6fdaaa	0.058558144
111	0x3cdfb2e5	0.027306983
112	0xbd2a7593	-0.041616034
113	0xbd9182f1	-0.07105053
114	0xbd769510	-0.06020075
115	0xbca33eb9	-0.01992737
116	0x3cdfa7fe	0.027301785
117	0x3d8f96c1	0.07011176
118	0x3cfa5903	0.030560022
119	0x3d86dbcd	0.065848924
120	0xbd07e7dc	-0.033180103
121	0xba033a1e	-0.00050059136
122	0xbcdcc868	-0.02695103
123	0x3d9f7b98	0.077872455
124	0xbc6d694f	-0.01449044
125	0x3d4c0354	0.04980786
126	0x3d166c3b	0.03672431
127	0xbc3a902b	-0.011386911
128	0x3cc72525	0.024309704
129	0xbd156d29	-0.036481056
130	0x3cb092b9	0.021554338
131	0x3d8c6386	0.0685492
132	0x3b85a735	0.0040787705
133	0x3d780f0b	0.06056122
134	0xbda3a9dc	-0.079913825
135	0xba147f5e	-0.0005664731
136	0x3d3f2a1f	0.04667103
137	0x3d02f222	0.031969197
138	0x3dbf3c8b	0.093377195
139	0xbd3ef169	-0.046616945
140	0xbd4b8698	-0.049688905
141	0xbcaecd86	-0.021338236
142	0x3c66052a	0.014039317
143	0xbd8c8e9b	-0.06863137
144	0xbc4118e1	-0.011785717
145	0xbd8dfceb	-0.06933006
146	0xbdb5d524	-0.08878544
147	0xbce76d50	-0.028250366
148	0x3cf55775	0.02994893
149	0x3d8f7942	0.0700555
150	0xbd97939b	-0.074012004
151	0xbd9c5939	-0.07634205
152	0x3c082b1c	0.008311059
153	0x3d9a830d	0.07544527
154	0x3c894526	0.016756605
155	0x3da07d74	0.07836428
156	0x3d5ef00d	0.05442815
157	0xba134a31	-0.00056186604
158	0xbd9dfb32	-0.07713927
159	0x3cb280d0	0.021789938
160	0x3da683c4	0.08130601
161	0xbd962aec	-0.073324054
162	0x3da3d3a5	0.07999352
163	0x3c610be2	0.013735743
164	0xbc0d6e67	-0.008632279
165	0x3d430b9b	0.04761849
166	0xbcb318fc	-0.0218625
167	0xbd6824f8	-0.05667588
168	0x3d3e2ff2	0.046432443
169	0x3d30e72b	0.04318921
170	0xbbb3a5e5	-0.0054824227
171	0xbd0d91a2	-0.034562714
172	0xbd4198ed	-0.047264982
173	0xbd535855	-0.051597912
174	0xbda2b7e3	-0.0794523
175	0xbccfbf8a	-0.025359888
176	0xbd84171f	-0.064497225
177	0xbbe1d570	-0.006891899
178	0x3d4ffa29	0.05077568
179	0xbd86bacb	-0.06578597
180	0x3cbe1137	0.023201568
181	0xbb875520	-0.0041300207
182	0xbd05b58b	-0.032643836
183	0xbd9f9ead	-0.07793937
184	0xbd2294a9	-0.039692555
185	0xbc521c15	-0.012824078
186	0x3d5f49a5	0.054513592
187	0xbd798bf2	-0.060924478
188	0x3c6005f9	0.013673299
189	0xbdb8697c	-0.090044945
190	0x3da63d6f	0.08117186
191	0x3d8ef11d	0.069795825
192	0x3bc77bec	0.0060877707
193	0xbd3c2e24	-0.04594244
194	0x3ca90327	0.020631386
195	0x3dbded92	0.092738286
196	0xbbc48335	-0.0059970864
197	0xbab69e7f	-0.0013932734
198	0x3c206ee8	0.009792067
199	0xbcc17316	-0.023614448
200	0xbd0180c1	-0.03161693
201	0x3cf2b96d	0.029629434
202	0x3d8cc1a4	0.068728715
203	0xbc3c7a09	-0.011503705
204	0xbca41c95	-0.02003316
205	0xbdadbb1b	-0.08482953
206	0xbd6bb068	-0.05754128
207	0xbd11797e	-0.035516255
208	0xbd026dba	-0.031842925
209	0xbd83ec18	-0.06441516
210	0xbd58993e	-0.05288052
211	0xbd2b395b	-0.041802745
212	0x3d13159d	0.035909284
213	0x3d1fc5ed	0.039007116
214	0xbdb3ecbf	-0.0878539
215	0x3d92982c	0.07157931
216	0xbce92cf0	-0.02846381
217	0x3da59c02	0.08086397
218	0x3d164ef1	0.03669638
219	0x3d23c3b6	0.039981566
220	0x3d83c350	0.06433737
221	0xbc082545	-0.008309667
222	0x3c0f3365	0.008740281
223	0xbd8aead8	-0.06783074
224	0xbcf34a1e	-0.029698428
225	0x3cef5e55	0.029219786
226	0x3d64173e	0.055686228
227	0x3ca114e1	0.019663276
228	0xbd8dda99	-0.0692646
229	0xbd72f4d6	-0.059315525
230	0xbc8638c9	-0.0163845
231	0x3cbec4a2	0.023287121
232	0x3c8c7cc5	0.017149338
233	0x3cb6882b	0.022281727
234	0xbd9b1b79	-0.07573599
235	0x3d666815	0.056251604
236	0xbdc6b8b3	-0.09703197
237	0xbd1d125a	-0.03834758
238	0x3cc4c02a	0.024017412
239	0xbd80b2c3	-0.06284096
240	0xbd49e8f3	-0.049294423
241	0x3d9e57b7	0.07731574
242	0xbd928921	-0.071550615
243	0x3d14b5e9	0.036306296
244	0xbd94644d	-0.07245693
245	0xbd91fafb	-0.07127949
246	0xbc5a18a9	-0.0133115435
247	0x3db10186	0.08642869
248	0xbd912a0a	-0.070880964
249	0x3d3bbc46	0.04583385
250	0xbcebbc3b	-0.028776279
251	0x3d344e88	0.044020206
252	0x3d27f079	0.041000817
253	0x3c8fba4d	0.01754489
254	0x3d955bf5	0.0729293
255	0x3cb5cc3f	0.022192119

bn2.weight f4 [128]
0	0x3f8005a7	1.0001725
1	0x3f7fb42b	0.9988429
2	0x3f801a2d	1.0007988
3	0x3f7edfb8	0.9956012
4	0x3f7feca1	0.9997044
5	0x3f7f6c29	0.99774414
6	0x3f7f9e42	0.9985086
7	0x3f7f050e	0.9961709
8	0x3f7fcb74	0.9991982
9	0x3f7f4c7b	0.99726075
10	0x3f801977	1.0007771
11	0x3f80130c	1.0005813
12	0x3f7f8431	0.99811083
13	0x3f7f1505	0.9964145
14	0x3f7f9f73	0.99852675
15	0x3f800982	1.0002902
16	0x3f8010e9	1.000516
17	0x3f7f61d2	0.99758637
18	0x3f7fb5b2	0.9988662
19	0x3f7f988e	0.99842155
20	0x3f800577	1.0001668
21	0x3f7fe6e5	0.9996169
22	0x3f80033c	1.0000987
23	0x3f7fc9e8	0.9991746
24	0x3f8004e0	1.0001488
25	0x3f7fbdab	0.99898785
26	0x3f7f64b3	0.9976303
27	0x3f7f8377	0.99809974
28	0x3f7fa84d	0.9986618
29	0x3f80075f	1.000225
30	0x3f801091	1.0005056
31	0x3f8015e8	1.0006685
32	0x3f7fb71a	0.99888766
33	0x3f7dc01c	0.9912126
34	0x3f7fbd72	0.99898446
35	0x3f7fe603	0.99960345
36	0x3f7f6ef2	0.99778664
37	0x3f800655	1.0001932
38	0x3f7f47f1	0.9971915
39	0x3f7f4f11	0.9973002
40	0x3f7fee53	0.9997303
41	0x3f7f9da9	0.99849945
42	0x3f7fe43e	0.99957645
43	0x3f800ef2	1.0004561
44	0x3f7f9b18	0.9984603
45	0x3f800dfd	1.0004269
46	0x3f7ff139	0.9997745
47	0x3f7eb4a8	0.9949441
48	0x3f800714	1.000216
49	0x3f7fe6cf	0.9996156
50	0x3f7ff1cc	0.9997833
51	0x3f7f4efa	0.99729884
52	0x3f7f9ef8	0.9985194
53	0x3f800673	1.0001968
54	0x3f7f9b70	0.99846554
55	0x3f7ee18b	0.995629
56	0x3f7fe241	0.9995461
57	0x3f7ec2c8	0.9951596
58	0x3f7fc5e6	0.99911344
59	0x3f7f02ac	0.9961345
60	0x3f7ffe53	0.9999744
61	0x3f801708	1.0007029
62	0x3f7faf6d	0.99877053
63	0x3f7f25e4	0.9966719
64	0x3f7fc40c	0.9990852
65	0x3f7fccd3	0.9992191
66	0x3f8004e9	1.0001498
67	0x3f7fd74a	0.9993788
68	0x3f7fd679	0.99936634
69	0x3f7f60ca	0.99757063
70	0x3f7fe329	0.99955994
71	0x3f801060	1.0004997
72	0x3f80020d	1.0000626
73	0x3f7ebce5	0.9950698
74	0x3f7fd73f	0.99937814
75	0x3f7fc292	0.99906266
76	0x3f801d85	1.0009009
77	0x3f7fefce	0.9997529
78	0x3f7f9231	0.99832445
79	0x3f7e201d	0.9926775
80	0x3f7fb5dd	0.99886876
81	0x3f7f3435	0.99689037
82	0x3f802715	1.0011927
83	0x3f80198c	1.0007796
84	0x3f7f92f8	0.9983363
85	0x3f7fd49a	0.9993378
86	0x3f8003cc	1.0001159
87	0x3f800d9e	1.0004156
88	0x3f7fbeaf	0.99900335
89	0x3f8012c0	1.0005722
90	0x3f80093e	1.000282
91	0x3f7f4cb9	0.99726444
92	0x3f800e55	1.0004374
93	0x3f7fbce7	0.9989762
94	0x3f7ffe8b	0.99997777
95	0x3f7f5acb	0.99747914
96	0x3f801438	1.000617
97	0x3f7fbc37	0.9989657
98	0x3f7fb8a3	0.9989111
99	0x3f7ff0a7	0.9997658
100	0x3f7f1a09	0.996491
101	0x3f7f92f4	0.9983361
102	0x3f8009cc	1.000299
103	0x3f800255	1.0000712
104	0x3f7fd6e0	0.9993725
105	0x3f7fbd30	0.9989805
106	0x3f7fc5c1	0.99911124
107	0x3f80040d	1.0001236
108	0x3f7feb4c	0.9996841
109	0x3f800a58	1.0003157
110	0x3f7fff72	0.99999154
111	0x3f7eed4d	0.9958084
112	0x3f7f9eb5	0.9985154
113	0x3f7ff6f9	0.99986225
114	0x3f7e8e86	0.99436224
115	0x3f7ffbd7	0.9999365
116	0x3f7fef13	0.99974173
117	0x3f7ff503	0.99983233
118	0x3f7f844d	0.9981125
119	0x3f7fe563	0.9995939
120	0x3f7f2d42	0.9967843
121	0x3f7fc0b2	0.99903405
122	0x3f800363	1.0001034
123	0x3f7ef444	0.9959147
124	0x3f7fff13	0.9999859
125	0x3f8003a3	1.000111
126	0x3f8016e3	1.0006984
127	0x3f7d85f5	0.9903253

bn2.bias f4 [128]
0	0x3a1af476	0.00059110613
1	0xbbc237c0	-0.005927056
2	0xba7c4c53	-0.00096244103
3	0x3c40e930	0.011774346
4	0x3ac1661c	0.0014755162
5	0x3beb55a4	0.00718184
6	0xbaa986d6	-0.0012933861
7	0xbc307b2d	-0.010771555
8	0xbb05b0b5	-0.0020399515
9	0x3bec8012	0.0072174156
10	0x3a420540	0.0007401295
11	0x3b52d375	0.0032169495
12	0x3c016f75	0.007900109
13	0x3c251705	0.010076289
14	0x3b9d7f80	0.004806459
15	0xbb458c71	-0.0030143524
16	0xbb1895db	-0.002328268
17	0x3c024c9a	0.007952834
18	0xbb3518dd	-0.0027633228
19	0xbbda91f0	-0.006670229
20	0x3b283163	0.0025664202
21	0xbae28dfa	-0.0017284744
22	0xbae121d3	-0.0017176218
23	0x396ff980	0.00022885762
24	0x3b3a2abe	0.0028406824
25	0xbb29bb44	-0.0025898973
26	0xbbfc183e	-0.0076933196
27	0xbb9ccfa0	-0.004785493
28	0xba1c2ab4	-0.0005957291
29	0x3ab5037e	0.0013810245
30	0x3ac6ad35	0.0015157821
31	0xba063a07	-0.0005120341
32	0x3bdde8df	0.006772145
33	0x3c1d1f76	0.00959002
34	0x3bccf2ca	0.0062545286
35	0xbb872d21	-0.004125253
36	0x3bced9e1	0.0063125943
37	0xba146af9	-0.0005661692
38	0x3c10aed9	0.008830749
39	0x3ba76d4e	0.0051094657
40	0x3b8debca	0.0043310868
41	0xbbc73471	-0.0060792495
42	0x3b0d65ed	0.0021575645
43	0xba41411e	-0.0007372069
44	0x3bf56ca9	0.00748976
45	0x3a79ee20	0.00095340796
46	0x3a13a272	0.0005631811
47	0x3bd61a5a	0.006533903
48	0x3a51b146	0.0007999133
49	0x3a924a08	0.0011160979
50	0x39214afa	0.00015382087
51	0xbbd03588	-0.0063540377
52	0x3b0fd53b	0.0021947164
53	0xbb50ed3a	-0.003187968
54	0xbb895904	-0.0041915197
55	0xbc0e6e7f	-0.0086933365
56	0x3b1737f2	0.0023074117
57	0x3bf94947	0.0076076123
58	0x3c0a069b	0.008424426
59	0x3c61027c	0.0137335025
60	0x3afb3259	0.0019164785
61	0xbbb073ed	-0.005384913
62	0xbb6b0ab7	-0.003586454
63	0x3c29325d	0.010326949
64	0xbb7059f8	-0.003667472
65	0xbc07ea05	-0.008295541
66	0xb987e507	-0.00025919845
67	0xbb4d18c2	-0.0031295274
68	0xbbad690c	-0.0052920636
69	0xbb426cdb	-0.0029666934
70	0xbb302f9c	-0.0026883846
71	0xba98bd80	-0.0011653155
72	0xba805919	-0.0009792178
73	0x3bb887c4	0.005631419
74	0xba924ecb	-0.0011162398
75	0x3b4f2609	0.0031608364
76	0xba2c8172	-0.0006580568
77	0xbbce0854	-0.006287614
78	0x3b823c21	0.003974453
79	0xbc308404	-0.0107736625
80	0xbb514b25	-0.0031935659
81	0x3c3ca09e	0.0115129035
82	0xb9a9517c	-0.00032294902
83	0xbb776b57	-0.0037753189
84	0xbbe608d9	-0.0070200977
85	0xbb0fd992	-0.002194975
86	0xba652981	-0.00087418413
87	0x3b30b42e	0.0026962864
88	0xbbbf407e	-0.0058365455
89	0xbb73e1e8	-0.0037213508
90	0x3ab888de	0.0014078876
91	0xbc1073c7	-0.008816666
92	0x3aef1a1c	0.0018242034
93	0x3c07630d	0.008263362
94	0x3ae72bec	0.0017636991
95	0x3b942d90	0.004522033
96	0xba264ba6	-0.000634367
97	0x3a55a9e6	0.0008150622
98	0x3b4f1757	0.0031599605
99	0x3ac7ce3f	0.0015243961
100	0x3bf5c0e9	0.0074998033
101	0xbbcca5ea	-0.0062453644
102	0xba9f86d2	-0.0012170917
103	0xbb12b881	-0.0022387805
104	0x3b8a14a6	0.0042138873
105	0x3b089959	0.0020843355
106	0xbb791a51	-0.003801007
107	0x38ce4e08	9.83738e-05
108	0x397a849e	0.00023891262
109	0xba558835	-0.00081456016
110	0xb943aa1b	-0.00018660018
111	0xbc00e37b	-0.007866736
112	0x3b5434d4	0.003238012
113	0xba0b67a3	-0.0005317872
114	0xbb894374	-0.0041889492
115	0x3b055904	0.0020347247
116	0xb978a9a9	-0.00023714326
117	0x3a95e388	0.0011435607
118	0x3b9280dc	0.0044709276
119	0xb78096d4	-1.5329024e-05
120	0xbc1c5ea8	-0.009544052
121	0xbac656aa	-0.0015132029
122	0x3a13f4bb	0.00056440727
123	0xbc31a5f9	-0.010842794
124	0x3ad8acc4	0.001653098
125	0x3a1e2022	0.000603201
126	0xba6f0bb6	-0.00091188715
127	0xbc8498b8	-0.016186103

bn2.running_mean f4 [128]
0	0x3cb18970	0.02167198
1	0xbba1ea58	-0.004941266
2	0xbcd46fcf	-0.02593222
3	0x3cf623b6	0.030046325
4	0xbc687cd8	-0.014189921
5	0x3d27fe0e	0.04101377
6	0xbc01f5d1	-0.007932142
7	0xbd005b54	-0.031337097
8	0x3c702ac4	0.014658634
9	0x3c120854	0.008913118
10	0xbc0f265f	-0.008737176
11	0x3cf5fe64	0.03002853
12	0x3a26f311	0.0006368617
13	0x3d024a77	0.031809296
14	0x3d24124a	0.040056504
15	0x3cad1d8a	0.02113225
16	0xbce679a8	-0.028134182
17	0x3ca1d652	0.019755516
18	0xbc9f4efe	-0.019446846
19	0xbcf05cc7	-0.029341115
20	0xbc973952	-0.01845995
21	0xbabaff55	-0.0014266769
22	0xbd24728f	-0.040148314
23	0xbc52c244	-0.012863699
24	0x3c671787	0.01410473
25	0xbb5e0cdc	-0.0033882177
26	0xbc68aadc	-0.014200892
27	0xbc5a0036	-0.013305714
28	0xbac38fa4	-0.0014920128
29	0x3c95b4a3	0.01827461
30	0x3bbd2b76	0.005773003
31	0xbd287ea3	-0.041136395
32	0x3cd8c426	0.026460718
33	0xbcbcc15e	-0.023041423
34	0xbbd8ed20	-0.0066200644
35	0x3c4036aa	0.011731783
36	0x3d391bca	0.045192517
37	0x3cb27215	0.021782914
38	0x3d593f91	0.053039137
39	0x3c04d1a7	0.008106626
40	0xbb84c9e7	-0.004052389
41	0xbb05e6d7	-0.002043178
42	0x3cbc76ab	0.023005804
43	0xbb6cdd7f	-0.0036142764
44	0x3cd70ce3	0.026251262
45	0x3d2bc7b0	0.041938484
46	0xbc6bc69f	-0.014390617
47	0x3b9fbf45	0.004875096
48	0x3cde4d4e	0.027136471
49	0xbcf37685	-0.0297196
50	0x3a84cc38	0.0010131663
51	0x3c720e56	0.014773926
52	0x3d5f6824	0.054542676
53	0xbd20a284	-0.039217487
54	0x3ca04d6b	0.019568166
55	0xbb680666	-0.0035404204
56	0xbc404088	-0.011734135
57	0xbbbcbbd2	-0.0057596946
58	0xbbc39357	-0.005968492
59	0x3caac00b	0.020843526
60	0x3d20edb5	0.039289195
61	0x3ca0f949	0.019650118
62	0xba525ab4	-0.000802438
63	0x3d440465	0.047855753
64	0xbd77be82	-0.060484417
65	0xbd555add	-0.052088607
66	0xbcc09fea	-0.023513753
67	0x3b42435e	0.0029642205
68	0xbcee3a3e	-0.029080506
69	0xbcd6853e	-0.026186582
70	0xbbbab43e	-0.005697756
71	0xbcb0c61d	-0.021578843
72	0x3c014797	0.0078906035
73	0xbce1837d	-0.027528519
74	0xbce3201d	-0.027725274
75	0x3d14a6ea	0.036291994
76	0x3d8a76c6	0.067609355
77	0xbd3620af	-0.044464763
78	0x3c94d942	0.018170003
79	0xbb3cce19	-0.0028809367
80	0xbd011b06	-0.031519912
81	0x3c0f82b0	0.008759186
82	0xbc98c9a0	-0.01865083
83	0xbb0aca84	-0.0021177838
84	0xbce3963e	-0.027781602
85	0x3c6d4931	0.014482782
86	0x3b6410ce	0.0034800055
87	0xbd0834df	-0.033253547
88	0xbcc127d6	-0.023578566
89	0x3cccd47c	0.025003664
90	0x3d265416	0.040607534
91	0xb9f70740	-0.00047116913
92	0x3c76696c	0.015039783
93	0x3d40dd7e	0.04708623
94	0xbcd190fc	-0.02558183
95	0x3cb8391f	0.022488175
96	0xbd6517a5	-0.055930752
97	0x3c35163d	0.011052665
98	0xbc36e7bc	-0.011163648
99	0xbc83f4e3	-0.016107982
100	0x3c7e94db	0.01553842
101	0xbd24474b	-0.040107053
102	0xbc15040e	-0.009095205
103	0xbc815af9	-0.01579045
104	0x3d2ae993	0.04172666
105	0xbbc10117	-0.0058900225
106	0xbc3fcce4	-0.011706565
107	0x3c2d92b2	0.010594057
108	0x371b4900	9.255717e-06
109	0xbaa5e5a4	-0.0012656939
110	0xbbae99c9	-0.005328391
111	0xbc8debca	-0.017324347
112	0xbbebf919	-0.0072013256
113	0xbd4680ae	-0.048462562
114	0xbc2f01dc	-0.010681596
115	0x3c9ba8e9	0.019001441
116	0x3c8b6465	0.017015645
117	0xbc4333fe	-0.011914251
118	0x3c131e2a	0.00897936
119	0xbd0ccd3e	-0.03437542
120	0xbc836ceb	-0.016043147
121	0x3c14f798	0.009092234
122	0x3c2e82b4	0.010651279
123	0xbba85869	-0.0051374924
124	0x3cdf8b80	0.027288198
125	0xbb1a79e8	-0.0023571197
126	0xbb786d5d	-0.0037906982
127	0xbcf591fa	-0.029976834

bn2.running_var f4 [128]
0	0x3e249c61	0.16075279
1	0x3e348b10	0.17631173
2	0x3e5ba5c0	0.21449947
3	0x3e339d58	0.1754049
4	0x3e2efaad	0.17087813
5	0x3e5d16c9	0.21590723
6	0x3e081f39	0.1329316
7	0x3e589e0d	0.21154042
8	0x3e479227	0.19489346
9	0x3e25b3b5	0.16181834
10	0x3e16d21b	0.14728586
11	0x3e1ff751	0.15621687
12	0x3e02cb98	0.12772977
13	0x3e2af8e4	0.16696507
14	0x3e431ba3	0.19053511
15	0x3e0c8917	0.1372417
16	0x3e0ae937	0.13565527
17	0x3e2418e6	0.16025123
18	0x3e22ea2d	0.15909643
19	0x3e352c5b	0.17692702
20	0x3e3402e5	0.17579229
21	0x3e1dcb1e	0.15409514
22	0x3e345aad	0.17612715
23	0x3e1c5661	0.15267326
24	0x3e14f3ba	0.145461
25	0x3e529c71	0.2056749
26	0x3e186b23	0.1488462
27	0x3e328940	0.17435169
28	0x3e4a8337	0.19776617
29	0x3e30f3e0	0.17280531
30	0x3e1a26d8	0.1505388
31	0x3e47bbbc	0.19505209
32	0x3e31ee40	0.17376041
33	0x3e485947	0.19565307
34	0x3e0c9137	0.1372727
35	0x3e31e825	0.17373712
36	0x3e30864d	0.17238732
37	0x3e193a78	0.1496371
38	0x3e32b4bd	0.17451759
39	0x3e2fbf8f	0.17162918
40	0x3e0250f3	0.12726192
41	0x3e18cbbb	0.14921467
42	0x3e77c734	0.24197084
43	0x3e177b7e	0.14793202
44	0x3e3282c6	0.17432699
45	0x3e6c2265	0.23059995
46	0x3e39fae6	0.18162116
47	0x3e09701e	0.13421676
48	0x3e67274b	0.22573583
49	0x3e4ae393	0.19813375
50	0x3e28f5df	0.16500042
51	0x3e10e61a	0.14150277
52	0x3e735e76	0.23766503
53	0x3e878a8f	0.264729
54	0x3e04fcef	0.12987112
55	0x3e21eb4a	0.15812412
56	0x3e5b8c07	0.21440135
57	0x3e20c186	0.15698823
58	0x3e28842d	0.16456671
59	0x3e0a9a5c	0.13535446
60	0x3e3abffb	0.18237297
61	0x3e3c65c6	0.18398198
62	0x3e16aa3b	0.14713375
63	0x3e109acb	0.14121549
64	0x3e5ef72b	0.21773975
65	0x3e7653fc	0.24055475
66	0x3e14352d	0.1447341
67	0x3e4f1d5a	0.2022604
68	0x3e4d0d18	0.20024526
69	0x3e56fe21	0.2099538
70	0x3e29a73d	0.16567703
71	0x3e4b56f5	0.1985739
72	0x3e27eb9e	0.16398475
73	0x3e4317f4	0.19052106
74	0x3e246da1	0.16057445
75	0x3e7e19b6	0.24814495
76	0x3e90d6c1	0.28288844
77	0x3e48424c	0.1955654
78	0x3e28e067	0.16491853
79	0x3e27eb53	0.16398363
80	0x3e5a96fa	0.21346655
81	0x3e244e4f	0.16045497
82	0x3e281e7a	0.16417876
83	0x3e2e1ad6	0.17002425
84	0x3e38c898	0.1804527
85	0x3e5aa3e1	0.21351577
86	0x3e383c98	0.17991865
87	0x3e4a5cf1	0.19762017
88	0x3e32490f	0.17410682
89	0x3e630bee	0.2217252
90	0x3e5c8e16	0.21538576
91	0x3e346a8c	0.1761877
92	0x3e469a9b	0.19394915
93	0x3e37fc8a	0.1796743
94	0x3e236a37	0.15958486
95	0x3e5b3911	0.21408488
96	0x3e35037c	0.1767711
97	0x3e620df5	0.22075637
98	0x3e2f4299	0.17115249
99	0x3e2af281	0.1669407
100	0x3e11e02b	0.1424567
101	0x3e3b8bcb	0.18315046
102	0x3e2ac625	0.16677149
103	0x3e37555b	0.17903654
104	0x3e7907e5	0.24319418
105	0x3e12af37	0.14324652
106	0x3e3df6e2	0.1855121
107	0x3e499a45	0.19687755
108	0x3e2be614	0.16786987
109	0x3df3aa09	0.11897666
110	0x3e117b53	0.142072
111	0x3e3b9a80	0.18320656
112	0x3e3ebcb0	0.18626666
113	0x3e23a3ca	0.1598045
114	0x3e4fe92e	0.20303795
115	0x3e0ccca2	0.13749936
116	0x3e20d2bc	0.15705389
117	0x3e0e2ffa	0.13885489
118	0x3e0f2569	0.13979115
119	0x3e542450	0.20716977
120	0x3e3bc70e	0.18337652
121	0x3e110e75	0.14165671
122	0x3e27e079	0.16394223
123	0x3e2f9d98	0.17149961
124	0x3e85c9bd	0.26130477
125	0x3e63afc7	0.22235022
126	0x3e64f91b	0.22360651
127	0x3e4478b5	0.19186671

hidden3.weight f4 [16, 128]
0	0xbd953379	-0.07285208
1	0xbd6bec1d	-0.057598222
2	0xbd171427	-0.036884453
3	0xbd55a7ed	-0.0521621
4	0x3d839f23	0.06426837
5	0xbd5eb25e	-0.054369323
6	0xbd0f9cc8	-0.035061628
7	0x3d7c8412	0.06164939
8	0xbd735038	-0.059402674
9	0x3d54515b	0.0518354
10	0xbdbad6bf	-0.09122991
11	0xbd85e64a	-0.06538065
12	0xbd8b6350	-0.06806052
13	0xbd2c3a56	-0.04204782
14	0x3d394f1f	0.04524147
15	0x3ccd7b6a	0.025083262
16	0xbb82c328	-0.0039905496
17	0x3d88261e	0.06647895
18	0xbd9d0e2a	-0.07668717
19	0xbccea04b	-0.025222918
20	0x3d29927b	0.04139946
21	0x3cf96ea2	0.030448262
22	0xbd13f9c8	-0.03612688
23	0x3d5ad072	0.053421445
24	0xbd8e3b37	-0.06944888
25	0x3d96ecf7	0.07369416
26	0x3d94b252	0.072605744
27	0x3d83e058	0.064392745
28	0x3d4bf55e	0.049794547
29	0xbd128f97	-0.03578147
30	0xbd05b9cb	-0.03264789
31	0xbd836ced	-0.0641726
32	0x3c34de8b	0.0110393865
33	0x3c5fa9d6	0.013651332
34	0x3b26e9ad	0.0025468871
35	0xbd1204e0	-0.03564918
36	0xbce57fd1	-0.02801505
37	0x3b97f9bb	0.0046379245
38	0x3b1ea490	0.0024206974
39	0x3d9e0958	0.07716626
40	0xbbf7817e	-0.0075532785
41	0x3c1baa95	0.009501119
42	0xbdb749a7	-0.08949595
43	0x3cb20112	0.021729026
44	0xbb012cf1	-0.0019710625
45	0xbca4cbc3	-0.020116692
46	0x3d44d2e2	0.048052676
47	0xbcc158e7	-0.023601962
48	0xbc1fdf94	-0.009757895
49	0xbabb3ada	-0.0014284507
50	0x3d768a9d	0.060190786
51	0x3c66b030	0.014080092
52	0x3d470a6a	0.048593916
53	0x3da3d026	0.079986855
54	0x3c578d52	0.013156252
55	0x3cc06891	0.023487361
56	0xbda2f101	-0.07956124
57	0xbd2ec8df	-0.042672034
58	0xbd96c8e0	-0.073625326
59	0x3b13bf47	0.002254443
60	0xbcfd506b	-0.030922135
61	0xbb992c73	-0.004674488
62	0xbd6da82f	-0.05802172
63	0x3c77e46d	0.015130145
64	0x3cfd5f8e	0.030929353
65	0xbd8c1cce	-0.068414316
66	0x3d6e6259	0.05819926
67	0xbd6be7b6	-0.057594024
68	0xbd67cca4	-0.056591645
69	0x3d987f04	0.07446101
70	0x3c864431	0.016389938
71	0xbd82f0c7	-0.06393581
72	0x3da196d5	0.07890097
73	0xbc6da6e0	-0.014505118
74	0xbd584eda	-0.052809574
75	0x3d795ed7	0.060881462
76	0xbdb6a91a	-0.08918972
77	0xbc37b7dc	-0.011213269
78	0xbcf32cf4	-0.029684521
79	0x3c00ad09	0.007853755
80	0x3d2744a3	0.04083694
81	0xbd84e2c6	-0.06488566
82	0x3d20b5fe	0.03923606
83	0xbc3ec736	-0.011644175
84	0xbd5371a7	-0.05162206
85	0x3d8fe045	0.07025198
86	0xbdac047e	-0.08399294
87	0xbc0c2e47	-0.008555955
88	0x3d257cca	0.04040221
89	0xbcf89550	-0.030344635
90	0xbdb13199	-0.08652038
91	0x3d02d9e5	0.03194608
92	0x3ba04e69	0.0048921597
93	0x3d442ccc	0.047894284
94	0x3c425b44	0.01186258
95	0xbd84de22	-0.06487681
96	0x3d9629b7	0.07332175
97	0xbcd89d52	-0.026442204
98	0xbd91b61a	-0.07114811
99	0xbda5793e	-0.08079766
100	0xbd2596b7	-0.040426936
101	0xbd90b568	-0.070658505
102	0xbd5db683	-0.054129135
103	0x3d6ca9c3	0.057779085
104	0x3d011ace	0.031519704
105	0x3d0c2909	0.03421882
106	0x3aaedf50	0.0013341699
107	0x3d8101ca	0.06299169
108	0xbd097cfc	-0.03356646
109	0xbda3fdb3	-0.08007374
110	0xbc309fa4	-0.010780249
111	0x3c2b9a16	0.010473749
112	0xbd452e38	-0.04813978
113	0xbd3a54eb	-0.04549114
114	0x3c6b6b4c	0.014368843
115	0xbd3bec4a	-0.04587964
116	0x3be41278	0.0069602095
117	0x3beac58f	0.007164664
118	0xbd8ba9d8	-0.068195045
119	0x3dbc6d42	0.09200527
120	0x3d4b59d9	0.049646232
121	0x3d2fcd02	0.04292012
122	0xbd999c29	-0.07500488
123	0x399ea5da	0.00030259677
124	0xbd2c09f6	-0.042001687
125	0xbd5a30d1	-0.05326921
126	0x3c08331f	0.0083129695
127	0x3d149e09	0.036283527
128	0x3ce92d2f	0.028463928
129	0xbc8d9b47	-0.017285956
130	0x3d6a71aa	0.057237305
131	0xbd9f5d9f	-0.07781529
132	0xbd2d4f79	-0.04231212
133	0xbd4d3963	-0.050103556
134	0x3d4e9dfe	0.05044364
135	0xbc310a2d	-0.010805649
136	0x3d43a823	0.04776777
137	0xbcfc5cac	-0.030805908
138	0xbcbf271b	-0.023334077
139	0x3d596329	0.053073082
140	0xbde1393c	-0.10997245
141	0xbcebbe72	-0.028777335
142	0xbd01631b	-0.031588655
143	0x3be5fd08	0.007018689
144	0x3bc10434	0.0058903936
145	0xbbc06f98	-0.005872678
146	0xbc23e577	-0.010003439
147	0xbd4e415e	-0.050355308
148	0xbd30df90	-0.043181956
149	0x3d103367	0.03520527
150	0x3d2019bf	0.039087053
151	0xbd25a0e7	-0.04043665
152	0xbda3b7d6	-0.07994048
153	0x3da7abce	0.08187066
154	0x3d60c5bc	0.054876074
155	0x3c302446	0.010750836
156	0x3b7b712d	0.0038367019
157	0xbc577663	-0.013150784
158	0x3d25d233	0.040483665
159	0xbd9ef310	-0.07761204
160	0xbdb01099	-0.08596916
161	0xbd873dd8	-0.06603593
162	0xbde33a19	-0.110950656
163	0x3d9446f6	0.07240097
164	0xbd54003d	-0.05175804
165	0xbc8a769a	-0.016902257
166	0x3d3ebb57	0.04656538
167	0xbd53c54f	-0.05170184
168	0x3baa643e	0.005199938
169	0xbd8583c7	-0.06519275
170	0xbb22eacd	-0.002485919
171	0xbc3970aa	-0.011318365
172	0x3d72544b	0.05916242
173	0x3d92d8c7	0.07170253
174	0xbd3101cb	-0.0432146
175	0xbd9080fd	-0.070558526
176	0x3dcade6d	0.099057056
177	0xbd67606a	-0.056488432
178	0xbdbdde46	-0.09270911
179	0x3d8028e0	0.06257796
180	0xbcdebd29	-0.027189808
181	0x3d0ee334	0.034884647
182	0x3d1612c5	0.036638994
183	0xbca370d6	-0.019951265
184	0xbb860cf1	-0.004090898
185	0x3d1cff94	0.038329676
186	0x3d99dcbe	0.07512806
187	0xbd0b4729	-0.03400341
188	0xbd852106	-0.06500439
189	0x3bf8d0af	0.0075932364
190	0x3df18390	0.11792672
191	0xbd855228	-0.06509811
192	0xbd6c479d	-0.057685483
193	0x3d96ef3d	0.0736985
194	0xbd9e3529	-0.07724983
195	0x3d2d9a4b	0.042383473
196	0x3d33d056	0.043899857
197	0xbd31c3d6	-0.043399654
198	0xbd3868d1	-0.045021836
199	0x3cbb410d	0.022858167
200	0xbd305b17	-0.04305562
201	0x3bb54d22	0.0055328766
202	0x3c1a581e	0.009420423
203	0x3bb4aab3	0.005513513
204	0x3d8267bd	0.06367443
205	0xbd4168fc	-0.04721926
206	0xbd11ffd9	-0.035644386
207	0xbc5fb909	-0.013654956
208	0xbd294173	-0.041322183
209	0xbd6f1a1e	-0.058374517
210	0xbda52d10	-0.080652356
211	0xbd3b1544	-0.045674577
212	0xbd1b3a92	-0.037897654
213	0x3be6ec6c	0.0070472267
214	0x3d145356	0.036212288
215	0xbb1c6c7d	-0.0023868375
216	0x3d5ce14e	0.053925805
217	0x3d7eda22	0.062219746
218	0x3d5678ad	0.05236118
219	0x3d875f44	0.06609967
220	0xbdbd8807	-0.09254461
221	0xbd9fda97	-0.078053646
222	0x3d3a5c82	0.04549838
223	0xbcfa1196	-0.030525964
224	0xbd33f196	-0.043931566
225	0xbd384133	-0.044984054
226	0x3d732545	0.059361715
227	0xbd9187ee	-0.07106005
228	0x3a5c2305	0.00083975523
229	0x3d83ad34	0.0642952
230	0x3cad5f7c	0.021163695
231	0x3d0390a8	0.032120377
232	0xbcd6153a	-0.026133168
233	0x3c2f6d31	0.010707186
234	0xbcee33f9	-0.029077517
235	0x3d84f28c	0.06491575
236	0xbc725b1b	-0.014792229
237	0x3d418dec	0.047254488
238	0x3c9437b6	0.018092971
239	0xbc8372ae	-0.016045894
240	0x3dba8240	0.091068745
241	0xbc03351f	-0.0080082705
242	0xbcc89eb2	-0.024489734
243	0x3d1e89ab	0.03870551
244	0x3cd397d7	0.025829239
245	0xbd1c7ed0	-0.038206875
246	0xbd8c0523	-0.06836917
247	0xbc7ac32b	-0.015305321
248	0xbcfb6cc1	-0.030691506
249	0xbb0df3b6	-0.0021660156
250	0x3d2d918c	0.042375132
251	0x3d2ef9b9	0.042718623
252	0xbcc2e924	-0.02379281
253	0x3cbc78ed	0.02300688
254	0x3dd25b07	0.10271268
255	0x3b8f2a5c	0.0043690633

bn3.weight f4 [16]
0	0x3f7f3725	0.9969352
1	0x3f749759	0.9554344
2	0x3f7f3796	0.9969419
3	0x3f789044	0.9709513
4	0x3f79534a	0.97392714
5	0x3f7f12de	0.99638164
6	0x3f70ca32	0.94058526
7	0x3f7dfc24	0.9921286
8	0x3f73b413	0.95196646
9	0x3f7783d0	0.96685505
10	0x3f737fbf	0.951168
11	0x3f745896	0.9544767
12	0x3f7b706b	0.9821841
13	0x3f7cc493	0.9873745
14	0x3f7ed228	0.99539423
15	0x3f7fbdbc	0.99898887

bn3.bias f4 [16]
0	0xbd9f90e5	-0.07791308
1	0xbe93da00	-0.28877258
2	0xbd964e6b	-0.07339176
3	0x3e523514	0.2052806
4	0x3e51e3d0	0.2049706
5	0x3d8b41f0	0.06799686
6	0x3ea86366	0.32888335
7	0x3deb397b	0.11485573
8	0xbe99ee16	-0.30064458
9	0xbe9988a3	-0.29987058
10	0x3e9c1922	0.30487925
11	0x3edf0ee1	0.4356604
12	0xbe3952f0	-0.18098044
13	0xbe125447	-0.14289962
14	0x3dba23e2	0.09088875
15	0x3cb2b757	0.021815939

bn3.running_mean f4 [16]
0	0xbc7b87dc	-0.015352216
1	0x3beb6e93	0.0071848123
2	0xbcd84162	-0.026398364
3	0xbacd67fc	-0.0015671249
4	0xbcc560c6	-0.024093997
5	0x3b36a35e	0.002786837
6	0x3cb14ba8	0.021642521
7	0xbc3291a2	-0.010898979
8	0x3ca6459d	0.020296866
9	0xbd7d02d7	-0.061770286
10	0xbc2b4023	-0.010452303
11	0x3d843dc3	0.064570926
12	0x3c55a1c9	0.013039061
13	0xbbd48e99	-0.0064867255
14	0x3c52aaa6	0.012858069
15	0x3b94683a	0.0045290263

bn3.running_var f4 [16]
0	0x3e87c902	0.26520544
1	0x3ec4832c	0.38381326
2	0x3e9a25cd	0.30106965
3	0x3e8fe653	0.2810541
4	0x3e9a6721	0.30156806
5	0x3e78aac1	0.24283887
6	0x3ea58b09	0.32332638
7	0x3e86cebe	0.26329607
8	0x3eda63c3	0.42654237
9	0x3f2e49fd	0.6808165
10	0x3ebbef92	0.36706215
11	0x3f46f965	0.77724296
12	0x3e90b476	0.2826268
13	0x3e939115	0.28821626
14	0x3e8171a9	0.25282028
15	0x3e585978	0.2112788

output.weight f4 [1, 16]
0	0x3de7e9ac	0.11323866
1	0x3eb000ce	0.34375614
2	0x3dc11f48	0.094297945
3	0xbe5a14f8	-0.21297061
4	0xbe78be30	-0.24291301
5	0xbddf6ee7	-0.10909825
6	0xbebbc5a1	-0.36674216
7	0xbe2b1dc7	-0.16710578
8	0x3ec2e6e2	0.38066775
9	0x3ebd10c6	0.3692686
10	0xbeb76ef7	-0.35826847
11	0xbf13b4eb	-0.57697934
12	0x3e570b6f	0.21000455
13	0x3e2c09fb	0.16800682
14	0xbd4015e6	-0.046895884
15	0x3cd065e7	0.025439216
