models/focal_loss_checkpoints/checkpoint_epoch_440.pth (torch, 100242 bytes, 16 tensors)

hidden1.weight f4 [128, 30]
000000 f2 3a d8 3d 1d 88 22 be 35 4e 8e bd f2 d2 65 bd
       0.10558118 -0.15872236 -0.069485106 -0.056109376
000010 38 ef cb 3d 5b 2b d0 bd 0f 99 f8 3c 41 4a c0 3c
       0.09957737 -0.101645194 0.030346422 0.023472907
000020 d2 0c d6 3c ae 71 e8 bd 78 3a 06 be 93 43 51 3e
       0.02612916 -0.11349808 -0.13108242 0.20435934
000030 01 a0 ab bd 29 cd 6d 3c 47 4f 83 bd 6d 6e eb 3d
       -0.08380128 0.014514246 -0.06411605 0.114956714
000040 1e 45 54 be 62 39 59 3d 6e ed 20 3e c3 2e 88 3e
       -0.20729491 0.05303324 0.15715572 0.26598176
000050 85 7a 47 3d 7d 63 53 3d 6d 06 ec bd 06 ea 8d 3c
       0.048700828 0.05160855 -0.11524663 0.017323505
000060 36 56 99 3d b9 8b b3 3d 7f 2c ba bd 6c 29 d9 3d
       0.074871466 0.08766884 -0.09090518 0.10603604
000070 9b 01 ea 3d 77 e0 94 bd 80 43 3f be d2 13 28 3b
       0.114260875 -0.07269376 -0.18678093 0.002564658
000080 50 50 15 3d e4 04 0b 3d ed 40 5b bc 2b 5e 13 3b
       0.036453545 0.03394021 -0.013382179 0.0022486548
000090 d4 76 a3 bd cd fa d1 ba 0c 70 27 bd df b8 16 be
       -0.07981649 -0.0016020179 -0.04087834 -0.1471896
0000a0 08 98 7c bd 02 0e 2a be 7a 06 31 3e 05 d8 20 3e
       -0.061668426 -0.16606906 0.17287627 0.15707405
0000b0 8d 18 71 3d 86 09 3a bd ff 87 db bd c4 84 87 3d
       0.058861304 -0.04541924 -0.107192986 0.0661712
0000c0 18 94 e4 3d 4a e8 d4 3d 78 bb 2d be dc 90 01 be
       0.11161059 0.10395868 -0.16966045 -0.12652916
0000d0 17 db f2 bd 65 e1 fa 3c 07 68 5a 3e 17 a9 21 be
       -0.11858194 0.030625055 0.21328746 -0.15787159
0000e0 cc 51 c6 3d f7 33 3f 3c 03 b9 0a be 2a 0a 1c bd
       0.0968357 0.011670104 -0.13547139 -0.03809563
0000f0 03 11 14 3e a1 60 14 3c 4f a1 13 3d e7 cd 0c be
       0.14459614 0.009056241 0.036042508 -0.1375042
000100 24 10 0c 3c b3 a2 b9 3d 53 9c bb 3d c3 ff 36 bd
       0.00854877 0.090642355 0.09160676 -0.044677507
000110 08 a2 b8 3d 66 05 e2 3d 05 ee 86 3c 36 b2 0d be
       0.0901528 0.11036186 0.016470918 -0.13837513
000120 7d 99 38 be 2a 7f ea 3d 9e cc 05 3e 66 e1 21 3e
       -0.18027301 0.11450036 0.13066337 0.15808639
000130 c8 18 2a be 74 42 40 be 42 d4 af bd 4e 9b ea bd
       -0.16611016 -0.1877535 -0.08585407 -0.11455403
000140 a6 50 49 3d f5 03 13 bd 28 10 2a be 1e ac ae bd
       0.049149178 -0.035892446 -0.16607726 -0.085289225
000150 32 08 db bd 9b 04 b4 bd 37 7e 47 3d d4 a0 85 bd
       -0.106949225 -0.08789941 0.048704352 -0.06524816
000160 c5 e6 57 3c 0d 57 15 3e 0f b1 ad bc 7d 7d 2a 3e
       0.013177578 0.14583988 -0.021202592 0.16649432
000170 02 50 a6 bd 38 5a 97 bc 20 00 a2 bd f0 ce 68 3c
       -0.08120729 -0.018475637 -0.0791018 0.014209494
000180 bf f1 37 3d 27 00 12 3d 72 ee 6c bc 4a 1a 70 bd
       0.04490828 0.035644677 -0.014461147 -0.05861882
000190 a3 e2 0f 3e 1b c5 36 be 12 20 2b 3d 87 ff 7b 3d
       0.14051299 -0.17848627 0.04177863 0.061522987
0001a0 f7 57 56 bd ff 20 14 3e 97 11 00 be 32 99 b2 bc
       -0.052329984 0.14465712 -0.1250671 -0.021801565
0001b0 97 84 c2 bd 94 0a b3 bc 47 0f cf bc 71 44 13 be
       -0.09497946 -0.02185563 -0.02527584 -0.14381577
0001c0 aa 37 87 3d 27 02 38 bc fa 05 71 3e 98 01 44 3e
       0.06602414 -0.011230982 0.23537436 0.19141233
0001d0 69 db 18 be cf 51 6e 3d 76 23 f6 3c d3 a8 ea bd
       -0.14927448 0.058183488 0.030046206 -0.11457982
0001e0 ba 28 83 3d 26 d1 61 3c 78 e3 4f be a9 25 00 be
       0.06404252 0.013782775 -0.20301616 -0.12514366
0001f0 e0 36 25 be 55 b1 e9 bd b4 54 f4 3d ee 1b e2 bd
       -0.16134214 -0.114107765 0.11930218 -0.110404834
000200 c6 fb f6 3b 3c 68 39 3e a0 a9 e6 3d 80 81 96 3d
       0.007537338 0.18106169 0.11262822 0.07348919
000210 bc 03 58 3e 90 03 b4 bd 1e 74 c0 3d 3b 78 c7 bd
       0.21095175 -0.08789742 0.093971476 -0.09739729
000220 ad b2 e4 3d 20 85 8f bc 73 79 f8 bd bf cb 68 be
       0.11166892 -0.017519534 -0.121325396 -0.22733973
000230 ed 6a da 3c 2b 7e 3c 3a 6d 0d a3 bd d3 48 fa 3c
       0.026662314 0.00071904314 -0.07961545 0.030552303
000240 0e 9a 0d 3e e4 14 20 3e 39 9b c2 3c ab 69 63 bd
       0.13828298 0.15632969 0.023755657 -0.055520695
000250 b6 e5 8e 3c 8a 17 bf 3c 39 7c 90 bd c8 e0 91 bd
       0.01744352 0.023326654 -0.070549436 -0.07122952
000260 8a 67 28 3e ab 51 57 3d 6b 3b 5f 3e d9 53 85 3d
       0.16445747 0.05256812 0.2180001 0.06510133
000270 b8 f8 37 3e 9b d9 9c 3c be d1 e6 bc b2 ee b8 3c
       0.17965972 0.019146731 -0.028176185 0.022574756
000280 fe 84 8a 3d a1 29 b5 3d 08 a9 41 bd bc 17 dc 3d
       0.067636475 0.08845831 -0.04728034 0.107467145
000290 ac 6a 21 be 33 1a 74 3d 0a 78 c9 3d 5d 31 9d bd
       -0.15763348 0.059595298 0.09837349 -0.07675431
0002a0 a4 42 53 bd d8 8d 07 3e 10 df 99 3d b4 a8 02 bd
       -0.051577225 0.13237703 0.07513249 -0.03189917
0002b0 28 33 fa bd c3 eb ce 3c 07 fc c8 3d a6 2b 00 be
       -0.122167885 0.025258904 0.098136954 -0.1251665
0002c0 c9 fb 8e bd a2 d4 00 be 34 3e 65 bd 12 8b 46 3d
       -0.06981618 -0.12581113 -0.055967525 0.04847247
0002d0 81 12 b8 bd b4 66 52 bd b6 3b 34 3d 26 a7 25 be
       -0.08987904 -0.051367477 0.044002257 -0.16177043
0002e0 2b b6 5b bd c5 3b 26 3e 42 45 5f bd 08 d9 08 3e
       -0.053640526 0.16233738 -0.05450941 0.13364041
0002f0 7a c3 92 3b 3e 83 04 be 2d 4e 44 bd e7 5d 2d be
       0.004478869 -0.1294069 -0.047926117 -0.16930352
000300 68 cc 44 3e 94 2a 4c 3e 88 e9 fb 3d 3e 2a 05 3d
       0.192186 0.19938117 0.12300402 0.03251099
000310 ba 44 e1 3d a7 60 8e 3d 82 7a 65 3c 9e de f2 3c
       0.10999437 0.06952029 0.014006259 0.029647168
000320 e9 37 74 3d 87 92 e6 bc 50 33 2d be 24 23 ef 3d
       0.059623633 -0.028146042 -0.16914105 0.116766244
000330 11 03 e7 3d 47 ba 0e be 28 1b 78 3d ff 41 4e 3d
       0.11279882 -0.13938247 0.060572773 0.050355908
000340 3f 81 fc 3b 31 29 ff bc 00 2d 6b bc e5 5b 86 bd
       0.007705837 -0.031147571 -0.014353991 -0.06560496
000350 f6 7a 2d 3c 88 3e 16 3e a4 f9 38 be f2 3b 0e be
       0.010588398 0.14672291 -0.1806398 -0.13890055
000360 f8 d9 87 3d 6a b4 d9 bc 63 85 cf bd b9 6c f7 bb
       0.06633371 -0.026575286 -0.101328634 -0.0075508025
000370 f1 7e 8f 3d 0f 0f 4b be 55 e4 b3 bb 2e 15 9a 3c
       0.07006634 -0.19829963 -0.005489866 0.018808927
000380 ce a4 a5 3d 16 4b 99 bc b7 26 20 3e a2 ea 0b 3e
       0.080880746 -0.018712562 0.15639769 0.13663724
000390 12 e5 cc bd 3d a8 14 3d 09 e0 d3 3d 7c 94 55 bd
       -0.10004629 0.036293257 0.10345466 -0.05214356
0003a0 49 5a 26 3e 3c b2 9a bc 9b 0b 32 3e 13 48 41 bd
       0.16245379 -0.018883817 0.1738724 -0.047187876
0003b0 6a c3 3d 3e 7d be cd bd 97 95 aa 3d 27 dd 2e bd
       0.18531576 -0.100460984 0.08329313 -0.042691376
0003c0 df 19 cf bd 4d c4 98 3d 1f 5e 24 be 43 53 34 3e
       -0.101123564 0.074593164 -0.1605153 0.17609887
0003d0 24 73 b4 3d 2f 82 05 bd 47 81 f5 3c 83 e2 03 3e
       0.08811024 -0.032594856 0.02996887 0.12879376
0003e0 fb 3a e6 3c 35 4e 2e 3d 8d 60 4d 3e 6e f8 c6 3d
       0.028104296 0.042555053 0.20056362 0.09715353
0003f0 9b 11 e1 bc 36 9c e8 3c e7 ae 82 3e a7 e1 f2 bd
       -0.027474215 0.0283948 0.25524065 -0.11859446

bn1.weight f4 [128]
000000 f9 ea 83 3f 19 44 80 3f ea 0a 81 3f 9f b8 81 3f
       1.0306083 1.0020782 1.0081456 1.0134467
000010 79 59 81 3f 8f 78 88 3f 01 ab 86 3f e8 91 80 3f
       1.010543 1.0661792 1.0520936 1.0044527
000020 a6 14 84 3f d8 a8 81 3f ee 16 81 3f d2 2d 81 3f
       1.0318801 1.0129652 1.0085123 1.0092108
000030 5d e5 81 3f 84 00 80 3f 3f 81 82 3f 85 25 84 3f
       1.0148121 1.0000157 1.0195693 1.032395
000040 3f 0c 82 3f d6 01 82 3f a1 66 84 3f 1c 11 82 3f
       1.0159987 1.015681 1.034382 1.0161471
000050 53 cf 83 3f 1d 3f 80 3f 6d c9 82 3f 0c cb 83 3f
       1.0297645 1.0019261 1.021772 1.029634
000060 2b 9e 83 3f 70 42 83 3f 86 34 7f 3f e0 bc 84 3f
       1.0282644 1.025465 0.9968952 1.037014
000070 a6 3e 83 3f 87 79 81 3f 95 a5 83 3f e1 38 82 3f
       1.0253494 1.0115212 1.0284907 1.0173608
000080 40 4c 83 3f 36 34 88 3f 05 8a 82 3f 46 0c 85 3f
       1.0257645 1.0640934 1.019837 1.039437
000090 1c d5 82 3f a6 66 83 3f 78 38 84 3f 5c 2e 86 3f
       1.0221286 1.0265701 1.0329733 1.0482898
0000a0 58 52 82 3f 55 f7 81 3f b4 4a 82 3f 40 a0 8b 3f
       1.0181379 1.0153605 1.0179048 1.090828
0000b0 d6 66 82 3f e4 33 80 3f e6 13 7e 3f 63 34 84 3f
       1.0187633 1.0015836 0.9924911 1.0328487
0000c0 6f 6b 81 3f 21 61 7d 3f 3d 62 7f 3f fc 8a 84 3f
       1.0110911 0.9897633 0.99759275 1.0354915
0000d0 db 96 83 3f 74 d7 81 3f 3c ad 87 3f 4f 54 84 3f
       1.0280412 1.0143876 1.0599742 1.0338229
0000e0 44 81 80 3f 30 da 82 3f 1a 90 80 3f df 6d 83 3f
       1.0039449 1.0222836 1.0043976 1.0267905
0000f0 4d 6f 82 3f c3 8c 80 3f a7 4c 83 3f 21 93 86 3f
       1.0190216 1.0042957 1.0257767 1.051365
000100 eb 5d 85 3f 17 76 83 3f 18 e0 82 3f 19 3b 85 3f
       1.0419286 1.0270413 1.0224638 1.040866
000110 32 76 84 3f be 5c 83 3f 50 21 87 3f 35 a2 84 3f
       1.034857 1.0262678 1.0557041 1.0362002
000120 b1 3f 81 3f 55 eb 81 3f f0 9b 7e 3f c7 b3 86 3f
       1.0097562 1.0149943 0.9945669 1.0523614
000130 0f f2 87 3f ea f7 83 3f b2 8f 82 3f 5b 6c 7e 3f
       1.0620745 1.0310032 1.0200102 0.9938409
000140 1b e5 82 3f 6d d9 86 3f e8 8c 82 3f 03 21 83 3f
       1.0226167 1.0535103 1.0199251 1.0244449
000150 1a db 81 3f f6 45 86 3f b9 b8 7e 3f 8a 5d 83 3f
       1.014499 1.04901 0.99500614 1.0262921
000160 49 6d 82 3f 29 63 84 3f d8 3b 86 3f 25 86 7b 3f
       1.0189601 1.0342761 1.0487013 0.98251563
000170 38 ce 81 3f 12 ea 80 3f 2c ec 80 3f 24 52 82 3f
       1.0141058 1.0071433 1.0072074 1.0181317
000180 81 ef 86 3f d5 b5 82 3f 1a 2f 83 3f a8 0a 87 3f
       1.0541841 1.0211741 1.0248749 1.0550127
000190 65 1a 8e 3f 13 63 80 3f 9f 4a 7c 3f 71 b8 80 3f
       1.1101805 1.0030235 0.9855136 1.0056287
0001a0 33 81 88 3f 37 ee 8a 3f 34 65 82 3f d1 dc 80 3f
       1.0664428 1.0853947 1.0187135 1.0067388
0001b0 d4 49 82 3f 90 95 7c 3f 33 c0 81 3f ac fb 83 3f
       1.017878 0.98665714 1.013678 1.0311179
0001c0 19 27 84 3f fb ff 82 3f c4 27 82 3f 53 3a 84 3f
       1.0324432 1.0234369 1.0168386 1.0330299
0001d0 a7 5e 84 3f 63 6a 81 3f f6 93 85 3f 10 39 80 3f
       1.0341386 1.0110592 1.0435779 1.0017414
0001e0 b4 c8 81 3f fd 6d 86 3f 88 fd 7b 3f ea 98 80 3f
       1.0139375 1.0502316 0.98433733 1.0046666
0001f0 43 e6 84 3f eb 7a 84 3f 9d 8e 80 3f a2 48 83 3f
       1.038277 1.0350012 1.0043522 1.0256541

bn1.bias f4 [128]
000000 b4 65 aa bd 26 09 87 3d 2a 70 67 ba fe 39 36 3d
       -0.083201796 0.06593542 -0.00088286644 0.0444889
000010 31 ad ce 3d ed 69 91 bd 37 4f 4c 3d 1a a5 59 3d
       0.100916274 -0.07100282 0.049880233 0.05313597
000020 21 58 5d 3d d4 9b db 3d 2c 72 80 bd 70 ae 4b 3b
       0.054039124 0.10723081 -0.062717766 0.0031079315
000030 13 7c 62 3d cc e2 df 3c 89 60 06 be d2 c4 f8 bc
       0.055294108 0.027329825 -0.13122763 -0.030367289
000040 7c ca 66 bc 20 f8 76 bc c4 c8 69 3d cf 14 b5 3c
       -0.014086362 -0.015073806 0.05707623 0.022104649
000050 80 4a 8b bd 02 e6 07 3d ef 96 14 3b 82 aa 34 3d
       -0.06801319 0.033178337 0.0022672971 0.04410792
000060 ce f5 56 bd 29 82 30 3d 8f 40 60 bb 61 d7 b2 bd
       -0.05248051 0.04309288 -0.0034218167 -0.087324865
000070 c7 25 44 3d 72 cf a8 b8 ae 99 91 3d 6e 33 be bc
       0.04788759 -8.049504e-05 0.0710939 -0.023217883
000080 da 56 bb 3d 27 81 47 be 1d ae c5 3c 72 28 c0 3c
       0.09147425 -0.19482861 0.024130875 0.023456786
000090 36 e2 20 bd 3d 05 95 bc cd 55 d6 bc 34 b2 23 3e
       -0.03927823 -0.018190974 -0.02616396 0.15985948
0000a0 f7 04 ce bd d1 e0 7e bd 11 ba f0 3d be 4c 2e 3d
       -0.10059541 -0.06222612 0.11754239 0.042553656
0000b0 9a a1 9d 3d 03 42 ca 3c 04 47 9d bd 13 0d 05 3c
       0.07696839 0.02468968 -0.07679561 0.008120793
0000c0 c0 26 05 3d 26 2d 3a bd 07 85 13 3d 94 6d 03 bd
       0.032507658 -0.045453213 0.036015537 -0.032086924
0000d0 0e 29 8f 3c 6e 73 e9 3d 50 19 e2 bd be 8b 07 bd
       0.017475631 0.113989696 -0.11039984 -0.033092253
0000e0 60 4c 0e bd 3f 48 ca bc 9f 88 c0 3b 40 5a 05 3e
       -0.034740806 -0.024692653 0.0058756615 0.13022709
0000f0 b7 d7 3b bd 5b 97 20 3d b2 0c 6a 3d 2a 8c 91 3d
       -0.04586002 0.039206844 0.057141013 0.07106812
000100 63 3d f7 3b 4b bf 72 3c f4 42 e2 3c ca f7 a8 bd
       0.0075451597 0.014816116 0.027619816 -0.08250387
000110 7b ca b8 3b f9 82 80 bd 8b de 30 3d 4b 22 3b 3d
       0.005639372 -0.06274981 0.043180984 0.045687
000120 2d 34 1e 3e 9b cd 6f bd 41 25 ac bd 08 57 90 3d
       0.15449591 -0.05854569 -0.08405543 0.0704785
000130 55 a0 10 3e 0a df 98 3d 31 2c a8 bd a3 fb 94 bc
       0.14123662 0.07464416 -0.08211554 -0.018186396
000140 87 be fd 3d 52 86 7f 3d ca f4 05 3d f7 1c 0a 3d
       0.12389856 0.062383957 0.032704152 0.03371903
000150 2d 99 e6 bd 80 0f 20 bd 67 96 0c 3e b8 62 ec bd
       -0.11259685 -0.039077282 0.13729249 -0.115422666
000160 f0 98 7f 3d 35 d5 61 3b 9f 4b 60 bd 63 77 8f bd
       0.062401712 0.0034459357 -0.054759618 -0.07005193
000170 2a 6e 9a 3d 0b 28 ee bc d5 dd 55 3d 5d 65 a3 3d
       0.075405434 -0.029071828 0.05221351 0.07978318
000180 1f 3b 3f 3d 39 47 d1 3c 7f ba d9 bc 52 ab b6 3d
       0.04668724 0.025546657 -0.026578186 0.089193955
000190 34 c2 52 3d f6 a4 15 3d 85 8f 98 bd f7 db 27 bd
       0.051454738 0.036534272 -0.07449249 -0.04098126
0001a0 42 47 90 bd 83 05 75 3d 8b 55 ae 3b c3 36 06 bd
       -0.07044841 0.05981971 0.005320256 -0.03276707
0001b0 cd 5d 82 3c 40 24 89 bd ab 18 e0 3d 8d 0d af 3d
       0.015913868 -0.06696367 0.10942205 0.085475065
0001c0 35 30 30 3d f5 41 a9 bc 1f 6d 31 bd 25 80 84 3d
       0.043014724 -0.020661334 -0.043316957 0.06469754
0001d0 c3 ec 96 3d dc 25 77 3c e7 ca 5e 3d 84 75 0e bb
       0.073693775 0.01508471 0.05439272 -0.0021737525
0001e0 d0 a2 42 3b 12 e5 90 3d 71 f4 17 be f1 70 7b bc
       0.0029699095 0.07074942 -0.14839341 -0.015346752
0001f0 4a ba 85 3d bd ed 0a bd 81 ef c4 bd b7 a4 7e 3d
       0.065296724 -0.03391813 -0.09615994 0.062168803

bn1.running_mean f4 [128]
000000 be 37 43 bd 78 2f 00 be be be 62 3e 81 cc 21 be
       -0.04766058 -0.12518108 0.22143075 -0.15800668
000010 0c 9b 4f 3d d0 51 c5 3d b6 52 93 bd 3e ab 09 bd
       0.050684974 0.09634745 -0.0719351 -0.033610575
000020 a1 77 d0 3d 40 da 80 3e 18 63 a6 3c 18 59 3b 3e
       0.101790674 0.25166512 0.020310923 0.18295705
000030 c0 e1 1d 39 f9 c3 22 3d 8d 86 ba bb dd c0 70 bd
       0.00015056785 0.039737675 -0.0056923092 -0.05877768
000040 c4 1a 58 3e 75 16 0f bd 9d b9 11 3d 84 a8 06 3d
       0.2110396 -0.034933526 0.035577405 0.032875553
000050 e9 93 f4 bd 51 8e 15 be 4d dd 1b be 5b 24 70 3d
       -0.11942274 -0.1460507 -0.15221138 0.05862842
000060 22 b2 6c bd 50 9a 7a bd 63 f7 54 3d e7 79 a9 3d
       -0.05778707 -0.06118232 0.05199374 0.08275204
000070 10 ed e9 bd a0 a8 63 3d ca 17 77 3b 7b 4a 17 3e
       -0.11422169 0.055580735 0.0037703388 0.14774506
000080 c9 e0 80 ba ab 99 00 3d 7d 9c ed 3c 67 90 1f bc
       -0.0009832616 0.03139655 0.029005283 -0.009739018
000090 4e 0c 82 3e 34 9b 52 3e 25 c7 25 3d 59 c8 fb bd
       0.25400013 0.20567018 0.040473122 -0.12294073
0000a0 47 c2 fb bd e1 bc 0d be 7e 37 ab bd 21 4f 8a bc
       -0.12292915 -0.13841583 -0.08360194 -0.016883435
0000b0 df a6 27 3e 50 fd 1d 3e 6c 28 e6 bb f4 eb 00 3d
       0.1637225 0.15428662 -0.0070238616 0.031475022
0000c0 77 d8 92 bd 74 54 33 3e 27 7d 10 3e 86 33 84 bb
       -0.07170194 0.17512685 0.14110242 -0.0040344624
0000d0 03 c0 a2 3d 53 87 e4 3b 4c 90 1d 3e cf dd 7e bd
       0.079467796 0.0069741397 0.15387076 -0.062223252
0000e0 3d 5c 26 3e d4 b9 e4 bc 05 15 45 bd 03 de 19 3e
       0.16246124 -0.027920641 -0.04811575 0.15026097
0000f0 a8 0d d8 bb 67 f5 6b 3d 8a 81 85 be 19 e3 b9 3d
       -0.006593425 0.05760708 -0.26075393 0.090765186
000100 c4 2c 96 bd 1b 96 62 3d 89 4f 1f 3e e6 5f cd 3b
       -0.07332757 0.055318933 0.15557684 0.0062675355
000110 9c 9b 22 3e 6e 64 ea bd d0 47 e7 3c f9 83 02 bd
       0.15879673 -0.11444937 0.028232485 -0.03186414
000120 e7 f2 a5 b9 76 a6 eb bd 58 1a 8a 3d e8 12 46 3e
       -0.0003165223 -0.11506359 0.06743306 0.1934315
000130 16 85 be bd 4e 81 4b 3d 04 bb 46 be b2 cf 84 3e
       -0.09302728 0.04968386 -0.19407278 0.2593971
000140 77 7d 9b 3d ee 59 73 bc a2 94 02 3e 56 4f 07 bd
       0.0759229 -0.014852984 0.12752011 -0.033034645
000150 a7 d1 53 bd ef 69 8f bd ad 47 af bd 78 48 82 3e
       -0.051713612 -0.07002627 -0.08558593 0.25445914
000160 79 0f 19 be 0f 0a c5 3c c9 ba d4 3d f6 b1 3f 3e
       -0.14947309 0.024052648 0.10387189 0.1872023
000170 01 ac 25 be 76 f2 7b 3c ca 92 0e bd 50 15 e9 bd
       -0.16178896 0.015377631 -0.034807958 -0.11381018
000180 1e 3a 81 3c 9a 3f 52 3d 5c f8 9d bd d7 f8 03 be
       0.015774783 0.051330186 -0.077133864 -0.12887894
000190 4f bb d6 bb 59 41 1a be e7 45 10 3e d0 42 4c 3d
       -0.0065530906 -0.1506399 0.14089166 0.049868405
0001a0 98 2b 1f 3e 0d 7a a4 bd fd 9d 3d bc 05 66 d5 3d
       0.15543973 -0.08031092 -0.011573312 0.10419849
0001b0 99 00 18 3c 71 80 9d 3d a0 e2 92 3d 25 c1 2b bd
       0.009277486 0.07690514 0.071721315 -0.041932244
0001c0 bb d3 a4 bd 30 75 7b 3c b7 80 7e 3d d3 1d ae bd
       -0.08048197 0.015347764 0.06213447 -0.08501782
0001d0 eb fe f4 3d ed 32 f4 3d 31 25 ae 3d 0a d4 d2 bd
       0.11962684 0.11923776 0.085031874 -0.102943495
0001e0 75 ca c7 3d c2 17 b1 bd 16 aa a6 3d 5a 0b a6 3d
       0.097554125 -0.086471096 0.0813791 0.08107634
0001f0 20 d8 85 bd 41 99 e1 bd 96 56 b8 bd 1e fd e2 bd
       -0.06535363 -0.11015559 -0.0900089 -0.110834345

bn1.running_var f4 [128]
000000 85 cb b4 3e e9 37 0e 3f 20 05 14 3f ed e9 eb 3e
       0.35311523 0.5555406 0.5782032 0.4607691
000010 76 08 c1 3e 0c 58 c3 3e 58 7d a5 3e d8 d7 d3 3e
       0.37701768 0.38153112 0.32322192 0.41375613
000020 1c 81 3e 3f e1 26 a0 3f 4a 8f 1b 3f d9 65 2a 3f
       0.74415755 1.2511865 0.60765517 0.6656166
000030 fa b8 c3 3e 9d 11 6a 3f 1a 83 9e 3e df c4 9c 3e
       0.38227063 0.91433126 0.30959398 0.3061895
000040 29 df 4c 3f 58 ec 0a 3f 7e 8a 2f 3f 99 7d 04 3f
       0.80028015 0.5426688 0.685707 0.51754147
000050 b7 20 05 3f cd e6 64 3f 15 e3 21 3f 3c 77 d7 3e
       0.52003044 0.89414674 0.63237125 0.42083156
000060 7b 05 01 3f f1 ab ac 3e 64 65 0e 3f 14 95 dc 3e
       0.5039899 0.3372493 0.5562346 0.43082488
000070 c6 69 00 3f 0b 0e 03 3f 93 a7 b8 3e 98 58 3d 3f
       0.501614 0.511933 0.3606535 0.7396331
000080 61 c2 36 3f 97 27 a3 3e 58 4e 36 3f 98 55 8c 3e
       0.7139035 0.31866142 0.71213293 0.27409053
000090 76 2f 5e 3f e0 3f 55 3f 6f 51 d9 3e 9d c7 fe 3e
       0.8679117 0.8330059 0.4244494 0.49761668
0000a0 de 14 59 3f c7 66 fd 3e b1 39 08 3f bc 90 8f 3e
       0.84797466 0.49492475 0.5321303 0.2804011
0000b0 e9 70 30 3f 56 39 43 3f bb bb ae 3e d4 aa a7 3e
       0.6892229 0.7625936 0.34127602 0.3274752
0000c0 65 a2 04 3f 41 e8 59 3f ad 44 5f 3f 46 49 92 3e
       0.51810294 0.85120016 0.87214166 0.28571528
0000d0 c3 65 30 3f 5a 7e 0b 3f 47 05 ff 3e 6c 58 d1 3e
       0.68905276 0.5448967 0.49808714 0.40887773
0000e0 98 b2 6b 3f aa f1 9a 3e 19 87 36 3f 4b bb 52 3f
       0.9206939 0.302625 0.7129989 0.82317036
0000f0 7d ab a5 3e be 26 2a 3f 33 91 c4 3e 99 61 67 3f
       0.32357398 0.66465366 0.38392028 0.903833
000100 fa 0b ca 3e c2 35 2d 3f c3 6a 6c 3f 02 15 04 3f
       0.39462262 0.6766015 0.92350405 0.51594555
000110 3a d3 0e 3f 7c a8 ea 3e e9 65 be 3e 06 c0 cb 3e
       0.55791056 0.45831668 0.37187126 0.3979494
000120 9f 9a 07 3f 2e 1e 3d 3f ff 3a 0d 3f bc f5 84 3f
       0.5297031 0.73874176 0.55168146 1.0387492
000130 ed 30 a8 3e 2b 4d e8 3e 8d b5 59 3f 1f b2 c0 3f
       0.32849827 0.45371374 0.8504265 1.5054358
000140 d7 50 b5 3e 6b b3 d5 3e b1 66 02 3f e6 2f 93 3e
       0.35413238 0.41738448 0.50937945 0.2874748
000150 82 54 20 3f ee 92 eb 3e 8a 57 0c 3f 3c b2 1b 3f
       0.6262895 0.46010536 0.54821074 0.6081884
000160 c0 e4 07 3f c3 c6 a6 3e 68 57 bc 3e 18 fe 3f 3f
       0.5308342 0.32573518 0.36785436 0.7499709
000170 1f c4 47 3f 29 76 f3 3e c0 f7 e8 3e d9 77 3d 3f
       0.7803363 0.47551087 0.45501518 0.74011
000180 88 c5 69 3e ae b1 16 3f 2b e6 1f 3f 64 a6 ee 3e
       0.22829258 0.5886487 0.62460583 0.4661132
000190 ad 63 a4 3e 08 35 2b 3f c5 9a f7 3e b8 5b e4 3e
       0.32107297 0.66877794 0.48360267 0.44601226
0001a0 89 72 01 3f 89 d0 9e 3e e9 80 47 3f df 1a 8e 3f
       0.5056539 0.31018475 0.77931076 1.110195
0001b0 ce b0 da 3e e7 ba 94 3f 09 03 48 3f 0a a5 18 3f
       0.42713016 1.1619538 0.7812963 0.5962683
0001c0 20 a4 ab 3e e2 8f e9 3e 08 1b db 3e 71 03 c8 3e
       0.33523655 0.45617586 0.4279406 0.39065126
0001d0 ba 0c 1e 3f cd 20 a4 3e d8 64 73 3f 24 8d 4b 3f
       0.6173817 0.32056275 0.9507575 0.7951224
0001e0 31 18 55 3f ce ba da 3e 71 30 19 3f cf 6a 1c 3f
       0.8324004 0.42720646 0.5983954 0.61100477
0001f0 80 33 19 3f b6 8a 40 3f fb f8 40 3f 16 86 0a 3f
       0.5984421 0.75211656 0.75379914 0.5411085

hidden2.weight f4 [128, 128]
000000 c2 3c 98 3d 08 14 df 3a f2 4f 83 bd 9f be 1d 3d
       0.07433464 0.001701952 -0.06411733 0.03851187
000010 cc d2 1c 3d 1d 9a 92 bc 15 a7 a7 3c da dd ca 3c
       0.03828697 -0.017895753 0.020465413 0.02476399
000020 9d db b3 3c ba ff db bc 12 1a 57 bd 8a 75 5e 3d
       0.021955306 -0.026855338 -0.052515097 0.054311313
000030 a0 37 6c 3c 59 83 b9 3d ff dd 72 bd 92 c9 e0 bc
       0.014417559 0.09058256 -0.059293743 -0.027439866
000040 aa f1 76 bc de 0b a8 3c 3a 60 7c bc 23 61 0b bd
       -0.015072266 0.020513471 -0.015403802 -0.034028184
000050 20 dd 7e bc 86 e5 6b bd 7c 91 1d 3c 90 29 ad bd
       -0.01555565 -0.057591937 0.009617206 -0.08455193
000060 2d 50 0c bd 16 96 2e 3c 66 16 8a bd 9f d5 6a 3c
       -0.03425615 0.0106559 -0.067425534 0.014333158
000070 86 ee ca 3d fe 7c 5d bc 83 c8 b3 3c 34 45 ab bd
       0.09908776 -0.01351857 0.021946197 -0.08362809
000080 dc 82 a4 3b 05 6b b9 3c ea d0 b4 bb 04 2c 66 3b
       0.0050204825 0.022634039 -0.0055180686 0.003512145
000090 6a 2d ca bd 70 fa aa 3c 83 b3 d9 bc ec 87 8b 3b
       -0.09871943 0.020871371 -0.026574856 0.0042581465
0000a0 e4 d7 44 3d 2e bf 87 3d 4f 7f a0 3a 30 29 ac 3d
       0.04805745 0.066282615 0.0012244972 0.084062934
0000b0 c0 7f 1c 3c cb 50 bd bb a8 61 74 3d fe 70 b2 3d
       0.009551942 -0.0057774535 0.059663445 0.08712958
0000c0 24 8c 92 3d 79 32 94 bd 84 5d 1c bd 28 18 12 3d
       0.07155636 -0.072361894 -0.03817512 0.03566757
0000d0 56 1c 37 bd 55 03 6e bb c4 d8 29 3d f6 70 69 3c
       -0.044704758 -0.0036317904 0.04146649 0.014248123
0000e0 8a 84 2e 3a 91 ae 0d 3d e6 a1 d0 3c b5 33 ae bd
       0.0006657323 0.034590308 0.025467824 -0.08505956
0000f0 d7 75 77 3d 7a 03 89 3c e5 8e 7a 3d 21 4b 22 ba
       0.060415115 0.01672529 0.06117143 -0.00061910046
000100 94 83 61 3b 75 3d d4 3c 00 df e6 bb 25 23 90 3d
       0.0034410702 0.025908211 -0.0070456266 0.07037953
000110 9b 0e a4 bd 03 42 18 bd c2 90 8f bd bd 2d 45 3b
       -0.08010598 -0.03717233 -0.07010032 0.0030087077
000120 89 eb 75 bd 6a 22 8b 3d 7e f5 ea bc 19 5d 67 3d
       -0.060039077 0.06793673 -0.028681513 0.05648527
000130 e1 e3 d5 3d 72 da 60 bd 15 63 38 bd cd ba 15 bd
       0.10443855 -0.054895826 -0.045016367 -0.0365551
000140 dc af 25 bd a3 24 bb 3d ce a5 46 3d 3d c2 00 bc
       -0.040450916 0.09137847 0.048497967 -0.00785881
000150 5e b6 85 bd 8b 41 1a 3d 84 69 ad 3d 4c 3b 8f 3b
       -0.065289244 0.037660163 0.08467391 0.0043710824
000160 b8 ba 2b bc c3 38 3d bd a3 c1 c6 bd 00 54 41 3d
       -0.010481529 -0.04619671 -0.09704902 0.04719925
000170 88 5e 66 3d c9 bc 91 3d 79 39 b5 3d b5 ea ab 3c
       0.056242496 0.07116086 0.08848853 0.02098594
000180 e2 8b da b9 e2 ba 68 3c be 8d a6 bc 38 40 8c bc
       -0.0004168442 0.014204713 -0.02033126 -0.017120466
000190 86 42 1c 3a 66 e9 ab 3c 76 3a 83 bd 38 11 9a bd
       0.00059608405 0.020985316 -0.06407635 -0.075228155
0001a0 40 a7 02 be 2e 6e ac bb d8 54 f9 3b 75 7f 73 3d
       -0.12759113 -0.005262158 0.007608991 0.059447724
0001b0 1f 49 3b bd 25 b1 99 bc 7d d1 33 3d c4 d3 25 3d
       -0.04572403 -0.018761227 0.043900955 0.04048516
0001c0 4d ee 14 bd fe 87 86 bd 21 f4 8b bd de 65 93 3b
       -0.036360074 -0.06568907 -0.06833673 0.0044982275
0001d0 b2 d6 03 3c d3 cf 4e 3d 15 a1 e1 3c aa b3 67 3d
       0.008046793 0.050491165 0.02754263 0.056567825
0001e0 ef 24 0c bd 8b 05 c8 3b 12 62 09 bd 17 60 ab 3d
       -0.03421491 0.0061041764 -0.033540793 0.08367937
0001f0 15 a5 7e bc 2c 28 48 3d b6 47 50 3d c6 5a 36 3c
       -0.015542288 0.048866436 0.05084964 0.0111300405
000200 03 81 e7 3c 5f 5d fa bb 8d ae 9a 3c 95 d0 9a 3d
       0.02825976 -0.0076405252 0.01888206 0.07559315
000210 77 47 26 bc 45 66 a3 3d 0f 00 62 bd 15 dd 90 bc
       -0.0101488745 0.07978491 -0.055175837 -0.017683545
000220 38 b9 1b 3c d1 13 dc 3b 10 73 dc 3d 1d 42 c6 bd
       0.009504609 0.0067162295 0.10764134 -0.09680579
000230 33 08 64 bd b9 8a 26 bb 20 fc 06 3d c2 d8 d0 bc
       -0.055671882 -0.0025412275 0.03295529 -0.025493983
000240 f9 04 cd bb d5 78 88 bd 00 82 bd bd 63 bb fb bc
       -0.0062566963 -0.06663672 -0.09253311 -0.030729001
000250 72 df 08 3b 1b d9 a6 3d a6 33 ce bc 88 88 af bd
       0.0020885137 0.08146878 -0.025171112 -0.08570963
000260 9e 77 03 3d 11 0c a3 3d ac b5 a3 3b 5d f7 92 3d
       0.032096498 0.07961286 0.004996022 0.07176087
000270 cd d2 ff 3c 8e c4 d4 bb 7f 70 7b bd 3a 2f d0 3c
       0.031228447 -0.0064931577 -0.06138658 0.025413144
000280 af 4e 7a 3d 99 f7 4f bd 8c 58 79 3d 1b b1 8a 3b
       0.061110195 -0.050773237 0.06087546 0.0042325384
000290 9f ab 37 bd 53 f4 1c 3c 86 dd 9f bc 43 99 43 bd
       -0.044841405 0.009579736 -0.01951481 -0.047753584
0002a0 3a 2a 36 3d f3 b9 bb 3d eb 87 aa bc 44 ac 86 bd
       0.044473864 0.091663264 -0.020816764 -0.06575826
0002b0 7b 38 41 bd a1 07 86 bd dc de 8a bd 3e df 26 bd
       -0.047173005 -0.06544424 -0.06780788 -0.040740244
0002c0 a4 a1 4f bd d0 4b d1 bc a1 5b 4f 3d 94 4c 58 bd
       -0.050691262 -0.025548846 0.050624494 -0.052807406
0002d0 94 00 a0 3c 4d d3 38 bc 7d f7 8b bd ac f7 2a bd
       0.019531526 -0.011280847 -0.06834314 -0.041740105
0002e0 58 08 3f bd 47 ff ca 3c 9a 01 85 3d 1f 23 67 bd
       -0.046638817 0.024779929 0.06494446 -0.05642998
0002f0 51 5b 27 ba 68 40 b9 bd d2 9e d1 3d ad 8c 0b 3d
       -0.00063841516 -0.09045488 0.10235371 0.034069706
000300 54 b9 09 3d 11 ab 99 bd 59 f6 5f 3c c0 31 98 3d
       0.03362401 -0.075033315 0.013669574 0.07431364
000310 5d f4 b4 bc 98 79 0d 3d 26 47 5c 3a 97 49 07 bc
       -0.022089178 0.03453979 0.0008402936 -0.008257291
000320 56 6e 15 bd 67 b3 80 3c de 25 00 3d 51 f9 ae bb
       -0.036482178 0.015710546 0.031286113 -0.0053397794
000330 b1 f2 d8 bc 3a 0e bf bd 9b 96 15 bd e8 1d 2c bd
       -0.026482912 -0.093288854 -0.03652058 -0.04202071
000340 0b 74 8f bd 0e 7c a3 bd 97 bb 5f bd 9f ad f0 bc
       -0.07004555 -0.07982646 -0.05462226 -0.029379664
000350 29 bd 09 3d 73 be 2f 3d d6 3d 81 bd a3 4b 56 3d
       0.033627663 0.042906236 -0.063106224 0.052318227
000360 1b 85 a1 bb 2c 63 b3 3d 7c 73 3e 3d 12 9f e9 3c
       -0.0049291975 0.0875915 0.046496853 0.028518233
000370 32 f9 78 3d 18 ef 6e bc 7a a0 60 3c 1a 4c 8a bd
       0.060784526 -0.014583372 0.013710136 -0.067527965
000380 2a b9 83 bd c1 71 a4 3a 1b bf 45 3d 24 25 35 3c
       -0.064318016 0.0012546108 0.048277956 0.011056218
000390 96 68 a3 bd 75 50 39 bd 7d d2 ec bc 9d 9d 53 3c
       -0.079789326 -0.045242745 -0.028908962 0.012915996
0003a0 cb 66 51 3c fb 65 28 3d de 80 a9 bd 79 00 56 3d
       0.012780855 0.04111288 -0.082765326 0.052246545
0003b0 dc c4 c7 bd 19 fa 21 bd 8a 63 0b 3d fa 44 7a bd
       -0.09754345 -0.039545152 0.034030475 -0.061100937
0003c0 86 37 65 bd 5a 61 cc 3d 24 1d 44 bd a6 a8 4e 3c
       -0.055961154 0.09979506 -0.047879353 0.012613451
0003d0 b7 7a b5 bd 00 16 dc bd f7 0c 34 bd 60 86 b3 3d
       -0.088612966 -0.10746384 -0.043957677 0.08765864
0003e0 95 62 75 bd f4 04 68 3d 42 a1 02 bc 04 2e 76 3b
       -0.05990847 0.05664535 -0.007973017 0.0037564049
0003f0 3c 33 4b 3d 14 d2 06 3d 75 88 9c 3d 8f 72 0e 3d
       0.049609408 0.03291519 0.076432146 0.03477722

bn2.weight f4 [128]
000000 ce 64 80 3f 21 b9 7f 3f 86 b9 7f 3f 71 e9 7c 3f
       1.0030763 0.9989186 0.9989246 0.98793703
000010 42 cc 7e 3f e1 e8 7f 3f 00 31 7f 3f e1 8b 7c 3f
       0.9953042 0.9996472 0.99684143 0.9865094
000020 21 2b 80 3f a6 9c 7e 3f 5e 26 80 3f 2e 90 7f 3f
       1.0013162 0.99457777 1.0011709 0.99829376
000030 3a f6 7f 3f b8 14 80 3f 1c 52 7f 3f 36 4d 7e 3f
       0.99985087 1.0006323 0.99734664 0.99336565
000040 83 22 7e 3f a1 b7 7e 3f ca 08 80 3f c3 ff 7f 3f
       0.9927141 0.99498945 1.0002682 0.99999636
000050 4d 81 7f 3f fd b1 7d 3f db e1 7d 3f c6 4b 80 3f
       0.9980667 0.99099714 0.99172753 1.0023124
000060 7c c3 7c 3f 29 4e 81 3f 67 5d 7f 3f 8d 77 80 3f
       0.98735785 1.0101978 0.99751896 1.0036484
000070 d4 c7 7e 3f 87 43 80 3f 12 86 7f 3f 22 cc 7d 3f
       0.99523664 1.0020608 0.9981395 0.99139607
000080 90 3c 7f 3f d6 a7 7c 3f b2 39 7b 3f 47 93 7e 3f
       0.99701786 0.986936 0.9813491 0.9944348
000090 71 62 7f 3f a0 e8 7f 3f bd c0 7d 3f 2c f5 7c 3f
       0.99759585 0.9996433 0.9912222 0.988116
0000a0 e3 3d 80 3f 5f 98 7e 3f 89 73 7e 3f eb 3f 7e 3f
       1.0018886 0.9945125 0.9939504 0.9931628
0000b0 48 5d 7d 3f 6f 06 7f 3f 8f 33 80 3f 36 65 7c 3f
       0.9897046 0.9961919 1.0015734 0.98591936
0000c0 f8 32 7f 3f eb e5 80 3f b2 21 7f 3f 25 4d 7e 3f
       0.9968715 1.0070165 0.9966079 0.99336463
0000d0 9d 6f 7f 3f 56 e3 7f 3f d8 a3 7d 3f 7f f7 7c 3f
       0.99779683 0.9995626 0.9907813 0.9881515
0000e0 d6 e6 7e 3f 8f 33 7a 3f 0f e4 7d 3f 96 c6 7d 3f
       0.9957098 0.9773492 0.99176115 0.99131143
0000f0 bb d9 7e 3f 17 2f 80 3f 87 e8 7e 3f 4e 1f 7e 3f
       0.9955098 1.0014371 0.9957356 0.9926652
000100 73 ee 80 3f 16 80 80 3f 40 04 7f 3f 9e c4 7e 3f
       1.0072769 1.0039089 0.9961586 0.99518764
000110 4a d2 80 3f 0a 1d 7d 3f 0b 9d 80 3f 74 57 80 3f
       1.0064175 0.98872435 1.0047926 1.0026689
000120 e0 83 80 3f 94 21 7e 3f 2e 5f 7f 3f 9e 90 7f 3f
       1.0040245 0.99269986 0.9975461 0.99830043
000130 5b 1e 80 3f 90 1c 7e 3f f1 3f 7c 3f 93 85 7c 3f
       1.0009264 0.9926233 0.98535067 0.9864132
000140 80 1c 7c 3f c9 ff 7c 3f 04 a7 7e 3f 47 26 80 3f
       0.9848099 0.988278 0.99473596 1.0011681
000150 18 ca 7d 3f 51 c1 7f 3f fe 53 7e 3f 1e fc 7c 3f
       0.99136496 0.9990435 0.9934691 0.988222
000160 e4 87 7c 3f 0b ae 7d 3f 8b f3 7e 3f c2 05 80 3f
       0.9864485 0.99093693 0.9959037 1.0001757
000170 02 2f 7f 3f ed 2b 7e 3f 68 e0 7d 3f f0 8b 7d 3f
       0.99681103 0.99285775 0.9917054 0.9904165
000180 4d 1b 80 3f 51 8e 7d 3f bf 1f 7e 3f a3 7e 81 3f
       1.0008332 0.9904528 0.9926719 1.0116771
000190 43 0b 7d 3f ab 8e 7c 3f ee 84 7c 3f 8d e1 7f 3f
       0.9884531 0.98655194 0.98640335 0.9995354
0001a0 4d 13 80 3f 32 05 80 3f 5f da 7f 3f 85 92 80 3f
       1.000589 1.0001585 0.9994258 1.0044714
0001b0 b4 03 7f 3f ce 9c 7e 3f d2 18 80 3f aa a3 7c 3f
       0.99615026 0.99458015 1.0007575 0.9868723
0001c0 47 93 7f 3f da b7 81 3f 16 22 80 3f c1 56 7e 3f
       0.998341 1.0134232 1.0010402 0.99351126
0001d0 8a 97 80 3f b8 78 7f 3f b8 0e 7e 3f 5a 3d 81 3f
       1.0046246 0.9979358 0.9924121 1.0096848
0001e0 40 2c 7f 3f d4 ff 7f 3f 96 84 7f 3f e5 ff 79 3f
       0.99676895 0.9999974 0.99811685 0.9765609
0001f0 8b fd 80 3f 07 38 81 3f be 49 80 3f aa fd 7b 3f
       1.0077375 1.0095223 1.0022504 0.98433936

bn2.bias f4 [128]
000000 78 32 f4 3b 90 50 62 bd 32 ef fc bc 80 7b 95 3d
       0.0074523054 -0.05525261 -0.030875776 0.072989464
000010 24 25 bc 3c 72 bd 3d 3d 15 15 c1 bc c9 4c 3b bd
       0.022966929 0.046323247 -0.023569623 -0.045727525
000020 8b dd e6 bc 13 a5 45 3d 9d 5e 7f 3c f3 b3 3c 3d
       -0.028181812 0.04825313 0.015586522 0.04607005
000030 2d b9 12 3d 9d 89 78 3d 3d a8 04 3d eb b3 d0 bc
       0.03582113 0.060678113 0.032387007 -0.025476417
000040 b1 4c 5a bd 4a 62 37 3d 06 1e 00 bd ea 17 6b bd
       -0.053295795 0.04477147 -0.031278633 -0.057395853
000050 d3 9d c3 3c 24 23 a5 bc e2 90 00 bd 07 aa 05 bd
       0.023878967 -0.020158358 -0.03138817 -0.032632854
000060 46 f5 20 3d 10 7a 19 bd 5d 73 90 bd 17 1b 14 bd
       0.03929641 -0.037469923 -0.07053254 -0.036158647
000070 f9 14 03 bd d0 83 a2 bc 66 11 d9 3c f1 3f 67 bd
       -0.032002423 -0.019838244 0.026497554 -0.056457464
000080 c1 dd 10 3d 58 d8 22 3d fd e0 55 3d 05 f0 fa bc
       0.03536773 0.039757103 0.05221652 -0.030632028
000090 36 7a 6b 3d 4f 54 ae bc 6a 77 94 3d fb e0 39 3d
       0.057489596 -0.021280436 0.07249339 0.045380574
0000a0 39 a2 eb 3c 21 5f 2c bd 22 a4 e7 3c 6d 8f c5 bc
       0.028763877 -0.04208291 0.028276507 -0.024116242
0000b0 59 14 20 3d 3d 4a f5 3c 6e 5f 59 bc 27 d3 0d 3d
       0.039081905 0.029942626 -0.013267381 0.0346252
0000c0 86 c5 2e bd b5 ce 1f bd a1 55 ac 3c 0e f3 14 bd
       -0.04266884 -0.03901549 0.021036925 -0.036364608
0000d0 ec ce 7f 3b 9c 69 e9 bc a8 8f 28 bd 59 89 66 bd
       0.0039033247 -0.028492741 -0.041152626 -0.05628333
0000e0 da 00 29 3d 7d 0f 4e 3d f0 ac a1 3d ed db 30 3d
       0.041260578 0.05030774 0.07894313 0.043178488
0000f0 55 93 cc bc b5 1c 5a bd 90 dc 33 bd f8 68 5f 3d
       -0.024972597 -0.053250033 -0.043911517 0.054543465
000100 08 cb 8c bd af f7 3f bd 37 34 e1 bc ce c2 13 bd
       -0.06874663 -0.04686707 -0.027490718 -0.036074452
000110 c8 08 94 bd e7 a9 1d bd da eb 1b bd 5d 6f ec bc
       -0.072282374 -0.03849211 -0.038066722 -0.028861696
000120 fc 75 eb bc 81 cc dc 3c a9 cc 15 bc 26 46 40 3d
       -0.028742783 0.026952984 -0.009143033 0.0469419
000130 1b 14 b3 bc 4d 13 a3 bd 58 e3 82 3d 90 38 5f bd
       -0.021860173 -0.07962666 0.06391019 -0.0544973
000140 70 bf 86 bd 4a 36 49 3d 9c 48 03 bd 16 18 09 bd
       -0.065794826 0.04912404 -0.032051668 -0.033470236
000150 2a 8a 4b bd 26 55 b1 3a 55 79 0d bd 79 94 76 3d
       -0.04969231 0.0013529405 -0.03453954 0.06020019
000160 c5 d4 50 bd 5d 05 55 bd 49 45 ef 3c c3 82 5f bd
       -0.050984163 -0.052007068 0.029207842 -0.054568063
000170 bf 40 e3 3c 5d 10 7a 3d 2c 26 0e 3d 12 65 55 3d
       0.027740834 0.06105076 0.034704372 0.05209834
000180 21 b5 b9 bc 08 0e dd 3c 38 cb 27 3d 67 fb e2 3c
       -0.022669377 0.02698423 0.04096529 0.027707769
000190 2b e2 1f 3d 8d 99 85 bd a9 7a 61 bd 73 54 c1 bc
       0.03903405 -0.06523428 -0.05504862 -0.023599839
0001a0 ac a8 38 3c 80 90 82 3c 20 07 bc bc fb c1 26 3d
       0.011270683 0.015938044 -0.022952616 0.040712338
0001b0 29 27 1e bd ea 48 06 3d c0 4c 04 3c 81 42 30 bd
       -0.038611565 0.03278438 0.008074939 -0.043032173
0001c0 56 7c eb 39 d6 63 5b bd ce 6b e8 bc 4a 8c 3a 3d
       0.0004491533 -0.053562008 -0.028371718 0.045543946
0001d0 78 2f 23 3d d1 39 3e 3d 82 95 01 3d a6 8e 33 bd
       0.03984019 0.046441857 0.031636722 -0.043837212
0001e0 52 d9 7f bd cb 3b 2d bd 6d 13 22 3d 1c d0 92 bd
       -0.062463112 -0.04229335 0.039569307 -0.071686
0001f0 bd b7 0e 3d 27 25 2f 3d 94 97 7c bc 8d 98 a9 bd
       0.034843195 0.04276004 -0.015416998 -0.0828105

bn2.running_mean f4 [128]
000000 42 ee c8 3d 3d 7e 82 bd ce 65 c9 bd b7 1e 01 3e
       0.09811069 -0.06371734 -0.09833871 0.12609373
000010 aa 83 25 3d 7c be ce 3d 68 6a db bd 11 f8 97 bd
       0.040408768 0.10094926 -0.10713655 -0.07420362
000020 6a 63 41 bd 15 dd 7e 3d d8 71 d6 3c 0c a9 01 3e
       -0.04721395 0.06222256 0.026177332 0.12662143
000030 cd 6d b9 3c 9f 89 f3 3d e9 a6 db 3d 83 a0 a4 bd
       0.022635365 0.118914835 0.10725195 -0.08038428
000040 33 3b 87 bd eb 69 a0 3d 8f 17 9c bd 42 61 bb bd
       -0.06603088 0.07832702 -0.07621681 -0.0914941
000050 20 c9 7f 3d bf 71 b2 bc 56 02 b9 bd 44 8b a6 bd
       0.062447667 -0.021782754 -0.09033649 -0.081320316
000060 8e aa 92 3d 9b 4b 67 bd 4e 9b b7 bd 5e 31 4d bd
       0.07161437 -0.056468587 -0.08965169 -0.05009591
000070 db da f2 bd a1 06 7b bd 51 ff 89 3d 03 b4 0a be
       -0.118581496 -0.06128562 0.06738151 -0.13545232
000080 16 69 a5 3d d8 4d 4f 3d ea 0b 3c 3d ce 50 f2 bc
       0.08076684 0.050611347 0.0459098 -0.029579546
000090 dd c1 f1 3d b5 cc 7f 3b 6b 7a 24 3e c1 a2 41 3d
       0.118045546 0.0039031927 0.16062324 0.047274355
0000a0 d1 9e bd 3d 6c 87 99 bd d4 b3 a4 3d 23 34 da bd
       0.092588075 -0.07496533 0.08042112 -0.106544755
0000b0 93 54 cf 3d 22 07 12 3e d1 7a c8 bd dd 1b 91 3d
       0.10123553 0.14260533 -0.0978905 0.070853926
0000c0 b0 94 7f 3c 56 66 f2 bd cc 3a cc 3d 59 9b 08 bd
       0.015599415 -0.11835925 0.09972152 -0.033351276
0000d0 19 0f 4e 3c 9a 2c 0b be b3 9c 45 bd 7c 47 56 bd
       0.012576842 -0.13591233 -0.048245143 -0.052314267
0000e0 ce 36 e2 3b b3 e2 9f 3d b2 ce aa 3c 90 82 09 3e
       0.006903506 0.07806911 0.020850513 0.13428712
0000f0 c0 84 35 bd c8 2d 04 bd bb 20 96 bd 2d 83 ab 3d
       -0.044316053 -0.032270223 -0.073304616 0.08374629
000100 3d d1 16 be a5 ef ae bd 33 fb fc bd 34 c7 60 bc
       -0.14728256 -0.08541802 -0.123526 -0.013719369
000110 83 ab 46 bd 1a c6 9e bd bf 5e b1 bd 60 3b ff bd
       -0.04850341 -0.077526286 -0.086606495 -0.12462497
000120 85 6b d8 bc b5 4b 2b 3d 6c 2f a3 bd 0a b8 21 3e
       -0.026418457 0.041820247 -0.079680294 0.15792862
000130 cb da c6 bb 9e bd 07 be 75 3b 25 3d 13 ec 84 bd
       -0.0060685626 -0.13255927 0.040339906 -0.0649034
000140 1c 2a 07 be 2d 3d 8e 3d 5d d8 b6 bd 56 4e d2 bd
       -0.13199657 0.06945262 -0.08927987 -0.10268848
000150 81 94 b6 bd 7b 21 28 bd 24 34 61 bd cb f7 07 bb
       -0.089150436 -0.041047554 -0.054981366 -0.0020747061
000160 55 90 da bd f7 97 3c bd 8e 78 7a 3d 53 74 97 bd
       -0.106720604 -0.046043362 0.061150126 -0.07395234
000170 93 c7 bc 3d 2d 93 13 3e 0b 27 5d 3d 8a 73 08 3e
       0.09217753 0.14411612 0.053992312 0.13325325
000180 e9 54 05 be 8e 26 99 3d 82 04 2f 3d 8e 8d d7 3c
       -0.13020672 0.07478057 0.04272891 0.026312616
000190 c3 2f b7 3d 9f 66 da bd ce 4c ed bc 28 ed af bd
       0.08944657 -0.10664105 -0.028967287 -0.08590156
0001a0 8e b0 08 3e 86 45 59 3d b3 4c ae bd a6 ad 8b 3d
       0.133486 0.05304482 -0.08510723 0.0682023
0001b0 62 7b 49 bd 8e ad ec 3d f7 35 e1 3b 7d 0b 61 bd
       -0.049189933 0.115565404 0.006872888 -0.054942597
0001c0 b2 14 ff 3c 0d b8 da bd 07 5a 96 bc 3e 56 03 3e
       0.031137798 -0.10679636 -0.018353475 0.12825868
0001d0 50 5a cb 3d d7 dc 9a 3d fd a6 95 3d 88 92 45 bd
       0.09929335 0.07561653 0.07307241 -0.048235446
0001e0 8a 49 53 bd 4a f9 30 bd 20 69 0c 3d e2 ac 7b bd
       -0.051583804 -0.04320649 0.034279943 -0.06144417
0001f0 2c f2 de 3d 02 03 8e 3d 98 c1 b7 bd f2 3e ee bd
       0.10886034 0.069341674 -0.08972472 -0.116330996

bn2.running_var f4 [128]
000000 cc 17 b8 3e af f7 d9 3e 76 a0 be 3e d1 84 ca 3e
       0.35955656 0.4257178 0.37231797 0.39554456
000010 66 09 90 3e 1f ff ea 3e 93 d8 72 3e 36 cd af 3e
       0.2813217 0.45897767 0.23715429 0.3433625
000020 ab 16 a9 3e 3e bd a8 3e b4 fb 58 3e bd f1 ad 3e
       0.33025107 0.3295688 0.21189767 0.33973494
000030 96 9a 52 3e f5 ab e9 3e d5 eb 9f 3e 70 c7 a0 3e
       0.20566782 0.45639005 0.31234613 0.3140216
000040 3e 11 82 3e 2f 85 cd 3e 7c 56 b3 3e 9d 5a 02 3f
       0.2540378 0.40140674 0.3502692 0.50919515
000050 bb 7f 85 3e 62 51 5e 3e 3d 6e 73 3e bb 8c c1 3e
       0.26074013 0.21710733 0.23772521 0.3780268
000060 4c 25 97 3e 48 65 bc 3e 6a d7 e8 3e 9c f1 b9 3e
       0.29520643 0.3679602 0.45476848 0.36317146
000070 ae 64 cd 3e 2d 77 9c 3e dd c2 84 3e ce 48 da 3e
       0.40115875 0.30559674 0.2592992 0.4263367
000080 06 ab 00 3f ef 4f ac 3e bc 0e ad 3e 14 fd ab 3e
       0.5026096 0.33654734 0.33800304 0.3359152
000090 d5 4c 05 3f e2 bc 6a 3e f9 91 cd 3e 3d 6c de 3e
       0.5207036 0.22923616 0.4015043 0.43441954
0000a0 a3 b1 94 3e 38 92 9f 3e f7 02 a4 3e b1 f7 9d 3e
       0.29041776 0.31166244 0.32033512 0.30853036
0000b0 7c 6e a3 3e e3 60 db 3e dd 3c b8 3e 00 4b 9a 3e
       0.3192023 0.42847356 0.35983935 0.30135345
0000c0 20 9f c8 3e 48 23 e3 3e f1 a0 c9 3e 28 b6 91 3e
       0.39183903 0.44362855 0.393806 0.28459287
0000d0 c8 bf 6a 3e f6 7c c1 3e 95 ed ad 3e 7d dd a9 3e
       0.22924721 0.3779065 0.33970323 0.33176795
0000e0 2c 30 d2 3e a0 20 93 3e 44 c7 a5 3e 62 6c a2 3e
       0.41052377 0.28735828 0.3237859 0.31723315
0000f0 54 63 93 3e 1e 81 cd 3e bc 98 b8 3e cd e3 ad 3e
       0.2878672 0.4013757 0.36054027 0.3396286
000100 22 b9 05 3f 31 cd e7 3e 8c 9e 99 3e 12 42 c0 3e
       0.52235615 0.45273736 0.30003774 0.37550408
000110 c8 b0 ff 3e a0 d9 8c 3e 25 f0 cc 3e 92 82 c8 3e
       0.4993956 0.27509785 0.40026966 0.39162117
000120 ae 90 9c 3e 35 93 a4 3e 2b 6d 91 3e 20 e2 02 3f
       0.30579132 0.3214356 0.284036 0.5112629
000130 6c fd aa 3e 8c b0 12 3f 79 72 96 3e 7f 81 b2 3e
       0.3339647 0.5730064 0.2938421 0.34864423
000140 8d e8 03 3f 00 b1 8a 3e fe 31 9d 3e 99 1b a0 3e
       0.5152672 0.27088165 0.30702204 0.31271055
000150 2e 2a b1 3e af 00 8a 3e 8b ce d6 3e 4e 97 b4 3e
       0.34602493 0.26953647 0.41954455 0.35271686
000160 f9 d3 b9 3e f9 97 d9 3e bf e2 96 3e a0 00 b4 3e
       0.36294535 0.42498758 0.2946987 0.35156727
000170 a9 f1 ba 3e b7 7e f5 3e aa 13 a1 3e 9c df f4 3e
       0.36512497 0.47948238 0.31460315 0.4782685
000180 35 69 be 3e fc 83 b8 3e d0 9d cb 3e 99 8c ba 3e
       0.37189642 0.36038196 0.3976884 0.36435392
000190 10 d0 86 3e bc ae fb 3e 3e 13 c1 3e 7a b4 b3 3e
       0.26330614 0.4915675 0.37709993 0.3509863
0001a0 92 eb d5 3e b9 0c 59 3e f9 41 74 3e 15 bd d0 3e
       0.41781288 0.2119626 0.23853292 0.40769258
0001b0 0a 1a e0 3e 24 75 c6 3e 27 f8 4b 3e 53 d3 91 3e
       0.43769866 0.38761246 0.19918881 0.2848154
0001c0 c3 e7 76 3e 2e ca c7 3e 05 b2 8b 3e df b5 97 3e
       0.24111848 0.39021438 0.27284256 0.29630944
0001d0 90 e0 ce 3e e7 83 96 3e b8 e0 b3 3e e9 02 a2 3e
       0.40405703 0.29397509 0.35132384 0.31642845
0001e0 86 1c e4 3e 0a 8f b1 3e 5d ba bf 3e 65 af f0 3e
       0.44553012 0.34679443 0.3744687 0.47008815
0001f0 9d fa cc 3e e4 e2 c9 3e ad 3d ba 3e a4 0f e6 3e
       0.40034953 0.39430916 0.3637518 0.44933808

hidden3.weight f4 [16, 128]
000000 99 dc db bd 37 23 be bd fa 5e 0e bd 42 7e 20 bd
       -0.10735435 -0.092840604 -0.034758545 -0.03918291
000010 a9 cc 89 3d fc 4b 4d bd 51 c8 0c bd de ab 32 3d
       0.06728489 -0.050121292 -0.034370724 0.043620937
000020 08 4c a0 bd f1 70 58 3d 82 f1 b2 bd f2 2b 82 bd
       -0.07827002 0.052842084 -0.0873747 -0.06356038
000030 9f 2e 6c bd 31 b9 e0 bc b0 67 8c 3d fc dd 8d 3c
       -0.05766165 -0.027432056 0.06855714 0.017317764
000040 21 04 8f 3c a4 b4 a6 3d 5d d2 97 bd e4 8a e2 bc
       0.017458024 0.08139923 -0.074131705 -0.027654119
000050 b5 39 2d 3d c7 14 c9 3c a1 81 4d bd d0 88 85 3d
       0.04229136 0.02454604 -0.050172452 0.065202355
000060 61 71 8e bd 75 83 2d 3d 0f db 45 3d 29 17 8a 3d
       -0.06955219 0.042361695 0.048304614 0.06742699
000070 bb e1 7c 3d 6c e0 1a bd 1a d2 07 bd df 42 40 bd
       0.06173871 -0.03781168 -0.033159353 -0.046938773
000080 2e 6c 4a 3c 03 d9 d5 3c 4a 59 f8 3c 93 fb 41 bd
       0.012354894 0.026104456 0.030316014 -0.04735906
000090 56 73 24 bd 0f d2 d3 ba 97 9f 31 3c 85 c4 e3 3d
       -0.040149055 -0.0016160625 0.010841272 0.111214675
0000a0 b6 fe 44 3c fb b4 e7 bb f5 78 b7 bd a5 d4 09 3d
       0.012023618 -0.007071135 -0.089586176 0.03365006
0000b0 65 b5 b7 bb 50 75 cc bc 4c 16 91 3d 25 3c 09 bd
       -0.0056063407 -0.024958283 0.07084331 -0.033504624
0000c0 03 27 16 bd 94 1e d6 3a 5c 2e 62 3d 33 59 88 3b
       -0.0366583 0.0016336017 0.055219993 0.004161024
0000d0 99 9c 27 3d 6b 33 97 3d ff 08 ec 3b 76 b2 8d 3c
       0.040920828 0.07382854 0.007203221 0.01729701
0000e0 bf 6c 33 bd 84 e9 b0 bc b6 66 91 bd 3b 45 53 3b
       -0.04380488 -0.021595724 -0.07099669 0.003223731
0000f0 ca c9 2b bd b8 b7 11 bd 04 f6 94 bd 3c 75 2d 3c
       -0.041940488 -0.0355756 -0.07273486 0.010587033
000100 0b 31 7c 3d 9b 8e 82 bd 1d 4e 78 3d 77 a1 88 bd
       0.06157021 -0.06374856 0.06062137 -0.06671422
000110 ca 46 6a bd 56 56 7f 3d 9b 5c 84 bc dc 3b 87 bd
       -0.057196416 0.062338196 -0.016157439 -0.06603214
000120 25 62 8d 3d a8 d0 ca bb c6 db 5d bd 49 f7 1b 3d
       0.06903485 -0.0061894245 -0.05416467 0.038077626
000130 bd 1e e5 bd d0 fa 91 38 c6 e3 9d bc d2 06 19 bc
       -0.111875035 6.960856e-05 -0.01927365 -0.009340005
000140 c0 2c 5c 3d 8e 7e 23 bd 9d f3 20 3d f2 05 0b 3c
       0.053753614 -0.039915614 0.039294828 0.008485304
000150 92 78 6e bd 04 7b 73 3d 7e fa 9b bd dc 84 ce 3b
       -0.058220454 0.05944349 -0.07616137 0.006302459
000160 10 fe 5f 3d 44 1c 5e bd e2 4a 9c bd 69 f6 fd 3c
       0.054685652 -0.054226175 -0.0763147 0.031001287
000170 01 0e 5e bb e6 56 ca 3c 3d 3b db 3c 00 89 ab bd
       -0.0033882859 0.02469964 0.026761645 -0.0837574
000180 b2 76 b1 3d ff 7a 2d bc 98 3b 40 bd 70 99 71 bd
       0.086652175 -0.010588407 -0.046931833 -0.05898422
000190 3c 72 65 bd b0 11 88 bd 8d ab 8c bd f2 c1 63 3d
       -0.056017146 -0.066439986 -0.06868658 0.055604883
0001a0 5b 12 e9 3c f9 89 0e 3d 5f e7 ac ba b0 ed 28 3d
       0.028451135 0.03479955 -0.0013191513 0.0412423
0001b0 ca b4 28 bd 89 8c 9c bd 5e 58 a2 bc a9 8d 86 bc
       -0.04118804 -0.076439925 -0.019817527 -0.01642497
0001c0 c0 0d 2c bd 43 88 01 bd a6 b2 a3 ba fb d0 4d bd
       -0.0420053 -0.03162409 -0.0012489154 -0.050248127
0001d0 1e ed 13 bc 3c a3 1b 3c 77 fa 95 bd 4d 8a d7 3d
       -0.009028701 0.009499367 -0.07323163 0.10524426
0001e0 5c 2b c5 3c a2 f1 49 3b 49 3c 8e bd a7 18 21 bc
       0.024068527 0.003081419 -0.06945092 -0.009832538
0001f0 44 0a 37 bd 86 13 de bc d9 47 04 3c bc 74 e7 3c
       -0.044687524 -0.027108919 0.00807377 0.028253905
000200 63 ea 11 3d df d5 66 bb a4 22 a0 3d 8d a7 97 bd
       0.03562392 -0.0035222692 0.07819107 -0.07405005
000210 69 5b b1 3a 90 46 e1 bd 16 da e5 3c a0 76 da 3a
       0.0013531271 -0.10999787 0.028058093 0.0016667433
000220 7b e8 41 bc b1 d4 a2 bc 0c 43 d7 bc c8 11 17 3d
       -0.011835213 -0.01987681 -0.026277088 0.036882192
000230 a0 35 ac bd f8 67 fd bc 63 1f 7e bd 2b 9d bc 3c
       -0.08408666 -0.030933365 -0.06204165 0.023024162
000240 ab 75 af 3c 23 d9 40 bd 51 1b eb 3c 16 1f 0f 3c
       0.021418413 -0.047082078 0.028699549 0.008735439
000250 5e 41 b7 bd c5 59 65 3c 75 a2 33 3d 77 9f 6a bd
       -0.08948015 0.0139984535 0.043856103 -0.057280984
000260 38 fd 96 bc 46 3c f5 3d 7f 79 4b 3d 07 26 6f 3d
       -0.018431291 0.11974387 0.049676415 0.058385875
000270 7d 4a 52 bc 03 75 3c 3d ad 83 24 3c c9 0d a1 bd
       -0.012835142 0.04601003 0.01004116 -0.078639574
000280 4e 5b a0 bd e7 81 d3 bd 89 28 ef bd e0 de 81 3d
       -0.07829915 -0.10327511 -0.11677653 0.06341338
000290 e7 35 73 bd 28 4d 95 3c 92 20 30 3d 90 53 88 bd
       -0.059377577 0.018225268 0.04299981 -0.06656563
0002a0 43 e9 aa 3c f2 62 89 bd 01 61 7c 3d fa dd ae 3b
       0.020863181 -0.067083254 0.061615948 0.0053365203
0002b0 f8 74 8e 3d bc e3 d8 3c ff 54 5d 3c 43 0e 68 bd
       0.06955904 0.02647578 0.013509034 -0.056654226
0002c0 37 da a7 3d 5c 0f 49 bd 0c 01 99 bd ad ac 9a 3d
       0.08195918 -0.049086913 -0.07470903 0.075524665
0002d0 29 50 f1 bc df 65 41 bc 82 9f f7 3b a5 bb 4d bd
       -0.029457169 -0.011804073 0.0075568566 -0.05022778
0002e0 f9 69 ff bc 12 b4 91 3c 19 d0 ed 3d 92 2b 7c 3c
       -0.031178461 0.01778606 0.11611957 0.015391247
0002f0 c6 0d 69 bc f5 c6 eb bc 4a e3 d8 3d f5 21 a7 bd
       -0.014224475 -0.028781394 0.10590227 -0.08160774
000300 7e 1d 54 bd 91 29 98 3d 79 ff 77 bd b9 92 89 3d
       -0.05178594 0.07429803 -0.060546372 0.06717438
000310 8f c0 25 3e 00 9c e1 ba 28 5a d4 bc 7e 0c 07 3c
       0.16186737 -0.0017212629 -0.025921896 0.008242724
000320 8c 74 b0 bd 6d fd 4a bd 44 d1 0a 3d 82 da fd 3b
       -0.086159796 -0.049558092 0.033890978 0.0077469954
000330 61 02 74 3d 1f 2b 86 bc 08 24 72 bd 1c d1 5f bd
       0.05957258 -0.016377984 -0.059116393 -0.05464278
000340 fa b7 05 bd 21 a5 2b 3c 08 14 56 bd b2 b9 e6 bc
       -0.032646157 0.0104763815 -0.052265197 -0.028164718
000350 d3 cc b4 bb 1e f8 65 3c ae c8 a3 3d 67 f3 33 bd
       -0.005517581 0.0140362065 0.07997261 -0.0439333
000360 8a 5c ba 3c d8 43 8b bc ac 59 cb bc 1c 18 cf 3d
       0.022749204 -0.017000124 -0.024823032 0.101120204
000370 6a c4 a8 bd 5b 65 8d bd 62 b2 ba 3d 14 be e6 bc
       -0.08240588 -0.06904098 0.09116055 -0.028166808
000380 30 b0 fe bc e1 49 9a bd 12 0d 9c 3d 86 f1 4c bd
       -0.031089872 -0.075336225 0.076196805 -0.050035022
000390 ce 8a 8f bb df 50 ac 3d ba 08 04 3e f4 5b 6e 3c
       -0.0043805605 0.084138624 0.12893954 0.0145482905
0003a0 a8 fe 78 bc 69 d2 13 3d 53 85 80 bc f3 bd 4e 3d
       -0.0151974335 0.036089335 -0.015688574 0.05047412
0003b0 e7 0e 83 bc 8d 4e 56 3c 9a 8d 64 bd 8b 93 cc bd
       -0.015998317 0.013080251 -0.055799104 -0.09989079
0003c0 23 fb 06 3e 8e 8f c6 bc 4d 78 84 bd 9f 22 fa 3c
       0.13181739 -0.024238374 -0.06468258 0.030534087
0003d0 f7 b7 de 3c d6 f1 07 bd 2d 64 da bd 30 3b 2f 3d
       0.02718733 -0.033189617 -0.10663638 0.042781055
0003e0 aa ca 57 bb 1d 3b 14 3c 5b b8 e6 3c 53 03 8b 3d
       -0.0032927194 0.009047297 0.02816408 0.067877434
0003f0 78 c0 48 bc c5 af 22 bd 96 a1 ba 3d 9c 0c 03 3b
       -0.012252919 -0.03971841 0.09112851 0.001999653

bn3.weight f4 [16]
000000 4e 32 7e 3f b5 c2 7d 3f 7d 0c 7c 3f 6d 93 91 3f
       0.9929551 0.99125224 0.98456556 1.1373116
000010 4b ac 73 3f f3 2e 83 3f 7b 97 7c 3f 4c 10 80 3f
       0.95184773 1.0248703 0.9866864 1.0004973
000020 a2 b9 88 3f d7 96 8d 3f 4c 2b 7c 3f 57 5e 8f 3f
       1.0681651 1.1061658 0.98503566 1.1200665
000030 9b 3c 7d 3f fd 21 85 3f ed 3c 7e 3f aa d9 7e 3f
       0.989206 1.0400997 0.99311715 0.9955088

bn3.bias f4 [16]
000000 1e d6 e6 bd d4 05 cc be cf c0 e8 bd 75 c2 4f 3e
       -0.11271308 -0.39848197 -0.113649 0.20289023
000010 4b 5e 93 3e 35 61 91 3d 9e 1f ed 3e 6c 1b 1a 3e
       0.28782877 0.07098619 0.46313184 0.15049523
000020 77 49 e7 be f3 32 c6 be 4f 59 e4 3e 10 0a 16 3f
       -0.45173237 -0.38710746 0.44599387 0.58609104
000030 ff 26 7f be 71 68 07 be 97 23 ca 3d ff 7a 74 3c
       -0.2491722 -0.13223435 0.098700695 0.014921903

bn3.running_mean f4 [16]
000000 c1 0f 68 bd 7f 22 54 bd 3a b7 02 bd 67 51 6a 3d
       -0.05665565 -0.05179071 -0.03191302 0.057206538
000010 65 9d 24 3c a4 e5 04 3d 74 f5 e0 3d e8 15 47 3c
       0.010047291 0.032445565 0.109843165 0.012151219
000020 5e 10 5a bb 04 f6 32 be e2 a2 43 3c d4 16 4c 3e
       -0.0033273916 -0.1747666 0.01194069 0.19930583
000030 ff 06 99 bb 20 01 84 bd b7 44 a1 3c a8 66 39 39
       -0.0046700235 -0.06445527 0.019686086 0.00017681217
