models/focal_loss_checkpoints/checkpoint_epoch_260.pth (torch, 100242 bytes, 16 tensors)

hidden1.weight f4 [128, 30]
0.10713003 -0.16224964 -0.05689482 -0.048546143 0.10562209 -0.094342776 0.011835477 0.02498668
-0.003960643 -0.10022434 -0.14739425 0.19351438 -0.1037727 0.02651564 -0.044757016 0.091441594
-0.21433033 0.049381033 0.16463518 0.23150651 0.09700793 0.031881306 -0.11229563 0.04626811
0.09285763 0.060626995 -0.07888711 0.16087174 0.10432506 -0.078038946 -0.18018696 0.00063816726
0.027421158 0.032829672 -0.032350086 0.009483932 -0.07550017 0.0038869719 -0.035790887 -0.14158134
-0.07177143 -0.16255784 0.17265421 0.1480632 0.07432967 -0.03896412 -0.11695023 0.057228662
0.09860024 0.11393266 -0.18033694 -0.13411877 -0.10171925 0.059040572 0.19846293 -0.15865584
0.104802914 0.017665705 -0.14713855 -0.04223659 0.13443342 0.006784066 0.045349155 -0.12855288
-0.0032861673 0.07581691 0.11296922 -0.04570007 0.10188007 0.11357849 0.018027293 -0.12806156
-0.17954955 0.10989096 0.13561027 0.16435291 -0.16866758 -0.18207933 -0.088659965 -0.115080014
0.031516176 -0.03991867 -0.17092979 -0.10485685 -0.1042146 -0.08243271 0.045136336 -0.07132585
-0.0020912236 0.13663751 -0.007806858 0.16977884 -0.084400825 -0.02681673 -0.088846326 0.04219784
0.039141215 0.038465086 -0.04321687 -0.08099581 0.13936338 -0.17632793 0.03067774 0.090392955
-0.047560107 0.12682314 -0.08779999 -0.030694272 -0.11690767 -0.0168037 -0.030423531 -0.16507708
0.06563249 -0.012083987 0.20519686 0.19131665 -0.14704339 0.04467868 0.06682485 -0.11247872
0.07607432 0.014489731 -0.20499761 -0.11170553 -0.16972736 -0.11191397 0.12618978 -0.08919015
0.03078353 0.17918552 0.12984648 0.09290435 0.2294434 -0.055012736 0.08468123 -0.13437296
0.063502796 -0.051519893 -0.1082976 -0.195801 -0.005640162 0.017206501 -0.07528097 0.04705925
0.16055979 0.1331936 -0.009331955 -0.07413693 -0.0034734148 0.021924568 -0.07642618 -0.06509255
0.17392232 0.021955302 0.19628142 0.041429944 0.21329953 0.010705448 -0.032946758 0.031926945
0.048018713 0.09206183 -0.05614983 0.1053425 -0.16648158 0.0765964 0.080468714 -0.104108475
-0.059801314 0.11791058 0.059820056 -0.039091524 -0.09695192 -0.01644503 0.090523385 -0.08591262
-0.051771846 -0.13957202 -0.082551286 0.058986504 -0.099073924 -0.0491871 0.053220205 -0.13531417
-0.04561135 0.15907249 -0.055941977 0.11582638 -0.013314762 -0.14719117 -0.048992034 -0.19128709
0.19093266 0.16701968 0.1294687 0.055132937 0.12801225 0.054295626 0.020997085 0.043856703
0.056790553 -0.030012552 -0.12826918 0.11785168 0.12989314 -0.095361024 0.057626553 0.09599464
0.0057763644 -0.10246363 -0.013073797 -0.06994801 0.0017687585 0.14517362 -0.19490607 -0.09931008
0.042780887 -0.033295285 -0.09856653 -0.013146299 0.07138118 -0.1884359 -0.022499932 0.04817605
0.07716647 -0.011282724 0.15765093 0.14079028 -0.100328766 0.043057226 0.106667385 -0.056392416
0.16104937 -0.006087613 0.17076501 -0.068712965 0.15985595 -0.12492848 0.08469235 -0.0847356
-0.12026545 0.08727158 -0.16202818 0.16476329 0.07480336 -0.050284848 0.03363183 0.13988303
0.034819696 0.02963963 0.19231562 0.11314358 -0.019588968 0.025537979 0.23181099 -0.10881341
00000000: fd66 db3d c524 26be 8b0a 69bd 52d8 46bd
00000010: 6550 d83d c936 c1bd 97e9 413c deb0 cc3c
00000020: 48c8 81bb 6b42 cdbd 85ee 16be a228 463e
00000030: c886 d4bd 5437 d93c 2253 37bd bb45 bb3d
00000040: 6979 5bbe c443 4a3d 2096 283e 0b10 6d3e
00000050: 18ac c63d f995 023d 40fb e5bd a183 3d3d
00000060: 242c be3d 0354 783d 918f a1bd 90bb 243e
00000070: 61a8 d53d e2d2 9fbd ee82 38be ae4a 273a
00000080: 56a2 e03c 6878 063d 8681 04bd 7e62 1b3c
00000090: d59f 9abd 91bc 7e3b 7799 12bd b3fa 10be
000000a0: e6fc 92bd 9075 26be 44cc 303e e19d 173e
000000b0: 273a 983d d798 1fbd 9a83 efbd 9a68 6a3d
000000c0: ecee c93d 8755 e93d 3faa 38be 6e56 09be
000000d0: 2f52 d0bd 87d4 713d de39 4b3e ad76 22be
000000e0: e9a2 d63d abb7 903c 7dab 16be 4600 2dbd
000000f0: eaa8 093e df4c de3b 09c0 393d 5ea3 03be
00000100: bd5c 57bb e545 9b3d 685c e73d ff2f 3bbd
00000110: 80a6 d03d d79b e83d f9ad 933c 9222 03be
00000120: d6db 37be 830e e13d 6bdd 0a3e 214c 283e
00000130: 32b7 2cbe 0173 3abe 5b93 b5bd 12af ebbd
00000140: 1b17 013d c281 23bd 3808 2fbe 30bf d6bd
00000150: 776e d5bd 7bd2 a8bd e1e0 383d 4a13 92bd
00000160: e90c 09bb b4ea 0b3e acd0 ffbb 81da 2d3e
00000170: 57da acbd c2ae dbbc 10f5 b5bd a4d7 2c3d
00000180: 8a52 203d 918d 1d3d 2c04 31bd 22e1 a5bd
00000190: 46b5 0e3e 4f8f 34be e24f fb3c f11f b93d
000001a0: 63ce 42bd eddd 013e 7bd0 b3bd 8e72 fbbc
000001b0: 4a6d efbd eaa7 89bc c53a f9bc f709 29be
000001c0: 546a 863d eafb 45bc 201f 523e 83e8 433e
000001d0: 8b92 16be fe00 373d 78db 883d 3e5b e6bd
000001e0: dacc 9b3d 5666 6d3c e5ea 51be dec5 e4bd
000001f0: 02cd 2dbe 2733 e5bd e537 013e 53a9 b6bd
00000200: be2d fc3c 697c 373e 7af6 043e a344 be3d
00000210: 36f3 6a3e 0955 61bd 5a6d ad3d 1199 09be
00000220: c10d 823d 8606 53bd 22cb ddbd 0f80 48be
00000230: 1cd1 b8bb a6f4 8c3c e92c 9abd 33c1 403d
00000240: c969 243e e763 083e 0ee5 18bc 1ad5 97bd
00000250: 3ba2 63bb 279b b33c 5485 9cbd 3e4f 85bd
00000260: b118 323e 9bdb b33c fffd 483e 72b2 293d
00000270: 316b 5a3e e765 2f3c 2ef3 06bd d4c5 023d
00000280: 45af 443d ea8a bc3d 5dfd 65bd cfbd d73d
00000290: 267a 2abe 93de 9c3d c8cc a43d d336 d5bd
000002a0: 39f2 74bd 1a7b f13d e005 753d 6f1e 20bd
000002b0: ba8e c6bd bab7 86bc 5364 b93d f5f2 afbd
000002c0: b70e 54bd f8eb 0ebe a610 a9bd d59b 713d
000002d0: 45e7 cabd 6a78 49bd 6efd 593d cc8f 0abe
000002e0: f8d2 3abd e6e3 223e 6a23 65bd 6236 ed3d
000002f0: 2926 5abc 48b9 16be dfab 48bd c3e0 43be
00000300: da83 433e 3507 2b3e 7193 043e 13d3 613d
00000310: a515 033e 1765 5e3d 1402 ac3c 16a3 333d
00000320: 369d 683d e2dc f5bc ff58 03be 395c f13d
00000330: b502 053e a44c c3bd d209 6c3d d698 c43d
00000340: a847 bd3b 74d8 d1bd 7b33 56bc e740 8fbd
00000350: b0d5 e73a 65a8 143e 7595 47be 1563 cbbd
00000360: 033b 2f3d a360 08bd 40dd c9bd 9363 57bc
00000370: 4c30 923d 57f5 40be c751 b8bc 4054 453d
00000380: 7409 9e3d 2ddb 38bc 3f6f 213e 542b 103e
00000390: 2b79 cdbd c65c 303d 6e74 da3d bcfb 66bd
000003a0: 20ea 243e 997a c7bb 06dd 2e3e 62b9 8cbd
000003b0: 47b1 233e 81da ffbd 2f73 ad3d dc89 adbd
000003c0: bb4d f6bd 71bb b23d b7ea 25be b5b7 283e
000003d0: 8132 993d 7cf7 4dbd 88c1 093d 7f3d 0f3e
000003e0: 199f 0e3d cfce f23c 63ee 443e d2b7 e73d
000003f0: 0b79 a0bc 0635 d13c dc5f 6d3e 91d9 debd

bn1.weight f4 [128]
1.0098246 0.99849224 1.005828 1.0015261 0.99461204 1.0414962 1.0196881 0.99962
1.0193912 1.0066702 1.0077825 1.0011023 1.0053034 1.000285 0.9943598 1.0073786
1.0058955 1.006129 1.0156363 1.0086242 1.0193805 0.99939424 1.0086495 1.0170369
1.014938 1.0140512 0.99807906 1.020835 1.0073886 1.0010519 1.0045058 1.0097611
1.0115361 1.0262685 1.0087035 1.0200235 1.01718 1.0172005 1.0079271 1.021285
1.0022987 0.99632716 1.0056384 1.0487127 1.010657 0.99998784 0.98571277 1.0166072
1.005133 0.9856223 0.99648035 1.0141876 1.011993 1.0021905 1.0317656 1.0195448
1.0027423 1.008615 1.0009995 1.0158885 1.0007906 1.003104 1.0081642 1.0273043
1.0256333 1.0121745 1.0142252 1.0275384 1.01803 1.0174495 1.0250387 1.0159805
0.99944335 1.003833 0.99473166 1.034157 1.0337389 1.0143844 1.0074838 0.99605006
1.0002797 1.0174383 1.0130552 1.0072508 0.99517816 1.0233129 0.99195355 1.0073874
1.0050943 1.0092312 1.0204426 0.9803148 0.99961704 1.0040267 0.9946102 1.0053854
1.013921 1.0148641 1.012089 1.0315706 1.0653878 0.99537873 0.9792644 0.9974435
1.0342762 1.0479233 1.0058423 0.99810535 1.0074512 0.98913395 0.9998022 1.0147976
1.0175668 1.0146465 1.009369 1.0077684 1.0147018 1.0039505 1.0279665 0.9977166
1.0096227 1.0354265 0.9784387 1.0020099 1.0271237 1.0126413 0.9965134 1.0160497
00000000: ef41 813f 309d 7f3f f9be 803f 0232 803f
00000010: e59e 7e3f bf4f 853f 2485 823f 19e7 7f3f
00000020: 697b 823f 92da 803f 04ff 803f 1f24 803f
00000030: c8ad 803f 5709 803f 5d8e 7e3f c8f1 803f
00000040: 2fc1 803f d6c8 803f 5f00 823f 991a 813f
00000050: 0f7b 823f 4dd8 7f3f 6d1b 813f 442e 823f
00000060: 7de9 813f 6ecc 813f 1c82 7f3f b9aa 823f
00000070: 1cf2 803f 7822 803f a593 803f da3f 813f
00000080: 047a 813f c45c 833f 321d 813f 2190 823f
00000090: f432 823f a033 823f c103 813f 78b9 823f
000000a0: 534b 803f 4c0f 7f3f c2b8 803f 383c 863f
000000b0: 355d 813f 34ff 7f3f ac57 7c3f 2f20 823f
000000c0: 33a8 803f be51 7c3f 5619 7f3f e6d0 813f
000000d0: fd88 813f c747 803f e510 843f 7280 823f
000000e0: dc59 803f 4c1a 813f c020 803f a208 823f
000000f0: e819 803f b665 803f 860b 813f b57e 833f
00000100: f447 833f ef8e 813f 22d2 813f 6186 833f
00000110: cf4e 823f c93b 823f 7834 833f a60b 823f
00000120: 85db 7f3f 9a7d 803f bca6 7e3f 425f 843f
00000130: 8e51 843f 59d7 813f 3bf5 803f 23fd 7e3f
00000140: 2a09 803f 6b3b 823f cbab 813f 98ed 803f
00000150: ffc3 7e3f ebfb 823f abf0 7d3f 12f2 803f
00000160: eea6 803f 7d2e 813f dd9d 823f e9f5 7a3f
00000170: e7e6 7f3f f283 803f c69e 7e3f 78b0 803f
00000180: 2ac8 813f 11e7 813f 228c 813f 810a 843f
00000190: a15e 883f 24d1 7e3f 12b1 7a3f 7558 7f3f
000001a0: 2a63 843f 5a22 863f 71bf 803f d583 7f3f
000001b0: 29f4 803f e237 7d3f 09f3 7f3f e3e4 813f
000001c0: a13f 823f f0df 813f 0133 813f 8efe 803f
000001d0: c0e1 813f 7381 803f 6894 833f 5b6a 7f3f
000001e0: 513b 813f db88 843f f57a 7a3f dc41 803f
000001f0: ca78 833f 3b9e 813f 811b 7f3f eb0d 823f

bn1.bias f4 [128]
-0.06742929 0.051786825 -0.0026082385 0.033905514 0.070060916 -0.0591273 0.04327599 0.04057484
0.03654772 0.08305712 -0.044079386 -0.0033751999 0.043006066 0.019626511 -0.108382285 -0.031570666
-0.0070904098 -0.016562097 0.06149319 0.01490496 -0.062232304 0.032194532 -0.003548377 0.03027722
-0.040978525 0.034533296 0.0073878407 -0.07048113 0.029556654 0.0040192637 0.058171116 -0.014582796
0.07620481 -0.1583908 0.017397914 0.0019206968 -0.021983812 -0.01734227 -0.019245973 0.12609619
-0.090306155 -0.062287442 0.083583616 0.04117406 0.056062695 0.018900095 -0.05903645 0.0046291035
0.02819372 -0.027178625 0.03076541 -0.015522649 0.025118858 0.07628203 -0.09293383 -0.01887036
-0.03386412 -0.02227169 0.010913778 0.09474157 -0.034114957 0.039448276 0.032432433 0.04388965
0.0074256915 0.0046100835 0.023792176 -0.053116646 0.008890675 -0.037482284 0.03465054 0.046593226
0.11896853 -0.055672415 -0.06408144 0.04925087 0.110192865 0.054151062 -0.05924739 -0.014724527
0.103769846 0.04110535 0.030312423 0.034560338 -0.09435029 -0.031941563 0.10342321 -0.09882946
0.053876653 0.004505685 -0.023797698 -0.05776779 0.06294469 -0.027238412 0.0406408 0.060312398
0.016353047 0.007914904 -0.017094174 0.069192536 0.02676292 0.019918324 -0.044051148 -0.024930026
-0.05134351 0.057951078 0.00045003527 -0.034185823 0.020509679 -0.047978316 0.09163381 0.05995561
0.033261843 -0.018008932 -0.015901063 0.04653487 0.042882793 0.012808887 0.040910404 -0.0033426406
0.0007331688 0.054264814 -0.11406471 -0.012599812 0.045367625 -0.018229982 -0.079903595 0.04178164
00000000: 5e18 8abd 6c1e 543d fbee 2abb 82e0 0a3d
00000010: 197c 8f3d 782f 72bd 2a42 313d ce31 263d
00000020: 10b3 153d da19 aa3d 968c 34bd 7532 5dbb
00000030: 2127 303d c7c7 a03c 88f7 ddbd 3e50 01bd
00000040: ab56 e8bb 3cad 87bc 48e0 7b3d ef33 743c
00000050: 4de7 7ebd 6ade 033d e38b 68bb ef07 f83c
00000060: 19d9 27bd c972 0d3d b315 f23b 6958 90bd
00000070: cc20 f23c 07b4 833b d644 6e3d aeec 6ebc
00000080: 4411 9c3d 3331 22be 1286 8e3c e4bf fb3a
00000090: 6517 b4bc 6011 8ebc bba9 9dbc 5c1f 013e
000000a0: 6ff2 b8bd 1e21 7fbd e32d ab3d 22a6 283d
000000b0: ffa1 653d 5fd4 9a3c 34d0 71bd bcaf 973b
000000c0: 84f6 e63c b5a5 debc be07 fc3c b552 7ebc
000000d0: 10c6 cd3c c139 9c3d 1854 bebd 0396 9abc
000000e0: 1ab5 0abd 1f73 b6bc b4cf 323c de07 c23d
000000f0: 20bc 0bbd 8494 213d dfd7 043d a2c5 333d
00000100: 3753 f33b 2f10 973b cfe7 c23c d790 59bd
00000110: 32aa 113c 0687 19bd baed 0d3d 8ad8 3e3d
00000120: c6a5 f33d c208 64bd 213d 83bd 48bb 493d
00000130: ccac e13d 81cd 5d3d 64ad 72bd 243f 71bc
00000140: 4985 d43d 155e 283d c251 f83c 248f 0d3d
00000150: ba3a c1bd 28d5 02bd 8ccf d33d 1a67 cabd
00000160: c4ad 5c3d 6da4 933b 64f3 c2bc eb9d 6cbd
00000170: 25e9 803d 1723 dfbc f876 263d 220a 773d
00000180: d3f6 853c 83ad 013c 1509 8cbc d1b4 8d3d
00000190: e93d db3c c12b a33c fa6e 34bd 0e3a ccbc
000001a0: 934d 52bd 1c5e 6d3d b6f2 eb39 6f06 0cbd
000001b0: ea03 a83c e984 44bd 82aa bb3d 0494 753d
000001c0: 923d 083d 7887 93bc f242 82bc 599b 3e3d
000001d0: dea5 2f3d 5edc 513c ab91 273d 3410 5bbb
000001e0: 2032 403a c844 5e3d c29a e9bd 716f 4ebc
000001f0: 67d3 393d 0b57 95bc 7fa4 a3bd 3a23 2b3d

bn1.running_mean f4 [128]
-0.03738786 -0.11654436 0.20315799 -0.15030028 0.041460287 0.117017075 -0.15351504 -0.080622576
0.1102855 0.24028721 -0.023172779 0.1603871 -0.06792627 0.08065219 0.02399835 -0.05993518
0.24748501 -0.026764669 0.07805947 0.002779244 -0.12500027 -0.16694152 -0.17255919 0.05606478
-0.04808056 -0.10742465 0.028802855 0.11012274 -0.111674845 0.06809615 -0.031081079 0.1862293
-0.024177864 0.042648382 0.0337187 0.014203405 0.23549989 0.2057485 0.05363706 -0.16288543
-0.14736749 -0.12395964 -0.11782267 -0.03150309 0.16650717 0.16714229 0.013194675 0.0487337
-0.0545482 0.18926328 0.12088457 0.025693785 0.090582155 -0.012855608 0.14660329 -0.0654204
0.1544017 -0.027443271 -0.059554942 0.13801678 0.02811296 0.08432787 -0.26583505 0.08855402
-0.102675974 0.050150786 0.13901177 0.0020587114 0.17306323 -0.10708623 -0.0020871167 -0.016714433
-0.036469158 -0.118854836 0.08827663 0.18115208 -0.12411769 0.06889893 -0.18047017 0.25513935
0.059233893 -0.008279092 0.1273126 -0.033025634 -0.052159782 -0.047273014 -0.10138847 0.25284752
-0.15551805 0.036422424 0.12371862 0.21332237 -0.16703549 0.0064840475 -0.061953142 -0.14144598
0.019018026 0.028376373 -0.08744402 -0.13878416 -0.0035231113 -0.18057415 0.13824947 0.060000338
0.15440674 -0.09597235 -0.049061604 0.09487095 -0.022040876 0.103721775 0.09274874 -0.041214027
-0.13372089 0.030963331 0.074437015 -0.074789844 0.09515849 0.09675687 0.10334809 -0.14553508
0.08471361 -0.10424042 0.14428529 0.1105695 -0.082721055 -0.13336869 -0.10569379 -0.12253823
00000000: 0324 19bd cfae eebd a608 503e 51e8 19be
00000010: 43d2 293d a6a6 ef3d 0c33 1dbe 731d a5bd
00000020: 5ddd e13d da0d 763e d7d4 bdbc 843c 243e
00000030: ee1c 8bbd fa2c a53d 3098 c43c 977e 75bd
00000040: b66c 7d3e 9441 dbbc a5dd 9f3d fa23 363b
00000050: 1200 00be b8f2 2abe 5bb3 30be 2fa4 653d
00000060: 1ff0 44bd 7401 dcbd f7f3 eb3c 0888 e13d
00000070: c8b5 e4bd ff75 8b3d bf9d febc e5b2 3e3e
00000080: a810 c6bc 12b0 2e3d 9f1c 0a3d 66b5 683c
00000090: e226 713e bcaf 523e 89b2 5b3d 70cb 26be
000000a0: 81e7 16be 8dde fdbd 034d f1bd 6209 01bd
000000b0: db80 2a3e 5927 2b3e 7a2e 583c fd9c 473d
000000c0: ef6d 5fbd 3cce 413e 5492 f73d c67b d23c
000000d0: 2383 b93d 54a0 52bc 2c1f 163e 21fb 85bd
000000e0: 7b1b 1e3e b6d0 e0bc e2ef 73bd 4554 0d3e
000000f0: 264d e63c 17b4 ac3d 881b 88be cf5b b53d
00000100: c847 d2bd e96a 4d3d 1a59 0e3e 72eb 063b
00000110: 7d37 313e 0650 dbbd 02c8 08bb b5ec 88bc
00000120: af60 15bd 2a6a f3bd 61ca b43d ee7f 393e
00000130: 6a31 febd e21a 8d3d 2ccd 38be a0a1 823e
00000140: 3d9f 723d 07a5 07bc 3c5e 023e e345 07bd
00000150: 7fa5 55bd 59a1 41bd c2a4 cfbd 3b75 813e
00000160: 2040 1fbe ae2f 153d 3060 fd3d 2e71 5a3e
00000170: 5a0b 2bbe 2278 d43b 94c2 7dbd 37d7 10be
00000180: b1cb 9b3c 9175 e83c da15 b3bd 6f1d 0ebe
00000190: 00e4 66bb 6ee8 38be 4591 0d3e eac2 753d
000001a0: cd1c 1e3e 278d c4bd d2f4 48bd b34b c23d
000001b0: 118f b4bc 156c d43d 0df3 bd3d 0ad0 28bd
000001c0: 21ee 08be d0a6 fd3c 6f72 983d 6b2b 99bd
000001d0: 74e2 c23d 7728 c63d 2aa8 d33d 2607 15be
000001e0: 547e ad3d 007c d5bd 86bf 133e 4372 e23d
000001f0: a869 a9bd cd91 08be fc75 d8bd 53f5 fabd

bn1.running_var f4 [128]
0.486607 0.77477425 0.65736866 0.5837981 0.3990692 0.52120274 0.5787501 1.1907598
1.8889195 2.383584 1.2960783 0.84699947 0.4711241 2.6405098 0.42227846 0.31380463
1.2969345 0.63685334 0.8831342 0.7286372 0.47503132 2.8006215 1.5801954 0.49292496
0.6248435 0.45845285 0.77825403 0.49973395 0.6212555 1.8330115 0.41844466 1.8941358
0.9252689 0.37560678 0.68274516 0.327456 1.2856412 1.7469965 0.47028172 0.62282425
2.9212646 0.51275444 0.67345285 0.32453156 1.1343794 1.0356768 0.5349073 0.47173092
0.5438625 1.1879731 1.7506382 0.28510168 0.9270197 0.60788375 0.4478573 0.9690601
2.1933854 0.31656608 1.6298757 1.3207184 0.48765627 1.4618993 0.693336 0.968626
0.5014455 0.60986143 0.9651515 0.67835313 0.6594452 0.5925248 0.43476185 0.40435654
0.9447423 1.0489668 0.7653677 1.0675613 0.7035968 0.83233666 1.2698516 2.9895465
0.43236312 0.56426513 0.6583355 0.3588046 0.71916634 0.4607861 1.3685446 1.0315794
1.0529495 0.46941993 0.707124 1.1105331 1.7981949 0.656141 0.7522431 1.1185651
0.28107348 1.3819867 0.90232056 0.70595497 0.43329793 1.5300194 0.86156064 0.8433064
0.60993886 0.3649418 0.83506954 1.2324034 0.948292 1.8173063 1.8670726 0.6624798
1.2968597 0.685918 0.553631 0.55072576 0.7166557 0.33723947 1.0647386 0.9140446
0.804282 0.4477183 1.1731464 0.8365243 1.4903327 2.1588035 2.6377022 1.1175992
00000000: 8d24 f93e 9b57 463f 5049 283f cb73 153f
00000010: cc52 cc3e 8b6d 053f f728 143f d16a 983f
00000020: 1dc8 f13f a48c 1840 e5e5 a53f f5d4 583f
00000030: 2e37 f13e 1dfe 2840 e234 d83e 00ab a03e
00000040: f301 a63f d208 233f 1515 623f f887 3a3f
00000050: 4e37 f33e 623d 3340 d843 ca3f a960 fc3e
00000060: bef5 1f3f 55ba ea3e a83b 473f 21dd ff3e
00000070: 9a0a 1f3f 1fa0 ea3f 613e d63e 0b73 f23f
00000080: 6cde 6c3f 884f c03e 63c8 2e3f 50a8 a73e
00000090: e48f a43f 959d df3f c4c8 f03e 6971 1f3f
000000a0: 00f6 3a40 e043 033f 6867 2c3f 0029 a63e
000000b0: 5833 913f 0f91 843f afef 083f b786 f13e
000000c0: 933a 0b3f 810f 983f ea14 e03f d9f8 913e
000000d0: 2a51 6d3f 459e 1b3f 8d4d e53e 5314 783f
000000e0: 6d60 0c40 f314 a23e c49f d03f 4d0d a93f
000000f0: 15ae f93e 841f bb3f 787e 313f e0f7 773f
00000100: bb5e 003f e11f 1c3f 2b14 773f 8da8 2d3f
00000110: 67d1 283f b5af 173f 1b99 de3e d207 cf3e
00000120: a2da 713f 8b44 863f 23ef 433f d9a5 883f
00000130: eb1e 343f 0414 553f 7f8a a23f bb54 3f40
00000140: b35e dd3e ae73 103f ad88 283f 3db5 b73e
00000150: 491b 383f 28ec eb3e 782c af3f cb0a 843f
00000160: 0dc7 863f cf57 f03e 1406 353f f325 8e3f
00000170: 402b e63f dbf8 273f 0193 403f 242d 8f3f
00000180: dde8 8f3e f1e4 b03f 7bfe 663f 77b9 343f
00000190: 3ad9 dd3e add7 c33f 3d8f 5c3f eee2 573f
000001a0: f424 1c3f a7d9 ba3e 1ec7 553f 65bf 9d3f
000001b0: 44c3 723f 7e9d e83f 3cfc ee3f 4798 293f
000001c0: 80ff a53f 5298 2f3f c3ba 0d3f 5dfc 0c3f
000001d0: bf76 373f a7aa ac3e 5b49 883f d4fe 693f
000001e0: 6de5 4d3f 553b e53e a929 963f 7526 563f
000001f0: 39c3 be3f d629 0a40 1dd0 2840 7e0d 8f3f

hidden2.weight f4 [128, 128]
0.079117686 -0.0030662238 -0.06671013 0.019993417 0.038649485 -0.012782316 0.0210629 0.026879976
0.028801825 -0.026173642 -0.056159403 0.06448418 0.018859616 0.0815294 -0.06223946 -0.027255738
0.007934327 0.018443808 -0.028956652 -0.033344496 -0.023131633 -0.06327185 0.0037165547 -0.07465832
-0.03027167 0.0057707434 -0.06446156 0.032289986 0.07612433 -0.0055701756 0.020185066 -0.092989214
0.011329999 0.025535988 -0.022793382 -0.0075078094 -0.08931455 0.034383874 -0.0364481 0.00034559835
0.05027345 0.06801398 0.0063257394 0.08721299 0.0198878 -0.004703905 0.06394023 0.08933916
0.07992879 -0.052980915 -0.042345904 0.042659096 -0.04524182 -0.014145154 0.041898545 0.016768072
-0.0029560446 0.03609691 0.027724162 -0.08917451 0.06371099 0.026631797 0.053533137 0.002291622
0.0043178312 0.0107892305 -0.011414171 0.081637055 -0.07312381 -0.045929197 -0.06987522 -0.0019622487
-0.060611665 0.06932596 -0.040548883 0.06697701 0.09697124 -0.057066742 -0.05314787 -0.036583807
-0.042160038 0.055281095 0.059966587 -0.009761779 -0.07231758 0.04072752 0.08739194 0.010129293
-0.014446561 -0.058868624 -0.07531155 0.039856486 0.05026303 0.0666426 0.0923507 0.0029216546
-0.0043383804 0.021968368 -0.022734543 -0.02087494 -0.0046501546 0.021666303 -0.06672677 -0.07418995
-0.1041245 -0.002150869 0.017451052 0.06374239 -0.049431358 -0.01612992 0.048875753 0.03197699
-0.044373855 -0.07193198 -0.06840919 -0.011733921 0.010458753 0.061731815 0.029155008 0.060883764
-0.035737697 0.012263387 -0.03169924 0.08345409 -0.005774439 0.05216092 0.047795605 0.0032512567
0.032083284 -0.017963324 0.02228935 0.06998604 -0.013483957 0.078074396 -0.05237403 -0.013676477
0.01531754 0.011220186 0.11365827 -0.08629127 -0.054110553 -0.011423659 0.030452592 -0.03710245
-0.005868898 -0.061202966 -0.083101906 -0.026159689 0.012161809 0.08288835 -0.035876732 -0.09002945
0.02798156 0.08251073 0.007955662 0.07557506 0.041065924 -0.009417626 -0.061866745 0.019831792
0.068867594 -0.06181595 0.06311794 0.011071346 -0.039437424 0.01983873 -0.020459473 -0.056325004
0.047020044 0.074477084 -0.014126153 -0.05774742 -0.051620953 -0.060478773 -0.07142065 -0.04298584
-0.05092115 -0.021512035 0.047564793 -0.060258646 0.017441716 -0.0054506967 -0.06336838 -0.056253012
-0.044410486 0.013505624 0.056799833 -0.060642436 -0.00089901924 -0.09039955 0.10010464 0.04317568
0.029819682 -0.06696286 0.0132477265 0.08131502 -0.024898894 0.029546356 0.013842678 -0.013559015
-0.028830167 0.018520422 0.04286921 -0.012086991 -0.03278324 -0.09746067 -0.04004809 -0.04180526
-0.055801183 -0.07754031 -0.04800898 -0.040568784 0.03214238 0.038474556 -0.06861313 0.055736165
-0.015449654 0.07976616 0.045850955 0.035197407 0.06503177 -0.018328154 0.001565305 -0.073986925
-0.061222937 0.0074700727 0.050057996 0.01992605 -0.079918124 -0.054059837 -0.029274661 0.010346849
0.015747517 0.03796144 -0.08559845 0.054043747 -0.09689931 -0.03435216 0.028905973 -0.07434995
-0.055790737 0.09327489 -0.059768938 0.012130008 -0.08200937 -0.0952937 -0.03642347 0.083285436
-0.05757619 0.05398858 -0.013035723 0.01661652 0.050394863 0.02939425 0.07266321 0.02882653
00000000: 7408 a23d b3f2 48bb 529f 88bd 3cc9 a33c
00000010: ec4e 1e3d eb6c 51bc 1a8c ac3c 6533 dc3c
00000020: cef1 eb3c 1b6a d6bc 6707 66bd 4810 843d
00000030: 7b7f 9a3c e3f8 a63d ceee 7ebd 6d47 dfbc
00000040: fbfe 013c 7817 973c 8036 edbc 3d94 08bd
00000050: 8d7e bdbc ac94 81bd 7191 733b 76e6 98bd
00000060: 4bfc f7bc 8118 bd3b 6c04 84bd 8142 043d
00000070: 13e7 9b3d 0586 b6bb 275b a53c 2171 bebd
00000080: 76a1 393c d930 d13c 30b9 babc 1204 f6bb
00000090: 8cea b6bd 1bd6 0c3d 9a4a 15bd 6d31 b539
000000a0: 88eb 4d3d ea4a 8b3d 2648 cf3b b99c b23d
000000b0: bdeb a23c 3723 9abb 18f3 823d 73f7 b63d
000000c0: b5b1 a33d 8402 59bd e672 2dbd 4ebb 2e3d
000000d0: 7d4f 39bd 13c1 67bc cf9d 2b3d 325d 893c
000000e0: 33ba 41bb 5ada 133d c81d e33c 20a1 b6bd
000000f0: e87a 823d ed2a da3c 9045 5b3d 0a2f 163b
00000100: 987c 8d3b 50c5 303c 8102 3bbc 5431 a73d
00000110: f0c1 95bd 4120 3cbd bd1a 8fbd 1299 00bb
00000120: f043 78bd c5fa 8d3d 9616 26bd 3e2b 893d
00000130: dc98 c63d d1be 69bd 95b1 59bd e7d8 15bd
00000140: 01b0 2cbd 6e6e 623d 869f 753d deef 1fbc
00000150: 3d1b 94bd e6d1 263d 8cfa b23d 56f5 253c
00000160: 45b1 6cbc 3a20 71bd f13c 9abd 8e40 233d
00000170: 9be0 4d3d ea7b 883d 5d22 bd3d 3b79 3f3b
00000180: f928 8ebb 02f7 b33c cb3d babc ec01 abbc
00000190: 5360 98bb 887d b13c 0ba8 88bd e7f0 97bd
000001a0: 3a3f d5bd 98f5 0cbb 82f5 8e3c 5f8b 823d
000001b0: 8978 4abd e522 84bc f131 483d 4efa 023d
000001c0: 5cc1 35bd 1351 93bd 1e1a 8cbd a23f 40bc
000001d0: 315b 2b3c 80da 7c3d 7cd6 ee3c 4161 793d
000001e0: b161 12bd 60ec 483c 10d7 01bd fae9 aa3d
000001f0: 8137 bdbb b0a6 553d 53c5 433d 0913 553b
00000200: c369 033d d227 93bc 2898 b63c d754 8f3d
00000210: d1eb 5cbc 78e5 9f3d 2786 56bd 4d13 60bc
00000220: 6bf6 7a3c dfd4 373c abc5 e83d 7ab9 b0bd
00000230: 07a3 5dbd 4c2a 3bbc b777 f93c bdf8 17bd
00000240: e24f c0bb f6af 7abd 5531 aabd d84c d6bc
00000250: 5342 473c 5ec1 a93d 7bf3 12bd 5c61 b8bd
00000260: 9639 e53c 63fb a83d 7758 023c 19c7 9a3d
00000270: be34 283d 634c 1abc fc67 7dbd 4876 a23c
00000280: 740a 8d3d b932 7dbd fb43 813d 9764 353c
00000290: 2389 21bd d584 a23c a09a a7bc 0cb5 66bd
000002a0: 1798 403d 7187 983d 6171 67bc 8f88 6cbd
000002b0: 7e70 53bd 97b8 77bd fd44 92bd ec11 30bd
000002c0: b292 50bd 023a b0bc 4dd3 423d c5d1 76bd
000002d0: eee1 8e3c c29b b2bb 48c7 81bd 8f69 66bd
000002e0: c5e7 35bd b146 5d3c f1a6 683d 3464 78bd
000002f0: 29ac 6bba 6623 b9bd a903 cd3d fbd8 303d
00000300: 6848 f43c d323 89bd fe0c 593c 7d88 a63d
00000310: c4f8 cbbc 330b f23c 66cc 623c a126 5ebc
00000320: 3e2d ecbc 24b8 973c a097 2f3d 8408 46bc
00000330: b847 06bd 7699 c7bd 7709 24bd fe3b 2bbd
00000340: c88f 64bd 74cd 9ebd 10a5 44bd 742b 26bd
00000350: baa7 033d 7f97 1d3d 0a85 8cbd 9b4b 643d
00000360: 8c20 7dbc 715c a33d 36ce 3b3d 282b 103d
00000370: 602f 853d ed24 96bc ec2a cd3a 7586 97bd
00000380: e7c4 7abd 83c7 f43b 9d09 4d3d f53b a33c
00000390: 1dac a3bd d96d 5dbd 6ad1 efbc d585 293c
000003a0: f000 813c 747d 1b3d 3d4e afbd fa5c 5d3d
000003b0: 2573 c6bd dab4 0cbd 38cc ec3c c944 98bd
000003c0: d484 64bd e806 bf3d 46d0 74bd f1bc 463c
000003d0: 87f4 a7bd 5829 c3bd c730 15bd 8e91 aa3d
000003e0: 03d5 6bbd 2123 5d3d c993 55bc 5e1f 883c
000003f0: d86a 4e3d 36cc f03c 73d0 943d 9d25 ec3c

bn2.weight f4 [128]
1.0008773 0.99362767 0.99651235 0.98359287 0.99577147 0.995598 0.9935584 0.98544574
0.99841726 0.98814 0.9998062 0.99386483 0.99683464 0.9945526 0.9926511 0.9939648
0.99167705 0.98899746 0.9947613 0.9917508 0.99917275 0.99311304 0.99260443 0.99802136
0.9886503 1.0021206 0.99354386 0.99887186 0.99404305 0.99967456 0.9988457 0.99196345
0.9954712 0.98420346 0.98322105 0.99343866 0.994376 0.9982633 0.98772496 0.99189675
0.99731404 0.9916902 0.9930817 0.9952622 0.99060136 0.99842477 1.0000467 0.9846836
0.99720234 1.0021285 0.99394816 0.9901781 0.9985022 0.99771917 0.9866234 0.9837419
0.994688 0.9785044 0.98939407 0.989516 0.99453557 0.9985099 0.9924562 0.9894185
1.0000157 0.9998587 0.9961554 0.995925 0.9980462 0.98909456 0.9976846 1.000867
0.9992726 0.9927476 0.993296 0.99468654 1.0012202 0.9911082 0.9871277 0.9855398
0.9863213 0.98985165 0.9968988 0.9973708 0.99166477 0.99839365 0.9924785 0.9909708
0.9887331 0.98857623 0.99523014 0.99447745 0.99635655 0.9916288 0.9918722 0.9886817
1.0008442 0.9903916 0.99239516 1.002296 0.987634 0.9841154 0.98798764 0.996888
0.99894387 0.99888486 0.995927 1.0017117 0.9963088 0.9946784 0.99961644 0.98749304
0.9982016 1.000767 0.997241 0.99312603 0.9990587 0.99426275 0.9890377 1.0032178
0.9871503 0.9948031 0.9961338 0.9770583 1.0023026 1.0042223 1.0003883 0.98194754
00000000: bf1c 803f 625e 7e3f 6f1b 7f3f becc 7b3f
00000010: e1ea 7e3f 83df 7e3f d859 7e3f 2c46 7c3f
00000020: 4698 7f3f bef6 7c3f 4df3 7f3f ed6d 7e3f
00000030: 8e30 7f3f 009b 7e3f 621e 7e3f 7a74 7e3f
00000040: 8cde 7d3f f02e 7d3f ada8 7e3f 61e3 7d3f
00000050: c9c9 7f3f a83c 7e3f 531b 7e3f 547e 7f3f
00000060: 3018 7d3f 7d45 803f e458 7e3f 11b6 7f3f
00000070: 9b79 7e3f acea 7f3f 5ab4 7f3f 51f1 7d3f
00000080: 33d7 7e3f c2f4 7b3f 60b4 7b3f ff51 7e3f
00000090: 6d8f 7e3f 2f8e 7f3f 8bdb 7c3f f2ec 7d3f
000000a0: f94f 7f3f 69df 7d3f 9a3a 7e3f 81c9 7e3f
000000b0: 0d98 7d3f c498 7f3f 8801 803f 3914 7c3f
000000c0: a748 7f3f bf45 803f 6373 7e3f 507c 7d3f
000000d0: d79d 7f3f 866a 7f3f 5a93 7c3f 82d6 7b3f
000000e0: dfa3 7e3f 447f 7a3f ee48 7d3f ec50 7d3f
000000f0: e299 7e3f 589e 7f3f 9c11 7e3f 884a 7d3f
00000100: 8400 803f bdf6 7f3f 0a04 7f3f f1f4 7e3f
00000110: f57f 7f3f 4d35 7d3f 4268 7f3f 691c 803f
00000120: 54d0 7f3f b524 7e3f a648 7e3f c7a3 7e3f
00000130: fc27 803f 44b9 7d3f 67b4 7c3f 564c 7c3f
00000140: 8d7f 7c3f eb66 7d3f c234 7f3f b153 7f3f
00000150: bedd 7d3f ba96 7f3f 1213 7e3f 43b0 7d3f
00000160: 9d1d 7d3f 5513 7d3f 67c7 7e3f 1396 7e3f
00000170: 3911 7f3f 63db 7d3f 56eb 7d3f 3e1a 7d3f
00000180: aa1b 803f 4e8a 7d3f 9c0d 7e3f 3c4b 803f
00000190: 95d5 7c3f fdee 7b3f c2ec 7c3f 0d34 7f3f
000001a0: c9ba 7f3f ebb6 7f3f 12f5 7e3f 1738 803f
000001b0: 180e 7f3f 3ea3 7e3f dde6 7f3f 58cc 7c3f
000001c0: 248a 7f3f 2219 803f 304b 7f3f 823d 7e3f
000001d0: 50c2 7f3f 0188 7e3f 9331 7d3f 7169 803f
000001e0: e2b5 7c3f 6aab 7e3f a002 7f3f 7e20 7a3f
000001f0: 744b 803f 5b8a 803f b90c 803f ea60 7b3f

bn2.bias f4 [128]
0.0020685545 -0.04501769 -0.021525051 0.057026427 0.01805987 0.041699704 -0.017898923 -0.039244052
-0.022484893 0.037963454 0.012232873 0.03709214 0.026961215 0.04909173 0.028205244 -0.02018047
-0.035453234 0.03799301 -0.023489717 -0.050168615 0.016044267 -0.018797867 -0.021853155 -0.02125679
0.030161414 -0.024697576 -0.047701944 -0.027194817 -0.022053255 -0.011940114 0.019416932 -0.037867196
0.029963337 0.038480155 0.04264532 -0.020655125 0.04286093 -0.015609919 0.056805022 0.031768367
0.0225634 -0.032697495 0.01815775 -0.01588205 0.030619109 0.017580075 -0.0072090453 0.029337773
-0.02962356 -0.024166755 0.015471301 -0.027218968 0.004792454 -0.027361078 -0.03463248 -0.049980257
0.029198647 0.043113787 0.052365635 0.038590983 -0.016260967 -0.038989257 -0.03459735 0.049391247
-0.047655366 -0.03713318 -0.018965174 -0.025501287 -0.052969407 -0.033020265 -0.03168039 -0.0174296
-0.0207785 0.016860921 -0.011802513 0.037148725 -0.014431324 -0.059286058 0.047761846 -0.045562446
-0.046308853 0.035396952 -0.021552289 -0.026575306 -0.040863764 -0.0010306408 -0.022216734 0.04473305
-0.040516093 -0.04519316 0.024218332 -0.035822436 0.021735076 0.047250815 0.021259883 0.04012818
-0.011902831 0.021577585 0.031461515 0.024398819 0.030783843 -0.050950862 -0.04015359 -0.017479904
0.008820059 0.011274036 -0.019023856 0.023069702 -0.027507346 0.019501524 0.0017833706 -0.03247726
0.004721985 -0.03644878 -0.020620985 0.031786896 0.027194776 0.036738034 0.02379518 -0.022235183
-0.05253892 -0.030409625 0.030302929 -0.05406129 0.0255227 0.027824357 -0.013047768 -0.06820441
00000000: 9690 073b 7864 38bd 4e55 b0bc 8b94 693d
00000010: 4bf2 933c 4fcd 2a3d c3a0 92bc 5fbe 20bd
00000020: 3d32 b8bc 917f 1b3d 636c 483c eeed 173d
00000030: c4dd dc3c 6914 493d af0e e73c 8351 a5bc
00000040: 6937 11bd 8f9e 1b3d 826d c0bc 9b7d 4dbd
00000050: 446f 833c fcfd 99bc 6305 b3bc b822 aebc
00000060: 1215 f73c 9252 cabc 1d63 43bd aac7 debc
00000070: 07a9 b4bc 78a0 43bc 4210 9f3c a21a 1bbd
00000080: ac75 f53c 5e9d 1d3d dcac 2e3d f034 a9bc
00000090: f18e 2f3d bfc0 7fbc 62ac 683d 8c1f 023d
000000a0: e1d6 b83c cfed 05bd 90bf 943c 131b 82bc
000000b0: edd4 fa3c 1704 903c db39 ecbb c555 f03c
000000c0: 1cad f2bc 5cf9 c5bc 577b 7d3c 50fa debc
000000d0: 050a 9d3b 5724 e0bc cada 0dbd 19b8 4cbd
000000e0: 0032 ef3c 1598 303d 597d 563d 9411 1e3d
000000f0: b835 85bc 33b3 1fbd f3b5 0dbd 7a4e 4a3d
00000100: 4632 43bd f618 18bd da5c 9bbc 13e8 d0bc
00000110: 73f6 58bd 4240 07bd 4cc3 01bd 85c8 8ebc
00000120: ac37 aabc ea1f 8a3c 545f 41bc 4329 183d
00000130: 5c71 6cbc f0d5 72bd eda1 433d b09f 3abd
00000140: 5aae 3dbd 65fc 103d 6d8e b0bc 75b4 d9bc
00000150: c360 27bd 9116 87ba deff b5bc 013a 373d
00000160: 34f4 25bd 771c 39bd 8665 c63c 8cba 12bd
00000170: c20d b23c 128a 413d 3529 ae3c 725d 243d
00000180: 1704 43bc 7ac3 b03c cadd 003d 08e0 c73c
00000190: 662e fc3c dab1 50bd 1778 24bd 0432 8fbc
000001a0: 0282 103c bcb6 383c ebd7 9bbc acfc bc3c
000001b0: 1657 e1bc a9c1 9f3c fdbf e93a e006 05bd
000001c0: e2ba 9a3b 514b 15bd 57ed a8bc fa32 023d
000001d0: 94c7 de3c 9f7a 163d 1cee c23c 8f26 b6bc
000001e0: 0d33 57bd 9b1d f9bc d93d f83c 5f6f 5dbd
000001f0: fb14 d13c e8ef e33c 4ec6 55bc c1ae 8bbd

bn2.running_mean f4 [128]
0.059531625 -0.052363247 -0.10051058 0.10183246 0.021448966 0.08569237 -0.094676636 -0.06576578
-0.032258444 0.048451632 0.027421128 0.12936202 0.021729697 0.09997975 0.09342969 -0.059800737
-0.048733465 0.072550565 -0.053425692 -0.076076835 0.042784438 -0.015273508 -0.08844289 -0.07682955
0.06307995 -0.054675866 -0.081879206 -0.037584472 -0.08805016 -0.05490071 0.05710354 -0.11689855
0.078239545 0.030043846 0.040241215 -0.0110319415 0.118582636 0.0031424006 0.14152847 0.045011904
0.074507356 -0.06392341 0.07681748 -0.082614645 0.08491808 0.11708562 -0.07139429 0.0624428
0.010500843 -0.08774963 0.08312757 -0.015104344 0.045663092 -0.12432477 -0.029676745 -0.04062308
0.012698859 0.070232205 0.014835661 0.103307895 -0.0074001476 -0.022058167 -0.060865827 0.086835004
-0.1270631 -0.09345717 -0.0911804 -0.026188325 -0.041816685 -0.057375703 -0.07173865 -0.10082848
-0.02460873 0.032137692 -0.066284716 0.13847043 0.013050033 -0.1079623 0.0400284 -0.040497303
-0.116343185 0.056669444 -0.08142272 -0.090277344 -0.08273943 -0.010931753 -0.039468072 0.0011965451
-0.09480967 -0.024704352 0.056407742 -0.0769127 0.05929797 0.13255464 0.042848382 0.113021106
-0.12127119 0.058441855 0.0364357 0.00052733254 0.081142485 -0.083032034 -0.03798059 -0.06487964
0.113713875 0.031086855 -0.060465455 0.058452267 -0.039768144 0.10625683 -0.008984297 -0.0420568
0.010151342 -0.09039673 -0.013831989 0.10404936 0.0810275 0.07159963 0.072225794 -0.04914854
-0.048890468 -0.035757482 0.01738172 -0.069949545 0.0834059 0.07107072 -0.069561556 -0.10461792
00000000: 6fd7 733d d87a 56bd 7ed8 cdbd 898d d03d
00000010: beb5 af3c 7b7f af3d d3e5 c1bd 36b0 86bd
00000020: 6e21 04bd 3875 463d 46a2 e03c 7a77 043e
00000030: 7a02 b23c 2fc2 cc3d 1158 bf3d 9ef1 74bd
00000040: be9c 47bd 6495 943d e6d4 5abd 2cce 9bbd
00000050: bc3e 2f3d bc3d 7abc 8c21 b5bd d058 9dbd
00000060: 1030 813d cdf3 5fbd 49b0 a7bd 2df2 19bd
00000070: a453 b4bd 91df 60bd 67e5 693d 8268 efbd
00000080: 0e3c a03d 831e f63c f9d3 243d 51bf 34bc
00000090: 74db f23d bcf0 4d3b d7ec 103e 675e 383d
000000a0: 5097 983d 47ea 82bd 7c52 9d3d de31 a9bd
000000b0: 88e9 ad3d 96ca ef3d 2b37 92bd 05c4 7f3d
000000c0: ba0b 2c3c 14b6 b3bd ca3e aa3d 3678 77bc
000000d0: 3909 3b3d fc9d febd a51c f3bc 6364 26bd
000000e0: e00e 503c e7d5 8f3d 4611 733c 1793 d33d
000000f0: f07c f2bb 54b3 b4bc 724e 79bd 8dd6 b13d
00000100: d41c 02be 7966 bfbd cabc babd e688 d6bc
00000110: f947 2bbd c902 6bbd b7eb 92bd 2a7f cebd
00000120: 3f98 c9bc d0a2 033d 48c0 87bd 31cb 0d3e
00000130: cecf 553c 571b ddbd d2f4 233d 80e0 25bd
00000140: 5645 eebd 381e 683d f4c0 a6bd 54e3 b8bd
00000150: 4a73 a9bd 181b 33bc 46a9 21bd 64d5 9c3a
00000160: 922b c2bd c860 cabc ce0b 673d 6884 9dbd
00000170: 6ee2 723d 67bc 073e c981 2f3d 9c77 e73d
00000180: 085d f8bd ba60 6f3d 9a3d 153d b03c 0a3a
00000190: 082e a63d b30c aabd 8991 1bbd 9edf 84bd
000001a0: d2e2 e83d dca9 fe3c a0aa 77bd a56b 6f3d
000001b0: ece3 22bd 2e9d d93d df32 13bc c043 2cbd
000001c0: d051 263c ec21 b9bd 919f 62bc d517 d53d
000001d0: bff1 a53d d4a2 923d 1eeb 933d fb4f 49bd
000001e0: 5f41 48bd 7076 12bd 1c64 8e3c b541 8fbd
000001f0: b6d0 aa3d 878d 913d 4a76 8ebd ec41 d6bd

bn2.running_var f4 [128]
0.24534862 0.3374207 0.3006786 0.30186817 0.23860455 0.40225685 0.1782623 0.30301276
0.25445625 0.25933772 0.1821526 0.26533812 0.16254702 0.34734952 0.26038095 0.23314935
0.19363126 0.2867176 0.25458425 0.41267887 0.22518902 0.16652796 0.21135189 0.31381842
0.24061285 0.31506023 0.3392386 0.26639292 0.31271058 0.2542587 0.24171941 0.38487715
0.37727654 0.27798074 0.2980462 0.3048351 0.4314562 0.19051394 0.32508367 0.35144478
0.20918949 0.2522033 0.29970038 0.23123501 0.26902178 0.3444577 0.2994369 0.2218079
0.32390305 0.34946465 0.30981162 0.22739445 0.22380257 0.33517942 0.24555452 0.27960345
0.34141988 0.24243212 0.26906064 0.2768633 0.2520592 0.34168857 0.25233412 0.25597724
0.39934742 0.39452288 0.22062103 0.30839056 0.37749827 0.2311573 0.30678824 0.31822366
0.2315469 0.24607046 0.2074307 0.45509723 0.26926246 0.47128722 0.24414821 0.3057707
0.44231504 0.23010272 0.27516374 0.27311325 0.28311238 0.23119996 0.2841806 0.2968544
0.29478598 0.37268984 0.25518107 0.27372804 0.29830286 0.4246093 0.23964566 0.41353884
0.30036807 0.3102166 0.31779832 0.30317748 0.21231319 0.38668135 0.30120686 0.29077455
0.35524178 0.17840433 0.19600424 0.3012749 0.36376286 0.29978952 0.17051086 0.23943831
0.21543866 0.2977858 0.24005078 0.2793813 0.3038078 0.23350336 0.27326918 0.23996633
0.33761004 0.24388015 0.2918291 0.34899664 0.33376616 0.3036379 0.3060449 0.38404578
00000000: ab3c 7b3e 68c2 ac3e 8cf2 993e 778e 9a3e
00000010: c054 743e 9cf4 cd3e 648a 363e 7d24 9b3e
00000020: 1748 823e eac7 843e 3686 3a3e 66da 873e
00000030: ba72 263e ccd7 b13e a750 853e b4be 6e3e
00000040: 4647 463e a6cc 923e de58 823e a54a d33e
00000050: f397 663e 4e86 2a3e a16c 583e cfac a03e
00000060: 3763 763e 934f a13e afb0 ad3e a764 883e
00000070: 9a1b a03e 322e 823e 4b85 773e 9e0e c53e
00000080: 642a c13e 7e53 8e3e 8399 983e 5913 9c3e
00000090: d4e7 dc3e 1616 433e 5e71 a63e 92f0 b33e
000000a0: c535 563e ca20 813e 5472 993e dfc8 6c3e
000000b0: 39bd 893e c25c b03e cb4f 993e 9c21 633e
000000c0: 9fd6 a53e 08ed b23e a19f 9e3e 17da 683e
000000d0: 802c 653e a39c ab3e a572 7b3e 2f28 8f3e
000000e0: 96ce ae3e 2040 783e 51c2 893e 07c1 8d3e
000000f0: e70d 813e cef1 ae3e f031 813e 730f 833e
00000100: 4477 cc3e e7fe c93e 7bea 613e 5ee5 9d3e
00000110: 7447 c13e 80b4 6c3e 5913 9d3e 36ee a23e
00000120: a11a 6d3e e5f9 7b3e b768 543e 8102 e93e
00000130: c5dc 893e 8f4c f13e fd01 7a3e fa8d 9c3e
00000140: 1e77 e23e 0ca0 6b3e 43e2 8c3e 80d5 8b3e
00000150: 1bf4 903e afbf 6c3e 1f80 913e 4dfd 973e
00000160: 30ee 963e 34d1 be3e 18a7 823e 1526 8c3e
00000170: 27bb 983e 6466 d93e ac65 753e 5dbb d33e
00000180: d8c9 993e b6d4 9e3e 76b6 a23e 143a 9b3e
00000190: a168 593e 19fb c53e c937 9a3e 67e0 943e
000001a0: 40e2 b53e a0af 363e 56b5 483e b440 9a3e
000001b0: 203f ba3e 037e 993e 669a 2e3e 512f 753e
000001c0: f49b 5c3e 6177 983e dfcf 753e 110b 8f3e
000001d0: b28c 9b3e 811b 6f3e f0e9 8b3e bcb9 753e
000001e0: 39db ac3e b8bb 793e a06a 953e b0af b23e
000001f0: 66e3 aa3e 6d76 9b3e ebb1 9c3e a6a1 c43e

hidden3.weight f4 [16, 128]
-0.10054009 -0.08795118 -0.030678071 -0.04300682 0.061004467 -0.053212646 -0.031043028 0.04906066
-0.07327917 0.05087822 -0.08890509 -0.06486265 -0.06487605 -0.03101562 0.06282113 0.020556722
0.009004463 0.077087626 -0.072258435 -0.024403961 0.04163406 0.029438933 -0.041866034 0.071000144
-0.07130203 0.048972953 0.05350865 0.06737618 0.055113044 -0.037693743 -0.03663641 -0.046132397
0.009065314 0.023477428 0.028077787 -0.043592796 -0.040068857 0.005040254 0.011401812 0.104818664
0.011392848 -0.002077564 -0.09324547 0.033328034 -0.008741295 -0.028565506 0.06858271 -0.029658303
-0.028962191 0.0067906217 0.05111752 0.0060024015 0.043638323 0.07436736 0.013069463 0.015940037
-0.05266072 -0.028245538 -0.07505475 0.0007464106 -0.038230818 -0.028471163 -0.07050182 0.0061151236
0.055106994 -0.058447327 0.06384747 -0.067295514 -0.057634924 0.06446682 -0.007628783 -0.061885588
0.07066932 -0.010487349 -0.050684918 0.03901382 -0.10344047 -0.0018580047 -0.022999417 -0.0034538556
0.053676665 -0.048915014 0.04467931 0.0073254164 -0.05984797 0.06427177 -0.07341519 0.002025536
0.053410944 -0.052356128 -0.07866166 0.03530056 -0.004705693 0.023892606 0.025269745 -0.08452785
0.08431773 -0.012296245 -0.051160164 -0.06622721 -0.05126762 -0.06328943 -0.06913991 0.058818597
0.025082618 0.028830344 -0.00086613273 0.04529448 -0.038262647 -0.08072668 -0.015065325 -0.011535881
-0.043184064 -0.03689375 0.0067082103 -0.0530959 -0.0088761365 0.011068679 -0.073759355 0.105768025
0.029757278 0.0145503385 -0.076274075 -0.009032656 -0.046414975 -0.035353564 0.009430949 0.032522958
0.013006987 -0.0067947237 0.084190406 -0.09094836 -0.0037222689 -0.09009503 0.03961184 0.012378378
0.008013233 -0.010771553 -0.0124113485 0.03329149 -0.080981046 -0.035547733 -0.05624868 0.012890946
0.035560716 -0.033387918 0.015751552 -0.008794182 -0.077986054 0.01928196 0.06404215 -0.049556486
-0.04984284 0.11742452 0.0553599 0.04088898 -0.008871275 0.033464376 0.03248182 -0.085890196
-0.0889536 -0.103052676 -0.118840285 0.07085225 -0.06295458 0.011977628 0.0468449 -0.08034887
0.0061495984 -0.05910459 0.044706944 -0.0037474255 0.0789273 0.03061802 -0.014672096 -0.06653429
0.08642654 -0.04446299 -0.06801811 0.07081146 -0.028781328 -0.0028795267 0.013200624 -0.040999554
-0.03482395 0.02153558 0.10281192 0.005796067 -0.017245028 -0.018982854 0.12207364 -0.08755353
-0.06205305 0.07617259 -0.06335485 0.059469625 0.12261437 -0.011375781 -0.034732234 0.023358831
-0.058476444 -0.034875583 0.026548106 0.0069353106 0.067617305 -0.040380597 -0.045184422 -0.035889294
-0.046867013 -0.012468469 -0.07397484 -0.031045489 -0.013259401 0.009490333 0.05979673 -0.03407306
0.03524491 0.023323257 -0.015694415 0.08284398 -0.10426327 -0.062123895 0.08482918 -0.019871548
-0.026892439 -0.06646952 0.080753095 -0.05329084 0.0022160625 0.0722293 0.09723286 0.0153597435
-0.010492655 0.029126694 -0.026625136 0.04839768 -0.00036672284 0.026439922 -0.015527369 -0.082978904
0.13094941 -0.0030069407 -0.057490468 0.035970796 0.028028881 -0.032145113 -0.08696431 0.021897173
-0.012087875 0.010070632 0.054686733 0.048415832 -0.027844729 -0.025323102 0.11194894 0.005681027
00000000: f6e7 cdbd c01f b4bd 9450 fbbc eb27 30bd
00000010: d2df 793d 81f5 59bd f34d febc d5f3 483d
00000020: 6413 96bd ae65 503d df13 b6bd b6d6 84bd
00000030: bcdd 84bd 7814 febc 5da8 803d 9266 a83c
00000040: 7587 133c 1ee0 9d3d 3bfc 93bd d1ea c7bc
00000050: 7a88 2a3d eb29 f13c b87b 2bbd 8668 913d
00000060: cc06 92bd dd97 483d e32b 5b3d 86fc 893d
00000070: 37be 613d c164 1abd 0f10 16bd 53f5 3cbd
00000080: af86 143c bc53 c03c 6303 e63c 5c8e 32bd
00000090: 3e1f 24bd b728 a53b aace 3a3c 2bab d63d
000000a0: 11a9 3a3c bd27 08bb 7bf7 bebd fa82 083d
000000b0: a637 0fbc 3502 eabc 1875 8c3d f8f5 f2bc
000000c0: 1e42 edbc dd83 de3b 9b60 513d cbaf c43b
000000d0: 19be 323d ea4d 983d 4d21 563c ae94 823c
000000e0: c4b2 57bd 3063 e7bc 4eb6 99bd c4aa 433a
000000f0: eb97 1cbd 5b3c e9bc 4263 90bd 6061 c83b
00000100: dfb7 613d 7766 6fbd 76c2 823d 3bd2 89bd
00000110: 9912 6cbd 2e07 843d dffa f9bb be7b 7dbd
00000120: 14bb 903d 21d3 2bbc fd9a 4fbd f5cc 1f3d
00000130: 99d8 d3bd 4b88 f3ba 4669 bcbc 155a 62bb
00000140: 10dc 5b3d 1c5b 48bd a701 373d 0c0a f03b
00000150: 2523 75bd eba0 833d b45a 96bd dbbe 043b
00000160: 6fc5 5a3d 6173 56bd 5d19 a1bd 5297 103d
00000170: 3732 9abb 6dba c33c 7f02 cf3c f01c adbd
00000180: c6ae ac3d 3176 49bc 528d 51bd 22a2 87bd
00000190: fffd 51bd e49d 81bd 3a99 8dbd c5eb 703d
000001a0: 107a cd3c 9d2d ec3c 2f0d 63ba b486 393d
000001b0: 4bb9 1cbd 0854 a5bd 8ed4 76bc fe00 3dbc
000001c0: c6e1 30bd e71d 17bd 8cd0 db3b 167b 59bd
000001d0: 376d 11bc 6859 353c 250f 97bd e89c d83d
000001e0: 89c5 f33c 8b64 6e3c 9535 9cbd b5fd 13bc
000001f0: a11d 3ebd e6ce 10bd 4484 1a3c cb36 053d
00000200: 421b 553c 46a6 debb 056c ac3d 2243 babd
00000210: 4ff1 73bb be83 b8bd 0640 223d aece 4a3c
00000220: ef49 033c 2b7b 30bc f858 4bbc a85c 083d
00000230: 64d9 a5bd 809a 11bd 0465 66bd 8c34 533c
00000240: 1da8 113d c5c1 08bd 6609 813c 7915 10bc
00000250: 27b7 9fbd 33f5 9d3c 8828 833d befb 4abd
00000260: 0128 4cbd 447c f03d 10c1 623d 347b 273d
00000270: d358 11bc f111 093d a80b 053d 33e7 afbd
00000280: 4e2d b6bd 480d d3bd 8962 f3bd fc1a 913d
00000290: 55ee 80bd d03d 443c 70e0 3f3d f38d a4bd
000002a0: 9282 c93b a817 72bd a11e 373d 5e97 75bb
000002b0: a3a4 a13d a4d2 fa3c 3b63 70bc 2143 88bd
000002c0: 6600 b13d d31e 36bd 144d 8bbd 9905 913d
000002d0: d2c6 ebbc 71b6 3cbb 6e47 583c 26ef 27bd
000002e0: 8fa3 0ebd 626b b03c 0e8f d23d efec bd3b
000002f0: 7245 8dbc ee81 9bbc bf01 fa3d 444f b3bd
00000300: 572b 7ebd 6000 9c3d 30c0 81bd 6c96 733d
00000310: 3e1d fb3d 7c61 3abc 6343 0ebd 055b bf3c
00000320: ff84 6fbd b3d9 0ebd 6a7b d93c 9a41 e33b
00000330: f17a 8a3d 2066 25bd 4d13 39bd a700 13bd
00000340: a0f7 3fbd 8d48 4cbc 1f80 97bd 1c53 febc
00000350: f53d 59bc 577d 1b3c 6aed 743d 3190 0bbd
00000360: f75c 103d 6a10 bf3c 9391 80bc 1baa a93d
00000370: fb87 d5bd a075 7ebd ecba ad3d a8c9 a2bc
00000380: 884d dcbc 2c21 88bd e161 a53d 7f47 5abd
00000390: 5c3b 113b f5ec 933d 0622 c73d 6fa7 7b3c
000003a0: 63e9 2bbc 1b9b ee3c f51c dabc a53c 463d
000003b0: b544 c0b9 8998 d83c 8266 7ebc d8f0 a9bd
000003c0: 9a17 063e 1810 45bb 207b 6bbd 1d56 133d
000003d0: d39c e53c 98aa 03bd 581a b2bd b361 b33c
000003e0: 390c 46bc 4bff 243c 32ff 5f3d ae4f 463d
000003f0: a11a e4bc 6572 cfbc 7c45 e53d e927 ba3b

bn3.weight f4 [16]
0.98952675 0.9279806 0.9869262 1.042286 0.9295291 0.99494714 0.91685975 0.98314106
0.99948275 1.0227014 0.9103445 1.0244032 0.9622318 0.9886709 0.9933365 0.99608713
00000000: a051 7d3f 2390 6d3f 32a7 7c3f a169 853f
00000010: 9ef5 6d3f dbb4 7e3f 52b7 6a3f 22af 7b3f
00000020: 1ade 7f3f e1e7 823f 560c 693f a51f 833f
00000030: d354 763f 8919 7d3f 4d4b 7e3f 91ff 7e3f

bn3.bias f4 [16]
-0.112036705 -0.38939974 -0.10717421 0.21789011 0.28023982 0.086209394 0.46457338 0.15934265
-0.44112748 -0.3908762 0.4331817 0.581621 -0.26461643 -0.15526986 0.09855689 0.013762749
00000000: 8073 e5bd 675f c7be 277e dbbd 961e 5f3e
00000010: 987b 8f3e 8d8e b03d 90dc ed3e b82a 233e
00000020: 76db e1be ed20 c8be fec9 dd3e 1de5 143f
00000030: ce7b 87be 10ff 1ebe 32d8 c93d 277d 613c

bn3.running_mean f4 [16]
-0.05502325 -0.029890878 -0.036366306 0.03202752 0.010349877 0.03999001 0.1261811 0.0092483265
0.0047450704 -0.14942722 -0.0020585163 0.17593794 0.010358997 -0.0514956 0.01351016 0.0032298896
00000000: 0f60 61bd b7dd f4bc d6f4 14bd 4a2f 033d
00000010: 8892 293c 91cc 233d 9e35 013e 4b86 173c
00000020: 897c 9b3b 7303 19be 2ce8 06bb 1329 343e
00000030: c8b8 293c 0ded 52bd b859 5d3c 8eac 533b

bn3.running_var f4 [16]
0.67045116 1.300276 0.6220288 1.5331627 0.8476854 0.5164072 1.508927 0.76388365
1.7358868 2.5793605 1.0033691 2.755206 0.70641536 0.6867172 0.29814845 0.22734953
00000000: b0a2 2b3f 726f a63f 483d 1f3f ad3e c43f
00000010: e901 593f 4333 043f 8524 c13f e18d 433f
00000020: 8a31 de3f 3e14 2540 666e 803f 4c55 3040
00000030: a3d7 343f b3cc 2f3f eaa6 983e 51ce 683e

output.weight f4 [1, 16]
0.08179467 0.44831163 0.06934139 -0.4718165 -0.30303952 -0.12714513 -0.47087473 -0.17633837
0.58885235 0.5258854 -0.51105535 -0.78938866 0.29386672 0.19099739 -0.011424925 0.034780152
00000000: f783 a73d 1a89 e53e dc02 8e3d ef91 f1be
00000010: ff27 9bbe 5532 02be 7e16 f1be 0c92 34be
00000020: 07bf 163f 6da0 063f 86d4 02bf 6015 4abf
00000030: b375 963e d294 433e 9c2f 3bbc a275 0e3d
