models/focal_loss_checkpoints/checkpoint_epoch_380.pth (torch, 100242 bytes, 16 tensors)

hidden1.weight f4 [128, 30]
00000000: ffe8 df3d 8c89 26be 38c2 8abd 2ea2 66bd
00000010: 8b60 d43d 4ffb c1bd 6d48 c43c d3ea d83c
00000020: bbb4 e03c 224b dabd b3fc 0bbe 34d4 513e
00000030: d669 b9bd 4fd9 a93c 95e5 86bd c736 d53d
00000040: 1d89 59be 52aa 533d 147b 253e 6ffe 813e
00000050: c50b 763d 875d 433d 8eec e6bd 21d1 d23c
00000060: 1348 aa3d 07d9 973d dfad b8bd 8a34 ec3d
00000070: bd6d e83d 2dbb 8cbd 7f24 3dbe 1fbc a93a
00000080: 1ae0 073d f405 0f3d 37fb b4bc f017 e13b
00000090: 2ea9 a1bd 99be 2eba 6b74 28bd afbd 14be
000000a0: 3e0c 83bd 8004 28be 0ba3 2e3e a084 1b3e
000000b0: 2c1c 913d f865 2abd 4192 e7bd 38f5 713d
000000c0: d4e3 d73d 3e94 d73d 877f 30be 0928 01be
000000d0: e6b8 e4bd ab59 153d 0fea 543e ef92 24be
000000e0: 1526 c53d 0d2d 573c 5305 1abe 88e0 35bd
000000f0: d39c 0f3e 21e1 003c 950d 1b3d c608 0abe
00000100: e973 ad3b 7312 b03d 950d cb3d 282a 3fbd
00000110: 1910 c23d 0398 e43d 0a5a 8a3c 029f 0abe
00000120: 006a 37be e3d9 e53d a2d8 063e 3404 273e
00000130: 291f 2bbe 89fd 3dbe 7af4 aebd a4c7 e4bd
00000140: 0f0f 3e3d 5da7 1cbd e70a 2cbe 9b9f b8bd
00000150: 042a ddbd 32c3 afbd 3187 453d 8d2a 89bd
00000160: 1a55 2b3c 17b3 133e 42ea 96bc 67f4 2f3e
00000170: 90b9 a3bd 5d56 adbc 72d3 b2bd bb44 ab3c
00000180: 4b2b 3d3d 0f57 183d 7749 9dbc 8d8d 88bd
00000190: cd20 0e3e 7ff6 2fbe 60bc 243d e1d1 933d
000001a0: 2f7d 69bd c847 113e 1bbb e3bd 8c3f b2bc
000001b0: 5894 d2bd ac51 8fbc bfe4 03bd 63d0 18be
000001c0: 6e95 843d 2cc0 4bbc 75c8 613e a1de 453e
000001d0: 2cf1 17be a884 5c3d a963 383d bbda fdbd
000001e0: 2bee 853d c2e7 653c 6fe9 51be d9db f6bd
000001f0: 8649 2abe 0c09 f1bd 25b6 f93d 3a4e dcbd
00000200: cbdc 593c c17a 3b3e 29d5 e63d 5626 a43d
00000210: 6a38 5f3e db72 9dbd 4d6c b73d 66fe ddbd
00000220: a84b c13d 4955 d5bc 9071 f1bd 7855 5ebe
00000230: 3979 af3c e85c 46ba 5767 9ebd f9cf 0b3d
00000240: 1365 163e ca7c 1b3e 215c 693c 5763 6cbd
00000250: 7d74 1a3c 2ef5 d23c 4eaf 96bd 21f0 81bd
00000260: fc66 2f3e f34e 2d3d b6e8 543e 7636 543d
00000270: ebf6 443e 4f76 9a3c 2956 04bd 6f29 e23c
00000280: b4c4 773d 2de7 bd3d 9411 55bd 41e5 dd3d
00000290: 6498 24be cec3 7f3d cd66 c43d d2e4 b3bd
000002a0: 773c 5cbd 1dd8 033e 1b6e 8b3d 9700 23bd
000002b0: b0de e3bd c043 e53b bb02 c53d 8596 e0bd
000002c0: 253a 70bd 464a 0bbe b743 96bd c785 3b3d
000002d0: 8821 b4bd b134 50bd 2ddb 523d 41c8 1ebe
000002e0: 3db1 3fbd 2864 2a3e cdbb 65bd 85ae 073e
000002f0: f205 d1ba 9e1a 0cbe 6594 31bd 418f 31be
00000300: 3018 403e dd5e 423e d569 003e 35ec 133d
00000310: 3aaf ee3d 9612 8d3d 3e41 9d3c 4fa9 e53c
00000320: fdc9 563d 4f13 d5bc 8a97 1bbe 5a14 f83d
00000330: 4503 003e 99b4 05be c75a 703d 1a47 833d
00000340: 1305 443b 2d00 78bd 251f 6dbc 0c6e 85bd
00000350: f54a d03b 1abb 153e 22d7 42be 82f3 05be
00000360: e7b7 673d afb0 e1bc 35ad bfbd bdbc 35bc
00000370: 120a 8d3d a3b8 47be c58f 1dbc a9ec fc3c
00000380: d707 a03d d475 8bbc 2b67 213e 9922 0b3e
00000390: 0c46 cfbd e29a 1f3d 4357 e53d f72f 6bbd
000003a0: f6bf 253e 6d4d 98bc 2385 323e f71c 56bd
000003b0: 0240 313e 02cb e1bd c48b a93d e014 50bd
000003c0: b0c5 debd 3cf8 a33d f1c9 23be ce17 323e
000003d0: c0e0 b03d 80c9 28bd ba47 043d d0d1 063e
000003e0: 28be 073d 561e 143d 40c9 4a3e 968e d53d
000003f0: 1f4e d4bc 4aed f63c 8b44 7a3e 122b f3bd
0.10933112 -0.16263407 -0.067753255 -0.05630701 0.103699766 -0.094717614 0.023960317 0.02647916
0.027429929 -0.10658862 -0.13670616 0.20491105 -0.0905339 0.020733504 -0.06586758 0.104108386
-0.21243711 0.051676102 0.16160232 0.2538943 0.060069818 0.047696617 -0.11275588 0.025734486
0.08314528 0.074144416 -0.09017538 0.115334585 0.11349056 -0.068716384 -0.18470953 0.0012949741
0.033172704 0.034917787 -0.022092445 0.0068693087 -0.078935966 -0.00066659745 -0.04112665 -0.14525484
-0.063988194 -0.16407967 0.17054383 0.15187311 0.070854515 -0.04160115 -0.113071926 0.05907175
0.10541502 0.10526322 -0.17236148 -0.12612928 -0.11168079 0.036462467 0.20792411 -0.16071676
0.09626404 0.0131333 -0.15041094 -0.044403583 0.14024667 0.007866175 0.03785475 -0.1347991
0.0052933586 0.08597269 0.099147 -0.046671063 0.09475727 0.111618064 0.016888637 -0.13537219
-0.1791153 0.11223199 0.13168576 0.16310197 -0.16711105 -0.18553747 -0.08542724 -0.11170891
0.04640108 -0.038245548 -0.16801034 -0.09014817 -0.107990295 -0.085821524 0.04822463 -0.06697569
0.0104573015 0.14423786 -0.01842225 0.17183076 -0.079943776 -0.021159345 -0.08731736 0.020906797
0.046183866 0.0371924 -0.01920007 -0.06667624 0.138797 -0.17183875 0.04021871 0.072177656
-0.05700415 0.14187539 -0.11119672 -0.021758817 -0.102822006 -0.017494999 -0.03220057 -0.14923243
0.06473814 -0.012435954 0.22049125 0.19323207 -0.14838094 0.05383745 0.04501692 -0.12395235
0.065395676 0.014032306 -0.20499204 -0.12053651 -0.1662961 -0.11769304 0.121929444 -0.10757108
0.01329727 0.18308546 0.11271126 0.080151245 0.21798864 -0.076879226 0.089562036 -0.10839538
0.094382584 -0.026041644 -0.117892385 -0.21712291 0.021420108 -0.00075669447 -0.07734554 0.034133885
0.14686994 0.15184322 0.014243157 -0.057711925 0.009427187 0.025751676 -0.073576555 -0.06344629
0.17129129 0.04231162 0.20791897 0.05180975 0.19234817 0.018855242 -0.03230873 0.027607648
0.060490325 0.09272609 -0.052018717 0.10834742 -0.16073757 0.062442593 0.0958992 -0.087838784
-0.0537686 0.1287541 0.0680811 -0.039795484 -0.11126459 0.006996602 0.096196614 -0.10966209
-0.0586492 -0.13602552 -0.07337134 0.045781877 -0.08795458 -0.0508315 0.051478554 -0.15506078
-0.046799887 0.16639769 -0.056087304 0.13250168 -0.0015947206 -0.13682029 -0.04335441 -0.17339803
0.18759227 0.189815 0.12540372 0.036113936 0.116545156 0.068883106 0.019196149 0.028034834
0.052438725 -0.026010184 -0.15194526 0.12113257 0.12501247 -0.13057174 0.058680322 0.06410046
0.002991025 -0.060547043 -0.0144727575 -0.065151304 0.006356592 0.14622155 -0.19027379 -0.13081172
0.056571867 -0.02755007 -0.093592085 -0.011092362 0.068866864 -0.19504027 -0.009616797 0.030874567
0.07813995 -0.017023958 0.15762012 0.13587417 -0.10120782 0.038966067 0.111982845 -0.05741879
0.16186509 -0.018591607 0.174336 -0.052273717 0.17309573 -0.11025049 0.08278611 -0.050801158
-0.1087755 0.08006331 -0.15995003 0.17391893 0.08636618 -0.04120779 0.032294966 0.13165975
0.03314033 0.036161743 0.19803333 0.10427587 -0.025916157 0.030142445 0.2444021 -0.118734494

bn1.weight f4 [128]
00000000: 42d2 823f 90eb 7f3f 5c09 813f 4f19 813f
00000010: c680 803f 0072 873f ea3e 853f b35a 803f
00000020: ca91 833f 5830 813f eaf9 803f 15d4 803f
00000030: 7695 813f bce9 7f3f 035f 813f 2a1f 833f
00000040: a995 813f a99e 813f b692 833f 6bc9 813f
00000050: 2850 833f 000f 803f d536 823f dc21 833f
00000060: 640e 833f 7de9 823f 9170 7f3f 02ff 833f
00000070: 51aa 823f 2cee 803f 7763 823f 7fdc 813f
00000080: 01ea 823f c076 863f e11f 823f 9ff5 833f
00000090: e497 823f 450c 833f 4cf1 823f d7d8 843f
000000a0: 73da 813f 6023 813f 2da8 813f 1cb9 893f
000000b0: 520f 823f 211f 803f 003b 7d3f 707b 833f
000000c0: 9a2f 813f 84d0 7c3f 6d35 7f3f 7491 833f
000000d0: 9adb 823f ea3d 813f d7bb 863f a6c3 833f
000000e0: 7f7c 803f 044b 823f 7751 803f daee 823f
000000f0: 7a9b 813f 5876 803f 5083 823f 23a4 853f
00000100: ac7a 843f 6cec 823f 3a81 823f 1bba 843f
00000110: 17c7 833f 2211 833f f1c1 853f a7c4 833f
00000120: 29ad 803f a668 813f 8f90 7e3f 3ffd 853f
00000130: a16f 863f 5c52 833f 4cf7 813f 889b 7e3f
00000140: d1d8 813f 17e9 843f ce54 823f 0f28 823f
00000150: 0b04 813f 5725 853f 8d11 7e3f e652 823f
00000160: 16db 813f bf4a 833f 0ab2 843f d455 7b3f
00000170: f136 813f 40c2 803f 583c 803f 5dda 813f
00000180: e164 853f 187d 823f aac5 823f a4d3 853f
00000190: d722 8c3f a9b3 7f3f 6768 7b3f 193c 803f
000001a0: 7a15 873f 9b32 893f 30f3 813f 7661 803f
000001b0: f9ea 813f 9a95 7c3f c820 813f 1537 833f
000001c0: 3070 833f 5089 823f f5ea 813f 25fe 823f
000001d0: f06e 833f b82a 813f 15f2 843f 36d3 7f3f
000001e0: 1baa 813f f8d9 853f 0155 7b3f 9f8b 803f
000001f0: cb98 843f 4475 833f 1011 803f cfc7 823f
1.0220416 0.99968815 1.0080981 1.0085849 1.0039299 1.0581665 1.0409825 1.0027679
1.0278866 1.0092878 1.0076268 1.0064722 1.0123737 0.99966025 1.010712 1.0243886
1.0123798 1.0126544 1.0279148 1.0139593 1.0258837 1.0004578 1.0172983 1.0244708
1.0238767 1.0227505 0.9978114 1.0312197 1.0208226 1.0072684 1.0186604 1.0145415
1.0227662 1.050499 1.0165979 1.0309333 1.0202603 1.0238119 1.0229888 1.0378674
1.014479 1.008892 1.0129448 1.0759616 1.0160925 1.00095 0.9891815 1.0272045
1.0092652 0.9875567 0.99690896 1.0278764 1.0223267 1.009702 1.0526074 1.0294082
1.0037993 1.0179143 1.0024861 1.0229142 1.0125573 1.0036116 1.0196323 1.0440716
1.0349936 1.02284 1.0195687 1.0369295 1.0295132 1.0239604 1.0449811 1.0294389
1.0052844 1.0110061 0.9943933 1.046791 1.0502816 1.0259509 1.0153594 0.9945607
1.0144292 1.0383633 1.018213 1.0168475 1.0079359 1.040202 0.9924553 1.0181549
1.0144985 1.0257186 1.0366833 0.9817784 1.0094892 1.005928 1.0018415 1.0144764
1.0421411 1.0194426 1.0216572 1.0455213 1.0948132 0.99883515 0.9820618 1.001834
1.0553429 1.0718569 1.015234 1.0029743 1.0149833 0.98665774 1.0088129 1.0251185
1.0268612 1.0198154 1.0149828 1.0233809 1.026823 1.0091162 1.0386378 0.9993166
1.0130037 1.0457144 0.9817658 1.0042609 1.0359129 1.0270162 1.0005207 1.0217227

bn1.bias f4 [128]
00000000: 8bcd 9ebd 9e00 773d bff5 17bb caef 263d
00000010: aaf3 ba3d 9589 83bd 0146 463d 0dfd 473d
00000020: 89e5 4a3d b8bd d73d 051c 73bd 8b78 69ba
00000030: eb20 513d 2c75 c63c c055 01be 1550 fbbc
00000040: c450 50bc a48d 8ebc 9ebc 773d f194 a43c
00000050: c730 85bd 3ca5 083d a0a7 993a efd8 203d
00000060: 2b9c 46bd 1a54 183d 9e41 ae3a 8b42 aebd
00000070: 98fd 2c3d 1af4 623b f35b 8e3d 3c9e b1bc
00000080: dc0a b33d ab34 3dbe b514 ca3c 6c3b 833c
00000090: 3129 08bd 4ad6 9ebc 33f5 bcbc 31be 1a3e
000000a0: e8b8 c3bd 4dbd 6dbd cb63 e03d 4f2b 393d
000000b0: e55a 8f3d 869d b83c e153 94bd 265b f13b
000000c0: 59dd 033d 15be 2cbd a2d3 0b3d cf53 f0bc
000000d0: d28b 903c 4bcc d03d 3c63 e2bd 4990 dbbc
000000e0: 71b5 10bd c953 d7bc 8eac 123c 0a33 f03d
000000f0: 88aa 32bd e734 263d bfe8 483d 5336 693d
00000100: a793 073c 6f78 e13b 13e6 de3c c98e 9bbd
00000110: 8bbe c93b 1c77 5fbd 787f 2f3d 5742 403d
00000120: 5cc3 193e 24e8 6cbd fc7d a1bd 952f 893d
00000130: 0a8f 0a3e 3279 843d 5c07 95bd eb85 91bc
00000140: 058f f83d 249d 6d3d c056 0f3d fb59 063d
00000150: 2721 d9bd dfb2 1bbd 7d5f 023e f63b e6bd
00000160: 994d 703d 9cd9 6a3a d606 3bbd 1385 8bbd
00000170: e069 8e3d 324e f1bc d690 4c3d 6c10 993d
00000180: 5d97 0c3d aae1 973c e33a c2bc b96d ac3d
00000190: cb26 333d 9b9e 003d cb17 88bd b04c 0ebd
000001a0: 0da9 83bd 585e 7f3d 1fe6 543b 04f0 04bd
000001b0: 6187 8e3c b71e 84bd fe4b d23d 4350 a73d
000001c0: 3331 283d 459a 9fbc e0a1 03bd 21e1 773d
000001d0: 71ec 783d ef89 6f3c b744 4b3d c088 17bb
000001e0: db48 693b c990 893d 2b58 10be 3b9d 81bc
000001f0: 1e2c 733d a433 ebbc 534a c4bd ca17 5b3d
-0.07754048 0.060303323 -0.0023187248 0.040756024 0.091285065 -0.06422726 0.048406605 0.048825312
0.049535308 0.10534233 -0.059352893 -0.0008906207 0.051056784 0.024225794 -0.12630367 -0.030677835
-0.0127145685 -0.017401524 0.060482614 0.020090552 -0.06503444 0.033360705 0.001172293 0.039269384
-0.048488777 0.03718958 0.0013294702 -0.08508786 0.042234033 0.003463036 0.06951132 -0.021681897
0.08742306 -0.18477122 0.024668077 0.016019545 -0.03324241 -0.01938929 -0.023066139 0.15111615
-0.095567524 -0.05804186 0.10956534 0.045207318 0.06999759 0.02253605 -0.07242561 0.007365602
0.032193515 -0.042173464 0.034137376 -0.029336838 0.017644797 0.10195216 -0.11054084 -0.026802199
-0.035329286 -0.026285069 0.008952273 0.11728485 -0.043619663 0.040577795 0.04905009 0.056936573
0.008274949 0.006880812 0.027209317 -0.075955935 0.0061567477 -0.05455695 0.042846173 0.046938267
0.1501593 -0.057838574 -0.07885358 0.06698529 0.13531128 0.06468429 -0.07276794 -0.017764052
0.12136654 0.05801119 0.03499484 0.032800656 -0.106020264 -0.03801238 0.12731738 -0.112419054
0.058667753 0.0008958818 -0.045660816 -0.06812491 0.06953788 -0.029456232 0.049942814 0.07473835
0.03432404 0.018540222 -0.02370972 0.084193654 0.043738168 0.031401258 -0.06645163 -0.034741104
-0.06428728 0.062345833 0.0032485796 -0.03245546 0.017398538 -0.06451171 0.102684006 0.081696056
0.041062545 -0.019482741 -0.032136798 0.060517434 0.060772363 0.014620288 0.04962608 -0.002312228
0.0035596404 0.06717069 -0.14096133 -0.015822044 0.059368245 -0.028711148 -0.09584489 0.053489484

bn1.running_mean f4 [128]
00000000: 31d4 14bd d678 01be 8a2f 573e 7b73 15be
00000010: 15a2 583d 750d c93d 061c bcbd 6a54 0cbd
00000020: 10eb b13d 1287 7d3e 0401 943c 7265 253e
00000030: b86d dfbc 3274 343d e8f6 0dbc 2eb0 89bd
00000040: cfe6 583e 2866 dcbc 3be7 873d a499 ce3c
00000050: 565b 09be 8a27 0bbe 7376 0fbe 341d 863d
00000060: 5186 60bd b44f a4bd a893 2a3d af52 a53d
00000070: e375 d8bd b063 363d c62e 38bc 8cc3 1a3e
00000080: 196d bf3b 9812 0c3d b316 593d f809 20bc
00000090: e1a9 683e 8652 313e a2f8 6b3d 1b87 fabd
000000a0: 02f0 e2bd e935 03be f593 a2bd 3729 a8bc
000000b0: 4452 263e 5e8b 173e 239c 0cbb e16b 103d
000000c0: d6e2 84bd 6067 3a3e 3cd4 e43d a03a aa3a
000000d0: e28c b03d 56f1 ecba 9442 183e 23ba 40bd
000000e0: 385e 023e 0baf 02bd 1ae8 13bd d2ba 043e
000000f0: cc2c 023d 8b25 673d eb56 88be 9c43 833d
00000100: 4023 9cbd c9c8 853d ac9b 0e3e 5007 213c
00000110: dd62 233e b98a e8bd 0dbd 913c be55 c0bc
00000120: 50a2 bc3b 6551 e0bd 2250 8a3d e855 373e
00000130: e54d d6bd 2046 313d d8f7 36be 0dc7 703e
00000140: 132c 633d c224 3a3c 580e f73d bff6 dbbc
00000150: 3c06 80bd 193e 6dbd 8e2d bdbd 223e 6a3e
00000160: 17f4 0abe 9f9c ac3c 5274 bf3d 2c69 423e
00000170: 458a 14be cffc 903c a42c d4bc 9487 efbd
00000180: 57ec 523c c058 753d c876 b7bd 5638 ecbd
00000190: 7241 cf3b d708 22be d49c 0a3e 263c 813d
000001a0: 74cd 293e 8b64 adbd 80c9 dfbc c75e c43d
000001b0: 27f7 733b e087 a23d ee3d 433d 8aba 47bd
000001c0: 887d aebd aaf7 513b eaa1 8d3d a068 95bd
000001d0: 8887 ed3d bfd4 d73d 2aaa ae3d 6255 fabd
000001e0: 5e39 cb3d 67b2 bcbd 7849 ad3d a124 b93d
000001f0: 5392 68bd 1f02 b8bd c12b b1bd 475e dfbd
-0.036335174 -0.12643752 0.21014228 -0.14594834 0.05288895 0.0981702 -0.091850325 -0.03426019
0.08687413 0.24758556 0.01806689 0.1615198 -0.027273998 0.044056125 -0.008664824 -0.06723057
0.21181796 -0.02690418 0.066359006 0.025219746 -0.13413748 -0.13589302 -0.14010029 0.06548539
-0.054815594 -0.08023015 0.041644722 0.08072411 -0.1056936 0.044528663 -0.01124162 0.15113658
0.005841863 0.03419742 0.053000163 -0.009768002 0.22721054 0.17316636 0.05761016 -0.122328006
-0.11080934 -0.12813534 -0.07938377 -0.020527465 0.1624232 0.14799258 -0.002145537 0.03525913
-0.06488578 0.18203497 0.11173293 0.0012987442 0.08620621 -0.0018077295 0.14869148 -0.047052514
0.12731254 -0.031905215 -0.03611002 0.12961891 0.031781003 0.05643229 -0.26628813 0.0640938
-0.07623911 0.06532437 0.13926572 0.009828404 0.15955682 -0.11354584 0.017790342 -0.023478385
0.005756654 -0.10953025 0.06753565 0.17903864 -0.10464076 0.043279767 -0.17867982 0.23513432
0.055461954 0.011361303 0.12063283 -0.026851056 -0.06251189 -0.05792055 -0.092372045 0.22875264
-0.13569675 0.021070777 0.09348358 0.18985432 -0.1450587 0.017698674 -0.025900193 -0.11695781
0.012873731 0.05989909 -0.089582026 -0.11534183 0.0063249404 -0.15823685 0.13536388 0.063103005
0.1658228 -0.08466443 -0.027317762 0.0958839 0.0037226172 0.07936072 0.047666483 -0.048761882
-0.08520037 0.0032038488 0.06915648 -0.07295346 0.11598116 0.10538625 0.0852855 -0.12223317
0.09923051 -0.09213715 0.08461279 0.090401895 -0.05678017 -0.089847796 -0.086509235 -0.10906654

bn1.running_var f4 [128]
00000000: 7e18 ba3e c5ed 143f 6290 033f 9a83 ed3e
00000010: 5acf c03e bde3 ea3e c483 a13e c47b d13e
00000020: 2133 333f 67e9 873f 124e 2f3f 4adb 1c3f
00000030: 09d6 c83e 11ae 373f 8afb cc3e 2144 993e
00000040: ce52 423f 5b1f 0f3f 356e 3c3f c385 033f
00000050: 6f5a 023f a2bf 3d3f ef72 103f 3f29 ed3e
00000060: 3300 fb3e 71d2 b53e 26f2 213f 511b db3e
00000070: 15dc 083f 5b34 c33e 3f91 f83e dc86 0d3f
00000080: b141 1b3f 7aad a23e 94f0 3a3f 4fce a03e
00000090: 4812 403f 8411 593f 2dd6 e63e 3013 143f
000000a0: 1804 0e3f 6690 f03e ffe9 2a3f 0cdf 8c3e
000000b0: a012 173f d1e7 453f f4c6 ab3e 97cd dd3e
000000c0: 45df 0c3f c149 563f b3aa 743f c179 a23e
000000d0: 8f98 273f 01a4 0d3f 8328 d23e 06e7 af3e
000000e0: 8abc 393f 0f51 883e ed3d 463f 1a2c 183f
000000f0: bf04 af3e b543 2e3f 9970 c43e 5c13 453f
00000100: 5f3b de3e 171c 123f c7d0 3a3f 83cb 023f
00000110: a532 0b3f da4b 013f 9604 e93e ef4f af3e
00000120: 84a1 f03e 5583 283f c0b5 093f 1f2d 633f
00000130: a65f b43e 1de7 ce3e 5a4b 243f 43c1 903f
00000140: 9182 d43e 133f be3e badf 0a3f 2c0e 973e
00000150: fd06 1b3f 0af3 e63e 7c1f eb3e 6d41 003f
00000160: 5cda e63e 9e00 973e e843 af3e 3a19 353f
00000170: 033f 203f 98ca fb3e 9854 f13e bcd9 523f
00000180: e6be 6f3e 7d5d 0c3f f28e 0b3f 8326 ee3e
00000190: 65f2 dc3e 4e07 343f 8cad f03e 1123 e03e
000001a0: 092c 173f b9ad ab3e 2135 3c3f 864e 973f
000001b0: 8d8c bb3e 8025 953f 0135 1c3f 7c6f 133f
000001c0: cd23 9a3e 745d e23e b3c8 d93e ae67 c03e
000001d0: 32ab 323f 8d44 9e3e 8871 683f 1a6a 423f
000001e0: 92ba 433f 141e d73e f9ef 283f eb40 103f
000001f0: 6326 ec3e 8c54 103f 273b 263f ffb7 e83e
0.3634681 0.5817531 0.51392186 0.46389467 0.37658197 0.45876876 0.31545842 0.40914738
0.6999989 1.0618104 0.684785 0.6127211 0.39225796 0.7174998 0.4003566 0.2993479
0.759076 0.5590722 0.7360566 0.5137598 0.5091924 0.74120533 0.56425375 0.4632053
0.4902359 0.35512117 0.63260114 0.42794278 0.5346082 0.38125882 0.48548314 0.55283904
0.6064711 0.31772977 0.73023343 0.314074 0.75027895 0.8479235 0.45085278 0.5784178
0.55474997 0.46985167 0.667633 0.2751392 0.59012794 0.7730685 0.33550227 0.43320915
0.5502818 0.8370629 0.95572966 0.31733516 0.6546716 0.55328375 0.41046533 0.34355944
0.7255331 0.26624343 0.7743824 0.59442294 0.34183308 0.6807206 0.38367155 0.76982665
0.43404672 0.5707411 0.7297482 0.51091784 0.5437415 0.50506365 0.4551131 0.34240672
0.46998227 0.65825397 0.53792953 0.88740724 0.35229224 0.404107 0.6417748 1.1308979
0.41505864 0.37157497 0.5424763 0.29503 0.6055754 0.451073 0.45922458 0.5009983
0.4508847 0.29492658 0.34231496 0.7074162 0.6259615 0.49178004 0.47134852 0.82363486
0.23412666 0.5483015 0.5451499 0.46513757 0.43153682 0.70323646 0.47007406 0.43776754
0.5905157 0.33530977 0.7351857 1.1820838 0.3663067 1.1652069 0.6101838 0.57591987
0.3010544 0.44211924 0.42535934 0.375791 0.69792473 0.30911675 0.90798235 0.7594315
0.7645656 0.42015135 0.6599117 0.56349057 0.46123037 0.5637901 0.6493401 0.45452878

hidden2.weight f4 [128, 128]
00000000: 7597 973d fd29 143b 5668 85bd 22a0 ff3c
00000010: 3606 203d fb3a 87bc 723d a93c 9dc6 ca3c
00000020: bd3e b63c a5fe dcbc e5d3 5ebd 4479 6e3d
00000030: 7d2b 8c3c 695b af3d 5f7c 73bd c143 dabc
00000040: 82f9 e9bb 2c69 923c a7f0 a4bc f6fc 00bd
00000050: 64fc 7dbc 3def 72bd dff3 f53b a028 a9bd
00000060: ab91 03bd d89c 2d3c 64cd 88bd 3dd3 b13c
00000070: 54b2 c03d fd26 51bc 9663 af3c bc58 b7bd
00000080: 2a82 f43b 8954 c53c 4a90 39bc 7d96 29bb
00000090: 9b44 c7bd 079f d23c 6d17 fdbc 1f95 313b
000000a0: bf96 4f3d 27dd 803d 4f19 b53b 7308 ad3d
000000b0: c8fa 243c 2cf8 03bc 22e0 783d 5c52 b33d
000000c0: 0094 9d3d dbd1 81bd 5f1b 21bd 9cc0 1e3d
000000d0: 1755 44bd 9164 21bc 05e5 373d 2648 593c
000000e0: 79d6 aeb9 34ab 133d 603f eb3c 143c b4bd
000000f0: a31a 803d 75b0 ab3c dd0d 763d acc6 e139
00000100: 690b 963b 8352 b93c 8c53 11bc 7fe0 943d
00000110: 8938 a0bd f889 2dbd 21d9 8dbd 1bb3 013a
00000120: 356d 6cbd e9d8 893d 30e8 07bd 4671 793d
00000130: f60e d43d 0099 68bd e44b 44bd 539d 1abd
00000140: 7c73 2bbd 8b68 9f3d 02c1 5a3d 3460 01bc
00000150: 3b95 8bbd 7b8f 193d 83ac ac3d 4f10 ae3b
00000160: afd2 2bbc 8c69 4fbd c6d7 b9bd 0eb1 2e3d
00000170: 247a 5e3d 094b 883d 6b01 be3d 0b1f 863c
00000180: fd70 21bb e0b3 903c 756e a2bc bf20 9ebc
00000190: ec10 c83a be3d a93c a7a1 84bd 2c66 97bd
000001a0: ff4d f3bd b8a9 cfbb 4ba4 3e3c a99b 7b3d
000001b0: 87d2 43bd 553f 9bbc e0a0 343d 428f 1d3d
000001c0: 6e00 16bd 4656 90bd 7cd7 91bd 6641 13bb
000001d0: 1b15 263c 5938 5c3d ea52 e63c 3683 663d
000001e0: 07d7 10bd f7b5 203c c130 0dbd 657b a53d
000001f0: 2e5a 31bc 77ca 553d ca9f 533d 2885 143c
00000200: a163 013d 6ad0 2fbc 0af9 a53c f596 923d
00000210: 9839 41bc 37f4 a33d 2afe 57bd da66 69bc
00000220: 85be 073c 525e 073c ae86 e53d 5492 bfbd
00000230: 0838 72bd c009 d1bb 9087 063d 9cf1 eebc
00000240: 01c3 d2bb ffb0 84bd 7f28 babd 1883 d8bc
00000250: 1341 d83b b59d a53d 54c1 e2bc 0409 afbd
00000260: 81d3 043d 77c6 9e3d 009e 263b 4bcb 9a3d
00000270: da43 113d f600 7dbb 6141 76bd e4fa d03c
00000280: 4ff1 853d 31f8 51bd 4fed 7e3d 4ac9 ec3b
00000290: 826a 24bd 730b 613c 7a64 9abc 6cdc 4dbd
000002a0: 2233 363d e1ed ac3d 6baf 77bc ef6f 7abd
000002b0: 863c 4abd ddd1 86bd c73c 92bd 0a5a 25bd
000002c0: ef12 4ebd ba4f cebc 778d 3d3d 8f47 6abd
000002d0: 58ae 933c c401 25bc b0f9 8abd bdc9 40bd
000002e0: e795 3ebd f21c af3c dfad 813d 0a49 72bd
000002f0: e9e5 b13a 46c1 babd 398b cd3d 6e0e 1b3d
00000300: 6cef 0d3d 9a38 96bd 0929 763c d6e4 9d3d
00000310: a815 b9bc 8119 0b3d e972 ca3b 81ff 11bc
00000320: 29a0 0fbd 3475 6d3c 3424 153d a7de ccbb
00000330: 8f46 febc d507 c5bd 23bb 19bd 1385 2abd
00000340: 36a3 85bd 4bdb a4bd 8c84 5bbd 453c eabc
00000350: 12ce 0f3d 2404 293d 199b 83bd fa5e 5b3d
00000360: 8331 f7bb b71a ab3d 5ab4 3a3d a3c0 033d
00000370: 732b 803d 0050 77bc ed78 213c e42c 8fbd
00000380: b940 80bd b01f 7b3b c38b 3e3d 7846 8a3c
00000390: a15e 9bbd 186e 3bbd 8d70 e4bc e718 213c
000003a0: 57df 6e3c 13d6 263d 0803 aabd 3f5a 413d
000003b0: 6786 cabd 2e54 2abd c939 073d 4616 82bd
000003c0: 04af 6cbd b79c c83d 9999 5abd b09f 693c
000003d0: d685 afbd 5076 dcbd 5f3b 30bd c6ad b33d
000003e0: bc86 65bd c37b 603d f55e 0fbc 6e1b 113c
000003f0: 075b 593d cf53 fb3c b2eb 9b3d ab5c fa3c
0.07401935 0.0022608035 -0.06514041 0.031204287 0.039068423 -0.016507616 0.020659182 0.02475291
0.022246713 -0.026976893 -0.054401297 0.058221117 0.01711058 0.08562357 -0.05944478 -0.026643636
-0.0071403394 0.017872415 -0.020134283 -0.031491242 -0.015502069 -0.059310187 0.0075058783 -0.08259702
-0.03212134 0.0105964765 -0.066798 0.021707172 0.094090134 -0.012765643 0.021409791 -0.089524716
0.007461806 0.024088161 -0.011325905 -0.0025877052 -0.09729882 0.025710596 -0.03089496 0.002709694
0.050680872 0.062921815 0.0055266987 0.08448877 0.0100695565 -0.008054774 0.060760625 0.08755943
0.076942444 -0.06338855 -0.039332744 0.038757905 -0.04793271 -0.009850637 0.044896144 0.01326183
-0.0003334766 0.036051944 0.028716743 -0.088005215 0.062550806 0.020958165 0.060071815 0.00043063366
0.004578997 0.022622352 -0.008870017 0.07269382 -0.07823283 -0.042367905 -0.0692618 0.0004947648
-0.057721335 0.067308255 -0.033180416 0.06089904 0.10354416 -0.056786537 -0.047923937 -0.037747692
-0.04185818 0.07783612 0.053406723 -0.007896472 -0.06815573 0.03749035 0.084313415 0.0053120027
-0.010487243 -0.050637767 -0.09074359 0.04264932 0.0543157 0.06654937 0.09277614 0.016372224
-0.0024633997 0.017663896 -0.01982806 -0.019302724 0.0015263832 0.020659324 -0.06476145 -0.073925346
-0.11880111 -0.0063373707 0.01163585 0.061427746 -0.047808196 -0.018951098 0.044098735 0.0384667
-0.036621504 -0.07047705 -0.071211785 -0.00224694 0.010136868 0.053764675 0.028115708 0.056277476
-0.035361316 0.009809009 -0.034470323 0.08080176 -0.010824723 0.05219504 0.05166606 0.00906495
0.031589154 -0.010730842 0.020260353 0.07157699 -0.011793517 0.08005565 -0.052732624 -0.014245713
0.0082851695 0.008262234 0.11207329 -0.09354082 -0.059135467 -0.006379336 0.032844126 -0.029167943
-0.0064319377 -0.06479072 -0.09089755 -0.026429698 0.0065995543 0.08086721 -0.027680077 -0.085466415
0.03242827 0.07752698 0.0025423765 0.07558306 0.0354651 -0.003860531 -0.060120944 0.025510259
0.065401666 -0.051262084 0.062238034 0.007226144 -0.040140636 0.01373564 -0.01884674 -0.05025904
0.044482358 0.08443809 -0.0151175065 -0.061141904 -0.049374126 -0.06582997 -0.071404986 -0.04036907
-0.050311025 -0.025184501 0.04627749 -0.05719715 0.01802747 -0.010071222 -0.06785905 -0.047067393
-0.046529677 0.021376107 0.063319914 -0.059151687 0.0013572547 -0.09118895 0.1003632 0.037855558
0.03465216 -0.07335015 0.015024432 0.077096626 -0.022593334 0.03395987 0.006178249 -0.008911015
-0.03506485 0.014493275 0.03641148 -0.006252128 -0.031039504 -0.096206345 -0.037531983 -0.041630816
-0.06525271 -0.08049639 -0.053593203 -0.028593192 0.035108633 0.041263714 -0.06426067 0.053557374
-0.007543744 0.08354705 0.045582153 0.032166135 0.06258287 -0.015094757 0.009855491 -0.06990984
-0.06262345 0.0038318448 0.046520006 0.016879305 -0.075864084 -0.04575929 -0.0278857 0.009832597
0.014579616 0.0407315 -0.083013594 0.047205206 -0.098889165 -0.041584186 0.033014093 -0.063519046
-0.057784095 0.09795516 -0.05336914 0.014259264 -0.08570449 -0.10764754 -0.04302537 0.08773379
-0.056036696 0.05480553 -0.008750667 0.008856637 0.053065326 0.030679611 0.07613315 0.030561766

bn2.weight f4 [128]
00000000: a02e 803f 461c 7f3f cab0 7f3f 5a52 7c3f
00000010: aec7 7e3f 123f 7f3f 88db 7e3f 2f62 7c3f
00000020: 4905 803f bbb9 7d3f 8010 803f cceb 7e3f
00000030: 39af 7f3f 13c0 7f3f 7bd6 7e3f 1a31 7e3f
00000040: 1bfe 7d3f ddc9 7d3f 378c 7f3f da16 7f3f
00000050: ba9c 7f3f 32df 7d3f 1df1 7d3f c403 803f
00000060: a9d5 7c3f b4d7 803f ffdd 7e3f bf22 803f
00000070: 50a1 7e3f b112 803f bd5f 7f3f f4cd 7d3f
00000080: 751c 7f3f 085f 7c3f be6e 7b3f 8771 7e3f
00000090: b233 7f3f 37c6 7f3f 978a 7d3f 6951 7d3f
000000a0: 81fc 7f3f db56 7e3f 9275 7e3f 4593 7e3f
000000b0: ad65 7d3f 9350 7f3f 2df0 7f3f ef40 7c3f
000000c0: 7a13 7f3f 98b2 803f 33da 7e3f 60db 7d3f
000000d0: 2a95 7f3f facf 7f3f ac11 7d3f 64a3 7c3f
000000e0: 0fc4 7e3f 4a52 7a3f 736c 7d3f e59c 7d3f
000000f0: 99ab 7e3f 3e08 803f fc82 7e3f 3587 7d3f
00000100: 2ba0 803f 8354 803f 8bf1 7e3f 74eb 7e3f
00000110: 117d 803f d515 7d3f 925d 803f ae36 803f
00000120: 0257 803f 6228 7e3f 2ada 7e3f 6d00 7f3f
00000130: ca1e 803f 4502 7e3f a57b 7c3f af70 7c3f
00000140: 9ee1 7b3f 13f6 7c3f d7f0 7e3f ede9 7f3f
00000150: 6ad7 7d3f abba 7f3f 392f 7e3f bd1d 7d3f
00000160: bea8 7c3f 0c75 7d3f 79b5 7e3f d673 7f3f
00000170: 8a89 7f3f bfbb 7d3f b5f9 7d3f a566 7d3f
00000180: 631b 803f 2187 7d3f a071 7e3f 982a 813f
00000190: 9b0c 7d3f e76b 7c3f d1ab 7c3f 71b7 7f3f
000001a0: 10ef 7f3f 21f8 7f3f e66e 7f3f c067 803f
000001b0: ccf2 7e3f 1975 7e3f f128 803f 1da1 7c3f
000001c0: ab89 7f3f bb3b 813f d5e2 7f3f bf13 7e3f
000001d0: ca3b 803f b1db 7e3f 0ecc 7d3f b2e4 803f
000001e0: 5872 7e3f 6ca6 7f3f e79a 7f3f 61ef 793f
000001f0: e3b9 803f 03fd 803f 4230 803f 26bc 7b3f
1.0014229 0.99652517 0.99879134 0.9856316 0.9952344 0.9970561 0.9955373 0.98587316
1.0001613 0.9911153 1.0005035 0.9957855 0.99876744 0.99902457 0.9954602 0.99293673
0.9921586 0.99136144 0.99823326 0.99644244 0.9984852 0.99168694 0.99196035 1.0001149
0.9876352 1.0065827 0.9955749 1.0010604 0.99464893 1.0005704 0.9975546 0.99142385
0.99652797 0.98582506 0.98215854 0.9939198 0.99688256 0.99911827 0.99039596 0.9895235
0.99994665 0.9935128 0.9939815 0.99443465 0.9898327 0.9973232 0.99975854 0.9853658
0.99639094 1.0054502 0.99551696 0.99162865 0.9983698 0.9992672 0.9885509 0.98686814
0.9951791 0.97781813 0.98993605 0.9906753 0.9948059 1.0002515 0.99418616 0.99034435
1.0048879 1.0025791 0.99587315 0.9957802 1.0038167 0.9886144 1.0028555 1.0016687
1.0026553 0.9928037 0.9955164 0.99610025 1.0009396 0.99222213 0.98626167 0.9860944
0.9839114 0.9881298 0.9958624 0.9996632 0.9915682 0.9989421 0.99290806 0.988735
0.9869498 0.99006724 0.99495655 0.99786127 0.9981924 0.991146 0.9920915 0.9898475
1.0008358 0.99034315 0.9939213 1.0091124 0.9884736 0.98602146 0.9869967 0.99889284
0.99974155 0.9998799 0.9977859 1.0031662 0.9958923 0.99397427 1.0012494 0.9868334
0.9981944 1.0096353 0.99955493 0.9924888 1.0018246 0.9955397 0.9913949 1.0069792
0.99393225 0.99863315 0.9984574 0.9763089 1.0056728 1.0077213 1.0014727 0.98333967

bn2.bias f4 [128]
00000000: 81d8 c43b f7b0 50bd 306e dabc e8af 8f3d
00000010: eea8 b73c 6c28 3f3d 8d7e bdbc ea3f 37bd
00000020: cca9 d4bc 0aee 2c3d f2dc 743c 6f6f 383d
00000030: 2717 0b3d 8a97 6b3d 050d fd3c a02e bebc
00000040: 9304 47bd d9ef 2f3d 0cad e1bc dd87 6dbd
00000050: 7e8e a43c 4ab8 99bc 9a49 e7bc 2807 01bd
00000060: c968 183d 00c6 05bd 3e2d 81bd 2fe1 03bd
00000070: 6b8e eabc 1d98 94bc a4a8 c83c 52a0 56bd
00000080: 3a36 063d 2157 243d f576 473d 4790 e8bc
00000090: 4f1b 5e3d e4a0 a6bc 3d7e 893d eacf 323d
000000a0: 7ab0 dc3c 344f 1bbd 94e4 c83c 4857 9ebc
000000b0: 72c7 153d 808a d03c d9e1 3dbc 185d 0b3d
000000c0: d41c 1dbd fa4e 17bd 048b 943c 708a 09bd
000000d0: e630 873b d214 e8bc 489e 1dbd d83b 5dbd
000000e0: 4d6a 203d ad28 413d 73b9 933d 025a 293d
000000f0: cc5d a5bc ef15 46bd 1ffd 2dbd 1a34 5a3d
00000100: bb99 7dbd 8251 36bd 6f99 cdbc a949 06bd
00000110: a233 8abd 2aae 19bd dad8 12bd 8ec1 d8bc
00000120: 8f9a dbbc bfb8 c33c edfc 16bc 3421 393d
00000130: cd22 a7bc cb0f 95bd 80df 6f3d 247d 55bd
00000140: c90d 74bd ce7e 3a3d ab6b e1bc d68e 01bd
00000150: f5f3 41bd df3b d239 522c eebc 2256 653d
00000160: 1210 43bd f815 48bd 0539 e23c fcea 48bd
00000170: 9b4d cf3c e5c7 6e3d ff0b f53c a760 4b3d
00000180: bd83 9bbc ff2c da3c cd1b 1f3d 3efd ea3c
00000190: 9f81 133d 8cef 7bbd 6fb2 4abd f56b b4bc
000001a0: 71de 263c bd0e 6a3c a173 babc 4ed5 113d
000001b0: 40f5 13bd 5dab e73c 54ad b23b eb5d 1dbd
000001c0: 3d24 e23a c69c 46bd 3fcb d4bc 2238 2a3d
000001d0: e7df 0f3d 1bf1 333d e3db e53c b1e3 1bbd
000001e0: c0a8 76bd 9652 25bd 3960 123d d37b 87bd
000001f0: 0210 083d 6bc1 223d 108e 81bc fb73 9cbd
0.0060072546 -0.050950017 -0.02666387 0.07015973 0.02241942 0.04666941 -0.023131633 -0.044738688
-0.025959872 0.0422192 0.014945256 0.045028146 0.033957627 0.057517566 0.030889997 -0.023215592
-0.048588347 0.042953346 -0.027548335 -0.057990897 0.020087477 -0.018764634 -0.028233338 -0.031500965
0.037209306 -0.03265953 -0.063074574 -0.032197174 -0.028632363 -0.01813894 0.024494477 -0.052398987
0.03276656 0.040122155 0.04869743 -0.02838911 0.054225262 -0.02034039 0.06713531 0.043655314
0.02693962 -0.03791733 0.024523057 -0.019328728 0.03656716 0.025456667 -0.011589491 0.034024328
-0.03835757 -0.036940552 0.018132694 -0.03357929 0.004125702 -0.02833024 -0.038481027 -0.05401215
0.039163876 0.047157932 0.07213106 0.041345604 -0.020186327 -0.04836076 -0.042477723 0.053272344
-0.061914187 -0.044511326 -0.025097577 -0.03278509 -0.067481294 -0.03751961 -0.035851337 -0.026459482
-0.026807098 0.023891805 -0.009215576 0.04519768 -0.020402336 -0.07278403 0.058562756 -0.052121297
-0.05958346 0.045531087 -0.02751716 -0.03163036 -0.047351796 0.0004009893 -0.029073868 0.055990346
-0.047622748 -0.048849076 0.02761508 -0.049052224 0.02530556 0.058296103 0.029912947 0.04965272
-0.018983716 0.026632784 0.038844872 0.028685208 0.03601229 -0.061507747 -0.049486574 -0.022024134
0.01018487 0.01428574 -0.022760214 0.035603814 -0.03612256 0.028279955 0.005452791 -0.038419645
0.0017253231 -0.048489355 -0.025975822 0.04155744 0.03512564 0.043931108 0.028058952 -0.03805894
-0.060219526 -0.040361963 0.035736296 -0.066154145 0.03321839 0.03973524 -0.015814811 -0.07639309

bn2.running_mean f4 [128]
00000000: d736 a63d 567a 7bbd ea4e b7bd a9e1 d13d
00000010: 9caf 063d 5b94 b03d f966 ccbd 4236 9dbd
00000020: 158a 12bd 7421 623d 83c3 d33c 8a6a 013e
00000030: 3f8e ea3c 4d41 db3d df42 c03d a069 91bd
00000040: c32f 5ebd 235e 993d 070f 90bd c600 9abd
00000050: 09f6 523d a37f f1bc c6b9 abbd 9542 85bd
00000060: 352a 6d3d 71ff 3dbd 69cd a6bd a693 31bd
00000070: 75bd c7bd 9820 81bd eb12 6c3d fcef f2bd
00000080: dc0c b13d 74a7 233d c532 183d ec17 a9bc
00000090: 60c2 d93d b434 9d3a b255 133e f672 313d
000000a0: 2bec b73d 2066 87bd 2d41 a63d d1cc d9bd
000000b0: 8081 b23d 0a46 003e 3d07 b2bd 7f41 7e3d
000000c0: c4fe 513c c313 b5bd 2a14 b23d 28a2 d0bc
000000d0: eac1 973c 2202 fdbd e0d1 3abd ca56 4bbd
000000e0: dbac 5d3b 9c39 833d e18f 743c 56e7 da3d
000000f0: 614c d6bc 1d11 09bd 08f5 92bd 397c b43d
00000100: b19f 07be 7198 b2bd f3c6 d0bd dadc 4dbc
00000110: f4bd 3bbd 3660 8bbd ad22 8ebd cfa8 eebd
00000120: aebd e8bc c46b 123d 6b2d a0bd 4ad4 103e
00000130: 08c8 623b ef1c e5bd eb3b 323d c1b6 62bd
00000140: 53c3 f0bd d17c 833d d976 a6bd 81b8 aabd
00000150: 47a0 9cbd e313 f0bc 08bc 4abd 6c43 b3ba
00000160: 0d92 b6bd ed53 36bd dc1b 873d 2c1a 86bd
00000170: ec1e a43d fdaf ff3d 2353 0d3d 0dae f23d
00000180: 94c3 f3bd 9b36 8f3d 7b3e 133d 6632 aa3c
00000190: e843 b53d eb5b c8bd 5060 b8bc 0394 8fbd
000001a0: 985f e93d ec48 1a3d 1422 84bd c460 6b3d
000001b0: a14a 35bd 2d9b d23d c37b 823b d50b 40bd
000001c0: 4e44 c43c 53d2 c8bd e4c2 e8bb 7ee5 da3d
000001d0: 7f13 a43d 3d41 923d 9056 8d3d 0f49 3abd
000001e0: 6a8f 29bd d7ec 1bbd 1fd4 053d 4c54 61bd
000001f0: b637 b83d 99a5 8c3d 38e9 a6bd 7448 debd
0.081159286 -0.061395966 -0.089505985 0.102481194 0.032882318 0.086220466 -0.09980578 -0.076763645
-0.035776217 0.055207685 0.025850063 0.12638298 0.028632281 0.107058145 0.09387755 -0.071002245
-0.054244768 0.07488658 -0.07034116 -0.07519679 0.05150417 -0.029479807 -0.08385043 -0.0650684
0.05790158 -0.046386186 -0.08144648 -0.0433537 -0.09752933 -0.06305045 0.05763523 -0.1186218
0.08645031 0.039954618 0.037157793 -0.02064129 0.10632777 0.0011993856 0.14388159 0.043322526
0.08980592 -0.06611276 0.081179 -0.10634769 0.087161064 0.12526718 -0.08692787 0.06207418
0.0128170885 -0.0884166 0.08695252 -0.025467947 0.018525083 -0.123539224 -0.04561031 -0.049643315
0.0033824954 0.064074725 0.0149268815 0.10688655 -0.026159467 -0.033463586 -0.07175642 0.08812756
-0.13244511 -0.08720482 -0.101941966 -0.012564862 -0.04583545 -0.0680546 -0.06940208 -0.116532914
-0.028410759 0.035747305 -0.07821163 0.14143482 0.0034604091 -0.11187159 0.043514173 -0.05535007
-0.11756005 0.06420291 -0.08128137 -0.083359726 -0.07647758 -0.029306358 -0.049495727 -0.001367671
-0.08914576 -0.04451363 0.06597111 -0.06547961 0.080137104 0.12484739 0.034503113 0.11849604
-0.11902538 0.06992837 0.035948258 0.020775985 0.08850843 -0.09783157 -0.022506863 -0.07010653
0.11395186 0.0376672 -0.064518124 0.05746533 -0.044260625 0.10283504 0.0039820387 -0.046886284
0.023958351 -0.09805741 -0.007103311 0.106883034 0.08011531 0.071413495 0.06901276 -0.04547983
-0.041396536 -0.038067665 0.032672998 -0.055012032 0.08995001 0.06867523 -0.08149952 -0.10853663

bn2.running_var f4 [128]
00000000: f52c a73e 0576 d33e 9a46 bb3e 1bf6 c13e
00000010: 972a 913e c927 ec3e cecf 5f3e b1a2 aa3e
00000020: 7095 a33e bcd1 a43e 3f65 5b3e 2db4 a73e
00000030: edff 473e 02d4 e63e a345 a13e df4a 973e
00000040: cfd9 7e3e 6fa4 c03e da51 a43e 8fa3 023f
00000050: 070e 813e db2e 5c3e c662 723e c3db c33e
00000060: 0fd7 9a3e 0024 c13e 9d9b dc3e 3989 b13e
00000070: 63e2 c13e d2c4 973e f4d7 893e 5815 de3e
00000080: c8a3 f43e f670 a53e 26fe a53e 7470 ac3e
00000090: 684f 063f b838 663e 5ccc c63e c9de da3e
000000a0: 04e4 8b3e da0d a03e 7358 aa3e b771 9a3e
000000b0: e380 9f3e f19d cf3e 1dc5 b93e 54b0 903e
000000c0: 1dbf c03e 9e34 db3e 37ed c13e 38a9 8f3e
000000d0: e01c 733e 1e96 bf3e 1163 ac3e 094a ad3e
000000e0: c0d2 ce3e 096c 903e 2fac ab3e 7558 9d3e
000000f0: 7459 8f3e c692 c83e 2c88 aa3e 34d2 a43e
00000100: 9477 f93e 66b0 e23e 8220 8e3e 2a21 bd3e
00000110: 01f1 ef3e 4be6 8c3e c09a bf3e 97f8 bd3e
00000120: 172a 913e 9c1d 933e 7771 863e e610 043f
00000130: 1402 a13e 160f 153f 62e0 963e cb95 bf3e
00000140: 46ef 053f b7cb 863e a5fc 973e ed47 a53e
00000150: 15a4 ae3e d472 8c3e 9f7e c83e f04d ab3e
00000160: 9f66 b43e 4d08 de3e ae92 973e 7adc ae3e
00000170: 043f b23e c640 f63e 7f29 9a3e 5660 ec3e
00000180: 1d67 b73e c200 ba3e ed5f c93e 0231 b63e
00000190: 84db 873e 1e62 f13e 72ec b73e b66e b13e
000001a0: 6a81 cf3e a18a 5a3e 76e9 6d3e 8a53 c83e
000001b0: 863b d73e 783f c63e 31d4 4c3e c23b 8d3e
000001c0: 9111 793e bf31 c03e 9581 8d3e 0aa4 993e
000001d0: 6216 c33e 36de 913e 0d8f ac3e 4a2d a03e
000001e0: 58c6 d93e c4b6 aa3e 28c8 b23e fdf3 ea3e
000001f0: 800d cc3e 250f b93e 4a40 b93e 41ea e23e
0.32651487 0.4130098 0.36577302 0.37883076 0.28352806 0.46124104 0.21856615 0.3332725
0.3194995 0.32191265 0.21425341 0.3275465 0.19531222 0.45083624 0.3149844 0.2954931
0.24887775 0.37625453 0.32093698 0.5103082 0.25206015 0.21502249 0.23670492 0.38253602
0.30242202 0.37722778 0.43087474 0.34675005 0.37868032 0.2964235 0.26922572 0.4337566
0.47781205 0.32312745 0.32420462 0.33679545 0.52464914 0.22482574 0.3882779 0.42748097
0.273224 0.31260568 0.33270606 0.30164883 0.3115302 0.40550187 0.36283198 0.28259528
0.37645808 0.4281358 0.37876293 0.2805879 0.23741484 0.37419218 0.33669332 0.33845547
0.40395164 0.28207424 0.33529803 0.3073155 0.27997935 0.3917448 0.33307016 0.32191622
0.48724043 0.44275206 0.27759176 0.36939365 0.4686356 0.2751945 0.37422752 0.37103721
0.28352425 0.28733528 0.26258442 0.51588285 0.31446898 0.58226144 0.29468066 0.3741897
0.5231823 0.26327297 0.2968494 0.32281438 0.3410956 0.27431357 0.39159104 0.334579
0.35234544 0.43365708 0.29604095 0.34152585 0.34813702 0.48096293 0.30109784 0.46167248
0.35820857 0.36328703 0.39330998 0.35584265 0.26534665 0.4714517 0.3592258 0.34654778
0.40528423 0.21341945 0.2323359 0.39126235 0.420376 0.38720298 0.2000282 0.27584654
0.24323107 0.37537953 0.27637926 0.30007964 0.38103014 0.28489846 0.3370289 0.31284553
0.42534137 0.33342564 0.34918332 0.45889273 0.3985405 0.36144367 0.3618186 0.44319347

hidden3.weight f4 [16, 128]
00000000: dc9d d4bd 73d7 bebd cf4b 06bd 77a5 20bd
00000010: 2294 873d 9a2c 4bbd 0a10 06bd aeb0 433d
00000020: 357b 9ebd 6ffb 553d 1ca6 b0bd 7406 7cbd
00000030: a7a0 73bd 0ba3 f2bc 744a 893d 0f90 923c
00000040: 6020 6a3c 39cf a43d 03cb 95bd 767d dabc
00000050: 9269 2c3d 97ab dd3c 5da2 3cbd 3a2a 8c3d
00000060: 16c2 90bd 1c17 313d 08f8 493d 46b3 853d
00000070: 6e8c 6e3d 119f 20bd 141c 0cbd dd08 3bbd
00000080: 7ffe 303c a934 d63c 24da f53c 210a 3fbd
00000090: a86a 2abd 9904 763a 3c6b 303c b9f3 e03d
000000a0: 69ed 373c d633 a3bb f4d7 bbbd ed80 0c3d
000000b0: ae5f c6bb 62da e2bc 4e9b 8e3d 9730 01bd
000000c0: d060 15bd 89c1 913b 1ce6 603d 2212 673b
000000d0: 44e5 2d3d d75c 973d 66bb 053c 8d5e 943c
000000e0: 0e41 3fbd 64a5 c0bc 6268 91bd 97bc 313b
000000f0: c53c 27bd 210c f6bc 11a7 99bd c375 133c
00000100: 40dc 763d cc4c 78bd f1ea 783d 8514 8bbd
00000110: 4e52 66bd 36b7 823d 5417 3fbc 5533 85bd
00000120: 4ecc 8f3d d7d7 0abc fdc0 5abd b581 1d3d
00000130: 50df e2bd 76ee 883a d738 a0bc 4163 e7bb
00000140: a994 573d d2d6 2cbd 4579 283d 7059 1b3c
00000150: 172b 73bd 85ed 7f3d ffa3 9cbd 827f ed3b
00000160: f6b9 5f3d f47d 5bbd 3e69 9abd 5e0a 063d
00000170: 334e c6bb 7ce8 e23c 2960 c83c 8446 abbd
00000180: 2c5b b13d 400d 31bc 054d 49bd 1637 7abd
00000190: 8222 5bbd 4e5b 84bd 6310 8ebd d9d1 703d
000001a0: 7472 da3c 5a5f 033d 75fc 49bb 32a1 283d
000001b0: 8f1b 2bbd af46 9fbd 0c7b 95bc c6e8 7bbc
000001c0: 0b5c 2abd 6e97 00bd 40b2 7d3a 107d 4ebd
000001d0: d431 eebb b8d3 303c 0a8f 9bbd 0159 d53d
000001e0: 2993 d13c 5fc6 cb3b 884b 91bd 4c32 04bc
000001f0: e275 38bd bf17 e9bc 03f4 af3b c08c fb3c
00000200: dc75 f23c da3f 09bc fdb2 ac3d daf2 9bbd
00000210: ef1b 3b39 fad0 cabd b9e1 243d 45f2 5b3c
00000220: 776e 2abb d13c 4dbc 609c 82bc 3c15 123d
00000230: 0025 a8bd 04be 2bbd db55 69bd b709 583c
00000240: b7f9 f23c 308b 12bd 3f51 c63c def7 cd3a
00000250: 2c10 b6bd 3a24 973c 374c 713d 1592 5abd
00000260: 4464 bebc 80c5 e93d 79b5 6c3d dd88 373d
00000270: 6abb 31bc 62bb 273d b2ba 9e3c b337 9fbd
00000280: cea5 abbd c34c d0bd 536e e9bd 4116 913d
00000290: 2a44 86bd 8e8e 883c 331e 2b3d d757 97bd
000002a0: e523 193c fd4e 8ebd a414 653d ff05 df3b
000002b0: 2569 993d f90a d33c 9bcc c43b 8c64 81bd
000002c0: 8d5a 9f3d 8da1 49bd 3aa1 7dbd 67cc 953d
000002d0: a005 fabc c192 c5bb bb1a 1f3c 44cf 28bd
000002e0: d7fb 15bd c12c be3c c653 f23d be7f 943c
000002f0: 689a 82bc 205f c0bc 1aef de3d 4c3a a0bd
00000300: 3ce8 73bd 8760 a83d b184 87bd 4cc0 903d
00000310: 6555 1e3e b999 11bc 3c7d 8fbc c0e5 483c
00000320: 2db9 a1bd 04b5 3bbd 1cdf ea3c c7af 193c
00000330: afff 723d 9338 9ebc 3bc6 4fbd bb5f 2dbd
00000340: a98e 38bd b213 0e3b 31fc 75bd 8778 e2bc
00000350: a410 e5bb ee4f 703c 0e6f 9a3d f80e 05bd
00000360: 1631 993c 7433 983b 7849 8cbc 15d4 c43d
00000370: 5877 cebd 1d77 6abd fd16 a43d 0e1e c2bc
00000380: e863 d8bc 7b8a 94bd b5a7 903d ba66 5fbd
00000390: ffd6 1a3a 2605 a93d e586 fb3d 46f7 6a3c
000003a0: cda9 66bc 70c1 183d 4e65 d2bc b4f3 163d
000003b0: 1ac8 56bc 5b16 653c a888 44bd b0f4 bfbd
000003c0: e8ef 0a3e 2c4e 51bc 0c9f 8ebd c800 123d
000003d0: e2f6 f93c 96ef d3bc d844 dbbd 1ccb 113d
000003e0: eb4e c8ba 082a 663c 0cd4 273d 8f64 8c3d
000003f0: 6221 94bc f422 03bd b829 c33d b2d4 253c
-0.10381672 -0.093184374 -0.03278714 -0.0392203 0.06620051 -0.049603082 -0.03273014 0.047775917
-0.077383436 0.05224174 -0.08625433 -0.06152959 -0.059479382 -0.02961876 0.06703654 0.017890958
0.014289945 0.08047337 -0.07314112 -0.026671153 0.042092867 0.02705936 -0.04605328 0.068439916
-0.07068269 0.04323493 0.049308807 0.06528334 0.058239393 -0.039214198 -0.034206465 -0.04566275
0.010802864 0.026148157 0.030011244 -0.04664052 -0.04160562 0.00093848404 0.010767754 0.109839864
0.011226037 -0.0049805446 -0.09172049 0.03430264 -0.0060538864 -0.027692024 0.06963216 -0.03154048
-0.03646928 0.00444812 0.05490695 0.003525861 0.042454973 0.07390755 0.008162355 0.018111492
-0.0466929 -0.023516364 -0.070999876 0.0027120465 -0.04082944 -0.03003508 -0.075025685 0.009000245
0.06026864 -0.060620114 0.060770933 -0.06791023 -0.056230836 0.06382601 -0.011663277 -0.065039314
0.0702139 -0.008474312 -0.053406704 0.038453776 -0.1107775 0.0010447043 -0.019558353 -0.0070613925
0.052632008 -0.042197056 0.041131277 0.009481773 -0.059367266 0.062482376 -0.07648467 0.007247866
0.054620706 -0.053586915 -0.075396046 0.03272473 -0.0060518025 0.027698748 0.024459915 -0.08363059
0.08659968 -0.010806382 -0.049145717 -0.06108769 -0.053499706 -0.064627275 -0.06936719 0.058793876
0.026665904 0.032073356 -0.0030820642 0.041169353 -0.04177433 -0.07777154 -0.01824715 -0.015375322
-0.041591685 -0.031394415 0.00096777454 -0.050412238 -0.0072691236 0.010792665 -0.07595642 0.10417367
0.025582867 0.006218716 -0.070944846 -0.008068632 -0.045034297 -0.028453706 0.0053696646 0.030706763
0.029597215 -0.00837704 0.08432577 -0.0761468 0.00017844116 -0.0990314 0.04025433 0.013424461
-0.0026005784 -0.012526707 -0.015943706 0.035664782 -0.08210182 -0.04192926 -0.056966644 0.01318591
0.029660089 -0.03577727 0.024208663 0.0015714129 -0.08889803 0.018449891 0.058910575 -0.05336197
-0.02324117 0.11414623 0.057790253 0.044808257 -0.010847906 0.040950187 0.019376133 -0.07774296
-0.08381234 -0.10170891 -0.11397996 0.07084323 -0.0655597 0.016669538 0.041776847 -0.07389801
0.009346937 -0.069486596 0.055927888 0.0068061347 0.07490758 0.025762068 0.006005836 -0.06318006
0.07780943 -0.049226332 -0.061921336 0.07314377 -0.03052026 -0.0060294573 0.009710963 -0.04121329
-0.036617126 0.0232147 0.11832385 0.018127318 -0.015942767 -0.02348286 0.10885449 -0.07823619
-0.059547648 0.08221536 -0.06617106 0.07067928 0.15462263 -0.008886748 -0.017515771 0.012261808
-0.078966476 -0.045826927 0.02867084 0.0093802875 0.05932587 -0.019314086 -0.050726157 -0.042327624
-0.045057926 0.002167922 -0.06005496 -0.027645363 -0.006990509 0.014667494 0.07540713 -0.03248498
0.018700164 0.0046448056 -0.017124876 0.09610764 -0.10081357 -0.0572425 0.08012197 -0.023695972
-0.026414827 -0.072529756 0.070632376 -0.054541327 0.00059066707 0.08252935 0.122815885 0.014341181
-0.01407857 0.03729385 -0.025683071 0.036853507 -0.013109231 0.013982381 -0.047981888 -0.09372842
0.1356808 -0.012774985 -0.069639295 0.035645276 0.03051323 -0.02587108 -0.1070649 0.03559409
-0.0015282308 0.014048107 0.040973708 0.068551175 -0.018082324 -0.032015756 0.095294416 0.010121511

bn3.weight f4 [16]
00000000: 06ca 7d3f d72d 773f 6988 7c3f 59a9 8c3f
00000010: 3f04 713f dbad 813f 0dc7 743f 9d6d 7e3f
00000020: b2d1 853f a260 8a3f 2f25 753f 6f5d 8c3f
00000030: 38e1 7a3f b56a 823f 0747 7e3f 2bdf 7e3f
0.9913639 0.9655432 0.98645645 1.0989181 0.94147104 1.0131181 0.9561623 0.99386007
1.0454619 1.081074 0.9575986 1.0966014 0.97999907 1.0188814 0.9932713 0.9955928

bn3.bias f4 [16]
00000000: 97e7 e6bd f62a ccbe 3dc4 e4bd 04e3 563e
00000010: 197a 923e b3f5 9d3d c460 f03e 06d5 1b3e
00000020: a129 e7be 5992 c4be 16d6 e33e cd17 143f
00000030: 7f04 83be de2f 14be 688b c93d c91c 6b3c
-0.11274641 -0.39876527 -0.11170242 0.20985037 0.28608778 0.07712879 0.46948826 0.1521798
-0.45148948 -0.38392904 0.44499272 0.5784882 -0.25589368 -0.14471385 0.09841043 0.014350125

bn3.running_mean f4 [16]
00000000: 720b 61bd 4756 2ebd 02bc f8bc ae16 2c3d
00000010: 81f4 3a3c 8d67 003d d180 e13d 7438 803c
00000020: c67c 883b d582 25be de90 743c a8c2 413e
00000030: 06a8 15bc ff19 46bd afc6 973c 9097 df39
-0.054942556 -0.04256275 -0.030363087 0.042013817 0.011410833 0.031348754 0.11010898 0.015651919
0.004165265 -0.1616319 0.014927117 0.18921912 -0.009134298 -0.048364636 0.018527357 0.00042646797

bn3.running_var f4 [16]
00000000: 5a4d 323f 7ef9 ad3f 4e21 193f e181 e03f
00000010: 3fcc 713f 3cba 2f3f 972f c83f f95b 703f
00000020: 951f f53f 9d7d 3040 2776 a23f 0fc0 3d40
00000030: e9f2 463f 6251 713f 1239 9f3e 49a2 803e
0.6964928 1.3591764 0.59816444 1.7539636 0.9445228 0.68643546 1.5639523 0.9389034
1.9150263 2.7576668 1.2692307 2.9648473 0.777144 0.94264805 0.3109823 0.25123814

output.weight f4 [1, 16]
00000000: d72f 9d3d a1e0 ef3e 3b8b ae3d b39c 08bf
00000010: ca49 a8be f028 3cbe ed1f fcbe 8753 32be
00000020: 1717 1c3f 347a 0a3f 79b8 16bf 893b 4dbf
00000030: e63d 9e3e 928e 7b3e a1db 8e3c 3a3f 923c
0.0767514 0.46851066 0.0852265 -0.53364104 -0.32868797 -0.18374991 -0.49243107 -0.17414676
0.6097273 0.5409272 -0.5887523 -0.8016897 0.309066 0.24566105 0.017438712 0.017852414
