models/focal_loss_checkpoints/checkpoint_epoch_40.pth (torch, 100218 bytes, 16 tensors)

hidden1.weight f4 [128, 30]
00000000: 07e4 f33d 7c92 22be 7c21 79bd f0a9 31bd
00000010: 2de0 d53d ddc3 c4bd caf4 db3a fe09 afbb
00000020: cb82 49bd e8fa c9bd 1a84 13be 1eb2 2e3e
00000030: 1d9c e4bd ffcd 233d 4bb8 30bd ab8e e03c
00000040: 4421 36be d6df a33d 9295 253e 9964 403e
00000050: 9fa0 163e d842 f6bb d37f 0fbe fa51 ec3d
00000060: 2b55 e23d da06 613d 18ec 0bbd 3971 383e
00000070: 06e3 c83d 8595 d5bd 71a7 2abe 640d cbbc
00000080: c4c5 e9bb 3653 c83c 85fa 96bc c847 fc3c
00000090: df7b 8cbd 7921 edbc fe6d 21bd 4629 19be
000000a0: 846e 9fbd fa14 23be c111 253e c788 073e
000000b0: 7cac 943d 38c6 dcbc fddb 18be 450d a23c
000000c0: e5b5 983d 2786 193e 6c1a 2cbe 223d e5bd
000000d0: 5cdd 96bd 7282 f43d 7b50 333e 790b 32be
000000e0: ea77 e63d 4928 043d 1108 28be 7dbb 0bbc
000000f0: 8324 053e 5012 903b ff45 483d 6b78 fabd
00000100: d34e 2bbc 526b aa3d 1a5e 003e 4434 11bd
00000110: 1eb0 063e 9285 f03d c5ff 043d 068e e9bd
00000120: 210e 35be 2d94 f33d bcc8 083e 79cf 323e
00000130: 9408 30be 1b2c 2dbe dcb4 bdbd 44e1 ecbd
00000140: 62e3 95ba 9f06 fabc 2c97 2ebe 4e9d e9bd
00000150: 6bef c3bd d2ec a6bd f883 2b3d 3d10 96bd
00000160: 4a65 6dbb 6430 e13d d950 293b ae57 263e
00000170: ec41 b5bd e814 d6bc 1dda 96bd 320c 823d
00000180: 629a 3e3d 317d a63c 1652 64bd ad11 c7bd
00000190: 5d43 1b3e 66ce 3ebe 2347 0f3c 5a48 e53d
000001a0: 0e45 f6bb 5830 ba3d 9fce 65bd 35ee 95bd
000001b0: 5377 14be 7b6a cebc 77e0 5fbd eede 38be
000001c0: 61b0 9c3d a550 8fbd 2b45 333e 2ffb 333e
000001d0: 7c15 f4bd 3d3b ac3c f761 bb3d 9c9f c2bd
000001e0: d91b e43d aba5 aa3c 1c73 26be a883 cfbd
000001f0: 8b3c 2abe 02fe a3bd 2aad 153e 239b 663c
00000200: 92aa bd3d 8cbd 363e 5a3e 2c3e 56d4 193e
00000210: e092 473e a248 98bc 8ead 9f3d 04ee 2cbe
00000220: 8cca d23c 42e8 cebd 345c acbd aab4 18be
00000230: c55d c9bd 78d9 c03b 1955 a4bc fbfc 1b3d
00000240: a0dd 383e 727c 9c3d 0fa4 86bd 7969 cabd
00000250: 728c 923c 0fa5 07bd 1f8f c4bd ecd3 88bd
00000260: 96a3 323e 5ab5 d0ba 2455 1b3e d511 893c
00000270: c1a8 4b3e 23e1 c53b d5f4 8ebd e36d 583d
00000280: af6f a63b a12e d23d e2d9 74bd 3dc6 f33d
00000290: 077f 06be 1635 123e 32bf a33d 6052 b5bd
000002a0: f5aa 64bd f596 543d 6339 c23d ccb9 1dbd
000002b0: e93a bfbd 0a6f acbc f569 df3d 57f7 c0bc
000002c0: 8b33 e3bd 7df1 f4bd 5310 b9bd 8068 d43d
000002d0: e433 1cbe 040e 48bd 00ad 653c d0cc acbd
000002e0: 4bec 843c 621a 083e 8d6d 0dbd f966 783d
000002f0: 6ddb 903c a6c6 20be f6e6 dbbc e20b 48be
00000300: 8b12 2f3e bae6 0c3e 36f5 d53d 121a 033d
00000310: bab6 143e 4e92 423d cd97 123c a268 a43d
00000320: bb1a f3bb 8687 e7bc d6d4 d0bd 16d0 2c3e
00000330: 3835 0f3e 7ae6 0bbd b0da 903d b93a 153e
00000340: 4478 7d3d af34 10be 6728 db3a 1e0f 8dbd
00000350: 406a a337 8946 fc3d 2c33 32be ea97 49bd
00000360: 12f4 1a3d ebc8 64bd 01cc 1dbe f5e9 74bc
00000370: 3eb0 c13d 8d25 3bbe 5a13 50bd a8c4 8e3d
00000380: d971 a63d 68ee d5bc 3304 283e c99e 053e
00000390: e1c7 bbbd 00e1 343d 2f0f 8f3d 561c 1b3b
000003a0: e647 1a3e b786 e93c 7943 193e a24e ccbd
000003b0: 802b 0e3e 7ba1 25be 0205 883d ae18 08be
000003c0: 2fac 15be 49c1 e63d 26c4 24be 991f f23d
000003d0: d931 a13d 1070 3ebd 668f 193c dd1b 203e
000003e0: 6e2f 933d d731 143c 2d10 2b3e d1ef 233e
000003f0: 5b66 4cbd 3d99 933c 778a 3a3e b42c acbd
0.11908727 -0.15876192 -0.06082295 -0.043374956 0.10443149 -0.096076705 0.0016781327 -0.0053417673
-0.049197 -0.0986231 -0.14405861 0.17060134 -0.11162589 0.039991375 -0.043144505 0.02741178
-0.17786127 0.08001678 0.16170338 0.18788375 0.1470971 -0.0075152926 -0.14013605 0.11539073
0.11051401 0.054938175 -0.034160703 0.18011941 0.09808926 -0.10428909 -0.16665436 -0.024786659
-0.007134171 0.02445374 -0.018430004 0.030795947 -0.06859564 -0.028946625 -0.039411537 -0.14957151
-0.07784751 -0.1592597 0.16120054 0.1323577 0.07259461 -0.026949987 -0.14927669 0.019781718
0.07456569 0.14992581 -0.16806954 -0.11193301 -0.0736644 0.11938943 0.1751117 -0.17387189
0.112533405 0.03226498 -0.16409327 -0.008528587 0.1300221 0.0043967143 0.04889488 -0.12229999
-0.010455805 0.08321251 0.12535897 -0.035450235 0.13153121 0.117442265 0.032470483 -0.11404042
-0.17681171 0.11893497 0.13357824 0.17461957 -0.17190772 -0.16911356 -0.09263012 -0.115664035
-0.0011435563 -0.030520735 -0.17049855 -0.114069566 -0.0956715 -0.08150639 0.041873902 -0.07327316
-0.0036223703 0.10995558 0.0025835542 0.16244385 -0.08850464 -0.026133016 -0.073658206 0.06349982
0.04653395 0.020323368 -0.055742346 -0.09720168 0.15162416 -0.18633422 0.008744988 0.111954406
-0.007515556 0.09091252 -0.056105252 -0.07320825 -0.14498644 -0.025197258 -0.054657426 -0.18053791
0.07650829 -0.069978036 0.17506854 0.17576288 -0.1191816 0.02102434 0.09149545 -0.09503099
0.11138124 0.02083095 -0.16254848 -0.10132533 -0.16624658 -0.080074325 0.14616838 0.014075073
0.09261049 0.17845744 0.1682066 0.15022406 0.19489622 -0.018589322 0.07796775 -0.16887671
0.025731348 -0.101028934 -0.08416024 -0.14912668 -0.09832338 0.0058852993 -0.020060109 0.038083058
0.18053293 0.076409236 -0.065742604 -0.098833986 0.017889235 -0.033116397 -0.09597611 -0.06681046
0.17445216 -0.0015923188 0.15169197 0.016732136 0.19888593 0.0060388013 -0.06980292 0.05283917
0.0050792317 0.102628 -0.0597781 0.11903045 -0.13134395 0.14278063 0.07995452 -0.088536024
-0.0558271 0.051901776 0.09483602 -0.038507268 -0.09337408 -0.021049041 0.109088816 -0.02355544
-0.110938154 -0.11960123 -0.09036317 0.10371494 -0.1525417 -0.04884149 0.014018297 -0.084375024
0.016225955 0.13291314 -0.034528304 0.060645077 0.017682755 -0.15700778 -0.02684353 -0.19535783
0.17096917 0.1375989 0.10447161 0.032007284 0.1452283 0.04750281 0.008947325 0.080277696
-0.007418958 -0.028262865 -0.10196845 0.16876253 0.13985145 -0.034155346 0.07072961 0.14573182
0.061882272 -0.14082597 0.0016720415 -0.06887649 1.948059e-05 0.12318141 -0.17402333 -0.049217142
0.03783042 -0.055855673 -0.15409853 -0.014948358 0.09457444 -0.18276043 -0.050799705 0.06971103
0.081271835 -0.026114658 0.16407852 0.13048853 -0.09168983 0.04415989 0.06985318 0.0023668013
0.1506649 0.02850662 0.14967145 -0.099759355 0.13883781 -0.16174881 0.0664158 -0.13290665
-0.14616464 0.11267335 -0.1609045 0.11822433 0.07870836 -0.04649359 0.009372568 0.15635629
0.07186781 0.009045086 0.1670539 0.16009451 -0.0499023 0.018017406 0.18216883 -0.08406964

bn1.weight f4 [128]
00000000: 59d9 7e3f d404 7f3f e42a 803f a75d 7f3f
00000010: efa6 7d3f b846 803f 157d 7f3f 7819 803f
00000020: 985c 803f b7df 7f3f 11d4 7f3f 168b 7f3f
00000030: 10d4 7f3f 44e0 7f3f b056 7d3f 730a 7f3f
00000040: 9dde 7f3f e774 7f3f 2034 7f3f a064 803f
00000050: 9857 803f 0f08 803f fe0b 803f 2c00 803f
00000060: d974 803f 053a 803f c20d 803f dea7 803f
00000070: edc5 7e3f 1696 7f3f 6ae5 7e3f 8b9a 803f
00000080: e0bc 7f3f 8f70 7e3f 4170 7f3f de38 803f
00000090: e385 803f 266b 803f 8929 7f3f bbaf 7e3f
000000a0: 4b7f 7e3f 8b9c 7d3f bd93 7f3f 8b5a 803f
000000b0: e8cd 7f3f 75eb 7f3f 19cb 7e3f 330a 803f
000000c0: 8d62 7f3f ec45 7e3f 6210 803f 996b 803f
000000d0: 707a 7f3f de1d 803f 7b16 803f 30d3 803f
000000e0: 3e44 803f 94d8 7e3f 568c 7f3f 1d0e 803f
000000f0: 8816 803f 7206 803f 0d2b 803f d686 803f
00000100: 605c 803f a74a 803f 0eb3 7f3f b58a 803f
00000110: a1fb 7f3f ed12 803f 757e 7f3f dda8 7f3f
00000120: 0158 7f3f a1fa 7e3f ee5b 7f3f cbc6 803f
00000130: f195 803f 6001 803f 4e29 803f 0101 803f
00000140: b0e9 7d3f 3122 7f3f 9d4d 803f e3ed 7f3f
00000150: f404 7e3f b1ac 7e3f ab6a 7e3f 51bf 7d3f
00000160: ec92 7e3f cdc4 7e3f 7961 803f e6e3 7d3f
00000170: 93f5 7d3f 64b7 7f3f 9b69 7f3f e19b 7f3f
00000180: 15c3 7f3f 3676 803f 1c10 803f eb85 803f
00000190: 2312 813f dd9e 7e3f 2942 7d3f 59c4 7f3f
000001a0: 0822 803f 28d4 803f 6abe 7f3f 94a3 7f3f
000001b0: 9a07 803f d1f6 7e3f fe98 7e3f e19c 7f3f
000001c0: cea9 803f a844 803f 3669 803f 691c 803f
000001d0: a250 803f 1408 803f dd05 813f ddc6 7f3f
000001e0: 6d41 803f 238f 803f e8ee 7c3f 6f13 803f
000001f0: 9945 803f b309 803f 175b 7f3f 3823 803f
0.99550396 0.9961674 1.0013089 0.9975228 0.99082845 1.0021582 0.99800235 1.0007772
1.0028257 0.99950737 0.9993296 0.99821603 0.99932957 0.9995158 0.989604 0.9962532
0.99949056 0.99787754 0.9968891 1.0030708 1.0026731 1.0002459 1.000366 1.0000052
1.0035659 1.0017706 1.0004199 1.0051229 0.9952076 0.9983839 0.9956881 1.0047163
0.99897575 0.993905 0.9978066 1.0017354 1.0040859 1.0032699 0.9967275 0.99486893
0.99412984 0.9906699 0.99834806 1.0027632 0.99923563 0.99968654 0.9952865 1.0003113
0.9975975 0.9932544 1.0005 1.0032836 0.997962 1.0009115 1.000686 1.0064449
1.0020826 0.9954922 0.9982351 1.0004307 1.0006876 1.0001967 1.0013138 1.0041149
1.0028191 1.0022782 0.9988259 1.004233 0.9999333 1.0005776 0.99802333 0.9986704
0.9974366 0.9960118 0.9974965 1.0060667 1.0045758 1.000042 1.0012605 1.0000306
0.99184704 0.99661547 1.0023686 0.9997236 0.9922631 0.99482256 0.9938151 0.9912005
0.99442935 0.99519044 1.0029746 0.9917587 0.9920284 0.99889207 0.99770516 0.9984723
0.99907047 1.0036075 1.0004916 1.0040869 1.008366 0.99461156 0.9892908 0.9990898
1.0010386 1.0064745 0.99899924 0.99858975 1.000232 0.9959536 0.994522 0.99848753
1.005182 1.0020952 1.0032108 1.000867 1.0024607 1.0002465 1.0079914 0.99912816
1.0019966 1.0043682 0.9880204 1.0005931 1.002124 1.000296 0.9974837 1.0010748

bn1.bias f4 [128]
00000000: 266b d5bc ae7a a43c 7380 8abb 3557 0d3c
00000010: c302 d13c c562 58bc e4ed 353c 94d9 3a3c
00000020: 1c00 c73b 3163 db3c 1fa5 23bc 87fe d4bb
00000030: 4a11 503c 1e0a 8f3b bbcd 23bd cf76 9dbc
00000040: 639b 8b3b 447d 81bc d612 193d ceeb 4d3c
00000050: ccee b3bc 7e39 7e3c 1c9a 11bc 0ce2 653c
00000060: a8cd 44bc 496c 6b3c b6e6 283c 504d 91bc
00000070: 3aa6 103c ca6d 9039 0d02 ca3c fac4 aabb
00000080: ed4d e43c b6cd 60bd 528f a73a b16b 143c
00000090: 2e90 ccbb 4605 2cbc 4dda 63bc 8fee 4e3d
000000a0: f4f6 06bd bf35 dbbc 8209 763c 69dd 5d3c
000000b0: 2c04 513c 9bf1 303c 6727 a6bc fbb7 173c
000000c0: 6a1a 1f3c 15dc 15bc 9d23 243c 3a8f 94bb
000000d0: 3bba b33c a646 da3b e234 08bd 63e0 c53a
000000e0: abfe 89bc 0eac e2bb 59a1 183c 709f f73c
000000f0: dd39 00bc 337f a43c e8b3 b63b a0c5 b23b
00000100: 2e3e a13a 6f3a 523b a536 a73c dfd3 8dbc
00000110: 48e9 1e3c 5439 15bc 9d91 c33c a85c 973c
00000120: 775f 183d a4f0 cebc e22f acbc da4c 2a3c
00000130: c51b 003d 4123 593c efe0 60bc 3f33 f6bb
00000140: 1744 0b3d dccd 143c 14ed 063c 94d3 9a3c
00000150: 209a 0ebd 5603 24bc 7eb9 c73c e321 46bd
00000160: a8d8 f33c 5cef a7bb 3ab1 15bb 86f3 c6bc
00000170: ea91 a23c 7869 40bc 19bc 223c fd3f 683c
00000180: ac53 af3b 1283 ce37 fb55 35bc c313 c73c
00000190: c4cb 033c 40ef 153c 56b6 5abc 47f3 33b9
000001a0: 3747 17bc b06b bd3c 0736 9aba db40 f6bb
000001b0: eb5f e83b eed7 9dbc d7cf ed3c 9e52 863c
000001c0: 03bd 843c b11b 26bc 2ed4 cb3a 67e9 9f3c
000001d0: ce98 043c a8f4 893b fa5f 613c cf8a d03a
000001e0: 8e83 96bb f326 d13c 0742 2ebd abce 03bb
000001f0: f39c 423c 14ce e3b9 d176 a0bc 3f13 633b
-0.026052069 0.02007803 -0.004226738 0.008626749 0.025514012 -0.013207142 0.011104081 0.011404414
0.006073011 0.026780697 -0.009988098 -0.0065000686 0.0126994345 0.0043652197 -0.03999112 -0.019221691
0.004260467 -0.015806802 0.03737148 0.012568427 -0.021964453 0.015516637 -0.00888684 0.014030945
-0.012011923 0.014369079 0.010308912 -0.01773706 0.008828694 0.0002754762 0.024659181 -0.0052114697
0.02786919 -0.05488368 0.0012783802 0.009058879 -0.0062427735 -0.010499304 -0.013907027 0.050520476
-0.032950357 -0.026759027 0.015016915 0.013541558 0.012757342 0.010799791 -0.02028246 0.009260173
0.009710887 -0.00914671 0.0100182565 -0.0045336755 0.021939388 0.006661254 -0.033253558 0.001509678
-0.016845068 -0.006917483 0.009315812 0.030227393 -0.007826296 0.020080185 0.0055756457 0.0054556876
0.0012301856 0.0032078286 0.020411799 -0.017312942 0.009699173 -0.009107906 0.023873145 0.0184768
0.037200417 -0.02526123 -0.021018926 0.010394299 0.031276483 0.013253034 -0.013725503 -0.007513433
0.034000482 0.009082284 0.008235235 0.018899716 -0.034814954 -0.010010561 0.024380442 -0.04837216
0.029766396 -0.0051249694 -0.002284123 -0.024286043 0.019844968 -0.011743896 0.009932541 0.014175412
0.0053505506 2.4618148e-05 -0.011067863 0.024301415 0.008044187 0.00915128 -0.013349136 -0.00017161398
-0.009233288 0.023122638 -0.0011765369 -0.0075150556 0.0070915124 -0.019268002 0.02902977 0.016396817
0.016203409 -0.010138438 0.0015550905 0.019520475 0.008093072 0.0042100735 0.013755793 0.0015910509
-0.0045933193 0.025531268 -0.042543437 -0.0020112197 0.01187824 -0.00043450354 -0.019587906 0.0034648923

bn1.running_mean f4 [128]
00000000: c0d0 64bd 3528 b2bd 3c29 3c3e deed f0bd
00000010: da77 b5bb d645 053e ad32 56be 8402 d6bd
00000020: 782f d03d a6ce 583e 7e2f 1cbd 72bf 103e
00000030: 53a5 d8bd d60e 653d 937a 143d 63c1 f6bc
00000040: 34ca 4c3e 64ec f9bc 2982 fc3d 68d1 cb3b
00000050: 9b4e 08be d37e 13be 9a4b 42be 7570 d93d
00000060: b187 593a 8f47 20be 2b5c 7fbd f13a 153e
00000070: 1a3b eebd 43eb 453d 6541 9dbd 68fa 293e
00000080: caec c5bd a3f0 f93c bb90 633d 87a5 033e
00000090: 1460 2f3e 27cd 363e 1ba1 373d f851 37be
000000a0: 36be 87bd da54 e4bd 08ed 05be c05f f13c
000000b0: 660a 1b3e 94e3 2f3e 507f be3d cccc 5e3d
000000c0: e628 8ebd 3f19 473e 3e16 c93d 980a 413d
000000d0: b1ad f63d bf04 353b b5d2 4a3e 838a 92bd
000000e0: 9882 1b3e 4e23 03bd ec64 94bd 4b60 2b3e
000000f0: 6223 4e3c 50ef ce3d f93a 60be 83fb 8a3d
00000100: d2ea bdbd d61e c73c ab8e 133e ae96 223c
00000110: 8cd1 3c3e 4d6b 1ebe 3025 263d a4c6 9dbb
00000120: 2e88 4bbd 9134 abbd 4410 3d3d e10f e73d
00000130: fb83 a6bd 4016 173d 1f70 1dbe 5b15 583e
00000140: 74fc 183d 6697 513c c7de f13d 4f57 dfbc
00000150: 3036 9cbc 5f4f d43c 5edf e3bd e6ea 743e
00000160: 318b 16be d680 5b3c a33d e83d 06cc 3d3e
00000170: 127a 30be 1584 d63b c23c d1bd 5c38 04be
00000180: 60ce f63a f1d6 0a3c 3dda 8fbd bcc8 16be
00000190: 29e9 063d a995 52be d1bc e33d 332b b83c
000001a0: c2be 993d 3daa 0cbe bbeb b5bd 5ad9 ad3d
000001b0: 8206 973c 4b9e 0a3e 8b23 693d 0205 93bd
000001c0: d64b 02be 80a2 1c3c 2b57 143d b429 67bd
000001d0: 67c4 d73d dc8b b63d ad46 b53d 4f0c 13be
000001e0: 406e 533d c62b debd 6d02 2a3e 94bd e83d
000001f0: 1dd2 bebd 7219 febd f487 fabd 9e4f 92bd
-0.055863142 -0.08699075 0.18375105 -0.117641196 -0.005537969 0.13014922 -0.20917769 -0.104496986
0.10165304 0.2117258 -0.03813123 0.1413553 -0.10578408 0.05592235 0.03624971 -0.03012151
0.1999901 -0.030508228 0.123295136 0.0062200315 -0.13311236 -0.14403848 -0.18974152 0.106171526
0.00082981127 -0.15652297 -0.062343758 0.14573266 -0.116323665 0.048320066 -0.07678489 0.16599429
-0.096643046 0.030510252 0.055557948 0.12856112 0.17126495 0.17851697 0.044831377 -0.17902362
-0.06628077 -0.11148997 -0.13078701 0.029464602 0.15140685 0.17176658 0.09301627 0.05439453
-0.069413945 0.19443224 0.098186955 0.047129244 0.12044848 0.0027621237 0.19806941 -0.07155325
0.15186536 -0.03201609 -0.07245812 0.16735952 0.012581678 0.10104239 -0.21897496 0.06786253
-0.09273304 0.024306696 0.14409892 0.00992362 0.18439311 -0.1547062 0.04056281 -0.0048149396
-0.049690418 -0.083596356 0.04615809 0.112823255 -0.08130642 0.036886454 -0.15374802 0.21101896
0.037350133 0.012792444 0.118100695 -0.027263312 -0.019068807 0.025916753 -0.11126588 0.23917732
-0.14701535 0.013397416 0.11339881 0.1853486 -0.17234066 0.006546507 -0.10216667 -0.12912124
0.0018829815 0.008474098 -0.070240475 -0.14725012 0.032937203 -0.20564903 0.11119998 0.022481536
0.07507087 -0.13736816 -0.08882853 0.08488722 0.01843572 0.13536946 0.056918662 -0.071786895
-0.12724242 0.009560227 0.036215942 -0.056436256 0.10535508 0.08913395 0.08851371 -0.14360164
0.051618814 -0.10848193 0.16602488 0.11364284 -0.0931742 -0.12407197 -0.12232962 -0.07144092

bn1.running_var f4 [128]
00000000: 1c24 0c3f aa19 153f ecf5 053f e58e 153f
00000010: 8cd1 f03e d484 193f 3f1a 373f 492c 323f
00000020: a606 4f3f f9ca a83f 1154 2b3f d523 433f
00000030: 3378 193f 3eb6 683f 0308 e73e 0bfb a83e
00000040: ca8b 673f e217 0c3f e5f8 9e3f 2ba7 113f
00000050: 6675 3d3f a97c 483f 992b 7b3f 51a1 213f
00000060: 002f c43e 5ead 1d3f 107d 093f 5838 0c3f
00000070: f3f1 193f f996 e13e 349c d53e 66cb 183f
00000080: f986 693f 7391 f83e 7611 313f 59c8 2d3f
00000090: ffd8 803f be66 8b3f 3bb8 fe3e 9bd2 3d3f
000000a0: 2192 453f 886b e53e ea1e 423f 738f 9d3e
000000b0: c110 593f b258 5c3f 24d6 133f a8ce e53e
000000c0: 2c2e 0c3f 5556 8a3f 2a2e 503f 053e c73e
000000d0: dfc5 6a3f b97d 1d3f 0c31 023f 0955 0d3f
000000e0: 3530 763f 96ae c53e 5bfe 4b3f 316f 833f
000000f0: d68b ca3e 54c0 5e3f 6b01 0d3f 00f9 403f
00000100: f926 2a3f c414 083f c850 5a3f 7a25 333f
00000110: 032e 3b3f 5434 383f 2250 003f ca1e bf3e
00000120: 3361 1d3f c282 3d3f 5b16 f53e 8c06 463f
00000130: 89fd c53e 1f9f 153f 989b 5a3f f770 b63f
00000140: 2b69 0a3f 02f9 f33e 74d1 353f 2b45 d73e
00000150: 466c 3b3f 102e 0f3f b4cd 303f 7bd8 203f
00000160: 03d4 f13e 15e8 f33e 8693 663f 57cb 583f
00000170: 8e9c 4c3f 0761 133f 80d5 413f eef7 853f
00000180: f67f 903e 3100 333f 2b4b 453f c869 1e3f
00000190: f6af e73e 3d88 963f 048d 163f b190 da3e
000001a0: 4ea7 043f beb5 003f c9aa 5e3f c2e4 883f
000001b0: 4dbd e23e aa7d be3f 5624 2b3f bdee 4e3f
000001c0: 0911 f73e 60f3 123f a3eb be3e d05f 163f
000001d0: 7ebc 373f 0a75 0e3f 21e2 723f 9dfe 6d3f
000001e0: 2027 5c3f e2e0 023f d163 a83f efd0 3b3f
000001f0: a853 3f3f c241 4b3f ab87 803f 5e93 f93e
0.547426 0.58242285 0.5232837 0.58421165 0.47034872 0.59968305 0.71524423 0.69598824
0.8086952 1.3186942 0.6692515 0.7622655 0.59949034 0.9090308 0.451233 0.3300403
0.90447676 0.5472394 1.2419707 0.56895703 0.7400726 0.78315216 0.981134 0.63136774
0.38317108 0.6159266 0.53706455 0.54773474 0.6013481 0.44060495 0.41720736 0.5968536
0.91221577 0.4854847 0.6916727 0.6788383 1.0066222 1.089073 0.49749932 0.74149483
0.771761 0.44808602 0.7582842 0.30773506 0.8479119 0.8607284 0.5774863 0.4488423
0.5475795 1.0807596 0.8132044 0.38914505 0.9170818 0.6151996 0.5085609 0.5520788
0.9616731 0.3860976 0.7968499 1.0268308 0.3955981 0.8701222 0.5508029 0.75379944
0.6646572 0.53156686 0.8527951 0.6997906 0.73117083 0.71954846 0.5012227 0.37328178
0.6147644 0.74027646 0.47868618 0.7735374 0.38669994 0.58445925 0.8539367 1.4253224
0.54066724 0.47650915 0.71022725 0.42044958 0.7321209 0.5592966 0.6906388 0.62830323
0.47232065 0.47638002 0.9006885 0.8468527 0.79926383 0.57569927 0.757164 1.0466287
0.28222626 0.6992217 0.7706782 0.6188016 0.45251435 1.1760327 0.5880892 0.42688516
0.51817787 0.50277317 0.8697935 1.0694811 0.4428505 1.48821 0.6685232 0.80833036
0.48255184 0.5740261 0.37289152 0.5873995 0.7177199 0.5564734 0.94876295 0.92966634
0.859972 0.51124394 1.3155462 0.7336568 0.74737024 0.79397213 1.0041403 0.48745245

hidden2.weight f4 [128, 128]
00000000: 3f63 993d f751 c0bb db46 8dbd d9a8 2f3c
00000010: 6e51 f93c 35ea 7bbb d9d5 573c 5690 d83c
00000020: ddda 393d 6aac ebbc 28c4 5bbd 29fd 823d
00000030: 6828 b23c 808a 9b3d f30b 4bbd 98b1 d8bc
00000040: a6d4 be3c 479c a53c 8e3a 1ebd 7e8c 1fbd
00000050: b6e1 c6bc ea74 89bd 4a9f 8f3b a4d8 a5bd
00000060: f8e0 f6bc b07e b5ba d545 82bd 221d 333d
00000070: 3c39 823d 42d0 983b 995b c13c e1bd b9bd
00000080: f427 e33b 9d2e 1c3d 5202 18bd 99e0 44bc
00000090: ae6b afbd 123b 213d d875 24bd 2953 02bc
000000a0: 880c 363d 514f 993d 09a2 fc3a ddf4 b63d
000000b0: f7c5 be3c 4e45 abbb 5bf2 913d ee60 b23d
000000c0: ce53 a63d e796 2abd 17d3 42bd 515e 6f3d
000000d0: 057d 36bd 3291 e9bc 99ee 623d 4e25 ae3c
000000e0: 8152 c9bb ef5c 083d b109 133d 9dca b1bd
000000f0: 1218 833d 45e5 f83c 52a2 4b3d 0845 95bb
00000100: 9025 033c 5d07 96bb ba77 20bc f231 aa3d
00000110: 395c 76bd 0ceb 3fbd 925f 9abd 4793 b3bb
00000120: 3305 90bd d55d 893d 8eea 0dbd ae7b 903d
00000130: 48e7 a63d 8c38 69bd 4ca4 98bd 6af2 e6bc
00000140: d485 4dbd 8a41 1f3d a329 6c3d 7698 afbb
00000150: b7a7 9abd bab6 0e3d 576e a43d 2a83 c43c
00000160: 31b2 dfbc 476e 87bd 6051 7fbd 0e9b 2d3d
00000170: 5552 453d cee3 803d b60b b53d ad5f 17bc
00000180: 5709 49bb 9260 9f3c 2ea0 03bd 4a3f a6bc
00000190: 4d15 74bc 653f ca3c 8c90 6cbd cedf a5bd
000001a0: f2f1 b4bd e121 4abb 7af8 a83c b311 733d
000001b0: 7adb 5ebd 65e7 6fbc c3ae 633d c719 d53c
000001c0: 2f2c 26bd 043e 91bd 1db1 72bd ed41 adbc
000001d0: 5e88 ba3c 06ab 863d 30a3 fd3c b63d 8b3d
000001e0: ccae 19bd 982c 9d3b 3ae9 dabc 3b7f 9f3d
000001f0: 3776 4dbc 1a1a 453d 224d 213d 0f61 0ebc
00000200: c4f2 033d 68fa dfbc 68fa 9e3c 49e2 943d
00000210: b721 fd3a 2518 843d 8e01 94bd 5ac6 e839
00000220: 726f 0e3d ced4 be3c 7e41 cc3d bbde 69bd
00000230: 5501 50bd 9f39 c2bc 7b80 803c 8e7b 72bd
00000240: 4e20 5bbc 724d 88bd c673 aabd b71e e0bc
00000250: 71ed d43c bc9f 913d 9881 85bd 1e7e a7bd
00000260: fa84 5b3c ae2d 9d3d ac7f 6d3c e0ff 9d3d
00000270: 9f97 5f3d ec6a 55bb f62c 94bd 8770 ae3c
00000280: fe00 a43d 2a5d 93bd 6a9d a13d 39b2 733c
00000290: 449d 78bc 8bbd 173d 5cb2 a8bc 330d 63bd
000002a0: 56b6 3a3d 87e4 5f3d 1081 55bb 382f 38bd
000002b0: 4090 3fbd cbfe 4ebd 1dba a7bd eba3 14bd
000002c0: 9b8d 79bd 18d9 45bc 59b5 3e3d d982 84bd
000002d0: 8318 ab3c a507 01bc 4c61 23bd 0c58 8fbd
000002e0: 95db 1ebd 936c 5abb 4973 623d 12c2 79bd
000002f0: afdc 5d3c 24c1 b3bd a4a5 ba3d 191b 763d
00000300: 0b2b 5c3c d38f 58bd a12a 703c e384 b13d
00000310: 9814 5ebc 5350 153c 6dc5 de3b 34a8 b6bc
00000320: 9260 f7bc 89d4 be3c 4dc4 723d 3d47 8abc
00000330: 10dd e5bc 0882 c1bd 14b9 4cbd 4551 30bd
00000340: 4a2a 15bd 30e5 84bd fb0c 59bd ba0b 32bd
00000350: 63ce 0b3d 5393 1f3d c612 b1bd f874 863d
00000360: 0218 bdbc 0397 ac3d 51e1 0c3d 9794 253d
00000370: 45a8 923d 714e dcbb 1bf3 183c b217 93bd
00000380: 21fa 08bd bd0b c93c 27da 573d 8e93 943c
00000390: 4bad 98bd 56f2 5fbd b4d9 b6bc 564f ae3c
000003a0: bba4 823c cf7e bb3c 2329 a3bd 5442 513d
000003b0: cde8 c9bd 0a1a 22bd 6fe0 c73c fced 8abd
000003c0: 36f0 50bd 7b1e aa3d 1949 94bd e226 033d
000003d0: 7b30 9dbd 4b20 93bd 6eec 96bc dffc b03d
000003e0: 4b3a 96bd 05cd 563d 3a6e edbc c933 173d
000003f0: b17d 293d a4bc aa3c 28c1 963d 05f0 013d
0.07489633 -0.005869146 -0.0689828 0.010721409 0.030434337 -0.0038439159 0.013173544 0.026436012
0.04537474 -0.028768737 -0.053653866 0.06395943 0.021747783 0.07594776 -0.049571943 -0.02645187
0.023294758 0.02021612 -0.03863006 -0.038952343 -0.02427755 -0.06711753 0.0043830024 -0.080979615
-0.03013657 -0.001384696 -0.06360976 0.043728955 0.06358573 0.004663498 0.023603247 -0.0906942
0.006932253 0.03813039 -0.037111588 -0.012016439 -0.0856546 0.039362974 -0.040151447 -0.007954397
0.044445544 0.074858315 0.0019274364 0.08933423 0.023287756 -0.0052267676 0.07126304 0.08709894
0.08121453 -0.041647818 -0.047564592 0.058439557 -0.04455282 -0.028511617 0.055403326 0.021258023
-0.0061438684 0.033291753 0.035897914 -0.086812235 0.064010754 0.030382762 0.049715348 -0.0045553483
0.008004561 -0.0045785145 -0.00979417 0.083103076 -0.060146544 -0.046855018 -0.0753776 -0.0054802033
-0.07032242 0.0670735 -0.034647517 0.0705484 0.08149582 -0.056938693 -0.07453212 -0.028191764
-0.050176457 0.038880862 0.057656895 -0.005358751 -0.0755152 0.03484223 0.08028858 0.023988325
-0.027306648 -0.066128306 -0.062333465 0.0423842 0.04817422 0.0629345 0.08840124 -0.0092391195
-0.0030675733 0.019455228 -0.03213518 -0.02029385 -0.014897657 0.024688432 -0.05775504 -0.08099328
-0.0883521 -0.0030842947 0.020626295 0.05934305 -0.054408528 -0.014642571 0.055586588 0.026013268
-0.04056948 -0.07091907 -0.05925094 -0.0211496 0.022770103 0.06575589 0.030961603 0.0679888
-0.037520215 0.0047965758 -0.02672254 0.07787939 -0.012540392 0.048120596 0.0393802 -0.008690133
0.03221394 -0.027341083 0.019406512 0.07269723 0.0019312416 0.06449918 -0.07226859 0.00044398272
0.03477425 0.023294833 0.09973429 -0.057097178 -0.05078252 -0.023709117 0.015686264 -0.059199862
-0.013374401 -0.066553965 -0.08322863 -0.027358396 0.025992127 0.07110545 -0.06518859 -0.08178352
0.013398403 0.07674728 0.014495771 0.0771482 0.054587957 -0.003256495 -0.07235138 0.021293892
0.08008002 -0.07195504 0.078913525 0.014874035 -0.015174214 0.037045997 -0.02059286 -0.05543251
0.045584045 0.0546613 -0.0032578148 -0.044966906 -0.046768427 -0.05053596 -0.08189795 -0.036289137
-0.06092606 -0.012075685 0.046559665 -0.0647027 0.020885712 -0.007875358 -0.03988771 -0.069992155
-0.03878363 -0.0033328875 0.055285726 -0.060976095 0.013541385 -0.08777073 0.09113625 0.060084436
0.013437997 -0.052871536 0.014658601 0.08667924 -0.013554715 0.009113389 0.0067984373 -0.022297002
-0.030197416 0.023294704 0.05926924 -0.016879672 -0.028059512 -0.094486296 -0.04998119 -0.043046255
-0.036417283 -0.064890265 -0.052990895 -0.043468215 0.034132373 0.03895886 -0.08646159 0.06565279
-0.023082737 0.08427241 0.034394566 0.04042491 0.07161001 -0.006723218 0.009335305 -0.07182254
-0.033441667 0.02454173 0.05269828 0.018136766 -0.07454928 -0.05467447 -0.022320606 0.021278065
0.01594769 0.022887615 -0.079668306 0.051088646 -0.09858856 -0.039575614 0.02439901 -0.06783673
-0.051010333 0.08306595 -0.07240505 0.032019503 -0.076752625 -0.07183894 -0.018423285 0.08641981
-0.07335337 0.052441616 -0.028983224 0.03691462 0.041379634 0.020841904 0.073610604 0.03172304

bn2.weight f4 [128]
00000000: 3710 803f c8aa 7e3f f1fd 7f3f 14b3 7d3f
00000010: 0fb1 7f3f 3078 7e3f 1f60 7f3f 88c6 7d3f
00000020: 8dad 7f3f 9510 7e3f 8c0d 803f 4b7a 7f3f
00000030: a83a 7f3f 792b 7e3f d48b 7e3f c3c3 7f3f
00000040: afa2 7f3f c5b6 7e3f 9038 7f3f 2b43 7e3f
00000050: 1319 803f 15b6 7f3f f446 7f3f 1ac2 7f3f
00000060: 5067 7f3f 217a 7f3f 4196 7e3f ec8b 7f3f
00000070: a875 7f3f 4d2f 803f 8026 803f 2e78 7f3f
00000080: 1eb1 7e3f 0391 7c3f 28da 7e3f 2fcf 7f3f
00000090: fcf1 7e3f 9c0a 803f 6db0 7e3f bb31 7f3f
000000a0: 6f9d 7f3f 8f0e 7f3f 9392 7f3f a6e5 7f3f
000000b0: 04e9 7e3f db14 803f 1010 803f 3d8c 7d3f
000000c0: f500 803f 350b 803f dd74 7f3f e36d 7e3f
000000d0: 6089 7f3f 8800 803f bf6f 7e3f 308b 7d3f
000000e0: 13a6 7f3f 55a0 7d3f 0540 7e3f d05e 7e3f
000000f0: 5704 803f 1520 803f 4b18 7f3f dd16 7e3f
00000100: c297 7f3f d451 7f3f 14c1 7f3f 1d4b 7f3f
00000110: a598 7f3f 86d7 7e3f 1a30 7f3f 1e11 803f
00000120: dee0 7f3f b7cb 7e3f 021a 7f3f 0a01 7f3f
00000130: b243 803f 2ff8 7e3f 45ae 7e3f 3278 7d3f
00000140: 31c1 7e3f 3537 7e3f 7534 803f 742d 803f
00000150: 1237 7f3f 7ad8 7f3f 0264 7f3f 1b0a 803f
00000160: 621a 7f3f 5dd7 7f3f 5af1 7f3f fe1c 7f3f
00000170: 8bd0 7f3f 5ded 7e3f 5d9f 7f3f 85cc 7e3f
00000180: ab39 803f f225 7f3f c4ff 7e3f b5d5 7f3f
00000190: c159 7e3f 73db 7d3f 0d81 7f3f d4ef 7f3f
000001a0: bbe1 7f3f 9bc1 7f3f 8030 7f3f a132 803f
000001b0: 86f8 7f3f e8dd 7f3f aadd 7f3f 2f28 7e3f
000001c0: 10a6 7f3f 6ba5 7f3f 4fa3 7e3f 2cdb 7f3f
000001d0: c304 803f c260 7f3f 33c9 7e3f 05d8 7f3f
000001e0: 2fa0 7d3f 2b2a 7f3f 8e85 7f3f b91b 7d3f
000001f0: 0906 803f a40c 803f 6312 803f fdcb 7b3f
1.0004948 0.9947934 0.9999686 0.99101377 0.99879545 0.9940214 0.99756044 0.9913106
0.9987419 0.9924405 1.0004134 0.9979598 0.9969888 0.99285084 0.9943211 0.99908084
0.9985761 0.99497634 0.9969568 0.9932124 1.0007652 0.9988721 0.9971764 0.9990555
0.9976702 0.9979573 0.9944802 0.9982288 0.99788904 1.0014435 1.0011749 0.99792755
0.9948901 0.9865877 0.9955163 0.9992551 0.9958799 1.0003238 0.99487954 0.9968526
0.998496 0.9963159 0.9983303 0.9995979 0.99574304 1.0006365 1.0004902 0.9904211
1.0000292 1.000342 0.99787694 0.99386424 0.9981899 1.0000162 0.9938926 0.9904051
0.99862784 0.9907277 0.99316436 0.9936342 1.0001324 1.0009791 0.99646443 0.99253637
0.9984094 0.99734235 0.9990399 0.9972399 0.9984229 0.9954761 0.9968277 1.0005224
0.99952495 0.99529594 0.9964906 0.9961096 1.0020659 0.9959745 0.99484664 0.9901153
0.99513537 0.9930299 1.0016009 1.0013871 0.99693406 0.9993969 0.99761975 1.0003084
0.9964963 0.99937993 0.9997765 0.99653614 0.99927586 0.9958094 0.99852544 0.9953082
1.0017599 0.99667275 0.9960902 0.99935466 0.99355704 0.9916298 0.9980629 0.99975324
0.9995381 0.99904794 0.9968338 1.0015451 0.9998859 0.9994798 0.9994761 0.99280065
0.99862766 0.9986178 0.9946794 0.99943805 1.0001453 0.99757016 0.99525756 0.99938995
0.99072546 0.9967372 0.99813163 0.98870426 1.0001842 1.0003858 1.0005611 0.98358136

bn2.bias f4 [128]
00000000: 25e5 ad3a 7dc0 b3bc 5d56 a1bb 04b9 c03c
00000010: 728a 7e3b 5ae7 8f3c 1309 c7bb c03d 9fbc
00000020: bc1f e1bb a6ac 923c b4bd 943b e15a 543c
00000030: ad5f 4c3c 0bc2 ab3c d635 4f3c b898 13bc
00000040: d715 0ebc 42d1 8e3c 75b8 10bc 31e6 c4bc
00000050: e221 9c3b fbcf 02bc 6a87 0bbc 4577 82bb
00000060: 74a6 143c 561e e1bb 3960 74bc 8034 1ebc
00000070: 17fa b1bb 67db 9f38 0b06 673b bd3c e9bb
00000080: 731d 833c 4290 ab3c 40c6 7c3c cd25 d7bb
00000090: 7847 733c 82d5 78bb 0679 a53c 8c18 2b3c
000000a0: 3411 133c cdad 56bc 49fa e93b c2be d3ba
000000b0: 7bd7 613c 0cae fa3a d6a3 61ba 040f 6b3c
000000c0: 926e 2fbb 7ee6 cf39 1cbf 063b 932e 66bc
000000d0: 63d0 233b edd1 ddbb 656c 6ebc d46f b5bc
000000e0: ad89 093c 5f50 8e3c 4896 b83c 9b69 bc3c
000000f0: 9b09 243b 84e1 5bbc 77a3 5ebc 822c ab3c
00000100: a1f2 6dbc 0c98 87bc 31fc 40bb b2ed f0bb
00000110: 8ddb 7fbc 00e6 49bc e72f 3bbc 1e68 24bb
00000120: f22f 8ebb 59d7 a83b 2621 88bb 307b 623c
00000130: d09f ddba acbc b5bc efb0 4c3c f825 9abc
00000140: 42da 49bc f521 a33c 8e8a 3cbb 8701 11bc
00000150: 8f62 88bc ec08 1dbb 81bc afbb 792d 113c
00000160: 5f00 6dbc a5c1 27bc 7c57 cd3b b519 50bc
00000170: 0d76 7a3b 70ef a13c 6e91 7b3b 4544 3a3c
00000180: 5ebb 22ba dd95 df3b 74a3 403c 0ac1 a63b
00000190: 0658 533c 6462 9fbc 794b 26bc eabc 90bb
000001a0: 489b 003c 04dc 1f3b c763 1bbc 13df 6e3a
000001b0: 56ff b9bb 1cd4 053b 140a 5aba 1e4f 88bc
000001c0: 6c01 623b 96a4 b1bb 2075 e0bb 82e4 0b3c
000001d0: b121 143b b1da 043c 4f62 0f3c a9e6 6ab8
000001e0: 98b9 b2bc 8f69 05bc 8345 a63b 91c1 c9bc
000001f0: 8d99 233b 8fc1 713b c850 a839 5a97 11bd
0.0013267143 -0.021942372 -0.0049236254 0.023525722 0.0038839844 0.017566372 -0.00607408 -0.019438624
-0.006870238 0.01790459 0.004539216 0.01296112 0.012473983 0.02096655 0.012647113 -0.009008579
-0.008672199 0.017433766 -0.0088330405 -0.024035545 0.0047647813 -0.007984157 -0.008516172 -0.003981503
0.009072889 -0.0068700714 -0.014915519 -0.009656072 -0.0054314244 7.622578e-05 0.0035251405 -0.0071178363
0.016005253 0.02094281 0.015428126 -0.0065657855 0.014848582 -0.0037969057 0.02019931 0.010442864
0.0089762695 -0.013102961 0.007140432 -0.0016154873 0.013784285 0.0019125356 -0.00086074823 0.014346842
-0.0026768786 0.00039653847 0.0020560687 -0.01404919 0.0024996034 -0.00676941 -0.01455221 -0.02214805
0.008394641 0.017372308 0.022532597 0.022999575 0.002503014 -0.013420466 -0.013588778 0.020895246
-0.014523179 -0.016551994 -0.0029447193 -0.0073525542 -0.01561631 -0.012322903 -0.011424995 -0.0025086473
-0.0043392116 0.0051526246 -0.004154342 0.0138233155 -0.001690859 -0.022184692 0.012493356 -0.018816933
-0.012320103 0.019913653 -0.0028769108 -0.008850462 -0.016648559 -0.0023961617 -0.0053630476 0.008860939
-0.0144654205 -0.01023904 0.0062665325 -0.0127014415 0.0038217336 0.019767493 0.0038386243 0.011368816
-0.00062077295 0.006823285 0.01175772 0.00508893 0.012899404 -0.019456096 -0.01014983 -0.0044170516
0.007849522 0.0024392614 -0.009484238 0.000911222 -0.0056761904 0.0020420616 -0.0008317542 -0.016639289
0.003448571 -0.0054212315 -0.0068499 0.008538367 0.002260309 0.008108781 0.008751466 -5.6004767e-05
-0.021817014 -0.008142843 0.0050742044 -0.024628432 0.002496335 0.0036889052 0.00032103644 -0.03554473

bn2.running_mean f4 [128]
00000000: c267 f93c 0544 9ebc eee0 43bd df06 883d
00000010: 56d1 16bc 6b30 793d eda7 b3bc 126b 2bbd
00000020: d2ea 0e3b c598 ba3c 40fe cdbb c974 793d
00000030: 61d8 e03b f06f 443d 6333 673d ea06 683a
00000040: 64e4 2dbd 2398 093d c679 d2bc 5cb2 16bd
00000050: 9875 4fbc 26ad 57bb 6bd9 81bd 06d8 13bd
00000060: cf11 ab3c fc75 b6bc 803e 06bd df9e b7bc
00000070: ff27 74bc 4173 5d3c c54a a73c cd11 73bd
00000080: 88a1 353d af4b 23bc e5cb aebb 0765 2f3c
00000090: 750d 953d b6d4 343c d9a3 983d 6e2a 883c
000000a0: 593e 233c 265b 97bc b19e 0d3d 7a98 2ebc
000000b0: a9c2 393d 11eb 5c3d 089b 21bc ad6c 873c
000000c0: 3c1a 913c 1298 34bd cc03 c43c 1073 4639
000000d0: 17fa 593d 26ea 92bd 71c4 0b3c 9dd7 c9bc
000000e0: 3659 053c 3c1a 963c e8df 613c 293f 1e3d
000000f0: 2ef6 673c 56fb cf3b 241e 4abc 6bf1 7a3d
00000100: be56 9bbd 7cbf 67bd f90e 2cbd c283 69bc
00000110: 9837 11bd 163e 18bd ba93 e1bc 3c6a 22bd
00000120: 85cb b4ba 0c6f 6dbc a59c 25bd 177c 833d
00000130: e7d7 623d d68e 74bd 6c31 0c3d 347e dabc
00000140: bd8f 72bd fd2d ca3c 0f1b dfbc 22fa fbbc
00000150: fdb2 31bd 96b1 6e3c 0358 d9bb 5760 e8bb
00000160: 0d0d 32bd d462 a73a 5aae 453d 066b a1bc
00000170: bcb6 0d3d 9a9f 8a3d 71ba 8ebc 8054 633d
00000180: 90fd 8ebd ec73 a83c 91d9 06bc a2b9 e3ba
00000190: 35ce f43c 01b7 54bd 20ea d7bc adf1 bdbc
000001a0: 7b90 7a3d 59b9 f6bb 376a c4bc 9680 753c
000001b0: d00a 0bbc 8c73 a03c 1921 93bc d887 bebc
000001c0: f86c f2bb b802 6cbd 0714 c0bb f4e2 1f3d
000001d0: ad24 f93c 1787 573c 6f09 dc3c e210 23bd
000001e0: a56d adbc bb88 53bb 18f6 6a3c 9ed3 ddbc
000001f0: 7575 363d a1df 393c 2f2f 53bc 0a9c 58bd
0.030444983 -0.019319544 -0.04782193 0.066419356 -0.009205183 0.06083719 -0.02193066 -0.041850157
0.0021807444 0.022777924 -0.0062864125 0.06090239 0.006861732 0.047958314 0.05644549 0.0008851128
-0.04245414 0.033592355 -0.025692832 -0.03679119 -0.012662314 -0.00329096 -0.06340297 -0.036094688
0.020882515 -0.022273056 -0.03277445 -0.022414623 -0.014902114 0.013516248 0.020421395 -0.059343148
0.0443435 -0.009966775 -0.0053343647 0.010705239 0.07277957 0.011037042 0.074531265 0.016621795
0.009963595 -0.01847608 0.034575168 -0.01065647 0.045351658 0.053935114 -0.0098636225 0.016531313
0.017712705 -0.044090338 0.023927592 0.00018925616 0.05321702 -0.071735665 0.008530722 -0.024638945
0.008138945 0.018323056 0.013786294 0.038634453 0.014157815 0.0063471003 -0.012336288 0.06126539
-0.07584904 -0.056579098 -0.042006467 -0.014252605 -0.03545341 -0.037168585 -0.027536262 -0.039652094
-0.0013793564 -0.014491808 -0.04043259 0.06420153 0.05538168 -0.05970653 0.03422682 -0.026671506
-0.05921911 0.024680132 -0.027234582 -0.030758921 -0.043383587 0.014568707 -0.0066328063 -0.0070915627
-0.043469477 0.0012770542 0.048261978 -0.019704353 0.034598097 0.06768723 -0.017422887 0.055500507
-0.06981957 0.020563088 -0.008230583 -0.0017374048 0.029883483 -0.05193234 -0.026356757 -0.023186529
0.061172944 -0.0075294194 -0.023976428 0.014984271 -0.008486465 0.019586347 -0.017960118 -0.023258135
-0.007398244 -0.05761978 -0.0058617624 0.0390348 0.030412996 0.0131547665 0.026859967 -0.039811023
-0.021170447 -0.0032277543 0.0143409 -0.027078446 0.04454561 0.011344821 -0.012889667 -0.052883185

bn2.running_var f4 [128]
00000000: 2060 3d3e 082f 593e d70d 6d3e 5176 593e
00000010: d4b6 2d3e 4324 873e 1318 113e 5a0c 743e
00000020: aefb 4b3e 2e72 263e dcfe 193e 8c3d 473e
00000030: 4a28 123e 9d0b 463e bcc6 5a3e 8860 193e
00000040: e1e2 0d3e 3357 3a3e a989 2e3e 77b9 4f3e
00000050: 660c 313e a04d 1e3e 97f7 4b3e efaf 363e
00000060: 4b56 233e 5281 713e a5cf 303e b829 443e
00000070: 34a2 553e b888 3d3e a1fb 203e 36d1 713e
00000080: 6323 573e dbcf 6d3e 720f 3d3e 00c7 413e
00000090: e042 613e a456 1b3e 99db 633e 74f5 663e
000000a0: 3631 0d3e 9c59 253e da43 863e 4693 133e
000000b0: 6475 573e d9fa 7b3e aa85 4d3e 8156 1a3e
000000c0: 6483 723e 520c 653e 5c24 2e3e 1cb7 163e
000000d0: 5dfe 713e 6a2f 903e f375 0e3e d964 493e
000000e0: 71cc 653e c3f6 3b3e 38e4 463e 754d 243e
000000f0: c14d 423e 5a9d 633e 6df1 213e c37b 143e
00000100: d96a 883e b6b8 7d3e 8762 253e 4634 713e
00000110: 2e73 693e ec62 583e 88bc 423e 1102 5a3e
00000120: cbcd 353e 01e4 3c3e b609 323e 13c3 963e
00000130: bedb 933e 2a42 813e a0ec 303e 33ae 343e
00000140: d68b 903e 7cc3 2e3e ce8f 3b3e 6d64 543e
00000150: 5f60 413e b034 5e3e a81a 4e3e 3b18 5a3e
00000160: 64b1 5c3e feb4 6a3e 01a3 5f3e 2a70 3e3e
00000170: 502e 573e 5198 743e 2cf6 263e 4321 813e
00000180: 6e37 563e 1192 7d3e 4697 513e 501d 2e3e
00000190: 4131 213e 5cf4 593e 0232 513e e1e3 4d3e
000001a0: a7ee 8e3e 7afb 153e 4246 3e3e 5c0d 4c3e
000001b0: 3d5b 453e ce82 103e 44fc 183e 9d62 4b3e
000001c0: 267f 3c3e cf89 403e 94e9 583e 967b 2e3e
000001d0: e40b 323e 511e 1c3e 574a 233e eecc 5e3e
000001e0: a74a 503e 23eb 1d3e 5d05 3f3e 9cc2 493e
000001f0: e707 893e 918b 633e b352 6a3e d771 6c3e
0.184937 0.21209347 0.2314981 0.2123654 0.16964275 0.26394853 0.1416934 0.23832837
0.19920227 0.16254494 0.15038627 0.19457072 0.14273182 0.19340368 0.21364874 0.1497823
0.13856079 0.18197326 0.170447 0.20285593 0.17289886 0.15459299 0.19918667 0.17840551
0.15950887 0.23584488 0.1726671 0.1915654 0.20862657 0.18509185 0.15720989 0.23614964
0.21009593 0.23223822 0.18462923 0.18923569 0.21998167 0.1516977 0.22251739 0.2255457
0.13788304 0.16147465 0.26223642 0.14411649 0.21040875 0.2460741 0.2007052 0.15072061
0.23682934 0.22367981 0.17006058 0.14718288 0.23632188 0.28161174 0.13912182 0.19667377
0.2244127 0.18355851 0.19422996 0.16045173 0.18974973 0.22227994 0.15814753 0.14500336
0.26644018 0.24777493 0.16150866 0.23555097 0.22797844 0.21131486 0.19017231 0.21289851
0.17754285 0.18446352 0.17386517 0.29445705 0.28878587 0.25245792 0.17277765 0.17644577
0.28231686 0.17066759 0.18316576 0.20741434 0.18884419 0.21699786 0.20127356 0.21298306
0.21552044 0.22920606 0.21839525 0.18597475 0.2101376 0.23886229 0.16304845 0.2522069
0.20919582 0.24762751 0.20467862 0.1700337 0.15741445 0.21284622 0.20429233 0.2010646
0.27916452 0.14646712 0.18581489 0.19926971 0.19273086 0.14112398 0.14939982 0.19861837
0.18407878 0.1880257 0.21182853 0.17039332 0.17387348 0.1524594 0.15946327 0.21757862
0.20340978 0.15421729 0.1865439 0.19703144 0.26763842 0.22221209 0.2288311 0.23090301

hidden3.weight f4 [16, 128]
00000000: 7881 9abd 72e0 85bd 4c7e 06bd 6342 4dbd
00000010: 36b5 823d e2ff 4ebd 7709 0dbd 4c9c 743d
00000020: 13ae 81bd 4a1d 4c3d e4ab bebd 415b 85bd
00000030: 884d 8dbd de7f 29bd 31e1 4e3d 3217 bc3c
00000040: 8229 2439 63b7 8b3d 1c0c 8fbd 1dbd c2bc
00000050: cf5f 3b3d 0703 f33c f36c 1abd 5bc6 803d
00000060: 7533 96bd 6e44 873d 1a4e 823d ee6c 7b3d
00000070: 5e55 543d ed7f 16bd c929 19bd 4c50 68bd
00000080: 2bbf 493c b499 a03c 5f59 3e3c d7ce 15bd
00000090: de21 09bd e6b3 133c 3635 173b 9435 b13d
000000a0: f0ea 98b9 2145 813b 3912 b2bd 0e02 be3c
000000b0: 2a74 33b9 ae35 b8bc 048d 673d a98f cbbc
000000c0: 8781 57bc edc7 a83b fc1e 6f3d 0712 103c
000000d0: f120 4b3d d49d a53d 2133 583c 8606 c83c
000000e0: d54e 98bd 0beb 2cbd c1e9 9dbd a001 8c3b
000000f0: 479c 00bd 3b41 f0bb 3267 7bbd 6871 893c
00000100: 675a 123d 814d 89bd df47 843d 9fcb 81bd
00000110: d633 69bd d1fd 943d 7478 3a3c 96dd 85bd
00000120: f219 9a3d bed6 3cbc 9457 40bd 39f5 5d3d
00000130: de15 bdbd ad11 fabb a702 eebc 056c be3b
00000140: f77f 433d b26a 83bd bfba 343d 5d98 a8bb
00000150: 1493 59bd a096 823d f44b a3bd 0397 38bc
00000160: ceab 183d 3571 10bd 036d afbd 76f6 0a3d
00000170: 6a7d b23a 65e7 323d 0a42 763c 9013 97bd
00000180: 7538 9c3d 1031 ecbc 8e0f 8cbd d5f8 9cbd
00000190: f38c 2cbd 6f6d 8abd 38a1 75bd 2c54 7a3d
000001a0: 5bbb f63c c674 df3c 9e60 5db9 69ec 723d
000001b0: d13a 07bd d940 a3bd 62d7 02bc 6453 443a
000001c0: 7fa5 3ebd d73f 3abd 3b44 763c f985 4ebd
000001d0: f13d 563b e018 013c 2f01 8dbd 76ff c73d
000001e0: c57e 463d a508 213d 414d a1bd 8ebf 10bb
000001f0: 411a 2fbd 94ea 3ebd 482c 093c f40d 033d
00000200: 5eae 283d e079 93ba 5199 8b3d 3065 a9bd
00000210: 4c98 f4bc 7471 65bd 0d4e 533d 0cfa d7bb
00000220: 9ffe 1a3d 709d 41bc 045d 00bd f97c 613d
00000230: c3a4 d3bd 1539 02bd 9ad0 19bd 078b 033c
00000240: b0ae 833c 3721 8abb 84e7 aa3a 010c 2bbd
00000250: 40fd 58bd f25f f23c 59f6 4d3d 69f8 f1bc
00000260: 2e51 b4bd 08cd aa3d e86b 483d f81d ae3c
00000270: 3abf 563a 0efa 2fbb c7b5 153d 7811 aabd
00000280: 4ebf a8bd 81e7 a3bd 61b4 f8bd e57e a23d
00000290: bead 82bd 10ca df39 8a93 323d 3765 77bd
000002a0: a598 d1bb a652 95bd e57c b73c 798e 9dbb
000002b0: f62e a03d cc6d 893d 5b06 08bd b921 a7bd
000002c0: 1c56 d63d 7530 6cbd cad2 9fbd 6fad 7c3d
000002d0: 1a4d 95bb 7870 a03c 277d ed3c 87bb 71bc
000002e0: 3817 ccbc 0890 0c3d aa96 ad3d 5915 d6bc
000002f0: 48e3 12bd 7de9 5d3c 62a1 fe3d 74af 81bd
00000300: 32cf 65bd 61ed 893d 7171 83bd 72c6 263d
00000310: 1961 853d fdd5 06bd cbe2 31bd 9789 ae3c
00000320: 5ab8 2ebd f4b1 c0bb d60e 413c 655d 323c
00000330: 933d 983d 1239 31bd 02e1 18bd 243d 1cbc
00000340: b9af 5dbd 77fe 72bd cacc 90bd fbdf 21bd
00000350: 6da3 14bd 8aec 3f3c 398b 373d 60fd 81bc
00000360: 7311 2f3d baba 913d 870e 083d 70f9 8b3d
00000370: 7d9a dabd 25f0 84bd 662d 6c3d e4d4 a2bc
00000380: 73fa 32bd 0a0a 86bd 0b5e 863d 30cb 8abd
00000390: b06f 7b3c 358f 8c3d 86e5 133d eaaa ac3c
000003a0: 610e 1abc 03c2 873b d14f e8bc ddc7 8b3d
000003b0: aa8d ea3b 6c22 083d b695 aa3c bbda 40bd
000003c0: c2dc c43d 53e0 c9bb 4637 d7bc 5051 263d
000003d0: 1a62 ef3c 0663 2cbd dd1a 79bd ec42 acbc
000003e0: 08c2 18bd 3fe4 253c e329 0c3d ddc6 1e3d
000003f0: f091 9cbc 0ec0 903c efc9 e63d 1253 d1bb
-0.075442255 -0.0653695 -0.03283529 -0.05011214 0.063822195 -0.050536998 -0.034432855 0.05971937
-0.0633203 0.04983262 -0.09310129 -0.06511546 -0.068995535 -0.04138171 0.050507728 0.02296028
0.00015655722 0.068220876 -0.069847316 -0.023771817 0.045745667 0.02966453 -0.03770156 0.06287833
-0.073340334 0.06604849 0.06362553 0.06138318 0.051839225 -0.036743093 -0.037393365 -0.056717202
0.012313644 0.019604541 0.011617987 -0.03657421 -0.033479564 0.009015059 0.0023072488 0.08652797
-0.0002916674 0.0039450084 -0.08694882 0.02319434 -0.00017114045 -0.022486534 0.056530967 -0.024848776
-0.01315344 0.005150786 0.05837916 0.008793361 0.049591962 0.08086744 0.013195784 0.024417173
-0.07436911 -0.042216342 -0.07710601 0.0042726547 -0.031399038 -0.007331995 -0.06137771 0.01677771
0.035730746 -0.06704236 0.06459021 -0.06337666 -0.0569342 0.07274974 0.011381257 -0.06536405
0.0752448 -0.011525808 -0.04695852 0.05418894 -0.092326865 -0.0076315016 -0.029054 0.005811217
0.04772946 -0.06416835 0.044123407 -0.0051451162 -0.05311878 0.06376386 -0.07973471 -0.011266473
0.03727322 -0.035264213 -0.08565714 0.03392645 0.0013617699 0.043677706 0.015030393 -0.07376778
0.07627956 -0.028831989 -0.06838904 -0.076646484 -0.042126607 -0.06759154 -0.059968203 0.06111543
0.030118635 0.027277362 -0.00021112195 0.05930749 -0.033015076 -0.07971353 -0.007985922 0.0007489233
-0.046544548 -0.04547104 0.015030916 -0.050420735 0.0032690729 0.007879466 -0.068849914 0.09765522
0.04846074 0.039314885 -0.07876063 -0.0022086832 -0.042749647 -0.04661043 0.008372374 0.03199573
0.041181915 -0.0011251532 0.06816352 -0.08271253 -0.029857777 -0.0560164 0.051588107 -0.006591087
0.03784048 -0.011817321 -0.031338707 0.055050824 -0.1033416 -0.03179272 -0.037552454 0.008028752
0.016074508 -0.0042153853 0.0013038968 -0.041759495 -0.052975893 0.029586766 0.050283764 -0.029537397
-0.08804546 0.08339888 0.048931032 0.021254525 0.0008191947 -0.0026851925 0.03655031 -0.08304113
-0.082396135 -0.0800314 -0.121437795 0.079343595 -0.06380795 0.00042684423 0.043597735 -0.06039926
-0.0063963705 -0.072911546 0.022398422 -0.004808244 0.07821457 0.06710395 -0.033209186 -0.08160729
0.10465643 -0.0576634 -0.07803877 0.061688837 -0.0045563104 0.01958488 0.028990341 -0.014754183
-0.024913415 0.034317046 0.084760025 -0.026133226 -0.035861284 0.0135444375 0.12433125 -0.06332293
-0.0561058 0.067347296 -0.064181216 0.040716596 0.065126605 -0.03291892 -0.043429177 0.021305842
-0.04265628 -0.0058805887 0.011783322 0.010886525 0.07433619 -0.043267317 -0.03732396 -0.009536061
-0.05412266 -0.059324708 -0.070703104 -0.039520245 -0.036288667 0.01171411 0.044810507 -0.015867889
0.04274125 0.071156934 0.03321698 0.06834686 -0.106739976 -0.064911164 0.057660483 -0.019876905
-0.04369588 -0.065448835 0.06560906 -0.06777036 0.015346453 0.06863252 0.036107562 0.021077592
-0.009402842 0.004143001 -0.028358372 0.0682523 0.007158001 0.033235952 0.02082334 -0.047083598
0.09612419 -0.0061607747 -0.026271474 0.04060489 0.029221583 -0.042086624 -0.060816634 -0.021028005
-0.037294418 0.010125219 0.034219634 0.03876387 -0.019112557 0.017669704 0.112689845 -0.0063880766

bn3.weight f4 [16]
00000000: 0200 7e3f 33d3 6a3f 3d42 7e3f 2cb0 763f
00000010: 26ee 723f a14e 7d3f 2c44 673f 32c7 7b3f
00000020: f154 6d3f 9a6e 713f 9c46 693f c103 6a3f
00000030: c3b0 773f bc4b 793f c7a2 7e3f a082 7f3f
0.9921876 0.91728514 0.9931982 0.96362567 0.94894636 0.98948103 0.903384 0.9835082
0.92707735 0.9430939 0.91123366 0.9141198 0.9675409 0.97381186 0.9946713 0.9980869

bn3.bias f4 [16]
00000000: 5710 c7bd 50db b3be 04b2 b9bd 86a2 723e
00000010: 0eb0 7e3e cf76 b43d 84d7 cb3e 14d5 163e
00000020: 3d27 bcbe 6308 c2be ab47 be3e a89c 0e3f
00000030: 14a4 66be 6713 2abe 2243 c63d fc88 7b3c
-0.097199135 -0.3512826 -0.09067157 0.2369481 0.24871847 0.088117234 0.39812863 0.1472972
-0.36748686 -0.37897024 0.37164053 0.5570779 -0.22523528 -0.16608964 0.09680773 0.015352484

bn3.running_mean f4 [16]
00000000: bd2a 03bd ad08 5b3b 7a13 1bbd 4ffe 903b
00000010: 6c00 30bc cd66 a53c f06e 583d 3e3f 66bc
00000020: 90ff 8b3c f8e1 a7bd 664e 2bbc ff4f b23d
00000030: 3405 633c 7eb5 c6bc a9d6 453c aad8 8b3a
-0.03202318 0.003342192 -0.03786037 0.004424847 -0.010742288 0.02019062 0.052840173 -0.014053164
0.017089635 -0.08197397 -0.010455703 0.08706664 0.013856221 -0.024256464 0.012075105 0.0010669429

bn3.running_var f4 [16]
00000000: 6c76 b13e 3e33 243f 5a3a c03e bb97 063f
00000010: df7d e83e 6ab0 8f3e 0f20 223f 1d6a c03e
00000020: 36e1 453f fd8b 8d3f 7450 0e3f ffe5 a13f
00000030: e293 c23e 7490 ad3e 5923 873e 553f 5f3e
0.3466066 0.6414069 0.3754452 0.5257527 0.45408532 0.2806428 0.6333017 0.37580958
0.7729677 1.1058346 0.5559151 1.2648314 0.3800345 0.3389927 0.26394156 0.21801503

output.weight f4 [1, 16]
00000000: 0e4f ff3d d689 c33e faab cc3d a074 90be
00000010: 9b6d 87be 6e69 e7bd 9c3d d9be 207a 40be
00000020: 32ae ed3e bcf1 e83e 788a d0be 1f6c 33bf
00000030: 2f5c 843e ad8a 1b3e acaf 0dbd 4c9b 3f3d
0.1246625 0.38191098 0.099937394 -0.28213978 -0.2645081 -0.11299406 -0.42429817 -0.18796587
0.46421963 0.4549693 -0.40730643 -0.70086855 0.2585158 0.1518962 -0.034591362 0.046778962
