models/focal_loss_checkpoints/checkpoint_epoch_270.pth (torch, 100242 bytes, 16 tensors)

hidden1.weight f4 [128, 30]
0.107339025 -0.16104832 -0.056271996 -0.049480382 0.10555213 -0.09490552 0.012896035 0.024776125
-0.0015200297 -0.09950941 -0.14759606 0.19420384 -0.104199536 0.025975581 -0.044812173 0.09221647
-0.2140021 0.049792845 0.16512522 0.23245853 0.0984422 0.034340277 -0.11237993 0.044734776
0.09154017 0.06142453 -0.08001089 0.15674926 0.10617384 -0.07819863 -0.1798488 0.0017234301
0.027618406 0.03194387 -0.032007664 0.010060898 -0.07608699 0.002084013 -0.0369166 -0.1437376
-0.06991729 -0.1619194 0.1725291 0.14892487 0.07406827 -0.03805656 -0.11497663 0.058593765
0.09951368 0.112735786 -0.17764461 -0.13850819 -0.10201577 0.056363244 0.19943948 -0.1592673
0.103351586 0.01601464 -0.1463584 -0.04511055 0.13447699 0.006822437 0.044849344 -0.12906335
-0.0015152574 0.07703195 0.11184993 -0.045234215 0.10034423 0.11371336 0.018025668 -0.1286009
-0.18130733 0.10956042 0.13542299 0.16436687 -0.16806825 -0.18032728 -0.08784399 -0.115616925
0.03333358 -0.0394287 -0.17083783 -0.10361453 -0.1049232 -0.08286231 0.044676915 -0.070879504
-0.0023552657 0.13889748 -0.0089330645 0.16964462 -0.08251908 -0.025968077 -0.091429316 0.03794071
0.041672565 0.039254643 -0.040520806 -0.08028039 0.13839217 -0.1762599 0.031932913 0.08911341
-0.046697866 0.12874368 -0.091481075 -0.032432918 -0.117097355 -0.01543591 -0.02830603 -0.16483918
0.06556079 -0.01626246 0.20645075 0.19124722 -0.14809245 0.0434395 0.06348186 -0.11040445
0.076266415 0.013658501 -0.20525144 -0.11287972 -0.16787745 -0.11131037 0.12507403 -0.094326995
0.02436483 0.17737935 0.13013037 0.0910014 0.22749105 -0.056231443 0.08488473 -0.13341832
0.069433786 -0.050467204 -0.109361045 -0.19928464 -0.001368839 0.012950344 -0.07637337 0.046950534
0.16043675 0.13419609 -0.006702659 -0.07248426 -0.0049853 0.02002988 -0.07517053 -0.064133264
0.17380856 0.022782926 0.19758987 0.040903173 0.21317193 0.014584358 -0.035475615 0.03309536
0.047270924 0.09006825 -0.054269247 0.10607177 -0.16797881 0.07429933 0.08148332 -0.10314743
-0.05780633 0.119294666 0.05942319 -0.041237984 -0.09901657 -0.011664881 0.08986975 -0.08599528
-0.05183994 -0.1389632 -0.07864611 0.0639595 -0.0974899 -0.049221788 0.052271843 -0.13741648
-0.050741807 0.15913142 -0.057028852 0.116853245 -0.01118931 -0.14452994 -0.049093787 -0.1912763
0.1922624 0.17028028 0.13335882 0.05389347 0.12427134 0.050757375 0.018798992 0.04129462
0.053340998 -0.026903467 -0.13010456 0.114645556 0.13029732 -0.09867968 0.0555043 0.09680386
0.0013294398 -0.09926978 -0.012098896 -0.0691238 0.0005702167 0.14504372 -0.19506708 -0.10178405
0.04302153 -0.03264805 -0.094955236 -0.013734614 0.07265634 -0.19027714 -0.019233568 0.047710992
0.078262486 -0.01140192 0.1569769 0.13784982 -0.10142147 0.043408994 0.10769074 -0.059529867
0.16145317 -0.006772958 0.17147812 -0.06679769 0.16081476 -0.12426467 0.08443319 -0.08196291
-0.11887705 0.08665056 -0.16110128 0.16528909 0.07244525 -0.049443312 0.03355965 0.13921797
0.034967896 0.030074442 0.19245082 0.11227099 -0.018876908 0.02745884 0.23436372 -0.10915465
00000000: 90d4 db3d dae9 24be 777d 66bd f1ab 4abd
00000010: b72b d83d d35d c2bd e449 533c 4df7 ca3c
00000020: bc3b c7ba 97cb cbbd 6c23 17be 5fdd 463e
00000030: 9166 d5bd beca d43c f88c 37bd fddb bc3d
00000040: 5e23 5bbe 95f3 4b3d 9616 293e 9c09 6e3e
00000050: 109c c93d 64a8 0c3d 7327 e6bd d03b 373d
00000060: 6a79 bb3d 4a98 7b3d c0dc a3bd e182 203e
00000070: ac71 d93d 9a26 a0bd 492a 38be b8e4 e13a
00000080: ff3f e23c 93d7 023d 781a 03bd 77d6 243c
00000090: 7fd3 9bbd f093 083b dc35 17bd f32f 13be
000000a0: cc30 8fbd 33ce 25be 78ab 303e c37f 183e
000000b0: 1bb1 973d 32e1 1bbd de78 ebbd 0400 703d
000000c0: d4cd cb3d 05e2 e63d 78e8 35be 17d5 0dbe
000000d0: a5ed d0bd 25dd 663d dd39 4c3e f816 23be
000000e0: ffa9 d33d 2231 833c fade 15be d7c5 38bd
000000f0: 56b4 093e c08e df3b f2b3 373d 2f29 04be
00000100: 9a9b c6ba edc2 9d3d 9311 e53d 8347 39bd
00000110: 4781 cd3d 8de2 e83d 91aa 933c f4af 03be
00000120: a1a8 39be 3761 e03d 53ac 0a3e ca4f 283e
00000130: 151a 2cbe b7a7 38be 8de7 b3bd 91c8 ecbd
00000140: cb88 083d fd7f 21bd 1df0 2ebe db33 d4bd
00000150: fae1 d6bd b7b3 a9bd 24ff 363d 4629 91bd
00000160: cd5a 1abb 243b 0e3e fd5b 12bc 52b7 2d3e
00000170: c3ff a8bd 01bb d4bc 4b3f bbbd b867 1b3d
00000180: dab0 2a3d 7ac9 203d 25f9 25bd 0c6a a4bd
00000190: adb6 0d3e 7a7d 34be 16cc 023d 1781 b63d
000001a0: 4346 3fbd 62d5 033e 6e5a bbbd 61d8 04bd
000001b0: bdd0 efbd e6e6 7cbc 0ce2 e7bc 9acb 28be
000001c0: bc44 863d da38 85bc d367 533e 50d6 433e
000001d0: 8ca5 17be 9eed 313d c702 823d ba1b e2bd
000001e0: 9131 9c3d e8c7 5f3c 6f2d 52be 7c2d e7bd
000001f0: 11e8 2bbe b1f6 e3bd 6813 003e 832e c1bd
00000200: c198 c73c efa2 353e e540 053e f15e ba3d
00000210: 6af3 683e f152 66bd 0cd8 ad3d d09e 08be
00000220: 4d33 8e3d b3b6 4ebd aff8 dfbd 4611 4cbe
00000230: 9d6a b3ba ae2d 543c a469 9cbd 344f 403d
00000240: 8849 243e b36a 093e fba1 dbbb a172 94bd
00000250: ba5b a3bb b415 a43c 02f3 99bd 4d58 83bd
00000260: dffa 313e 42a3 ba3c 0055 4a3e 168a 273d
00000270: be49 5a3e 3bf3 6e3c e14e 11bd 008f 073d
00000280: 289f 413d b475 b83d 6e49 5ebd 283c d93d
00000290: a302 2cbe 3f2a 983d bae0 a63d f63e d3bd
000002a0: 55c6 6cbd c350 f43d bb65 733d 29e9 28bd
000002b0: 33c9 cabd 0f1e 3fbc a20d b83d 4b1e b0bd
000002c0: 1e56 54bd 5e4c 0ebe 3611 a1bd 33fd 823d
000002d0: c9a8 c7bd c99c 49bd 001b 563d e8b6 0cbe
000002e0: a4d6 4fbd 59f3 223e 1697 69bd c150 ef3d
000002f0: 5e53 37bc a8ff 13be 9116 49bd efdd 43be
00000300: 6fe0 443e f45d 2e3e 378f 083e 66bf 5c3d
00000310: f981 fe3d f7e6 4f3d 5800 9a3c 8c24 293d
00000320: 177c 5a3d a964 dcbc 213a 05be 4acb ea3d
00000330: a96c 053e 9218 cabd 7a58 633d 1a41 c63d
00000340: 9940 ae3a f44d cbbd 733a 46bc c790 8dbd
00000350: 987a 153a 5786 143e aabf 47be 2874 d0bd
00000360: 5837 303d f6b9 05bd e477 c2bd 2507 61bc
00000370: d9cc 943d 03d8 42be b78f 9dbc 9a6c 433d
00000380: 1548 a03d 1ecf 3abc 8dbe 203e 8128 0d3e
00000390: 0fb6 cfbd a1cd 313d f68c dc3d 97d5 73bd
000003a0: fb53 253e b1ef ddbb f697 2f3e 3acd 88bd
000003b0: a0ac 243e 7a7e febd 4feb ac3d 2cdc a7bd
000003c0: d075 f3bd d975 b13d bcf7 24be 8b41 293e
000003d0: 2d5e 943d 1285 4abd d875 093d 288f 0e3e
000003e0: 7f3a 0f3d ad5e f63c d411 453e 55ee e53d
000003f0: bfa3 9abc 5cf1 e03c 0bfd 6f3e 798c dfbd

bn1.weight f4 [128]
1.0102099 0.99798614 1.005868 1.0027989 0.9952208 1.0433584 1.0215456 0.999831
1.0206232 1.0068647 1.0084087 1.0017785 1.005539 1.0001976 0.9957363 1.0086242
1.0062817 1.0062349 1.017623 1.0087639 1.0203266 0.99967945 1.009399 1.0168059
1.0161555 1.0147586 0.99802816 1.0224675 1.0081271 1.0017647 1.0051228 1.0106266
1.0125911 1.028295 1.0094583 1.0207852 1.0170027 1.0180347 1.0086826 1.0225462
1.0035592 0.99590355 1.0059898 1.0505937 1.0110939 0.9997012 0.9853084 1.0176017
1.0052816 0.9860445 0.9961938 1.0147734 1.0121962 1.0019392 1.0330347 1.02023
1.0025219 1.0101352 1.0014579 1.0166276 1.002338 1.0029029 1.0096425 1.0281979
1.0265051 1.0131363 1.0144445 1.028236 1.0188825 1.0176854 1.0267367 1.016921
1.0007404 1.0045038 0.9947074 1.0357356 1.0353085 1.0153165 1.00854 0.99558127
1.0021179 1.0194391 1.0137551 1.0080495 0.9953751 1.0248082 0.9907461 1.0093632
1.0055871 1.0101247 1.0218047 0.98036426 1.0004164 1.003623 0.9947881 1.006287
1.0150676 1.0153095 1.0127541 1.0321994 1.0676733 0.99588484 0.9796893 0.99753827
1.0359029 1.0497279 1.006931 0.9985132 1.0083543 0.9891885 1.0005258 1.0157009
1.0185302 1.0147873 1.0101205 1.0080105 1.0160692 1.0041833 1.0287362 0.99778646
1.0100362 1.0362011 0.97847474 1.0017992 1.0278618 1.0139569 0.99640626 1.0174899
00000000: 8f4e 813f 057c 7f3f 48c0 803f b75b 803f
00000010: cac6 7e3f c58c 853f 02c2 823f edf4 7f3f
00000020: c8a3 823f f1e0 803f 8913 813f 473a 803f
00000030: 80b5 803f 7a06 803f 93e8 7e3f 991a 813f
00000040: d7cd 803f 4ecc 803f 7841 823f 2d1f 813f
00000050: 109a 823f feea 7f3f fd33 813f b226 823f
00000060: 6211 823f 9ce3 813f c67e 7f3f 37e0 823f
00000070: 4f0a 813f d339 803f dda7 803f 365c 813f
00000080: 969c 813f 2c9f 833f ee35 813f 17a9 823f
00000090: 252d 823f f64e 823f 831c 813f cbe2 823f
000000a0: a174 803f 89f3 7e3f 46c4 803f db79 863f
000000b0: 866b 813f 6bec 7f3f 2c3d 7c3f c640 823f
000000c0: 11ad 803f 6a6d 7c3f 8f06 7f3f 18e4 813f
000000d0: a58f 813f 8b3f 803f 7b3a 843f e696 823f
000000e0: a352 803f 1c4c 813f c62f 803f da20 823f
000000f0: 9d4c 803f 1f5f 803f f73b 813f fd9b 833f
00000100: 8564 833f 73ae 813f 51d9 813f 3d9d 833f
00000110: be6a 823f 8443 823f 1c6c 833f 782a 823f
00000120: 4318 803f 9593 803f 25a5 7e3f fc92 843f
00000130: fd84 843f e4f5 813f d717 813f 6ade 7e3f
00000140: 6645 803f fb7c 823f bac2 813f c407 813f
00000150: e7d0 7e3f ea2c 833f 89a1 7d3f d032 813f
00000160: 14b7 803f c44b 813f 7fca 823f 27f9 7a3f
00000170: a50d 803f b876 803f 6faa 7e3f 03ce 803f
00000180: bced 813f a9f5 813f eda1 813f 1c1f 843f
00000190: 85a9 883f 4ff2 7e3f ebcc 7a3f ab5e 7f3f
000001a0: 7798 843f 7c5d 863f 1de3 803f 909e 7f3f
000001b0: c111 813f 753b 7d3f 3b11 803f 7d02 823f
000001c0: 335f 823f 8de4 813f a14b 813f 7d06 813f
000001d0: 8e0e 823f 1489 803f a1ad 833f ef6e 7f3f
000001e0: de48 813f 3da2 843f 527d 7a3f f53a 803f
000001f0: fa90 833f 57c9 813f 7b14 7f3f 1c3d 823f

bn1.bias f4 [128]
-0.068719 0.052527193 -0.002796218 0.0333046 0.07219914 -0.060076542 0.04242144 0.041116644
0.036365062 0.0828702 -0.045370016 -0.0026448735 0.04359326 0.019705102 -0.108656906 -0.030438988
-0.00781828 -0.016590381 0.060347687 0.015970064 -0.06261787 0.03274317 -0.003408332 0.0329108
-0.0418766 0.03458819 0.0071901903 -0.07149878 0.028482288 0.0046286215 0.058896024 -0.015755711
0.077600166 -0.16234076 0.016174003 0.0034996355 -0.022290004 -0.017205263 -0.019361563 0.1289044
-0.090185314 -0.062988326 0.08704316 0.042310525 0.05730828 0.020027218 -0.060336124 0.0044832905
0.029130159 -0.028536413 0.03200487 -0.016194504 0.024812153 0.07913685 -0.09688131 -0.018999122
-0.033696424 -0.021923019 0.0111477105 0.09748828 -0.034232255 0.040918086 0.032166045 0.045272235
0.007472753 0.005571908 0.0242673 -0.055457205 0.0084070945 -0.04024925 0.036090087 0.04560682
0.121483766 -0.05591222 -0.06518861 0.049853772 0.11421285 0.055363197 -0.059916835 -0.014445223
0.103888735 0.043256827 0.030610815 0.035592236 -0.09558955 -0.032951724 0.10824919 -0.10030023
0.05483425 0.0048466716 -0.025137898 -0.056402195 0.06456116 -0.026936557 0.041340407 0.06144333
0.018564127 0.009127535 -0.015752697 0.071536735 0.026944587 0.020202784 -0.045962688 -0.026166769
-0.05291456 0.058745068 0.00041224592 -0.0340453 0.021369116 -0.048773736 0.094211504 0.061967686
0.03465542 -0.018904481 -0.016475245 0.048914403 0.045716118 0.010682664 0.041411 -0.003776171
0.0016993243 0.056692302 -0.11712215 -0.013810012 0.04455593 -0.017221998 -0.08152177 0.041480582
00000000: 8cbc 8cbd c126 573d c140 37bb 676a 083d
00000010: 25dd 933d d212 76bd 1bc2 2d3d ed69 283d
00000020: 88f3 143d dab7 a93d e9d5 39bd 9d55 2dbb
00000030: d98e 323d 986c a13c 8387 debd 2f5b f9bc
00000040: 3e18 00bc 8de8 87bc 232f 773d a7d3 823c
00000050: cc3d 80bd b41d 063d 525e 5fbb 7acd 063d
00000060: cc86 2bbd 59ac 0d3d b09b eb3b f46d 92bd
00000070: b053 e93c b1ab 973b f53c 713d 1f12 81bc
00000080: d6ec 9e3d a83c 26be 587f 843c 245a 653b
00000090: 8799 b6bc 0df2 8cbc 249c 9ebc 84ff 033e
000000a0: 14b3 b8bd 0600 81bd af43 b23d cd4d 2d3d
000000b0: 16bc 6a3d 1f10 a43c 0323 77bd 91e8 923b
000000c0: 5fa2 ee3c 32c5 e9bc 8a17 033d 56aa 84bc
000000d0: db42 cb3c 8012 a23d b569 c6bd 0ca4 9bbc
000000e0: 4305 0abd e797 b3bc e3a4 363c efa7 c73d
000000f0: 1f37 0cbd b999 273d 8bc0 033d 616f 393d
00000100: ffdd f43b 8d94 b63b 37cc c63c 1827 63bd
00000110: e9bd 093c 66dc 24bd 33d3 133d 38ce 3a3d
00000120: 7bcc f83d 3604 65bd 9b81 85bd 7833 4c3d
00000130: 6de8 e93d 85c4 623d 5b6b 75bd a8ab 6cbc
00000140: 9ec3 d43d 122e 313d 88c3 fa3c 2ac9 113d
00000150: 74c4 c3bd 63f8 06bd c0b1 dd3d 356a cdbd
00000160: e199 603d d4d0 9e3b feed cdbc fd05 67bd
00000170: a438 843d 0eaa dcbc 8f54 293d 00ac 7b3d
00000180: cc13 983c a88b 153c cd0b 81bc da81 923d
00000190: e5ba dc3c 4f80 a53c 5f43 3cbd b15b d6bc
000001a0: f0bc 58bd ab9e 703d b622 d839 1673 0bbd
000001b0: 490e af3c f8c6 47bd f6f1 c03d d4d1 7d3d
000001c0: d7f2 0d3d 92dd 9abc 18f7 86bc 785a 483d
000001d0: d340 3b3d 5706 2f3c 959e 293d a379 77bb
000001e0: ddbb de3a 3036 683d bddd efbd 6343 62bc
000001f0: 4780 363d 2615 8dbc e3f4 a6bd 8be7 293d

bn1.running_mean f4 [128]
-0.038264614 -0.14706355 0.20852813 -0.13406964 0.03140946 0.11840967 -0.15155691 -0.057394944
0.08576239 0.21882114 -0.013773672 0.16832897 -0.07071132 0.046065178 0.012781804 -0.059127077
0.20877573 -0.01937303 0.09106007 0.0013196014 -0.1116352 -0.1360834 -0.1548141 0.042157862
-0.048873935 -0.10498217 0.017628253 0.08788665 -0.092162676 0.043939203 -0.03122075 0.16893597
-0.0007288158 0.040105034 0.048924763 -0.0019453685 0.22291061 0.18887842 0.0705715 -0.16172054
-0.11286484 -0.12872261 -0.11507501 -0.034630287 0.14718439 0.14977777 0.0030048655 0.040975302
-0.053444937 0.18844678 0.097817965 0.016792882 0.080197565 -0.0038876324 0.14937848 -0.03168437
0.13057454 -0.032596376 -0.052431438 0.122370526 0.031890735 0.052153308 -0.26697716 0.08937816
-0.11384902 0.062015925 0.13994187 0.00079766545 0.14598912 -0.100713864 0.006652732 -0.023943506
-0.007652545 -0.098982975 0.0772762 0.16458015 -0.11912245 0.043614045 -0.1612294 0.24377891
0.061310444 0.015058914 0.111449316 -0.034670465 -0.054066032 -0.04889971 -0.09553714 0.233653
-0.13513714 0.046383623 0.10849559 0.20555502 -0.13313611 0.017057257 -0.056064192 -0.11541167
0.017503472 0.047674205 -0.06588079 -0.12317534 -0.0093348455 -0.17087768 0.14495939 0.054616515
0.15937968 -0.09547513 -0.028181165 0.11053481 -0.014276502 0.1058424 0.044773947 -0.03909576
-0.11033739 0.019420939 0.07045534 -0.054078057 0.09034325 0.090604976 0.09804128 -0.14370784
0.08351016 -0.10791982 0.13591471 0.12060924 -0.06983805 -0.09076721 -0.07986583 -0.11539835
00000000: 5bbb 1cbd d497 16be 6688 553e 8d49 09be
00000010: 35a7 003d c580 f23d bc31 1bbe f616 6bbd
00000020: 31a4 af3d a612 603e f8aa 61bc 6e5e 2c3e
00000030: 19d1 90bd d7ae 3c3d c66a 513c 3c2f 72bd
00000040: 4ec9 553e 30b4 9ebc b47d ba3d 7af6 ac3a
00000050: ffa0 e4bd 7259 0bbe 9687 1ebe b9ad 2c3d
00000060: 0930 48bd e400 d7bd 2069 903c eafd b33d
00000070: c9bf bcbd 98f9 333d a9c2 ffbc 8dfd 2c3e
00000080: 000e 3fba 2d45 243d 5565 483d bcfb feba
00000090: ae42 643e 5869 413e ca87 903d 129a 25be
000000a0: ae25 e7bd dccf 03be 72ac ebbd 7dd8 0dbd
000000b0: 81b7 163e 585f 193e 47ed 443b b8d5 273d
000000c0: 14e9 5abd 31f8 403e c954 c83d 3a91 893c
000000d0: 9f3e a43d a6c7 7ebb acf6 183e 78c7 01bd
000000e0: 55b5 053e c783 05bd 59c2 56bd 669d fa3d
000000f0: dc9f 023d b59e 553d 3bb1 88be e60b b73d
00000100: ad29 e9bd 6904 7e3d ec4c 0f3e 6c1a 513a
00000110: 2c7e 153e 1243 cebd 29ff d93b 2c25 c4bc
00000120: 33c2 fabb 96b7 cabd fc42 9e3d b387 283e
00000130: 79f6 f3bd a4a4 323d 5219 25be 2ea1 793e
00000140: a920 7b3d aab9 763c 8a3f e43d 9e02 0ebd
00000150: 5874 5dbd 104b 48bd faa8 c3bd bb42 6f3e
00000160: 6461 0abe c1fc 3d3d f032 de3d 047d 523e
00000170: d554 08be a9bb 8b3c 91a3 65bd f45c ecbd
00000180: 7163 8f3c 0746 433d 82ec 86bd 5a43 fcbd
00000190: 2ef1 18bc 8ffa 2ebe 3c70 143e 91b5 5f3d
000001a0: 6d34 233e 7788 c3bd 30dc e6bc 1360 e23d
000001b0: fde7 69bc e6c3 d83d e364 373d e022 20bd
000001c0: 92f8 e1bd a918 9f3c e44a 903d f480 5dbd
000001d0: e205 b93d 1a8f b93d dec9 c83d 2628 13be
000001e0: 6007 ab3d 1105 ddbd 3a2d 0b3e fa01 f73d
000001f0: 4007 8fbd 29e4 b9bd b290 a3bd f855 ecbd

bn1.running_var f4 [128]
0.4801191 0.58975184 0.58743966 0.48629576 0.40575087 0.51398087 0.4454181 0.44308564
0.7125762 1.127298 0.6781377 0.60060215 0.43989104 0.6594621 0.4116466 0.30244356
0.8718038 0.5299985 0.84815824 0.4804654 0.5102045 0.6387954 0.6751279 0.447655
0.43882304 0.4210971 0.54595345 0.37643173 0.5033587 0.338041 0.42226544 0.6040762
0.6602641 0.36863083 0.61771107 0.32796285 0.88653123 0.8119589 0.4906024 0.6333585
0.5970606 0.4910633 0.6664382 0.29428917 0.6779073 0.6899509 0.30565447 0.41967645
0.54778683 0.90765595 0.87208354 0.32226017 0.6310373 0.5215082 0.4370378 0.38882053
0.8743248 0.3010971 0.8176325 0.689361 0.31954986 0.64692587 0.4617338 0.9122074
0.48619688 0.54656804 0.75440425 0.5087455 0.5634539 0.5322895 0.3986975 0.39363104
0.45486218 0.68672264 0.48538503 0.88286215 0.4007588 0.44372487 0.6947897 1.304145
0.40727836 0.4031151 0.6165209 0.34359828 0.717704 0.38623494 0.45720145 0.5727279
0.42392656 0.33812302 0.4136621 0.75385123 0.5859326 0.48784345 0.5407721 0.72631866
0.25244388 0.4991633 0.62867826 0.5572306 0.4039884 0.81422794 0.53820705 0.44843516
0.58027846 0.34837133 0.6699423 1.2085018 0.39680627 1.2684554 0.62048316 0.5315699
0.37997416 0.4662021 0.43945405 0.44440094 0.66629565 0.31069356 0.9961959 0.86303633
0.8566441 0.41751856 0.82122386 0.6467261 0.45908868 0.5625895 0.6131697 0.467572
00000000: 2cd2 f53e faf9 163f 7262 163f c2fb f83e
00000010: 94be cf3e 4094 033f d70d e43e 1fdc e23e
00000020: 656b 363f 4d4b 903f 6f9a 2d3f 10c1 193f
00000030: 6639 e13e 82d2 283f 58c3 d23e e2d9 9a3e
00000040: 892e 5f3f fbad 073f e620 593f 90ff f53e
00000050: c39c 023f 1888 233f 2fd5 2c3f 0933 e53e
00000060: 6aad e03e 0a9a d73e 9bc3 0b3f a9bb c03e
00000070: 1edc 003f b613 ad3e 2d33 d83e bda4 1a3f
00000080: 1107 293f 2ebd bc3e 5022 1e3f bfea a73e
00000090: b6f3 623f 8adc 4f3f 3d30 fb3e c823 223f
000000a0: f7d8 183f a66c fb3e b29b 2a3f 12ad 963e
000000b0: 558b 2d3f 9fa0 303f be7e 9c3e d5df d63e
000000c0: c23b 0c3f 245c 683f de40 5f3f 49ff a43e
000000d0: a98b 213f 9081 053f 6bc3 df3e 7c13 c73e
000000e0: c0d3 5f3f 6629 9a3e 5d50 513f f679 303f
000000f0: 0a9c a33e ef9c 253f 5f68 ec3e 6d86 693f
00000100: ccee f83e e2eb 0b3f a320 413f 253d 023f
00000110: 843e 103f 2044 083f 1422 cc3e 028a c93e
00000120: b2e3 e83e 0ecd 2f3f 6384 f83e 4103 623f
00000130: 4230 cd3e e82f e33e bddd 313f 39ee a63f
00000140: ca86 d03e 1a65 ce3e 50d4 1d3f 1dec af3e
00000150: 73bb 373f 96c0 c53e 4f16 ea3e 4c9e 123f
00000160: e70c d93e 761e ad3e 85cb d33e 65fc 403f
00000170: aeff 153f 9ec6 f93e 0a70 0a3f 05f0 393f
00000180: 5340 813e 5592 ff3e 0ff1 203f aaa6 0e3f
00000190: 91d7 ce3e 3e71 503f f0c7 093f 4b99 e53e
000001a0: 218d 143f ba5d b23e 5781 2b3f 30b0 9a3f
000001b0: 312a cb3e bf5c a23f fcd7 1e3f f714 083f
000001c0: f98b c23e 0bb2 ee3e 1f00 e13e 8588 e33e
000001d0: 5a92 2a3f 3a13 9f3e b206 7f3f f3ef 5c3f
000001e0: 074d 5b3f fec4 d53e ba3b 523f d78f 253f
000001f0: ac0d eb3e de05 103f b1f8 1c3f 9965 ef3e

hidden2.weight f4 [128, 128]
0.0773942 -0.0007619896 -0.06707248 0.023824736 0.040745817 -0.014001091 0.021153914 0.0271516
0.02711905 -0.026255663 -0.056988835 0.06437437 0.019066148 0.08277878 -0.06302117 -0.027286924
0.004328339 0.018931711 -0.028072601 -0.03445827 -0.021457555 -0.06357628 0.0048281224 -0.07404117
-0.03001478 0.006145952 -0.06500759 0.030098729 0.07820862 -0.0069875424 0.01953865 -0.09355223
0.011036966 0.02510997 -0.020906283 -0.0076813647 -0.09009753 0.03283089 -0.035044596 0.0014634934
0.049875963 0.06770388 0.0061705653 0.08689538 0.017201586 -0.005642247 0.063003786 0.08859692
0.07870758 -0.055999313 -0.04162605 0.04220026 -0.047115784 -0.013278791 0.041635137 0.01503937
-0.0024497975 0.035437893 0.028836716 -0.08982742 0.061987657 0.025698677 0.05547227 0.0015103215
0.0039594616 0.011903529 -0.012421609 0.07998071 -0.074147694 -0.04538407 -0.06979869 -0.0022218563
-0.059320267 0.070375375 -0.041050877 0.064245984 0.09832599 -0.05859271 -0.04965908 -0.037163436
-0.042098653 0.05904757 0.05735481 -0.008955434 -0.07126091 0.041265167 0.08506871 0.0073809726
-0.014005024 -0.056882937 -0.07870694 0.039860267 0.05066704 0.064679645 0.09151765 0.00559235
-0.0041494807 0.021893533 -0.022094755 -0.02086615 -0.0013094118 0.021112423 -0.067884564 -0.07240363
-0.107086636 -0.002221645 0.01769898 0.06326331 -0.04999785 -0.017831778 0.048024654 0.034326773
-0.043724954 -0.07242913 -0.07125241 -0.010366673 0.009680652 0.05873356 0.02729791 0.05907419
-0.03635842 0.012503939 -0.033190012 0.083512716 -0.0054814294 0.05310143 0.050600767 0.0048190258
0.030985309 -0.017163083 0.02254758 0.068423085 -0.014532402 0.07778163 -0.05223069 -0.012616038
0.014571157 0.009823638 0.113231234 -0.08742509 -0.05407233 -0.010814459 0.030874051 -0.0356513
-0.0054018833 -0.06327279 -0.08487745 -0.02483468 0.01161199 0.08258831 -0.035873897 -0.09109576
0.028852899 0.08197812 0.0062228446 0.07676765 0.040355224 -0.008855618 -0.06157091 0.02094388
0.06851141 -0.06068456 0.062777914 0.009986424 -0.039508205 0.020421471 -0.021194322 -0.055906743
0.048599694 0.07392462 -0.014527571 -0.059352398 -0.050084982 -0.060440358 -0.07190849 -0.04263924
-0.050827425 -0.02041994 0.047530603 -0.06030963 0.016847003 -0.0052811555 -0.06463431 -0.055147197
-0.043954737 0.014946637 0.0564313 -0.06061686 0.00024629643 -0.09040532 0.100448415 0.043904815
0.030214718 -0.066628546 0.014627325 0.08201309 -0.025049217 0.030559609 0.014431393 -0.012698485
-0.029612621 0.018539868 0.041144747 -0.011271023 -0.03383871 -0.09757417 -0.039574575 -0.041644905
-0.05712399 -0.07850702 -0.049137097 -0.04013084 0.031864386 0.037840277 -0.06730282 0.05634844
-0.014165525 0.07923189 0.045762092 0.034458082 0.06519437 -0.017155478 0.0020962313 -0.07335769
-0.060455505 0.00655192 0.04843907 0.022341223 -0.07992419 -0.053281143 -0.0284119 0.008575966
0.0154335145 0.039068308 -0.08555088 0.052730143 -0.09671997 -0.035146806 0.029933896 -0.07287691
-0.057677146 0.09442479 -0.057907607 0.012764912 -0.082251206 -0.09577414 -0.035880353 0.08453769
-0.05636688 0.05427001 -0.012857285 0.01542586 0.049850713 0.029880252 0.073149 0.029001588
00000000: da80 9e3d 42c0 47ba 4c5d 89bd 182c c33c
00000010: 16e5 263d d564 65bc f94a ad3c 086d de3c
00000020: c528 de3c 1e16 d7bc 206d 69bd b6d6 833d
00000030: 9c30 9c3c ec87 a93d 3e11 81bd d488 dfbc
00000040: bdd4 8d3b ad16 9b3c 83f8 e5bc 1d24 0dbd
00000050: c1c7 afbc 4834 82bd 3a35 9e3b e6a2 97bd
00000060: 8ee1 f5bc fb63 c93b b322 85bd 9c91 f63c
00000070: d72b a03d c1f7 e4bb 850f a03c 5098 bfbd
00000080: 64d4 343c 6cb3 cd3c a743 abbc f5b3 fbbb
00000090: 0e85 b8bd af79 063d ec8a 0fbd b1d2 bf3a
000000a0: bd4a 4c3d 55a8 8a3d 7432 ca3b 34f6 b13d
000000b0: 57ea 8c3c 99e2 b8bb 2108 813d 4d72 b53d
000000c0: 7131 a13d 895f 65bd 1480 2abd 2eda 2c3d
000000d0: 7bfc 40bd 498f 59bc 9b89 2a3d b167 763c
000000e0: c88c 20bb 5327 113d fa3a ec3c 70f7 b7bd
000000f0: c5e6 7d3d 0886 d23c e436 633d fbf5 c53a
00000100: 5fbe 813b 0507 433c 0184 4bbc edcc a33d
00000110: bfda 97bd a6e4 39bd 9ef2 8ebd 909c 11bb
00000120: cff9 72bd f720 903d f724 28bd 6693 833d
00000130: 235f c93d e9fe 6fbd 5267 4bbd b038 18bd
00000140: a36f 2cbd dddb 713d e1ec 6a3d d0b9 12bc
00000150: 3df1 91bd aa05 293d 8138 ae3d 16dc f13b
00000160: 5475 65bc 15fe 68bd 1b31 a1bd 8544 233d
00000170: 3e88 4f3d c376 843d 9b6d bb3d 0840 b73b
00000180: 5ef8 87bb 115a b33c 0f00 b5bc 7def aabc
00000190: 92a0 abba f6f3 ac3c 1007 8bbd 5b48 94bd
000001a0: 3d50 dbbd 0599 11bb 74fd 903c 3290 813d
000001b0: 8cca 4cbd f313 92bc 80b5 443d 3b9a 0c3d
000001c0: f018 33bd b955 94bd c9ec 91bd fad8 29bc
000001d0: 999b 1e3c 9a92 703d de9f df3c c7f7 713d
000001e0: 91ec 14bd 52dd 4c3c 40f2 07bd b708 ab3d
000001f0: 909d b3bb e380 593d c042 4f3d ebe8 9d3b
00000200: e7d4 fd3c 9899 8cbc b4b5 b83c 6721 8c3d
00000210: 5019 6ebc fa4b 9f3d d9ef 55bd 80b3 4ebc
00000220: ddbb 6e3c 53f3 203c c7e5 e73d ed0b b3bd
00000230: f37a 5dbd 212f 31bc 94eb fc3c 1907 12bd
00000240: 4802 b1bb 2a95 81bd 3ad4 adbd 1972 cbbc
00000250: 3740 3e3c 0f24 a93d 82f0 12bd 6a90 babd
00000260: ea5c ec3c 25e4 a73d 01e9 cb3b 5c38 9d3d
00000270: 854b 253d 2717 11bc c731 7cbd 8092 ab3c
00000280: b64f 8c3d 6090 78bd b591 803d 199e 233c
00000290: 5bd3 21bd ee4a a73c b79f adbc 78fe 64bd
000002a0: 7910 473d cb65 973d 0d05 6ebc 801b 73bd
000002b0: e925 4dbd 4f90 77bd c244 93bd 7ca6 2ebd
000002c0: 6b30 50bd b847 a7bc 73af 423d 3b07 77bd
000002d0: ba02 8a3c 8b0d adbb fe5e 84bd 07e2 61bd
000002e0: e209 34bd bde2 743c 8224 673d 6249 78bd
000002f0: 5921 8139 6d26 b9bd e6b7 cd3d 89d5 333d
00000300: db84 f73c 8c74 88bd 73a7 6f3c 7bf6 a73d
00000310: 0434 cdbc 2558 fa3c a671 6c3c 4e0d 50bc
00000320: 2b96 f2bc ece0 973c 6587 283d 19aa 38bc
00000330: 769a 0abd f7d4 c7bd f318 22bd d993 2abd
00000340: d8fa 69bd 4ac8 a0bd fb43 49bd 3c60 24bd
00000350: 3b84 023d 68fe 1a3d 10d6 89bd 9fcd 663d
00000360: 8516 68bc 5444 a23d 0871 3b3d eb23 0d3d
00000370: a084 853d a589 8cbc ed60 093b 8e3c 96bd
00000380: 31a0 77bd 7db1 d63b 0c68 463d f104 b73c
00000390: 4baf a3bd 543d 5abd 13c0 e8bc 3582 0c3c
000003a0: dadc 7c3c 1706 203d 4d35 afbd 90fb 573d
000003b0: 1f15 c6bd 19f6 0fbd ee37 f53c 7d40 95bd
000003c0: df3e 6cbd c961 c13d 8730 6dbd ec23 513c
000003d0: 5273 a8bd 3b25 c4bd 47f7 12bd 1922 ad3d
000003e0: f5e0 66bd 3b4a 5e3d 5da7 52bc bfbc 7c3c
000003f0: 4330 4c3d 6ec7 f43c 25cf 953d bd94 ed3c

bn2.weight f4 [128]
1.0009646 0.9935791 0.996679 0.98380315 0.99578553 0.99550176 0.9936205 0.9855437
0.9984635 0.9884237 0.9997443 0.9938337 0.99719304 0.9949991 0.99289316 0.9936697
0.9916885 0.98886055 0.99503154 0.9921288 0.9986883 0.9931453 0.992233 0.99820036
0.9886297 1.0023729 0.9933916 0.9997956 0.9941796 0.9998217 0.99884385 0.9920266
0.9949295 0.98409915 0.982932 0.99352556 0.99461967 0.99843836 0.9883117 0.99203026
0.9976062 0.9910345 0.99315846 0.99518627 0.9904669 0.99862283 0.9999113 0.9846829
0.9970711 1.0025095 0.9942378 0.9905192 0.99866843 0.9979101 0.9864817 0.98363596
0.99473274 0.9787432 0.9896005 0.9893897 0.9946377 0.9985241 0.99300367 0.98934406
1.0007039 1.0000781 0.9961179 0.99598604 0.99827397 0.98929 0.9977767 1.0010918
0.99947053 0.99248075 0.9932071 0.9947384 1.0015492 0.9915673 0.98685944 0.9853589
0.9867354 0.98935825 0.99696016 0.9977791 0.9914794 0.99824375 0.99243087 0.99075073
0.98874724 0.9885615 0.99551576 0.994474 0.9963577 0.99122506 0.9913849 0.9882912
1.0008862 0.9901312 0.9923101 1.0026635 0.987653 0.9844207 0.98771304 0.9968058
0.99875456 0.99879616 0.9959068 1.0013828 0.9959628 0.9949158 0.9996368 0.9875914
0.9981665 1.0019791 0.9972283 0.9926314 0.99941784 0.9945362 0.98908347 1.0036035
0.9875158 0.99526525 0.9966036 0.97681105 1.0025972 1.0040396 1.0008868 0.9819975
00000000: 9c1f 803f 335b 7e3f 5b26 7f3f 86da 7b3f
00000010: cdeb 7e3f 34d9 7e3f ea5d 7e3f 984c 7c3f
00000020: 4e9b 7f3f 5609 7d3f 3eef 7f3f e36b 7e3f
00000030: 0b48 7f3f 43b8 7e3f 3f2e 7e3f 2361 7e3f
00000040: 4cdf 7d3f f725 7d3f 63ba 7e3f 27fc 7d3f
00000050: 09aa 7f3f c53e 7e3f fb02 7e3f 0f8a 7f3f
00000060: d616 7d3f c14d 803f e94e 7e3f 9bf2 7f3f
00000070: 8e82 7e3f 51f4 7f3f 3bb4 7f3f 75f5 7d3f
00000080: b3b3 7e3f eced 7b3f 6ea1 7b3f b157 7e3f
00000090: 659f 7e3f a899 7f3f ff01 7d3f b2f5 7d3f
000000a0: 1f63 7f3f 70b4 7d3f a23f 7e3f 87c4 7e3f
000000b0: 3d8f 7d3f bfa5 7f3f 30fa 7f3f 2e14 7c3f
000000c0: 0d40 7f3f 3b52 803f 5e86 7e3f ab92 7d3f
000000d0: bca8 7f3f 0977 7f3f 118a 7c3f 91cf 7b3f
000000e0: cea6 7e3f ea8e 7a3f 7556 7d3f a548 7d3f
000000f0: 94a0 7e3f 479f 7f3f 7d35 7e3f a745 7d3f
00000100: 1117 803f 8f02 803f 9501 7f3f f1f8 7e3f
00000110: e28e 7f3f 1c42 7d3f 4b6e 7f3f c723 803f
00000120: 4ddd 7f3f 3813 7e3f d242 7e3f 2da7 7e3f
00000130: c432 803f 5bd7 7d3f d2a2 7c3f 7b40 7c3f
00000140: b19a 7c3f 9546 7d3f c838 7f3f 736e 7f3f
00000150: 98d1 7d3f e78c 7f3f f30f 7e3f d7a1 7d3f
00000160: 8a1e 7d3f 5e12 7d3f 1fda 7e3f d995 7e3f
00000170: 4c11 7f3f edc0 7d3f 67cb 7d3f a700 7d3f
00000180: 0a1d 803f 3d79 7d3f 0908 7e3f 4757 803f
00000190: d4d6 7c3f ff02 7c3f c3da 7c3f aa2e 7f3f
000001a0: 61ae 7f3f 1bb1 7f3f bff3 7e3f 502d 803f
000001b0: 6bf7 7e3f cdb2 7e3f 33e8 7f3f cad2 7c3f
000001c0: d787 7f3f da40 803f 5b4a 7f3f 171d 7e3f
000001d0: d9d9 7f3f ed99 7e3f 9334 7d3f 1476 803f
000001e0: d6cd 7c3f b4c9 7e3f 6a21 7f3f 4a10 7a3f
000001f0: 1b55 803f 5f84 803f 0f1d 803f 3064 7b3f

bn2.bias f4 [128]
0.0015550876 -0.044929687 -0.022094779 0.05701365 0.018932117 0.042844497 -0.018911358 -0.039528042
-0.023049485 0.038242273 0.012067256 0.0383197 0.027007066 0.04896835 0.028778609 -0.020106409
-0.03580826 0.039141126 -0.023250405 -0.050550997 0.01648848 -0.019257046 -0.021629857 -0.02316011
0.031277966 -0.025825357 -0.047895156 -0.025984207 -0.022205463 -0.012330951 0.02018602 -0.039629824
0.030551897 0.039049093 0.04420474 -0.021499394 0.043590277 -0.015782975 0.05684954 0.034071393
0.02242118 -0.034375045 0.018470908 -0.015968809 0.031778213 0.019322112 -0.00819683 0.029752055
-0.029910564 -0.02598241 0.015658943 -0.027095255 0.004767757 -0.027292266 -0.034888122 -0.05051618
0.030354071 0.04216452 0.05465472 0.03881253 -0.01704426 -0.0404144 -0.034623314 0.049408592
-0.048843943 -0.03688513 -0.019379003 -0.02625046 -0.054438002 -0.032870077 -0.032609593 -0.017753437
-0.021456787 0.016677463 -0.010878626 0.037483886 -0.014048477 -0.060318064 0.04911152 -0.046623237
-0.046804257 0.03631256 -0.021705423 -0.02704764 -0.041614126 -0.0009601321 -0.02274305 0.046599306
-0.041712053 -0.045960184 0.025158022 -0.037167832 0.022126364 0.04845211 0.021990545 0.040466372
-0.013485796 0.021872723 0.032723714 0.02483792 0.031035056 -0.052415885 -0.040843647 -0.018366076
0.00863309 0.011366407 -0.018958274 0.023805574 -0.028540965 0.020246062 0.0018401414 -0.032975826
0.004715888 -0.037316993 -0.021482643 0.033986505 0.027594127 0.03786912 0.0240227 -0.024411831
-0.054627176 -0.031180859 0.030183481 -0.054191273 0.026056068 0.029218726 -0.013037895 -0.06942279
00000000: 15d4 cb3a 3108 38bd 1c00 b5bc 2587 693d
00000010: 8717 9b3c b67d 2f3d feeb 9abc 28e8 21bd
00000020: 46d2 bcbc eea3 1c3d bdb5 453c 1ef5 1c3d
00000030: ec3d dd3c 0993 483d 1ec1 eb3c 32b6 a4bc
00000040: afab 12bd 7252 203d a277 bebc 900e 4fbd
00000050: d912 873c f4c0 9dbc 1931 b1bc 45ba bdbc
00000060: 531d 003d b38f d3bc b62d 44bd d5dc d4bc
00000070: 3be8 b5bc c207 4abc 275d a53c e252 22bd
00000080: f947 fa3c f1f1 1f3d 0810 353d 7f1f b0bc
00000090: b88b 323d 4c4b 81bc 10db 683d 728e 0b3d
000000a0: 9fac b73c d9cc 0cbd 4d50 973c 05d1 82bc
000000b0: df29 023d 6849 9e3c ff4b 06bc 95ba f33c
000000c0: 0007 f5bc 10d9 d4bc 2f47 803c def6 ddbc
000000d0: d83a 9c3b 0894 dfbc d9e6 0ebd 0eea 4ebd
000000e0: 1aa9 f83c b4b4 2c3d a1dd 5f3d e3f9 1e3d
000000f0: 67a0 8bbc 9289 25bd 2dd1 0dbd aa60 4a3d
00000100: 9610 48bd dd14 17bd b7c0 9ebc 340b d7bc
00000110: 62fa 5ebd c6a2 06bd a391 05bd a86f 91bc
00000120: 25c6 afbc 2d9f 883c 443c 32bc b488 193d
00000130: 952b 66bc 1310 77bd 2929 493d 02f8 3ebd
00000140: d2b5 3fbd 7bbc 143d 92cf b1bc 0393 ddbc
00000150: 9373 2abd 60b1 7bba a24f babc eade 3e3d
00000160: 42da 2abd bf40 3cbd 3218 ce3c 4c3d 18bd
00000170: 5942 b53c b875 463d 8425 b43c 11c0 253d
00000180: 87f3 5cbc 6d2e b33c 4d09 063d e578 cb3c
00000190: 3b3d fe3c 0ab2 56bd ab4b 27bd 7474 96bc
000001a0: ce71 0d3c 2b3a 3a3c 624e 9bbc e803 c33c
000001b0: bece e9bc 12db a53c e630 f13a a911 07bd
000001c0: bc87 9a3b b4d9 18bd 5efc afbc 6f35 0b3d
000001d0: 140d e23c a61c 1b3d 41cb c43c 52fb c7bc
000001e0: bfc0 5fbd 006f ffbc 5943 f73c abf7 5dbd
000001f0: 8973 d53c 1c5c ef3c e59c 55bc 892d 8ebd

bn2.running_mean f4 [128]
0.06382403 -0.05866476 -0.09912823 0.116265446 0.02180172 0.087797455 -0.09106505 -0.07261796
-0.036463734 0.05059508 0.027617441 0.11150041 0.02509679 0.09839794 0.09854958 -0.067201234
-0.05494674 0.060988557 -0.05839753 -0.07716748 0.046921402 -0.024254926 -0.08053708 -0.06723598
0.061946146 -0.05881929 -0.08472417 -0.04423888 -0.09372254 -0.04626179 0.06752896 -0.105557494
0.07692255 0.03933321 0.0397706 -0.022425672 0.10596238 -0.0041645975 0.13790841 0.050045516
0.07752024 -0.0521467 0.07612384 -0.07858499 0.0741281 0.11460834 -0.08132638 0.05628003
-0.0040730294 -0.08824474 0.080629356 -0.029101944 0.033117138 -0.10540499 -0.04356241 -0.03009131
0.016564706 0.07305804 0.013740113 0.10804685 -0.009687514 -0.022382308 -0.068794265 0.085718326
-0.124664925 -0.07668282 -0.082814746 -0.028105678 -0.039936803 -0.06198521 -0.07369698 -0.08682305
-0.018866898 0.03541099 -0.06380963 0.13370724 -0.003941947 -0.10698388 0.043996163 -0.048687898
-0.10541763 0.06804962 -0.08091934 -0.08462045 -0.07343714 -0.020796658 -0.037873536 0.0070513887
-0.09329118 -0.035485804 0.054255262 -0.081330195 0.063508146 0.12454823 0.039128095 0.117513984
-0.103566855 0.06056819 0.047270376 0.017005296 0.08635858 -0.08689265 -0.042462535 -0.056802463
0.11053407 0.029107926 -0.062790945 0.05976132 -0.04418686 0.10345763 -0.000687432 -0.036824554
0.0075954897 -0.08262246 -0.017646307 0.09961646 0.077750705 0.071462974 0.08175129 -0.049908757
-0.044854853 -0.040681932 0.024160447 -0.068289846 0.0787984 0.07272246 -0.07069574 -0.10145733
00000000: 2cb6 823d 764a 70bd be03 cbbd 941c ee3d
00000010: 8599 b23c 27cf b33d 5080 babd bab8 94bd
00000020: ff5a 15bd c93c 4f3d f93d e23c 545a e43d
00000030: c997 cd3c dc84 c93d 5dd4 c93d cda0 89bd
00000040: d50f 61bd 23cf 793d 4032 6fbd fc09 9ebd
00000050: a830 403d 44b2 c6bc a0f0 a4bd 04b3 89bd
00000060: 3ebb 7d3d 7fec 70bd de83 adbd d433 35bd
00000070: 9af1 bfbd 017d 3dbd a04c 8a3d 872e d8bd
00000080: 9289 9d3d dc1b 213d 7fe6 223d 0bb6 b7bc
00000090: ce02 d93d 2d77 88bb dd37 0d3e 87fc 4c3d
000000a0: eec2 9e3d c797 55bd d1e6 9b3d 2bf1 a0bd
000000b0: 79d0 973d c7b7 ea3d 728e a6bd e485 663d
000000c0: 0c77 85bb a9b9 b4bd 0121 a53d 3367 eebc
000000d0: d6a5 073d 92de d7bd 7f6e 32bd 0d82 f6bc
000000e0: b5b2 873c 749f 953d 361e 613c ab47 dd3d
000000f0: 61b8 1ebc 1a5b b7bc 02e4 8cbd 178d af3d
00000100: 5350 ffbd e20b 9dbd c79a a9bd e13d e6bc
00000110: c694 23bd 34e4 7dbd 71ee 96bd 49d0 b1bd
00000120: c18e 9abc 1d0b 113d a0ae 82bd 8dea 083e
00000130: 732b 81bb 5d1a dbbd 5235 343d f66c 47bd
00000140: 33e5 d7bd 995d 8b3d 0ab9 a5bd 7d4d adbd
00000150: 3666 96bd c15d aabc 4821 1bbd 560f e73b
00000160: 720f bfbd 9059 11bd c43a 5e3d 7290 a6bd
00000170: 8f10 823d 2413 ff3d c844 203d 2cab f03d
00000180: dc1a d4bd 5a16 783d 959e 413d b14e 8b3c
00000190: c4dc b03d c6f4 b1bd 32ed 2dbd b3a9 68bd
000001a0: b05f e23d bf73 ee3c 8a98 80bd 49c8 743d
000001b0: 48fd 34bd 98e1 d33d c834 34ba 58d5 16bd
000001c0: 96e3 f83b f735 a9bd fd8e 90bc b703 cc3d
000001d0: c33b 9f3d 2e5b 923d 386d a73d 206d 4cbd
000001e0: b9b9 37bd 19a2 26bd 21ec c53c 8cdb 8bbd
000001f0: 0e61 a13d 83ef 943d eec8 90bd dcc8 cfbd

bn2.running_var f4 [128]
0.26888674 0.35543898 0.31719458 0.32745427 0.25154757 0.41834453 0.19478662 0.32386532
0.2700865 0.2870419 0.18829952 0.28203666 0.17643969 0.38933182 0.27496946 0.2594479
0.20558986 0.31800473 0.28588355 0.42632425 0.23791504 0.17967278 0.21958879 0.3344193
0.2549109 0.3489669 0.37603587 0.29864377 0.327321 0.26758456 0.26049438 0.40032083
0.40227953 0.30119407 0.32591987 0.31811494 0.45740545 0.20835754 0.33912605 0.38609087
0.21945737 0.27178478 0.3262495 0.25050008 0.29018584 0.35797724 0.321937 0.22924817
0.3403186 0.3603644 0.32171306 0.2579357 0.23708369 0.3440256 0.26179776 0.290192
0.3709865 0.2545001 0.29622674 0.2761066 0.2670359 0.36268336 0.27371192 0.2729918
0.4134419 0.4002931 0.23634447 0.3190692 0.40488338 0.2447261 0.32934046 0.31809053
0.2441243 0.26753506 0.2295582 0.4629706 0.29530957 0.48611075 0.25818685 0.3296822
0.46120793 0.24102964 0.2956282 0.2970801 0.30555966 0.25636196 0.30586973 0.31289437
0.30498102 0.3901797 0.2682453 0.3021756 0.31893134 0.4492714 0.2568257 0.43453237
0.3033331 0.32989088 0.33187795 0.32458487 0.22755836 0.4018766 0.32742903 0.31044436
0.36323783 0.18796779 0.20391572 0.33178702 0.3867518 0.32315755 0.17540279 0.25605524
0.22949885 0.3009753 0.2619239 0.29446203 0.32915658 0.25364095 0.29430538 0.26757157
0.36631104 0.26834226 0.31212297 0.3805465 0.3459802 0.33066854 0.33396462 0.3947872
00000000: 86ab 893e 19fc b53e 5467 a23e 16a8 a73e
00000010: d8ca 803e 4131 d63e 2576 473e add1 a53e
00000020: c748 8a3e 28f7 923e 97d1 403e 1c67 903e
00000030: 9bac 343e 8056 c73e ccc8 8c3e 5bd6 843e
00000040: 2686 523e 84d1 a23e 545f 923e 2c47 da3e
00000050: 00a0 733e 24fc 373e e2db 603e 0239 ab3e
00000060: ae83 823e caab b23e c687 c03e d6e7 983e
00000070: 9e96 a73e d800 893e 855f 853e daf6 cc3e
00000080: 95f7 cd3e 1c36 9a3e f8de a63e f6df a23e
00000090: 0c31 ea3e ae5b 553e eea1 ad3e b4ad c53e
000000a0: 6fb9 603e 6027 8b3e 2d0a a73e 8c41 803e
000000b0: 3d93 943e cb48 b73e edd4 a43e 08c0 6a3e
000000c0: 3d3e ae3e af81 b83e 93b7 a43e 2610 843e
000000d0: 11c6 723e 2024 b03e 5b0a 863e 0c94 943e
000000e0: f1f1 bd3e d64d 823e 08ab 973e d85d 8d3e
000000f0: eeb8 883e a2b1 b93e f823 8c3e 95c5 8b3e
00000100: a8ae d33e 38f3 cc3e 4904 723e 0a5d a33e
00000110: e04c cf3e 7b99 7a3e 509f a83e c3dc a23e
00000120: b8fb 793e 5bfa 883e 4e11 6b3e 7c0a ed3e
00000130: d132 973e 82e3 f83e 1131 843e 1bcc a83e
00000140: 7223 ec3e 79d0 763e 945c 973e e21a 983e
00000150: 5172 9c3e e041 833e f59a 9c3e b133 a03e
00000160: 7926 9c3e a2c5 c73e 7357 893e c3b6 9a3e
00000170: f84a a33e e706 e63e a87e 833e 077b de3e
00000180: 7a4e 9b3e 75e7 a83e e8eb a93e fd2f a63e
00000190: 0f05 693e c5c2 cd3e c7a4 a73e 90f2 9e3e
000001a0: 4ffa b93e a17a 403e 48cf 503e fddf a93e
000001b0: 5504 c63e e874 a53e ca9c 333e ac19 833e
000001c0: bf01 6b3e 6f19 9a3e e41a 863e bac3 963e
000001d0: 3687 a83e 3add 813e 32af 963e 24ff 883e
000001e0: 1f8d bb3e 2864 893e 95ce 9f3e fed6 c23e
000001f0: 5124 b13e 634d a93e 69fd aa3e 8c21 ca3e

hidden3.weight f4 [16, 128]
-0.10039382 -0.08889682 -0.030397149 -0.043701764 0.061496463 -0.052849088 -0.031261552 0.049248446
-0.07299354 0.05070275 -0.088656895 -0.06439824 -0.06602442 -0.031330504 0.06207341 0.019924002
0.010244784 0.07761305 -0.07142358 -0.023379546 0.04260002 0.03015032 -0.04141096 0.07103477
-0.071414486 0.04873201 0.052434895 0.06836235 0.054809652 -0.037302148 -0.037368864 -0.045427095
0.009812019 0.023164993 0.028278813 -0.043687813 -0.040829387 0.0043703816 0.010509536 0.105471134
0.011056115 -0.0037596563 -0.09299914 0.03326663 -0.008148705 -0.029358596 0.06889315 -0.030412424
-0.029370138 0.0069765565 0.050881118 0.005824429 0.04346738 0.07460087 0.012172362 0.01623722
-0.05195393 -0.02760236 -0.074186 0.0013921326 -0.03792589 -0.028396828 -0.071049504 0.0064752297
0.056634173 -0.05897662 0.06355068 -0.06694288 -0.057329625 0.0647077 -0.007974502 -0.061846837
0.07031339 -0.01008671 -0.050467465 0.03930234 -0.10297642 -0.0002620359 -0.022051387 -0.0029756094
0.05499884 -0.047874954 0.04451233 0.009023507 -0.05959318 0.064241774 -0.07361959 0.0020355324
0.053859677 -0.051411506 -0.07951684 0.035711274 -0.0053482633 0.023929078 0.02482857 -0.084151424
0.085253365 -0.012320413 -0.050873045 -0.06570322 -0.051832587 -0.062206697 -0.06924887 0.05832814
0.025888084 0.030294936 -0.0013744863 0.04528967 -0.03899803 -0.081519715 -0.014564997 -0.011799029
-0.042596046 -0.0349963 0.00546696 -0.052617442 -0.009055767 0.0113838175 -0.07384064 0.10600559
0.02910187 0.0132969525 -0.07656341 -0.009334675 -0.046164367 -0.034245193 0.010234249 0.03197874
0.014679699 -0.009839234 0.084575854 -0.09337675 -0.002252415 -0.09083647 0.039654937 0.011963373
0.008821304 -0.011654972 -0.013806992 0.033712916 -0.08603324 -0.037904892 -0.05908609 0.008650699
0.036830086 -0.030360598 0.019732943 -0.0064888997 -0.072963476 0.020738484 0.06507587 -0.04904868
-0.048910316 0.11535836 0.051789608 0.046748143 -0.0059809703 0.03462895 0.027721811 -0.08485868
-0.08493076 -0.10331015 -0.11633193 0.07205307 -0.06501365 0.013731354 0.039359294 -0.07893927
0.0042304955 -0.066371605 0.044201773 -0.0015119022 0.07734115 0.02587828 -0.0125135 -0.0668933
0.0850085 -0.04454021 -0.06962265 0.07166344 -0.028523209 -0.0038150917 0.013002561 -0.043493558
-0.031782504 0.02025239 0.10549329 0.0087774675 -0.015160875 -0.018014334 0.12296463 -0.0864185
-0.058352906 0.07646374 -0.062425733 0.05989321 0.12451298 -0.012266655 -0.031002449 0.026679918
-0.06159813 -0.033868566 0.02636595 0.009014972 0.06830442 -0.035889458 -0.04250994 -0.03230717
-0.039699752 -0.013931345 -0.07204693 -0.026401188 -0.016932897 0.010034767 0.059391826 -0.031841848
0.03611754 0.022683883 -0.020964565 0.08274982 -0.1046653 -0.062604256 0.08460267 -0.021829536
-0.027662972 -0.0676681 0.08310322 -0.05532956 0.0025219717 0.075436175 0.097384624 0.01388751
-0.00756922 0.03157041 -0.029485924 0.050048407 -0.0038596953 0.025915002 -0.013303397 -0.08572672
0.13039874 0.001242062 -0.062016997 0.036002193 0.02968687 -0.03128878 -0.08867396 0.022234112
-0.014544031 0.0107349465 0.051036384 0.047539685 -0.027255192 -0.022272969 0.11623875 0.00637881
00000000: 469b cdbd 890f b6bd 7103 f9bc 9f00 33bd
00000010: b7e3 7b3d 4978 58bd 1d0c 00bd bdb8 493d
00000020: a37d 95bd b0ad 4f3d bf91 b5bd 39e3 83bd
00000030: d037 87bd 6a54 00bd b040 7e3d a937 a33c
00000040: bdd9 273c 97f3 9e3d 8746 92bd 7686 bfbc
00000050: 5c7d 2e3d cefd f63c 8a9e 29bd ad7a 913d
00000060: c241 92bd 379b 473d f9c5 563d 8f01 8c3d
00000070: 1680 603d 23ca 18bd 1810 19bd c311 3abd
00000080: 97c2 203c 83c4 bd3c f8a8 e73c fef1 32bd
00000090: b73c 27bd 6b35 8f3b 3030 2c3c 4001 d83d
000000a0: b524 353c 9164 76bb 5576 bebd 9742 083d
000000b0: 2582 05bc 7081 f0bc da17 8d3d 7a23 f9bc
000000c0: a599 f0bc 999b e43b b868 503d dada be3b
000000d0: da0a 323d 57c8 983d 966e 473c eb03 853c
000000e0: a5cd 54bd 581e e2bc d4ee 97bd 3878 b63a
000000f0: 2e58 1bbd 77a0 e8bc 6782 91bd 2a2e d43b
00000100: 3cf9 673d 7891 71bd dc26 823d 5919 89bd
00000110: 78d2 6abd 7885 843d 7ca7 02bc 1c53 7dbd
00000120: 7700 903d ba42 25bc f9b6 4ebd 7efb 203d
00000130: 4de5 d2bd dd61 89b9 1ca5 b4bc 7102 43bb
00000140: 7746 613d 8718 44bd 9052 363d 55d7 133c
00000150: fa17 74bd 3191 833d dec5 96bd 9166 053b
00000160: f79b 5c3d df94 52bd bad9 a2bd fc45 123d
00000170: 7c40 afbb ea06 c43c 4965 cb3c 9557 acbd
00000180: 5199 ae3d 8fdb 49bc 4160 50bd 698f 86bd
00000190: 684e 54bd 73cc 7ebd 5ad2 8dbd 7de9 6e3d
000001a0: 3f13 d43c 162d f83c 1b28 b4ba a981 393d
000001b0: 66bc 1fbd cff3 a6bd 06a2 6ebc b750 41bc
000001c0: 3179 2ebd 4858 0fbd 2f24 b33b 6385 57bd
000001d0: a45e 14bc 3183 3a3c c339 97bd 7519 d93d
000001e0: 0b67 ee3c 76db 593c 47cd 9cbd 77f0 18bc
000001f0: d916 3dbd b044 0cbd 8dad 273c 24fc 023d
00000200: 1f83 703c bd34 21bc 1b36 ad3d 4f3c bfbd
00000210: 419d 13bb 7908 babd 376d 223d 0602 443c
00000220: 3b87 103c 7ff4 3ebc b936 62bc 8e16 0a3d
00000230: 3232 b0bd 2942 1bbd 4204 72bd a9bb 0d3c
00000240: 25db 163d cab6 f8bc fba6 a13c d6a0 d4bb
00000250: e06d 95bd c1e3 a93c 7f46 853d 45e7 48bd
00000260: 2f56 48bd 0141 ec3d 5721 543d fb7a 3f3d
00000270: 04fc c3bb 16d7 0d3d da18 e33c 63ca adbd
00000280: 2ef0 adbd 4694 d3bd 6f3f eebd 8f90 933d
00000290: e025 85bd 79f9 603c 3637 213d e9aa a1bd
000002a0: f89f 8a3b d6ed 87bd eb0c 353d 052b c6ba
000002b0: 0965 9e3d b0fe d33c 6c05 4dbc 5bff 88bd
000002c0: f018 ae3d cc6f 36bd 5296 8ebd 48c4 923d
000002d0: 81a9 e9bc 9e06 7abb b208 553c 4d26 32bd
000002e0: 5f2e 02bd 57e8 a53c de0c d83d 5ecf 0f3c
000002f0: 5265 78bc cc92 93bc e1d4 fb3d 2ffc b0bd
00000300: 7503 6fbd 0599 9c3d 20b2 7fbd 9552 753d
00000310: a900 ff3d 15fa 48bc d9f8 fdbc d88f da3c
00000320: 524e 7cbd c4b9 0abd 68fd d73c 88b3 133c
00000330: 30e3 8b3d d300 13bd e71e 2ebd 8654 04bd
00000340: 359c 22bd 4c40 64bc 578d 93bd 4e47 d8bc
00000350: dcb6 8abc dd68 243c d844 733d 996c 02bd
00000360: fcef 133d 8dd3 b93c e1bd abbc bd78 a93d
00000370: c35a d6bd a936 80bd 2a44 ad3d dbd3 b2bc
00000380: 759d e2bc 9395 8abd 0532 aa3d 40a1 62bd
00000390: aa47 253b 487e 9a3d 9771 c73d 7088 633c
000003a0: 3807 f8bb f94f 013d 778c f1bc 8fff 4c3d
000003b0: f1f2 7cbb b34b d43c 7ef6 59bc 7e91 afbd
000003c0: 3f87 053e afcc a23a 8905 7ebd 0977 133d
000003d0: e131 f33c aa28 00bd b19a b5bd 5024 b63c
000003e0: 164a 6ebc a1e1 2f3c 870b 513d f9b8 423d
000003f0: 4846 dfbc cd75 b6bc 950e ee3d 5605 d13b

bn3.weight f4 [16]
0.989819 0.9317283 0.9869265 1.0455545 0.92806935 0.99685144 0.92207384 0.9836009
1.0039147 1.0292314 0.9134163 1.0352376 0.9626056 0.9910529 0.993275 0.99590373
00000000: c764 7d3f bf85 6e3f 37a7 7c3f bbd4 853f
00000010: f495 6d3f a831 7f3f 080d 6c3f 45cd 7b3f
00000020: 4780 803f dbbd 833f a7d5 693f aa82 843f
00000030: 526d 763f a5b5 7d3f 4547 7e3f 8cf3 7e3f

bn3.bias f4 [16]
-0.11145916 -0.3874589 -0.10699559 0.21563785 0.27968115 0.085126236 0.4633199 0.15737094
-0.43752095 -0.38621175 0.43365225 0.57532626 -0.2629455 -0.15302551 0.09855678 0.013928373
00000000: b344 e4bd 0361 c6be 8120 dbbd 2bd0 5c3e
00000010: 5e32 8f3e aa56 ae3d 4438 ed3e d925 213e
00000020: bf02 e0be 8cbd c5be ab07 de3e 9548 133f
00000030: cba0 86be b8b2 1cbe 23d8 c93d d533 643c

bn3.running_mean f4 [16]
-0.050272614 -0.049344987 -0.040448904 0.028993115 0.013348413 0.040046502 0.11197782 0.011334542
-0.0090124495 -0.14456904 -7.244374e-05 0.1671162 0.00029961695 -0.039081074 0.012963575 -0.004401787
00000000: a8ea 4dbd f81d 4abd c0ad 25bd f882 ed3c
00000010: 4db3 5a3c cd07 243d a154 e53d 84b4 393c
00000020: f4a8 13bc e809 14be f0ec 97b8 8220 2b3e
00000030: e815 9d39 7a13 20bd 2d65 543c de3c 90bb

bn3.running_var f4 [16]
0.6843447 1.3027344 0.6245986 1.556104 0.8829924 0.5321187 1.4983945 0.78472567
1.7811949 2.6020503 1.0347935 2.7564645 0.7296179 0.71232134 0.3009104 0.22966944
00000000: 3731 2f3f 00c0 a63f b2e5 1f3f 6a2e c73f
00000010: ca0b 623f ee38 083f 64cb bf3f c8e3 483f
00000020: 32fe e33f fe87 2640 1d74 843f ea69 3040
00000030: 3dc8 3a3f b15a 363f ee10 9a3e 772e 6b3e

output.weight f4 [1, 16]
0.08139768 0.45278084 0.067848414 -0.47555694 -0.29694217 -0.13603045 -0.47660428 -0.17145886
0.5866607 0.52633125 -0.51353985 -0.78876936 0.2903184 0.19472839 0.0026346133 0.028802602
00000000: d4b3 a63d e4d2 e73e 1cf4 8a3d 337c f3be
00000010: ce08 98be 914b 0bbe 7a05 f4be e992 2fbe
00000020: 652f 163f a5bd 063f 5977 03bf caec 49bf
00000030: 9da4 943e e166 473e 7aa9 2c3b 6ff3 eb3c
