models/focal_loss_checkpoints/checkpoint_epoch_390.pth (torch, 100242 bytes, 16 tensors)

hidden1.weight f4 [128, 30]
00000000: 7e6a dd3d e0c2 25be 7324 87bd 6786 68bd
00000010: b51b d63d ff89 c4bd 9eab cc3c 1c12 d43c
00000020: 565e bb3c 6d00 dcbd 66b8 0dbe 6f38 533e
00000030: a9bc b9bd 2601 ac3c d4ce 8abd b8f3 d83d
00000040: 80fe 58be 6bc3 5c3d b2f8 233e 3c20 823e
00000050: c693 653d 4f7a 433d 7d8e e9bd bb00 ce3c
00000060: eeab a83d 694f 9a3d 84f6 b6bd bd4c e93d
00000070: a0ec e23d c30a 92bd eff9 3cbe fb14 a43a
00000080: 8ab4 0a3d b75d 0d3d 95ba a7bc 8442 ed3b
00000090: 9463 a2bd 169c a539 fd33 30bd 82c1 15be
000000a0: 649f 7ebd af8b 29be 0a3e 2f3e 74ec 1b3e
000000b0: 6cc9 8f3d 9dd3 26bd 028d e5bd 5998 723d
000000c0: d38e da3d 26d3 d93d c19d 30be 0fc8 00be
000000d0: d75d e6bd f866 153d 7b84 553e f2e0 24be
000000e0: 6d72 c73d 15f0 533c 74ac 14be b084 2cbd
000000f0: bc58 103e f1f2 fe3b 2d8a 193d 3bf8 09be
00000100: e31b ca3b b1ed b13d ef90 c93d 502a 3fbd
00000110: 8830 c03d 187a e43d b38f 8f3c 920d 0bbe
00000120: d8bc 37be 72d7 e63d d1c6 073e 703f 253e
00000130: a95f 2bbe ac44 3ebe 2921 afbd acd6 e5bd
00000140: b27d 3e3d de40 1bbd 93b7 2bbe 8fbd b5bd
00000150: ab87 dbbd 2c30 b2bd db3d 483d c6ac 89bd
00000160: 99e4 293c 1b6c 133e 4a51 96bc 7041 2e3e
00000170: d9f1 a5bd aac9 a7bc ab40 b1bd 2299 a23c
00000180: 0e2c 3e3d 5eb8 1c3d 93fe 8abc 8dc0 85bd
00000190: 1b73 0e3e 1143 32be 7e14 2f3d 02f8 8e3d
000001a0: 4e53 68bd 19a2 123e 0b90 ecbd 30bb bfbc
000001b0: 8764 cfbd b695 7fbc 5457 f6bc ce29 17be
000001c0: ddb5 853d 9957 37bc 25e5 633e 0719 463e
000001d0: 953b 17be 1f3a 5b3d aeca 2e3d 2085 f6bd
000001e0: c9bb 863d 51b9 893c c6e7 4ebe 3561 f9bd
000001f0: cfb4 26be b761 f3bd dbfc fc3d 314b ddbd
00000200: 6fbb 143c 5a22 3b3e 33c9 e63d 59e7 a13d
00000210: b379 5c3e b555 a3bd 3d46 b83d 4e6b dfbd
00000220: c914 ca3d 0a57 c5bc 525b f1bd 7134 63be
00000230: e052 973c 245a b7ba 26ae 9cbd d9f2 033d
00000240: ec59 153e bed3 1c3e 8358 833c 95c4 68bd
00000250: 00c1 f83b 51bf a93c b919 94bd 6d11 83bd
00000260: 9d1c 2e3e 66d1 333d 1314 543e dae3 553d
00000270: d719 443e be0e 8a3c 793c fbbc 55c2 eb3c
00000280: d13f 753d b3d8 bf3d 3b61 4bbd e2c2 e23d
00000290: feb9 24be 01a6 763d 4496 c53d e457 b2bd
000002a0: ee58 5bbd 05f5 033e 2a06 953d aaf5 18bd
000002b0: 169a e7bd 8238 2e3c f9af c63d b084 e7bd
000002c0: c6b9 73bd e11a 08be 4b7a 95bd 2c09 433d
000002d0: a8a7 b5bd a036 52bd 1df2 4f3d ab5b 1cbe
000002e0: b256 49bd d748 263e 4086 4ebd 71ae 053e
000002f0: f220 063b b153 0abe a002 29bd a1a2 31be
00000300: 5166 443e 5a4b 443e 61ad 023e 481c 1c3d
00000310: 7555 ec3d 3bd6 843d b18e 8e3c 26e9 053d
00000320: f7e7 533d 89eb a8bc ef06 1ebe 5d2f fc3d
00000330: c9a6 fe3d b48a 08be 3320 7e3d faa1 803d
00000340: f19a 853b 9595 6dbd edd9 5cbc bbc9 85bd
00000350: 84a4 df3b 84d8 143e 96b1 40be ff9c 04be
00000360: c6d2 683d 54a5 d8bc a3d0 c1bd bbe1 2dbc
00000370: 6b8d 8b3d 2854 49be 90e5 1dbc a622 f43c
00000380: a9b0 9e3d c771 8bbc 2904 233e 2c59 0b3e
00000390: 976a cdbd 997f 1f3d 8a1d e63d 4a1a 66bd
000003a0: 8468 263e 1ef3 90bc ea43 323e 0388 53bd
000003b0: ab61 333e 6241 debd 9b32 ae3d 9704 4dbd
000003c0: 43cb dbbd a7c3 a13d 83c8 22be 4242 323e
000003d0: fad9 af3d f8c8 23bd e9b8 043d 23e8 063e
000003e0: f097 fa3c 9707 1c3d 69a0 493e b050 d33d
000003f0: 77ad cdbc e9d2 f63c 62b2 7a3e d89a f2bd
0.108113274 -0.1618762 -0.06598749 -0.0567688 0.104545034 -0.09596633 0.024984177 0.025887541
0.022872131 -0.10742269 -0.13839874 0.20626996 -0.09069187 0.020996641 -0.067777306 0.10593361
-0.21190834 0.053897303 0.16012838 0.25415218 0.05604913 0.047724064 -0.114041306 0.025146833
0.08235918 0.075346775 -0.08933738 0.1139159 0.11080289 -0.07130959 -0.18454717 0.001251846
0.03386358 0.0345132 -0.020474711 0.0072405953 -0.07929149 0.00031587546 -0.04301833 -0.14624599
-0.062163725 -0.16557191 0.1711351 0.15226918 0.0702084 -0.040729154 -0.11208536 0.05922732
0.10671773 0.106359765 -0.17247678 -0.12576316 -0.11248367 0.03647515 0.20851319 -0.16101435
0.09738622 0.012935658 -0.1451891 -0.04211873 0.1409635 0.0077804257 0.03748529 -0.13473599
0.006167875 0.08687914 0.09842097 -0.04667121 0.093842566 0.111561 0.017524576 -0.13579395
-0.17943132 0.11271562 0.13259436 0.1613748 -0.1673571 -0.18580884 -0.08551247 -0.11222586
0.04650659 -0.03790366 -0.16769247 -0.08874046 -0.10719236 -0.08700594 0.048887115 -0.06722407
0.010369443 0.14396708 -0.018349309 0.1701715 -0.081027694 -0.020481903 -0.086549126 0.01984841
0.046428733 0.038261764 -0.016967094 -0.06530867 0.13911097 -0.17408396 0.042744152 0.069808975
-0.05672007 0.14319648 -0.115509115 -0.023404688 -0.10126596 -0.015599659 -0.030070938 -0.14762041
0.06528828 -0.0111903185 0.2225538 0.19345485 -0.14768822 0.053522225 0.04267376 -0.1203711
0.06578786 0.016811999 -0.20205602 -0.12176744 -0.1627991 -0.11883872 0.12352916 -0.10805357
0.009077891 0.18274823 0.112688445 0.07905454 0.215308 -0.07975332 0.08997772 -0.109091386
0.09867246 -0.024089355 -0.11784996 -0.22187974 0.018472135 -0.0013988656 -0.07650404 0.03221402
0.14585084 0.15315148 0.016033417 -0.0568281 0.007591367 0.02072111 -0.07231469 -0.06399808
0.17003103 0.04390087 0.20710783 0.05221925 0.19150482 0.016852733 -0.030668484 0.028779188
0.059875313 0.09367504 -0.049653273 0.11072327 -0.16086575 0.060216907 0.096478015 -0.0870817
-0.053551607 0.12886436 0.07276566 -0.03734366 -0.113086864 0.01063359 0.09701533 -0.11304605
-0.05950334 -0.13291503 -0.07298716 0.04761617 -0.088698685 -0.051321626 0.050768007 -0.15269344
-0.049154945 0.16238724 -0.050421 0.13054825 0.0020466414 -0.13508488 -0.04126227 -0.17347194
0.19179656 0.1916937 0.12761451 0.03811291 0.11539737 0.06486174 0.017402025 0.03269305
0.05173489 -0.020620124 -0.15432332 0.12313721 0.124341555 -0.13334161 0.062042426 0.062808946
0.0040773083 -0.05800398 -0.013479692 -0.06532618 0.0068250317 0.14535719 -0.18817744 -0.12950514
0.056841634 -0.026446022 -0.094636224 -0.0106129 0.06814083 -0.1966101 -0.0096372515 0.029801678
0.07748539 -0.017022027 0.15919556 0.13608235 -0.10030096 0.038940046 0.11236103 -0.056177415
0.16250807 -0.017694052 0.1740872 -0.051643383 0.17517726 -0.108523145 0.08505746 -0.050053205
-0.107321285 0.07898646 -0.15896802 0.17408088 0.085864976 -0.03998658 0.032402907 0.1317449
0.030590028 0.038093176 0.19690098 0.10318124 -0.025107129 0.030129867 0.2448211 -0.1184594

bn1.weight f4 [128]
00000000: 3d12 833f 7d02 803f 9108 813f 4d42 813f
00000010: 849a 803f d4a0 873f 2065 853f 3469 803f
00000020: 61ab 833f ed4e 813f c4ff 803f 28f5 803f
00000030: 2294 813f 3fdd 7f3f 1f98 813f 7254 833f
00000040: 1ca9 813f 86b0 813f 0da8 833f 4cde 813f
00000050: fe56 833f 5312 803f 914d 823f b817 833f
00000060: 003b 833f 2bf9 823f cb71 7f3f 5d3b 843f
00000070: 7cd8 823f 4d08 813f 2784 823f 22e0 813f
00000080: bfec 823f 7fb2 863f a72d 823f d02d 843f
00000090: 6fb1 823f a715 833f 3b03 833f 4a20 853f
000000a0: a8ef 813f fd26 813f 42db 813f 9d03 8a3f
000000b0: d725 823f d624 803f e344 7d3f cea9 833f
000000c0: 7b31 813f 10ff 7c3f 354b 7f3f ccd0 833f
000000d0: e7f7 823f 8f73 813f 2ae5 863f e7db 833f
000000e0: 6a86 803f f651 823f 0c5c 803f 8510 833f
000000f0: 93aa 813f 6268 803f a092 823f 6bc9 853f
00000100: 41aa 843f cd0f 833f 9b90 823f 2ec2 843f
00000110: 7ade 833f 451a 833f 69e6 853f 35e3 833f
00000120: 42ba 803f d17a 813f e46f 7e3f cb20 863f
00000130: 0db5 863f fb76 833f 29f7 813f fe8c 7e3f
00000140: 7d21 823f c51c 853f ed4f 823f 8357 823f
00000150: 542b 813f 7556 853f e953 7e3f 1d8f 823f
00000160: 5601 823f ae67 833f 2e03 853f ab51 7b3f
00000170: b443 813f a9bd 803f 5953 803f f200 823f
00000180: fba3 853f a586 823f a2d6 823f ec04 863f
00000190: 2263 8c3f cade 7f3f e258 7b3f cf4a 803f
000001a0: 3c66 873f 7377 893f f505 823f 3188 803f
000001b0: 30ea 813f 0c99 7c3f cd3f 813f 5f5c 833f
000001c0: aa87 833f b390 823f bfe1 813f 2c26 833f
000001d0: 8297 833f 8d3d 813f 3c1c 853f edfb 7f3f
000001e0: 6caf 813f 71f7 853f d862 7b3f ed83 803f
000001f0: 94af 843f 39b7 833f 8a08 803f 09e3 823f
1.0239941 1.0000759 1.0080739 1.0098358 1.0047154 1.0595956 1.0421486 1.0032105
1.0286676 1.0102211 1.0078053 1.0074816 1.0123332 0.9994697 1.0124549 1.0260146
1.0129733 1.0131996 1.028566 1.0145965 1.0260923 1.0005592 1.0179921 1.0241613
1.025238 1.023229 0.9978301 1.0330616 1.0222316 1.0080658 1.019658 1.0146525
1.0228499 1.0523223 1.0170182 1.0326481 1.0210398 1.0240983 1.0235361 1.0400479
1.0151262 1.0090023 1.0145037 1.0782353 1.0167798 1.0011241 0.9893324 1.0286195
1.0093225 0.98826694 0.9972413 1.0298095 1.0231904 1.0113391 1.0538685 1.0301484
1.004102 1.0181262 1.002809 1.0239416 1.013018 1.0031855 1.0200996 1.0452093
1.0364457 1.0239197 1.020038 1.0371759 1.030227 1.0242392 1.0460941 1.0303713
1.0056841 1.0115606 0.9938948 1.0478758 1.0524002 1.0270685 1.0153552 0.99433887
1.016647 1.0399405 1.0180641 1.0182956 1.0091348 1.041701 0.99346787 1.0199925
1.0156658 1.0266016 1.0391595 0.9817149 1.0098786 1.005788 1.0025436 1.0156538
1.0440668 1.019734 1.0221751 1.0470252 1.0967753 0.99949324 0.981825 1.002283
1.0578074 1.0739578 1.0158068 1.0041562 1.0149593 0.9867103 1.0097595 1.0262564
1.0275776 1.0200409 1.0147017 1.0246024 1.0280612 1.0096909 1.0399241 0.99993783
1.013166 1.0466138 0.981977 1.004026 1.0366082 1.029029 1.0002606 1.0225536

bn1.bias f4 [128]
00000000: 065b 9dbd 7d0d 773d 1609 00bb b838 283d
00000010: 9a02 c13d 6621 87bd 0a94 423d 4497 493d
00000020: 7c1c 493d f5f5 d63d 3aac 76bd cc1a 1dba
00000030: a26a 573d 1155 c83c 6da3 00be 784f f7bc
00000040: baa2 5abc 78c5 83bc 63f6 763d 1f13 a63c
00000050: 5f5e 83bd e40e 083d 0fbf c83a 5185 273d
00000060: dac2 47bd 9246 213d 651e 3239 7c46 abbd
00000070: a687 303d cc0d 513b 9a24 8f3d c09e afbc
00000080: 5ef0 b43d 0015 40be 7527 c63c ed85 843c
00000090: 30e7 04bd 4fb5 90bc ab6f d8bc 4860 1b3e
000000a0: 014e c6bd cec9 6dbd 4b70 df3d 56e1 373d
000000b0: f5c1 8e3d e5c8 be3c 383a 98bd 5023 da3b
000000c0: 140c 013d 7548 2abd f50d 0c3d 3b97 f3bc
000000d0: f06a 913c 1c3f d33d df30 e3bd eb6a f1bc
000000e0: 916d 10bd 231b d2bc 52bd 0a3c ba28 f23d
000000f0: accb 38bd 1fa5 2a3d 9759 483d 5746 743d
00000100: 9ce0 0b3c cd88 d93b bc98 df3c 95b7 9fbd
00000110: 43b2 cb3b 18ff 60bd 5b9b 343d 2597 3e3d
00000120: c25c 1d3e 025b 71bd e40d a5bd 5ee5 8d3d
00000130: c0ee 0b3e 5cf7 883d 7710 98bd f5a3 90bc
00000140: b1fc f93d 2a69 6f3d dc86 103d de9d 073d
00000150: 6b2d e0bd f100 19bd ad67 043e 85f5 e4bd
00000160: bd98 723d 83a8 ae3a a8ae 3bbd b4bb 8dbd
00000170: 8477 933d adb2 f1bc d324 503d d59b 9a3d
00000180: 95cf 143d dcbf a43c 8ad3 c4bc fdce ab3d
00000190: 3b06 363d be94 053d 98ae 8abd ecb8 17bd
000001a0: 49ca 81bd 4172 7c3d ac2d 843b ff96 01bd
000001b0: 9baf 953c bb96 87bd 790e d43d 6814 a73d
000001c0: d02a 263d d52b a5bc 26b7 0bbd 12cb 813d
000001d0: 96dc 7a3d fc96 663c 2750 513d 6417 19bb
000001e0: b71c 523b 40da 8a3d a359 10be 94a1 7dbc
000001f0: 0ceb 753d 4b65 efbc 61e8 c8bd f9c5 663d
-0.07683377 0.060315598 -0.0019536666 0.041069716 0.09424324 -0.06598167 0.047504462 0.049216524
0.04909943 0.10496131 -0.06022284 -0.0005993068 0.052591927 0.024454625 -0.12562342 -0.03018926
-0.013344461 -0.016085371 0.060293566 0.02027279 -0.06414484 0.033217326 0.0015315729 0.040898625
-0.04876981 0.03937394 0.00016986726 -0.08363053 0.043098114 0.0031899093 0.06989403 -0.021438003
0.08834909 -0.18758011 0.024188736 0.016177142 -0.03244704 -0.01766458 -0.026420435 0.15173447
-0.09682847 -0.058053784 0.1091009 0.04489263 0.06970588 0.023289153 -0.07432979 0.0066570416
0.03150566 -0.041573007 0.034192998 -0.029735198 0.017751187 0.103147715 -0.11093306 -0.029469928
-0.03526074 -0.025647705 0.008467989 0.11824174 -0.04511611 0.041661378 0.048913565 0.059637394
0.008537438 0.0066386224 0.02729451 -0.07798687 0.006216319 -0.054930776 0.04409347 0.04653086
0.15367416 -0.058924682 -0.0805929 0.06928514 0.13665295 0.06687805 -0.074250154 -0.017656306
0.122064 0.0584499 0.035284862 0.03310954 -0.10946163 -0.037354413 0.12930174 -0.11179642
0.059227694 0.0013325367 -0.045820862 -0.06920567 0.0720053 -0.029504145 0.05081637 0.07549254
0.03633078 0.020111017 -0.024026651 0.08389089 0.044439536 0.032612555 -0.06771582 -0.03704159
-0.06337411 0.0616324 0.004033765 -0.03163814 0.018272212 -0.066205464 0.10354323 0.08158189
0.040568173 -0.020162502 -0.03411021 0.06337561 0.061245523 0.014074083 0.05110183 -0.002335989
0.0032060572 0.06779909 -0.14096694 -0.015480418 0.06003861 -0.029223105 -0.09809948 0.056341145

bn1.running_mean f4 [128]
00000000: 64f0 d2bc b646 0fbe c514 513e b1af 15be
00000010: becc 3b3d 8642 c03d 7a77 c3bd 86dd cfbc
00000020: 5d39 aa3d 19a7 703e 617f 593b 01cc 373e
00000030: 3199 22bd b25b 323d 0989 8f3b b623 97bd
00000040: 4854 583e 0e5e 5ebb 2304 3e3d 2a71 163d
00000050: 1021 d7bd d20e 00be 9e6b 1bbe 8b44 2c3d
00000060: 284c 0bbd 5c6b c0bd 64f4 163d 5b06 c93d
00000070: 9d42 c2bd 49c5 4c3d 8356 d9bb d2c4 153e
00000080: 980c 1b3c fd49 043d 43bf 973c 3782 5dbc
00000090: c380 7b3e e6f7 523e e633 7d3d 9773 11be
000000a0: c995 cfbd ed80 04be 395a d3bd 533f 30bc
000000b0: 39b0 143e b6d8 293e e7a6 6ebc 4ee6 1c3d
000000c0: bf8b 7abd b0c9 343e 0bce ce3d 3103 5d3b
000000d0: 2975 763d 1da5 81bc 73ea 213e 131a 29bd
000000e0: 13b0 113e d459 96bc d919 48bd 84ad f33d
000000f0: 247b bb3c 72f5 5b3d 8832 85be 774f ba3d
00000100: 0856 babd a579 5e3d e7ef 0b3e 1385 ecbb
00000110: 0702 263e e34e e1bd 64c0 c23b 95f1 25bd
00000120: 2c5f 7fbb d37a e6bd 5453 9c3d 8cd1 2c3e
00000130: 332a cdbd e4b1 6c3d 8833 28be 8a96 7d3e
00000140: 90c6 863d 489c 45bb b654 e13d 270b dabc
00000150: 099f 7ebd 9f79 41bd aa09 a6bd da99 783e
00000160: 733e 07be 521f 843c f685 bc3d 58a4 543e
00000170: 9363 15be 96dc 2b3c 505e 1fbd 6c4c c5bd
00000180: 46ad e73c 24b0 803d 62e4 bbbd e011 e0bd
00000190: 6730 05bc 7c62 36be ec7e 163e 59fb 8c3d
000001a0: 921a 1f3e d176 9fbd 1c13 02bd 56e2 fa3d
000001b0: 0ad3 7e3c f54a e93d 7889 5d3d fde0 f3bc
000001c0: a80f 9fbd 27ba a63c dbfc 8a3d e654 aabd
000001d0: ab23 bf3d e0b9 e33d 6eff d63d c588 00be
000001e0: c7fb c93d 6cac c1bd 07fb cd3d 1d0b c83d
000001f0: 9781 91bd d901 c1bd beee 96bd f7ca edbd
-0.025749393 -0.13991818 0.20418079 -0.14617802 0.045849554 0.09387688 -0.09544273 -0.025374185
0.083117224 0.23501243 0.0033187496 0.17948915 -0.039696876 0.04354448 0.0043803495 -0.07379858
0.21125901 -0.0033930573 0.046390664 0.036729015 -0.10504353 -0.12505654 -0.15177771 0.042057555
-0.034008175 -0.09395477 0.036854163 0.09815665 -0.09485362 0.049992833 -0.0066326275 0.14625862
0.009463452 0.032297123 0.018523818 -0.013519815 0.24560837 0.20602378 0.061817072 -0.1420425
-0.10135991 -0.12939806 -0.10319943 -0.010757285 0.14520349 0.16586575 -0.01456616 0.038305573
-0.06116843 0.17655063 0.10097893 0.0033723826 0.060170326 -0.015825802 0.15812092 -0.041284632
0.14227323 -0.01835338 -0.048852775 0.1189833 0.022885866 0.05370087 -0.26015115 0.09097188
-0.090984404 0.054315228 0.13665734 -0.007218012 0.16211711 -0.110013746 0.005943345 -0.040513594
-0.003896664 -0.112538956 0.07633081 0.16876811 -0.100178145 0.057786837 -0.16425908 0.24764457
0.065808415 -0.0030152965 0.110024855 -0.026616646 -0.062163386 -0.047235128 -0.08107312 0.2427744
-0.13207416 0.016128216 0.092052385 0.20765817 -0.14588766 0.0104896035 -0.038908303 -0.09633717
0.028280865 0.06283596 -0.0917442 -0.109409094 -0.008129216 -0.17811006 0.14696854 0.06883878
0.1553748 -0.07786334 -0.031756505 0.122502014 0.015553245 0.1139125 0.05408618 -0.029770369
-0.07766658 0.020352436 0.067865096 -0.08316974 0.09332975 0.11119437 0.10497938 -0.12552173
0.09862476 -0.09456715 0.10057645 0.09767745 -0.071047954 -0.094241805 -0.07369755 -0.11610978

bn1.running_var f4 [128]
00000000: ebe2 be3e 6e31 1a3f 9fe2 113f ac11 083f
00000010: 0410 cd3e 8e41 d43e cc75 b13e 15bd da3e
00000020: 49a9 363f c8b2 ab3f cc85 1f3f ed87 2e3f
00000030: e950 e73e c40b 653f f140 ab3e d6b9 a53e
00000040: 175f 7e3f ddf2 1a3f 3301 603f 6ebc 093f
00000050: a08a 323f 2e9e 423f b339 253f 8400 f13e
00000060: 309b 0b3f e432 b73e a502 0e3f e63e e63e
00000070: 0ce4 f23e f7e5 cb3e c659 ca3e 1c12 173f
00000080: 9f0b 4e3f 16d1 b03e b771 4e3f 0843 913e
00000090: 8157 5c3f 58af 6d3f 27d9 e63e a094 1f3f
000000a0: a9dd 313f 76f0 fc3e a182 1d3f c312 8b3e
000000b0: c267 403f 896b 573f 6240 b23e 1838 b73e
000000c0: c332 083f 6d8a 4d3f 05d2 503f f6f6 9c3e
000000d0: f2f8 3a3f 5cd4 083f 82c5 e33e 72e9 c73e
000000e0: 5c27 593f 55c9 a83e 037f 353f 527e 313f
000000f0: 430e a73e c9f3 383f 2d2f d23e ae9e 613f
00000100: bd20 f33e 92ea 1b3f 515b 443f 80ba 123f
00000110: 7bb7 1a3f 7335 f43e bdc3 c53e 3c65 cf3e
00000120: a55d ee3e 10eb 573f 7e45 063f 7ad9 903f
00000130: 1ab3 ae3e d84f 023f 09ea 4c3f b4d8 ab3f
00000140: fe75 b73e 9ad9 c33e 4918 113f dab5 9b3e
00000150: 0c6d 2d3f bd85 ee3e 448d eb3e b501 193f
00000160: 824f e33e d9ad a13e 818c e13e b7b1 5b3f
00000170: 68ed 393f 58e0 fd3e 1479 fc3e a517 563f
00000180: 8213 6f3e 2e48 073f b057 233f 4c5a f73e
00000190: 7e8f b63e 73ce 4a3f 3a84 053f 97aa e33e
000001a0: 0192 0f3f e623 af3e 64b7 463f c2ce 903f
000001b0: 548e e03e 07c4 9c3f e1aa 353f 2823 323f
000001c0: e37d b73e 2d8d 023f 0d1f c73e 47c9 d83e
000001d0: 9d4e 393f 6869 ad3e dc0c 753f 8e5a 653f
000001e0: ed69 773f da73 e63e acc5 2b3f 7d2b 213f
000001f0: c9a7 0a3f 9246 243f 2fbc 2a3f 3e5d e43e
0.372825 0.60231674 0.5698642 0.53151965 0.4005128 0.41456264 0.34660184 0.42722383
0.7135206 1.3413935 0.6231353 0.68176156 0.45178917 0.8947108 0.33447984 0.32368344
0.99363846 0.6052683 0.8750183 0.53803146 0.69742775 0.76022613 0.6454117 0.47070706
0.5453367 0.35781014 0.55472785 0.44969863 0.4743961 0.39823887 0.39521617 0.5901201
0.8048648 0.3453452 0.80642265 0.28371453 0.8607102 0.9284568 0.4508755 0.6233616
0.6947885 0.49402207 0.6152745 0.27162752 0.7515832 0.8414846 0.34814745 0.35784984
0.53202456 0.80289346 0.81570464 0.30657166 0.7303611 0.53449035 0.44486624 0.39045292
0.8482568 0.32966104 0.7089693 0.69333375 0.32628068 0.72246987 0.41051617 0.8813275
0.47485915 0.609048 0.7670184 0.57315826 0.6043622 0.4769703 0.386259 0.40506923
0.4655582 0.8434305 0.52449787 1.1316369 0.3412102 0.5090308 0.8004461 1.3425508
0.35832208 0.38251954 0.5667768 0.3041218 0.6774452 0.4658641 0.46006215 0.5976823
0.44396597 0.31577948 0.44052508 0.85818046 0.7262788 0.49585223 0.49311125 0.8362983
0.23347285 0.5284451 0.63805676 0.4831108 0.3565635 0.79221267 0.52154887 0.44466087
0.5608216 0.34207076 0.7762358 1.1313097 0.43858588 1.2247323 0.70963866 0.69584894
0.3583823 0.5099667 0.38890877 0.42341062 0.7238558 0.3386948 0.95722747 0.895913
0.96646005 0.45010263 0.670985 0.6295698 0.5416227 0.6417018 0.66693395 0.44602388

hidden2.weight f4 [128, 128]
00000000: 53ef 973d 322c c93a 5d83 84bd 50f3 013d
00000010: dcf2 1d3d a5e7 86bc c07d a53c 0113 cc3c
00000020: b930 ba3c 8dfc dabc 1daa 5dbd 1adc 6b3d
00000030: 3856 893c b302 b13d 90c2 71bd e094 d5bc
00000040: 8a08 fcbb f9f0 8d3c 9e69 9ebc 568a ffbc
00000050: 6935 83bc 2069 70bd 0289 083c 174d aabd
00000060: 6fae 06bd bbfd 273c a84b 87bd 3bad a33c
00000070: 6b8e c33d c1c8 58bc a1bf b03c b174 b5bd
00000080: d540 da3b b9a9 d13c 3abd 2ebc 0630 e8ba
00000090: d209 c7bd c9c6 c43c 5dec efbc 66f3 463b
000000a0: 0471 513d 97bc 823d be47 b53b 311c ac3d
000000b0: 2aa1 163c e1ab ebbb 90fc 793d babc b23d
000000c0: e088 9b3d 5e24 86bd fe39 21bd c4f4 1c3d
000000d0: 0001 48bd 39c9 05bc 4ae9 393d d983 5c3c
000000e0: ae5b 0bba 2c4f 153d dabf e73c a75f b4bd
000000f0: aa8c 7f3d e5fb 9c3c f590 713d 6259 c0b7
00000100: ea95 733b 9aaf b93c 62a4 15bc 3861 963d
00000110: db66 a1bd cf4a 2dbd d3cc 8dbd acde fe38
00000120: bf5e 70bd 3330 8a3d af03 fdbc 864e 723d
00000130: 1a5d d53d d691 65bd 93d9 43bd 87ba 17bd
00000140: a94b 29bd 2b92 a43d d864 543d 2c6d e9bb
00000150: 4eed 87bd b1a0 1b3d 74bf ad3d 0532 823b
00000160: 6674 29bc 3ab7 49bd 1262 bdbd a6b9 323d
00000170: 7fa5 613d 897a 893d ff54 bc3d 9137 933c
00000180: f051 0ebb 0f7f 8e3c 2157 9ebc 452a 9ebc
00000190: 37d9 803a dfd0 ab3c 636f 81bd 1950 98bd
000001a0: b9d9 f5bd bd3e 02bc 8ab5 383c a40d 753d
000001b0: 90f3 43bd 48f0 98bc ddbc 343d 9790 1d3d
000001c0: 23cd 12bd 4fb1 90bd 3043 90bd 73c0 d7ba
000001d0: eafb 173c d8a1 5a3d 1296 ea3c 8470 6a3d
000001e0: d925 10bd f325 163c b8eb 0bbd c4c6 a83d
000001f0: 25c2 43bc 02a6 513d adff 523d ff50 1d3c
00000200: d846 ee3c 6170 1dbc 7866 9e3c 0a87 923d
00000210: e810 42bc e77e a43d b00e 59bd b367 5bbc
00000220: 51d7 ff3b eb4b fb3b 1f6a e23d 230d bebd
00000230: ac09 6bbd cecf c3bb da2f 0b3d 8e14 dfbc
00000240: c71e c0bb 106f 84bd 2a42 babd 2de8 ddbc
00000250: 9d19 a83b 9c9d a53d c4ca dfbc ecca abbd
00000260: 7621 0a3d 2757 9f3d 1375 2d3b a9c1 9d3d
00000270: 5337 0a3d 1a57 51bb ae2e 76bd 3228 d03c
00000280: 0ac1 843d c255 54bd d1b9 7b3d c75d e83b
00000290: f8cc 28bd bcb3 533c e630 a2bc d2fc 4abd
000002a0: bff8 363d 71fd ae3d 97ae 7bbc 87e1 7abd
000002b0: 00f1 4cbd 299a 88bd 4802 92bd 2cf0 2abd
000002c0: 610a 4ebd c449 ccbc b4e3 3f3d 36d4 68bd
000002d0: 8078 9b3c 5fc8 35bc 0aa8 8bbd c90c 41bd
000002e0: abe8 40bd 204f ae3c 6122 833d 1384 6dbd
000002f0: 3817 1d3a 1909 b9bd 9bb6 d03d 5e5e 183d
00000300: 6696 0d3d ffa0 95bd 6c75 703c 7da0 9c3d
00000310: 4ad0 b9bc 3ab1 0c3d d3d8 b83b e469 1ebc
00000320: b834 12bd 6ea6 7f3c ca79 133d 6e54 e0bb
00000330: 7c61 fabc 1e7d c7bd 9f05 19bd e3d4 29bd
00000340: 6e3a 88bd d018 a4bd efa1 5bbd dee1 eebc
00000350: 0d80 113d e313 253d 394a 81bd ac0d 5b3d
00000360: 0ff2 fabb 480c ac3d 6e6b 383d b294 fb3c
00000370: 5c80 813d 5b02 6cbc 6a70 403c d0fa 8fbd
00000380: 55a0 7bbd 6b40 923b 6c22 3d3d 8e16 6f3c
00000390: 28b6 9bbd 497f 3dbd b1ef edbc 281d 193c
000003a0: f08a 793c c8b2 2c3d 91c4 a9bd 7858 493d
000003b0: dbce cabd 531b 2bbd 6bb7 073d cd55 81bd
000003c0: 2c40 68bd 0437 c73d 591e 56bd cdde 6f3c
000003d0: 7b45 afbd ba17 dfbd 60aa 35bd a8c5 b33d
000003e0: afab 64bd 00e5 613d 7a63 18bc 4132 fb3b
000003f0: ce27 5c3d 60e4 003d 9539 9b3d aff0 fe3c
0.07418694 0.0015348254 -0.06470368 0.03172618 0.038561687 -0.016467879 0.020201564 0.024911406
0.02272831 -0.026731754 -0.05411731 0.057582952 0.016764745 0.08643093 -0.05902344 -0.026071966
-0.0076914476 0.017326819 -0.019337472 -0.031193893 -0.016016679 -0.058694005 0.008333446 -0.08315485
-0.032881197 0.010253365 -0.06606227 0.019980064 0.095486484 -0.013231457 0.02157575 -0.08860148
0.0066605606 0.025593625 -0.010665232 -0.0017714507 -0.0971867 0.02402057 -0.029287511 0.003035748
0.05113317 0.06383627 0.005532234 0.084038146 0.009193698 -0.0071921204 0.061031878 0.08727403
0.07594466 -0.06549905 -0.039361946 0.038319364 -0.04882908 -0.008165651 0.045388497 0.013459169
-0.00053160905 0.036452457 0.028289724 -0.08807307 0.062390007 0.019163081 0.058976132 -2.2929806e-05
0.0037168213 0.022666741 -0.00913343 0.07342762 -0.07880946 -0.04230767 -0.06923833 0.0001215314
-0.058684107 0.067474745 -0.030885546 0.059156917 0.10418148 -0.056047283 -0.047814917 -0.03704312
-0.04133192 0.08035692 0.051853985 -0.00712361 -0.06637059 0.037995044 0.084837824 0.003973248
-0.010342693 -0.049247004 -0.09247221 0.04363408 0.05508947 0.06712825 0.09195899 0.017970832
-0.002171632 0.01739457 -0.019328656 -0.019307265 0.000983036 0.020973621 -0.063200735 -0.074371524
-0.12004418 -0.007949528 0.011273751 0.05982746 -0.0478397 -0.018669263 0.044125427 0.03846797
-0.035840165 -0.07065069 -0.07044065 -0.0016460553 0.00927637 0.053377002 0.028636012 0.05723621
-0.035192344 0.009164321 -0.034160346 0.082410365 -0.011948143 0.051183708 0.051513363 0.0096018305
0.029086515 -0.009609313 0.01933597 0.07154663 -0.011844851 0.08032017 -0.052992523 -0.013391423
0.00780765 0.0076689622 0.11055397 -0.092798494 -0.05738227 -0.0059757 0.03398118 -0.02723148
-0.005863044 -0.06466496 -0.09094651 -0.02708825 0.0051300065 0.08086702 -0.027318366 -0.08388314
0.033723317 0.07780295 0.0026467487 0.07702953 0.033744168 -0.0031942786 -0.06010311 0.025409792
0.06482132 -0.051839598 0.061456505 0.0070912573 -0.0412111 0.01292127 -0.019798707 -0.049557514
0.044670817 0.08544434 -0.01536145 -0.061250236 -0.050034523 -0.06670029 -0.07129341 -0.041732952
-0.050302867 -0.024937518 0.046848014 -0.056843005 0.018978357 -0.0110951355 -0.0681916 -0.047131334
-0.04709689 0.021277964 0.06403042 -0.057987284 0.00059925346 -0.09034938 0.10191079 0.03719937
0.03456726 -0.07306098 0.014676433 0.07647798 -0.022682328 0.034348704 0.005641082 -0.009668801
-0.035694808 0.015603645 0.03600482 -0.0068460023 -0.030564062 -0.09740661 -0.037358876 -0.04146279
-0.066517696 -0.08012545 -0.05362123 -0.029160436 0.03552251 0.04030217 -0.06312985 0.053479835
-0.00765825 0.0840078 0.045024328 0.030710552 0.06323311 -0.014404858 0.011745552 -0.070302606
-0.0614322 0.0044632456 0.046175405 0.01459278 -0.07603103 -0.046263967 -0.029044958 0.00934533
0.015230879 0.042162687 -0.08289445 0.049156636 -0.09902736 -0.041774105 0.033133905 -0.06315193
-0.056701824 0.0972729 -0.052275036 0.014640522 -0.08558174 -0.10893197 -0.044351935 0.08777934
-0.055827793 0.055150032 -0.009301061 0.007665903 0.0537489 0.031467795 0.07579342 0.031120626

bn2.weight f4 [128]
00000000: 6436 803f 2f36 7f3f c2a9 7f3f 545a 7c3f
00000010: 43bb 7e3f ee5f 7f3f 1cf3 7e3f 795d 7c3f
00000020: 8913 803f b0ce 7d3f bb14 803f f4fa 7e3f
00000030: fcd5 7f3f a5be 7f3f ecfc 7e3f 5d36 7e3f
00000040: 04fe 7d3f 1dcd 7d3f 018f 7f3f 7146 7f3f
00000050: fe86 7f3f 87d8 7d3f 17d3 7d3f 9905 803f
00000060: 0fcb 7c3f 98d2 803f 4307 7f3f 6636 803f
00000070: f0ae 7e3f 2413 803f 5357 7f3f bdae 7d3f
00000080: 9622 7f3f 3f71 7c3f d041 7b3f 6b82 7e3f
00000090: 573f 7f3f 2dba 7f3f 408b 7d3f e931 7d3f
000000a0: ccf3 7f3f 905c 7e3f 1e7d 7e3f e991 7e3f
000000b0: 236c 7d3f de38 7f3f 5503 803f 9538 7c3f
000000c0: 4bf8 7e3f 92ba 803f 42d9 7e3f 73df 7d3f
000000d0: 2285 7f3f f6dc 7f3f f656 7d3f 4ec9 7c3f
000000e0: 92b9 7e3f 0246 7a3f 879c 7d3f 8eae 7d3f
000000f0: 32ca 7e3f e306 803f 119e 7e3f 38a1 7d3f
00000100: feb2 803f 0057 803f 25f1 7e3f 12de 7e3f
00000110: d08c 803f e211 7d3f dd7e 803f 3c48 803f
00000120: 505d 803f e004 7e3f 800b 7f3f 2310 7f3f
00000130: 6d0d 803f f103 7e3f eb66 7c3f c377 7c3f
00000140: 8de6 7b3f fd17 7d3f 99fc 7e3f 29fe 7f3f
00000150: 26dd 7d3f 43b4 7f3f ff37 7e3f b81d 7d3f
00000160: b89e 7c3f d37e 7d3f 2cc1 7e3f 1ba4 7f3f
00000170: 737b 7f3f 7ed4 7d3f 9107 7e3f 8974 7d3f
00000180: 771b 803f 888e 7d3f 8454 7e3f e048 813f
00000190: e906 7d3f 856c 7c3f e2ad 7c3f b8b1 7f3f
000001a0: 00f4 7f3f 6b00 803f 518b 7f3f 6d75 803f
000001b0: 2902 7f3f bc6e 7e3f f618 803f 34a9 7c3f
000001c0: 098f 7f3f c25c 813f 4eec 7f3f cb14 7e3f
000001d0: 8248 803f 9fef 7e3f 07cd 7d3f 9a00 813f
000001e0: 437b 7e3f 83ae 7f3f fc67 7f3f 23ee 793f
000001f0: ffbe 803f 7807 813f 0044 803f 4dc2 7b3f
1.0016599 0.9969205 0.99868405 0.9857533 0.9950449 0.9975575 0.99589705 0.9858013
1.0005962 0.99143505 1.0006326 0.99601674 0.9993589 0.99900275 0.9960468 0.993017
0.9921572 0.99141103 0.9982758 0.9971686 0.99815357 0.9915852 0.9915022 1.0001708
0.9874734 1.0064268 0.99620456 1.0016601 0.99485683 1.0005841 0.9974262 0.99094754
0.9966215 0.986103 0.98147297 0.9941775 0.99706024 0.99893457 0.99040604 0.9890428
0.9998138 0.9935999 0.99409664 0.9944139 0.9899313 0.9969615 1.0001017 0.9852384
0.99597615 1.0056937 0.9955026 0.9916908 0.9981252 0.99946535 0.98960817 0.98744667
0.9950191 0.97763073 0.99066967 0.99094474 0.99527276 1.0002102 0.9945994 0.99074125
1.0054624 1.002655 0.9958671 0.995576 1.0042973 0.9885541 1.0038716 1.0022044
1.0028477 0.9922619 0.9962692 0.99634 1.0004097 0.99224764 0.9859454 0.9862024
0.9839867 0.9886473 0.99604183 0.9999719 0.9916557 0.9988443 0.99304193 0.9887347
0.98679686 0.99021643 0.99513507 0.9985978 0.99797744 0.9915236 0.99230295 0.99005944
1.0008382 0.9904561 0.9934771 1.0100365 0.9883867 0.9860309 0.98702824 0.9988055
0.9998169 1.0000128 0.99821955 1.0035836 0.9961267 0.9938772 1.0007617 0.98695683
0.9982763 1.0106432 0.9996995 0.9925048 1.0022128 0.9958438 0.9914097 1.0078309
0.9940683 0.9987566 0.9976804 0.9762899 1.0058287 1.0080404 1.0020752 0.98343354

bn2.bias f4 [128]
00000000: 69ab cf3b 9f0a 55bd 29b6 debc 13bd 903d
00000010: 6d55 b63c 1446 3e3d a435 c0bc cf7a 38bd
00000020: e374 d0bc 695e 2f3d 8e70 773c 2dca 383d
00000030: c328 0b3d 5851 6d3d 5bdb f93c b41c bdbc
00000040: 2183 49bd e2ed 313d 61a4 eabc 1d1f 6cbd
00000050: 94b0 a63c fe96 a1bc 3598 efbc 1dee 02bd
00000060: 3fa5 1b3d 0ab9 12bd b11a 82bd fa35 04bd
00000070: 24b0 eebc 8dbf 99bc cdbd cd3c c550 59bd
00000080: 62d7 073d ce12 253d 0b1a 4d3d 373b ecbc
00000090: 9cd8 623d 086e a7bc 8152 8a3d f4e4 353d
000000a0: c43c dc3c 2699 21bd aa92 cf3c 7155 a4bc
000000b0: 6922 183d ee8c d83c 54a9 3fbc 4775 0c3d
000000c0: 732a 22bd bcd6 18bd 5da8 973c 38b1 0dbd
000000d0: db43 883b a91c e7bc 2d82 1cbd e24b 5cbd
000000e0: 3f4d 213d b56b 433d 00a2 953d 3435 2a3d
000000f0: aa33 aabc 622f 45bd 3f59 2ebd 3a99 5d3d
00000100: 6641 81bd 89a4 38bd 2490 cfbc 67be 06bd
00000110: b920 8bbd 0959 19bd 3dfe 0fbd 7bde d3bc
00000120: fe5e e0bc d14c ce3c 3571 0fbc 860f 3d3d
00000130: ed48 adbc 0883 96bd 7c02 713d 95c2 53bd
00000140: 4482 78bd 2f1c 3e3d 6206 e6bc e2c6 02bd
00000150: eda4 44bd 4066 883a e5e3 f3bc e44b 683d
00000160: ddbe 45bd dd1b 4bbd 0544 e63c 59f1 50bd
00000170: 6eff d53c 92fe 6c3d 5cd3 f53c 694a 4a3d
00000180: 8a74 99bc 466d dd3c 2b4e 233d 7195 e73c
00000190: 5420 143d 794d 7bbd f08c 4fbd 2e3f b8bc
000001a0: 37c4 223c 1003 643c 5047 b6bc 8d92 133d
000001b0: 26a8 14bd a005 f13c 30a7 c43b 8824 21bd
000001c0: 9274 f53a 8f82 4bbd 7c6a d7bc 4bbe 2c3d
000001d0: 03f1 143d 369f 333d d37b e63c 4d63 1ebd
000001e0: 30aa 7bbd 4445 29bd 82b9 153d 1176 89bd
000001f0: 2c83 083d 3e34 263d 0d82 83bc 7387 9fbd
0.0063375724 -0.052012082 -0.02718647 0.07067313 0.022257531 0.04645355 -0.023463078 -0.045038994
-0.02544636 0.042814646 0.015102519 0.045114685 0.03397442 0.057938904 0.030500105 -0.023084976
-0.04919732 0.043439753 -0.028642835 -0.05764686 0.02034787 -0.019725319 -0.029247383 -0.031965364
0.037999388 -0.035821 -0.06352747 -0.03227804 -0.029136725 -0.018768096 0.025114918 -0.053055543
0.03316439 0.040301137 0.050073665 -0.02883683 0.055382356 -0.02043821 0.067540176 0.0444078
0.026884444 -0.039452694 0.02533849 -0.020060273 0.03714219 0.026434388 -0.011698086 0.034291532
-0.039591264 -0.03731416 0.018512899 -0.034592837 0.0041584796 -0.028211908 -0.038210083 -0.053783305
0.03938031 0.04771014 0.0730629 0.041554645 -0.020776588 -0.04814089 -0.04256558 0.054101206
-0.06311302 -0.045078788 -0.025337286 -0.032896426 -0.06793351 -0.037438426 -0.03515457 -0.025862923
-0.027389046 0.025183113 -0.008755018 0.046157382 -0.021152938 -0.07349211 0.05884026 -0.05169924
-0.060671106 0.046413597 -0.028079215 -0.03192795 -0.048008848 0.001040645 -0.029771755 0.056713
-0.048277725 -0.04958712 0.028108606 -0.051011417 0.026122775 0.057859965 0.03000801 0.04938737
-0.018732328 0.027029645 0.03986947 0.028269501 0.036163643 -0.06135318 -0.050671518 -0.022491064
0.009934477 0.013916746 -0.022250801 0.036028434 -0.03629317 0.029421628 0.0060013756 -0.03934148
0.0018726757 -0.049685057 -0.026295893 0.042173665 0.03636266 0.043853007 0.028135216 -0.03866892
-0.0614416 -0.041325822 0.036553867 -0.067119725 0.03332822 0.040577166 -0.016053224 -0.07789507

bn2.running_mean f4 [128]
00000000: e019 9e3d d02b 7ebd 61b9 e0bd ca76 e73d
00000010: 4da0 053d e47d d53d e9cf d4bd c392 9abd
00000020: 3607 3cbd 8f87 653d 80f6 fe3c 455d 003e
00000030: bb36 0b3d 7b21 e53d 1523 ea3d b313 a6bd
00000040: 32b5 4fbd 42ca a73d 3b97 9abd e483 a7bd
00000050: fab6 8d3d 1c83 f6bc d3a7 b9bd e62e 96bd
00000060: bd88 693d 9d94 6ebd 673f adbd 98e9 2fbd
00000070: 27d4 debd dc09 7cbd f4b4 803d 38a7 f9bd
00000080: c786 c33d 1a1a 2a3d ccae 3b3d a157 09bd
00000090: 5534 e93d 973c 8fbb dacc 1e3e d2d4 343d
000000a0: 9bab c53d c402 8dbd cfc6 a73d 8a43 d0bd
000000b0: 77ef bb3d 9230 0c3e af99 bcbd 0d8d 8b3d
000000c0: 37e0 bb3b 0915 c7bd 0ce9 ce3d 9fc0 18bd
000000d0: 5ec1 8e3c e97f 10be 8aaf 4abd 695b 48bd
000000e0: 546a 813c 0a62 a73d 5bb1 803c b7b0 f73d
000000f0: c523 31bd bce8 1ebd ce4b 86bd 7e4d bb3d
00000100: 1172 05be 90bd c5bd b1f3 e3bd 5792 c7bc
00000110: 8b40 61bd 9b3e 9abd b2ee adbd a1da f9bd
00000120: 4d47 eabc 0900 303d c6e9 babd a8b6 1f3e
00000130: 7dc0 f2bb a199 f9bd 76dc 423d 1a94 7abd
00000140: 0d97 01be 1c36 8a3d 5871 bdbd b565 c4bd
00000150: 0059 bbbd 080d 23bd 78a5 4bbd 5ba2 493c
00000160: b3d7 d5bd bdde 45bd 7b16 943d 6539 8bbd
00000170: 0ca5 9d3d c0e9 063e a9a6 383d 3cc6 f63d
00000180: 5c2e f2bd 2d4e 963d ac8e 133d 0cc4 d23c
00000190: 73c3 c23d 6260 e2bd 5a0e 1cbd 174d a3bd
000001a0: 8b4f fe3d 3823 403d 6c46 a6bd e65e 703d
000001b0: c150 51bd 052d df3d 320d 0bbb 33f7 4bbd
000001c0: 4454 6b3c e6b2 c1bd 9a60 d1bb 2c1b f53d
000001d0: 9795 9e3d b947 8a3d eb33 a33d 8ca9 4fbd
000001e0: 77d2 36bd 47e4 3abd 8945 fd3c 687c 74bd
000001f0: da37 d03d af52 963d 9362 afbd 26b9 f0bd
0.07719779 -0.0620535 -0.10972858 0.11301954 0.032623578 0.10424402 -0.10391218 -0.07547524
-0.045905314 0.056037482 0.0311234 0.1253558 0.033987742 0.111880265 0.114324726 -0.08109226
-0.05070991 0.081928745 -0.07548376 -0.08179453 0.06919666 -0.030091815 -0.09065213 -0.07333164
0.05701517 -0.058247197 -0.08459359 -0.04294738 -0.108803086 -0.06153284 0.06284514 -0.121900976
0.09547191 0.0415288 0.045820996 -0.033530835 0.11386935 -0.0043712365 0.15507832 0.044148274
0.09651872 -0.06885293 0.081922166 -0.10169132 0.09176534 0.13690403 -0.09209 0.06814013
0.0057335156 -0.09720809 0.10103044 -0.037293073 0.017426189 -0.14111294 -0.049483813 -0.0489153
0.015797772 0.08172996 0.01570957 0.120942526 -0.043247003 -0.03879617 -0.06557427 0.0914564
-0.13031794 -0.09655297 -0.11130465 -0.024361772 -0.054993194 -0.07531472 -0.08492793 -0.12199903
-0.028598452 0.042968784 -0.0912662 0.15597022 -0.0074082003 -0.121875055 0.04757353 -0.061176397
-0.12655278 0.06748602 -0.09250134 -0.095897116 -0.09147835 -0.03980735 -0.04971835 0.012306775
-0.10441532 -0.048308123 0.0723085 -0.067980565 0.07697496 0.13175106 0.045080815 0.12049529
-0.118252486 0.073391296 0.036024734 0.025728248 0.09509935 -0.1105354 -0.038099624 -0.07973688
0.12417515 0.046908587 -0.08118901 0.058684252 -0.051102404 0.10897259 -0.0021217582 -0.049796294
0.014363352 -0.0945795 -0.0063896896 0.11968073 0.07743376 0.06751961 0.07968887 -0.050698802
-0.04463431 -0.04562786 0.030916946 -0.059688956 0.10166903 0.073399894 -0.085637234 -0.11754064

bn2.running_var f4 [128]
00000000: aacf a73e acb0 cf3e 8221 b73e a63c b53e
00000010: 170d 893e e8f2 e93e 3166 5f3e aef5 a43e
00000020: a033 a03e c7c1 9e3e 4879 563e cd94 a33e
00000030: 3907 423e 4fa3 de3e aec6 993e be44 933e
00000040: a701 793e dc69 c43e 925a a73e 1d1e 013f
00000050: 8f3c 763e 5a34 533e 23e8 643e a277 c53e
00000060: d150 993e 5526 bb3e c92c d83e 86a7 ae3e
00000070: e02a bf3e 68ac 8e3e f67e 843e 8db2 dc3e
00000080: 01f0 f33e 5a01 a13e 92bb a53e ad48 ab3e
00000090: 7bc1 043f 6363 5a3e 0cd2 c23e a629 d93e
000000a0: fdeb 863e 875e a03e 171b a43e e410 9a3e
000000b0: edf4 983e 515f cb3e c479 b83e 42fd 893e
000000c0: 52cd b83e e37c d33e 6fb5 bf3e b8b2 853e
000000d0: 741e 683e f051 b73e 5812 a63e a78e a33e
000000e0: 883d ca3e 95e2 8f3e eab7 9e3e 6b80 9b3e
000000f0: 1977 8d3e c339 be3e 3fc5 a33e 4e7b ab3e
00000100: c3e9 f83e 966e e63e e488 963e 781d b33e
00000110: 5440 ec3e 695e 8b3e 523f bd3e 8519 ba3e
00000120: 9b24 923e 16dd 903e 58f1 833e 4772 fa3e
00000130: 12a0 983e 64be 103f 55b8 8d3e e4e5 b33e
00000140: b4c6 023f 0afc 7e3e a947 993e db43 a43e
00000150: 2f2b a63e 4f2f 873e 2311 c93e fc81 a83e
00000160: 7da5 b43e 7f48 d53e 4615 8f3e b32f ab3e
00000170: 0f6b b33e 7471 fa3e dbe6 9c3e b23c eb3e
00000180: 2fbe b13e a8f3 b43e 0e40 c43e 1295 ac3e
00000190: 7501 803e 6c74 f23e d189 b13e cc59 af3e
000001a0: c9f3 cb3e 757d 533e d183 6f3e c01a c03e
000001b0: abe1 d03e 2992 c53e 1de7 443e cb86 893e
000001c0: c267 743e f5d0 bb3e c4de 823e c89e 9f3e
000001d0: 07cf bb3e da43 883e 30a6 a83e 6bd1 a23e
000001e0: df97 db3e ab70 a83e 2213 b33e bf93 ed3e
000001f0: e61f c73e e2d8 ba3e 220f b43e 3bfd e13e
0.32775623 0.40564477 0.35767752 0.35397834 0.267678 0.45693135 0.21816327 0.3221869
0.31289387 0.31007215 0.20944703 0.31949463 0.18948068 0.4348397 0.30034393 0.28763384
0.24317037 0.38362014 0.32686287 0.50436574 0.24046539 0.2062544 0.22354178 0.38567835
0.2994447 0.36552683 0.42221668 0.34112185 0.373374 0.2786591 0.25878114 0.43104973
0.47644046 0.31446344 0.32369667 0.33453885 0.5185773 0.21326976 0.38050878 0.42414588
0.2635192 0.3132212 0.32051918 0.30091012 0.29874364 0.39721158 0.360304 0.26951033
0.36094147 0.41306219 0.3744311 0.26112914 0.22667867 0.358047 0.3243587 0.31944773
0.3950007 0.28102556 0.3099969 0.30371413 0.27629927 0.37153444 0.31986424 0.33492512
0.48615846 0.45006245 0.29401314 0.3498342 0.46142828 0.27220467 0.36962372 0.36347595
0.28543553 0.28293675 0.25770068 0.48915312 0.29809624 0.56540513 0.27679697 0.3513633
0.51084447 0.24900833 0.29937485 0.3208302 0.3245482 0.2640328 0.39270887 0.3291167
0.35282508 0.41656873 0.27945918 0.3343483 0.35042617 0.48914683 0.3064488 0.45944744
0.3471541 0.35342145 0.3833012 0.33707482 0.25001112 0.47354448 0.34675458 0.34248197
0.3983443 0.20653327 0.23390128 0.3752041 0.4079717 0.38588074 0.19228788 0.2686065
0.23867705 0.3668286 0.25560582 0.31175828 0.36681387 0.26614267 0.3293929 0.31800398
0.42889306 0.3289846 0.34975535 0.46401784 0.38891524 0.36493593 0.35167795 0.44138512

hidden3.weight f4 [16, 128]
00000000: 8788 d5bd 6c65 bcbd 808b 06bd b119 20bd
00000010: 0ab9 873d 54f3 4fbd d780 0abd 1ee5 3e3d
00000020: 617d 9dbd 7977 523d 86ec aebd f182 7ebd
00000030: 130c 74bd a204 f2bc e685 893d 848a 933c
00000040: b4f4 7c3c 8a48 a33d 07f7 95bd 6da3 d6bc
00000050: 7ecd 2d3d 549c d83c 3c55 40bd cf8d 8a3d
00000060: 69a1 90bd 75f1 303d 5b8d 4e3d 815b 883d
00000070: 9cb0 743d 917e 1fbd 0606 09bd f09b 40bd
00000080: 8ee7 2f3c ab67 d13c 29d9 f53c 18f0 3bbd
00000090: 15c9 29bd fc2b f4b8 c164 1d3c 05e5 df3d
000000a0: dd72 3c3c 6121 87bb b98f bbbd b517 0f3d
000000b0: 6dbb dbbb 280e dcbc a269 903d 768b fdbc
000000c0: a5ac 17bd 56bd 813b cd99 613d 0ce5 4a3b
000000d0: b0f1 283d d91b 973d 10f2 243c 5312 983c
000000e0: 2952 3abd 99c1 bdbc 1e4a 92bd 5dc2 f13a
000000f0: 14cc 27bd 333f ffbc b2e7 99bd c39d 143c
00000100: 44e3 783d 94a4 7bbd b189 7a3d efc1 89bd
00000110: 2ca0 63bd 8166 813d 0914 42bc efc0 84bd
00000120: e482 8f3d 29f2 07bc 61c0 55bd 1954 1c3d
00000130: 4322 e3bd fc52 8c3a 3c37 a0bc be6b 11bc
00000140: 68ad 583d 88fd 2cbd 40ae 283d ad4e 273c
00000150: a494 70bd c460 7d3d 0bc3 9dbd bd13 ec3b
00000160: 3441 613d 2d7c 5dbd e920 9cbd 91a5 063d
00000170: 6c4f b6bb 5894 df3c a3b6 d43c 6a6f abbd
00000180: 60fb b03d 0376 38bc 4916 48bd 3a1f 7cbd
00000190: 1b13 60bd e7d0 84bd 0c48 8cbd eef6 6e3d
000001a0: f396 e33c 20e1 043d a73d 0cbb 7466 263d
000001b0: 3b42 28bd eb8c 9fbd cdfc 8ebc b55a 74bc
000001c0: 295f 29bd acb2 00bd c61a dd39 4b03 4abd
000001d0: f379 02bc 2df7 2e3c 0b99 9bbd 0492 d73d
000001e0: 9f03 d03c becb b93b b204 91bd 12ec fdbb
000001f0: fae9 39bd 8cc7 e6bc 2703 d83b 664e fb3c
00000200: 1f7c 013d c95b 9abb ef61 aa3d afe4 9bbd
00000210: 434e 47b9 9c3b d1bd 3bf8 113d 57ab 223c
00000220: 6b40 abba e1fc 76bc 3a14 7ebc b241 143d
00000230: 4b03 b1bd e745 1dbd 3ba9 68bd cecc 5a3c
00000240: 8b5a 013d ca81 25bd 8ed1 c63c bb7a 493b
00000250: 9563 b1bd a3df 883c 067c 633d 78e9 53bd
00000260: 252c c7bc 2914 e13d f110 703d 8f07 4f3d
00000270: dd98 01bc ce05 2c3d 8e80 a33c 813e a9bd
00000280: 8b20 aabd 51f1 d3bd 8e3d e3bd 6d9a 923d
00000290: 6e95 84bd 5547 883c 96b7 1f3d 242c 96bd
000002a0: dda9 253c 9310 88bd fdb6 603d aaff 0b3c
000002b0: 208f 923d aa2c e13c 5982 233c f895 77bd
000002c0: 1552 9d3d d1ad 4bbd 284e 81bd 537d 903d
000002d0: 8190 0cbd 3923 ccbb 2532 8f3c 48b6 26bd
000002e0: a488 13bd 229c ac3c 9181 ef3d 6dfa 653c
000002f0: e206 7fbc 41aa d3bc 4b74 de3d 7aa6 a0bd
00000300: 821f 6cbd a2d2 a73d fe80 84bd d48b 933d
00000310: 3509 223e 0815 e4bb 2654 8dbc 1ed6 473c
00000320: 6e3e a3bd a7b4 2bbd 9f48 053d fe2c 053c
00000330: e1df 6f3d ec6b 88bc dde3 52bd 5dbc 4cbd
00000340: 4dc7 2ebd 0b07 f738 a9bf 70bd f2fa c4bc
00000350: 970f ffbb 656b 313c 6809 983d 20e8 03bd
00000360: 18a7 9f3c a1ae e9ba 9131 a7bc 2f24 ca3d
00000370: 5af4 c7bd a337 71bd 6224 ae3d 6301 cbbc
00000380: ec74 eabc a75e 9dbd 904c 973d 3a9e 6ebd
00000390: 6b50 fcba 3299 a73d 6d2c fe3d 80e3 6e3c
000003a0: 3e22 5bbc 27c6 033d 6960 b4bc 4462 1e3d
000003b0: a103 32bc b956 563c f98f 36bd 0616 bbbd
000003c0: 5753 0a3e 3b3a 49bc d5f2 8ebd e772 193d
000003d0: 83e3 f13c 444a ddbc 980a dbbd 5bcf 1a3d
000003e0: fc36 0bbb 6e4d 6a3c 8709 213d f8b7 903d
000003f0: 5e6c 9abc 97fb 0bbd ddb1 c93d bbe8 3b3c
-0.10426431 -0.09199032 -0.03284788 -0.039087 0.0662709 -0.050769165 -0.033814277 0.046605222
-0.0768993 0.05138347 -0.08541207 -0.062136594 -0.059581827 -0.029543225 0.06714992 0.018010385
0.015439201 0.0797282 -0.07322507 -0.026200974 0.0424323 0.02644173 -0.046956286 0.06765329
-0.070620365 0.04319902 0.050427776 0.06658078 0.05973874 -0.038939063 -0.03345301 -0.047023714
0.010736359 0.025562128 0.030010777 -0.045883268 -0.041451532 -0.000116430194 0.009606541 0.10932354
0.011501995 -0.004123852 -0.09158272 0.03493472 -0.0067056925 -0.026862219 0.07051398 -0.03095029
-0.03702988 0.003959338 0.055078316 0.0030959276 0.041246116 0.073783584 0.010067478 0.018563425
-0.04548851 -0.023163604 -0.07143043 0.0018444766 -0.04096611 -0.031158065 -0.075148955 0.009070816
0.060763612 -0.06143625 0.06116647 -0.06726443 -0.055572674 0.06318379 -0.011845597 -0.06482112
0.07007387 -0.008297482 -0.05218542 0.03816614 -0.11090519 0.0010705884 -0.019557588 -0.008875785
0.052899748 -0.042233974 0.041181803 0.010211629 -0.058735505 0.06185986 -0.07703217 0.0072045014
0.054993823 -0.0540735 -0.076234646 0.03287274 -0.005563667 0.027292415 0.025965994 -0.0837086
0.08641696 -0.011258605 -0.048849378 -0.061553217 -0.05470572 -0.064851575 -0.06849679 0.05834096
0.02778194 0.03244126 -0.0021399052 0.04062505 -0.041078787 -0.0779055 -0.01745453 -0.014914204
-0.041350517 -0.031420395 0.00042172353 -0.049319547 -0.007963645 0.0106790485 -0.0759755 0.10525897
0.025392352 0.00567004 -0.07080974 -0.007749089 -0.045389153 -0.028171323 0.0065921727 0.030677032
0.03161251 -0.0047106487 0.083194606 -0.07611977 -0.00019007274 -0.10216448 0.03563712 0.009928546
-0.0013065463 -0.0150749395 -0.015507752 0.036195464 -0.08643206 -0.038396742 -0.056802016 0.013354493
0.03158049 -0.04040698 0.024269845 0.003074332 -0.08661572 0.0167082 0.0555382 -0.051736325
-0.024313042 0.10990173 0.058609907 0.050544318 -0.007909981 0.041997723 0.01995876 -0.08263875
-0.08306988 -0.10348762 -0.11095725 0.07158361 -0.06473814 0.016635576 0.03899344 -0.07332638
0.010111299 -0.06643786 0.05486201 0.008544842 0.07156205 0.027487118 0.009979808 -0.060445756
0.076816715 -0.04972631 -0.06313735 0.07055154 -0.034317497 -0.006229785 0.017479965 -0.04070118
-0.036018983 0.021070544 0.11694635 0.014036757 -0.015565606 -0.02583802 0.10862025 -0.07844253
-0.057647236 0.08194472 -0.06469916 0.072044045 0.15823825 -0.006960515 -0.01725204 0.012197046
-0.07970892 -0.04192033 0.03253996 0.008128403 0.058563117 -0.016653024 -0.05148684 -0.049984325
-0.042670537 0.0001177919 -0.05877653 -0.024045441 -0.007783841 0.0108288275 0.07423669 -0.032203794
0.019488856 -0.0017828533 -0.020409377 0.09870183 -0.09763403 -0.05889095 0.08503033 -0.024780935
-0.028620206 -0.07684069 0.0738765 -0.058256365 -0.0019250041 0.081835166 0.12410817 0.014580607
-0.013374863 0.032171395 -0.022018628 0.038667932 -0.010865123 0.0130822 -0.044570897 -0.0913506
0.13508354 -0.01228195 -0.0697991 0.037463095 0.029527431 -0.027012952 -0.1069538 0.037795406
-0.002124249 0.014300687 0.039315727 0.07066339 -0.018850502 -0.03417548 0.09848378 0.0114690615

bn3.weight f4 [16]
00000000: 6fd2 7d3f b672 783f f07e 7c3f 3e77 8d3f
00000010: 922c 713f e5e7 813f 458f 753f ebbf 7e3f
00000020: c946 863f 74ce 8a3f e238 753f 7aa2 8c3f
00000030: c5ed 7a3f 02ae 823f cc44 7e3f 31d9 7e3f
0.9914922 0.97050035 0.9863119 1.1052015 0.94208634 1.0148894 0.95921737 0.99511594
1.0490352 1.0844254 0.9578992 1.0987084 0.9801906 1.0209353 0.99323726 0.9955016

bn3.bias f4 [16]
00000000: 9894 e6bd 973f cdbe d8ab e5bd d926 5a3e
00000010: bbf3 933e 56ee 9b3d 57c4 f03e 1215 1c3e
00000020: e876 e7be aa6c c6be 46e6 e53e 613c 153f
00000030: 9608 82be d5a6 12be 92bd c93d dc64 6d3c
-0.11258811 -0.40087578 -0.11214417 0.21303882 0.2889689 0.07613818 0.47024795 0.15242413
-0.45207906 -0.3875478 0.44902247 0.58295256 -0.25397176 -0.14321454 0.09850611 0.014489379

bn3.running_mean f4 [16]
00000000: 9f97 5bbd e3ae 64bd 0add c8bc b7fa 373d
00000010: ff86 543c 565b eb3c 9bac e53d 0b3a 8c3c
00000020: 7d19 febb e502 2ebe 7785 8b3b 541f 4b3e
00000030: c3f5 51bc 0aae 5fbd 5fa8 983c 2477 c33a
-0.053611394 -0.055830847 -0.024519462 0.044916835 0.012971639 0.028730076 0.112145625 0.01711752
-0.0077545033 -0.16993292 0.0042578536 0.1983617 -0.012814942 -0.054609336 0.018634973 0.0014912826

bn3.running_var f4 [16]
00000000: aa65 333f 6d91 b13f a7cb 153f 9c39 e03f
00000010: 4697 793f 4ef5 303f 3b1d cd3f ee6d 713f
00000020: dff1 f13f 8d52 3340 46a0 9f3f 919a 4240
00000030: b93e 423f 8197 7c3f 7247 9f3e 7928 7f3e
0.70077 1.3872505 0.58513874 1.7517581 0.9749645 0.69124305 1.6024545 0.94308364
1.8901938 2.8019135 1.2470787 3.040684 0.7587696 0.98668677 0.31109196 0.24917783

output.weight f4 [1, 16]
00000000: 0a38 9d3d cb33 f43e 5859 b73d 88c7 0bbf
00000010: 02e6 abbe a5d6 40be 2175 febe d6f3 38be
00000020: 8fb1 1c3f d121 0b3f c90a 18bf b16a 4ebf
00000030: 426d 9c3e 3bae 7d3e b99f 6d3c d4ef 143c
0.07676704 0.47695765 0.08952588 -0.54601336 -0.3357392 -0.1883188 -0.49698737 -0.18061766
0.6120843 0.54348475 -0.59391457 -0.8063155 0.30552107 0.24773495 0.014503413 0.009090383
