models/focal_loss_checkpoints/checkpoint_epoch_140.pth (torch, 100242 bytes, 16 tensors)

hidden1.weight f4 [128, 30]
0.10716925 -0.15686265 -0.05636396 -0.040707994 0.10900916 -0.09435062 0.0030590408 0.011728144
-0.027441952 -0.09969094 -0.14085698 0.18467797 -0.11732462 0.035053466 -0.04126239 0.061164077
-0.19260466 0.06683577 0.16059056 0.21654029 0.1141713 0.0041612745 -0.1234589 0.08052196
0.099715844 0.05637704 -0.055273432 0.18602861 0.10487272 -0.10599869 -0.1722727 -0.0069338772
0.016476296 0.024331192 -0.030363636 0.02168036 -0.07487575 -0.0013029069 -0.046018098 -0.14120677
-0.082187496 -0.15885194 0.17072085 0.1427673 0.058473535 -0.03054188 -0.12676413 0.061568547
0.09524789 0.13367824 -0.18193798 -0.12367085 -0.08816131 0.08926256 0.1865438 -0.16245385
0.114567205 0.019443616 -0.15074441 -0.030558493 0.13050857 0.0066796946 0.047593355 -0.12400453
-0.008655297 0.07465983 0.1190096 -0.041148774 0.12011221 0.11382812 0.024443991 -0.12222869
-0.17709117 0.113395415 0.1350242 0.17039028 -0.17378524 -0.17880623 -0.09128614 -0.11586298
0.015904002 -0.03400438 -0.17194577 -0.10710542 -0.097603984 -0.08248244 0.04599111 -0.07006102
-0.0051093176 0.123524606 0.0018175365 0.16716854 -0.08186608 -0.026020747 -0.083491944 0.056413155
0.04000264 0.034163117 -0.05239286 -0.091601916 0.1462556 -0.18014121 0.0207591 0.10326259
-0.03093792 0.11122984 -0.0661028 -0.044423696 -0.12853536 -0.026727913 -0.038706273 -0.1717621
0.06737306 -0.046204153 0.1937309 0.18387803 -0.14360052 0.03023782 0.07707607 -0.10750942
0.09356923 0.02039521 -0.18546835 -0.10640365 -0.16888918 -0.09967741 0.14664498 -0.032836474
0.07575141 0.18260139 0.14488743 0.12584913 0.2152634 -0.029864753 0.07056233 -0.16049747
0.046927705 -0.07374886 -0.09822377 -0.17485586 -0.026222931 0.042866312 -0.05565946 0.052960068
0.16904125 0.10708841 -0.035499252 -0.09519959 -0.012380564 0.021203738 -0.09067861 -0.064033814
0.16538349 0.014026192 0.1886284 0.029828899 0.21594845 -0.00992571 -0.047127318 0.040160645
0.04020234 0.100719094 -0.07131442 0.101635896 -0.15984802 0.10029915 0.08397073 -0.095874034
-0.06300849 0.0909495 0.06856814 -0.042804122 -0.084430836 -0.018346692 0.09681579 -0.053131882
-0.07666171 -0.13891684 -0.09287549 0.05959427 -0.12447178 -0.050068438 0.04247644 -0.11500918
-0.02677431 0.14736962 -0.05208104 0.089200996 -0.011259881 -0.15303324 -0.050171483 -0.19832756
0.17597538 0.14880128 0.12266702 0.04781676 0.14128533 0.054046888 0.01739253 0.055588596
0.031485334 -0.036670323 -0.12050031 0.13062605 0.13301513 -0.060421336 0.060959924 0.14240627
0.02058215 -0.12447876 -0.003647251 -0.066839136 -0.001694315 0.13258122 -0.18388137 -0.06546758
0.0347477 -0.04038963 -0.10972062 -0.012511167 0.087436646 -0.18270977 -0.044135157 0.06936216
0.08225153 -0.020915108 0.16687734 0.14189894 -0.097188875 0.03928113 0.08400584 -0.049140267
0.15640074 0.012010156 0.16183585 -0.08793848 0.1452601 -0.1528063 0.078898124 -0.11738738
-0.13089633 0.09716411 -0.1589014 0.1476988 0.06715508 -0.050299574 0.031832486 0.14441685
0.03661274 0.023077147 0.18657628 0.13444932 -0.021544103 0.028202977 0.21512683 -0.10135801
00000000: 8d7b db3d 9aa0 20be e5dd 66bd 6dbd 26bd
00000010: 3240 df3d e63a c1bd 307a 483b 6727 403c
00000020: f2cd e0bc c32a ccbd d03c 10be 391c 3d3e
00000030: e447 f0bd 3994 0f3d c002 29bd 2f87 7a3d
00000040: 283a 45be 31e1 883d da71 243e bdbc 5d3e
00000050: a4d2 e93d 4d5b 883b 05d8 fcbd b3e8 a43d
00000060: d237 cc3d 9ceb 663d 6566 62bd 497e 3e3e
00000070: 82c7 d63d d715 d9bd 4168 30be 9435 e3bb
00000080: 4cf9 863c 3552 c73c 29bd f8bc 039b b13c
00000090: 7558 99bd 4dc6 aaba 797d 3cbd 8298 10be
000000a0: eb51 a8bd 15aa 22be 72d1 2e3e 9731 123e
000000b0: f281 6f3d f732 fabc 75ce 01be 4d2f 7c3d
000000c0: 5311 c33d f3e2 083e f34d 3abe 2547 fdbd
000000d0: eb8d b4bd 4acf b63d 5705 3f3e 4d5a 26be
000000e0: 36a2 ea3d 3848 9f3c be5c 1abe ce55 fabc
000000f0: 0aa4 053e 57e1 da3b 40f1 423d 16f6 fdbd
00000100: f2ce 0dbc 41e7 983d 4ebb f33d 9e8b 28bd
00000110: 64fd f53d b81e e93d c43e c83c 0953 fabd
00000120: 6357 35be db3b e83d c943 0a3e ca7a 2e3e
00000130: c2f4 31be fb18 37be 3af4 babd 9249 edbd
00000140: 1c49 823c 2d48 0bbd 8d12 30be 165a dbbd
00000150: 99e4 c7bd 8eec a8bd 2d61 3c3d 277c 8fbd
00000160: 106c a7bb 78fa fc3d 683a ee3a 3b2e 2b3e
00000170: 67a9 a7bd 7629 d5bc d3fd aabd 7b11 673d
00000180: cfd9 233d a0ee 0b3d e599 56bd c999 bbbd
00000190: 07c4 153e f076 38be fd0e aa3c 567b d33d
000001a0: 8571 fdbc 78cc e33d e860 87bd 9ff5 35bd
000001b0: c69e 03be 7ff4 dabc 788a 1ebd 67e2 2fbe
000001c0: e3fa 893d 9140 3dbd 6561 463e 864a 3c3e
000001d0: 040c 13be 4eb5 f73c 0fda 9d3d e62d dcbd
000001e0: 39a1 bf3d db13 a73c 6aeb 3dbe 28ea d9bd
000001f0: 49f1 2cbe ac23 ccbd 1a2a 163e 8a7f 06bd
00000200: 8e23 9b3d dcfb 3a3e 5f5d 143e 98de 003e
00000210: 026e 5c3e eda6 f4bc fc82 903d 7359 24be
00000220: 4437 403d a409 97bd 8b29 c9bd 6a0d 33be
00000230: 79d1 d6bc 9694 2f3d 2dfb 63bd a8ec 583d
00000240: 2619 2d3e 2b51 db3d aa67 11bd 01f8 c2bd
00000250: d9d7 4abc 76b3 ad3c b5b5 b9bd 2924 83bd
00000260: 4a5a 293e 1dce 653c ce27 413e bc5b f43c
00000270: 9721 5d3e 729f 22bc 9308 41bd 7d7f 243d
00000280: 35ab 243d d045 ce3d 4b0d 92bd 7b26 d03d
00000290: 33af 23be a469 cd3d d9f8 ab3d 9b59 c4bd
000002a0: 980a 81bd bb43 ba3d 746d 8c3d 6053 2fbd
000002b0: 13ea acbd cd4b 96bc 5b47 c63d d1a0 59bd
000002c0: d100 9dbd 3740 0ebe 8135 bebd 1f19 743d
000002d0: 10eb febd 9014 4dbd c7fb 2d3d ef89 ebbd
000002e0: cc55 dbbc 10e8 163e ee52 55bd 03af b63d
000002f0: 5d7b 38bc bfb4 1cbe 9d80 4dbd 6116 4bbe
00000300: e432 343e 5d5f 183e d938 fb3d 82db 433d
00000310: 1aad 103e 4560 5d3d c77a 8e3c deb0 633d
00000320: c4f6 003d 9f33 16bd dec8 f6bd d6c2 053e
00000330: 1e35 083e 5d7c 77bd 1db1 793d f3d2 113e
00000340: e69b a83c b8ee febd b806 6fbb f5e2 88bd
00000350: c713 deba 5fc3 073e 664b 3cbe de13 86bd
00000360: 9b53 0e3d 996f 25bd 34b5 e0bd a3fb 4cbc
00000370: fc11 b33d 4518 3bbe 11c7 34bd c00d 8e3d
00000380: 7d73 a83d 2956 abbc e5e1 2a3e f54d 113e
00000390: f60a c7bd 40e5 203d 410b ac3d 4e47 49bd
000003a0: 8427 203e 3fc6 443c 4cb8 253e 1719 b4bd
000003b0: 10bf 143e 4179 1cbe 5795 a13d cb68 f0bd
000003c0: b009 06be fafd c63d 0cb7 22be 5b3e 173e
000003d0: 9a88 893d ed06 4ebd c862 023d 03e2 133e
000003e0: 3ef7 153d 490c bd3c da0d 3f3e 15ad 093e
000003f0: 427d b0bc ee09 e73c 354a 5c3e ca94 cfbd

bn1.weight f4 [128]
1.0031147 0.99671805 1.0040371 0.9983647 0.98697203 1.0205771 1.0034395 0.9999492
1.0124404 1.0026699 1.0045506 0.99703705 1.0026267 1.0003122 0.9852616 0.99614006
1.0003617 1.0002825 1.0034001 1.0042503 1.0088594 1.0002073 1.0024769 1.0063419
1.00714 1.0101055 0.99951714 1.0094807 0.99844545 1.0000789 0.99613637 1.0060536
1.003237 1.0042762 1.001218 1.012043 1.0128268 1.0100228 0.99730104 1.0024433
0.99486685 0.9883416 1.0014585 1.0215586 1.002405 1.0003673 0.98957807 1.0054805
1.0004263 0.98744106 0.9985582 1.0064269 1.0031166 0.99971473 1.0100955 1.0136504
1.0025979 0.99904495 0.99818856 1.004876 0.99834156 1.0021648 1.003828 1.0132431
1.0133185 1.0057908 1.0075731 1.0177432 1.0085402 1.0106175 1.0065331 1.0052193
0.99182755 0.99917793 0.9954368 1.0187379 1.0164695 1.0060779 1.0048809 0.9981401
0.9892793 1.0058311 1.0080811 1.0000501 0.9885788 1.008367 0.9880853 0.9919792
0.99423647 0.9963673 1.0086026 0.9819555 0.99251324 1.0024045 0.9926561 0.9962809
1.0003215 1.0073216 1.0039334 1.0139213 1.0333246 0.9927702 0.9808255 0.9970181
1.0139366 1.0263366 0.9997708 0.99471027 1.0023799 0.9930578 0.9932974 1.0035914
1.0115898 1.0092902 1.0061711 1.0019718 1.0082631 1.000477 1.0170381 1.0001746
1.0070777 1.0186361 0.982635 1.0029678 1.017188 1.004896 0.99551284 1.0086899
00000000: 1066 803f ea28 7f3f 4a84 803f d494 7f3f
00000010: 33aa 7c3f 45a2 823f b570 803f acfc 7f3f
00000020: a697 813f 7d57 803f 1d95 803f d23d 7f3f
00000030: 1256 803f 3b0a 803f 1b3a 7c3f 0903 7f3f
00000040: da0b 803f 4209 803f 6a6f 803f 468b 803f
00000050: 4e22 813f cb06 803f 2a51 803f d0cf 803f
00000060: f7e9 803f 234b 813f 5be0 7f3f aa36 813f
00000070: 1f9a 7f3f 9602 803f cb02 7f3f 5dc6 803f
00000080: 126a 803f 1f8c 803f e927 803f a08a 813f
00000090: 4fa4 813f 6d48 813f 1f4f 7f3f 1050 803f
000000a0: 98af 7e3f f503 7d3f cb2f 803f 6fc2 823f
000000b0: cf4e 803f 090c 803f fd54 7d3f 96b3 803f
000000c0: f80d 803f f0c8 7c3f 83a1 7f3f 99d2 803f
000000d0: 2066 803f 4eed 7f3f cf4a 813f 4cbf 813f
000000e0: 2155 803f 69c1 7f3f 4989 7f3f c79f 803f
000000f0: 5093 7f3f f046 803f 707d 803f f3b1 813f
00000100: 6cb4 813f c1bd 803f 28f8 803f 6945 823f
00000110: d817 813f ea5b 813f 14d6 803f 07ab 803f
00000120: 69e8 7d3f 20ca 7f3f f2d4 7e3f 0166 823f
00000130: ac1b 823f 29c7 803f f09f 803f 1c86 7f3f
00000140: 6941 7d3f 13bf 803f cd08 813f a401 803f
00000150: 8013 7d3f 2b12 813f 29f3 7c3f 59f2 7d3f
00000160: 4886 7e3f ed11 7f3f e419 813f 7061 7b3f
00000170: 5915 7e3f ca4e 803f b61e 7e3f 440c 7f3f
00000180: 890a 803f eaef 803f e480 803f 2cc8 813f
00000190: fb43 843f 3026 7e3f 6117 7b3f 943c 7f3f
000001a0: adc8 813f ff5e 833f fbf0 7f3f 55a5 7e3f
000001b0: fc4d 803f 0939 7e3f bd48 7e3f af75 803f
000001c0: c67b 813f 6c30 813f 37ca 803f 9d40 803f
000001d0: c40e 813f a10f 803f 4e2e 823f b905 803f
000001e0: ece7 803f ab62 823f f88d 7b3f 4061 803f
000001f0: 3733 823f 6fa0 803f eed9 7e3f c01c 813f

bn1.bias f4 [128]
-0.049647905 0.03902843 -0.0053452277 0.022255601 0.05213227 -0.036364343 0.030876765 0.025987122
0.022270337 0.060770568 -0.025648626 -0.0054306644 0.030131048 0.014218402 -0.08238338 -0.028757252
0.0005840743 -0.015543132 0.05159106 0.013545278 -0.045810837 0.029703459 -0.0056627644 0.020086637
-0.029720692 0.027510876 0.010588669 -0.049613718 0.020931698 0.0030476123 0.04925356 -0.010624143
0.054957196 -0.11158655 0.010593978 0.00013398552 -0.011850631 -0.014388271 -0.0194546 0.09909114
-0.07538789 -0.047893904 0.051134825 0.030338269 0.03683961 0.015235179 -0.04213999 0.009280111
0.02144184 -0.016166275 0.024829466 -0.010304913 0.025316073 0.039728783 -0.07531014 -0.005875073
-0.024373654 -0.014782738 0.010236848 0.06972648 -0.025675777 0.03498562 0.0154707655 0.023236845
0.0033885888 0.004774372 0.02259811 -0.033866126 0.010670594 -0.019120451 0.032068934 0.03634831
0.0867768 -0.043433126 -0.042540926 0.033243917 0.080238685 0.03950323 -0.035045356 -0.013757188
0.071991056 0.02074128 0.023480438 0.028422292 -0.06942267 -0.021556666 0.06923919 -0.08724132
0.04655155 -0.0023093948 -0.0064561833 -0.037289068 0.047392666 -0.024398768 0.02626883 0.042550255
0.009157623 0.0028163802 -0.015530392 0.05408223 0.01512602 0.008636898 -0.027473412 -0.01134326
-0.027581949 0.04965021 -0.0042643924 -0.024898995 0.016355563 -0.035784062 0.06318486 0.039704733
0.025200292 -0.015704026 -0.0057743546 0.03378047 0.023398936 0.010766779 0.026896553 0.0016773202
-0.0066935597 0.046001866 -0.08167721 -0.0069073066 0.030269476 -0.0037993398 -0.054600414 0.020071061
00000000: 9a5b 4bbd 46dc 1f3d 0527 afbb 6151 b63c
00000010: a688 553d c7f2 14bd 45f1 fc3c f2e2 d43c
00000020: 4870 b63c 8fea 783d 111d d2bc b7f3 b1bb
00000030: 63d5 f63c 4df4 683c 9eb8 a8bd 5494 ebbc
00000040: 901c 193a 9fa8 7ebc 2651 533d 04ed 5d3c
00000050: 25a4 3bbd ab54 f33c b68e b9bb bb8c a43c
00000060: cf78 f3bc 7d5e e13c 197c 2d3c c137 4bbd
00000070: f478 ab3c 73ba 473b 1abe 493d e310 2ebc
00000080: cc1a 613d 7d87 e4bd 5d92 2d3c 777e 0c39
00000090: 2629 42bc c8bc 6bbc 415f 9fbc 4cf0 ca3d
000000a0: f764 9abd 662c 44bd c072 513d f687 f83c
000000b0: 22e5 163d f99c 793c fb9a 2cbd 9b0b 183c
000000c0: cca6 af3c 236f 84bc 2a67 cb3c f0d5 28bc
000000d0: a763 cf3c a6ba 223d 343c 9abd af83 c0bb
000000e0: 42ab c7bc 4c33 72bc 74b8 273c c2cc 8e3d
000000f0: 0256 d2bc 154d 0f3d 1879 7d3c 325b be3c
00000100: 1613 5e3b 5672 9c3b ac1f b93c 35b7 0abd
00000110: b7d3 2e3c 7ea2 9cbc b75a 033d f7e1 143d
00000120: 09b8 b13d efe6 31bd 653f 2ebd c62a 083d
00000130: 2e54 a43d 24ce 213d b88b 0fbd d465 61bc
00000140: 0c70 933d 9ee9 a93c 0c5a c03c ded5 e83c
00000150: 792d 8ebd 9b97 b0bc 47cd 8d3d 94ab b2bd
00000160: d7ac 3e3d 3759 17bb 648e d3bb 6cbc 18bd
00000170: d01e 423d eddf c7bc bb31 d73c 2d49 2e3d
00000180: db09 163c 0593 383b 2f73 7ebc 5485 5d3d
00000190: 20d3 773c c781 0d3c ec0f e1bc 15d9 39bc
000001a0: 8af3 e1bc 055e 4b3d 51bc 8bbb faf8 cbbc
000001b0: 1afc 853c 4f92 12bd 1067 813d 6ea1 223d
000001c0: d870 ce3c bba5 80bc cc36 bdbb 645d 0a3d
000001d0: 20af bf3c 2567 303c 2956 dc3c 87d9 db3a
000001e0: a655 dbbb 746c 3c3d 6246 a7bd b056 e2bb
000001f0: b1f7 f73c 58fe 78bb afa4 5fbd 116c a43c

bn1.running_mean f4 [128]
-0.042728305 -0.09926131 0.1882288 -0.12314152 0.040116087 0.09806714 -0.15759389 -0.090261504
0.08145139 0.21793199 -0.038158983 0.13160516 -0.08536824 0.0537709 0.012542823 -0.040640242
0.2039868 -0.036472283 0.10964536 -0.007891137 -0.14165159 -0.13815422 -0.15218094 0.07323819
-0.016324412 -0.124142766 -0.045284487 0.11904202 -0.083003186 0.047833174 -0.037733637 0.17247929
-0.045261126 0.05862002 0.07634196 0.070897855 0.1834251 0.18743654 0.07935767 -0.1526048
-0.0978843 -0.11469887 -0.101772495 0.0047249114 0.15040334 0.16565003 0.043276187 0.05819316
-0.04428521 0.16656382 0.08588041 0.023964249 0.08917098 -0.022505904 0.16581562 -0.039051708
0.13750647 -0.035559095 -0.052953046 0.09748009 0.030816862 0.087771945 -0.2323751 0.08980144
-0.07755953 0.049654286 0.13355064 0.011672985 0.14834574 -0.09840301 0.015530468 -0.027181184
-0.036217388 -0.0787971 0.0692913 0.140864 -0.108887285 0.029705182 -0.1544696 0.212108
0.055367153 0.030382162 0.12330852 -0.028056148 -0.058088876 -0.013131532 -0.09023699 0.25213557
-0.12163345 0.0517778 0.10551829 0.18433878 -0.13844416 0.024623226 -0.07771041 -0.113283515
0.009934607 0.041706912 -0.07825192 -0.12207532 0.026056506 -0.1890945 0.11832572 0.052252617
0.11323109 -0.102683686 -0.05765891 0.08138826 -0.012996864 0.10402625 0.05708643 -0.03460835
-0.119532734 0.0036344412 0.04886826 -0.04264291 0.08028532 0.06704866 0.110552676 -0.17100842
0.069006644 -0.09493194 0.111666 0.13906515 -0.071025595 -0.08718464 -0.09526688 -0.097287804
00000000: e003 2fbd 8449 cbbd 0dbf 403e 9f31 fcbd
00000010: c450 243d 6dd7 c83d 4b60 21be 06db b8bd
00000020: fdcf a63d 9029 5f3e 984c 1cbd 81c3 063e
00000030: 8bd5 aebd e03e 5c3d 6a80 4d3c 6276 26bd
00000040: eae1 503e f663 15bd bf8d e03d d449 01bc
00000050: 1d0d 11be 4d78 0dbe 52d5 1bbe e7fd 953d
00000060: c6ba 85bc 903e febd 3a7c 39bd 4dcc f33d
00000070: 93fd a9bd b8ec 433d 968e 1abd 699e 303e
00000080: bb63 39bd 8c1b 703d 2c59 9c3d e532 913d
00000090: cad3 3b3e 5def 3f3e 4686 a23d 6f44 1cbe
000000a0: 9077 c8bd 3ee7 eabd 196e d0bd 6ed3 9a3b
000000b0: 5503 1a3e 29a0 293e 5f42 313d f35b 6e3d
000000c0: 6964 35bd b58f 2a3e 12e2 af3d ac50 c43c
000000d0: 469f b63d 4d5e b8bc 92cb 293e aff4 1fbd
000000e0: 7fce 0c3e 6aa6 11bd 4be5 58bd a4a3 c73d
000000f0: a573 fc3c c7c1 b33d bdf3 6dbe d1e9 b73d
00000100: 88d7 9ebd 4b62 4b3d 80c1 083e 0c40 3f3c
00000110: f2e7 173e 8487 c9bd 8173 7e3c 13ab debc
00000120: af58 14bd 6060 a1bd 99e8 8d3d a73e 103e
00000130: 4c00 dfbd 4858 f33c 472d 1ebe d732 593e
00000140: abc8 623d 03e4 f83c 2d89 fc3d 02d6 e5bc
00000150: 9aee 6dbd a325 57bc 2cce b8bd ea17 813e
00000160: f51a f9bd f514 543d f919 d83d 4ec3 3c3e
00000170: 4ec4 0dbe a6b6 c93c a326 9fbd 3001 e8bd
00000180: c3c4 223c ded4 2a3d 8b42 a0bd a002 fabd
00000190: 7474 d53c fda1 41be c154 f23d d706 563d
000001a0: b4e5 e73d d34b d2bd c02b 6cbd e3ae a63d
000001b0: ccf0 54bc b70b d53d 76d3 693d 7cc1 0dbd
000001c0: 94cd f4bd ce2f 6e3b 162a 483d 55aa 2ebd
000001d0: a16c a43d cf50 893d 7169 e23d d51c 2fbe
000001e0: 5b53 8d3d ad6b c2bd 25b1 e43d 1867 0e3e
000001f0: de75 91bd dc8d b2bd 481b c3bd d43e c7bd

bn1.running_var f4 [128]
0.506448 0.55083174 0.49843347 0.45682266 0.43191704 0.45573685 0.536605 0.49229556
0.60238284 0.8733099 0.6205561 0.6347103 0.41910198 0.71620584 0.37720427 0.28620043
0.82536095 0.49131918 0.76892066 0.46699926 0.47973165 0.65826625 0.61677724 0.44310227
0.37124717 0.4217789 0.4948354 0.39696988 0.47087467 0.37718445 0.39248958 0.5790241
0.67937505 0.34755725 0.60061073 0.40904665 0.66613215 0.7766223 0.4797456 0.5777446
0.5236995 0.45332617 0.5761405 0.2664831 0.64135313 0.7233541 0.37982407 0.3594626
0.5401754 0.8562797 0.73587555 0.29293534 0.6171372 0.60694313 0.44903743 0.33791652
0.76553506 0.334996 0.6979884 0.55890983 0.3741779 0.6452832 0.46027073 0.80874074
0.47138783 0.53293306 0.7663062 0.49720705 0.55170596 0.44551164 0.34380576 0.39621934
0.540661 0.6195712 0.5148874 0.7133069 0.38474107 0.38721424 0.5523403 1.0103915
0.42907676 0.36121258 0.5689477 0.3350206 0.6423131 0.46314475 0.47495678 0.5810939
0.3781987 0.3975762 0.4373998 0.6626128 0.6574436 0.48819065 0.5243068 0.62815744
0.2106327 0.5694575 0.69849473 0.5696863 0.39342883 0.8466325 0.48518008 0.48121363
0.49375388 0.38517705 0.77051383 0.9975599 0.3847001 1.1610892 0.580317 0.5669227
0.3796478 0.47902492 0.41433108 0.38959432 0.57252693 0.3323889 0.91945744 0.8379668
0.844581 0.42035115 0.7955791 0.5913008 0.48128733 0.5561592 0.6757667 0.41126424
00000000: 93a6 013f 4f03 0d3f ac32 ff3e a9e4 e93e
00000010: 3b24 dd3e 5756 e93e f25e 093f 2a0e fc3e
00000020: c335 1a3f 3d91 5f3f c4dc 1e3f 607c 223f
00000030: 8994 d63e 4459 373f eb20 c13e dd88 923e
00000040: db4a 533f 308e fb3e fcd7 443f 871a ef3e
00000050: 639f f53e 2384 283f 1de5 1d3f 4dde e23e
00000060: 1c14 be3e 67f3 d73e 115b fd3e a33f cb3e
00000070: 7c16 f13e 521e c13e 65f4 c83e ec3a 143f
00000080: 86eb 2d3f 06f3 b13e a0c1 193f 906e d13e
00000090: a387 2a3f b8d0 463f 37a1 f53e 12e7 133f
000000a0: 2c11 063f 5e1a e83e f27d 133f 7970 883e
000000b0: b82f 243f bc2d 393f 4d78 c23e 7b0b b83e
000000c0: ef48 0a3f 2535 5b3f 5762 3c3f 9ffb 953e
000000d0: b4fc 1d3f a060 1b3f 3ce8 e53e 6503 ad3e
000000e0: 1bfa 433f 9984 ab3e 5eaf 323f b714 0f3f
000000f0: 3f94 bf3e 4831 253f 9ba8 eb3e a209 4f3f
00000100: bf59 f13e 4d6e 083f a52c 443f ec91 fe3e
00000110: 9a3c 0d3f 1a1a e43e 4f07 b03e 43dd ca3e
00000120: c268 0a3f 389c 1e3f a9cf 033f 489b 363f
00000130: c8fc c43e f240 c63e 2d66 0d3f 8254 813f
00000140: f3af db3e dbf0 b83e 8ea6 113f d287 ab3e
00000150: a26e 243f 4f21 ed3e 892d f33e 92c2 143f
00000160: 43a3 c13e 1c8f cb3e def2 df3e fea0 293f
00000170: 394e 283f 20f4 f93e f838 063f edce 203f
00000180: 19b0 573e f7c7 113f 8dd0 323f f6d6 113f
00000190: 816f c93e e8bc 583f 8669 f83e a261 f63e
000001a0: 4fcd fc3e ed35 c53e 6540 453f 1660 7f3f
000001b0: 69f7 c43e 929e 943f a88f 143f d921 113f
000001c0: 3261 c23e c142 f53e 3423 d43e e878 c73e
000001d0: 2091 123f e12e aa3e 9061 6b3f fe84 563f
000001e0: 7636 583f 4438 d73e 12ab 4b3f 7d5f 173f
000001f0: 4b6b f63e 7360 0e3f 0cff 2c3f 3a91 d23e

hidden2.weight f4 [128, 128]
0.08389274 -0.00743847 -0.06611773 0.011702322 0.033481143 -0.006691741 0.01640689 0.022281049
0.03694762 -0.028685357 -0.053035002 0.06483164 0.01642 0.07695042 -0.055600226 -0.021866387
0.018847361 0.022040127 -0.036496334 -0.037144367 -0.02134467 -0.066112995 0.00405661 -0.080262244
-0.02615502 -0.0024092349 -0.06672253 0.042252935 0.06733741 0.0022620626 0.019588586 -0.09247904
0.0056369742 0.035002045 -0.035720143 -0.013296445 -0.0853581 0.040138714 -0.033625625 -0.0074314754
0.049085487 0.07402693 -0.0002792533 0.08423706 0.021357285 -0.004889784 0.07041614 0.08822298
0.08183047 -0.042222887 -0.048372533 0.055308938 -0.04516598 -0.026850482 0.048144545 0.020416731
-0.005502682 0.036920875 0.030069998 -0.092033595 0.066842414 0.029344816 0.05062791 -0.002097414
0.0065538697 -0.0011974177 -0.012550505 0.086002626 -0.06638344 -0.04479749 -0.07262806 -0.00560103
-0.06776279 0.0682234 -0.038750216 0.07086033 0.086510025 -0.058191247 -0.062499303 -0.03204577
-0.047289357 0.039409336 0.06081425 -0.010197183 -0.07292089 0.04043968 0.08329483 0.023037512
-0.021761216 -0.06273552 -0.06689688 0.042390466 0.04646594 0.06191738 0.08869682 -0.0051925723
-0.009245415 0.017603332 -0.025937438 -0.026851108 -0.017657518 0.019867517 -0.05851725 -0.07868728
-0.092884056 -0.0025074366 0.0179144 0.064432785 -0.05769158 -0.011626431 0.05147539 0.024543256
-0.043807644 -0.068521276 -0.06416984 -0.022565836 0.018777005 0.062248416 0.030397134 0.06118095
-0.03231884 0.0071230587 -0.02573155 0.08077446 -0.007732628 0.049330562 0.04478363 -0.007434062
0.032735746 -0.018727418 0.02176996 0.06908782 -0.00915058 0.077383995 -0.057642743 -0.006626945
0.016799701 0.015453032 0.11463657 -0.07620176 -0.050733738 -0.021122707 0.021430913 -0.047153443
-0.012610732 -0.06755173 -0.082195885 -0.019362565 0.020167058 0.07873691 -0.049426973 -0.08897189
0.02554846 0.08073653 0.015411903 0.074757695 0.04632774 -0.0055981562 -0.06616377 0.019004025
0.07832348 -0.06613376 0.07130896 0.011167814 -0.031918388 0.025931725 -0.023707764 -0.054430112
0.052714903 0.061061215 -0.0132496 -0.051541362 -0.048132483 -0.058323935 -0.07617742 -0.043942057
-0.05560286 -0.018596625 0.049397808 -0.06290649 0.023641765 -0.0063811676 -0.053051118 -0.06522826
-0.04136611 0.0075266263 0.05240294 -0.0594658 -0.00091763027 -0.08997378 0.09574691 0.051049262
0.026662696 -0.06312635 0.014487908 0.08428543 -0.022848213 0.02172968 0.012858598 -0.009233077
-0.022074178 0.021905994 0.049623962 -0.016495595 -0.031750757 -0.09715608 -0.046175893 -0.040545076
-0.045076225 -0.07507031 -0.04824215 -0.038911942 0.03147161 0.035282135 -0.071100265 0.057283152
-0.019250339 0.07626485 0.04558516 0.034297485 0.06869258 -0.010749469 0.0031657303 -0.075660594
-0.04778273 0.014134501 0.048285507 0.022704897 -0.08125314 -0.056733876 -0.029480882 0.010634056
0.014787587 0.03475688 -0.08012238 0.053964484 -0.09869164 -0.037407927 0.028704364 -0.074594595
-0.052286137 0.08968107 -0.064744905 0.018970547 -0.0790135 -0.08672609 -0.03324795 0.08670028
-0.06028476 0.051554754 -0.02078488 0.024782477 0.05109313 0.02694266 0.07540899 0.027818045
00000000: f5cf ab3d 69be f3bb bc68 87bd 19bb 3f3c
00000010: 8623 093d 6446 dbbb be67 863c bf86 b63c
00000020: 6356 173d 8efd eabc 3b3b 59bd 73c6 843d
00000030: 3c83 863c 2f98 9d3d 10bd 63bd 2321 b3bc
00000040: c865 9a3c 7f8d b43c 2e7d 15bd b124 18bd
00000050: 04db aebc 4066 87bd 50ed 843b 8860 a4bd
00000060: 0d43 d6bc 41e4 1dbb d2a5 88bd 6a11 2d3d
00000070: 32e8 893d 1d3f 143b 3e78 a03c a765 bdbd
00000080: 5eb6 b83b 4e5e 0f3d 494f 12bd 55d9 59bc
00000090: 3ad0 aebd 7e68 243d 06bb 09bd bc83 f3bb
000000a0: dd0d 493d 6e9b 973d be68 92b9 7b84 ac3d
000000b0: 79f5 ae3c 7b3a a0bb 5636 903d 40ae b43d
000000c0: bc96 a73d e8f1 2cbd 4722 46bd a08b 623d
000000d0: f6ff 38bd 8bf5 dbbc 3733 453d fd40 a73c
000000e0: d84f b4bb 583a 173d 5b55 f63c 1c7c bcbd
000000f0: ade4 883d 8a64 f03c 365f 4f3d c574 09bb
00000100: d8c1 d63b acf2 9cba a2a0 4dbc 2522 b03d
00000110: 0af4 87bd 937d 37bd 05be 94bd d888 b7bb
00000120: 38c7 8abd b6b8 8b3d 8cb8 1ebd 381f 913d
00000130: 2b2c b13d f259 6ebd 45ff 7fbd 6d42 03bd
00000140: 7cb2 41bd af6b 213d 5d18 793d 1612 27bc
00000150: 8c57 95bd 14a4 253d 7b96 aa3d 2ab9 bc3c
00000160: 9444 b2bc 7b7b 80bd 3b01 89bd a0a1 2d3d
00000170: 1253 3e3d 149d 7d3d aea6 b53d 7426 aabb
00000180: 157a 17bc dd34 903c c07a d4bc dbf6 dbbc
00000190: 80a6 90bc 34c1 a23c c9af 6fbd cc26 a1bd
000001a0: ff39 bebd ce53 24bb 38c1 923c 56f5 833d
000001b0: 024e 6cbd c97c 3ebc dcd7 523d f00e c93c
000001c0: a56f 33bd e254 8cbd 7a6b 83bd fddb b8bc
000001d0: 3cd2 993c 32f8 7e3d 6903 f93c e098 7a3d
000001e0: c360 04bd 8c68 e93b f9ca d2bc 156d a53d
000001f0: fc61 fdbb d80e 4a3d 0a6f 373d 6f99 f3bb
00000200: eb15 063d 3e6a 99bc ea56 b23c ea7d 8d3d
00000210: 50ec 15bc 807b 9e3d cc1a 6cbd d826 d9bb
00000220: 879f 893c b72e 7d3c 94c6 ea3d ab0f 9cbd
00000230: 2ece 4fbd 8709 adbc e28f af3c f823 41bd
00000240: 3e9d 4ebc 9058 8abd 5156 a8bd 3e9e 9ebc
00000250: 6335 a53c d140 a13d f073 4abd e536 b6bd
00000260: 014b d13c 3259 a53d 3582 7c3c 901a 993d
00000270: 28c2 3d3d bd70 b7bb df80 87bd 54ae 9b3c
00000280: 1068 a03d 2371 87bd 6f0a 923d 35f9 363c
00000290: dbbc 02bd c56e d43c c936 c2bc 1cf2 5ebd
000002a0: 95eb 573d 531b 7a3d da14 59bc 091d 53bd
000002b0: 9126 45bd 14e5 6ebd e802 9cbd 96fc 33bd
000002c0: d3bf 63bd f357 98bc 5b55 4a3d 1ed5 80bd
000002d0: 60ac c13c 1d19 d1bb 214c 59bd 6596 85bd
000002e0: 836f 29bd eba1 f63b 77a4 563d 6992 73bd
000002f0: 208d 70ba 2c44 b8bd f516 c43d 0819 513d
00000300: ba6b da3c 6348 81bd b15e 6d3c d79d ac3d
00000310: 2d2c bbbc 7102 b23c deac 523c 5546 17bc
00000320: e8d4 b4bc 3374 b33c 7f42 4b3d c521 87bc
00000330: 150d 02bd c4f9 c6bd ef22 3dbd 9812 26bd
00000340: d9a1 38bd 76be 99bd 9099 45bd 2162 1fbd
00000350: 60e8 003d 0084 103d 049d 91bd bda1 6a3d
00000360: e3b2 9dbc bf30 9c3d 81b7 3a3d 857b 0c3d
00000370: b2ae 8c3d 8a1e 30bc 2478 4f3b f1f3 9abd
00000380: d3b7 43bd 6594 673c 06c7 453d 9fff b93c
00000390: 0c68 a6bd c861 68bd e481 f1bc 773a 2e3c
000003a0: a347 723c 3b5d 0e3d 3417 a4bd dd09 5d3d
000003b0: d81e cabd 0e39 19bd 6a25 eb3c 0dc5 98bd
000003c0: fd29 56bd b5aa b73d fa98 84bd 1f68 9b3c
000003d0: d4d1 a1bd 739d b1bd 012f 08bd eb8f b13d
000003e0: 27ed 76bd 142b 533d 0d45 aabc 9f04 cb3c
000003f0: 0847 513d dab6 dc3c 0770 9a3d abe2 e33c

bn2.weight f4 [128]
1.001176 0.9924113 0.99725676 0.9857893 0.996876 0.9939666 0.9936192 0.987432
0.99796426 0.988262 0.99943054 0.99402237 0.9954712 0.9918146 0.9925033 0.99653673
0.99442476 0.9903919 0.99421227 0.9890756 1.0001807 0.9962667 0.99296945 0.99715346
0.9911755 0.9979979 0.99148923 0.9984903 0.9949742 1.0007423 1.0011731 0.9933304
0.99296075 0.98371804 0.9878665 0.9953297 0.99410355 0.99942124 0.9892188 0.99379194
0.9963482 0.99292004 0.99577385 0.9979304 0.9919403 0.99957573 1.0002837 0.9863805
0.997644 0.99947083 0.99462503 0.99039644 0.99896425 0.99767876 0.98721784 0.9841898
0.9949183 0.98249125 0.9885916 0.9908891 0.9960587 0.99874294 0.99263424 0.98935336
0.9982482 0.99791926 0.99704313 0.99709857 0.9973329 0.99021536 0.99398243 1.0005808
0.99969876 0.99425703 0.9925851 0.9930958 1.0035603 0.9906399 0.9902858 0.98703086
0.9908313 0.9905811 0.9987121 0.999572 0.99312264 0.9990832 0.99412704 0.9959636
0.9907881 0.992094 0.995987 0.99569213 0.9965384 0.9929405 0.9951418 0.9903129
1.0020984 0.9926944 0.9932883 0.9986805 0.99020964 0.9850118 0.99216276 0.9981602
0.99950445 0.9988522 0.995524 1.0012964 0.99801147 0.99792486 0.9993793 0.98880696
0.9987356 0.99695724 0.99667144 0.9951586 0.9985864 0.9953369 0.99053603 0.99983656
0.98501974 0.9929718 0.996449 0.97953314 1.0002944 1.0012044 1.0009464 0.9798933
00000000: 8926 803f ab0e 7e3f 384c 7f3f b05c 7c3f
00000010: 4433 7f3f 9874 7e3f d45d 7e3f 58c8 7c3f
00000020: 967a 7f3f bdfe 7c3f aeda 7f3f 4078 7e3f
00000030: 33d7 7e3f 90e7 7d3f b214 7e3f 081d 7f3f
00000040: 9f92 7e3f 538a 7d3f b284 7e3f 0f34 7d3f
00000050: ec05 803f 560b 7f3f 3f33 7e3f 7345 7f3f
00000060: adbd 7d3f ca7c 7f3f 3dd2 7d3f 0f9d 7f3f
00000070: a1b6 7e3f 5318 803f 7126 803f e74a 7e3f
00000080: ad32 7e3f f2d4 7b3f d2e4 7c3f edcd 7e3f
00000090: 927d 7e3f 12da 7f3f 713d 7d3f 2669 7e3f
000000a0: ad10 7f3f 0230 7e3f 09eb 7e3f 5e78 7f3f
000000b0: cdef 7d3f 32e4 7f3f 4c09 803f 6f83 7c3f
000000c0: 9965 7f3f 52dd 7f3f bf9f 7e3f 9f8a 7d3f
000000d0: 1fbc 7f3f e067 7f3f 4fba 7c3f ddf3 7b3f
000000e0: f7b2 7e3f 8c84 7b3f 5714 7d3f e8aa 7d3f
000000f0: b4fd 7e3f 9ead 7f3f 471d 7e3f 4346 7d3f
00000100: 328d 7f3f a377 7f3f 383e 7f3f da41 7f3f
00000110: 3551 7f3f c17e 7d3f a275 7e3f 0813 803f
00000120: 42ec 7f3f a187 7e3f 0f1a 7e3f 873b 7e3f
00000130: aa74 803f 949a 7d3f 5f83 7d3f 0eae 7c3f
00000140: 1fa7 7d3f b996 7d3f 99ab 7f3f f3e3 7f3f
00000150: 493d 7e3f ebc3 7f3f 1c7f 7e3f 78f7 7e3f
00000160: 4aa4 7d3f dff9 7d3f 01f9 7e3f aee5 7e3f
00000170: 241d 7f3f 5931 7e3f 9dc1 7e3f 2585 7d3f
00000180: c344 803f 3821 7e3f 2448 7e3f 86a9 7f3f
00000190: 617e 7d3f bc29 7c3f 61fe 7d3f 6d87 7f3f
000001a0: 86df 7f3f c7b4 7f3f a9da 7e3f 7b2a 803f
000001b0: ae7d 7f3f 0178 7f3f 52d7 7f3f 7422 7d3f
000001c0: 23ad 7f3f 9738 7f3f dc25 7f3f b7c2 7e3f
000001d0: 5ca3 7f3f 66ce 7e3f c593 7d3f 4af5 7f3f
000001e0: 412a 7c3f 6633 7e3f 4817 7f3f afc2 7a3f
000001f0: a609 803f 7727 803f 031f 803f 4ada 7a3f

bn2.bias f4 [128]
0.0017402256 -0.0367334 -0.014102253 0.04313771 0.009929622 0.035408143 -0.013813327 -0.030298622
-0.015176982 0.030484049 0.0074302577 0.028227095 0.020849302 0.037719842 0.021048225 -0.0155105805
-0.02034728 0.028047157 -0.01806792 -0.04312888 0.010148456 -0.015721811 -0.015207456 -0.013510807
0.021400554 -0.016469313 -0.03074296 -0.018158328 -0.013261446 -0.004806524 0.010856091 -0.024104726
0.025661854 0.032472406 0.033315793 -0.0145801725 0.0283834 -0.009364832 0.042366363 0.022609422
0.016230442 -0.021950165 0.010678664 -0.01026318 0.023534307 0.006691684 -0.0045943893 0.023609731
-0.018773558 -0.014395387 0.008309447 -0.021169366 0.0029625269 -0.017607495 -0.027177233 -0.039741073
0.02049545 0.03180157 0.039398078 0.03264621 -0.009875451 -0.029659797 -0.028320493 0.03709472
-0.03278104 -0.0287863 -0.01167107 -0.016293498 -0.033799592 -0.02529955 -0.023031479 -0.008282771
-0.011749386 0.009867119 -0.009946236 0.028736273 -0.005988813 -0.043895934 0.029024882 -0.03395837
-0.030617958 0.02763104 -0.013229312 -0.017094243 -0.031162152 -0.002286079 -0.015453862 0.026499799
-0.031797636 -0.030932609 0.01572568 -0.023878781 0.012680141 0.039192386 0.012424636 0.025601508
-0.0050251936 0.016396105 0.023241777 0.015885446 0.023399673 -0.035813183 -0.021958267 -0.010408636
0.008155056 0.00704872 -0.014987952 0.0064624725 -0.016065203 0.010104583 -0.0014794659 -0.026267845
0.0057156123 -0.021980386 -0.010256141 0.02145288 0.015048072 0.021664593 0.020383192 -0.008987189
-0.0408635 -0.02017418 0.023069944 -0.043653972 0.013714817 0.01326563 -0.0063101207 -0.055621352
00000000: 4818 e43a c375 16bd 230d 67bc 2bb1 303d
00000010: daaf 223c 2108 113d 4b51 62bc d134 f8bc
00000020: e0a8 78bc afb9 f93c 8579 f33b 823c e73c
00000030: 28cc aa3c 1f80 1a3d 546d ac3c 1720 7ebc
00000040: 57af a6bc 27c3 e53c 2d03 94bc e9a7 30bd
00000050: b645 263c 07cb 80bc b228 79bc 6f5c 5dbc
00000060: 3750 af3c a7ea 86bc a9d8 fbbc c6c0 94bc
00000070: 8946 59bc 0c80 9dbb bfdd 313c 4677 c5bc
00000080: cf38 d23c c901 053d 2476 083d ade1 6ebc
00000090: 4e84 e83c f46e 19bc 5a88 2d3d 6537 b93c
000000a0: b4f5 843c d5d0 b3bc 90f5 2e3c e626 28bc
000000b0: 05cb c03c ea45 db3b 888c 96bb 3269 c13c
000000c0: 01cb 99bc a1da 6bbc 5924 083c 616b adbc
000000d0: f426 423b 983d 90bc caa2 debc 89c7 22bd
000000e0: 13e6 a73c 5d42 023d e15f 213d 08b8 053d
000000f0: a5cc 21bc 1af9 f2bc 6100 e8bc a2f0 173d
00000100: 6945 06bd 3fd1 ebbc 0438 3fbc f179 85bc
00000110: 7171 0abd 0041 cfbc 83ac bcbc 76b4 07bc
00000120: 7f80 40bc b2a9 213c 8af5 22bc 5568 eb3c
00000130: ce3d c4bb 39cc 33bd 97c5 ed3c ef17 0bbd
00000140: 83d2 fabc 7e5a e23c c2bf 58bc 3a09 8cbc
00000150: c547 ffbc 0bd2 15bb 3232 7dbc 1b16 d93c
00000160: 3d3e 02bd 6266 fdbc 24d3 803c 6f9d c3bc
00000170: 5ec0 4f3c 3288 203d b390 4b3c 41ba d13c
00000180: 61aa a4bb 2051 863c 8a65 be3c 3222 823c
00000190: acb0 bf3c d8b0 12bd d3e1 b3bc fc88 2abc
000001a0: c99c 053c f3f8 e63b 0790 75bc 26c3 d33b
000001b0: 2c9b 83bc b18d 253c a3ea c1ba aa2f d7bc
000001c0: 084a bb3b 3610 b4bc 6009 28bc f3bd af3c
000001d0: 308c 763c f279 b13c a7fa a63c 013f 13bc
000001e0: 7c60 27bd 5244 a5bc 2efd bc3c 82ce 32bd
000001f0: 1db4 603c 1658 593c 21c5 cebb 37d3 63bd

bn2.running_mean f4 [128]
0.021005575 -0.028229108 -0.07055701 0.094198324 0.012793023 0.07798826 -0.057040416 -0.06175432
-0.0073869764 0.031950943 0.0196291 0.095382266 0.019793514 0.07411478 0.07365648 -0.023941536
-0.048107106 0.056937996 -0.036420725 -0.067597575 0.012397549 -0.0113874655 -0.07195494 -0.053236645
0.03424248 -0.037851743 -0.057209622 -0.019618519 -0.060831822 -0.022449417 0.05186407 -0.09000621
0.066144355 0.003258942 0.008815193 0.0063380552 0.1012738 0.010876846 0.112550855 0.028936073
0.051257193 -0.053423207 0.073995985 -0.047513887 0.055511974 0.09466969 -0.04667825 0.04350777
0.010144636 -0.0740422 0.048530918 -0.00035668013 0.046016645 -0.09669339 -0.013788051 -0.025977088
0.011380937 0.055143975 0.02478243 0.07135977 0.006425832 -0.0034786938 -0.023610165 0.08448622
-0.1026851 -0.06627442 -0.06469196 -0.01941207 -0.040022235 -0.049395353 -0.04658973 -0.07155506
-0.004610371 -0.0044372412 -0.046756603 0.090825036 0.034799624 -0.08933544 0.040091075 -0.03600682
-0.09142288 0.05608965 -0.066248626 -0.06729634 -0.06230811 -0.003838982 -0.020543316 0.0017773442
-0.06904456 -0.015125724 0.048502624 -0.046524853 0.04783161 0.10065444 0.008058356 0.10029797
-0.1003326 0.038075812 0.01515275 0.0039302404 0.06091553 -0.076696225 -0.035088554 -0.056260277
0.093598284 0.009793043 -0.040935125 0.03955814 -0.029519532 0.06834594 -0.018396998 -0.03331465
-0.00024290441 -0.067490324 -0.010487874 0.0804714 0.051457375 0.04337628 0.054917004 -0.04904739
-0.03500546 -0.02116255 0.008902567 -0.05342571 0.07339404 0.0436959 -0.045132864 -0.072029464
00000000: e213 ac3c bb40 e7bc 3280 90bd 0deb c03d
00000010: d499 513c 4fb8 9f3d 36a3 69bd 19f2 7cbd
00000020: 730e f2bb fede 023d 35cd a03c c757 c33d
00000030: 0226 a23c 7dc9 973d 35d9 963d 0a21 c4bc
00000040: f50b 45bd d137 693d e62d 15bd 9970 8abd
00000050: 171f 4b3c 7e92 3abc 1d5d 93bd ab0e 5abd
00000060: d841 0c3d 6e0a 1bbd a354 6abd 04b7 a0bc
00000070: ca2a 79bd d7e7 b7bc 6b6f 543d 2d55 b8bd
00000080: b176 873d f993 553b 996d 103c 76af cf3b
00000090: a368 cf3d cc34 323c 1081 e63d 580b ed3c
000000a0: 10f3 513d 4bd2 5abd 358b 973d ec9d 42bd
000000b0: 8660 633d 2fe2 c13d b131 3fbd 3435 323d
000000c0: b035 263c 70a3 97bd 5bc8 463d cc00 bbb9
000000d0: f37b 3c3d 2f07 c6bd 47e7 61bc e7cd d4bc
000000e0: 1c77 3a3c a6de 613d 8604 cb3c 1225 923d
000000f0: c98f d23b ccfa 63bb 1b6a c1bc 1c07 ad3d
00000100: 914c d2bd e2ba 87bd 387d 84bd 1006 9fbc
00000110: 5bee 23bd c852 4abd dfd4 3ebd 768b 92bd
00000120: 9812 97bb 4766 91bb da83 3fbd 7a02 ba3d
00000130: 0d8a 0e3d 80f5 b6bd 8a36 243d e37b 13bd
00000140: eb3b bbbd 43be 653d 5cad 87bd aad2 89bd
00000150: ca36 7fbd 6e97 7bbb 754a a8bc c6f5 e83a
00000160: 3c67 8dbd e2d1 77bc b0aa 463d d890 3ebd
00000170: 14eb 433d ea23 ce3d 3207 043c 0669 cd3d
00000180: 2e7b cdbd 62f5 1b3d 3d43 783c 3fc9 803b
00000190: 9082 793d e912 9dbd 04b9 0fbd 2d71 66bd
000001a0: 75b0 bf3d 0073 203c 97ab 27bd b707 223d
000001b0: f2d2 f1bc f5f8 8b3d 4db5 96bc f174 08bd
000001c0: 28b4 7eb9 5e38 8abd 55d5 2bbc 30ce a43d
000001d0: f8c4 523d 54ab 313d a7f0 603d ebe5 48bd
000001e0: e361 0fbd 165d adbc 13dc 113c ebd4 5abd
000001f0: 9d4f 963d 79fa 323d 3ddd 38bd 2f84 93bd

bn2.running_var f4 [128]
0.21578802 0.29213575 0.26940095 0.2806326 0.21420245 0.36446464 0.16561948 0.28814858
0.23303032 0.22181775 0.17648876 0.2499971 0.1566304 0.28907946 0.24480137 0.21222633
0.16842367 0.2534771 0.22459981 0.34399953 0.21970484 0.16341646 0.21855104 0.2794581
0.21167494 0.31390756 0.2669135 0.2502069 0.26124728 0.23086137 0.23074558 0.33229187
0.31309658 0.28532818 0.2580209 0.25985506 0.3507165 0.17876022 0.30329967 0.317763
0.18213296 0.22996 0.30088377 0.19370422 0.2576394 0.3143657 0.26926804 0.19014834
0.308885 0.30077556 0.249085 0.2136188 0.24562629 0.33168092 0.19736195 0.26009452
0.30822712 0.2362004 0.25125024 0.22642437 0.22619118 0.3274525 0.20999484 0.21645218
0.36078784 0.33882943 0.1997286 0.2955161 0.34673128 0.23606753 0.26266363 0.26783627
0.21053568 0.20224252 0.19599862 0.38783875 0.2945508 0.38065153 0.22010083 0.26453778
0.38685656 0.20470476 0.25307125 0.25998732 0.25266665 0.24012487 0.249117 0.28339633
0.2847932 0.3506569 0.24375495 0.24224913 0.27623945 0.39006907 0.2123025 0.37406608
0.26295987 0.29541636 0.28259832 0.25104553 0.19692911 0.3182148 0.2871923 0.25879642
0.35210153 0.17537443 0.19644034 0.24868904 0.2885726 0.24283828 0.16674893 0.22598957
0.22310008 0.23615445 0.23038174 0.24647167 0.25425565 0.21370217 0.23401381 0.23649554
0.28063622 0.20019719 0.2451294 0.29568937 0.32415608 0.26880565 0.2902875 0.31426832
00000000: 89f7 5c3e d192 953e ecee 893e 13af 8f3e
00000010: e357 5b3e 1c9b ba3e 2798 293e 3688 933e
00000020: 809f 6e3e 3124 633e 78b9 343e 3dff 7f3e
00000030: b863 203e 3902 943e 36ad 7a3e dc51 593e
00000040: 4177 2c3e c0c7 813e 7efd 653e b520 b03e
00000050: 4efa 603e a556 273e d8cb 5f3e 2215 8f3e
00000060: 51c1 583e 7eb8 a03e e3a8 883e 1e1b 803e
00000070: 34c2 853e ec66 6c3e 9248 6c3e 2922 aa3e
00000080: 324e a03e 8916 923e 511b 843e b90b 853e
00000090: 1d91 b33e eb0c 373e 184a 9b3e d5b1 a23e
000000a0: 1081 3a3e a27a 6b3e 700d 9a3e 665a 463e
000000b0: 50e9 833e 8bf4 a03e 80dd 893e 3fb6 423e
000000c0: 2d26 9e3e 41ff 993e 2310 7f3e e3be 5a3e
000000d0: 7585 7b3e 15d2 a93e 4019 4a3e 1c2b 853e
000000e0: f2cf 9d3e 85de 713e dfa3 803e cadb 673e
000000f0: a99e 673e dba7 a73e e308 573e a4a5 5d3e
00000100: 2fb9 b83e 0d7b ad3e a785 4c3e e34d 973e
00000110: c386 b13e b0bb 713e d97b 863e d621 893e
00000120: aa96 573e aa18 4f3e ddb3 483e cd92 c63e
00000130: 5dcf 963e c2e4 c23e 1d62 613e 7f71 873e
00000140: 1012 c63e 209e 513e 8e92 813e 0f1d 853e
00000150: 865d 813e 4be3 753e 8718 7f3e 5319 913e
00000160: 6ad0 913e 4d89 b33e e69a 793e 2810 783e
00000170: 426f 8d3e 22b7 c73e d465 593e 9785 bf3e
00000180: ada2 863e d040 973e bab0 903e 0a89 803e
00000190: c9a7 493e 0ded a23e df0a 933e f780 843e
000001a0: a746 b43e 5b95 333e a827 493e 57a8 7e3e
000001b0: cabf 933e 99aa 783e 3bc0 2a3e cf69 673e
000001c0: 5974 643e 79d2 713e 31e9 6b3e 1263 7c3e
000001d0: cc2d 823e bed4 5a3e 51a1 6f3e e32b 723e
000001e0: 8daf 8f3e 7e00 4d3e 3403 7b3e 9964 973e
000001f0: c9f7 a53e e5a0 893e 90a0 943e c7e7 a03e

hidden3.weight f4 [16, 128]
-0.09191786 -0.08032079 -0.029643897 -0.044007193 0.059147164 -0.053225357 -0.034262307 0.050840642
-0.06979322 0.05047915 -0.09105817 -0.06539968 -0.067522615 -0.032413807 0.059600238 0.016688613
0.004788246 0.07418614 -0.071724966 -0.023107976 0.04280983 0.030590596 -0.0414501 0.07445481
-0.072169796 0.05485738 0.05794368 0.0632332 0.05485585 -0.037109263 -0.042638753 -0.044782314
0.009759327 0.027041432 0.027406234 -0.043223727 -0.040190917 0.009845689 0.010233434 0.09941123
0.007340549 0.00045991442 -0.09391275 0.03111589 -0.007687244 -0.030765621 0.06253209 -0.02543763
-0.020319505 0.008197421 0.048636965 0.0070314263 0.044826455 0.07680666 0.018991413 0.016891465
-0.06436831 -0.032495152 -0.07653886 0.001002244 -0.03555257 -0.018175162 -0.07095706 0.0065495684
0.04848529 -0.057360653 0.06682154 -0.067428455 -0.060481515 0.06592216 0.0006760942 -0.06265703
0.072030865 -0.012362803 -0.048754502 0.04162214 -0.099300735 0.00046425962 -0.026624175 0.0028343
0.053932786 -0.054131784 0.050199833 0.004659533 -0.056948785 0.06380408 -0.07089502 0.0028364505
0.047859445 -0.047395945 -0.07402538 0.03633334 0.00013904872 0.031586315 0.019610867 -0.0823686
0.08212833 -0.017811062 -0.058966953 -0.06965905 -0.047089532 -0.061062872 -0.07098839 0.061633855
0.029497737 0.022876311 -0.0036419027 0.046875436 -0.03648627 -0.08062365 -0.0131821325 -0.0027357067
-0.050725188 -0.039838597 0.012608189 -0.052234698 -0.0077963453 0.010677821 -0.07481133 0.10024695
0.035002563 0.024980312 -0.07712541 -0.0078118024 -0.045753255 -0.039547984 0.009621719 0.031319782
0.026835807 -0.0029703241 0.07719292 -0.082520805 -0.02226583 -0.083179384 0.03371422 0.013974889
0.023745323 -0.0016861098 -0.013985602 0.04587087 -0.09514638 -0.034451317 -0.052229073 0.0055622626
0.031664036 -0.01950136 0.007559256 -0.01805058 -0.0569438 0.022967024 0.060860205 -0.028587027
-0.06473715 0.10297768 0.05133478 0.030171212 -0.010003581 0.02403838 0.029079653 -0.083936974
-0.08587627 -0.0920252 -0.11872652 0.079390794 -0.06315744 0.01073495 0.06822758 -0.082527824
-0.0036063916 -0.06343606 0.030132674 0.0035889093 0.08169729 0.039256684 -0.031406973 -0.07010796
0.105632 -0.04315415 -0.07168321 0.07954558 -0.029636974 0.0016459866 0.024163365 -0.033579245
-0.037215777 0.03708894 0.10014034 -0.0065305056 -0.020299118 -0.0047134743 0.12298004 -0.07812309
-0.06290478 0.072338454 -0.06758197 0.056902084 0.09901974 -0.023746049 -0.0416456 0.018189609
-0.04764153 -0.025055334 0.021019675 0.010793963 0.08552209 -0.03265811 -0.044449084 -0.0054864297
-0.04594828 -0.03276423 -0.074016824 -0.041773196 -0.025062878 0.011299502 0.058510795 -0.027194478
0.033306044 0.04715318 0.012770213 0.07727391 -0.10577212 -0.05986956 0.05784654 -0.019313347
-0.037199993 -0.071264885 0.06898263 -0.06412137 0.0072421907 0.07471649 0.06175298 0.014640011
0.00051381654 0.013563157 -0.038852934 0.048304025 0.015172084 0.033615485 -0.0017532428 -0.0614972
0.10873882 -0.001396379 -0.044857807 0.044660755 0.022298424 -0.0442607 -0.07953866 0.00690419
-0.026926672 0.009777651 0.05322731 0.03262637 -0.026141096 -0.009578581 0.12212613 -0.0022461393
00000000: 6e3f bcbd 3a7f a4bd c2d7 f2bc e340 34bd
00000010: 4c44 723d d502 5abd a256 0cbd 473e 503d
00000020: bfef 8ebd 3ac3 4e3d b57c babd 44f0 85bd
00000030: 4c49 8abd 57c4 04bd 611f 743d 8fb6 883c
00000040: b8e6 9c3b e7ee 973d 8ae4 92bd f04c bdbc
00000050: 5c59 2f3d 2199 fa3c 94c7 29bd c37b 983d
00000060: c2cd 93bd 22b2 603d 5a56 6d3d 6880 813d
00000070: 87b0 603d e2ff 17bd f9a5 2ebd a96d 37bd
00000080: 96e5 1f3c fe85 dd3c 0a83 e03c 5d0b 31bd
00000090: 3b9f 24bd d04f 213c 22aa 273c 1d98 cb3d
000000a0: fd88 f03b ab20 f139 5455 c0bd c0e6 fe3c
000000b0: 47e5 fbbb 2f08 fcbc d310 803d 9462 d0bc
000000c0: 1775 a6bc 7a4e 063c 8e37 473d e167 e63b
000000d0: f29b 373d cf4c 9d3d e193 9b3c f85f 8a3c
000000e0: 88d3 83bd a319 05bd 68c0 9cbd ba5d 833a
000000f0: 929f 11bd 14e4 94bc ef51 91bd c39d d63b
00000100: 8398 463d 01f3 6abd bbd9 883d ee17 8abd
00000110: 77bb 77bd 3302 873d ea3b 313a 5452 80bd
00000120: eb84 933d 5b8d 4abc cdb2 47bd fa7b 2a3d
00000130: 2f5e cbbd df67 f339 f11a dabc aabf 393b
00000140: a0e8 5c3d 4ab9 5dbd 579e 4d3d ffae 983b
00000150: 2143 69bd b7ab 823d 6931 91bd bee3 393b
00000160: 4408 443d 4022 42bd 9e9a 97bd 45d2 143d
00000170: 9bcd 1139 a760 013d f8a6 a03c deb0 a8bd
00000180: e632 a83d 81e8 91bc 5587 71bd 67a9 8ebd
00000190: f4e0 40bd 101d 7abd 5c62 91bd c873 7c3d
000001a0: 3da5 f13c 1a67 bb3c fdac 6ebb 7500 403d
000001b0: a172 15bd 031e a5bd dff9 57bc 8b49 33bb
000001c0: 37c5 4fbd cc2d 23bd 9492 4e3c 0df4 55bd
000001d0: 7c78 ffbb 07f2 2e3c af36 99bd 464e cd3d
000001e0: d95e 0f3d 83a3 cc3c edf3 9dbd 26fa ffbb
000001f0: c467 3bbd 11fd 21bd 6aa4 1d3c 2c49 003d
00000200: c4d6 db3c c5a9 42bb 5217 9e3d ab00 a9bd
00000210: d466 b6bc f459 aabd ec17 0a3d eff6 643c
00000220: 8d85 c23c 7500 ddba de23 65bc 18e3 3b3d
00000230: 1bdc c2bd d31c 0dbd 27ee 55bd a443 b63b
00000240: 26b2 013d 51c1 9fbc a3b3 f73b cfde 93bc
00000250: e73d 69bd 5725 bc3c 8d48 793d 572f eabc
00000260: e994 84bd f6e5 d23d 6b44 523d 9e29 f73c
00000270: 0fe6 23bc 23ec c43c 7438 ee3c 26e7 abbd
00000280: e6df afbd b577 bcbd e426 f3bd a497 a23d
00000290: b058 81bd a5e1 2f3c e7ba 8b3d 5904 a9bd
000002a0: 3659 6cbb c4ea 81bd ccd8 f63c e833 6b3b
000002b0: e950 a73d 9ecb 203d 99a4 00bd c394 8fbd
000002c0: 9755 d83d 68c2 30bd a6ce 92bd cbe8 a23d
000002d0: 3dc9 f2bc 25be d73a 40f2 c53c 648a 09bd
000002e0: 926f 18bd 93ea 173d 6116 cd3d dafd d5bb
000002f0: 564a a6bc 7d73 9abb f6dc fb3d 00ff 9fbd
00000300: 39d4 80bd 2f26 943d 6a68 8abd 2912 693d
00000310: ddca ca3d 1387 c2bc 9494 2abd 6002 953c
00000320: c423 43bd d840 cdbc 7431 ac3c 2ad9 303c
00000330: 3526 af3d 83c4 05bd 3e10 36bd 82c7 b3bb
00000340: 4334 3cbd c933 06bd 2296 97bd 5f1a 2bbd
00000350: aa50 cdbc 8c21 393c 04a9 6f3d f4c6 debc
00000360: eb6b 083d b123 413d 283a 513c c941 9e3d
00000370: 0e9f d8bd c939 75bd 7ef0 6c3d 0637 9ebc
00000380: 055f 18bd 53f3 91bd c446 8d3d 1152 83bd
00000390: e64f ed3b f604 993d b1f0 7c3d a8dc 6f3c
000003a0: a5b1 063a 0138 5e3c 4124 1fbd 71da 453d
000003b0: 5594 783c 64b0 093d 11cd e5ba 7de4 7bbd
000003c0: 75b2 de3d b406 b7ba d2bc 37bd 32ee 363d
000003d0: 2fab b63c b54a 35bd 2ae5 a2bd 8b3c e23b
000003e0: 5395 dcbc 7132 203c e104 5a3d 3ba3 053d
000003f0: da25 d6bc 7bef 1cbc 441d fa3d f733 13bb

bn3.weight f4 [16]
0.98928684 0.9065278 0.9891157 0.9937842 0.92829585 0.98678803 0.8929114 0.9771187
0.9572076 0.9688953 0.8849417 0.9472673 0.9577804 0.9708559 0.9941015 0.9963244
00000000: e741 7d3f 3512 683f b036 7d3f a468 7e3f
00000010: cca4 6d3f 249e 7c3f d795 643f 7324 7a3f
00000020: 8f0b 753f 8609 783f 8a8b 623f 1c80 723f
00000030: 1931 753f 038a 783f 707d 7e3f 1e0f 7f3f

bn3.bias f4 [16]
-0.10876738 -0.37694782 -0.09978134 0.236469 0.26973274 0.08918632 0.44356543 0.1620689
-0.41265446 -0.39417902 0.40035155 0.5828128 -0.25426134 -0.16517155 0.09826739 0.013561691
00000000: 6fc1 debd 4eff c0be 295a ccbd ee24 723e
00000010: 691a 8a3e 51a7 b63d 021b e33e 64f5 253e
00000020: 7247 d3be d5d1 c9be e1fa cc3e 3833 153f
00000030: 8b2e 82be bb22 29be 6a40 c93d db31 5e3c

bn3.running_mean f4 [16]
-0.042007327 -0.016965093 -0.038468592 0.01827861 -0.00017663452 0.0312175 0.089638524 -0.007251828
0.0040877312 -0.11200216 -0.007001104 0.1259628 0.0175239 -0.024080576 0.011045009 0.0044091283
00000000: e00f 2cbd 61fa 8abc 3e91 1dbd 06bd 953c
00000010: f836 39b9 d8bb ff3c 6794 b73d bea0 edbb
00000020: 60f2 853b 6361 e5bd 8469 e5bb 64fc 003e
00000030: 488e 8f3c a144 c5bc 20f6 343c 737a 903b

bn3.running_var f4 [16]
0.6222912 1.1151192 0.5962724 1.1195619 0.7132069 0.39647657 1.2793279 0.5614083
1.4282283 1.9929502 0.82736874 2.2510452 0.6048596 0.4668153 0.30793875 0.22366682
00000000: 7a4e 1f3f 3abc 8e3f 4fa5 183f ce4d 8f3f
00000010: ba94 363f fafe ca3e 04c1 a33f 74b8 0f3f
00000020: 2fd0 b63f fe18 ff3f 70ce 533f 2011 1040
00000030: 14d8 1a3f 6a02 ef3e 26aa 9d3e ea08 653e

output.weight f4 [1, 16]
0.110623986 0.4167567 0.08232989 -0.39261267 -0.27405155 -0.1060674 -0.46450382 -0.17549628
0.54959714 0.51260644 -0.42721754 -0.76668906 0.27489358 0.14553665 -0.031385202 0.021709979
00000000: d48e e23d 2261 d53e 939c a83d 8704 c9be
00000010: 7c50 8cbe dd39 d9bd 72d3 edbe 4cb5 33be
00000020: 66b2 0c3f 2d3a 033f 42bc dabe bc45 44bf
00000030: dabe 8c3e 8f07 153e c58d 00bd 20d9 b13c
