models/focal_loss_checkpoints/checkpoint_epoch_50.pth (torch, 100218 bytes, 16 tensors)

hidden1.weight f4 [128, 30]
00000000: 50b5 ee3d a313 22be 1d45 76bd 5f47 33bd
00000010: b287 d93d 7982 c0bd f602 d7ba 1b91 ccbb
00000020: f3ae 44bd 395d c6bd d499 15be 3e53 313e
00000030: 3cbb e7bd 1d0b 243d aeb5 2ebd ec25 023d
00000040: 05be 35be e0ee 9b3d 2c2a 273e 00fd 413e
00000050: 4c57 0a3e 02a4 8ebb 710a 0cbe 1b76 dd3d
00000060: e48b dc3d 2aec 653d a265 16bd d7bd 413e
00000070: f905 cf3d 5b34 e3bd 71e2 2abe 5e4a b4bc
00000080: c663 01bb e4ab c73c 0fac a8bc d3a2 ff3c
00000090: ee41 90bd f8ed d5bc e137 46bd 9f64 17be
000000a0: d1a1 a2bd 3f10 24be 8ba7 263e 9c79 083e
000000b0: 4df7 8a3d be37 f2bc 8705 13be bf19 fa3c
000000c0: 90e9 a03d 7069 143e e532 32be 9bc9 debd
000000d0: 6ad0 9dbd b382 ec3d 4931 343e fdb7 2fbe
000000e0: 839e e63d 6651 ff3c 5611 29be af7a 8fbc
000000f0: edec 043e 893b a33b 37d6 4d3d c093 f8bd
00000100: b121 1fbc 6ce0 a83d a68c 003e 79bd 16bd
00000110: f5c3 033e ce53 ef3d 3ed0 063d 6a85 ecbd
00000120: 9543 36be ea53 f13d 29c5 0a3e 4758 323e
00000130: 04c3 2fbe 2a32 2ebe 1223 bebd f981 f1bd
00000140: 7778 f4ba f787 07bd 7be1 2ebe 1d0c e9bd
00000150: b3f9 c4bd 1b99 a5bd 0723 293d 407c 96bd
00000160: 5c06 00bb 3181 d93d 4149 443b 1966 253e
00000170: 2425 b1bd dc51 d4bc b886 9abd 2ce4 7f3d
00000180: 7834 373d 2fa8 b23c e391 6dbd fffb c4bd
00000190: a2c8 193e 96b0 3ebe 8b2e 3c3c 22d7 e13d
000001a0: 16ad 43bc 4da2 c03d edc2 69bd d0cd 8bbd
000001b0: aa47 12be a85b d4bc be2c 67bd ce0e 37be
000001c0: 262f 9b3d 3175 8dbd f330 373e 2eaf 333e
000001d0: a8f0 fbbd 55e4 bb3c c79d b93d 89ae c8bd
000001e0: dfda e23d afd4 a93c 66b2 29be 2ff1 d0bd
000001f0: 6179 2cbe 25d8 a6bd 6bc1 183e 80d5 453c
00000200: b722 b73d b8c3 363e e0e6 293e f451 163e
00000210: 3748 4d3e 97be a5bc 2e96 973d a03b 2cbe
00000220: 1eab dd3c e2e0 c1bd 26d8 b0bd 16ef 19be
00000230: 42f6 bcbd c948 0b3c 0d3b cabc 2623 253d
00000240: 0fa9 363e f6a0 a53d 8a17 80bd d018 cfbd
00000250: be5f 703c d3c0 cebc 42dd c5bd b6b6 86bd
00000260: 140e 323e c9e5 5db8 b1e4 213e 441c 933c
00000270: bc4e 4d3e 4b61 323b 08a0 85bd 3611 533d
00000280: 7593 0e3c 9df6 d43d 1c17 82bd aaa2 f53d
00000290: 51dc 09be a3ea 0c3e d44a a93d 45d9 b4bd
000002a0: b3ee 61bd 2a50 4b3d 2c5b ba3d 4ae4 27bd
000002b0: 41e3 bebd 17ca 81bc 3958 df3d a5bb d6bc
000002c0: 7fad e0bd 1d9e fdbd 6e49 b1bd 3a3d c63d
000002d0: 1c28 19be 4fea 45bd b5f7 9c3c 4c5e adbd
000002e0: fbbe d93b fdaf 043e 53ac 15bd 9f8b 7a3d
000002f0: 3b83 553c 1ce7 1fbe 9fd7 01bd 1a75 4bbe
00000300: ad7e 323e 4592 0d3e fa56 e33d e59b 043d
00000310: a61b 143e 8a77 303d c94a 173c 0fdc 983d
00000320: 74b8 873a 47a9 f3bc 72ac d4bd 3657 243e
00000330: 8c7c 103e 0f6b 15bd 17f3 8e3d 4960 1c3e
00000340: 5358 573d 72ba 11be 5b6c 453b ecd9 8cbd
00000350: 74fe bc3a 1ada fb3d 294d 35be 3047 48bd
00000360: 8a91 123d 7f8b 5cbd 3deb 1abe b237 82bc
00000370: 196e c03d e995 3cbe 6d6d 4bbd e4e8 8d3d
00000380: 73ef a73d 12c8 ccbc 764c 293e 4faa 053e
00000390: 0acc bdbd bb73 253d 4826 8f3d e622 ebba
000003a0: 1fd1 193e 1761 d63c 01e4 1a3e 4b81 cabd
000003b0: 4986 0c3e 24b3 23be c44f 8b3d 2923 0abe
000003c0: 0b5e 13be 40af e33d 4e59 23be d90a fd3d
000003d0: e5c5 953d 995e 3fbd 9d9e 733c 0f05 1e3e
000003e0: 88c2 883d ba7a 433c 63c9 303e fd4a 1e3e
000003f0: 2a36 31bd 1037 aa3c 4b46 443e 24b4 b3bd
0.11655676 -0.15827803 -0.060124505 -0.043769237 0.10621585 -0.09399886 -0.0016404081 -0.006242884
-0.048018407 -0.096857496 -0.14609462 0.1731691 -0.11315009 0.04004966 -0.042653732 0.031774446
-0.17748268 0.07613921 0.16324681 0.18944168 0.13509864 -0.0043530473 -0.13675858 0.108135425
0.107688695 0.056133427 -0.03671802 0.18920074 0.10108561 -0.110939704 -0.16687943 -0.022008117
-0.0019743307 0.024373956 -0.020589856 0.03120557 -0.07043825 -0.026114449 -0.048393134 -0.14784478
-0.0794102 -0.16021822 0.1627485 0.1332764 0.0678545 -0.029567596 -0.14357577 0.030529855
0.078570485 0.14493346 -0.17402227 -0.10878297 -0.077057675 0.115483664 0.17596926 -0.1716003
0.112607025 0.031166743 -0.1651052 -0.017514555 0.12981005 0.0049814624 0.05025312 -0.12137556
-0.0097126225 0.0824593 0.12553653 -0.03680179 0.1286772 0.11685906 0.03291344 -0.11548884
-0.17799218 0.117835835 0.13551773 0.17416488 -0.17164236 -0.17011324 -0.09284033 -0.117923684
-0.0018651624 -0.03308865 -0.17078201 -0.113792636 -0.09617939 -0.08085843 0.04129317 -0.073479176
-0.001953504 0.106203444 0.002995089 0.16152228 -0.08649662 -0.02591794 -0.07545227 0.06247346
0.044727772 0.021808712 -0.058000457 -0.09618377 0.15017942 -0.1862205 0.011485706 0.110273615
-0.011943122 0.094059564 -0.05707066 -0.06826365 -0.1428515 -0.025922611 -0.056439154 -0.17876741
0.07577352 -0.06907118 0.17889766 0.17547294 -0.12301761 0.022936026 0.09063297 -0.09798915
0.110769026 0.020731298 -0.1657196 -0.10202252 -0.16843177 -0.08146695 0.14917533 0.012074828
0.08942168 0.17848098 0.16591978 0.146797 0.20047079 -0.020232482 0.074016914 -0.1681962
0.027059134 -0.09466721 -0.08634977 -0.1503261 -0.092266575 0.00850124 -0.02468636 0.040316723
0.17837928 0.080873415 -0.0625449 -0.101121545 0.014671264 -0.02523843 -0.09661342 -0.06577818
0.17388183 -5.290451e-05 0.15809895 0.017957814 0.20049566 0.0027218636 -0.06524664 0.051530086
0.008702149 0.103986 -0.06352064 0.11993916 -0.1346295 0.13761382 0.082662255 -0.088305034
-0.055159282 0.049636997 0.09099421 -0.040989198 -0.09320689 -0.015843434 0.10905499 -0.026212523
-0.10970592 -0.12383673 -0.08656584 0.09679647 -0.14956707 -0.048319157 0.019161085 -0.08465251
0.006645081 0.12957759 -0.036541294 0.06116831 0.013031776 -0.15615505 -0.031699773 -0.1986889
0.17431135 0.13825329 0.11100574 0.032375235 0.14463672 0.04308275 0.009234139 0.07463848
0.0010354654 -0.029743804 -0.10384454 0.16048893 0.14110011 -0.036479052 0.069799595 0.15271105
0.052574467 -0.1423128 0.00301244 -0.06877503 0.0014419095 0.12297459 -0.17705216 -0.048896015
0.035783328 -0.05384397 -0.15128799 -0.015895698 0.093959995 -0.18416561 -0.049664903 0.06929186
0.08199968 -0.024997745 0.16533074 0.13053249 -0.09267433 0.040393572 0.069897234 -0.0017939478
0.1502118 0.026169343 0.15126039 -0.09887942 0.137231 -0.15986305 0.068023235 -0.13489975
-0.14391343 0.11117411 -0.15952036 0.12355585 0.07313136 -0.046721075 0.014869359 0.15431617
0.06677729 0.011931116 0.17264323 0.15458293 -0.043264546 0.020778209 0.1916744 -0.087745935

bn1.weight f4 [128]
00000000: 9ec7 7e3f b3b4 7e3f c945 803f 996c 7f3f
00000010: 8259 7d3f 3766 803f 5248 7f3f 7010 803f
00000020: 6284 803f 2e06 803f 1903 803f 284f 7f3f
00000030: 82e6 7f3f bf08 803f 9ef9 7c3f f5c9 7e3f
00000040: 6bbb 7f3f c23b 7f3f bb57 7f3f 696a 803f
00000050: 5365 803f 8724 803f d62b 803f b90d 803f
00000060: 1465 803f ac45 803f f410 803f c688 803f
00000070: c0ce 7e3f b88c 7f3f c2d1 7e3f 6fc1 803f
00000080: 4db6 7f3f 87eb 7e3f 026a 7f3f f150 803f
00000090: c5af 803f a77e 803f 97ee 7e3f c235 7e3f
000000a0: b363 7e3f da88 7d3f 68a7 7f3f 568b 803f
000000b0: feec 7f3f 11e5 7f3f 609c 7e3f a520 803f
000000c0: 15fa 7e3f b53a 7e3f 1909 803f c76d 803f
000000d0: 2d79 7f3f b628 803f da14 803f 94e9 803f
000000e0: 7f5c 803f 102c 7f3f 0b83 7f3f 5a15 803f
000000f0: 1909 803f db1d 803f 2b2a 803f 34a5 803f
00000100: 197d 803f ec49 803f fbd4 7f3f 0dc0 803f
00000110: 110f 803f ae2e 803f 2267 7f3f 8c96 7f3f
00000120: a556 7f3f 3ef1 7e3f 9d39 7f3f b208 813f
00000130: a3ec 803f 9e1f 803f bc3e 803f 7be9 7f3f
00000140: 1770 7d3f 5c15 7f3f 9961 803f 22dd 7f3f
00000150: 5b71 7d3f be08 7f3f 1243 7e3f bdac 7d3f
00000160: 9266 7e3f 26b6 7e3f 6370 803f 8c93 7d3f
00000170: 22ed 7d3f dbc5 7f3f 7002 7f3f 3e5d 7f3f
00000180: 7f8c 7f3f e87f 803f bc1a 803f edac 803f
00000190: e051 813f 7765 7e3f b914 7d3f a983 7f3f
000001a0: 512a 803f 7b2a 813f 8aa4 7f3f 6577 7f3f
000001b0: ea12 803f 2bf5 7e3f 9c6b 7e3f c87e 7f3f
000001c0: 84b7 803f 3e64 803f e984 803f db3a 803f
000001d0: b75e 803f f1d5 7f3f 0d28 813f 5fdb 7f3f
000001e0: 2063 803f cab3 803f 80a9 7c3f 9c26 803f
000001f0: 3a78 803f 7025 803f 1cc0 7f3f 3648 803f
0.9952334 0.99494475 1.0021297 0.9977508 0.98964703 1.0031193 0.9971973 1.0005016
1.00404 1.0001886 1.0000945 0.9973016 0.999611 1.0002669 0.98818386 0.9952691
0.9989535 0.9970056 0.9974324 1.0032474 1.0030922 1.0011147 1.0013378 1.0004188
1.0030847 1.0021262 1.0005174 1.004174 0.99534225 0.99824095 0.99538815 1.0059031
0.99887544 0.99578136 0.9977113 1.0024701 1.0053641 1.0038651 0.9958281 0.9930078
0.9937088 0.99036944 0.99864817 1.0042522 0.99970996 0.999589 0.9945736 1.0009962
0.99600345 0.9930833 1.0002776 1.0033501 0.99794275 1.0012424 1.0006363 1.0071282
1.0028228 0.9967661 0.9980933 1.0006516 1.0002776 1.0009111 1.0012869 1.0050416
1.0038177 1.0022559 0.9993436 1.0058609 1.0004598 1.0014246 0.99766743 0.9983909
0.99741584 0.99586856 0.99697286 1.0080779 1.0072216 1.0009649 1.0019145 0.9996564
0.9899916 0.99641967 1.0029784 0.99946797 0.9900109 0.99622715 0.9932109 0.990917
0.9937526 0.99496686 1.0034298 0.99053264 0.9918996 0.9991128 0.99613094 0.9975165
0.99823755 1.0039034 1.0008159 1.0052773 1.0103111 0.99373573 0.98859745 0.9981027
1.0012914 1.0091089 0.9986044 0.99791557 1.0005772 0.99592847 0.9938295 0.9980283
1.0056005 1.0030591 1.0040561 1.0017961 1.0028905 0.99935824 1.0090348 0.9994411
1.003025 1.0054867 0.98696136 1.0011783 1.003669 1.0011425 0.9990251 1.0022037

bn1.bias f4 [128]
00000000: 9f2c e9bc 801d bf3c 7b3f 89bb 895a 233c
00000010: ebbf e63c 9bc1 8abc c0b6 5d3c 1119 5d3c
00000020: 01b2 e13b deca ec3c 013d 22bc 42d0 eebb
00000030: 8d13 8a3c 227e cb3b 2abc 33bd b0a4 a5bc
00000040: ad0e 923b 25b4 8fbc 4821 1a3d b6eb 3e3c
00000050: 8dac cebc d5d4 963c 5c93 0abc e495 583c
00000060: 2ce6 6cbc b047 8c3c f6ea 343c 9d18 9fbc
00000070: 1d92 223c 0a11 8238 b510 fb3c 77e5 d3bb
00000080: 7a65 013d a23d 7bbd 7f2d 303b 67d5 073c
00000090: 445d 05bc eac5 3abc edfc 7fbc 89ec 7b3d
000000a0: abfc 23bd 8e5f 01bd 5514 a83c 7847 753c
000000b0: caa0 833c d671 493c 09f5 b3bc 3c2a 2e3c
000000c0: 846a 213c 9d18 19bc 9d92 613c 0612 b0bb
000000d0: 0c97 bc3c f0ea f03b 793b 1bbd 449f e53a
000000e0: 4924 8dbc 7dfb 02bc 0c3e 263c cdc5 203d
000000f0: 13dd 2bbc 758c b03c fdff e63b 3c32 b93b
00000100: 03e0 853a cd34 443b cd2c a13c ba65 98bc
00000110: ca09 153c 03b1 2ebc 17ac cb3c b55d a73c
00000120: b8ec 263d 41d2 f0bc 21e3 b9bc 56e2 5b3c
00000130: fe66 173d 057a 803c 7559 80bc 6d3b 09bc
00000140: aae3 2a3d 5cbc 2e3c 2e35 243c 6ebb a93c
00000150: dda8 26bd 01b4 49bc ed40 f23c e825 5cbd
00000160: 2b1f f13c 19c1 b9bb 2eb0 09bb c754 c5bc
00000170: e2eb c63c 3b8d 5ebc b03a 2d3c ba66 953c
00000180: 44c0 923b 2bb6 453a edab 40bc a43e f63c
00000190: b862 2d3c 3cb1 f03b 4b99 80bc f9be 45ba
000001a0: 2b98 4bbc 8681 e53c 6741 02bb ece8 1bbc
000001b0: 57ae 1b3c 0d95 aebc c067 0c3d 19ae 9e3c
000001c0: 13cb 893c c407 38bc 2bbf b43a 2f81 ab3c
000001d0: 436c 0c3c 1ab3 ad3b 40e0 673c 901f f53a
000001e0: e6e1 c0bb 9377 e73c 5eaa 3cbd 44d9 a3ba
000001f0: 038d 783c 698f 49ba 8bbf afbc 2abb 993b
-0.02846366 0.023329496 -0.0041884757 0.009970316 0.028167685 -0.016938021 0.0135323405 0.013494746
0.006887675 0.028905328 -0.00990224 -0.00728801 0.016855026 0.0062101046 -0.04388062 -0.02022013
0.004457316 -0.017541954 0.037629396 0.011652878 -0.025228763 0.018412033 -0.008457985 0.01321933
-0.014459174 0.017124027 0.011042347 -0.019420916 0.009922531 6.202057e-05 0.030647615 -0.0064665633
0.031590916 -0.061338075 0.0026882587 0.008290625 -0.008139912 -0.011399725 -0.015624267 0.061504874
-0.040035885 -0.03158527 0.020517508 0.014970653 0.016067881 0.012295207 -0.021967428 0.010630187
0.009852055 -0.009344247 0.0137678655 -0.0053732423 0.023021244 0.0073522255 -0.037898514 0.0017518778
-0.017229216 -0.00799453 0.010146629 0.039251138 -0.01048972 0.02155135 0.007049559 0.0056517404
0.0010213855 0.0029938698 0.019674683 -0.018603195 0.009096572 -0.01066232 0.024862332 0.020430425
0.040753096 -0.029397132 -0.022691311 0.013420662 0.036963455 0.015683183 -0.015667656 -0.008375985
0.041721024 0.010665026 0.010022445 0.020719256 -0.040688384 -0.012310983 0.029571975 -0.053747088
0.029433807 -0.005668771 -0.0021009552 -0.024088277 0.0242824 -0.013583477 0.010573074 0.01823746
0.0044784863 0.0007542099 -0.01175974 0.030059166 0.010582618 0.0073453467 -0.015698096 -0.0007543411
-0.012426416 0.028015863 -0.0019875409 -0.009515982 0.009502015 -0.021311307 0.03427863 0.019370126
0.016820466 -0.01123232 0.0013789883 0.020935623 0.0085707335 0.0053008916 0.014152586 0.0018701423
-0.005886304 0.02825526 -0.046060912 -0.0012500663 0.015170339 -0.0007688911 -0.02145364 0.004691501

bn1.running_mean f4 [128]
00000000: c113 66bd ba67 b4bd d276 353e 268d 02be
00000010: 4202 dcba a393 0d3e 0754 4fbe 70a5 ccbd
00000020: f2f7 bc3d 5445 623e 7732 00bd b235 eb3d
00000030: d981 e9bd 47d7 693d a4c7 413c 0343 19bd
00000040: 53a1 653e 0d20 0fbd d722 0f3e 3a65 81ba
00000050: 2bae 1dbe 0cd7 11be 59b7 34be 2071 e83d
00000060: 1ce9 d3bb 3e7b 20be 7696 59bd fae9 193e
00000070: 2a12 01be 3774 423d de88 9cbd 2886 273e
00000080: 87f8 bfbd 9dd6 3d3d 5e6c a43d 6074 f53d
00000090: 3e91 1f3e 0b85 293e 1363 433d f3a3 34be
000000a0: f71f 98bd c8d5 e2bd 3fa6 fcbd 769f 233d
000000b0: 2ebd 243e 48d5 233e ae93 a43d d56e 0e3d
000000c0: afac 55bd 0359 523e 9e8e c63d 5c56 353d
000000d0: 17ef f73d 2375 003c 633c 483e 8bab 4dbd
000000e0: 4118 023e b804 16bd 6d6c 85bd 9c25 213e
000000f0: 3f52 873b 67cb c13d 14a6 63be 46b5 923d
00000100: 834c a4bd 9e28 223d 0f47 133e 0dc2 563c
00000110: 75f8 473e 004a 1abe 4bd6 243d 7cb1 bcbc
00000120: 4604 1abd 704f 99bd ca0d 353d ead2 0d3e
00000130: 8fcf d9bd ae66 b83c b513 1dbe 3b8a 5e3e
00000140: 2592 1b3d fb46 e03c 7f82 023e 8c91 55bc
00000150: b489 0abd 0e1e 513c ae14 c0bd c819 7e3e
00000160: 4112 0cbe 1b44 71bb f49d 033e f9c7 3f3e
00000170: 669a 29be a367 7c3c 73dc c3bd 1297 15be
00000180: 36d7 a13c cfc6 023d d406 a2bd e651 0ebe
00000190: dec3 d33c df6d 4cbe ec0e d73d 6122 c53c
000001a0: 2bac b13d 971b edbd 3af7 a6bd 427c 9c3d
000001b0: f998 0d3c 54bb 073e 963b 773d 10a9 89bd
000001c0: adc6 06be 12ab 893b 3ca6 333d 5a57 ffbc
000001d0: 81d0 de3d 605c 9d3d 6ab6 b93d 6349 27be
000001e0: 0c7e 9a3d 2b85 e2bd 99ed 2c3e 656e 033e
000001f0: d0ff b2bd 5434 e8bd a8db fabd dbe3 97bd
-0.056171183 -0.08808847 0.17721108 -0.12749156 -0.0016785341 0.1382585 -0.20246898 -0.09992492
0.09226979 0.22096759 -0.031298127 0.11484851 -0.114017196 0.05709007 0.011827383 -0.037417423
0.22424822 -0.034942675 0.13978134 -0.0009872087 -0.15398471 -0.1424219 -0.17648067 0.11349702
-0.006466998 -0.15672013 -0.053122006 0.15030661 -0.12604585 0.047474112 -0.07643293 0.1635977
-0.09373575 0.04634725 0.08028482 0.119850874 0.15582749 0.16554658 0.047701906 -0.17640667
-0.07427972 -0.11075932 -0.123363964 0.039946996 0.16087791 0.15999329 0.0803598 0.034773666
-0.052166637 0.20541768 0.09695171 0.04427181 0.1210615 0.007840428 0.19554286 -0.050212424
0.12704565 -0.036625594 -0.06514821 0.15737003 0.0041296775 0.09462624 -0.22231323 0.071634814
-0.08022406 0.039589517 0.14382575 0.013107789 0.19528373 -0.15067291 0.04024343 -0.02303385
-0.03760173 -0.074858546 0.044202603 0.13849989 -0.10635292 0.022509899 -0.15339549 0.21732418
0.03798117 0.027377596 0.12745093 -0.013035189 -0.03382273 0.012763513 -0.09378944 0.24814522
-0.13678838 -0.0036814276 0.12853223 0.18728627 -0.16562805 0.015405568 -0.09563532 -0.1460841
0.01975594 0.03192788 -0.079114586 -0.1389843 0.025850233 -0.19963787 0.10500893 0.024064245
0.086754166 -0.11577528 -0.081526235 0.07640888 0.008642429 0.13255054 0.06035956 -0.06721699
-0.13161726 0.0042013014 0.043859705 -0.031169582 0.10879613 0.07683635 0.09067996 -0.16336589
0.07543573 -0.11060556 0.16887511 0.12835081 -0.087401986 -0.11338106 -0.12248927 -0.07416507

bn1.running_var f4 [128]
00000000: 31a1 0e3f 0e7e 0a3f 1ca0 ec3e 514c ee3e
00000010: 853f d43e 862f 043f cfb7 303f 85b1 173f
00000020: dfcb 343f acb1 6e3f 5b6b 213f 19f5 1c3f
00000030: e6f7 053f 3db1 323f f6b5 d63e 70ec 943e
00000040: 76d1 3f3f 7417 c93e a934 603f 12d7 e83e
00000050: 786d 003f b07c 233f bf93 3d3f 95c7 053f
00000060: a109 b13e 84b3 0a3f 11a6 023f 9592 fa3e
00000070: 5000 063f 3065 df3e 32d1 b93e bc9b 083f
00000080: 2c61 323f 2853 bb3e be39 1e3f 150f 123f
00000090: 7be6 2c3f af2a 6a3f 76e5 f33e df19 123f
000000a0: f302 183f 09d7 cc3e 59ae 1d3f 28b8 8f3e
000000b0: 3bde 243f 04b3 353f 7987 fb3e fa79 b93e
000000c0: c0eb e73e 5b70 7a3f e7bc 313f da0b b43e
000000d0: a12b 2e3f 448c 1c3f 8787 ee3e da84 e33e
000000e0: 6bb3 523f 9947 a33e de89 323f 1e15 5b3f
000000f0: fd81 c13e bf72 3d3f 4f29 023f 6d06 283f
00000100: 7fce f53e 18cf ec3e 9a6a 423f a22d 063f
00000110: 585f 1b3f a701 113f 6c39 b03e 36ac bd3e
00000120: 3635 063f 545a 163f e7f6 e93e 6c1f 233f
00000130: 6e96 c63e 8ff5 d93e 7a4c 303f 909c 9e3f
00000140: bc63 e23e 2624 d13e 086d 153f cdf6 bd3e
00000150: b9fa 1b3f d96e ef3e 7b0d 1d3f 5bb8 083f
00000160: 2092 c83e be7d d63e 8dcf fe3e f734 293f
00000170: 0b83 213f 3d4f 0d3f 1d8f 233f c12b 363f
00000180: d6cd 6c3e d9e7 203f 0573 153f 4d01 013f
00000190: e059 d53e 1725 663f 69a1 113f b156 dc3e
000001a0: b317 f63e 24df df3e 1af3 433f a1c7 743f
000001b0: 78db c43e cffc 953f 5fa4 163f 5613 0f3f
000001c0: ca20 c73e ae30 f83e ab61 ae3e 53c3 ec3e
000001d0: 50cd 163f 13bf d33e 7dc2 4a3f 2bff 4e3f
000001e0: cc48 293f 9394 da3e 065a 813f 75e6 163f
000001f0: 30e3 053f 7b1f 223f 8ee3 493f f300 d53e
0.5571471 0.54098594 0.46215904 0.465426 0.41454712 0.51635015 0.6903047 0.5925525
0.7062358 0.93239856 0.63054436 0.6131149 0.5233139 0.69801694 0.419357 0.29086637
0.7492899 0.39275706 0.87580353 0.45476586 0.50167036 0.63862133 0.7405357 0.52257663
0.3457766 0.5418017 0.5103465 0.48939958 0.52344227 0.43631887 0.36292416 0.5336263
0.6967952 0.3658688 0.6180686 0.57054263 0.67539185 0.9147138 0.47636002 0.57070726
0.593795 0.4000781 0.6159416 0.28070188 0.64401597 0.7097628 0.49126795 0.36225873
0.4529705 0.9782769 0.6942887 0.35165292 0.6803532 0.6115153 0.46587774 0.44437295
0.8230502 0.31890562 0.6974162 0.855791 0.37794486 0.74003214 0.5084428 0.65634805
0.48009107 0.4625175 0.7594391 0.5241338 0.6069236 0.56643146 0.3441881 0.3704545
0.52424943 0.5873158 0.45696184 0.6371982 0.38786644 0.4257016 0.68866694 1.2391529
0.44216716 0.40847892 0.58369493 0.37102357 0.6092945 0.46764258 0.61348695 0.53406304
0.39173985 0.4189281 0.49767724 0.6609644 0.6309058 0.55199033 0.6389025 0.71160513
0.23125395 0.6285377 0.5837863 0.5039261 0.41670132 0.89900345 0.5688692 0.4303489
0.48064956 0.4372493 0.7654282 0.9561711 0.3844869 1.1717776 0.5884456 0.5588888
0.38892204 0.4847464 0.3405889 0.4624277 0.5890703 0.41356716 0.79203016 0.80858105
0.66126704 0.42691478 1.0105598 0.589454 0.52299786 0.63329285 0.78862846 0.41602287

hidden2.weight f4 [128, 128]
00000000: 4471 9d3d eb6a d0bb fcc4 8dbd d754 223c
00000010: a7fe ef3c 9900 46bb 68b1 4f3c d78d ca3c
00000020: 0511 343d 450b f2bc d383 5cbd 02a9 863d
00000030: f7e1 aa3c 11f5 9c3d 264c 4bbd 8af2 cbbc
00000040: 79bf b73c 0e3e ac3c ebcf 1fbd f51c 22bd
00000050: 8007 c6bc e701 8bbd bba0 743b 3beb a6bd
00000060: c143 e8bc efa0 21bb 5f13 84bd 9e43 323d
00000070: 32a2 7f3d e723 9a3b 32c0 b93c bc81 b8bd
00000080: 43a2 df3b bc0b 1a3d 1fbf 19bd a064 43bc
00000090: 757c adbd 9c0c 273d 3fa3 1ebd 5488 0dbc
000000a0: 5569 3c3d b18a 9a3d ceb6 763a 6533 b53d
000000b0: 5069 be3c 1dc6 c1bb 9c83 933d 75db b03d
000000c0: 42be a73d 1952 26bd 413c 40bd 2d4e 6f3d
000000d0: c846 36bd 443b eabc 3c5f 613d 7922 ae3c
000000e0: c956 9bbb 7adf 113d 8911 0c3d f2f7 b1bd
000000f0: 98b2 823d 2c8b e83c fa3e 4b3d 6657 8bbb
00000100: 9247 c63b 85b3 2ebb b513 22bc 3ba9 ae3d
00000110: 9770 7cbd 1036 3ebd a9c2 99bd 7376 d2bb
00000120: 34d4 90bd 50ac 8b3d bc63 10bd dc25 913d
00000130: fd79 a73d 8dd3 6abd 15cb 91bd 8d3b edbc
00000140: 9ff6 4dbd 21a5 1b3d e272 703d 92a1 cfbb
00000150: 2dae 97bd 07d4 123d 5db9 a33d 7503 ce3c
00000160: b309 e0bc 9c49 86bd f3cf 82bd 61d8 2d3d
00000170: 061a 413d cbf9 7d3d cc64 b43d 838f 27bc
00000180: d8d5 88bb 588f 923c c822 04bd 95b6 b8bc
00000190: 077b 7bbc 009f c03c 48a8 6abd e949 a8bd
000001a0: 18cb b5bd 4a65 5ebb 3136 a33c aea9 7a3d
000001b0: f8cb 62bd 15c5 4fbc 4a05 613d 69e0 cd3c
000001c0: eecb 28bd 1146 8fbd 1fb7 72bd 3d60 b6bc
000001d0: 5ddf ac3c b344 843d 64ac f93c a77a 873d
000001e0: 9c4b 14bd eb87 763b cf01 d4bc 9c3f a03d
000001f0: 2ca0 47bc f934 463d 6a0e 2a3d 5476 19bc
00000200: 3ec7 083d aa6a bbbc dd9e 8e3c 97ac 933d
00000210: 7474 0bba 4231 883d 567c 85bd d79f 8b3b
00000220: ebab fc3c eb1d 9b3c 61bb d13d 30fb 70bd
00000230: dde2 54bd ec31 b5bc 16df 543c 9604 6cbd
00000240: 13b8 39bc f9ae 86bd 85fd a8bd 7d1f bfbc
00000250: 162a d73c cbbd 973d 7f50 82bd 189d a7bd
00000260: 5180 823c d0ed 9b3d cc91 6d3c 8940 9a3d
00000270: 7bde 603d 196a 87bb 40d7 8ebd d7f2 9e3c
00000280: 80ec a73d cb55 8fbd 4636 9a3d a2c4 973c
00000290: b39c a4bc aec9 103d 73a0 c1bc cbf7 5dbd
000002a0: d199 413d 70b9 703d 13d0 59bb 08e1 39bd
000002b0: 8bc5 46bd 9b43 54bd 583a adbd dd4a 17bd
000002c0: fd7c 69bd e363 4bbc b0d8 363d 19c2 85bd
000002d0: 4f40 ab3c 73f6 d8bb a448 3ebd e384 94bd
000002e0: e13f 23bd 6093 2b38 6853 543d 2adb 7bbd
000002f0: 50a9 473c 8165 b8bd d673 bc3d 3dd6 6f3d
00000300: 7c08 703c bf7c 61bd 606f 633c 1a2c b23d
00000310: df8c 38bc 482c 3c3c c888 1c3c c7d8 8dbc
00000320: 2136 dfbc e0cf b83c 611c 643d 84d3 96bc
00000330: 25b1 e5bc 2c32 c5bd 12f3 47bd 55e2 3bbd
00000340: 307f 0ebd 2a0d 89bd 8344 59bd 3c44 37bd
00000350: c627 093d 3f5f 243d 2b9d a8bd 7c0a 7b3d
00000360: 8c81 acbc cc5a a93d d931 0a3d d7c9 1e3d
00000370: 3dbd 903d b3d3 0bbc 9e5f f93b df29 98bd
00000380: 4cb5 12bd d713 a93c 30e5 523d fe45 903c
00000390: bb24 9bbd c137 68bd 2b44 c9bc 1480 ab3c
000003a0: c4f1 683c ff8d dc3c d516 a8bd 0ba1 4b3d
000003b0: 71ed c8bd ca63 23bd 3e1f c83c 8941 8fbd
000003c0: 0a05 5ebd 41b4 a73d ecad 93bd eeb5 f93c
000003d0: 7bba 9cbd 6587 8ebd b905 9ebc fb34 b53d
000003e0: d694 96bd 6ba4 693d 559b fcbc b2b3 0e3d
000003f0: 2872 333d 8338 ba3c c3e6 9b3d 3839 f83c
0.07687619 -0.006360402 -0.069223374 0.009907923 0.029296232 -0.0030212759 0.012676574 0.024725838
0.043961544 -0.02954639 -0.053836655 0.065752044 0.020859702 0.0766393 -0.049633168 -0.024895925
0.022430168 0.021025684 -0.039016645 -0.039578397 -0.024173498 -0.06787472 0.0037327248 -0.081503354
-0.02835262 -0.0024662574 -0.06449007 0.043521516 0.06241054 0.004703987 0.022674654 -0.0900912
0.006824763 0.037608847 -0.037535783 -0.011925846 -0.08471004 0.04078351 -0.038729902 -0.00863846
0.04599889 0.075459845 0.00094113953 0.08847693 0.023243576 -0.0059135095 0.07202837 0.08635608
0.08190586 -0.04060564 -0.046932463 0.058424164 -0.044501096 -0.028592713 0.055022463 0.021256672
-0.00474057 0.035613514 0.03419641 -0.0868987 0.0638172 0.028386675 0.049620606 -0.004252362
0.0060510123 -0.0026657295 -0.009892394 0.08528372 -0.06163081 -0.046438277 -0.075078316 -0.0064228117
-0.070717245 0.068199754 -0.035251364 0.07087299 0.08177564 -0.057330657 -0.07118813 -0.02895906
-0.050284024 0.037999276 0.05870331 -0.0063363994 -0.07406268 0.035846736 0.079943396 0.025148133
-0.027348375 -0.065570086 -0.063873194 0.042442683 0.04714396 0.0620058 0.08808288 -0.010227087
-0.004175883 0.017890617 -0.032259732 -0.022548 -0.015349156 0.023513317 -0.05728939 -0.08217222
-0.08876628 -0.0033934885 0.019923301 0.061196975 -0.0553703 -0.012681265 0.054936685 0.025131421
-0.041210108 -0.06995786 -0.05925667 -0.022262687 0.021102602 0.06458416 0.03047771 0.06615191
-0.03620492 0.0037617635 -0.025879769 0.078246325 -0.012184184 0.048390362 0.041517653 -0.0093665905
0.033393137 -0.02287801 0.017409736 0.07210653 -0.0005319782 0.0665002 -0.06517856 0.0042609978
0.030843696 0.018935164 0.10240818 -0.0588333 -0.051974166 -0.022118531 0.012992641 -0.05762156
-0.011335391 -0.06576342 -0.0825148 -0.023330444 0.026265185 0.07409247 -0.0636301 -0.0818426
0.015930327 0.076137185 0.014500093 0.0753184 0.054899674 -0.004132521 -0.069746494 0.019402904
0.08199406 -0.069987856 0.07529883 0.018526379 -0.020094251 0.035348587 -0.023636078 -0.054191392
0.04726583 0.058770597 -0.0033235594 -0.045380622 -0.048528235 -0.051822286 -0.08458394 -0.03693663
-0.057003964 -0.012413952 0.044640243 -0.06531162 0.020904688 -0.006621176 -0.046455994 -0.07251909
-0.03985584 4.090683e-05 0.051837355 -0.061488308 0.012186363 -0.09003735 0.092017815 0.058553923
0.01465046 -0.055050608 0.013881534 0.08699818 -0.011264055 0.011485167 0.009554096 -0.017315282
-0.02724749 0.02256006 0.055691127 -0.018411405 -0.02803857 -0.0962871 -0.048815794 -0.045870144
-0.034789264 -0.06691964 -0.053043853 -0.044742808 0.033485197 0.040129896 -0.082331024 0.061289296
-0.021057867 0.08269271 0.033738945 0.03876671 0.07067344 -0.00853436 0.0076102754 -0.07429861
-0.03581743 0.020639343 0.0514881 0.0176115 -0.07575365 -0.056693796 -0.024568638 0.020935096
0.014217798 0.026923178 -0.0820748 0.04971413 -0.09810913 -0.03989009 0.02442896 -0.06994922
-0.054204024 0.081886776 -0.07210907 0.030482259 -0.07652756 -0.06959418 -0.019289838 0.08847996
-0.07352607 0.057041567 -0.030835787 0.03483934 0.04381004 0.022732025 0.07612374 0.030300722

bn2.weight f4 [128]
00000000: 7f21 803f 6464 7e3f 29f1 7f3f 6580 7d3f
00000010: 4fad 7f3f 9e54 7e3f 9a3b 7f3f d39f 7d3f
00000020: 3d93 7f3f b8cd 7d3f 1009 803f 464a 7f3f
00000030: d33d 7f3f d9f5 7d3f 372f 7e3f c2ac 7f3f
00000040: 2191 7f3f d075 7e3f 7611 7f3f baff 7d3f
00000050: e713 803f de8e 7f3f 4b16 7f3f 51c3 7f3f
00000060: de3b 7f3f c962 7f3f a160 7e3f d491 7f3f
00000070: 9d5c 7f3f 403b 803f e72f 803f 5773 7f3f
00000080: 50a2 7e3f 1778 7c3f e087 7e3f 8b7c 7f3f
00000090: dbc3 7e3f f705 803f 0a74 7e3f 8317 7f3f
000000a0: 0180 7f3f 67e6 7e3f 3993 7f3f 2de0 7f3f
000000b0: 32b1 7e3f 1a10 803f 390d 803f fe4f 7d3f
000000c0: 1d0b 803f 760a 803f 9e70 7f3f fe33 7e3f
000000d0: 9e8d 7f3f 4ac9 7f3f bf44 7e3f b74b 7d3f
000000e0: 8769 7f3f ba5b 7d3f bc14 7e3f 1b49 7e3f
000000f0: a205 803f 3d01 803f 23d3 7e3f f7ea 7d3f
00000100: a07a 7f3f 8031 7f3f 7eb9 7f3f 3b5c 7f3f
00000110: dc8d 7f3f 40aa 7e3f cafd 7e3f 6d21 803f
00000120: 9be0 7f3f fcc3 7e3f d012 7f3f 30e9 7e3f
00000130: e64a 803f 9fdb 7e3f ffa1 7e3f 4c60 7d3f
00000140: eb96 7e3f 4c23 7e3f ca2f 803f f51c 803f
00000150: 0820 7f3f d1d1 7f3f 654b 7f3f 81e4 7f3f
00000160: bc05 7f3f 286d 7f3f 34d1 7f3f 001e 7f3f
00000170: 42a5 7f3f c1b8 7e3f a888 7f3f 4b7e 7e3f
00000180: b93c 803f e3f4 7e3f 87d8 7e3f bae0 7f3f
00000190: 3939 7e3f 5a7e 7d3f a64a 7f3f a8d6 7f3f
000001a0: 3af8 7f3f dcc9 7f3f cb31 7f3f e22e 803f
000001b0: dec6 7f3f 29ce 7f3f 6cd9 7f3f b012 7e3f
000001c0: 02b0 7f3f 6ab8 7f3f 48b5 7e3f 51e0 7f3f
000001d0: 41fb 7f3f 3c37 7f3f f9a2 7e3f 7ad4 7f3f
000001e0: de61 7d3f 4ee7 7e3f 4767 7f3f c7d6 7c3f
000001f0: 8609 803f 7a13 803f 5f1f 803f d878 7b3f
1.0010222 0.99371934 0.99977356 0.9902404 0.9987382 0.99347866 0.9970032 0.99072
0.9983404 0.99142027 1.0002766 0.9972271 0.9970371 0.9920326 0.99290794 0.9987298
0.99830824 0.9939852 0.9963602 0.9921833 1.0006074 0.99827373 0.9964339 0.99907404
0.99700725 0.9976011 0.99366194 0.9983189 0.9975069 1.0018082 1.0014619 0.9978537
0.9946642 0.9862074 0.9942608 0.9979941 0.995176 1.000182 0.9939581 0.9964525
0.99804693 0.99570316 0.9983402 0.9995144 0.9948913 1.0004914 1.0004035 0.98950183
1.0003392 1.0003192 0.99781215 0.99298084 0.99825466 0.9991652 0.9932365 0.98943657
0.99770397 0.9896809 0.9925039 0.993303 1.0001719 1.0000378 0.9954092 0.9918665
0.99796486 0.99684906 0.99892414 0.9975011 0.99825835 0.9947853 0.99606 1.0010201
0.99952096 0.995178 0.9963808 0.99574566 1.0022857 0.99553865 0.99465936 0.9897506
0.9944903 0.9927261 1.0014584 1.0008837 0.9965825 0.9992953 0.9972442 0.99958044
0.99618125 0.99775934 0.99928594 0.9965515 0.9986154 0.9950066 0.99817896 0.9941146
1.0018531 0.9959242 0.99549145 0.9995228 0.99306065 0.9902092 0.9972328 0.99936914
0.9998814 0.9991739 0.99685353 1.0014307 0.9991282 0.9992395 0.99941134 0.99247265
0.9987794 0.9989077 0.99495363 0.99951655 0.9999276 0.99693656 0.99467427 0.9993359
0.9897746 0.9957169 0.99766964 0.98765224 1.0002906 1.0005944 1.0009574 0.9823127

bn2.bias f4 [128]
00000000: a54a b73a 0f7b cbbc d79a e9bb ab7d d93c
00000010: 61bb 9d3b 3086 a63c b75d 00bc 9f95 b0bc
00000020: a3b5 07bc 61a5 9b3c 19c1 9f3b 333e 663c
00000030: ba3c 513c 7c5a c43c 3efe 6f3c 9d39 24bc
00000040: b8c2 28bc 5e48 9a3c c1c0 21bc d4be debc
00000050: e8fa b03b 9baa 1fbc a95a 2abc a303 9dbb
00000060: d31b 503c f923 02bc 15df 85bc 7a4c 32bc
00000070: 6683 a8bb bef0 3cba 750d 7f3b a4d8 1bbc
00000080: 4046 923c 3430 b53c 4589 873c 9eda ccbb
00000090: c337 8a3c f957 a3bb 969c c23c 7b3f 493c
000000a0: 47fe 213c 574e 62bc 3663 f13b bc1e 1bbb
000000b0: c41d 6b3c 46d8 193b 8323 fbba 9e26 773c
000000c0: fc44 74bb 73e3 27ba ea12 1b3b 6f2e 78bc
000000d0: 39f0 233b 3423 efbb 36af 84bc be7d cbbc
000000e0: f0f9 133c a88c a53c 41da cc3c e261 c33c
000000f0: 14e0 de3a e82a 75bc 3723 87bc fc55 bc3c
00000100: a47f 83bc b5f7 98bc bb9b 64bb 6694 22bc
00000110: 9a8e 99bc 8781 64bc db7b 60bc 9924 2ebb
00000120: 3912 bcbb ebf0 b73b ac16 c8bb 3822 833c
00000130: 9efe 11bb 8414 bebc f8a8 7f3c 064f a7bc
00000140: 2003 69bc 5aa2 a73c 315f 88bb 6a81 3ebc
00000150: ad8e 91bc 165b 16bb efa5 d9bb dcbc 343c
00000160: 106e 82bc 4f92 59bc 3b8c 073c 02a9 5abc
00000170: 088e a63b 9366 aa3c 33d4 c73b 2305 613c
00000180: 050b baba ca94 fe3b 1506 4f3c d3a2 cf3b
00000190: 4cb6 673c b924 b6bc c49b 49bc 46a7 b3bb
000001a0: 2db3 0b3c 2ffb 503b bae3 25bc 883a 173b
000001b0: f0c5 bebb 80eb 633b ffe9 ecba 999a 8fbc
000001c0: bbb8 803b e59e c4bb 466d edbb 63ee 253c
000001d0: e75a 943b 5e9d 243c c52e 2b3c d116 d0b9
000001e0: 03e4 c9bc 8ad3 20bc d085 0d3c a67a d9bc
000001f0: d77b 813b a34f 9d3b 995e 993a 4394 1dbd
0.0013984038 -0.024838952 -0.007129054 0.026549181 0.004813597 0.020327657 -0.007834843 -0.02155572
-0.008283052 0.018999757 0.004875314 0.014052915 0.012770826 0.023968928 0.014648018 -0.010023502
-0.010300331 0.018833335 -0.009872616 -0.027190603 0.005401004 -0.009745265 -0.010397592 -0.0047916933
0.012701946 -0.007943147 -0.016341725 -0.010882491 -0.005142617 -0.0007207504 0.0038917933 -0.0095121
0.017855763 0.022117712 0.016544947 -0.006251647 0.016872292 -0.0049848524 0.023756307 0.012283201
0.009887285 -0.013812623 0.007366563 -0.0023669442 0.014350358 0.0023474856 -0.0019160364 0.015084891
-0.0037272563 -0.0006404437 0.0023662397 -0.015147789 0.002501501 -0.0072978977 -0.016196828 -0.024840232
0.009031758 0.020208672 0.025006415 0.023850385 0.0017004036 -0.014963843 -0.016496284 0.02299022
-0.016052075 -0.018672803 -0.0034882862 -0.009923076 -0.018744756 -0.013946897 -0.013701404 -0.0026572107
-0.005739477 0.0056134365 -0.0061062183 0.016007528 -0.0022277008 -0.023203142 0.01560425 -0.020423423
-0.014221936 0.020463157 -0.0041617383 -0.011627534 -0.017768228 -0.0022942475 -0.0066420953 0.011031356
-0.015921623 -0.013279512 0.00827318 -0.013345959 0.0050828494 0.020800864 0.006098294 0.013734135
-0.0014193958 0.007769202 0.012635727 0.006336549 0.014142584 -0.022234308 -0.012305204 -0.005482587
0.008526606 0.0031887998 -0.010125095 0.0023075659 -0.005821936 0.003477782 -0.0018075107 -0.017529773
0.0039282716 -0.006000387 -0.0072456924 0.010127637 0.004527438 0.010047285 0.010448162 -0.0003968985
-0.024644857 -0.00981606 0.00863786 -0.026547741 0.0039515304 0.004800753 0.0011701166 -0.03847147

bn2.running_mean f4 [128]
00000000: 3179 943c f88e 56bc dbba 3ebd 7453 983d
00000010: 3577 1bbc 8576 803d f19b b7bc befb 46bd
00000020: 547d 313c 0211 9f3c 4ec0 4dbb 62e1 803d
00000030: 5eec ee3b 0644 3d3d 821d 803d 72f9 3ebb
00000040: 1a63 39bd 1c68 0e3d 8565 d1bc 4ce3 49bd
00000050: 545b 19bc b731 6b3b 1cd2 74bd ca23 12bd
00000060: 720b a23c d194 a4bc 0338 d1bc 7d69 fabc
00000070: f0a9 b5bc 0d8b ed3b caef d03c ac4f 75bd
00000080: 3bab 563d 1497 d3bb 5af2 74bb 1298 483c
00000090: be59 913d 8d48 8b3c 051a a63d add0 153c
000000a0: fc4d 9b3c 124e eebc 0f96 203d ce5f c1bc
000000b0: 4adc 5c3d 3f4b 893d d383 a8bc 4f98 d03c
000000c0: e84a b23c b28f 3ebd 9658 b13c decd 643c
000000d0: 75e5 6b3d 2fbb 97bd badf 703c 0cb6 b6bc
000000e0: 406c bb3b 16fb 9b3c 76fa d53b 00ef 373d
000000f0: dec0 013c e495 313c 8b8d a1bb cf51 7f3d
00000100: f3ee 8ebd 4f15 58bd 050d 2ebd a91d 52bc
00000110: 7b5d 02bd b88b 11bd d564 c1bc f3ac 2dbd
00000120: b06f 94b9 aef0 0ebc 6807 42bd f31e 8e3d
00000130: a96e 843d 58ea 7dbd a235 f33c c886 05bc
00000140: d4e0 77bd fa04 f93c 2abe e8bc 93f6 15bd
00000150: 5dbd 42bd 1838 53ba 1d88 9abc ebbe 15bc
00000160: 1143 32bd a4a6 383a f205 583d b804 05bd
00000170: 645f 303d 6318 a43d 74b3 92bc acde 893d
00000180: ff5f a2bd d13f aa3c abd7 5bbb 71c1 76bc
00000190: eb58 163d c007 49bd 57dc b0bc a5c2 0fbd
000001a0: 0dc1 7d3d 2fe2 81bc 1f4c c9bc 5614 6d3c
000001b0: 05b1 24bc add5 103d 3c3b 89bc c65f c8bc
000001c0: 536a 48bc aeaa 81bd 02c6 92bb 2279 433d
000001d0: 02ea 093d e0f3 ab3c e8a5 f33c 67e0 40bd
000001e0: 20d8 d9bc 8b2b 13bc 058d 933a a06d 18bd
000001f0: dff4 453d 3a65 133c 3f89 a2bc bfc8 25bd
0.018124195 -0.01309561 -0.046564918 0.074377924 -0.00948887 0.06272606 -0.022413226 -0.048579924
0.010833103 0.01941729 -0.003139514 0.06292988 0.0072913608 0.04620745 0.06255628 -0.002914038
-0.045260526 0.034767255 -0.025561104 -0.049289033 -0.009360153 0.0035887787 -0.05977069 -0.035678662
0.019780848 -0.020090492 -0.025539404 -0.030567879 -0.02217576 0.007249242 0.025504965 -0.059890434
0.05240939 -0.006457219 -0.0037375898 0.012243288 0.07097195 0.017002368 0.081104316 0.00914399
0.018958084 -0.029089961 0.039205607 -0.023605254 0.05392102 0.06703805 -0.020570671 0.025463251
0.021764234 -0.046523757 0.021648686 0.013965098 0.057591874 -0.07408749 0.014701778 -0.022303604
0.0057196915 0.019040626 0.0065301014 0.044905663 0.007919518 0.010838959 -0.0049302033 0.062333878
-0.0697917 -0.052754696 -0.042492885 -0.012824454 -0.03182743 -0.035533637 -0.02360765 -0.042401265
-0.00028311973 -0.008724375 -0.047370344 0.06939497 0.06466419 -0.061991066 0.02968866 -0.00814981
-0.060517147 0.03039788 -0.02841099 -0.036612105 -0.047543872 -0.000805737 -0.018863732 -0.009139757
-0.04352099 0.00070438744 0.052740045 -0.032475203 0.04305972 0.08012464 -0.017907836 0.067319244
-0.07928466 0.020782383 -0.0033545296 -0.015060768 0.036705893 -0.049079657 -0.021589441 -0.035097737
0.061951686 -0.015854923 -0.02457243 0.0144701805 -0.01005197 0.035360027 -0.016751878 -0.02445973
-0.012232381 -0.06331383 -0.004479171 0.047722943 0.033670433 0.020990312 0.029742196 -0.047089007
-0.026592314 -0.008982549 0.0011257237 -0.03721392 0.04832923 0.008996302 -0.019840835 -0.04047465

bn2.running_var f4 [128]
00000000: 577d 463e 8b03 823e ca3b 823e 832a 7e3e
00000010: cdd3 413e 5cef 903e 4456 1c3e e6a2 853e
00000020: b916 613e fcaa 3d3e cbda 283e f8b6 693e
00000030: 2fe0 223e e4fa 5d3e c208 693e da60 373e
00000040: cb26 1c3e 2fa5 523e 380b 423e 9a0b 6f3e
00000050: 0791 473e 678d 2b3e 01f1 513e 57d4 4d3e
00000060: 0825 2f3e dfdc 853e e29f 4d3e e03e 5b3e
00000070: d72c 673e 5a58 553e 0c18 3a3e 8f85 883e
00000080: 56df 6d3e 52a1 7a3e 6dce 493e 2c4b 5e3e
00000090: 58fe 803e d399 293e a052 7c3e a264 823e
000000a0: a3f2 223e d5ac 393e 36c8 8c3e 30cb 223e
000000b0: 5924 673e 1f7f 883e 346b 5f3e 165f 253e
000000c0: 9841 8a3e 1a63 7a3e 1541 433e ce85 2e3e
000000d0: 433c 7c3e fea6 9d3e fa29 213e 28db 5c3e
000000e0: 41af 763e 724e 503e c0fa 533e f76c 353e
000000f0: 582e 4e3e 8f5f 823e 10f0 3c3e 1ec3 273e
00000100: b4d7 8f3e 2635 8e3e 7664 2d3e f5ed 833e
00000110: 8dff 803e da5f 5f3e 3004 503e f481 703e
00000120: 535f 3a3e 86d1 423e 2c2a 383e 26dd a83e
00000130: 37b2 993e 1653 8b3e 991f 3a3e 59b6 4e3e
00000140: ff48 9c3e e4c7 3d3e b772 493e 0360 713e
00000150: 0b55 563e a91e 6c3e f410 633e 2b19 773e
00000160: ac62 713e 903f 843e 1439 6f3e c4ab 523e
00000170: 70ed 6d3e b42e 8a3e 6dad 393e 6dc0 933e
00000180: 3bcd 6e3e 3f67 883e 2828 683e 25b0 403e
00000190: 417c 353e 25e3 793e 665d 6c3e 0c0a 683e
000001a0: 29a6 9e3e 63d6 233e 045c 463e 7a12 603e
000001b0: 8c20 5c3e 773a 2b3e fd9a 243e d083 573e
000001c0: 75b4 4d3e 34c7 4b3e 8f2b 6d3e b0db 423e
000001d0: 0325 473e f239 303e 79ca 383e 3639 663e
000001e0: 33dc 6a3e dc0a 2a3e 4984 533e e75f 663e
000001f0: 4d38 9b3e 25f3 803e b103 803e 0ea9 783e
0.19383751 0.25393328 0.2543624 0.24820904 0.18928452 0.28307617 0.15267283 0.26100844
0.21981324 0.18522257 0.16489713 0.22823703 0.15905832 0.21677738 0.22757247 0.1790804
0.15249173 0.20570825 0.18949592 0.2334427 0.19488917 0.1675316 0.20502092 0.20100532
0.1710397 0.26145074 0.20080522 0.21410704 0.22575699 0.20834485 0.18173236 0.26664397
0.23229727 0.24475601 0.19707651 0.21708363 0.2519405 0.16562586 0.24640894 0.25467402
0.15912871 0.18132336 0.274965 0.15897822 0.2257246 0.26659486 0.21818238 0.16149554
0.2700317 0.24451867 0.19067796 0.1704323 0.24632363 0.30791467 0.15738669 0.21567976
0.24090292 0.20342425 0.20701122 0.17717348 0.20134866 0.2546353 0.18450952 0.16383025
0.28094256 0.27774924 0.16932854 0.25767484 0.2519497 0.21813908 0.20314097 0.23487073
0.18200426 0.1902524 0.17984837 0.32981223 0.3001878 0.27211827 0.18176116 0.20186748
0.30524442 0.18533283 0.19672666 0.23571782 0.20930879 0.23058571 0.22174436 0.24130695
0.23572797 0.25829744 0.23361617 0.20573336 0.23235106 0.26988757 0.18132563 0.28857747
0.23320477 0.2664127 0.22671568 0.18817194 0.1772318 0.24403055 0.23082504 0.22660083
0.30986145 0.15999751 0.19371039 0.21882048 0.2149679 0.16721521 0.16074748 0.21046376
0.2008837 0.19900209 0.23161148 0.19029117 0.19447713 0.17209604 0.18045987 0.22482762
0.22935562 0.16605705 0.20655932 0.22497521 0.30316392 0.25185505 0.25002816 0.24283239

hidden3.weight f4 [16, 128]
00000000: db5b a2bd a6ee 8abd 5fff 00bd 3186 49bd
00000010: dd1b 713d 880a 4dbd e13e 07bd 8d3a 633d
00000020: 4828 85bd 5cdf 4e3d ac52 bbbd 740d 88bd
00000030: 0770 91bd 217d 25bd 39a8 5c3d 9ecd ac3c
00000040: 3e59 963a 4caf 933d 2296 92bd 2685 cbbc
00000050: bc58 3a3d 36f2 053d 302b 27bd e923 853d
00000060: 13bc 95bd 8314 843d 3105 813d f977 753d
00000070: 9f12 5a3d eca0 1bbd e003 1cbd c8ff 5fbd
00000080: 1eb1 303c 196d bc3c 8910 743c 5498 14bd
00000090: 8745 09bd 5f66 263c 5912 673b 2d98 b33d
000000a0: db1e c6b9 e4ea b83b 759c b5bd 15d4 c03c
000000b0: f671 2dbb c2c0 bdbc 6025 613d b8cf a7bc
000000c0: 8b4a 47bc 28da cb3b 8093 5e3d 4d90 0d3c
000000d0: 69dc 483d 047a 9f3d d0a2 933c 5d57 b53c
000000e0: 67c1 95bd e6be 2cbd 0793 9ebd a841 323b
000000f0: 13d3 fabc 503a 26bc 8d68 85bd 53b5 8c3c
00000100: f7a4 153d 0bb7 86bd 1511 863d 8262 80bd
00000110: df05 72bd aadc 953d a103 143c bb49 80bd
00000120: 2b3b 963d 7d08 3abc 4c78 3ebd cdd9 4f3d
00000130: aec9 bbbd a943 b0bb 9c98 eabc ecb8 cd3b
00000140: 299c 473d 0ebd 79bd 6b0d 3e3d 6d8f aabb
00000150: ffd8 64bd 820c 833d de98 a4bd 51dd 16bc
00000160: 81a6 283d df0b 22bd c1b6 a8bd 5943 0c3d
00000170: 066d 3fba 9ab1 2d3d 9662 553c 6742 9bbd
00000180: 368f 9e3d a209 d1bc ff27 81bd 695c 9ebd
00000190: e2dd 37bd fb95 86bd 4f82 80bd adbf 793d
000001a0: 66ec ea3c 40a0 e83c 87fe a13a 881a 773d
000001b0: f2ea 09bd 557d a4bd fee9 10bc ff2a 423b
000001c0: 5f1b 48bd 0fbf 37bd e8ec 653c 48c7 55bd
000001d0: 4079 63ba 5344 123c 6988 90bd fba6 c43d
000001e0: 1f83 463d 8beb 0f3d 67cd a3bd 83bf 2ebb
000001f0: 5981 39bd 35ad 3dbd 6f51 433c 44cd e73c
00000200: 97fa 0c3d dd0d 4aba a370 963d 7e11 a9bd
00000210: 94a2 0cbd c5aa 62bd b51d 513d 7483 1bbc
00000220: 8727 0a3d a685 10bc 76a6 e6bc 7692 723d
00000230: 35ec e0bd 12b7 f5bc 1ead 0fbd a90f f13b
00000240: 0264 9d3c 771e 89ba 88a2 4cbb 9b05 22bd
00000250: 4fed 48bd 9a51 033d c25e 433d 5222 cebc
00000260: c44c b3bd 881d ae3d 7c76 443d 1c9e a43c
00000270: 10f0 833a a83a e7ba 3497 043d e898 abbd
00000280: dad8 acbd d6f1 a6bd bae3 ffbd 8796 9b3d
00000290: e83a 7bbd fe37 b3ba 031a 433d 7d7c 8bbd
000002a0: bbc0 f5bb 5811 8bbd e388 c63c 9356 c8bb
000002b0: 95e7 943d 5983 7a3d 269a 0abd 7bb3 8ebd
000002c0: 5af7 de3d b8b1 64bd 0552 a6bd 68dd 833d
000002d0: 9169 15bc de1e 293c 654e 123d c1c5 a6bc
000002e0: 362a cabc 49d6 e83c ad63 af3d 40ea e3bc
000002f0: dd05 04bd 1992 2e3c 895e ef3d 1b14 8abd
00000300: 29e3 79bd be01 873d 854c 78bd 25d1 3c3d
00000310: 060f 923d 0d13 03bd 0c3f 39bd 0d46 be3c
00000320: f7e6 56bd 37a5 e7bb 9746 a33c d825 0f3c
00000330: f5ea a23d 4e74 25bd 2626 25bd 5e46 5dbb
00000340: 7e72 6abd f28d 6ebd 11da 88bd 6549 38bd
00000350: aa1d 11bd fecf 573c 2b3b 2c3d f3ab 1abc
00000360: 8536 3e3d f59f 7f3d 64dc 1e3d 5626 8c3d
00000370: b389 debd 3410 82bd 14cc 463d a8db 95bc
00000380: 2b98 2bbd f537 86bd 58c8 8c3d 1083 9abd
00000390: 73c0 293c f142 8d3d d1b3 0a3d be29 a83c
000003a0: 491d 55bc 89d5 0f3c c7b0 d7bc 7672 963d
000003b0: c402 043c b5e2 183d 1ca9 903c bb8a 2fbd
000003c0: e2b0 c43d 0657 7dbb 5f13 01bd 5622 243d
000003d0: 1bfb b83c 80fe 1fbd eebc 84bd 5cab b4bc
000003e0: 8361 0fbd 8344 ac3b c018 0f3d b4fe 1a3d
000003f0: 4591 bfbc d038 3e3c 261a f33d 76bc 5ebc
-0.07927676 -0.067838 -0.03149354 -0.04920024 0.058864463 -0.05005887 -0.03301895 0.05547576
-0.06501824 0.05050598 -0.09146628 -0.06643191 -0.07101446 -0.040402535 0.053871367 0.02109414
0.0011470688 0.072111696 -0.07157542 -0.024843764 0.04549478 0.032701693 -0.04081267 0.0650099
-0.07311263 0.06449225 0.06299818 0.059928868 0.053240415 -0.037995264 -0.038089633 -0.05468729
0.0107844155 0.02300124 0.01489652 -0.036278084 -0.033513572 0.010156243 0.0035258739 0.087692596
-0.00037788492 0.0056432355 -0.088677324 0.023538629 -0.002646563 -0.023163203 0.054967284 -0.02048479
-0.0121637685 0.0062210746 0.054339886 0.008640361 0.049038325 0.077869445 0.018021971 0.022136385
-0.07312279 -0.042174242 -0.07742887 0.0027199779 -0.030618226 -0.010145739 -0.06514082 0.017176306
0.036534276 -0.065778814 0.06546227 -0.06268789 -0.05908763 0.07317479 0.009034068 -0.06264063
0.07335504 -0.011354563 -0.046501443 0.05074482 -0.09169327 -0.0053791595 -0.028637223 0.006278148
0.04873291 -0.060971312 0.046399515 -0.005205086 -0.055871006 0.0639887 -0.080369696 -0.009208039
0.041174415 -0.039562102 -0.082379825 0.034243915 -0.00073023175 0.042405702 0.013023993 -0.075810246
0.07742159 -0.025517289 -0.06306457 -0.077324696 -0.04488934 -0.06571575 -0.062748544 0.060973812
0.028677177 0.028396726 0.001235918 0.060328037 -0.033671327 -0.08031718 -0.008844851 0.0029627678
-0.048854228 -0.044859942 0.014033534 -0.052192003 -0.00086774305 0.008927423 -0.07057268 0.096021615
0.04846489 0.03513674 -0.07998162 -0.0026664443 -0.04528937 -0.04630776 0.011921271 0.02829612
0.03441867 -0.0007707754 0.073457025 -0.082552895 -0.034334734 -0.05533864 0.05105372 -0.00949179
0.033729102 -0.008820927 -0.028155547 0.059221707 -0.10982553 -0.029994521 -0.035077207 0.007356603
0.019212727 -0.001046135 -0.0031224806 -0.039556127 -0.04905444 0.032060243 0.04769779 -0.02516285
-0.08754876 0.085017264 0.047964558 0.020094924 0.0010066051 -0.0017641382 0.03237076 -0.08378774
-0.08439799 -0.08151595 -0.12494607 0.0759707 -0.061335474 -0.0013673303 0.04763223 -0.06810854
-0.007499782 -0.067904174 0.024235195 -0.006113836 0.07270733 0.06116042 -0.033838414 -0.06967827
0.10887022 -0.05583355 -0.08121113 0.06438714 -0.009119407 0.010322301 0.035719294 -0.020357968
-0.02467833 0.028422492 0.085639335 -0.02782166 -0.032232154 0.01065495 0.11687953 -0.06742116
-0.061007652 0.06592129 -0.06061985 0.046097893 0.07131772 -0.03200059 -0.04522614 0.023226762
-0.05246636 -0.0070692557 0.01993112 0.00873705 0.07954971 -0.04039412 -0.040319584 -0.0033763866
-0.057238095 -0.05824084 -0.06682218 -0.04499187 -0.03542868 0.013172148 0.042048614 -0.00944041
0.046438713 0.062408406 0.0387844 0.068432495 -0.10866108 -0.06350747 0.048534468 -0.018293217
-0.041893166 -0.06553642 0.0687415 -0.075445294 0.010360825 0.06897534 0.033862893 0.020527717
-0.01300747 0.008778938 -0.026329411 0.073460504 0.0080573 0.03732558 0.017658763 -0.042856913
0.0960405 -0.0038656606 -0.031512614 0.040071808 0.022580674 -0.03906107 -0.06481348 -0.022054367
-0.035005104 0.0052571907 0.034935713 0.03784056 -0.0233847 0.011610225 0.11870222 -0.013594737

bn3.weight f4 [16]
00000000: 81ac 7d3f c57a 6a3f 4e19 7e3f 33ec 763f
00000010: 7bd2 713f 5df5 7c3f 4a9f 653f dfdd 7a3f
00000020: c6ae 6c3f eb14 713f 9869 673f 26e1 693f
00000030: 47f9 763f fff7 783f 78b1 7e3f 3864 7f3f
0.99091345 0.9159358 0.9925736 0.9645416 0.9446179 0.98811895 0.8969618 0.979948
0.92454183 0.94172543 0.903955 0.91359174 0.9647412 0.9725341 0.99489546 0.99762297

bn3.bias f4 [16]
00000000: ab05 cdbd ed67 b7be 0c96 bebd aee4 733e
00000010: aa7e 813e 6f75 b63d 42d6 cf3e b2d4 1a3e
00000020: 2f4a c0be 03f6 c5be 8641 c33e 1667 113f
00000030: 7691 6cbe f575 2bbe 7301 c73d ce66 6e3c
-0.10010847 -0.35821477 -0.09305963 0.23817703 0.2529195 0.089091174 0.40593153 0.151202
-0.37556598 -0.38664255 0.38135928 0.5679792 -0.23102364 -0.16744216 0.09717073 0.014550878

bn3.running_mean f4 [16]
00000000: 13c8 10bd d3d0 fd3b 96f7 16bd 2e86 11bc
00000010: 07f8 12bc 26a5 8a3c 2d4c 843d fb6c 87bc
00000020: 4a08 aa3c 2194 b9bd 3106 87bc 423e c33d
00000030: a21a af3c f6a5 debc 7932 813b 3a6c 05bb
-0.035347056 0.007745841 -0.03685721 -0.008882089 -0.008970267 0.016924452 0.06459842 -0.016531458
0.020755906 -0.090614565 -0.016482444 0.09533359 0.021375004 -0.027178746 0.0039427844 -0.0020358698

bn3.running_var f4 [16]
00000000: 8b5c c83e 73cd 2c3f 7636 cb3e ab22 1e3f
00000010: f047 f63e bb4b 993e dce5 3d3f c5b3 cf3e
00000020: 0a95 663f 52a1 a13f 817c 1f3f 2d1d b03f
00000030: 0622 dd3e 60d5 b33e 222d 8c3e 81ee 5f3e
0.39133105 0.6750099 0.39689988 0.6177165 0.4810176 0.2994059 0.7417886 0.4056684
0.90071166 1.2627356 0.6229935 1.3758904 0.4319002 0.3512373 0.27378184 0.21868326

output.weight f4 [1, 16]
00000000: c2bc f13d ecd0 c83e dcbb cd3d 6414 96be
00000010: 2b39 86be 9575 d4bd 8122 ddbe 9410 39be
00000020: 3168 ef3e 8c44 ed3e dd75 d4be b2e0 38bf
00000030: 3418 853e b7b0 143e 8cbc 18bd 968b 0e3d
0.11803581 0.39221895 0.10045597 -0.29312432 -0.2621549 -0.103739895 -0.43190387 -0.1807273
0.4675918 0.4634136 -0.41496173 -0.7221786 0.25995028 0.14520536 -0.037289187 0.03480109
