models/focal_loss_checkpoints/checkpoint_epoch_310.pth (torch, 100242 bytes, 16 tensors)

hidden1.weight f4 [128, 30]
00000000: 9f30 dd3d a190 24be b9e6 71bd efbb 50bd
00000010: c85c d23d 96d3 c3bd ef0b 893c e26a cb3c
00000020: 4f51 6c3c 264a cfbd 49c5 13be 95a2 4a3e
00000030: e87e cbbd f23b d83c fe74 52bd 526d c33d
00000040: f773 5cbe d49e 493d bd86 263e 245c 753e
00000050: 8ddb a93d 08a9 2d3d 246c eabd 8d5a 143d
00000060: 4337 b63d 8373 843d b83c abbd 4374 163e
00000070: 63a1 d93d 302e abbd b18b 3abe 2740 da39
00000080: ffa1 e43c babe 0a3d 2eaf f2bc cd04 203c
00000090: 0e59 9ebd c766 093b 42dd 15bd 3b03 12be
000000a0: 5c15 8abd aa4e 28be 13bd 2f3e 3498 1a3e
000000b0: e44c 9c3d 1823 22bd 9add eebd 931e 613d
000000c0: a962 ce3d a37c dc3d 9169 35be e28a 06be
000000d0: 6932 d8bd 6874 4e3d 1068 4f3e 2312 24be
000000e0: 1309 ce3d d7f0 7a3c c187 17be e5d6 2fbd
000000f0: 31b2 0b3e 392b d53b a15d 333d 92ea 04be
00000100: 9bb8 983a 938a a33d 41d0 dc3d af67 39bd
00000110: ce7d c93d 49a7 e33d d4bb a33c d66b 06be
00000120: 3918 3abe bc0c e33d c862 0c3e 0842 273e
00000130: 7cbd 2cbe 3917 3dbe 7962 b4bd df72 e9bd
00000140: d47a 0d3d 0105 1dbd 596f 2cbe c583 cbbd
00000150: d0ca d5bd 354b acbd 4b3e 473d 8492 8fbd
00000160: 0d39 c23a 4419 0c3e 314f 59bc be29 303e
00000170: 8da3 a0bd de7a d1bc ca68 aabd 6625 043d
00000180: ffb4 2e3d 1b97 243d 0d7b 15bd cfb3 9dbd
00000190: 20e4 0b3e 4936 30be 80d5 f73c 4deb a63d
000001a0: 2331 6dbd d330 0a3e b9ee c7bd 11df a8bc
000001b0: 5a6d dfbd 132f adbc bf4e 08bd 9e8b 26be
000001c0: b0eb 853d ff4b 28bc cccd 593e 4962 463e
000001d0: 5e15 17be 7eb7 3f3d 43ad 6b3d 310a f3bd
000001e0: d3fc 943d e833 703c db8f 51be f3dc f2bd
000001f0: 6c84 2bbe 3b20 efbd 6085 f73d a971 d2bd
00000200: 77ea 6b3c 9813 343e caf4 fa3d 8d8a b33d
00000210: 4f81 653e 731f 83bd 0fa2 ad3d cd09 01be
00000220: 86db a63d 870a 22bd 174a e4bd e57a 55be
00000230: 74e9 403c 960e 3fba 1a42 9ebd eb5f 2b3d
00000240: ccdc 203e bf48 103e ce23 ed3a 161b 83bd
00000250: 8887 36bb f023 c63c 6f21 95bd 01b8 78bd
00000260: adb7 343e 2a21 e63c 7c22 493e 5c4a 2d3d
00000270: 93fd 523e 499a 7e3c aaa0 11bd 9713 f23c
00000280: dab0 513d afcd b63d 2240 58bd 02aa e03d
00000290: 642b 2abe ba63 8a3d 42f9 b53d 518d cdbd
000002a0: bd72 6dbd 84da ff3d 765d 883d 104a 27bd
000002b0: 22d3 d3bd 6011 b3bb 6729 be3d ea70 c5bd
000002c0: 59ae 4fbd 83c0 0fbe 991e 9ebd 8a62 513d
000002d0: 1fed b9bd fdc1 46bd 7d79 5a3d d883 18be
000002e0: d110 38bd 9721 283e daaf 79bd f96d 033e
000002f0: 7e56 17bc 4b3a 0fbe ac32 42bd 23c4 40be
00000300: 8e91 3c3e 33d1 383e f114 fa3d c368 303d
00000310: b065 f83d 95dd 813d ada1 c93c 914f ef3c
00000320: 4ecd 4d3d aedf a4bc b0f0 10be a603 f73d
00000330: 83f7 043e 2103 e4bd 6912 623d 1d66 b23d
00000340: b529 48bb 361e 9dbd 1f51 5fbc b05d 89bd
00000350: f0ad a03b 63ac 153e b120 48be f5a7 e8bd
00000360: 9df4 443d bcda e9bc 1d08 c4bd 69cd 68bc
00000370: 3567 933d d4b7 42be 3414 81bc f552 223d
00000380: ade4 a13d 2cd7 70bc 2aeb 233e b6a6 0b3e
00000390: 1e6d d3bd 7c27 1f3d 47b9 d13d a94d 76bd
000003a0: b3bf 253e 480b 70bc 0bad 303e 1943 6ebd
000003b0: c26e 2a3e b741 f2bd 7da7 a63d e2c2 9bbd
000003c0: c20d ebbd dd75 ad3d de04 24be cdcd 2b3e
000003d0: fd86 a33d ea12 38bd 8da0 083d 4ae5 093e
000003e0: 454a f23c 9a2d 043d 440c 473e 0ce1 e23d
000003f0: 078e abbc 72c6 dc3c c889 703e 5552 e7bd
0.10800289 -0.16070797 -0.059057925 -0.050960477 0.10271603 -0.09561841 0.016729323 0.02483124
0.014423682 -0.101215646 -0.14430727 0.19788583 -0.09936315 0.026395772 -0.051381104 0.095423356
-0.21528612 0.049223736 0.16262336 0.2396093 0.08293829 0.04239753 -0.114464074 0.03621917
0.08897259 0.064673446 -0.083611906 0.14692788 0.10626485 -0.08358419 -0.1821735 0.00041627997
0.027909277 0.033873297 -0.029624548 0.00976677 -0.077318296 0.00209658 -0.03658796 -0.14259045
-0.06742355 -0.16436258 0.1716197 0.15097123 0.07631853 -0.03958425 -0.11663361 0.0549608
0.10077412 0.1076596 -0.17716052 -0.13138917 -0.1055649 0.050403982 0.2025454 -0.16022544
0.100603245 0.01531621 -0.1479788 -0.04292955 0.13642193 0.0065053967 0.043790463 -0.12980106
0.0011651696 0.07985415 0.10781909 -0.045264896 0.098384485 0.111158915 0.019987024 -0.13127074
-0.18173303 0.11086413 0.13709557 0.16333783 -0.16869158 -0.1846589 -0.08807845 -0.11398863
0.034540966 -0.03833485 -0.16839351 -0.099372424 -0.10439074 -0.08412782 0.04864339 -0.070103675
0.0014818028 0.13681513 -0.01326351 0.17203423 -0.07843695 -0.025571283 -0.08320768 0.03226223
0.04265308 0.040183168 -0.036494303 -0.077003114 0.13661242 -0.17208208 0.030253172 0.08150349
-0.05790819 0.13495187 -0.097623296 -0.020614179 -0.10909529 -0.02114061 -0.033278223 -0.16264197
0.065390944 -0.010272025 0.21269912 0.1937343 -0.14754245 0.04680585 0.057538282 -0.11867178
0.07274785 0.014660813 -0.20465033 -0.11858549 -0.16749734 -0.11676069 0.12085986 -0.10275585
0.0143991625 0.175856 0.12253721 0.08766661 0.22412609 -0.06402483 0.08478176 -0.12601395
0.081473395 -0.03956082 -0.11146944 -0.20847662 0.01177441 -0.0007288245 -0.077274516 0.04183952
0.15709227 0.1409025 0.0018092336 -0.064016506 -0.002785178 0.024187058 -0.072817676 -0.060722355
0.17648192 0.028091986 0.19642061 0.042307243 0.20604543 0.015539714 -0.03555361 0.029550357
0.05119405 0.0892595 -0.052795537 0.109699264 -0.16618115 0.067573026 0.08885433 -0.100367196
-0.05797075 0.124928504 0.06658451 -0.040842116 -0.10343005 -0.0054647177 0.092852406 -0.09640677
-0.05070338 -0.14038281 -0.0772068 0.051119365 -0.090784304 -0.048524845 0.053338517 -0.14894044
-0.044937912 0.16419064 -0.06095872 0.1283492 -0.00923693 -0.13987081 -0.047411606 -0.1882482
0.184149 0.18048553 0.122110255 0.04306866 0.1212877 0.063410915 0.024613226 0.029212745
0.050244622 -0.02012619 -0.14154315 0.12061243 0.12985043 -0.11133409 0.05519334 0.08710883
-0.0030542437 -0.07671778 -0.013630181 -0.067073226 0.0049035475 0.14616542 -0.19543721 -0.1136016
0.048084844 -0.028546683 -0.0957186 -0.01420913 0.071974196 -0.19015437 -0.015756704 0.039629895
0.079049446 -0.0146997385 0.16007677 0.13637814 -0.10323547 0.038856015 0.10240417 -0.060132656
0.16186409 -0.014651127 0.1725351 -0.058169458 0.16643813 -0.1182894 0.081374146 -0.0760553
-0.114772335 0.08469746 -0.16017482 0.16777726 0.07984731 -0.044939913 0.03335624 0.13466373
0.02957643 0.03227005 0.19438273 0.110780805 -0.020941747 0.026950095 0.2349006 -0.112950005

bn1.weight f4 [128]
00000000: 70ac 813f ce99 7f3f 79e7 803f eb7a 803f
00000010: e1c0 7f3f 2d5f 863f c285 833f b116 803f
00000020: 46d5 823f a404 813f 33ef 803f fc6b 803f
00000030: 3205 813f 42d9 7f3f 4705 803f e8b2 813f
00000040: 5b00 813f 1426 813f b9b1 823f 5f65 813f
00000050: eae5 823f 35f5 7f3f 207f 813f 189e 823f
00000060: fd7f 823f b72c 823f 3d19 7f3f 3c47 833f
00000070: 038b 813f f16e 803f a845 813f b8b1 813f
00000080: 5021 823f 8ebb 843f 0d7b 813f ea2f 833f
00000090: 6930 823f 1892 823f f4cd 813f 8d74 833f
000000a0: 8502 813f ccf9 7f3f 99fb 803f 15a0 873f
000000b0: a9ce 813f 1011 803f 3754 7c3f f6d4 823f
000000c0: 06e1 803f 956f 7c3f 80fb 7e3f fb69 823f
000000d0: b105 823f f86a 803f d021 853f d704 833f
000000e0: 1e6b 803f 6482 813f 8348 803f f084 823f
000000f0: 8a8c 803f 0e6c 803f 34be 813f 0c6c 843f
00000100: 61b4 833f dd2a 823f e100 823f 1a21 843f
00000110: ceda 823f ba99 823f cd5f 843f 2cb1 823f
00000120: ab33 803f 37e6 803f b0b8 7e3f 92f7 843f
00000130: 5135 853f 4f83 823f 3199 813f 11c2 7e3f
00000140: a5e9 803f ca70 833f 0004 823f 0e4a 813f
00000150: c4fb 7f3f bde4 833f 07a9 7d3f 688e 813f
00000160: 6020 813f 4101 823f d654 833f 511e 7b3f
00000170: ac64 803f d7b6 803f 922b 7f3f 813c 813f
00000180: e611 833f 9f1e 823f 9ffd 813f 88ba 843f
00000190: b8ea 893f 3225 7f3f 2004 7b3f 7284 7f3f
000001a0: b985 853f d456 873f bd4d 813f 7ef7 7f3f
000001b0: 9a59 813f 39e4 7c3f f871 803f 8662 823f
000001c0: a2a4 823f fd20 823f a87d 813f 84ad 813f
000001d0: 6781 823f 21d0 803f dd24 843f 6c7f 7f3f
000001e0: 7d62 813f c929 853f cf47 7b3f bf4a 803f
000001f0: 71df 833f 3c4d 823f f298 7f3f a174 823f
1.0130749 0.9984406 1.007064 1.0037512 0.99903685 1.0497795 1.0275195 1.0006925
1.0221336 1.0079541 1.0072998 1.0032954 1.007971 0.99940884 1.000161 1.0132723
1.0078233 1.0089746 1.0210487 1.0109061 1.0226414 0.9998353 1.011692 1.0204496
1.0195309 1.0169896 0.99647886 1.0256114 1.0120548 1.0033857 1.0099382 1.013236
1.0166416 1.0369737 1.0115677 1.0248997 1.0171024 1.0200834 1.0140977 1.0269943
1.0078894 0.99990535 1.0076782 1.0595728 1.0141193 1.0005207 0.98566 1.022124
1.0068672 0.9860776 0.9960251 1.0188593 1.0157987 1.0032644 1.0400944 1.0235852
1.003269 1.0117917 1.0022129 1.0196819 1.0042889 1.0032976 1.013617 1.0345473
1.0289422 1.0169331 1.0156518 1.0322602 1.0223024 1.0203164 1.0341736 1.0210319
1.0015768 1.0070256 0.9950056 1.0388052 1.0406896 1.0196322 1.0124875 0.9951487
1.0071303 1.0268795 1.0157471 1.0100725 0.9999354 1.030418 0.9908604 1.0121584
1.0088005 1.0156633 1.0260265 0.98093134 1.0030723 1.0055798 0.9967586 1.0096589
1.0239837 1.0165595 1.0155524 1.0369425 1.0774755 0.9966613 0.9805317 0.9981147
1.0431434 1.0573373 1.0101849 0.9998702 1.0105469 0.9878574 1.003478 1.0186317
1.0206492 1.0166317 1.0116472 1.0131078 1.019574 1.0063516 1.032375 0.99803805
1.0108181 1.0403377 0.98156446 1.0022811 1.0302564 1.017982 0.9984275 1.0191842

bn1.bias f4 [128]
00000000: e5a6 95bd dafe 5f3d 5d2e 34bb a7f0 1c3d
00000010: d8a8 a33d b395 80bd 20bf 353d 9167 373d
00000020: 3108 293d f3a8 b63d 4967 59bd a6a4 4fbb
00000030: 4091 3f3d cf1c a73c d5c0 f6bd 11c8 07bd
00000040: aa7d 33bc f80a 91bc 8ccc 823d f5fb 923c
00000050: 4433 7bbd 2a39 053d 3c5e 32bb 9205 1b3d
00000060: 6ab3 33bd d01a 133d 9596 b43b c77f 99bd
00000070: 7ec6 013d 60a3 533b 5dd7 783d b7aa 8ebc
00000080: 2679 ad3d fdde 2ebe d8f3 863c d774 bc3b
00000090: 6723 eabc e236 85bc 99ad 99bc 5031 0d3e
000000a0: 93a8 b8bd e67c 80bd c937 c93d 9fd4 2b3d
000000b0: 60ec 813d ca3d a53c 9612 83bd 57e9 b63b
000000c0: c38a fe3c 7ce6 0abd 6323 053d 8e9c a9bc
000000d0: 37f2 b43c da4b b33d 12fa d0bd b54a b6bc
000000e0: 0ece 0fbd bd1a c0bc d7a1 253c eea9 d33d
000000f0: 8ed3 25bd 9518 213d d4d6 1a3d c351 403d
00000100: 7b92 063c cbb6 f03b bce9 cd3c 4da3 83bd
00000110: 5729 133c 8a40 48bd 186a 173d 87c2 3d3d
00000120: 15a7 063e 9a2f 68bd 8c50 8cbd 8c22 613d
00000130: e50c fb3d 4c19 6f3d aabe 81bd 4b24 71bc
00000140: 9141 e03d 6ae7 383d 6ebe 043d a611 0b3d
00000150: 3666 cfbd 3408 09bd 3266 f03d c73b dbbd
00000160: d305 6f3d df45 d63b d651 02bd ab28 81bd
00000170: 8a8b 8c3d 5d60 e1bc 08da 3e3d c332 863d
00000180: 6a47 db3c b673 6b3c 2984 8ebc 1240 9a3d
00000190: 22a0 013d c074 c93c b1d4 54bd 75d1 febc
000001a0: 095b 59bd fc28 763d 07d9 d43a 2087 0bbd
000001b0: c708 a63c bd8e 64bd fa60 ce3d 5069 8f3d
000001c0: ca92 163d f72e 9cbc 2f24 b1bc 2e26 583d
000001d0: dcb3 523d 1227 313c 8d6e 343d 71de 82bb
000001e0: 0f18 513b 6b3f 803d c66a fdbd 2296 61bc
000001f0: ee9b 4f3d 9300 b0bc 7fed adbd 8706 3f3d
-0.07307223 0.054686405 -0.0027493455 0.03831544 0.07991189 -0.06278553 0.044371724 0.044776503
0.041267578 0.08918943 -0.053077016 -0.0031683831 0.04676938 0.02039948 -0.120484985 -0.033149783
-0.010955254 -0.017705426 0.063866705 0.017942408 -0.061328188 0.03252522 -0.0027216813 0.03784711
-0.043872274 0.035914242 0.005511115 -0.07495075 0.031683438 0.0032293424 0.06075226 -0.017415388
0.08470373 -0.17077251 0.016473696 0.005751233 -0.028581334 -0.016261522 -0.018759536 0.13788342
-0.09016528 -0.062738225 0.09825093 0.04195082 0.06343913 0.020171065 -0.06400029 0.0055820155
0.031072026 -0.033911213 0.03250445 -0.020704534 0.022088153 0.08754702 -0.10203947 -0.02225242
-0.03510862 -0.02345025 0.010109386 0.10335146 -0.040484957 0.039330084 0.037802532 0.046952974
0.008213635 0.0073460094 0.025135867 -0.064276315 0.008982024 -0.048889674 0.036966413 0.046328094
0.13149674 -0.05668602 -0.068513006 0.054964587 0.12258319 0.058373734 -0.063351944 -0.014718126
0.10950006 0.04514257 0.03240817 0.033952378 -0.10126917 -0.03345509 0.11738242 -0.10704761
0.058355164 0.006539091 -0.031816326 -0.06306585 0.068625525 -0.02751177 0.04659465 0.06552651
0.026767451 0.014370849 -0.017397003 0.07531752 0.031646855 0.024591804 -0.05196065 -0.031105736
-0.053065334 0.06009768 0.0016238996 -0.034064412 0.020267857 -0.05580019 0.100770906 0.07002509
0.036761083 -0.019065363 -0.021623699 0.052770786 0.05144106 0.010812538 0.044050742 -0.0039938022
0.003190521 0.06262096 -0.12373881 -0.013768705 0.050685816 -0.021484649 -0.084925644 0.046637084

bn1.running_mean f4 [128]
00000000: de21 39bd d53b 13be 38d3 613e e552 18be
00000010: 4e49 6a3d be91 d63d 627a ffbd 3b18 85bd
00000020: b868 ca3d ba4b 813e 7ac0 f4bc 179d 373e
00000030: e4a9 89bd 01ca 5d3d 9e3e 673b 9287 8fbd
00000040: 39e8 6f3e c471 efbb 1098 b63d e840 ce3b
00000050: ef3f 06be 7847 1abe ef46 2abe 8f7d 7c3d
00000060: dabb 3fbd 886e e1bd a24d c93c 0b96 b23d
00000070: 9797 c8bd 24d9 473d 720b 06bd 8df4 313e
00000080: c876 c1b9 c951 f03c 61b0 393d b80d 74bc
00000090: 6af9 7f3e 7046 4c3e d309 863d 9111 22be
000000a0: 8568 03be f61e 14be ed6a eabd 5e7b 9bbc
000000b0: 9cbc 2e3e 5158 233e 52c0 adbb 2eab 4b3d
000000c0: 2363 4ebd 535c 3a3e 73f1 fb3d 1001 f23b
000000d0: fbf7 b03d dc2d 163c 6c9f 183e b49c 4bbd
000000e0: 810e 1b3e 2497 d0bc d90c 87bd 8a5c 093e
000000f0: 26bd e13c 22a0 7c3d 4aa8 8ebe 728e b93d
00000100: 86de e3bd 1735 983d ec24 133e bedd 71bb
00000110: 8330 283e af36 d6bd ec01 ce3c 4e49 09bd
00000120: 0c9c 15bc 5c8c dabd 8170 a93d ee8a 433e
00000130: 3388 fdbd a17c 503d 6c9d 3bbe 22ab 863e
00000140: f8e5 803d e22c 063c 60f9 fb3d b4ad dcbc
00000150: 8010 8dbd d3d5 88bd 2207 b6bd 5e1f 813e
00000160: 9271 16be 4163 283d 5a85 db3d c69b 5b3e
00000170: f06d 16be 200f a33c 5938 75bd d7bf f1bd
00000180: 0075 e43c 741f 733d 1f0b 96bd 00ba e9bd
00000190: 64bf 8d3b 4b01 3abe 9135 223e c299 793d
000001a0: 2d32 2e3e 2e99 c0bd f8ab f0bc 9f67 e83d
000001b0: 6826 ddbb 19d5 da3d 93cf 843d d18f 09bd
000001c0: e2d7 edbd 937f b93c 2199 9e3d e30b a1bd
000001d0: 0e29 d33d 0cbe de3d 7698 db3d dc8d 25be
000001e0: a149 c53d a7a9 f0bd fb8a fb3d 9936 e23d
000001f0: fcf3 8ebd 7648 e7bd 7a88 d5bd 28e9 04be
-0.045198314 -0.14378293 0.2205323 -0.14875372 0.057198815 0.10477017 -0.124745145 -0.06498762
0.09883255 0.25253087 -0.029876936 0.17931019 -0.06721857 0.054147724 0.0035285125 -0.0700828
0.2342843 -0.007307263 0.08915722 0.0062943585 -0.13110326 -0.15066326 -0.16628622 0.06164318
-0.04681001 -0.1100741 0.024573151 0.08720025 -0.097945385 0.048791066 -0.03272576 0.17378445
-0.00036900328 0.029335873 0.045334224 -0.014895849 0.24997488 0.19948745 0.065448426 -0.15827014
-0.1283284 -0.14464936 -0.11446176 -0.018979724 0.17064136 0.15951659 -0.0053024674 0.049723797
-0.050387513 0.18199281 0.12301912 0.0073853806 0.086410485 0.009166207 0.14904565 -0.04970999
0.15142252 -0.025462694 -0.06594247 0.13414207 0.027556013 0.061676152 -0.2786277 0.090603724
-0.11126427 0.07432001 0.14369553 -0.003690585 0.16424756 -0.10459649 0.0251474 -0.033517174
-0.009131443 -0.10671303 0.082734115 0.19095966 -0.123794936 0.050900105 -0.1832177 0.2630244
0.06293863 0.008189412 0.12303424 -0.026938297 -0.06887913 -0.06681409 -0.08888079 0.25219244
-0.14691761 0.04111028 0.10718794 0.21446142 -0.14690375 0.019904673 -0.05986819 -0.11804169
0.027887821 0.059356168 -0.0732634 -0.1141243 0.004325794 -0.18164556 0.15840746 0.06093765
0.17011328 -0.09404217 -0.029378876 0.11347889 -0.006748963 0.106851764 0.06484904 -0.03358442
-0.11613442 0.02264384 0.07744051 -0.07863595 0.10310565 0.10876092 0.10722439 -0.16167396
0.09633184 -0.117511086 0.12282368 0.1104557 -0.0698013 -0.11293118 -0.104264215 -0.12979567

bn1.running_var f4 [128]
00000000: b2b9 d13e 625c 1d3f e8fb 123f 70d8 f23e
00000010: ef0c c83e 4daf da3e 7a0b c93e 305e d33e
00000020: 5322 323f 61a4 873f e5f1 1f3f eddf 233f
00000030: d130 d13e ea2e 383f 1c1f b63e 0a3e 923e
00000040: 2eb6 503f 7f09 f83e 941c 443f 9ee3 083f
00000050: 2d08 f53e 4769 363f 0c27 263f 1e28 d83e
00000060: 590a d53e a299 c33e 98c8 043f 788d ce3e
00000070: a6a6 f43e 1d0e ef3e b11d b43e 08d3 353f
00000080: 803b 233f 1fa2 aa3e a46c 333f 8bbb 8d3e
00000090: 1516 633f d6c4 4f3f b062 f33e dbb0 0f3f
000000a0: d8d2 2c3f 05cd f13e b53e 1c3f 5429 843e
000000b0: b793 143f efbc 2f3f 2ff1 ae3e 2636 b03e
000000c0: daab 0a3f 93ff 563f 2f61 4b3f d805 963e
000000d0: 4d02 1c3f c8df 0f3f 7623 dd3e 020a d03e
000000e0: bd88 523f b965 9a3e 6bfc 2c3f 6424 2a3f
000000f0: 984a a93e e033 223f b383 e33e 6c31 693f
00000100: f070 f23e fadf 203f 12f8 4f3f 85a1 0a3f
00000110: c515 013f 5d6f ea3e 0015 b53e 09a4 cf3e
00000120: cf70 033f 23f0 2d3f 5cbf 073f 5dea 643f
00000130: 248f ce3e 6e9e e63e 5c97 333f e174 ae3f
00000140: 92f3 cf3e 9069 df3e 6baf 0c3f 9ca8 a93e
00000150: 7e20 203f a517 cc3e c6e8 063f a78d 0c3f
00000160: bb60 f03e ab73 a93e 1dfa c53e ed63 433f
00000170: a6d0 1f3f 58a7 f43e 7a78 fb3e ebce 323f
00000180: 681c 653e e472 0e3f 0f77 163f b33a f33e
00000190: 371e ba3e 71dd 333f b445 073f 6731 e23e
000001a0: db46 0b3f 6a47 b23e 6384 353f 30c9 923f
000001b0: d4e9 ea3e ea5a 913f 6031 393f f230 093f
000001c0: 8a02 ad3e 0a56 f03e 3ea3 ec3e 4916 df3e
000001d0: a17c 123f e356 9f3e ffef 6b3f 1b49 583f
000001e0: 6d27 4d3f 5395 e03e 40b2 323f 408c 203f
000001f0: 83ce f53e d018 2f3f 8041 253f 83ad 043f
0.40961987 0.6146909 0.5741563 0.47430754 0.39072368 0.4271187 0.39266568 0.41282797
0.69583625 1.059704 0.62478477 0.6401356 0.40857556 0.71946585 0.3557061 0.28562957
0.81527984 0.48444745 0.76606107 0.53472316 0.478578 0.7125439 0.6490333 0.42218107
0.41609457 0.3820315 0.5186858 0.40342307 0.47783393 0.46690455 0.35178903 0.71025133
0.63762665 0.33326814 0.7008765 0.27682146 0.8870557 0.8115972 0.4753623 0.56129235
0.6750922 0.4722673 0.61033183 0.2581278 0.58037895 0.68647665 0.34168383 0.34416312
0.54168475 0.83983725 0.79445165 0.29301333 0.6094101 0.5620084 0.43191117 0.40632635
0.82239896 0.30155733 0.6757266 0.6646178 0.33064723 0.63360405 0.44436416 0.91091037
0.4735179 0.6284176 0.812379 0.5415271 0.5042384 0.45788088 0.35367584 0.40554836
0.5134401 0.67944545 0.53026366 0.8942011 0.40343583 0.45042747 0.7015283 1.3629419
0.40615517 0.43635225 0.54955167 0.3313645 0.6254958 0.3986179 0.52698934 0.54903644
0.469488 0.3309606 0.38667384 0.7632435 0.6242775 0.47783923 0.49115354 0.6984698
0.22374117 0.5564406 0.5877542 0.4750572 0.36351177 0.7025977 0.52840734 0.44178316
0.5440499 0.3482011 0.7090513 1.1467648 0.45881522 1.135587 0.72340965 0.5359031
0.33791 0.46940643 0.46218294 0.4357169 0.5722142 0.31120977 0.9216308 0.8448655
0.80138284 0.43863925 0.6980324 0.62714005 0.48009118 0.68397236 0.6455307 0.5182726

hidden2.weight f4 [128, 128]
00000000: b166 963d 5221 8339 26e2 88bd 9f9c d53c
00000010: 9ba7 333d ddd9 8cbc 57b8 aa3c f021 e03c
00000020: 541b d63c 0f04 bdbc 0095 6fbd d4ee 7d3d
00000030: 2964 9a3c e94a ac3d 49d8 80bd 20d3 eebc
00000040: 2c1b 85ba bed8 8c3c a136 c4bc a39d 0dbd
00000050: 4d02 abbc b414 83bd 2333 953b 1645 9bbd
00000060: 1e6e 02bd 329c 123c 5169 80bd b448 e53c
00000070: bbaa aa3d dc94 0dbc f9bd 9d3c 849a c1bd
00000080: 0cb5 2e3c 8422 bd3c 1e0b 94bc 1a37 efbb
00000090: 2050 bbbd ca36 f23c e91f 0dbd 5dee e73a
000000a0: 4f48 453d f641 843d eadf a23b 4318 b43d
000000b0: 96a8 8d3c e30c e1bb c366 713d b0f7 b73d
000000c0: e85c a03d e87c 6dbd 3ef4 20bd 4054 223d
000000d0: 435b 3cbd 6259 5ebc 8bc9 2c3d ddf6 403c
000000e0: 4c19 3e39 aab5 0e3d 6b96 e23c 9ee6 b2bd
000000f0: a0f4 793d 6db2 c93c b417 693d 79f9 073b
00000100: 091b ef3a 60ac 753c ed04 3ebc 7016 993d
00000110: 4da5 9abd 88e2 3bbd 45a1 90bd 4b51 7439
00000120: 960e 68bd ffac 8c3d a614 20bd 582f 843d
00000130: 5931 d13d 4d0e 63bd c77b 50bd 19a1 1bbd
00000140: 4d38 27bd e84d 853d 0dec 693d f703 e9bb
00000150: 36fe 91bd 7146 203d 4a66 ac3d 367e d73b
00000160: ae2b 61bc fa91 65bd 908b abbd 60f7 203d
00000170: 4734 553d 68aa 833d 226e b83d cf5f 053c
00000180: 32d0 4bbb 213a 9c3c 24b1 b5bc a2bc a9bc
00000190: 1291 e1b9 1b0a 9c3c 7f81 8ebd 0f3f 9abd
000001a0: 4c23 e3bd 98df 9ebb 5ec8 7d3c b504 823d
000001b0: 9d3c 52bd 9b49 96bc 3faa 433d d73a 173d
000001c0: e501 2cbd b60e 95bd a70f 93bd e141 cfbb
000001d0: 2e8f 1f3c 3ff4 6c3d 7997 e43c 9d26 763d
000001e0: 87c5 0ebd 75e9 333c d904 0fbd a574 ab3d
000001f0: 7b77 d3bb e140 563d 6caf 443d c75d 023c
00000200: d46f f03c 2752 7bbc c5c1 a43c 418a 8f3d
00000210: 325e 64bc ef86 a23d c282 58bd b8d4 60bc
00000220: e3b2 513c a112 273c c61a e23d 3cf5 b6bd
00000230: d4c3 5ebd 0a97 21bc 567d 043d 94c0 09bd
00000240: 5eee abbb b693 7abd fecf b1bd 82dc dcbc
00000250: c654 393c 19a1 a73d 265e 09bd 7341 b7bd
00000260: 0288 f33c 3817 a33d d021 c43b 0a86 9f3d
00000270: cda8 1e3d 6d91 fabb f655 7cbd 5eda b33c
00000280: ded0 873d 4b70 68bd 03df 7f3d fd02 bf3b
00000290: 057c 20bd 650b a73c 74c6 a8bc da18 56bd
000002a0: 3ec4 443d 4870 9c3d fc6c 72bc 11aa 6bbd
000002b0: 6b7c 50bd 2671 7dbd 794e 92bd f146 2bbd
000002c0: 53ec 53bd a671 b5bc 7491 473d ce77 67bd
000002d0: 2906 8b3c 8c02 d2bb ac77 84bd 4553 5dbd
000002e0: 8239 36bd 0ae0 9b3c c55d 723d d874 7cbd
000002f0: 83ff aeba ce8b babd 2c3b ce3d 5229 2a3d
00000300: 39cf 0a3d 718d 8dbd 994a 783c 70b4 a73d
00000310: 9d77 bdbc e0a1 ff3c bb59 1d3c d96b 36bc
00000320: 9fa7 00bd a349 8a3c 14aa 273d 4ef5 12bc
00000330: bbcd 01bd 1bbd c8bd 8f16 18bd 483d 2dbd
00000340: 9c54 75bd f81b a6bd b3ea 48bd 1057 07bd
00000350: 5e62 0c3d 451d 253d bbcb 89bd c90e 603d
00000360: 1da1 56bc cc60 a73d 994b 343d 2a5c 093d
00000370: 2e13 853d feda 98bc 02ba 933b 0bbb 92bd
00000380: 2e04 74bd dc09 de3b 64f5 453d 532e a43c
00000390: 0e20 a4bd 5856 54bd 3ec0 e9bc 752e 2b3c
000003a0: ce9c 783c 4b69 213d 6792 a9bd ba6a 4f3d
000003b0: 8e6a c4bd 24ff 27bd 66ee ff3c 0ef8 8abd
000003c0: 1b95 6abd 54f2 c53d 6060 6cbd 4e77 353c
000003d0: dc8c acbd 923b cfbd 6f41 21bd abe4 ad3d
000003e0: c91e 70bd 8126 5c3d ee11 40bc 4282 513c
000003f0: 98ab 553d 3957 ef3c a9a6 9c3d 8a33 ea3c
0.073438056 0.00025011093 -0.066837594 0.02607566 0.043861013 -0.017193729 0.020839853 0.027359933
0.026136078 -0.023073224 -0.058491707 0.061995342 0.018846588 0.084127255 -0.06291253 -0.029153407
-0.0010155193 0.017193194 -0.02395183 -0.034574162 -0.02087512 -0.06400433 0.004553215 -0.075815365
-0.031843297 0.008948373 -0.062700875 0.02798877 0.083333455 -0.008641448 0.019255625 -0.094533
0.010663282 0.023087747 -0.018071707 -0.00730027 -0.09146142 0.029567141 -0.03445426 0.0017694939
0.048164662 0.064578936 0.0049705403 0.0879369 0.017292302 -0.0068679913 0.05893589 0.089827895
0.078302205 -0.057980448 -0.039295428 0.03963113 -0.04598547 -0.013571115 0.042184394 0.011777607
0.00018129236 0.034841217 0.027659616 -0.08735393 0.06102431 0.024621213 0.05690737 0.0020748063
0.001824231 0.014994711 -0.011597854 0.07474983 -0.0755106 -0.045870334 -0.0706201 0.00023299937
-0.056654535 0.06868934 -0.039082192 0.064543426 0.102144904 -0.05543356 -0.050899293 -0.03799543
-0.040825177 0.06509 0.05710988 -0.0071110683 -0.07128565 0.03912968 0.084179476 0.006576325
-0.013743324 -0.056047417 -0.08376229 0.039298415 0.05205181 0.06428987 0.09005381 0.008140518
-0.0031099436 0.019070687 -0.022179194 -0.02071983 -0.0004302343 0.019047787 -0.06958293 -0.07531559
-0.11090717 -0.004848432 0.015489666 0.06348554 -0.051327337 -0.018345645 0.04776978 0.03692135
-0.041993994 -0.072781965 -0.0718072 -0.006324992 0.009738727 0.05785012 0.027904259 0.06009542
-0.034856346 0.010980953 -0.034916732 0.083718576 -0.006453452 0.052307967 0.048018858 0.007956929
0.029350199 -0.015339411 0.020111928 0.07008792 -0.013938474 0.07935893 -0.052859075 -0.013722591
0.012798998 0.010197313 0.11040263 -0.089334935 -0.054385975 -0.009862671 0.032346092 -0.033630922
-0.0052469214 -0.061176024 -0.086822495 -0.026960615 0.0113117155 0.08185024 -0.033537053 -0.0894803
0.02972794 0.07963413 0.005985476 0.07789238 0.0387352 -0.0076467306 -0.061605416 0.021954712
0.06631635 -0.056747716 0.06246854 0.0058292137 -0.039180774 0.020391176 -0.020602442 -0.052269794
0.048038714 0.076386034 -0.014796492 -0.057535235 -0.050899904 -0.061875485 -0.07143874 -0.041815702
-0.05173905 -0.022148918 0.0487227 -0.05651074 0.01697071 -0.006408995 -0.06468138 -0.05403449
-0.044488437 0.019027729 0.059171457 -0.06163487 -0.0013351295 -0.09108697 0.1006988 0.041543312
0.03388903 -0.069117434 0.015154504 0.081887126 -0.023128325 0.031205118 0.009603913 -0.011134111
-0.031409856 0.016880816 0.040933684 -0.008969618 -0.03169034 -0.09801694 -0.03713089 -0.04229477
-0.059895143 -0.08110803 -0.04905195 -0.033042014 0.034273498 0.040311117 -0.06728312 0.0547016
-0.013099936 0.081727594 0.044017408 0.03353516 0.06497799 -0.018659111 0.004508258 -0.07164582
-0.0595743 0.0067760777 0.048329726 0.02004162 -0.080139264 -0.051840156 -0.028534051 0.010448088
0.015174104 0.039407056 -0.08279877 0.05063889 -0.09590636 -0.041014805 0.031241607 -0.06785594
-0.057271104 0.09665361 -0.057709098 0.011075808 -0.08425304 -0.10118784 -0.039369043 0.084908806
-0.05862311 0.053747658 -0.011723025 0.012787404 0.052165598 0.029216396 0.076489754 0.028589029

bn2.weight f4 [128]
00000000: 0c22 803f fda9 7e3f 6b2d 7f3f 24ff 7b3f
00000010: 49d4 7e3f ef14 7f3f 996e 7e3f 092d 7c3f
00000020: f291 7f3f 1784 7d3f 7af5 7f3f 5b9f 7e3f
00000030: 5f6a 7f3f 990a 7f3f 6271 7e3f a65f 7e3f
00000040: 9c09 7e3f 9f5c 7d3f cde5 7e3f 1036 7e3f
00000050: 59a4 7f3f 4d07 7e3f 5923 7e3f 8ccf 7f3f
00000060: 0bbc 7c3f 437a 803f af94 7e3f 4b10 803f
00000070: 9788 7e3f c7cf 7f3f 6a7a 7f3f 88c7 7d3f
00000080: a1d4 7e3f a4e2 7b3f 4f6d 7b3f a463 7e3f
00000090: 66cf 7e3f 8294 7f3f b240 7d3f 31dc 7d3f
000000a0: fb96 7f3f 20db 7d3f a867 7e3f 10ba 7e3f
000000b0: cd44 7d3f 9075 7f3f 5803 803f 3816 7c3f
000000c0: c4ed 7e3f af6d 803f e494 7e3f 05bb 7d3f
000000d0: c6a1 7f3f 0faa 7f3f b3b0 7c3f 12d9 7b3f
000000e0: e6a9 7e3f 1a6f 7a3f 8e69 7d3f 0978 7d3f
000000f0: 0ec8 7e3f 0bd8 7f3f a246 7e3f 054c 7d3f
00000100: c530 803f 7233 803f d4ca 7e3f 35c1 7e3f
00000110: 51f0 7f3f cf2d 7d3f 19d8 7f3f 223c 803f
00000120: d618 803f 4ae4 7d3f d679 7e3f f9a3 7e3f
00000130: de34 803f 5bb7 7d3f 7c8c 7c3f aa2c 7c3f
00000140: 1825 7c3f 662c 7d3f 6719 7f3f 2383 7f3f
00000150: fee0 7d3f 9096 7f3f 8032 7e3f 6d6a 7d3f
00000160: fabe 7c3f 3f3a 7d3f 31e2 7e3f 99df 7e3f
00000170: a20b 7f3f 7b81 7d3f 1fca 7d3f da39 7d3f
00000180: f914 803f ae64 7d3f 2436 7e3f 48a7 803f
00000190: 2f14 7d3f 7b17 7c3f 1fb9 7c3f 2d48 7f3f
000001a0: 0ab1 7f3f 2ac8 7f3f de30 7f3f 4f40 803f
000001b0: 5a0e 7f3f 5da4 7e3f e60c 803f a7ba 7c3f
000001c0: 8497 7f3f 599e 803f 4c8f 7f3f 5bfb 7d3f
000001d0: c905 803f 21b4 7e3f 222e 7d3f 579c 803f
000001e0: 8c65 7d3f 821a 7f3f 543d 7f3f 98fa 793f
000001f0: 6b67 803f 99c4 803f 5226 803f 3e34 7b3f
1.001039 0.9947813 0.9967868 0.9843619 0.9954267 0.9964132 0.9938751 0.9850622
0.9983207 0.9902968 0.9998394 0.9946191 0.99771684 0.99625546 0.9939176 0.993647
0.9923341 0.98969454 0.995694 0.9930124 0.9986015 0.9922989 0.99272686 0.99926066
0.9872443 1.0037311 0.99445623 1.0004972 0.9942717 0.9992642 0.99796164 0.99132586
0.99543196 0.983927 0.98213667 0.9937079 0.99535215 0.9983598 0.9892684 0.9916411
0.9983975 0.99162483 0.99376917 0.9950266 0.98933107 0.9978876 1.000102 0.98471403
0.9958155 1.0033473 0.9944594 0.99113494 0.9985622 0.99868864 0.9870712 0.983781
0.99477994 0.9782578 0.9898919 0.99011284 0.9952401 0.9993903 0.9932653 0.9894412
1.0014883 1.00157 0.9952824 0.9951356 0.9997607 0.98898023 0.99939114 1.0018351
1.0007579 0.99176466 0.99404657 0.9946895 1.0016134 0.99107903 0.9865186 0.9850565
0.984941 0.9889587 0.99648136 0.99809474 0.99171436 0.99839115 0.99295807 0.9899052
0.9872891 0.98917 0.9956389 0.9955993 0.99627125 0.99025697 0.9913654 0.989164
1.00064 0.9898175 0.9930136 1.005105 0.9885892 0.9847333 0.9871997 0.99719507
0.99879515 0.999148 0.9968394 1.0019625 0.99631274 0.9946955 1.0003936 0.9872231
0.9984057 1.0048324 0.9982803 0.99211663 1.0001765 0.99493605 0.9889852 1.0047711
0.98983073 0.9964982 0.99702954 0.97648 1.0031561 1.0059997 1.0011694 0.9812659

bn2.bias f4 [128]
00000000: ea6b 253b 7481 42bd 420c bfbc 1690 7c3d
00000010: 5b89 a53c 9af9 323d 95b9 a6bc ee02 2abd
00000020: d62d bebc 75bc 273d d14b 643c 905e 2c3d
00000030: 6d20 ed3c fb5a 583d ccb4 fb3c 8e79 b0bc
00000040: bddc 2abd 1a24 283d fdad cebc f370 66bd
00000050: 1e21 983c c864 a1bc 6c01 c0bc 25c3 cebc
00000060: a314 0e3d 7a5a e4bc 3f0d 60bd 1c1f efbc
00000070: a572 c4bc 2446 84bc 58e3 b03c 6a4c 42bd
00000080: 649c 003d 26cc 203d 5bce 403d cac6 c4bc
00000090: c470 3e3d a621 8fbc 301d 803d 83c4 203d
000000a0: 835c c43c 25dc 19bd 4dab aa3c feef 8dbc
000000b0: 02a1 083d b14b b03c 647b 0fbc d50d 003d
000000c0: ed58 09bd a74c 05bd cb9d 853c 8a0b fabc
000000d0: 1583 823b 9494 e8bc d785 0fbd c22d 5ebd
000000e0: 5ed6 073d 9795 313d 3a14 7d3d 1821 1e3d
000000f0: e411 97bc 1aac 31bd f80a 1bbd a38b 4e3d
00000100: c2b0 63bd f135 1ebd 4ae1 afbc c83e e9bc
00000110: fb09 7bbd d17e 0fbd c512 05bd 16a7 abbc
00000120: 32ad b6bc 9088 ab3c 4917 2abc d3ff 223d
00000130: 613b 89bc 2d74 84bd 8910 5a3d e41c 4dbd
00000140: 7162 4fbd d8b6 1e3d 9115 bebc 5a19 ecbc
00000150: 75ef 32bd 2c72 7db9 49ce e1bc bf4e 4b3d
00000160: 4626 34bd afb0 47bd 41a5 d13c 95c7 29bd
00000170: 90a9 c23c 7d6f 563d e5f4 d73c 5919 393d
00000180: e246 70bc 8f5b cb3c 53c4 0b3d 0284 cb3c
00000190: 4f4b 033d ca8f 64bd fac0 39bd 2340 a2bc
000001a0: 60fd 113c 9b3c 413c b263 a4bc b76d e63c
000001b0: fc1f f4bc 4285 bc3c 2650 533b d528 0fbd
000001c0: 69e9 893b 0318 30bd 56fa bebc f50b 193d
000001d0: 3146 f63c c1ab 243d ede0 d33c e268 edbc
000001e0: 3fad 68bd 5b2c 10bd 0164 0b3d 1634 71bd
000001f0: 9f5a e33c 06ff 083d 875e 63bc 3c6d 96bd
0.0025241324 -0.047486737 -0.023321275 0.06166085 0.020207098 0.04369507 -0.020352164 -0.0415067
-0.023215216 0.04095121 0.013934092 0.04208237 0.028946126 0.05282114 0.03072586 -0.021542337
-0.04171442 0.041050054 -0.025229448 -0.05626006 0.018570479 -0.019701377 -0.023438178 -0.025239537
0.03468765 -0.027875174 -0.054700132 -0.029189639 -0.023980448 -0.016146727 0.021592781 -0.047436155
0.031399146 0.03925719 0.047071796 -0.024020571 0.04649426 -0.0174721 0.06255567 0.03924991
0.023969894 -0.03756346 0.020833636 -0.017326351 0.033356674 0.021520467 -0.008757446 0.03126319
-0.03353207 -0.032543804 0.016310593 -0.03052308 0.0039829114 -0.02839116 -0.03503975 -0.054242857
0.03316342 0.04335555 0.061786868 0.03860578 -0.018441148 -0.04337702 -0.037852257 0.050426137
-0.05558849 -0.03862566 -0.02146973 -0.02847232 -0.061288815 -0.03503305 -0.032488603 -0.020953696
-0.022299383 0.020939142 -0.010381528 0.039794754 -0.016751947 -0.06467471 0.053238425 -0.05007638
-0.05063099 0.038748592 -0.023203643 -0.028820682 -0.043685395 -0.00024170493 -0.027564185 0.049635645
-0.043981813 -0.048752483 0.025591495 -0.041450102 0.023762494 0.052352417 0.026361892 0.04519019
-0.014665337 0.024823932 0.034122776 0.02484322 0.03205424 -0.05580119 -0.045350052 -0.019805973
0.008910507 0.011794235 -0.02006707 0.028128488 -0.029800408 0.023012761 0.0032243817 -0.03495105
0.004208733 -0.04299165 -0.023312729 0.03736492 0.030062767 0.04020286 0.025864089 -0.028980676
-0.056805845 -0.03519855 0.034030918 -0.058887564 0.027753172 0.033446334 -0.013877518 -0.073450536

bn2.running_mean f4 [128]
00000000: 9aa5 a33d 584e 63bd 9814 d1bd f27d ed3d
00000010: 4803 d43c 488c c73d fd86 bfbd 5f86 89bd
00000020: a4ae 21bd dd21 463d 7d6e b03c a391 f73d
00000030: 9882 b13c e9f8 d43d 57a5 c83d 94f0 72bd
00000040: b6d8 50bd 43ee 903d 5938 81bd 54f7 8dbd
00000050: bd29 473d 154a 9abc 8060 bbbd 0e2e 89bd
00000060: d2fb 723d 7d17 74bd e0c4 a8bd 54f9 27bd
00000070: d09c d0bd f40b 41bd 5262 823d c20f e5bd
00000080: 39f1 9b3d 7f18 1b3d b1dd 263d 5dec 7abc
00000090: 89d0 fe3d 5fa4 e03b 8522 1b3e aea5 153d
000000a0: c32b b13d 7bf3 6cbd a6a5 a33d e5f0 c0bd
000000b0: 10b7 ab3d 234a 043e 170f b1bd d4f7 833d
000000c0: 4687 573c f385 babd d0c1 b53d 7707 e5bc
000000d0: 0793 1c3d 0297 02be 50b4 3ebd f8b8 d6bc
000000e0: 73ff 063c 1d21 9e3d 9947 8e3c b6f3 e93d
000000f0: ea93 4fbc d227 99bc 5327 87bd 5f63 b13d
00000100: 980c 06be e3d3 b5bd e940 cebd 5ded 84bc
00000110: 4cb1 23bd 3e93 86bd 6da9 a2bd f2b1 d8bd
00000120: 1251 c6bc 5d60 e63c a3df 93bd fe65 1a3e
00000130: e41c 5e3b b3cf e1bd 9d1f 1c3d 75ea 37bd
00000140: c020 01be cda4 783d 26cb a9bd 3dbf bebd
00000150: e9de aebd 7e38 dabc 5841 16bd c084 1abb
00000160: f31a bdbd d145 06bd 2306 653d 4062 96bd
00000170: c383 8c3d 6d76 043e aa8e e93c 72be f23d
00000180: ee25 fabd 6ad7 683d c364 1c3d c506 8a3b
00000190: acb3 b53d 87be c0bd 50a6 09bd 73cf 88bd
000001a0: 370a f03d c868 153d 2430 75bd 7797 8d3d
000001b0: da6c 2dbd 26b8 d93d bcdc c33a 51a8 29bd
000001c0: 9df9 163c ecd2 acbd 25be 9fba 8853 d83d
000001d0: 3b4f a63d d2e6 a43d 3c33 ac3d 29a9 6fbd
000001e0: dfa4 53bd 19ce 19bd 8834 c53c 5734 8cbd
000001f0: 8f26 c23d 46b5 943d 1db4 99bd cf8a dabd
0.0799057 -0.055494636 -0.10209006 0.11596288 0.02588047 0.097435534 -0.09351919 -0.067150824
-0.03947319 0.04837214 0.02153706 0.12088325 0.021668717 0.10399038 0.09797161 -0.059311464
-0.05098792 0.07076695 -0.063095756 -0.0693194 0.04862379 -0.018834153 -0.09149265 -0.06698237
0.059322186 -0.059592713 -0.08240676 -0.041009262 -0.101861596 -0.04713054 0.06366409 -0.11184646
0.07614369 0.03786516 0.040738765 -0.015315142 0.12442119 0.006855532 0.15149887 0.036534958
0.08650925 -0.05784939 0.07990579 -0.09420947 0.08384526 0.12918906 -0.08645456 0.06443754
0.01315481 -0.0910758 0.088748574 -0.027957661 0.038226154 -0.12752917 -0.04655868 -0.026211247
0.008239615 0.077211596 0.017368125 0.11423437 -0.012669543 -0.018695746 -0.065992974 0.08661532
-0.13090742 -0.08878305 -0.100709744 -0.016226465 -0.039964005 -0.06571053 -0.07942472 -0.105808154
-0.02420858 0.028122121 -0.0722039 0.1507797 0.0033891732 -0.110259436 0.038116086 -0.04490133
-0.1261015 0.06070404 -0.082907006 -0.093138196 -0.085386105 -0.026638266 -0.03668341 -0.002357766
-0.09233656 -0.032781426 0.055914056 -0.073429585 0.06861069 0.12935801 0.02851041 0.11852731
-0.12214266 0.05684606 0.03818203 0.004212233 0.0887216 -0.0941134 -0.033605874 -0.06680193
0.11720698 0.03647688 -0.059860364 0.06913655 -0.042340137 0.10630827 0.0014943103 -0.041420285
0.009214786 -0.08438668 -0.0012187405 0.10562807 0.08120581 0.08051838 0.0840821 -0.058510933
-0.051670905 -0.037550066 0.0240729 -0.068459205 0.09480011 0.07261138 -0.07505057 -0.10671007

bn2.running_var f4 [128]
00000000: cee3 913e 54b0 c33e 2884 ac3e 1718 ac3e
00000010: 0b57 853e deb7 e13e 346e 4c3e 08e6 a93e
00000020: 1aef 933e d01d 9b3e 60fe 4a3e 063f 953e
00000030: 5cfb 403e 33ba cd3e 94ec 913e 2c82 8d3e
00000040: f5a7 603e 77c7 ae3e 34a7 9d3e 2a55 e63e
00000050: 3116 793e ea6f 423e a01a 713e 410d b13e
00000060: 4a9f 8d3e f472 b63e 3abd c83e 4cdf a63e
00000070: 916a b83e 45de 8b3e aca2 803e 7243 dd3e
00000080: 3be6 dd3e 222a 9b3e 972b ad3e c0f7 af3e
00000090: 298f 053f 68d5 633e 1be6 be3e 07e3 d73e
000000a0: c44f 7c3e d294 923e 2cdf aa3e 3403 8e3e
000000b0: f938 993e 7742 cd3e 7b2d ad3e 8916 833e
000000c0: dacb c63e 4abe c93e 4717 b73e f6e6 863e
000000d0: a69f 803e e87a b93e 5720 913e b500 993e
000000e0: 4e1c c93e 0b80 873e fb5f a13e 413b 9a3e
000000f0: 786a 8c3e 9310 cb3e d42e 993e e0ae 943e
00000100: dc8e e83e e3d6 d93e b285 823e 50f9 ac3e
00000110: aba2 de3e 2c02 803e 5865 ad3e 30de b23e
00000120: 6c9f 893e 8bf7 903e 67f9 743e 265c 033f
00000130: 8449 a43e 5290 063f f0cf 883e 35e7 ad3e
00000140: 9973 013f 8941 863e 571a 9b3e 72d6 9e3e
00000150: f0b5 a33e 4883 833e 0a53 a83e 337b a33e
00000160: b64d b23e 098c d73e 1294 8d3e 8524 a23e
00000170: fb9f ab3e fa0f f63e 5e02 8d3e 71e9 e83e
00000180: 9744 ad3e 044c b03e be3f b13e 9151 b63e
00000190: f64b 793e c703 dd3e 92e3 a73e d2b1 a93e
000001a0: 2423 cd3e b843 493e 4f11 5a3e 9fb8 b53e
000001b0: 10c9 c83e f5a9 b93e d8d6 413e a45e 873e
000001c0: 0b4c 6f3e 0d40 a53e 58ae 883e c752 9e3e
000001d0: da78 af3e 0930 833e 0524 9e3e ee4e 923e
000001e0: 822e c03e b17e 993e 9d6f a83e cc7a d13e
000001f0: 45d4 bf3e 0dfc af3e 1f71 ad3e 38ec de3e
0.28494114 0.38220465 0.33694577 0.3361213 0.2604297 0.44085592 0.19963914 0.33183312
0.28893358 0.30296183 0.19823599 0.29149646 0.18845886 0.4018112 0.28500807 0.27638376
0.2193907 0.34136555 0.30791628 0.4498685 0.24324872 0.18988004 0.23545313 0.34580424
0.2766059 0.35634577 0.39206868 0.32592237 0.36018804 0.27318016 0.2512411 0.4321552
0.43339714 0.30305582 0.3382232 0.34368706 0.5217157 0.22249377 0.37284932 0.42165396
0.24639803 0.28629166 0.33373392 0.2773682 0.2992628 0.4008977 0.3382376 0.2560313
0.388274 0.39402992 0.35759947 0.26348084 0.25121802 0.36226583 0.28344986 0.29883352
0.39279407 0.26464877 0.3151854 0.30123332 0.2742498 0.39661083 0.2991854 0.2903967
0.45421493 0.42546758 0.25492626 0.3378396 0.4348348 0.25001657 0.33866382 0.3493514
0.26879442 0.2831386 0.23923264 0.5131248 0.32087338 0.52563965 0.26721144 0.3396546
0.50567013 0.26221874 0.30293533 0.31022984 0.31974745 0.25686097 0.32875854 0.3192993
0.34824914 0.42099026 0.2765203 0.31668487 0.33520493 0.48059064 0.2754087 0.45490602
0.33841392 0.34432995 0.34618944 0.35609105 0.24345383 0.43166944 0.3279081 0.3314348
0.40065873 0.19654739 0.21295665 0.35492417 0.392159 0.3626248 0.18929613 0.26439393
0.23368852 0.3227543 0.26695514 0.3092253 0.3427189 0.25622585 0.30886856 0.28575844
0.37535483 0.2997947 0.32897654 0.40914 0.37466636 0.34371987 0.33875367 0.43539596

hidden3.weight f4 [16, 128]
00000000: fa83 cebd bac4 b4bd 4ba9 fcbc 446f 2fbd
00000010: 29d8 7b3d 4647 52bd 72d2 00bd 3669 4b3d
00000020: a6d3 99bd 8059 4f3d ef1e b5bd 9d21 83bd
00000030: 7ba1 80bd a3cf f7bc e52d 823d 3e06 ae3c
00000040: a19a 3e3c 7dd5 9d3d 18a8 93bd 1ffc c3bc
00000050: 8169 283d 7e62 ef3c 8088 29bd 95d2 923d
00000060: 3c38 90bd 7c3d 413d b85e 563d 5757 8c3d
00000070: f910 623d 5a79 1ebd 2db2 1abd 70ac 31bd
00000080: 5c08 223c fdff c63c 8a63 ec3c 862d 32bd
00000090: 82cb 26bd 4e2d 353b 03b9 283c 71a0 db3d
000000a0: 8868 273c 9468 35bb cb68 bdbd 00d4 0b3d
000000b0: 7805 d6bb 5a71 f1bc 53d1 8f3d b819 01bd
000000c0: 1db8 fcbc 6f6e d93b da0d 563d 6fa5 af3b
000000d0: df28 333d a365 993d a3d1 5b3c 6b94 843c
000000e0: cd7f 49bd 886e d5bc 9c28 97bd f9c4 813a
000000f0: ea21 1cbd d4c2 eabc 2a57 90bd dc90 b13b
00000100: 43ee 6a3d a93c 6cbd eebb 803d a106 8abd
00000110: 627d 6bbd 8728 853d fb9a 0cbc 51af 7cbd
00000120: 0230 903d 374a 2ebc b5cb 54bd 4ffe 213d
00000130: eda2 d6bd 1ed5 603a 3afc b6bc 96f9 c5bb
00000140: 1e57 5a3d 15b7 40bd de76 393d 8f15 123c
00000150: ba7c 71bd 0038 843d 2382 95bd 7279 7d3b
00000160: 0510 5d3d 0404 54bd fc21 a3bd 2ab7 143d
00000170: 89e1 cbbb 8639 c83c 4c81 c93c 7212 afbd
00000180: 08b4 b13d a4d1 62bc 7dcf 4ebd 62e7 83bd
00000190: ae31 5abd 9a7b 7fbd 6c30 8dbd 4c59 703d
000001a0: f920 cf3c dc40 f83c dac3 53ba 83fb 303d
000001b0: 932b 25bd 9029 a8bd d95e 84bc b35d 53bc
000001c0: 7264 2fbd 5b2e 0cbd 2a7e 873b a20e 53bd
000001d0: 1e7b 14bc 9d28 273c aeb9 99bd baad d93d
000001e0: 7714 eb3c 5200 333c a2e3 98bd 3ee5 e6bb
000001f0: b5c1 41bd 9628 08bd cb6f 243c 67ba f13c
00000200: 5703 b93c 869f a8bb 566d a43d dd22 afbd
00000210: 9683 26bb f064 bcbd 8b5b 163d 9c86 1e3c
00000220: e600 8f39 dd7e 83bc 5553 65bc 87c8 0f3d
00000230: dd85 9fbd 6906 26bd 1859 6fbd 88c8 8a3c
00000240: a41b 243d 2ef2 02bd a901 be3c 62ac a0bb
00000250: be50 a5bd 01fe a53c 1cce 903d e6db 50bd
00000260: 06d5 1bbd 050d ee3d e9cc 6e3d 7a17 2e3d
00000270: b8ea 39bc ccf0 073d 224c cf3c bfe3 a2bd
00000280: e9fb abbd b5d5 bdbd 4a83 e8bd d849 973d
00000290: 055a 7dbd fedf 0b3c 3045 1c3d b61c 9fbd
000002a0: ef3b 8e3b 8295 89bd d51d 5a3d 062f d5b8
000002b0: 23d2 a93d c035 b53c d0f3 dbbb cf27 85bd
000002c0: 3f63 a43d a6d6 33bd 63d5 87bd 305b 903d
000002d0: 57c0 e4bc f6dc deba 9b20 9e3c c930 38bd
000002e0: 03ef f4bc c2e3 c93c b7ac e93d 3e95 3b3c
000002f0: f031 63bc dd2a 80bc a73a f83d 0dfd b4bd
00000300: d7e1 6dbd e772 a43d 1b36 8abd 4f94 683d
00000310: dd11 073e 1425 21bc 3250 ddbc 43e2 a43c
00000320: 4dd0 90bd 516a 25bd ba7b 9f3c e7d3 613c
00000330: 27d2 8e3d fcd5 d9bc 9c9f 50bd ab39 2abd
00000340: 9bcc 36bd 5b06 16bc 78cf 77bd d322 ebbc
00000350: fb25 93bc 0ad5 803c 6ce2 8f3d f61c 02bd
00000360: 0b12 c63c 25ff 8e3c b1dd c8bc c718 bc3d
00000370: f72b cfbd d438 81bd 24ca ab3d 2e8f c8bc
00000380: 02aa b5bc edca 92bd a4c8 a33d d24a 64bd
00000390: e247 8dbb 1e54 9c3d dc16 d43d 4404 563c
000003a0: 38ff 41bc fac0 023d 1afe f9bc 221a 423d
000003b0: 2346 55bc 6f24 883c 32eb fabc 9a3e bebd
000003c0: de71 093e 1f60 29bc 6036 8ebd 1942 233d
000003d0: 8753 f53c aec9 e4bc 7549 b7bd bf90 e53c
000003e0: 6ef0 1cbc 77b8 333c 61fd 553d 6b40 693d
000003f0: ca00 bcbc 4d11 e6bc 27f1 de3d 934e 1dba
-0.10083766 -0.08826585 -0.030842444 -0.04283072 0.061485443 -0.051337503 -0.031450696 0.049660884
-0.07511072 0.050622463 -0.08843791 -0.064028956 -0.062808 -0.030250376 0.0635641 0.02124321
0.011633546 0.07706735 -0.07209796 -0.023923932 0.04111624 0.02922177 -0.041389942 0.071690716
-0.07041976 0.047177777 0.052336425 0.06852596 0.055191968 -0.03868995 -0.037767578 -0.04337734
0.009889688 0.024291987 0.028856058 -0.043500446 -0.040721424 0.0027645412 0.0102980165 0.10723961
0.010217793 -0.0027680742 -0.09248503 0.034137726 -0.0065314136 -0.029472996 0.07022347 -0.031518668
-0.03084951 0.006635479 0.052259304 0.0053602974 0.04374015 0.07490089 0.0134166805 0.016184052
-0.049194146 -0.026053682 -0.073807925 0.0009900621 -0.03811828 -0.028657354 -0.07047875 0.00541888
0.05735613 -0.057675038 0.06285845 -0.067395456 -0.05749262 0.065018706 -0.008581872 -0.061690632
0.07040407 -0.010637811 -0.051952083 0.03954917 -0.104802944 0.0008576679 -0.022337068 -0.006041716
0.053305738 -0.0470496 0.045279376 0.008916273 -0.05895684 0.06455994 -0.07300212 0.0038677123
0.053970356 -0.051761642 -0.079654664 0.03630749 -0.0062219542 0.024441492 0.024597786 -0.0854844
0.08676916 -0.0138439275 -0.050490845 -0.06440617 -0.053270034 -0.062373735 -0.06894001 0.05867891
0.025284277 0.030304365 -0.00080781954 0.04320861 -0.04032476 -0.082110524 -0.016158508 -0.012900758
-0.0428204 -0.034223896 0.004134913 -0.051527627 -0.009062557 0.010202554 -0.07506119 0.10628839
0.028696282 0.010925369 -0.074652925 -0.0070463708 -0.047303874 -0.03324183 0.010036419 0.029507829
0.0225846 -0.00514597 0.08028667 -0.085515715 -0.0025408021 -0.0919894 0.036708396 0.009675648
0.00027275755 -0.016051704 -0.013996919 0.035103347 -0.07789204 -0.040533457 -0.058434576 0.016941324
0.040065423 -0.03196924 0.023194151 -0.004903362 -0.08072041 0.02026272 0.07070562 -0.05099096
-0.03804495 0.11623577 0.058300886 0.042502858 -0.011347465 0.033188626 0.025304858 -0.07953595
-0.083976574 -0.09269277 -0.113531664 0.073871315 -0.061853427 0.008537291 0.03815192 -0.07769148
0.0043406407 -0.067179695 0.053251106 -0.0001016539 0.082920335 0.022120357 -0.0067124143 -0.065017335
0.08026742 -0.043905877 -0.06632497 0.07048643 -0.027923746 -0.0017003107 0.019302657 -0.0449684
-0.029899126 0.024644736 0.11409896 0.011449156 -0.0138668865 -0.015645439 0.12120562 -0.08837328
-0.058076706 0.080297284 -0.06748601 0.056782063 0.13190408 -0.0098355 -0.02701578 0.020127421
-0.0707098 -0.040384594 0.019468177 0.013783432 0.06973677 -0.026591294 -0.050933465 -0.041558903
-0.04462872 -0.009156789 -0.060500592 -0.028703129 -0.017962446 0.015726585 0.070256084 -0.0317659
0.024178525 0.017455647 -0.024519773 0.091844134 -0.101158075 -0.06309667 0.08388165 -0.024482336
-0.022175793 -0.07167611 0.079972535 -0.055735417 -0.0043115476 0.076332316 0.103559226 0.01306254
-0.011840634 0.031922318 -0.030516673 0.047388203 -0.01301721 0.016618935 -0.030629728 -0.09289284
0.13422343 -0.010337858 -0.06943965 0.039857958 0.029947056 -0.0279282 -0.08949558 0.028023122
-0.009578807 0.010969273 0.052243594 0.0569462 -0.022949595 -0.028084422 0.1088584 -0.0006000783

bn3.weight f4 [16]
00000000: 4a88 7d3f bf5a 713f daa3 7c3f 9c16 883f
00000010: 5a79 6e3f 1039 803f 36be 6e3f f2fb 7c3f
00000020: 3dd3 823f ee3d 863f 03f7 6c3f 2425 873f
00000030: b8fe 773f e2dc 7f3f 104e 7e3f 06ea 7e3f
0.99036086 0.9427909 0.9868752 1.06319 0.9315392 1.0017414 0.9325899 0.9882194
1.0220715 1.048765 0.9256441 1.055821 0.96873045 0.99946415 0.99337864 0.9957584

bn3.bias f4 [16]
00000000: 9813 e3bd 335d c9be 618e dfbd 214c 5c3e
00000010: ae08 903e 68b3 a63d 0531 ed3e 0527 1e3e
00000020: b3cb e2be 923c c4be 9a4d e23e bafa 133f
00000030: 4d2b 85be dc94 19be 1284 c93d dc40 673c
-0.110877216 -0.39328918 -0.109158285 0.21513416 0.28131622 0.08139688 0.4632646 0.15444572
-0.44296035 -0.3832746 0.4419983 0.57804453 -0.26009598 -0.14998192 0.098396435 0.014114585

bn3.running_mean f4 [16]
00000000: bca0 5ebd 6d52 ddbc f249 19bd 435f f73c
00000010: ff0e 4e3c a6d5 f43c d768 e83d 67d6 273c
00000020: 7867 60b9 9c62 20be 6447 b6ba 5bc8 393e
00000030: 121e 6ebb 897d 47bd bcb1 3f3c 4776 c13b
-0.054352507 -0.027016843 -0.037424035 0.030196792 0.012576818 0.029887032 0.113481216 0.010243989
-0.0002140085 -0.15662616 -0.0013906774 0.18142836 -0.0036333841 -0.048703704 0.01170009 0.0059039923

bn3.running_var f4 [16]
00000000: b567 2f3f e21b a43f 094a 1c3f eee2 cd3f
00000010: 1572 743f ef99 123f 60fb c33f 41fb 533f
00000020: 62f7 e43f 88a3 2c40 d567 903f 09dc 3a40
00000030: b002 3d3f 56a7 523f f1f2 993e 7d20 743e
0.6851762 1.2821009 0.6105047 1.6084878 0.95486575 0.57266134 1.5311089 0.8280526
1.7887995 2.6974812 1.1281687 2.9196799 0.73832226 0.82286584 0.30068162 0.23840518

output.weight f4 [1, 16]
00000000: ca56 993d 095d eb3e 1a25 a43d 9720 01bf
00000010: 8d90 9cbe 753e 11be e14c f5be 681f 3bbe
00000020: 090a 193f d7d0 073f 0e65 0abf 5393 4abf
00000030: 6715 983e 1a21 5a3e a7e9 783c 834c 8b3c
0.07487257 0.45969418 0.08014889 -0.50440353 -0.30579033 -0.14183982 -0.47910216 -0.182737
0.5978094 0.5305304 -0.5406045 -0.7913105 0.2970383 0.2130169 0.015192426 0.017004257
