models/focal_loss_checkpoints/checkpoint_epoch_170.pth (torch, 100242 bytes, 16 tensors)

hidden1.weight f4 [128, 30]
00000000: 8b57 d73d dd80 24be 2f51 56bd e729 20bd
00000010: c83d dc3d 1178 c0bd 9513 af3b 97ad 403c
00000020: ee94 b4bc 3690 cfbd cb56 11be a64c 413e
00000030: 5ef4 edbd f8bd 103d 7d41 0fbd 53ae 8d3d
00000040: 4ae1 49be a2ad 613d 6dd1 243e 9b43 5f3e
00000050: 80e4 dd3d 3818 473b 674b f2bd 5cdc 993d
00000060: ac44 c93d 298e 6d3d ef64 7fbd a5fb 393e
00000070: 419a da3d 5bd3 e3bd 1aad 33be 370f 4cbb
00000080: b81c ae3c efa6 ca3c 9a58 0abd d5db 973c
00000090: be51 9dbd 6021 733a 8cb7 27bd d3e6 0ebe
000000a0: 848b abbd 7d5a 20be 2779 2d3e 6e1d 113e
000000b0: 3bb7 733d 61ba 05bd 4dc3 fbbd fd06 8b3d
000000c0: 68bb c83d 63ea 003e 7c7e 40be 32c1 04be
000000d0: d62e bcbd 4b1d 993d 19a2 413e d19e 22be
000000e0: 12ed e43d f469 a53c f253 1bbe 35e6 24bd
000000f0: a6d3 053e 3c20 d73b 4a11 4a3d a987 00be
00000100: ded0 d6bb c800 963d b089 f13d afce 2bbd
00000110: f1d4 e33d b84c e83d 04fd a13c aa24 fdbd
00000120: ebe7 37be e123 e73d 3eed 093e 329f 2c3e
00000130: b852 30be ef14 38be 0e3c b8bd d4e9 f2bd
00000140: fd22 b13c 34e4 1fbd f37e 30be 7edd d6bd
00000150: 46ee cabd 7819 a7bd d691 323d 7218 93bd
00000160: bf47 b1bb 5399 033e da92 90b8 b0f8 2b3e
00000170: 3176 a6bd b649 dfbc a8aa b4bd 648c 633d
00000180: 849e 163d c623 083d 3c2f 5cbd dbea b8bd
00000190: 6f1d 133e 4cc7 36be 8211 ca3c 444a cc3d
000001a0: 776b 12bd 1c65 eb3d 2ffa 93bd 05ca 28bd
000001b0: fbe4 00be ea56 b4bc 3dea 10bd 793c 2dbe
000001c0: c4ee 863d bc4d 4fbd 4b7a 473e dd84 3d3e
000001d0: 2dd1 13be a908 0b3d f585 913d ecc2 e7bd
000001e0: a119 b43d 9ae3 ad3c 2ea8 4bbe 408c debd
000001f0: 13f6 2dbe c672 d3bd 9dda 0d3e ea82 44bd
00000200: c0cf 923d 933c 3b3e 8a6b 113e c9f6 ec3d
00000210: 500d 613e e631 10bd 048a 963d 9a72 1ebe
00000220: 538a 553d b1ea 82bd 7296 cfbd eb55 33be
00000230: 7cdb 53bc 6678 0e3d efaf 81bd ce71 4e3d
00000240: fd4e 273e c3fb ec3d ffbf efbc 6076 babd
00000250: 699f 28bc 1aea 0c3d fde8 aebd 1fa3 86bd
00000260: e55e 293e 2929 803c a2fd 423e 53bf 113d
00000270: 6a2f 5e3e bb2e 68bb 3c06 29bd f512 153d
00000280: 945e 353d feea c73d a939 83bd 548f d03d
00000290: b235 25be c418 c63d c3aa a53d 8f2d c7bd
000002a0: e1d3 83bd 70c8 cd3d 1db3 8a3d 56a1 29bd
000002b0: 3af9 acbd 563e 52bc 4536 ca3d 92be 88bd
000002c0: 7ab0 82bd 98d4 14be ab48 aebd 1772 7f3d
000002d0: 6309 edbd 9347 4ebd ab61 393d 24fb f9bd
000002e0: 176e 11bd 21c0 1b3e 5393 66bd 0f9e c13d
000002f0: edba 18bc 86c2 19be ca4a 4bbd fe7e 48be
00000300: e229 373e 19f6 1f3e 5c48 043e 588b 563d
00000310: bd98 0a3e c979 613d 2824 933c d802 563d
00000320: 5c11 213d 8942 07bd 64d3 fdbd 9e64 fa3d
00000330: 1920 093e 721e 97bd 555b 6d3d c76b 053e
00000340: 5b95 3f3c 03d4 f7bd 8286 c4bb 2190 8fbd
00000350: 8466 25bb 8c86 0a3e f245 3fbe d838 8fbd
00000360: de29 0e3d af0b 20bd 616f e1bd 58ef 44bc
00000370: cb5d a93d 9f34 3cbe 60ff 1abd f223 813d
00000380: 24a3 a43d ebaf 84bc 6099 263e 7627 143e
00000390: 1e61 c6bd 9d2e 343d 6f9c b83d bc95 53bd
000003a0: 2d10 213e 2bec 053c cd65 283e c870 acbd
000003b0: b4f4 193e bf31 15be f23e ac3d 83c9 ddbd
000003c0: d0c6 03be b0e5 bc3d 758e 22be 92d3 1d3e
000003d0: bf02 893d dee0 4ebd 9906 023d bb40 163e
000003e0: f9fe 093d a98c d83c 4948 3d3e 2c57 033e
000003f0: 48f2 a1bc 2397 e03c 6e96 613e 7a46 d3bd
0.10514744 -0.16064782 -0.052323516 -0.03910246 0.10753971 -0.09397901 0.0053429105 0.011760137
-0.022043671 -0.10134928 -0.14193265 0.18876895 -0.11618875 0.03533742 -0.034974564 0.06918015
-0.19714847 0.05509723 0.16095515 0.21803133 0.108345985 0.0030379426 -0.11830788 0.07512733
0.09827551 0.057996903 -0.062352117 0.18162401 0.10673953 -0.11124297 -0.17546502 -0.0031136998
0.021253929 0.024737803 -0.033775903 0.018537441 -0.07681607 0.00092746876 -0.04094653 -0.1395524
-0.0837622 -0.15659519 0.16940747 0.14171383 0.059500914 -0.032648448 -0.1229311 0.06788442
0.0980137 0.12589411 -0.1879825 -0.12964323 -0.09188621 0.0747629 0.18909492 -0.15880896
0.1117803 0.020192124 -0.15168741 -0.040258605 0.13069019 0.006565122 0.049332894 -0.1255175
-0.0065556606 0.07324368 0.1179384 -0.041945156 0.111246 0.11342758 0.019773968 -0.12360509
-0.17959563 0.1128614 0.13469407 0.16857603 -0.17219055 -0.17976736 -0.089958295 -0.118610054
0.021623129 -0.03903599 -0.17235927 -0.10491465 -0.09908728 -0.08159155 0.04359611 -0.07182397
-0.005410164 0.12851457 -6.893808e-05 0.16794086 -0.08128012 -0.027256828 -0.088216126 0.05555381
0.036772266 0.03323724 -0.053755984 -0.0902917 0.14366697 -0.17849463 0.024666552 0.099751025
-0.035747018 0.114938945 -0.07225453 -0.041208286 -0.12587349 -0.0220141 -0.035379637 -0.169176
0.0658851 -0.050611243 0.19480245 0.18507715 -0.14435263 0.033943806 0.071056284 -0.11316475
0.08793951 0.021226693 -0.19888374 -0.10866594 -0.16988401 -0.10324626 0.13852926 -0.047976412
0.071685314 0.18284826 0.14201179 0.11570508 0.21977735 -0.035203837 0.07350543 -0.15473405
0.05213387 -0.0639242 -0.10136117 -0.17513244 -0.012930747 0.03478279 -0.06332385 0.0504015
0.16338725 0.11571457 -0.029266356 -0.091046095 -0.010291913 0.034402944 -0.08540533 -0.06574082
0.16540106 0.015644627 0.19042066 0.03558285 0.21697775 -0.0035428244 -0.04126571 0.036395032
0.04427965 0.09761618 -0.06407482 0.10183588 -0.16133764 0.096726924 0.08089211 -0.097254865
-0.06436897 0.10047996 0.067724444 -0.041413628 -0.08445974 -0.012832245 0.09873632 -0.066769734
-0.063813165 -0.14534223 -0.08509954 0.062364664 -0.11574056 -0.050361227 0.04525916 -0.122061044
-0.03550538 0.1521001 -0.056292843 0.094539754 -0.00932191 -0.15015611 -0.04963187 -0.19579694
0.17887071 0.15621223 0.12918228 0.052378982 0.13534828 0.055047784 0.017961577 0.052248806
0.039323196 -0.033022437 -0.12393835 0.122262225 0.1339115 -0.07378854 0.05794843 0.13029395
0.011693324 -0.12100985 -0.00599748 -0.07009912 -0.0025238106 0.13527888 -0.18679026 -0.06993264
0.034707896 -0.039073642 -0.11007572 -0.012019955 0.08269843 -0.18379448 -0.0378412 0.06305684
0.08038929 -0.016197165 0.16269445 0.14468178 -0.096864924 0.043989766 0.09014212 -0.05165647
0.15728827 0.008173983 0.16445084 -0.08419949 0.15034753 -0.14569758 0.08410443 -0.10829451
-0.1286881 0.09223497 -0.15874656 0.15412739 0.06689977 -0.05050742 0.031744573 0.1467313
0.033690426 0.02643426 0.18484606 0.12826222 -0.019768849 0.027415818 0.2203004 -0.10316177

bn1.weight f4 [128]
00000000: e56b 803f 3b25 7f3f 439b 803f 079a 7f3f
00000010: ad15 7d3f 534d 833f a902 813f a0b0 7f3f
00000020: dcc4 813f e378 803f 14a6 803f d96f 7f3f
00000030: b7a3 803f 8f18 803f 5295 7c3f 827b 7f3f
00000040: 3c32 803f 7e3f 803f 26cd 803f d09a 803f
00000050: c476 813f 7fed 7f3f d594 803f e308 813f
00000060: 6621 813f 0f87 813f 169f 7f3f 8e53 813f
00000070: 8434 803f 420e 803f e575 7f3f dce3 803f
00000080: 2590 803f 7831 813f 9553 803f d7d7 813f
00000090: dace 813f c28f 813f 92a1 7f3f 8f04 813f
000000a0: 8fad 7e3f f84e 7d3f 5264 803f e180 833f
000000b0: ba81 803f d508 803f 8ef6 7c3f ebde 803f
000000c0: 1512 803f 5fb9 7c3f 0b54 7f3f 0f0e 813f
000000d0: 69a1 803f 731a 803f b4fa 813f fbd2 813f
000000e0: 3866 803f 9b61 803f 758a 7f3f 7dc9 803f
000000f0: 5877 7f3f 1665 803f d68e 803f 1519 823f
00000100: e02a 823f 98e0 803f 1220 813f 68d6 823f
00000110: 3271 813f ed80 813f a186 813f 601a 813f
00000120: 2bc9 7d3f d6f2 7f3f 20b1 7e3f 07e4 823f
00000130: 689d 823f 4e13 813f 5ebc 803f 2c5e 7f3f
00000140: 9421 7e3f 04f6 803f ba24 813f a21a 803f
00000150: 4553 7d3f d266 813f 8976 7d3f a1d3 7e3f
00000160: cf04 7f3f 5cca 7f3f 3681 813f 9713 7b3f
00000170: a263 7e3f a66a 803f fd13 7e3f 6d6e 7f3f
00000180: c32a 803f cf28 813f d0a0 803f be36 823f
00000190: 2c76 853f 9268 7e3f 218e 7a3f 8257 7f3f
000001a0: 2b91 823f 5cd7 833f 7e1f 803f 041c 7f3f
000001b0: 9d74 803f 4e28 7e3f edae 7e3f ccbc 803f
000001c0: f1a4 813f 8e60 813f 11ea 803f b261 803f
000001d0: 3c37 813f 7e07 803f 4a7f 823f 00b3 7f3f
000001e0: c400 813f f604 833f f4ee 7a3f 374e 803f
000001f0: 8fa8 823f 2cfa 803f 18f0 7e3f c23b 813f
1.0032927 0.99666184 1.0047382 0.998444 0.988612 1.0257972 1.0078937 0.99878883
1.0138202 1.0036892 1.0050683 0.9978004 1.0049962 1.0007495 0.98665345 0.9979783
1.001533 1.0019376 1.0062606 1.0047245 1.0114369 0.99971765 1.004542 1.0080837
1.0088317 1.0119342 0.9985212 1.0103624 1.0016026 1.0004351 0.9978927 1.0069537
1.004399 1.0093222 1.0025507 1.0143994 1.0141251 1.0121996 0.9985591 1.0079516
0.9948358 0.9894862 1.0030615 1.0273706 1.003959 1.0002695 0.9881371 1.0068029
1.0005518 0.98720354 0.99737614 1.0082415 1.0049258 1.0008072 1.0154634 1.0142511
1.0031195 1.0029787 0.99820644 1.0061489 0.9979148 1.0030849 1.004359 1.0163904
1.0169334 1.006854 1.0087912 1.0221682 1.011267 1.011747 1.011921 1.0086174
0.9913508 0.99979913 0.9948902 1.0225838 1.0204287 1.0084016 1.0057485 0.9975307
0.99269986 1.0075078 1.0089333 1.0008128 0.98955184 1.0109503 0.99008995 0.9954167
0.9961671 0.9991815 1.0117557 0.98076767 0.9937078 1.0032547 0.9924925 0.9977787
1.001305 1.0090579 1.0049076 1.0172956 1.0426688 0.9937831 0.9787312 0.997429
1.0200552 1.0300097 1.0009611 0.99652123 1.0035588 0.9928025 0.99485666 1.0057616
1.0128461 1.0107591 1.0071431 1.0029814 1.0094981 1.0002286 1.0195096 0.9988251
1.0078359 1.0235889 0.98020864 1.0023869 1.020769 1.0076346 0.99585104 1.0096362

bn1.bias f4 [128]
00000000: 4aa2 6abd 4693 2c3d a80e 87bb a070 d63c
00000010: c63c 6f3d 41b2 3bbd 5f62 fc3c 382a fb3c
00000020: b95c d33c 232c 863d 69bc e7bc ad9c 81bb
00000030: 3b91 023d 5233 7f3c 8200 b9bd e06b e7bc
00000040: f36c 16bb fe8f 81bc 201f 4d3d 1b0b 483c
00000050: accb 40bd 1f55 fa3c 25a9 f4bb 67b8 bf3c
00000060: c19c 09bd afa2 fc3c 72f3 203c 2fe7 5cbd
00000070: 342d b83c 1fca a33b e6c1 4e3d b5b6 41bc
00000080: 08bd 7e3d 9a8a f7bd 1d8b 663c 86f2 93ba
00000090: f78c 6ebc dba0 82bc 60a6 b4bc 9050 d53d
000000a0: d2b5 a8bd 54f0 53bd eb0d 733d a346 113d
000000b0: 5bc8 2f3d 91c9 733c 89ed 41bd 50d0 0e3c
000000c0: dc85 cb3c 1a15 91bc 62ef d33c ca34 59bc
000000d0: a00b dc3c 8f88 4b3d d34d a4bd 5a06 27bc
000000e0: 180f dfbc 3ca5 8ebc ffdb 473c ea5e 9e3d
000000f0: abde e3bc 041a 0b3d 3371 993c 63b9 e63c
00000100: 3656 843b 9b2d 8f3b c2cc b93c 33a1 1bbd
00000110: db40 343c dc29 b4bc bfa0 0c3d 1fc3 253d
00000120: 0403 ce3d 58a1 3abd 6220 3fbd b2e8 173d
00000130: bcbb b13d aee8 303d 4d10 2bbd cb15 6fbc
00000140: 64c5 a73d d401 ef3c 00a8 cd3c cbd2 f23c
00000150: b34d a1bd 2905 d1bc a072 9b3d 4694 bbbd
00000160: bf35 533d f64d a3ba 696f 2abc 98fb 2fbd
00000170: 9a7e 4e3d 36eb cbbc 28ca df3c 062c 3f3d
00000180: 78ec 323c b293 863b 4a94 8ebc d9f0 763d
00000190: 7fd8 853c 33f8 363c b86d 04bd 9b40 6fbc
000001a0: b11b 09bd a827 5f3d 59e1 90bb f6de eebc
000001b0: 60e5 893c 272b 1ebd 6a94 8c3d 4a92 3d3d
000001c0: 620f df3c 75ff 85bc 0782 10bc 76c6 1a3d
000001d0: c885 d93c 21b7 3d3c b5c3 063d e0f1 8e3a
000001e0: 6e61 87bb 959d 403d e75f bbbd 72f6 15bc
000001f0: 55b4 083d 5fba c5bb 1b3d 7abd a8eb d73c
-0.057283677 0.04213264 -0.00412162 0.02617675 0.058407567 -0.045824293 0.030808626 0.03065978
0.02580105 0.06551387 -0.028288083 -0.003955445 0.031876784 0.015576201 -0.090333 -0.028249681
-0.0022953122 -0.015815731 0.05007851 0.012209679 -0.047069237 0.030558167 -0.0074664527 0.02340336
-0.033596758 0.030839292 0.009823667 -0.05393141 0.022482492 0.00499846 0.050477885 -0.011823346
0.062191993 -0.12086983 0.014071253 -0.0011287488 -0.014559976 -0.015945842 -0.02205199 0.10415757
-0.082378045 -0.051742867 0.059339445 0.035467755 0.042915683 0.0148796 -0.04734567 0.008716658
0.024844103 -0.017710257 0.025870983 -0.013257215 0.026861012 0.04969078 -0.08022656 -0.010194385
-0.027228877 -0.017412774 0.012198447 0.07732947 -0.027816137 0.033960357 0.018730735 0.028164571
0.0040385975 0.0043694503 0.022680644 -0.03799553 0.011001791 -0.021992616 0.034332987 0.040469285
0.10059169 -0.045564026 -0.046661742 0.03708715 0.086783856 0.04319065 -0.041763593 -0.014592598
0.08191946 0.029175676 0.025104523 0.02964153 -0.07876148 -0.025515156 0.07590222 -0.0915914
0.05156493 -0.0012459147 -0.010402539 -0.042964548 0.050413705 -0.02489243 0.027318075 0.046672843
0.010920636 0.004106962 -0.017404694 0.060288284 0.016338585 0.011167574 -0.0323312 -0.0146028055
-0.033473674 0.05448118 -0.004421395 -0.02915905 0.016833007 -0.038615372 0.06864245 0.04628209
0.027229015 -0.016357163 -0.008820063 0.037786923 0.02655305 0.011579306 0.032901485 0.0010905825
-0.0041314876 0.047025282 -0.09149151 -0.009152995 0.033375103 -0.00603418 -0.06109343 0.026357487

bn1.running_mean f4 [128]
00000000: 68cb 7bbd d934 e6bd 46df 3c3e 99b8 00be
00000010: 73d2 5d3d 1462 e63d 42a1 23be 897e 9bbd
00000020: 5d4d a63d 7f1e 533e 9f00 18bc 932d 023e
00000030: ac58 98bd 86db 803d 9962 643c 47a4 6bbd
00000040: 0322 563e cfb6 bdbc 4ec4 cc3d 425a c0bb
00000050: 9e59 03be aa95 12be 08e0 12be 721b 883d
00000060: 6e95 b7bc af4c e3bd 8ad1 afbb 154e f23d
00000070: 496a c5bd 54ce 6e3d a894 52bd d2cc 353e
00000080: 7f96 11bd ddeb 483d 93e7 803d efed 633d
00000090: 0970 353e 1b91 263e 0a79 8b3d 437d 26be
000000a0: 5ad9 b7bd f27d bdbd f761 e7bd f2cb 5cbc
000000b0: 497e 173e 8f4d 1c3e 91bd 213d f6a3 103d
000000c0: 67b2 60bd 95f7 413e bf6b a53d f3ff 0f3d
000000d0: 936a bf3d 7c11 08bd f3bd 213e 6bb2 1fbd
000000e0: e19c 003e d16a b9bc 2e3d 2cbd 5761 d63d
000000f0: 2de6 033d bae8 8c3d 8c1a 7bbe a700 803d
00000100: b3fa b6bd dd47 3e3d 7f37 f53d 2212 5c3c
00000110: faf4 213e 3586 9dbd 45b3 dabb dc49 e0bc
00000120: b20b 32bd 1b30 bfbd edd6 ac3d 1c18 1b3e
00000130: 1295 d2bd 8469 1d3d ddc6 0bbe 3621 583e
00000140: 4620 253d 7cb9 7c3c ff90 ee3d 50ce 1dbd
00000150: 3d6d 31bd ef81 9cbc 3489 babd 2a64 743e
00000160: 8d7d 03be e296 733d f519 ee3d e119 4c3e
00000170: ee0b 17be 7c2e ea3c d186 84bd c296 0bbe
00000180: ce22 2c3c fd9e 063d 6c0f a9bd b386 08be
00000190: cad7 4fba 9a0c 3fbe 2a7d f23d a65c 483d
000001a0: f94e f73d 5d1d d9bd 7ccb 48bd febf be3d
000001b0: b3b6 cabc c87a da3d de17 453d 65a9 35bd
000001c0: 97ef e5bd 622a 1d3c 4a29 863d eeae 46bd
000001d0: dd82 a03d 6733 863d 51c5 bd3d 523a 1bbe
000001e0: df19 a13d 17ec c2bd e62a 023e 6ffa f93d
000001f0: 244c aebd 6cdd b3bd 8ec8 92bd efca d8bd
-0.06147328 -0.11240549 0.18444547 -0.12570418 0.05415578 0.11249176 -0.15979484 -0.07592494
0.081202246 0.20617102 -0.009277492 0.12712698 -0.07438788 0.06291871 0.013939523 -0.057529714
0.20911412 -0.023158459 0.0999838 -0.0058701346 -0.12827155 -0.14314905 -0.14343274 0.0664586
-0.02241012 -0.110986106 -0.005365555 0.11831299 -0.09639413 0.05830224 -0.0514113 0.17753914
-0.035543915 0.04905306 0.06294169 0.055646833 0.1771852 0.16266291 0.06810196 -0.16258721
-0.089770034 -0.09252538 -0.11297982 -0.013476359 0.14794268 0.15263961 0.039487425 0.035312615
-0.054857638 0.18942101 0.080771916 0.0351562 0.09346499 -0.0332198 0.15795116 -0.038988512
0.12559845 -0.022633942 -0.042050533 0.10467785 0.032201935 0.068803266 -0.24521846 0.062501244
-0.08934536 0.046455253 0.11973476 0.013432058 0.15816107 -0.076916136 -0.0066742026 -0.027378969
-0.043468185 -0.09335347 0.08439431 0.15145916 -0.10282339 0.038430706 -0.13650079 0.21106419
0.04031398 0.015425082 0.116487496 -0.038526833 -0.04331707 -0.019104926 -0.09108201 0.23866335
-0.12840863 0.059470065 0.11626045 0.19931747 -0.14750645 0.028586619 -0.06471027 -0.13631728
0.010506345 0.032866467 -0.082548946 -0.13332634 -0.00079285784 -0.18657151 0.118402794 0.04891648
0.1207561 -0.10601304 -0.049022183 0.09313963 -0.02474532 0.1066795 0.048118465 -0.044351
-0.11227339 0.009592624 0.06550844 -0.04850667 0.0783746 0.06552773 0.09266151 -0.15158966
0.07866263 -0.09517687 0.12711677 0.122059695 -0.085106164 -0.08782467 -0.07167159 -0.105855815

bn1.running_var f4 [128]
00000000: 19d7 073f 4560 333f e6cc 0a3f 310d f63e
00000010: ce68 e83e 00e3 023f e1df 0c3f d74b 4b3f
00000020: 06a0 7b3f 62aa a53f d345 4d3f aec2 3e3f
00000030: c6a8 f73e 950e 953f 9f57 f23e 2566 a03e
00000040: 7fd1 523f a980 173f 6c92 673f b697 2a3f
00000050: ada0 0e3f 251a 9b3f 4886 543f f3d3 053f
00000060: aeae f73e a9ce d63e 9bbb 153f 0946 ed3e
00000070: 1446 f63e 8bb6 3e3f eaee f53e 7fe3 6f3f
00000080: 1d6c 6e3f 999b d13e 2345 353f b276 d93e
00000090: a2f8 4c3f 43d7 883f e6a8 ea3e f1cc 2b3f
000000a0: 0f8c 8e3f 0f82 023f aebc 2c3f 115b 973e
000000b0: e018 4a3f 21d4 493f 9001 ef3e 15d2 df3e
000000c0: db00 163f 0fad 683f 4980 773f a561 b53e
000000d0: f793 3d3f 3715 1f3f 2065 eb3e 05d2 0a3f
000000e0: fe55 8a3f ee2f c93e fac3 603f 8942 423f
000000f0: e8a6 d63e 8097 813f b8b9 f23e 0e94 563f
00000100: a028 0e3f a153 113f 0c05 513f 86b2 3d3f
00000110: af33 173f 42c5 043f 9dda fe3e d304 ce3e
00000120: 2c2e 2d3f 35bc 453f 13c5 1c3f 832e 503f
00000130: e1f6 ed3e 2186 103f 8575 453f 8f58 ad3f
00000140: 1f45 fc3e 9c78 c13e e875 193f 0c0b c53e
00000150: 5c58 3c3f 0855 fc3e 1fe3 333f c6b0 343f
00000160: bfb3 013f 88a9 e93e fa0d 123f a9dc 483f
00000170: facc 683f 3e77 053f b0ed 193f 85f0 683f
00000180: 7d51 823e 57c7 4b3f b983 3e3f 9777 243f
00000190: 13b6 e33e 337d 783f 34e4 0a3f 4a8f 113f
000001a0: 548e 0c3f 652c da3e 3aae 3d3f 55c9 8f3f
000001b0: 9442 213f eb25 9a3f 22cd 663f 49f9 2e3f
000001c0: e610 133f 59e7 053f 7174 f13e c9b1 fd3e
000001d0: d6fa 283f 279b c53e b539 673f 795c 593f
000001e0: 27ed 593f 7313 ce3e 2944 613f 0977 203f
000001f0: 78f2 373f 29ac 713f 1d08 9a3f ee08 0e3f
0.5306259 0.7006877 0.542189 0.4805694 0.4539246 0.51127625 0.5502911 0.794126
0.9829105 1.2942622 0.8018467 0.7451581 0.4837095 1.1645075 0.47332475 0.3132793
0.82350916 0.59180695 0.904578 0.6663774 0.5571392 1.2117354 0.83017397 0.52276534
0.48375458 0.41954544 0.5848939 0.46342495 0.4810034 0.7449729 0.4803384 0.93706506
0.9313372 0.40939024 0.7080862 0.4247337 0.80066884 1.0690693 0.45831984 0.6710959
1.1136492 0.50979704 0.674754 0.29561666 0.78944206 0.7883931 0.4668088 0.43714967
0.58595055 0.90889066 0.9668012 0.3542606 0.740539 0.62141746 0.4597559 0.54226714
1.0807493 0.3929438 0.87799037 0.75882775 0.41924214 1.0124359 0.47407317 0.83819664
0.5553074 0.5676823 0.81648326 0.7410053 0.5906324 0.5186349 0.49776164 0.40238056
0.6764858 0.77240306 0.6123821 0.8132097 0.46477416 0.56454664 0.77132446 1.3542651
0.49271485 0.3778733 0.59945536 0.3848499 0.73572326 0.49283624 0.70268434 0.70582235
0.50664896 0.45637155 0.57052577 0.784617 0.9093777 0.52135074 0.6012831 0.90992004
0.25452796 0.79601043 0.7441974 0.6424498 0.4447485 0.9706604 0.5425446 0.56859267
0.54904675 0.42611995 0.74093974 1.1233317 0.62992215 1.2042822 0.9015676 0.6834913
0.5744766 0.52306134 0.4715915 0.49549702 0.66007745 0.38594934 0.9032243 0.8490673
0.8512749 0.40249214 0.8799463 0.62681633 0.7185435 0.9440332 1.2033726 0.55482376

hidden2.weight f4 [128, 128]
00000000: 251e aa3d 6b34 02bc a787 88bd 7e4c 523c
00000010: 23f6 073d e1f4 fcbb 757b 8f3c 80a3 bd3c
00000020: 75d3 063d d2ef e6bc 06ee 57bd 9ea9 883d
00000030: 5094 873c 077a 9e3d c51d 64bd 3e24 bebc
00000040: e437 8a3c bc8f a33c 2556 10bd 53d8 12bd
00000050: 1104 b8bc 958e 89bd 4348 833b 6840 a4bd
00000060: 9710 dcbc da38 d0ba 6a5f 88bd fda4 223d
00000070: 119c 8e3d 5d2a 07ba bea5 9e3c dcc5 bbbd
00000080: 5f14 df3b 5d89 093d a1f3 0cbd 815d 62bc
00000090: 98b2 aebd b9de 233d 453f 04bd d44e f6bb
000000a0: c234 4c3d 192d 963d 7c43 8c37 d340 ac3d
000000b0: a80d 9f3c 3af1 95bb 9be9 8d3d 42e2 b53d
000000c0: 2b4e a43d 78fa 2fbd 3081 45bd 4e76 5a3d
000000d0: 044b 42bd c630 cbbc ade2 3d3d a24f ac3c
000000e0: 17d0 c2bb 7645 153d 5550 e73c 76cf bdbd
000000f0: 55b3 893d ab63 e53c e95b 513d d2fe 95ba
00000100: 547e 9c3b 5789 5a3a 8a08 35bc 3bfd ae3d
00000110: 5eeb 8dbd d535 32bd bab2 92bd 8af0 98bb
00000120: e3c4 8abd 1c9e 8a3d 907b 1bbd 9d2b 8f3d
00000130: 80ca b33d b125 6dbd 12f7 79bd e14a 05bd
00000140: e4c0 40bd c5dd 2b3d e671 763d e9cc 30bc
00000150: d076 93bd 6f63 2c3d 426f ad3d f06a a93c
00000160: 5136 a4bc f771 7dbd c593 8fbd c011 2d3d
00000170: 66c3 423d 7b4d 803d 59e4 b63d a9c3 dbbb
00000180: 0f56 10bc d9ec 963c 3951 d0bc 0d7e ccbc
00000190: 765a 78bc c98e 9a3c 3da0 6bbd c85d a2bd
000001a0: b96e c0bd 31d3 8ebb 045e 953c 476b 843d
000001b0: 26d3 6abd 08a8 3dbc bad9 4b3d 4528 de3c
000001c0: 16d1 2cbd 05ee 8dbd 9a91 85bd 15b2 b4bc
000001d0: 1e26 863c e5ce 7a3d 0dcc 013d 343b 783d
000001e0: d3ab 03bd 5719 083c 3577 d5bc b52a ab3d
000001f0: fc1b f7bb ea9e 513d de7c 3e3d d9bc e8bb
00000200: 1d4d 003d 5945 b0bc 8ea4 c83c 862d 903d
00000210: 8dab 28bc ec01 a03d 6b8b 62bd 53c0 fbbb
00000220: 524f a13c d171 8c3c d670 eb3d 302e a9bd
00000230: 37a3 55bd 7df6 96bc 909b b73c 4ce6 37bd
00000240: 142f 10bc 8a5c 8fbd aef7 a1bd caae c5bc
00000250: b27e 4a3c 4279 a23d 88b4 3cbd 72b6 b6bd
00000260: a816 d43c 2577 ac3d aa58 863c 9f36 9b3d
00000270: baf1 2d3d b712 13bc 50cf 87bd 5701 9b3c
00000280: 7905 9b3d 7fc4 79bd 24d9 963d 3c9e 6a3c
00000290: 1048 14bd 7e9a be3c 4a85 d2bc 676f 67bd
000002a0: 1c06 453d d40f 853d ad68 57bc 21b9 5abd
000002b0: 4b0b 3ebd 9659 6fbd 1c20 97bd 3b2a 38bd
000002c0: 7b5b 58bd 9c81 9cbc ab50 4c3d 06db 80bd
000002d0: c9b0 d03c 070d c0bb d095 6abd eb54 85bd
000002e0: 4168 32bd 97f0 223c fd20 573d 27b9 67bd
000002f0: 7248 86b9 056f bbbd 925a c73d 2011 4a3d
00000300: 79b0 de3c bf88 85bd 6b2c 443c e489 ab3d
00000310: ac08 b3bc abd9 a93c fe52 6f3c 162c 02bc
00000320: 50a7 b4bc 99e5 843c 309f 453d 7170 0cbc
00000330: 0a71 01bd 95b5 c3bd f063 43bd 754c 21bd
00000340: f662 42bd cce5 9cbd a525 51bd 61fc 1dbd
00000350: 7427 f13c 78c6 0b3d 3c99 8fbd af52 623d
00000360: 1261 adbc b3ce 9d3d d4f6 433d 7b5f 093d
00000370: 870d 883d 5446 18bc c683 0c3b 1e30 99bd
00000380: 5a8a 51bd 188b 413c 4e63 383d 7e6c b23c
00000390: e8bf acbd d4c1 6fbd 311a dcbc 1689 2b3c
000003a0: 29b4 983c 7a16 173d 9606 a7bd 1652 543d
000003b0: e324 cabd 733f 0fbd 5bd4 f13c 5bc4 98bd
000003c0: 6e12 55bd d63d bc3d 24fa 84bd 31fe 8c3c
000003d0: 40e3 9cbd 2535 b8bd 9911 0bbd 6ca4 af3d
000003e0: 58ee 67bd 05cc 4c3d 5b68 99bc c38e be3c
000003f0: b2a6 4f3d daa2 e53c 354c 8e3d 0b8e f43c
0.08306531 -0.007947068 -0.06666499 0.01283562 0.03319372 -0.0077196215 0.017514924 0.023149252
0.032916505 -0.028190527 -0.05271723 0.06672977 0.016550213 0.077381186 -0.055692453 -0.023210641
0.016872354 0.019965999 -0.035238404 -0.035850834 -0.022462877 -0.067166485 0.004006417 -0.08020097
-0.02686338 -0.0015886084 -0.06658824 0.039708126 0.06963361 -0.0005156154 0.019366141 -0.09168598
0.0068078483 0.033578265 -0.03441203 -0.013816238 -0.08530158 0.040007327 -0.0322869 -0.0075167213
0.049855 0.073328204 1.6720725e-05 0.08410802 0.019415691 -0.0045758756 0.06929322 0.08881046
0.08022722 -0.042963475 -0.048218906 0.05333548 -0.04743482 -0.02480353 0.046358753 0.021034066
-0.0059452164 0.036443196 0.028236547 -0.09268086 0.06723658 0.028001627 0.051113043 -0.001144374
0.0047758017 0.0008336505 -0.011049399 0.08544394 -0.06929658 -0.04350837 -0.07162996 -0.0046673464
-0.067758344 0.06768438 -0.037959635 0.069907404 0.08778858 -0.057897273 -0.06102664 -0.032542113
-0.047058955 0.041959543 0.060167216 -0.010791042 -0.07200396 0.042087015 0.08468486 0.020680875
-0.020045431 -0.061876263 -0.07010607 0.042253256 0.047549628 0.06264778 0.089302726 -0.006706674
-0.0088095805 0.018423485 -0.025429355 -0.02496245 -0.015158286 0.018866913 -0.057525862 -0.079280436
-0.09396119 -0.004358672 0.018233307 0.06465774 -0.057330273 -0.011575706 0.049768187 0.027118811
-0.042191587 -0.06930164 -0.06521912 -0.022057572 0.016375598 0.061232466 0.03168874 0.060603335
-0.032146286 0.008306823 -0.026057819 0.08357755 -0.007541178 0.051176943 0.0465058 -0.0071025905
0.03132354 -0.021517443 0.024492528 0.07039933 -0.010294807 0.078128666 -0.05530874 -0.007682839
0.019691143 0.017144116 0.11496131 -0.08260763 -0.052157607 -0.018428082 0.022413045 -0.044897363
-0.008800287 -0.07000072 -0.07908569 -0.024131197 0.012359308 0.07933284 -0.046070606 -0.089215174
0.02588971 0.084211625 0.0163997 0.075787775 0.042466857 -0.00897663 -0.066313386 0.018921537
0.07569403 -0.06097841 0.07365635 0.014319953 -0.036201537 0.023267027 -0.025698323 -0.056502726
0.04810153 0.064971596 -0.013147515 -0.05339921 -0.04639749 -0.058435045 -0.07379171 -0.04496215
-0.052821618 -0.019104771 0.04988162 -0.062917754 0.025474923 -0.005860928 -0.05727178 -0.065103374
-0.043556456 0.009945056 0.052521694 -0.05657306 -0.00025612448 -0.09152035 0.09734072 0.049332738
0.027183758 -0.06520223 0.011973481 0.0837591 -0.021854721 0.020733675 0.014607189 -0.007945081
-0.022052437 0.016222762 0.048247516 -0.00857173 -0.031601943 -0.095561184 -0.04770273 -0.039379556
-0.047457658 -0.07661018 -0.05106129 -0.038570765 0.029437758 0.03412482 -0.07011649 0.055254634
-0.02116445 0.0770544 0.047842816 0.033538323 0.06643205 -0.009294111 0.0021440848 -0.07479881
-0.051157333 0.011812948 0.04501658 0.021780249 -0.08435041 -0.05853446 -0.026867958 0.010469696
0.018640595 0.03688667 -0.08155553 0.051836096 -0.09870317 -0.03497262 0.029520204 -0.07459327
-0.05201953 0.09191482 -0.06493023 0.017211052 -0.07660532 -0.089945115 -0.03395233 0.08576283
-0.056623787 0.049999256 -0.018726518 0.023261433 0.050696082 0.028031755 0.06948129 0.029852888

bn2.weight f4 [128]
00000000: 9c29 803f f7e8 7d3f 033a 7f3f 211a 7c3f
00000010: da2a 7f3f 4950 7e3f fc4a 7e3f f69d 7c3f
00000020: 656b 7f3f c8e2 7c3f d6da 7f3f ac49 7e3f
00000030: 3aec 7e3f 8825 7e3f 0b46 7e3f 7200 7f3f
00000040: b645 7e3f be69 7d3f 4077 7e3f 6827 7d3f
00000050: d201 803f 79f4 7e3f 4c26 7e3f f054 7f3f
00000060: 9b66 7d3f f3ce 7f3f 60de 7d3f 6b89 7f3f
00000070: a1ad 7e3f 7c0b 803f d6fd 7f3f 781b 7e3f
00000080: ec36 7e3f 3bda 7b3f 64b4 7c3f 6baf 7e3f
00000090: b785 7e3f b9cb 7f3f 462e 7d3f 8667 7e3f
000000a0: 332f 7f3f 8604 7e3f 9891 7e3f 9748 7f3f
000000b0: eacf 7d3f 02cd 7f3f ff09 803f fa72 7c3f
000000c0: 7157 7f3f 53fd 7f3f 177b 7e3f e16f 7d3f
000000d0: 32b5 7f3f e13d 7f3f a7b3 7c3f 93f0 7b3f
000000e0: 44b4 7e3f 5e15 7b3f ea05 7d3f 50a7 7d3f
000000f0: b9e0 7e3f 28b1 7f3f ebda 7d3f 583d 7d3f
00000100: 2b74 7f3f 1b60 7f3f 5907 7f3f 3527 7f3f
00000110: 5e49 7f3f fe7b 7d3f aec6 7e3f 931c 803f
00000120: 94e4 7f3f bd5a 7e3f 8cfb 7d3f 0c75 7e3f
00000130: aa65 803f 1a98 7d3f b654 7d3f 366f 7c3f
00000140: b427 7d3f d57c 7d3f f873 7f3f f9af 7f3f
00000150: 2834 7e3f 60b4 7f3f a323 7e3f 0ac7 7e3f
00000160: 3489 7d3f b2a4 7d3f 37f9 7e3f c4b5 7e3f
00000170: c1fe 7e3f e30d 7e3f 81a7 7e3f d546 7d3f
00000180: c432 803f d108 7e3f 652c 7e3f 45dc 7f3f
00000190: c267 7d3f d350 7c3f 03c1 7d3f 4b5e 7f3f
000001a0: 8ce6 7f3f dab9 7f3f ebf4 7e3f 952e 803f
000001b0: 9c02 7f3f 3034 7f3f 7ccf 7f3f d8ec 7c3f
000001c0: 5b98 7f3f b295 7f3f 7e1c 7f3f f48b 7e3f
000001d0: 17a5 7f3f 02ad 7e3f 907b 7d3f 2a0f 803f
000001e0: ef24 7c3f 4b3d 7e3f f116 7f3f 3c6d 7a3f
000001f0: 8e1a 803f 2539 803f 461e 803f 06f2 7a3f
1.0012698 0.991836 0.99697894 0.9847737 0.9967476 0.99341255 0.9933317 0.9867853
0.99773246 0.9878354 0.9994329 0.99331164 0.99579203 0.9927602 0.9932563 0.99610054
0.9932512 0.98989475 0.9940071 0.98888254 1.0000556 0.99591786 0.99277186 0.9973898
0.9898469 0.99925154 0.9916744 0.9981906 0.99483687 1.0003505 0.999967 0.99260664
0.99302554 0.9837987 0.98712754 0.99486417 0.9942278 0.9992023 0.9889873 0.99376714
0.99681395 0.9922565 0.9944091 0.9972014 0.99145377 0.9992219 1.000305 0.9861294
0.997428 0.9999592 0.9940657 0.9899884 0.9988586 0.99703795 0.9871163 0.9841396
0.99493814 0.9807948 0.9883715 0.99083424 0.9956165 0.99879694 0.9916217 0.9892173
0.99786633 0.9975602 0.99620587 0.996692 0.99721324 0.9901732 0.9952191 1.000872
0.9995816 0.99357206 0.99211955 0.9939735 1.0031025 0.99060214 0.98957384 0.98607194
0.9888871 0.99018604 0.9978633 0.9987789 0.99298334 0.99884605 0.9927313 0.9952246
0.9903748 0.9907943 0.9959902 0.994961 0.99607474 0.9923994 0.9947434 0.98936206
1.0015492 0.992322 0.9928649 0.9994548 0.98986447 0.9856083 0.9912264 0.99753255
0.9996116 0.9989296 0.99592465 1.0014216 0.99613357 0.99689007 0.9992597 0.98798895
0.9984185 0.9983779 0.9965285 0.994323 0.9986128 0.9948274 0.99016666 1.0004628
0.98493856 0.99312276 0.9964438 0.9782293 1.0008104 1.0017439 1.0009239 0.9802555

bn2.bias f4 [128]
00000000: 6b98 2a3b f4c2 20bd 0a4d 81bc f77d 433d
00000010: 5cfe 443c e9d6 183d 5778 74bc e477 05bd
00000020: 5918 90bc ef9d 083d 7656 033c 9951 f83c
00000030: ae6b b03c 4376 2d3d 6aec b73c 9d1d 84bc
00000040: 8975 c8bc 3b76 fb3c 9eef a6bc 204f 38bd
00000050: bc67 423c 144c 85bc 3391 95bc fa27 82bc
00000060: c4f0 c43c 7648 8dbc 25f6 0dbd 4379 a9bc
00000070: b4e4 72bc 9869 ddbb 271e 563c 4ec2 eebc
00000080: 6841 d23c d231 0b3d b483 133d 6e5a 86bc
00000090: 8f48 093d 2aaf 23bc 7c21 393d 63c8 cc3c
000000a0: 4244 8f3c 01ec bbbc a69e 4a3c aa57 3ebc
000000b0: 4df7 ce3c c8de 1f3c 43fc 97bb ee5b ca3c
000000c0: 4a3d b3bc e584 89bc fbe5 433c 5708 bbbc
000000d0: c464 663b 41b4 abbc 555d febc e20b 32bd
000000e0: 6b13 c43c a2e9 0c3d 64f0 2f3d 42e6 0b3d
000000f0: e8fe 39bc 4a91 02bd ed00 fabc f0e6 233d
00000100: 00aa 18bd 4b61 febc c7ef 52bc 435f 9bbc
00000110: 4476 1abd d367 d7bc bb2a c8bc bbd8 25bc
00000120: 739d 68bc 82f4 473c 3183 37bc f957 ff3c
00000130: 5e00 f1bb 4607 45bd 2803 093d ae51 1ebd
00000140: 7817 0bbd 02e8 f53c 40c6 7bbc 89bc 98bc
00000150: 2b09 04bd 5e64 0dbb a07e 8fbc 529b f53c
00000160: d8bb 0abd 7f30 10bd 44ba 973c e871 debc
00000170: 261b 7c3c 05e7 2d3d 880b 783c 8e2a eb3c
00000180: 1143 d0bb dcd1 8a3c 4cdd ce3c 7ea8 9b3c
00000190: 39a0 c83c f5b9 1ebd 992f dabc e09e 5abc
000001a0: 6569 f93b 22d9 023c edd3 72bc ce58 143c
000001b0: 4f19 a8bc ad05 433c a7d5 53ba 9a76 e6bc
000001c0: 7ed2 bb3b 74a1 cfbc 5923 6cbc a79d be3c
000001d0: 5ad1 983c 92a9 da3c b885 b03c bcfb 52bc
000001e0: 15d4 2fbd d948 c1bc f3d6 c43c 91de 3dbd
000001f0: 8d50 823c f6b6 923c d87d 0bbc 5a67 76bd
0.002603079 -0.03924842 -0.015783805 0.04772755 0.012023535 0.03731433 -0.014921269 -0.03258504
-0.017589735 0.033353742 0.008016219 0.030312346 0.02153572 0.04234911 0.022451598 -0.016127402
-0.024470108 0.030696025 -0.02037793 -0.044997334 0.0118655525 -0.016271628 -0.018257713 -0.015888203
0.024040587 -0.017246466 -0.03465857 -0.020687705 -0.014825035 -0.0067569725 0.013068712 -0.029145386
0.025665954 0.03398306 0.036014274 -0.016400542 0.033516463 -0.009990493 0.04519795 0.024997896
0.017488603 -0.022939684 0.012366926 -0.01161758 0.025264407 0.009757705 -0.0046382262 0.024702039
-0.02187981 -0.016787002 0.011956687 -0.022831125 0.0035155276 -0.020959975 -0.031050364 -0.043468364
0.02393504 0.034402497 0.042953864 0.034155138 -0.011352278 -0.03187684 -0.03051802 0.04001516
-0.0372715 -0.031052252 -0.01287455 -0.018966323 -0.037710443 -0.026294624 -0.024434438 -0.010122473
-0.014197695 0.012204291 -0.011200712 0.031169878 -0.00735478 -0.04810264 0.033450276 -0.038652115
-0.03395793 0.030017857 -0.015367091 -0.018644588 -0.032235306 -0.0021574716 -0.017516434 0.029981289
-0.033870548 -0.0352025 0.018521436 -0.027153924 0.015387332 0.042456646 0.015139468 0.028706815
-0.006355651 0.016945772 0.025252007 0.019001242 0.024490463 -0.03875156 -0.026634024 -0.013343543
0.007611441 0.007986339 -0.014821035 0.009054376 -0.02051988 0.011903209 -0.0008080848 -0.028132726
0.0057318797 -0.025345542 -0.014412724 0.023268534 0.018654514 0.026692186 0.021548137 -0.012877401
-0.042926867 -0.023594307 0.024028277 -0.046354834 0.01590755 0.017909508 -0.00851389 -0.060157157

bn2.running_mean f4 [128]
00000000: bf4a bb3c 3dc9 40bd d609 a4bd 8af6 cf3d
00000010: 9ccf ac3c 21ec 973d 59b3 96bd 70e4 8bbd
00000020: 9b8c a8bc 3716 253d 5c3a 913c e622 d23d
00000030: 29ba b53c db26 b23d 521d af3d ada8 1cbd
00000040: a03c 41bd cddb 913d 8b0d 36bd 2cf0 93bd
00000050: 6da5 e53c e8f2 b5bc cbd2 9cbd d1ab 8bbd
00000060: d24a 5d3d 51cc 5cbd 5958 88bd 57bc e9bc
00000070: 891b 8bbd fda5 08bd 1ea5 613d 29a0 b4bd
00000080: 2b4a 9d3d 44ce 003d 73f7 ec3c 6fed 7bbc
00000090: ff69 d03d 336a c9bb 9506 013e fd9d 1c3d
000000a0: b4c4 843d e964 66bd fb08 883d d626 76bd
000000b0: 8c04 933d abb2 c43d 8706 50bd c719 573d
000000c0: e29c 0ebb 84a6 97bd 91e1 733d 744a 83bc
000000d0: e0d4 243d aa3d ddbd 4f21 a7bc 2b29 13bd
000000e0: d8b3 a03c febe 703d e7ce cd3c 5062 ab3d
000000f0: 845a 60bc d7f0 96bc 32a3 49bd 3b82 a93d
00000100: 27b7 d5bd 1504 b1bd 6ad2 9ebd 384e cfbc
00000110: be48 4dbd 51da 7bbd 17fd 74bd 2829 98bd
00000120: b082 adbc 725c 773c 5c98 67bd 5a00 e03d
00000130: 272b 853c 77ad bbbd 5f6b 3b3d 5aff 52bd
00000140: 8cff c4bd 2b8a 853d 7235 a0bd d25d 8fbd
00000150: d5b8 91bd 4002 253b f9f2 f7bc 005b 153c
00000160: b0cd 97bd 6a5a f7bc 4b16 7a3d 4821 8bbd
00000170: f8ad 733d 271e d13d 8bee be3c 0c60 c13d
00000180: ac15 d1bd 8d87 563d 82bb 0b3d dc7e 503c
00000190: 86c1 823d 08b7 98bd ad27 2cbd 7d66 4abd
000001a0: 374d b93d f51f a23c 5b26 44bd ec05 513d
000001b0: dbb3 24bd 14c2 a63d e0ea 59bc 12a4 39bd
000001c0: 87ec 9e3a 5d90 a8bd b962 0cbc a386 b33d
000001d0: 532b 7f3d 909f 793d f4d1 6c3d be9c 44bd
000001e0: 70e8 44bd 6397 10bd 6816 893c 2e51 87bd
000001f0: a048 913d 048a 803d dc3e 77bd 9cdd 9abd
0.02286279 -0.047066916 -0.080096886 0.101544455 0.02109509 0.07418085 -0.073584266 -0.0683068
-0.020574858 0.04030439 0.017728023 0.102605626 0.022183495 0.08698817 0.08550514 -0.0382468
-0.047176957 0.07122002 -0.04444651 -0.072235435 0.028032983 -0.022210553 -0.07657393 -0.06819881
0.054026432 -0.05390579 -0.06657476 -0.02853219 -0.06792361 -0.033361424 0.05508911 -0.088196106
0.07680162 0.03144671 0.028926587 -0.015376433 0.10176467 -0.006146693 0.12600167 0.038236607
0.06482831 -0.05624858 0.06642338 -0.06009563 0.071786016 0.09604391 -0.050787475 0.052514818
-0.002176099 -0.07404807 0.05954129 -0.016026713 0.040242076 -0.10802777 -0.020401625 -0.035927933
0.019617006 0.058775894 0.025123073 0.08368361 -0.013693456 -0.018425388 -0.0492279 0.082767926
-0.10435324 -0.08643357 -0.07754977 -0.025305852 -0.0501182 -0.0614875 -0.059811678 -0.07429725
-0.02118048 0.015097724 -0.056541786 0.10937567 0.016255928 -0.09163945 0.045756694 -0.051513053
-0.09619054 0.06520494 -0.07822694 -0.07000317 -0.07115332 0.0025178343 -0.030267226 0.009115934
-0.07412279 -0.03019448 0.061056416 -0.06793457 0.05949208 0.10210829 0.023307106 0.094421476
-0.10209212 0.052375365 0.03411437 0.012725558 0.06384568 -0.074567854 -0.042030025 -0.049414147
0.09047931 0.019790629 -0.04788814 0.05103104 -0.040210586 0.08142486 -0.0133006275 -0.045322485
0.0012124934 -0.0823066 -0.008568459 0.08765914 0.062297177 0.060943186 0.057817414 -0.048001043
-0.048073232 -0.035300624 0.016734317 -0.06607281 0.0709393 0.062763244 -0.06036268 -0.075618

bn2.running_var f4 [128]
00000000: f4b9 593e 2dab 983e 164f 8f3e 1f86 8b3e
00000010: a895 5e3e fc3d b63e 3abc 203e e2d2 8f3e
00000020: 32b2 763e a508 683e beb6 343e 4502 803e
00000030: 39e5 1c3e 1726 9c3e c857 7a3e a555 593e
00000040: b410 2e3e de0d 843e 2c7a 6f3e d8a0 b73e
00000050: 4a78 533e 08e2 293e 4764 553e 1edc 8f3e
00000060: c945 593e 7fb6 9d3e 4029 923e 17de 7d3e
00000070: bb3e 863e d2a4 6b3e 61e1 713e 3a01 b43e
00000080: cf82 a83e 4cfb 8c3e b5d5 823e dcbd 873e
00000090: 5947 bd3e f130 383e 6b7f 9a3e d3b7 a53e
000000a0: 576e 3f3e 3672 7c3e ea82 933e de88 533e
000000b0: 5bd1 833e 4e03 9f3e fe6e 893e 5231 4c3e
000000c0: 3d22 993e 251d a33e c5cf 843e 0232 583e
000000d0: d819 6c3e ee21 a73e 5f9e 523e b815 863e
000000e0: 4d9e 9b3e 671f 713e 85f1 833e 1125 6f3e
000000f0: f5cc 633e 5295 a13e 090a 513e d19e 5f3e
00000100: 22c6 ba3e 062a b33e 7a30 553e 13f7 9a3e
00000110: 8cc3 ac3e 92ef 633e 1ca1 883e 3586 903e
00000120: 251d 5a3e fb30 4f3e aa89 423e e8bd cc3e
00000130: 1bfa 923e e79b c53e f85a 5d3e e66e 8b3e
00000140: 4a97 cc3e ce60 513e 606e 853e fe75 833e
00000150: f311 833e 771f 6f3e e06a 823e 4f5c 8c3e
00000160: 01d2 893e 2eef af3e c0cc 7c3e d48e 753e
00000170: bdf7 893e e1f9 c53e 3168 5e3e 878b c03e
00000180: abb5 8a3e c282 973e 46c0 963e 6d65 853e
00000190: 4579 4e3e a4b3 a83e 0788 923e 65d4 813e
000001a0: 06eb b03e 4f02 2d3e 4267 3b3e 2987 823e
000001b0: ed1e a43e 6db2 833e 23a2 283e 02d0 653e
000001c0: e2d3 5c3e 076d 763e 1328 6d3e 7cb4 7c3e
000001d0: 5276 823e 3e29 553e 63e1 723e 14b8 6d3e
000001e0: 9804 983e a581 4f3e 145b 833e 0683 993e
000001f0: d3b2 a93e 614b 8a3e 268b 943e 016e a53e
0.21262342 0.29818097 0.27990025 0.27250764 0.21736777 0.35594165 0.15696803 0.28090578
0.24091414 0.22659548 0.17647836 0.25001732 0.15321817 0.3049781 0.24447548 0.21224077
0.16998559 0.2579183 0.23386449 0.35864902 0.20651355 0.1659013 0.20839034 0.28097624
0.21218027 0.30803296 0.28547096 0.24791752 0.26219735 0.23012093 0.23621131 0.35157186
0.329123 0.27535474 0.2555367 0.2651204 0.36968496 0.1798742 0.30175337 0.3236681
0.18694435 0.24652943 0.28810817 0.2065768 0.25745663 0.3105721 0.26842493 0.19940689
0.29908934 0.31858173 0.25939766 0.21112826 0.23056734 0.32643074 0.20568226 0.26188445
0.3039421 0.23547135 0.25770202 0.23353983 0.22246154 0.31559235 0.20413984 0.21837927
0.36479288 0.34993 0.20819274 0.30266628 0.3374294 0.22259358 0.26685417 0.28227392
0.2130018 0.20233528 0.18997827 0.39988637 0.2870644 0.38595507 0.21616733 0.27233046
0.39959174 0.20447084 0.26060772 0.25675958 0.25599632 0.23351847 0.25472164 0.27414176
0.26918033 0.34362167 0.24687481 0.23980266 0.26946822 0.38667205 0.21719433 0.3760645
0.27091727 0.29591948 0.29443568 0.26053944 0.20163448 0.32949555 0.28619406 0.25357357
0.3455431 0.16895412 0.18301108 0.25493744 0.32054844 0.25722066 0.164681 0.2244263
0.21565202 0.24065028 0.23159818 0.24678224 0.25480896 0.20816514 0.2371879 0.23214751
0.29691005 0.20264299 0.25655425 0.29982775 0.33144245 0.27010635 0.29012412 0.3231049

hidden3.weight f4 [16, 128]
00000000: c4ff bfbd 3e4d a9bd 7ab3 edbc e8b5 29bd
00000010: c1cc 713d 0e0f 54bd 8fb0 06bd 41c1 4c3d
00000020: 59e5 93bd e104 543d 7769 bebd 93b5 85bd
00000030: acbc 89bd 9f59 06bd 9774 6e3d 2509 953c
00000040: eb33 f13b a0c2 973d 27b0 93bd 63bc cdbc
00000050: 6e05 2f3d 2dc7 fd3c b856 32bd 4449 983d
00000060: f447 90bd 7ea5 5d3d 7c29 633d 54e8 863d
00000070: 69c4 603d 828a 1ebd 5179 22bd e0d6 3dbd
00000080: c0cf 0d3c 3cd3 be3c 7902 ec3c afd8 2dbd
00000090: 8151 25bd 0135 0b3c 1ba8 383c 0c53 cf3d
000000a0: b54a f53b fa1b 42ba eddf bfbd 91f8 ff3c
000000b0: 32f4 fdbb 0a95 ebbc b37e 883d e348 e0bc
000000c0: 9b04 babc a973 c03b 01cd 4d3d dd89 fa3b
000000d0: 8f65 3b3d cb47 9a3d b8f1 873c 99f9 7d3c
000000e0: a1d9 74bd 1003 fbbc b8a9 9bbd 109c 9b39
000000f0: 9047 08bd 6a4d b7bc e5a0 94bd 1936 b03b
00000100: 971b 4d3d d4db 6bbd a624 833d 9475 8abd
00000110: 066e 74bd d9ca 893d 4e34 3dbb 2fe3 81bd
00000120: 7981 963d 0ec0 41bc 2508 42bd acc3 243d
00000130: c51c ccbd 05ce 65ba ffce dabc 5e73 8cba
00000140: 78d5 583d 180a 59bd cbb5 3f3d ba13 d83b
00000150: 10a0 65bd 9c61 873d 249e 90bd 2b45 8139
00000160: 8fea 563d 6112 43bd d11e 9dbd f615 143d
00000170: f255 fd39 bf10 053d 1c23 b43c 434f a8bd
00000180: 00c8 a63d a8e6 8bbc 17f3 68bd e239 90bd
00000190: 60e0 41bd b3de 77bd 7879 90bd ce5b 703d
000001a0: 509e f03c 6f21 d13c 43a0 13bb f53b 3d3d
000001b0: 0ebc 1dbd 75a6 a2bd 4559 54bc 6c7c f2bb
000001c0: 0bb9 47bd 0557 1dbd 9165 503c f6e4 4ebd
000001d0: b02b 1fbc 16ee 5f3c aa5a 9dbd 4ab4 d13d
000001e0: b12a 013d db9a b93c d783 9cbd a7e8 0fbc
000001f0: 7ea7 3dbd 87cb 1dbd 15aa 093c 2d9f fb3c
00000200: a856 d23c ae86 17bc 74f8 a23d 78f5 a6bd
00000210: 15b9 8fbc 3a77 a0bd 9d89 153d a38e 7e3c
00000220: 5528 343c e40b fdba 91cf 81bc 88c3 133d
00000230: 2672 b2bd f581 05bd cff8 76bd a668 273c
00000240: 44ff 143d c7db dabc 306d 223c 051f afbc
00000250: 88aa 77bd 9861 963c 3a66 823d b9db f5bc
00000260: c715 67bd b824 de3d 7420 593d f672 053d
00000270: e92f e6bb 7bf8 dc3c 0141 e93c caca afbd
00000280: 11d1 a8bd 0dff c9bd 760a f9bd a269 a03d
00000290: b4f1 82bd 10ea b83b d785 773d eac7 a8bd
000002a0: 1e2a 50bb c237 88bd 4c80 213d b88b 823b
000002b0: 72aa a63d 11f5 163d 0db0 b5bc 594d 94bd
000002c0: 3f48 c73d c97c 3fbd 17b5 8abd df4f 9d3d
000002d0: ed04 e3bc c38b cbba 9a56 a23c 8c1b 11bd
000002e0: a039 11bd b12e 153d 9c44 dc3d 4222 15bc
000002f0: 39c5 67bc f9c5 15bc 1a0c f13d 1595 a8bd
00000300: ba8d 85bd 6f1d 993d a90d 91bd eac1 6b3d
00000310: 05e8 d63d d080 9bbc 969c 33bd dc32 ba3c
00000320: f849 39bd f301 f8bc 2634 d53c 174f ad3b
00000330: 1ee0 a33d 97e6 0dbd 1017 34bd 526b b4bc
00000340: 9476 4dbd 3b2a e7bc e65a 9abd 9841 0cbd
00000350: 0cb3 85bc 8ef4 253c 0a5e 623d 0abb ffbc
00000360: 888b 1a3d ea04 2e3d d6e1 f1ba fcf6 a33d
00000370: c209 cdbd 1dfe 67bd 0631 803d 61b0 87bc
00000380: 9b11 08bd 9fcd 91bd 4849 9b3d de9d 71bd
00000390: 4df2 ad3b f9f7 a63d a832 933d 6fa6 433c
000003a0: 4517 c63a bb8e a73c 3c5a 03bd a0bf 323d
000003b0: 9d9f 383c 30a0 163d c72e 6bbb 1951 98bd
000003c0: acdb ea3d 40bf 9e3b b70d 35bd a458 373d
000003d0: 8cbb 8a3c f3b4 10bd aed5 afbd 1412 523c
000003e0: bcce f8bc c5a5 e33b 4608 653d 42cc 1b3d
000003f0: 7f72 ebbc 0072 78bc e4fe fa3d f8c5 c53a
-0.09374955 -0.08266686 -0.029016245 -0.041433245 0.05903316 -0.05177217 -0.032883223 0.04998899
-0.07221479 0.051762465 -0.092974596 -0.06528773 -0.067254394 -0.032800313 0.058216657 0.018192837
0.0073609254 0.07410169 -0.07211333 -0.025114244 0.042729788 0.030978763 -0.043539733 0.07435849
-0.07044974 0.054112904 0.055459484 0.06587282 0.05487481 -0.03870631 -0.039666478 -0.0463475
0.0086554885 0.023294084 0.028809773 -0.042442974 -0.04036093 0.008496524 0.011270548 0.10123262
0.0074857124 -0.00074046815 -0.09368882 0.031246455 -0.0077500576 -0.02875759 0.06664791 -0.027378505
-0.022707274 0.0058731628 0.050244335 0.007645829 0.04575115 0.07533225 0.016594753 0.015501403
-0.05977786 -0.030641109 -0.07600731 0.0002968018 -0.033271372 -0.022375781 -0.07257251 0.0053775427
0.05007514 -0.05758269 0.064034745 -0.067607075 -0.05967524 0.06728143 -0.0028870287 -0.0634216
0.07348914 -0.011825575 -0.04737105 0.04022567 -0.09966425 -0.0008766356 -0.026710032 -0.0010715534
0.052937955 -0.05298814 0.04680423 0.0065941485 -0.05606085 0.066104144 -0.07061413 0.00024656332
0.052469786 -0.04762495 -0.076718934 0.036153756 0.00048319955 0.032486673 0.021989398 -0.08218243
0.08143616 -0.017077759 -0.056872454 -0.0704229 -0.04733312 -0.060515117 -0.07054418 0.0586813
0.029372364 0.025528638 -0.0022525943 0.046199758 -0.03850942 -0.079419054 -0.012960737 -0.007400086
-0.048760455 -0.038413066 0.012719528 -0.050511323 -0.009715006 0.013667604 -0.076833084 0.102394655
0.031534854 0.022656849 -0.07642334 -0.008783496 -0.04630231 -0.038524177 0.008402367 0.03071555
0.025676087 -0.009248419 0.07957545 -0.08152288 -0.017544309 -0.07835241 0.03650819 0.015536937
0.010995944 -0.0019305912 -0.015846046 0.036075145 -0.08713178 -0.03259464 -0.060295876 0.010217821
0.036376253 -0.026716126 0.009913728 -0.021377096 -0.060465366 0.018357083 0.063671544 -0.030011998
-0.056417253 0.10846847 0.053009465 0.03258034 -0.0070247543 0.026973953 0.02847338 -0.08583601
-0.08243001 -0.098631 -0.121601984 0.07832648 -0.063937575 0.005643137 0.060430374 -0.082412556
-0.0031763385 -0.0665126 0.039428994 0.003983941 0.081379786 0.036854807 -0.022178674 -0.072413154
0.09730577 -0.046749864 -0.067728214 0.0768125 -0.02771231 -0.0015529323 0.019816685 -0.03542666
-0.035455346 0.03642148 0.10755274 -0.009102406 -0.014146143 -0.009141439 0.11769886 -0.0823156
-0.06521173 0.07476317 -0.070826836 0.057557978 0.10493473 -0.018982321 -0.043850504 0.02272933
-0.045236558 -0.030274367 0.026025843 0.0052889693 0.08001731 -0.034643736 -0.043967307 -0.02202383
-0.050161913 -0.02821838 -0.07536869 -0.034242243 -0.016320728 0.010129107 0.055265464 -0.031217117
0.037730724 0.042485155 -0.0018454145 0.08006093 -0.10011627 -0.056638826 0.062593505 -0.016563596
-0.033219915 -0.07119297 0.07582337 -0.058988445 0.0053084255 0.08152766 0.07187396 0.011941536
0.0015113136 0.020453801 -0.032068476 0.04363978 0.0112685235 0.03677386 -0.0035886036 -0.07437343
0.1146768 0.004844576 -0.044202533 0.04476227 0.016935132 -0.035328817 -0.08585678 0.012821693
-0.030372016 0.0069472515 0.055916093 0.038036592 -0.02874112 -0.0151638985 0.12255648 0.0015088907

bn3.weight f4 [16]
00000000: 8922 7d3f 9cc6 683f 4c1c 7d3f c5af 803f
00000010: 9c05 6d3f b8a3 7c3f a9c5 653f c5b7 7a3f
00000020: b50e 793f 9c8f 7b3f 27ee 623f 5486 773f
00000030: e173 753f fd4a 793f 406d 7e3f fcff 7e3f
0.9888082 0.90928054 0.988713 1.0053641 0.92586684 0.98687315 0.8975473 0.9793666
0.97288066 0.98266006 0.8864464 0.96689343 0.9587994 0.9738005 0.9938545 0.9960935

bn3.bias f4 [16]
00000000: d00f e3bd b158 c1be 98b7 d0bd 71fc 6d3e
00000010: eed5 8d3e 4e30 b73d fe8c e83e 9481 273e
00000020: 2822 d6be bd61 cabe 4dae d13e 80f9 143f
00000030: ddcb 84be be14 28be 175d c93d ddae 603c
-0.11087 -0.3776298 -0.10191268 0.2324083 0.27702278 0.0894476 0.45420069 0.16358024
-0.41822934 -0.39527693 0.40953293 0.58193207 -0.25936785 -0.16414163 0.098322086 0.013713566

bn3.running_mean f4 [16]
00000000: b919 33bd 8d43 80bc e479 2fbd 1976 c33c
00000010: 3dc7 2b3b 5253 123d cc72 d83d 0e52 d23a
00000020: 6ad1 393c ec42 06be 8fc1 34bb aa9f 1b3e
00000030: 19ad 153c 395a 1dbd c0fc 513c 9806 083a
-0.043725703 -0.01565721 -0.042840853 0.023860024 0.0026211285 0.03572399 0.10568771 0.0016046183
0.011341432 -0.13111466 -0.002758119 0.15197626 0.009135508 -0.03841612 0.012816608 0.0005188971

bn3.running_var f4 [16]
00000000: 5f33 223f 31b0 953f 94a8 1b3f d361 9e3f
00000010: 04ff 423f cb64 db3e d215 b03f dfb6 173f
00000020: 3cca c13f 38f7 0b40 67cb 5d3f 71d0 1b40
00000030: ba88 1c3f f8c9 053f 1b81 9e3e 2ef1 663e
0.63359636 1.1694394 0.60804105 1.2373604 0.7617037 0.42850336 1.3756659 0.59263414
1.5139842 2.186964 0.8663849 2.4345973 0.6114613 0.52261305 0.30957875 0.2255294

output.weight f4 [1, 16]
00000000: fb3e d33d 83b1 d93e 7a1c b03d c50f d6be
00000010: 64ee 90be 88e1 d6bd 58a4 f0be 277f 3ebe
00000020: af89 103f 2843 053f 0e3c e2be 2b30 46bf
00000030: d6bb 923e 1c09 1f3e 92cc c3bc 2083 a8b9
0.10314747 0.42518243 0.085991815 -0.41808906 -0.28306878 -0.104922354 -0.47000384 -0.18603192
0.5646009 0.520556 -0.44186443 -0.7741725 0.28658932 0.15530819 -0.023901258 -0.00032141153
