models/focal_loss_checkpoints/checkpoint_epoch_30.pth (torch, 100218 bytes, 16 tensors)

hidden1.weight f4 [128, 30]
000000 99 1a f9 3d 36 64 23 be 80 aa 7d bd 78 cd 2e bd
       0.12163276 -0.15956196 -0.06193018 -0.04267642
000010 4f 2e d3 3d bc 42 c5 bd 39 9d a8 3b 15 ae e9 bb
       0.10311567 -0.09631869 0.0051456955 -0.007131348
000020 25 1f 67 bd 14 27 cd bd 22 88 0f be 16 fc 2b 3e
       -0.056426186 -0.10017219 -0.14016774 0.16795382
000030 0f 7a e1 bd 5e 0c 1d 3d 46 fb 35 bd e3 66 bf 3c
       -0.11009609 0.038341872 -0.044429086 0.02336449
000040 e5 bc 36 be d8 83 a4 3d 25 00 25 3e a1 3a 3f 3e
       -0.17845495 0.0803296 0.16113336 0.18674709
000050 06 82 18 3e e9 6c 9a bb b0 06 0f be d1 44 f6 3d
       0.1489335 -0.00471269 -0.13967395 0.120248444
000060 3a 03 e6 3d c5 e5 5f 3d 09 03 03 bd 06 98 37 3e
       0.11231084 0.054662485 -0.031985316 0.17929086
000070 ee 8f c1 3d 4a 9d d6 bd 2a 44 2b be c3 d7 de bc
       0.094512805 -0.10479219 -0.16725221 -0.027202493
000080 87 38 1e bc 27 1e d0 3c 4e c9 6f bc ba 18 00 3d
       -0.009657032 0.025405003 -0.014635397 0.03127358
000090 17 7f 83 bd 42 2d f8 bc 89 07 22 bd c9 c4 18 be
       -0.06420725 -0.030295018 -0.039557967 -0.14918818
0000a0 8f ec 9a bd 47 87 22 be 7c 50 20 3e 76 9f 07 3e
       -0.07564651 -0.15871917 0.15655702 0.13244423
0000b0 ca 83 9d 3d 1f 7a c9 bc 0a 15 1e be e3 eb 74 3c
       0.076911524 -0.024594365 -0.15437713 0.014948818
0000c0 a9 66 91 3d 07 3b 1d 3e 87 c5 2e be 1d 04 db bd
       0.07099659 0.15354548 -0.17067538 -0.10694144
0000d0 7b c1 95 bd ea 6d fd 3d 05 7a 2f 3e 61 5f 33 be
       -0.07312294 0.1237448 0.1713639 -0.17516853
0000e0 29 ad e4 3d 52 31 0c 3d 08 5a 27 be fd 2d 05 bb
       0.1116584 0.034226723 -0.16342938 -0.00203216
0000f0 a0 d9 03 3e 16 9d 69 3b 47 b7 3d 3d 90 97 fa bd
       0.12875986 0.003564661 0.046317365 -0.122359395
000100 0f 5d ce bb 8e 3d ae 3d 5a 95 00 3e 41 65 12 bd
       -0.0062977145 0.085078344 0.12556973 -0.035741094
000110 b9 a7 07 3e 3d 65 f1 3d 1b 81 05 3d 12 18 ea bd
       0.13247575 0.11786888 0.032593828 -0.11430372
000120 6b 6b 36 be 10 b6 f3 3d 02 4a 05 3e 4b 32 34 3e
       -0.17814414 0.1189996 0.13016513 0.1759731
000130 45 a6 30 be 8a bf 2a be bb a4 bb bd 0a ab e9 bd
       -0.17250927 -0.16674629 -0.09162279 -0.11409576
000140 90 0f 8d 3a 24 d1 ef bc fe 49 2e be 88 e9 e6 bd
       0.0010762084 -0.02927453 -0.17020413 -0.11275011
000150 11 20 c6 bd c8 0e a5 bd 70 80 2c 3d 5c d4 98 bd
       -0.09674085 -0.0805946 0.042114675 -0.07462379
000160 f7 87 22 bb f9 d3 ea 3d b2 ad 0a 3b 52 50 24 3e
       -0.002480028 0.11466212 0.002116066 0.16046265
000170 7a fd ba bd 1e d0 d4 bc 53 76 95 bd b7 98 7f 3d
       -0.09130378 -0.025978144 -0.07297959 0.0624015
000180 e7 f2 3e 3d cc 8e 86 3c 05 66 58 bd 4b ff c7 bd
       0.04661837 0.016425513 -0.05283167 -0.0976549
000190 5d 9f 1c 3e dd 5f 3d be 54 f3 9a 3b f0 e6 e5 3d
       0.15295167 -0.184936 0.004728714 0.112256885
0001a0 39 04 47 3a fe 6a b7 3d 1a 08 6d bd e2 3b a5 bd
       0.0007591877 0.08955954 -0.057869054 -0.08068062
0001b0 fd d8 17 be c9 47 dd bc fe ca 77 bd ed f3 36 be
       -0.14828868 -0.027011769 -0.060496323 -0.17866488
0001c0 98 88 a1 3d d6 cc 8d bd b4 09 34 3e 2c c0 30 3e
       0.07887381 -0.06923835 0.17581826 0.17260808
0001d0 10 0e ef bd e9 73 ab 3c 39 93 bf 3d d0 fd bb bd
       -0.11672604 0.020929294 0.09354252 -0.0917927
0001e0 9a 32 e5 3d dd 27 a8 3c 14 0e 23 be 4c 23 ce bd
       0.11191292 0.02052682 -0.15923339 -0.10065326
0001f0 08 47 2a be fc 59 a8 bd 8c db 13 3e 38 3e 84 3c
       -0.16628659 -0.08220288 0.14439219 0.01614295
000200 e6 fe c6 3d 76 f4 34 3e be a4 2c 3e db 39 1c 3e
       0.09716587 0.1767138 0.16859719 0.15256445
000210 cd 37 47 3e 41 e9 a3 bc 72 7a 9e 3d 6f 73 2e be
       0.1945488 -0.020008685 0.07738198 -0.17036222
000220 de eb c2 3c 6e 3d d5 bd bd e9 a8 bd ca 4b 14 be
       0.02379411 -0.104121074 -0.08247707 -0.14482036
000230 f2 b9 cf bd 55 1e 30 39 57 17 8c bc 47 46 13 3d
       -0.10142888 0.00016795968 -0.017100973 0.035955694
000240 f4 f5 39 3e 9c 7c 9b 3d bb 67 8a bd b2 75 c3 bd
       0.1816023 0.07592127 -0.06758066 -0.09543933
000250 2f a4 a0 3c ab 82 1d bd 9a 02 c4 bd ef db 84 bd
       0.019609539 -0.038454693 -0.09570809 -0.064872615
000260 7f 75 32 3e 2f 2a 6c bb 81 b5 15 3e d0 e4 75 3c
       0.17427634 -0.0036035886 0.1462002 0.015008166
000270 2a 16 46 3e 5d 00 4b 3c 95 3b 6d bd 0b 7c 55 3d
       0.19344392 0.012390223 -0.05791815 0.05212025
000280 52 3f 26 ba 71 90 d4 3d bc 6a 63 bd cd 03 f8 3d
       -0.0006341833 0.103791125 -0.05552171 0.121101
000290 2c d8 05 be f2 13 17 3e 6a 26 a0 3d 8b 8f b3 bd
       -0.13070744 0.14753702 0.07819827 -0.08767613
0002a0 95 af 5c bd 39 f9 46 3d 13 b8 d5 3d 5e 76 57 bd
       -0.053878386 0.04857752 0.104355 -0.052603118
0002b0 54 a2 ba bd e3 8e ac bc 99 c7 e6 3d cf c1 96 bc
       -0.09112993 -0.021064227 0.11268539 -0.018402962
0002c0 2c 8e e5 bd 32 8c f3 bd f7 f8 c0 bd 5e 1c db 3d
       -0.11208758 -0.118919745 -0.09422486 0.1069877
0002d0 1c a1 1f be d9 0e 51 bd 58 14 15 3c 28 aa a6 bd
       -0.15588802 -0.05103955 0.009099089 -0.081379235
0002e0 01 71 e5 3c f7 33 0b 3e 5c 9c ff bc e9 eb 76 3d
       0.028007986 0.13594042 -0.031202488 0.060283575
0002f0 de a1 9d 3c 36 e4 23 be 61 b8 a8 bc 0d 5f 46 be
       0.019242223 -0.16005024 -0.020595731 -0.19372196
000300 d4 23 2a 3e 29 1b 0a 3e 54 99 d3 3d a0 e8 0d 3d
       0.1661523 0.13486923 0.103319794 0.034645677
000310 09 c4 12 3e 02 18 3d 3d 33 e7 00 3c bb 04 a5 3d
       0.14332594 0.046165474 0.007867622 0.08057543
000320 ab 14 4d bc 28 bf cf bc 1e 97 cc bd d4 78 37 3e
       -0.012517135 -0.025359705 -0.09989761 0.17917186
000330 3f 17 0c 3e 0b c0 04 bd 47 98 92 3d 16 e8 0f 3e
       0.13680743 -0.03240971 0.07157951 0.14053378
000340 7c bb 92 3d f8 ac 0b be ff ee 42 3b 32 08 8e bd
       0.07164666 -0.13640201 0.0029744504 -0.06935157
000350 96 76 41 b9 51 60 fa 3d 81 50 30 be 17 cf 44 bd
       -0.00018450091 0.12225402 -0.1721821 -0.04804906
000360 3d 63 1f 3d d6 23 65 bd 81 34 20 be 14 f1 8c bc
       0.038913 -0.05594238 -0.15645029 -0.017204799
000370 7c 5b c6 3d 7b 71 3b be f7 23 50 bd f0 8f 89 3d
       0.09685418 -0.18305008 -0.05081555 0.06716907
000380 10 6e a5 3d 2e 2b d7 bc d3 2e 27 3e e6 25 03 3e
       0.080776334 -0.026265707 0.16326456 0.12807426
000390 48 92 ba bd a2 d3 45 3d 93 8b 8d 3d 2d a6 d9 3b
       -0.09109932 0.048297532 0.06911387 0.006642124
0003a0 77 ee 19 3e 25 1b f3 3c ea 0f 18 3e 92 65 cf bd
       0.15032373 0.02967603 0.1484982 -0.10126795
0003b0 ee d9 0e 3e 7b fd 27 be df 8e 87 3d f5 ba 06 be
       0.13950321 -0.16405289 0.066190474 -0.13157256
0003c0 22 5f 17 be 50 52 e8 3d 3b 6e 27 be 5a 6e e8 3d
       -0.14782384 0.11343825 -0.16350643 0.11349173
0003d0 89 a5 ac 3d 50 10 33 bd 87 e4 8f 3b c2 12 21 3e
       0.08430011 -0.04371673 0.0043912563 0.15729812
0003e0 66 e6 9b 3d 92 17 c6 3b 97 61 29 3e 1d d2 27 3e
       0.076123044 0.0060452903 0.16541134 0.16388746
0003f0 03 12 56 bd b9 61 82 3c 4e bb 33 3e e4 52 a5 bd
       -0.05226327 0.015915738 0.1755192 -0.08072451

bn1.weight f4 [128]
000000 0a a1 7e 3f d7 2e 7f 3f 08 1b 80 3f 79 82 7f 3f
       0.99464476 0.99680847 1.0008249 0.9980846
000010 2a 0f 7e 3f cf 2b 80 3f 61 81 7f 3f 2c 1b 80 3f
       0.9924189 1.0013369 0.9980679 1.0008292
000020 a0 3e 80 3f 9a bf 7f 3f 13 e0 7f 3f b3 79 7f 3f
       1.0019112 0.99901736 0.99951285 0.99795073
000030 37 9e 7f 3f 25 fa 7f 3f 58 7c 7d 3f 7e 2f 7f 3f
       0.9985079 0.99991065 0.9901786 0.9968184
000040 94 e2 7f 3f 6a 7a 7f 3f 77 5c 7f 3f 8d 66 80 3f
       0.99955106 0.99796164 0.99750465 1.0031296
000050 16 58 80 3f 3d f2 7f 3f a8 fe 7f 3f f6 02 80 3f
       1.0026882 0.99979 0.9999795 1.0000904
000060 1d 4f 80 3f a2 2a 80 3f 7d 19 80 3f 58 b3 80 3f
       1.0024143 1.001301 1.0007778 1.0054731
000070 fd ec 7e 3f de b1 7f 3f cd 06 7f 3f d8 67 80 3f
       0.99580365 0.9988078 0.9961975 1.0031691
000080 2c bb 7f 3f ef 6c 7e 3f f6 5b 7f 3f 63 0b 80 3f
       0.99894977 0.9938497 0.99749696 1.0003475
000090 9b 7b 80 3f af 43 80 3f 0a 7c 7f 3f 95 c1 7e 3f
       1.0037721 1.0020655 0.99798644 0.9951413
0000a0 f9 de 7e 3f 27 d7 7d 3f b0 aa 7f 3f a6 24 80 3f
       0.9955898 0.9915642 0.99869823 1.0011184
0000b0 4f db 7f 3f 60 fb 7f 3f 72 19 7f 3f 4a fb 7f 3f
       0.99944013 0.9999294 0.996482 0.9999281
0000c0 e4 54 7f 3f aa c2 7e 3f 35 18 80 3f 60 70 80 3f
       0.9973891 0.99515784 1.0007387 1.0034294
0000d0 69 69 7f 3f bb 28 80 3f e8 09 80 3f 21 b5 80 3f
       0.9977022 1.001243 1.0003023 1.0055276
0000e0 38 26 80 3f 24 b8 7e 3f f5 a3 7f 3f 48 00 80 3f
       1.0011663 0.99499726 0.99859554 1.0000086
0000f0 2b 20 80 3f 8d 1b 80 3f 61 12 80 3f ab 73 80 3f
       1.0009817 1.0008408 1.0005609 1.0035299
000100 3c 4e 80 3f ac 41 80 3f 74 80 7f 3f c7 47 80 3f
       1.0023875 1.0020041 0.9980538 1.0021905
000110 41 e2 7f 3f 18 e0 7f 3f 99 92 7f 3f d3 8b 7f 3f
       0.9995461 0.99951315 0.99833065 0.9982273
000120 47 77 7f 3f e6 1a 7f 3f fb 3b 7f 3f dd 9f 80 3f
       0.9979138 0.9965042 0.997009 1.0048786
000130 29 47 80 3f 82 bb 7f 3f bc 1c 80 3f 55 e4 7f 3f
       1.0021716 0.9989549 1.0008769 0.9995778
000140 7d 6b 7e 3f 04 09 7f 3f 97 30 80 3f 71 09 80 3f
       0.99382764 0.9962313 1.0014828 1.0002881
000150 c9 6c 7e 3f 9e 9c 7e 3f 10 b3 7e 3f eb 16 7e 3f
       0.9938474 0.9945773 0.9949198 0.9925372
000160 de a2 7e 3f a0 14 7f 3f 57 54 80 3f 93 59 7e 3f
       0.99467266 0.99640846 1.0025738 0.9935543
000170 b7 53 7e 3f e5 c2 7f 3f d1 95 7f 3f 05 c1 7f 3f
       0.9934649 0.9990676 0.99837977 0.999039
000180 a3 d9 7f 3f a9 53 80 3f 35 16 80 3f a7 42 80 3f
       0.9994146 1.0025531 1.0006777 1.0020341
000190 02 96 80 3f 14 c4 7e 3f 3b bc 7d 3f c0 ae 7f 3f
       1.0045779 0.9951794 0.9911534 0.9987602
0001a0 4b ce 7f 3f 32 85 80 3f b3 b8 7f 3f d9 ad 7f 3f
       0.99924153 1.0040648 0.99891204 0.99874645
0001b0 c4 10 80 3f 35 08 7f 3f 53 df 7e 3f 1d aa 7f 3f
       1.0005116 0.996219 0.99559516 0.9986895
0001c0 1d 92 80 3f 7e 1b 80 3f 5c 5f 80 3f 64 2f 80 3f
       1.004459 1.000839 1.0029101 1.0014462
0001d0 6b 33 80 3f d6 fb 7f 3f c6 e9 80 3f d5 ca 7f 3f
       1.0015692 0.99993646 1.0071342 0.9991887
0001e0 ba 1a 80 3f d1 5c 80 3f b6 4f 7d 3f 82 f7 7f 3f
       1.0008156 1.0028325 0.98949754 0.9998704
0001f0 44 24 80 3f 81 05 80 3f 70 7d 7f 3f d8 01 80 3f
       1.0011067 1.000168 0.9980078 1.0000563

bn1.bias f4 [128]
000000 af 11 af bc ab e4 8c 3c 18 24 1f bb 28 38 d3 3b
       -0.021370737 0.017198881 -0.0024282988 0.0064459033
000010 4e 16 af 3c 38 3f 2a bc 7c 50 20 3c 55 8b 22 3c
       0.02137294 -0.010391049 0.009784814 0.009920915
000020 1a db a1 3b 1b f9 ad 3c 71 25 1d bc f4 1d a4 bb
       0.004939449 0.021236947 -0.009591446 -0.0050084535
000030 1a f0 36 3c 8a 76 81 3b ae 0a 0a bd ce 47 83 bc
       0.011165643 0.0039508985 -0.03370159 -0.01602545
000040 61 7e 62 3b e7 4f 79 bc 78 cc 04 3d a5 51 3f 3c
       0.003456019 -0.015216804 0.03242156 0.01167718
000050 c2 57 96 bc 4d 98 54 3c c1 c2 ef bb 41 5b 45 3c
       -0.018352393 0.012975764 -0.0073169176 0.012045682
000060 74 de 23 bc 2d ad 54 3c 21 24 15 3c 09 d4 5f bc
       -0.010001767 0.012980741 0.009102852 -0.013661393
000070 f4 1a e2 3b 95 29 89 39 09 72 98 3c 18 85 a3 bb
       0.0069001857 0.00026161657 0.018609064 -0.0049902312
000080 29 31 be 3c 6d 21 3f bd d3 11 24 3a e6 af 00 3c
       0.0232168 -0.046662737 0.00062587595 0.007854437
000090 13 47 6e bb d6 2e 0e bc b2 e3 37 bc 1d a0 2e 3d
       -0.0036358282 -0.008678159 -0.01122372 0.042633165
0000a0 24 d9 d3 bc c1 79 a6 bc 6c 47 77 3c f9 c3 34 3c
       -0.025860377 -0.020321729 0.015092712 0.011033052
0000b0 79 95 3b 3c 64 a5 19 3c 76 48 8d bc 6c 35 05 3c
       0.011449211 0.009377811 -0.017246466 0.008130413
0000c0 bd 44 05 3c 73 80 f0 bb e6 78 ee 3b 95 ca 41 bb
       0.008134064 -0.007339531 0.007277596 -0.0029570211
0000d0 ca 11 a2 3c bb 31 83 3b 8b ed c7 bc 8b f8 2a 3a
       0.019783873 0.004003731 -0.024405262 0.0006522021
0000e0 0c 7f 55 bc cf 2a 07 bc 0f 94 0f 3c e2 65 bf 3c
       -0.013030779 -0.008249952 0.008763327 0.023364011
0000f0 35 00 d3 bb 57 0d 88 3c 5a 2a aa 3b 6f 2d 53 3b
       -0.0064392337 0.016607923 0.005193037 0.0032223125
000100 10 c1 cc 39 04 7b d9 3a 45 99 b1 3c 6e 19 78 bc
       0.00039053755 0.0016592448 0.02167953 -0.015142782
000110 1c 9d 19 3c 18 13 fd bb 2b c2 ad 3c 68 c9 6f 3c
       0.009375837 -0.0077232234 0.02121075 0.014635421
000120 c8 a0 d7 3c 0e f8 a9 bc 51 43 90 bc 0d a4 02 3c
       0.026321784 -0.020748165 -0.017610224 0.007973683
000130 7f 9c d4 3c 10 bf 35 3c 78 cc 21 bc cb d9 c2 bb
       0.02595353 0.011092916 -0.009875409 -0.005946373
000140 56 15 d4 3c 7c a1 25 3c 0c 1f cc 3b bb 9b 82 3c
       0.02588908 0.010109302 0.006229287 0.015943399
000150 de 97 f6 bc 00 95 02 bc 54 3e 95 3c 9f 43 1a bd
       -0.030101713 -0.007970095 0.018218197 -0.037662145
000160 d6 8d c3 3c b4 04 c9 bb 9a 75 3f bb 87 dc 9c bc
       0.023871344 -0.006134594 -0.0029214383 -0.019148124
000170 5e eb 8b 3c 2f 79 32 bc 6b ee e7 3b 5f 97 30 3c
       0.017080005 -0.01089315 0.007077982 0.010778277
000180 90 74 d4 3b 8f 2b a8 b9 54 bc 2e bc 3d ed a4 3c
       0.006483622 -0.0003207591 -0.010665018 0.020132655
000190 bc 17 ed 3b 6d 8d 27 3c 9e 26 22 bc d5 3f 11 ba
       0.0072354954 0.01022659 -0.009896902 -0.0005540823
0001a0 d9 55 f0 bb ce bc ae 3c 3f 83 17 b9 3a af 8f bb
       -0.0073344526 0.021330263 -0.00014449375 -0.0043849023
0001b0 8f dc cd 3b 1b e7 8d bc 22 a3 cb 3c 20 3c 5c 3c
       0.006282396 -0.017322114 0.024858061 0.013442069
0001c0 72 c9 6c 3c 8b c2 13 bc fb ea 3a 3b 52 5c 84 3c
       0.014452325 -0.009018551 0.0028521407 0.016157303
0001d0 20 32 84 3b 4d 7b 69 3b fc 7f 4c 3c 49 e2 f2 3a
       0.0040342957 0.0035626472 0.012481686 0.0018530573
0001e0 73 eb 4a bb 68 6f ad 3c 27 85 0f bd 17 ae 50 bb
       -0.0030963093 0.021171287 -0.035039093 -0.0031842047
0001f0 97 eb 15 3c 83 2a e9 b9 11 b0 89 bc 7f 45 2d 3b
       0.009150407 -0.00044472897 -0.016807588 0.0026439128

bn1.running_mean f4 [128]
000000 c9 6a 26 bd 64 53 a4 bd 06 df 2f 3e af 83 e8 bd
       -0.040629182 -0.08023718 0.1717492 -0.11353242
000010 f2 c7 74 bc c1 1d 09 3e d8 37 40 be af bd c1 bd
       -0.014940249 0.13390256 -0.18771303 -0.094600074
000020 40 71 ba 3d 65 b4 4e 3e d0 d1 25 bd ba ae 01 3e
       0.09103632 0.20186003 -0.040483296 0.12664309
000030 e0 16 ea bd 54 55 27 3d aa 96 93 3c 0f 38 1f bd
       -0.11430144 0.04085286 0.018016178 -0.03887182
000040 49 84 52 3e c7 26 b0 bc aa d0 f9 3d 66 3b 89 3c
       0.20558275 -0.021502865 0.12198003 0.016751956
000050 04 0e 14 be 75 79 07 be ae 04 3f be 38 19 d3 3d
       -0.14458472 -0.13229926 -0.18654129 0.103075445
000060 c0 cb d2 3a c9 ea 26 be 54 c1 4f bd 12 ae 18 3e
       0.0016082451 -0.16300501 -0.05072148 0.14910153
000070 15 2d fa bd bf c1 37 3d 34 4f a8 bd e0 9a 1d 3e
       -0.1221563 0.044862505 -0.08218232 0.15391111
000080 90 a3 b3 bd 98 6d a5 37 07 87 99 3d 92 9a e6 3d
       -0.087714314 1.9720566e-05 0.074964575 0.11259951
000090 0b 15 1a 3e 80 77 27 3e 0f b9 3e 3d 3a 06 30 be
       0.1504709 0.1635418 0.046563204 -0.17189875
0000a0 68 98 86 bd f6 1b fd bd 88 37 f9 bd ba e3 41 3d
       -0.06572038 -0.12358849 -0.12168795 0.047336318
0000b0 38 21 19 3e e3 14 23 3e c2 1e a5 3d a8 95 48 3d
       0.14954078 0.15925936 0.08062507 0.04897085
0000c0 fd 68 7b bd 34 7a 3f 3e c5 4d b2 3d fa a9 0d 3d
       -0.06137942 0.1869896 0.087062396 0.03458593
0000d0 fe a2 f5 3d 46 88 f7 3c c4 0b 36 3e 2a 9c 94 bd
       0.11993979 0.030216347 0.17777926 -0.072563484
0000e0 8d b7 fd 3d 80 24 0b bd 80 cf 8a bd 43 70 33 3e
       0.12388525 -0.033970356 -0.06777859 0.17523293
0000f0 cc 4a 12 3b bb 00 c3 3d 50 25 5b be 6d c5 86 3d
       0.0022322414 0.09521624 -0.21400952 0.06580625
000100 55 d6 ac bd 24 d6 de 3c 4c 2a 03 3e 2b e3 a7 3b
       -0.08439318 0.02720172 0.12809104 0.005123516
000110 ec b1 4a 3e 75 dd 14 be 4a e1 09 3d 0d 9b e4 bc
       0.19794434 -0.14537604 0.033662118 -0.027905965
000120 6e 61 0c bd 76 26 6d bd 50 29 0f 3d 86 49 fe 3d
       -0.034272604 -0.057898007 0.034951508 0.12416367
000130 9e c1 c2 bd f3 fb 15 3d 10 8b 21 be 8e e7 4d 3e
       -0.09509586 0.03661723 -0.15775704 0.20107862
000140 99 74 23 3d b5 6f 33 3c 0a 1a e6 3d b3 4b 74 bc
       0.039906118 0.010951926 0.11235435 -0.014910626
000150 4d 63 3f bd d9 5a db 3c 07 68 b2 bd 48 f4 64 3e
       -0.04672556 0.026776718 -0.08711248 0.22358811
000160 86 c6 16 be ee d1 87 bb f0 cb e9 3d c3 b5 33 3e
       -0.14724168 -0.0041448986 0.11415851 0.17549805
000170 d8 a2 1d be 71 3b 69 3c a3 4a dc bd 52 eb 10 be
       -0.15394151 0.014235363 -0.10756423 -0.14152268
000180 ee f4 1b 3d 11 25 00 3d 48 ab c2 bd 78 a0 06 be
       0.03807538 0.03128535 -0.095053256 -0.13147151
000190 00 87 0c 3d 9a d9 49 be b9 d3 bf 3d 99 fe a0 3c
       0.034308434 -0.19711915 0.09366555 0.019652652
0001a0 b6 7a 8f 3d b3 c0 f3 bd 60 5e cd bd 70 05 ac 3d
       0.07005827 -0.11901989 -0.10027766 0.083994746
0001b0 35 54 a8 3c 1f 39 08 3e a2 58 31 3d 28 d2 94 bd
       0.020547966 0.1330304 0.043297417 -0.072666466
0001c0 16 bc f9 bd 34 f2 d1 bb c2 93 33 3d 44 43 5a bd
       -0.12194078 -0.0064070467 0.043842085 -0.053286806
0001d0 1b f8 ce 3d 07 2a b4 3d 1e 0c a6 3d 8b fe 1a be
       0.10105916 0.087970786 0.0810778 -0.15136163
0001e0 88 e8 63 3d 5d 49 e4 bd c4 17 26 3e bb e2 ec 3d
       0.05564168 -0.111468054 0.16220003 0.11566683
0001f0 1a 26 ab bd 81 f9 f4 bd 52 d8 05 be 6b b6 74 bd
       -0.08356877 -0.119616516 -0.13070801 -0.05974428

bn1.running_var f4 [128]
000000 e1 d7 0c 3f 40 2a 05 3f 3c 51 02 3f 9f e5 f8 3e
       0.55016905 0.52017593 0.50905204 0.48612687
000010 97 1e f0 3e 57 d4 08 3f 0b d8 2d 3f 3a c9 18 3f
       0.46898338 0.53449005 0.6790778 0.5968205
000020 bd ea 4b 3f 7d 4e 84 3f d0 88 38 3f e3 b5 36 3f
       0.7965506 1.0336453 0.7208376 0.7137129
000030 92 68 07 3f ce 5e 36 3f 10 b6 eb 3e c4 d2 99 3e
       0.52893937 0.7123841 0.4603734 0.30043614
000040 32 b8 3b 3f 7a 35 e5 3e 07 14 80 3f d4 24 08 3f
       0.73327935 0.44767362 1.0006112 0.53181195
000050 71 51 24 3f df 19 2c 3f 07 7d 3f 3f 80 84 00 3f
       0.6418677 0.67226976 0.7480015 0.5020218
000060 18 32 c2 3e 50 13 0e 3f 34 01 05 3f c8 12 ea 3e
       0.37928843 0.5549822 0.5195496 0.45717454
000070 51 b4 06 3f ea 8c d9 3e c0 3a b9 3e 02 45 0b 3f
       0.5261889 0.4249032 0.36177635 0.5440217
000080 db 21 3f 3f 2a f9 ee 3e d5 f2 1f 3f 13 b8 19 3f
       0.74661034 0.46674472 0.6247991 0.600465
000090 e6 a9 4f 3f 7d a9 78 3f 0e 67 f6 3e 08 a5 14 3f
       0.8111862 0.9713362 0.481255 0.5806432
0000a0 a1 b9 1c 3f 0c d0 ca 3e 0c 68 1b 3f 1d 78 9c 3e
       0.6122075 0.39611852 0.6070564 0.3056039
0000b0 e2 c8 30 3f 47 b1 2a 3f 62 2e 01 3f e4 23 c8 3e
       0.6905652 0.66676754 0.504614 0.39089882
0000c0 e5 dd 02 3f 6f e4 74 3f 65 32 44 3f 50 5c c0 3e
       0.51119834 0.9566106 0.76639396 0.3757043
0000d0 90 2a 41 3f 41 bb 1b 3f 3a 2c df 3e cd 33 fa 3e
       0.7545557 0.608326 0.4358843 0.48867646
0000e0 91 0a 59 3f 9b a4 bf 3e 5d d6 2d 3f ac 83 77 3f
       0.8478175 0.37430272 0.6790522 0.9668529
0000f0 9a 6b c1 3e a5 42 45 3f ba df 04 3f 8d af 26 3f
       0.37777406 0.77054816 0.5190388 0.6511162
000100 73 5c 14 3f 50 1b f3 3e 07 9b 47 3f 33 82 18 3f
       0.57953566 0.47481775 0.7797093 0.5957367
000110 0c 6d 20 3f ec 9e 29 3f cb 55 c4 3e 37 ff b8 3e
       0.6266639 0.6625812 0.38346705 0.36132213
000120 6c f7 0e 3f 4b 43 22 3f 02 91 db 3e bf fc 23 3f
       0.55846286 0.6338393 0.4288407 0.64057535
000130 74 6c c2 3e 99 89 fa 3e 88 8a 57 3f 64 47 a4 3f
       0.37973368 0.48933104 0.84195757 1.2834287
000140 e8 4c ee 3e 7f 23 ed 3e b5 50 1d 3f a8 c6 c1 3e
       0.4654305 0.46316144 0.61451274 0.37846875
000150 02 f7 23 3f 89 a9 eb 3e 70 12 22 3f a8 44 05 3f
       0.6404878 0.46027783 0.63309383 0.52057886
000160 c0 68 e5 3e c2 c1 d2 3e a9 21 2a 3f c4 d8 2a 3f
       0.4480648 0.4116345 0.6645761 0.6673701
000170 21 82 29 3f a0 da 0e 3f b2 a3 25 3f d2 3f 5a 3f
       0.66214186 0.55802345 0.64702904 0.8525363
000180 84 93 8a 3e 06 cf 27 3f d6 1a 2e 3f 0b 09 13 3f
       0.2706567 0.6555027 0.680097 0.57435673
000190 d4 6f e3 3e 4e 3b 5b 3f 60 d6 0e 3f e7 c7 c9 3e
       0.44421256 0.85637367 0.5579586 0.39410326
0001a0 4d aa ef 3e 09 b6 e6 3e 20 97 3d 3f f3 54 78 3f
       0.46809617 0.45060757 0.74058723 0.9700462
0001b0 99 10 dd 3e bc b8 94 3f a5 81 10 3f f9 9c 2a 3f
       0.43176726 1.1618876 0.5644782 0.6664577
0001c0 c9 1a d1 3e 82 05 08 3f 63 a2 b6 3e d4 64 10 3f
       0.40840748 0.53133404 0.35670766 0.5640385
0001d0 db 3a 27 3f 9a 06 e9 3e be 51 4e 3f 74 72 50 3f
       0.6532418 0.4551285 0.8059348 0.8142464
0001e0 a2 ba 4e 3f 6d 65 df 3e 94 0d 83 3f c2 f7 20 3f
       0.8075353 0.4363207 1.0238519 0.6287805
0001f0 23 3d 0f 3f f3 39 33 3f 6b bd 57 3f 0f ea d7 3e
       0.5595266 0.700103 0.84273404 0.4217076

hidden2.weight f4 [128, 128]
000000 64 73 99 3d 3a 0d d9 bb b2 b0 8c bd b0 57 2c 3c
       0.07492712 -0.006623891 -0.068696395 0.010518953
000010 20 d6 ff 3c 45 82 26 bb 71 25 3a 3c 1a 01 e0 3c
       0.031230032 -0.0025407237 0.011361466 0.027344275
000020 ef 80 40 3d 70 2c e7 bc 53 62 59 bd e1 b0 84 3d
       0.04699796 -0.028219432 -0.053072285 0.064790495
000030 28 db b8 3c c1 91 9e 3d d0 d8 46 bd 80 25 d6 bc
       0.02256544 0.07742644 -0.048546612 -0.026140928
000040 f1 3d c9 3c c6 a5 a6 3c b2 bb 1d bd ce 53 19 bd
       0.024565669 0.020342719 -0.03850908 -0.037433438
000050 09 8a c4 bc 77 93 89 bd 38 ec a1 3b b4 58 a5 bd
       -0.023991602 -0.0671758 0.0049414895 -0.080735594
000060 ef f2 fd bc 71 e8 04 bb 1d ba 82 bd a5 31 31 3d
       -0.030999629 -0.0020280147 -0.063831545 0.043260235
000070 b4 91 80 3d 65 eb b4 3b fb 7d bf 3c a0 9e b9 bd
       0.06277791 0.0055212253 0.023375502 -0.090634584
000080 9d 55 f8 3b e2 a7 19 3d a3 7a 1a bd 0b a7 21 bc
       0.0075785653 0.03751362 -0.03771461 -0.009866486
000090 10 87 af bd 78 c8 20 3d 74 f3 2b bd 04 ef 10 bc
       -0.08570683 0.039253682 -0.041980222 -0.008846048
0000a0 2a 84 37 3d a7 0d 98 3d cc 61 b4 3a 94 52 b9 3d
       0.044803776 0.07424479 0.0013762056 0.09048954
0000b0 ae 46 c9 3c 65 ed a0 bb 21 c8 8e 3d 54 1e b7 3d
       0.024569836 -0.004911112 0.06971765 0.089413315
0000c0 6a b1 a4 3d 44 3b 27 bd 86 54 3e bd 20 43 6f 3d
       0.080416515 -0.040828004 -0.046467327 0.058413625
0000d0 12 8b 39 bd c7 10 df bc 2f fc 66 3d 40 3c a6 3c
       -0.045298643 -0.02722968 0.056392845 0.020292401
0000e0 f9 c1 a5 bb 63 f1 0c 3d d9 38 0e 3d 2d 73 ae bd
       -0.0050585237 0.03440989 0.034722183 -0.08518062
0000f0 c9 8a 81 3d 57 ec 00 3d 4e f4 47 3d 98 b4 ac bb
       0.06325299 0.03147539 0.04881697 -0.005270552
000100 39 ab f7 3b ab f6 ac bb 70 93 0f bc 6c 6c a7 3d
       0.007558253 -0.0052784286 -0.008763179 0.08174977
000110 2b 17 70 bd ed e4 43 bd 29 06 9b bd 9e c5 e0 bb
       -0.058615845 -0.047825743 -0.07569534 -0.0068594953
000120 05 e2 8d bd ef 7f 89 3d 23 6f 0e bd 6b 97 92 3d
       -0.069278754 0.067138545 -0.034773957 0.07157787
000130 ce 0a a4 3d 9e 54 69 bd 4c 18 9d bd 8e bc da bc
       0.08009873 -0.056965463 -0.0767065 -0.026701238
000140 42 5c 4a bd 56 04 26 3d 44 c8 6f 3d fd 71 b3 bb
       -0.04940439 0.04053148 0.058540598 -0.005476235
000150 4c c6 9b bd df d1 0d 3d ac 0d a2 3d f0 c8 c0 3c
       -0.076061815 0.034623977 0.07912764 0.023533314
000160 76 6e e4 bc 5c f1 88 bd b2 96 7e bd 1d 1a 2c 3d
       -0.027884703 -0.06686661 -0.062155433 0.04201709
000170 96 5b 44 3d 9f e7 80 3d 82 ad b3 3d aa b5 2b bc
       0.047938906 0.06294178 0.08773328 -0.010480324
000180 bf 72 0e bb 6e a8 a6 3c e7 6a 06 bd bf 91 9b bc
       -0.0021735874 0.020343985 -0.032816794 -0.018990396
000190 8d 94 5e bc cf 7d c4 3c f8 40 6e bd 40 26 a4 bd
       -0.013585222 0.023985771 -0.058167428 -0.08015108
0001a0 53 ba b4 bd c3 13 7f bb f8 4d ac 3c 28 9f 70 3d
       -0.08824601 -0.003892169 0.021033272 0.058745533
0001b0 50 62 5b bd c9 28 76 bc 38 f9 6a 3d 86 54 dc 3c
       -0.053560555 -0.015024372 0.05736658 0.026895773
0001c0 a9 0b 2e bd e4 08 92 bd 8a 2d 72 bd db 82 a5 bc
       -0.04249159 -0.07130602 -0.05912546 -0.020203998
0001d0 c8 1d c3 3c 24 7f 8a 3d 03 d2 00 3d c6 f1 88 3d
       0.023817912 0.067625314 0.031450283 0.066867396
0001e0 b1 5b 15 bd db bf 61 3b 0f ad d3 bc 1f 56 9e 3d
       -0.036464397 0.003444663 -0.025839357 0.0773127
0001f0 da a9 55 bc 05 b3 47 3d 72 9a 1d 3d fd 90 2b bc
       -0.013040984 0.04875471 0.03847737 -0.01047158
000200 a1 fc f8 3c c1 4f 00 bd 4d 79 ab 3c 1c 27 8c 3d
       0.0303939 -0.03132606 0.020931864 0.06843397
000210 e0 16 6b 3a e2 22 87 3d 43 ef 99 bd a3 85 ac 3a
       0.0008967947 0.0659845 -0.07516339 0.0013162385
000220 d4 58 0c 3d d4 4c d5 3c 08 4f cf 3d ce ed 59 bd
       0.0342644 0.026037611 0.10122496 -0.053205304
000230 33 1a 4d bd 43 c1 b4 bc 62 dc 75 3c bc 31 7e bd
       -0.050073814 -0.02206481 0.015006157 -0.06205915
000240 bf c0 36 bc f6 5e 90 bd c3 ae aa bd 0f 63 d7 bc
       -0.011154353 -0.07049362 -0.083341144 -0.026292352
000250 b0 b1 df 3c 39 59 94 3d 52 18 8c bd 27 4f a8 bd
       0.027306408 0.0724358 -0.06840576 -0.08218222
000260 08 49 4c 3c 42 d8 95 3d e7 a2 7e 3c 65 fc a1 3d
       0.012468584 0.073166385 0.015541769 0.079094686
000270 14 b4 56 3d 46 4f 0c bb 4c c1 94 bd c2 cd b3 3c
       0.05241783 -0.0021409555 -0.07263431 0.021948699
000280 2b d1 a1 3d dd 5b 90 bd d4 19 a2 3d 80 68 7c 3c
       0.07901224 -0.070487715 0.079150826 0.015405774
000290 c6 a2 4b bc 47 88 27 3d 48 35 a3 bc 0b a5 6c bd
       -0.012428945 0.04090145 -0.019922867 -0.057774585
0002a0 00 10 3a 3d e0 4b 53 3d bf fc 94 bb cd ad 25 bd
       0.045425415 0.051586032 -0.0045467312 -0.040448952
0002b0 2e 01 49 bd 26 5d 4e bd 82 06 a7 bd 2f 6b 16 bd
       -0.04907339 -0.050381802 -0.08155538 -0.036723312
0002c0 1a b3 7a bd 68 b2 16 bc ad 27 38 3d ad ac 7e bd
       -0.06120596 -0.009197809 0.044959713 -0.062176395
0002d0 db e8 b3 3c d7 de d4 bb 43 c6 0f bd 31 bd 8d bd
       0.02196162 -0.006496291 -0.035101186 -0.06920851
0002e0 07 96 2d bd 52 a9 a2 bb 8e 60 67 3d f7 00 80 bd
       -0.042379405 -0.004964032 0.056488566 -0.06250184
0002f0 84 e0 66 3c 38 1b b7 bd bb 08 b5 3d 70 d4 80 3d
       0.014091615 -0.089407384 0.08839556 0.06290519
000300 2c b2 37 3c 5e 62 51 bd 76 6f 74 3c 04 a3 b6 3d
       0.011211913 -0.0511192 0.0149191525 0.089178115
000310 1d 16 16 bc 35 82 bf 3b 81 3d e4 3b 2e bf bc bc
       -0.009160546 0.0058443793 0.0069653396 -0.02304038
000320 91 cf 0d bd 21 57 c8 3c 63 4e 72 3d aa 20 8b bc
       -0.03462178 0.024455609 0.059156787 -0.016983349
000330 ee 55 e8 bc 78 e8 bb bd 43 6c 54 bd 47 dd 22 bd
       -0.028361287 -0.09175199 -0.05186106 -0.039761808
000340 2c 64 10 bd b3 b3 81 bd b2 df 55 bd 5e cf 3c bd
       -0.03525178 -0.06333103 -0.052215286 -0.0460962
000350 92 74 11 3d 00 30 1c 3d 7e 14 b3 bd 18 be 92 3d
       0.03551156 0.038131714 -0.08744143 0.07165164
000360 82 68 be bc fa 65 aa 3d 3f 0d 1b 3d 1c 47 2b 3d
       -0.023243193 0.08320232 0.03785443 0.041815862
000370 bd 2f 8b 3d 17 5c ca bb fe 0b 29 3c 9f 44 95 bd
       0.06796215 -0.0061755287 0.010317801 -0.07288479
000380 e3 6b fc bc ca d3 d5 3c eb 86 54 3d 21 af 6e 3c
       -0.030813163 0.026101965 0.05188648 0.014568121
000390 90 b7 98 bd e3 9f 5e bd ae 8e 92 bc 39 83 a8 3c
       -0.07456887 -0.0543517 -0.0178903 0.020570384
0003a0 f0 c5 84 3c 1c fa bc 3c f7 5f a0 bd 8f a4 53 3d
       0.016207665 0.02306848 -0.07830804 0.051670607
0003b0 3b db c9 bd 35 de 1c bd 4a c2 b6 3c ea e9 8d bd
       -0.09856268 -0.03829785 0.022309441 -0.06929381
0003c0 82 3d 50 bd 8a f8 a9 3d 35 74 8f bd e0 5c 03 3d
       -0.05083991 0.08299358 -0.070045866 0.032070994
0003d0 86 2b 96 bd 04 1d 95 bd 51 d1 8b bc 89 77 b0 3d
       -0.0733252 -0.07280925 -0.017067583 0.086165495
0003e0 b4 49 91 bd 4a 95 4e 3d 07 f0 dd bc a3 92 29 3d
       -0.07094136 0.050435342 -0.027091993 0.04139961
0003f0 9c c6 22 3d e8 46 bf 3c 02 62 99 3d 28 ee ec 3c
       0.03974019 0.02334924 0.07489397 0.028922155

bn2.weight f4 [128]
000000 49 10 80 3f 90 02 7f 3f 18 08 80 3f 6a f5 7d 3f
       1.000497 0.99613285 1.000247 0.992026
000010 13 bd 7f 3f c8 9e 7e 3f 36 79 7f 3f d5 1a 7e 3f
       0.9989788 0.9946103 0.9979433 0.9925969
000020 00 b7 7f 3f 7a 85 7e 3f b3 12 80 3f 21 8a 7f 3f
       0.9988861 0.9942242 1.0005707 0.99820143
000030 6f 41 7f 3f a6 54 7e 3f e9 db 7e 3f 03 c6 7f 3f
       0.9970922 0.99347913 0.99554306 0.99911517
000040 4a c1 7f 3f 8d e0 7e 3f a0 67 7f 3f 68 a6 7e 3f
       0.9990431 0.9956139 0.99767494 0.99472666
000050 6e 0f 80 3f 00 f5 7f 3f d7 a4 7f 3f 81 d5 7f 3f
       1.0004709 0.99983215 0.998609 0.99935156
000060 6a 97 7f 3f 79 7c 7f 3f 5c e5 7e 3f e1 76 7f 3f
       0.99840415 0.99799305 0.99568725 0.9979077
000070 da 89 7f 3f a8 24 80 3f 5e 23 80 3f e6 8b 7f 3f
       0.9981972 1.0011187 1.0010793 0.99822843
000080 08 e6 7e 3f 27 16 7d 3f 99 23 7f 3f 7a c4 7f 3f
       0.9956975 0.98861927 0.9966369 0.99909174
000090 b8 1d 7f 3f 87 09 80 3f a5 d1 7e 3f d8 39 7f 3f
       0.9965472 1.0002908 0.9953864 0.9969764
0000a0 6e b6 7f 3f a5 32 7f 3f 4f 90 7f 3f 4d 01 80 3f
       0.9988774 0.9968665 0.9982957 1.0000397
0000b0 d4 01 7f 3f 63 0d 80 3f c3 02 80 3f f4 f6 7d 3f
       0.99612164 1.0004085 1.0000843 0.99204946
0000c0 12 0c 80 3f 5e 05 80 3f 26 9e 7f 3f 51 8a 7e 3f
       1.0003684 1.0001638 0.9985069 0.99429804
0000d0 04 91 7f 3f 12 f7 7f 3f 4d ac 7e 3f bd f0 7d 3f
       0.9983065 0.99986374 0.9948166 0.9919546
0000e0 60 9e 7f 3f 54 cf 7d 3f 0e 6d 7e 3f 71 61 7e 3f
       0.99851036 0.9914448 0.99385154 0.99367434
0000f0 7d 13 80 3f 60 14 80 3f d8 44 7f 3f 9b 5f 7e 3f
       1.0005947 1.0006218 0.9971442 0.9936463
000100 f3 9e 7f 3f d9 66 7f 3f a3 e5 7f 3f 40 81 7f 3f
       0.9985191 0.9976631 0.9995977 0.99806595
000110 56 8f 7f 3f d7 fa 7e 3f 38 47 7f 3f c1 14 80 3f
       0.9982809 0.996015 0.99718046 1.0006334
000120 54 fb 7f 3f 2f c9 7e 3f b6 44 7f 3f 72 36 7f 3f
       0.9999287 0.9952573 0.9971422 0.9969245
000130 1b 37 80 3f 98 f7 7e 3f 4e 01 7f 3f 0e ad 7d 3f
       1.0016817 0.9959655 0.99611366 0.99092185
000140 aa 09 7f 3f 1a a2 7e 3f dd 28 80 3f e1 25 80 3f
       0.9962412 0.994661 1.001247 1.001156
000150 bb 6e 7f 3f 9d d6 7f 3f 37 a2 7f 3f 4a 19 80 3f
       0.99778336 0.9993685 0.99856895 1.0007718
000160 8d 3e 7f 3f 68 09 80 3f 77 f7 7f 3f 86 40 7f 3f
       0.9970482 1.000287 0.99986976 0.9970783
000170 fe f7 7f 3f 80 11 7f 3f d8 9b 7f 3f 98 05 7f 3f
       0.9998778 0.9963608 0.99847174 0.9961791
000180 8c 27 80 3f 39 51 7f 3f f9 6d 7f 3f 56 f9 7f 3f
       1.0012069 0.9973331 0.9977718 0.9998983
000190 3e 7a 7e 3f 46 21 7e 3f aa a1 7f 3f 5a e9 7f 3f
       0.99405277 0.9926952 0.99856055 0.9996544
0001a0 04 ec 7f 3f b3 c0 7f 3f 07 77 7f 3f 2e 2a 80 3f
       0.99969506 0.9990341 0.99790996 1.0012872
0001b0 ce fb 7f 3f 30 06 80 3f 52 d6 7f 3f ff 47 7e 3f
       0.999936 1.0001888 0.999364 0.9932861
0001c0 fd 92 7f 3f 0e b4 7f 3f 09 9d 7e 3f a0 fa 7f 3f
       0.9983366 0.99884117 0.99458367 0.999918
0001d0 95 05 80 3f 72 79 7f 3f 10 04 7f 3f 88 e0 7f 3f
       1.0001704 0.99794686 0.99615574 0.9995198
0001e0 d7 fc 7d 3f b5 6b 7f 3f 10 ad 7f 3f 5b 98 7d 3f
       0.9921393 0.9977372 0.9987345 0.990606
0001f0 43 eb 7f 3f 0f 0c 80 3f 98 25 80 3f 0c 75 7c 3f
       0.99968356 1.000368 1.0011473 0.986161

bn2.bias f4 [128]
000000 93 2e a7 3a b2 b5 8c bc 0b cb 31 bb 0a 38 a9 3c
       0.0012754969 -0.017176483 -0.002712908 0.020656604
000010 a4 bb 73 3b 5c 17 7c 3c 37 4a 9b bb c7 2b 88 bc
       0.00371907 0.015386429 -0.0047390717 -0.016622437
000020 cb 9b c5 bb a4 4e 81 3c e0 ef 52 3b 9d 04 2b 3c
       -0.006030535 0.01578457 0.0032186434 0.010438112
000030 6a 5e 4b 3c 47 15 95 3c 65 5a 42 3c ef f0 05 bc
       0.012412647 0.018198622 0.011862372 -0.008175119
000040 f7 2d c9 bb 75 9c 7e 3c 62 71 c9 bb bc 50 8d bc
       -0.0061395126 0.015540232 -0.0061475495 -0.017250411
000050 de d2 8a 3b 07 8f dc bb 9f 30 c9 bb b8 d0 1e bb
       0.004236563 -0.0067309174 -0.0061398293 -0.0024233293
000060 31 fd f1 3b b8 7e cf bb 17 fa 4d bc 30 7d 0c bc
       0.007384919 -0.0063322447 -0.012571833 -0.008574769
000070 06 80 82 bb 76 b3 69 3a d6 25 4f 3b cc f9 9f bb
       -0.0039825467 0.00089149864 0.0031608245 -0.004882073
000080 dd 76 6f 3c a1 37 82 3c 45 bf 6c 3c d2 0e b2 bb
       0.014615742 0.015895667 0.014449899 -0.0054338956
000090 a9 ef 45 3c 31 2c 56 bb 76 98 87 3c 84 98 04 3c
       0.012081065 -0.0032680149 0.016552191 0.008093003
0000a0 d7 c0 f8 3b d1 fb 3c bc 30 dc bb 3b b2 f3 96 ba
       0.0075913477 -0.011534647 0.0057330355 -0.0011516719
0000b0 05 1e 4b 3c b8 75 ed 3a f4 d8 fc b9 6b 06 3e 3c
       0.012397294 0.0018116748 -0.00048226828 0.01159821
0000c0 5d 06 ab ba 2e a2 86 3a 45 34 e4 3a c8 03 53 bc
       -0.0013048161 0.0010271722 0.0017410597 -0.0128793195
0000d0 8e b5 58 3b 6f 89 ce bb 86 a5 41 bc ec 72 96 bc
       0.00330672 -0.0063030045 -0.011819249 -0.018365346
0000e0 eb 32 ea 3b 28 86 6e 3c 27 35 96 3c c5 f1 af 3c
       0.007147183 0.0145583525 0.018335892 0.02147759
0000f0 9d 94 10 3b ba b5 2a bc ee 83 31 bc a0 10 8f 3c
       0.0022061237 -0.010419304 -0.010834677 0.017463982
000100 24 2a 43 bc 1e 24 70 bc b2 e7 aa ba 80 7a c2 bb
       -0.011911903 -0.0146570485 -0.0013039021 -0.0059350133
000110 6c 45 62 bc 17 6f 04 bc f3 42 1f bc 87 ff d7 ba
       -0.013810497 -0.0080831265 -0.009720552 -0.0016479351
000120 12 12 43 bb 1e 25 bb 3b 9a b0 58 bb 64 06 36 3c
       -0.002976541 0.005711212 -0.0033064247 0.011109922
000130 a2 c5 80 ba 66 e4 93 bc d0 41 2e 3c 25 97 8f bc
       -0.0009824524 -0.018053245 0.010635808 -0.017528126
000140 f6 87 15 bc 9c bb 94 3c 05 b3 cf ba 03 f1 c7 bb
       -0.009126654 0.018155865 -0.0015846199 -0.006101729
000150 16 4b 67 bc 2a 2b 13 bb 21 6c 71 bb 34 01 d9 3b
       -0.014117023 -0.0022456148 -0.0036838131 0.006622458
000160 65 22 4c bc f9 8c 1c bc 9f 9b 94 3b d7 59 3c bc
       -0.012459372 -0.009555095 0.004535153 -0.011496029
000170 f1 fd 89 3b bc dd 87 3c 47 c9 5b 3b 7b 4a 23 3c
       0.0042111804 0.016585223 0.0033536719 0.009966488
000180 18 44 2a ba 4f 61 95 3b a2 70 1c 3c cc c3 72 3b
       -0.0006495132 0.004558719 0.009548338 0.0037042974
000190 bd 32 45 3c 67 02 83 bc da 06 0c bc 12 40 6f bb
       0.012036023 -0.015992356 -0.008546555 -0.0036506695
0001a0 0a ac e1 3b 74 c7 1e 3b e1 26 0d bc 52 7e 80 3a
       0.0068869637 0.002422777 -0.0086152265 0.0009803271
0001b0 b5 95 74 bb 4e 3e 33 3a 61 7c 9d ba 2b e3 73 bc
       -0.0037320678 0.0006837592 -0.0012015217 -0.014885704
0001c0 da 29 6c 3b d5 39 5b bb ba 7d d2 bb bb 6b e0 3b
       0.0036035688 -0.0033451219 -0.006423679 0.00684878
0001d0 c5 ad 11 3a 29 88 c0 3b e4 19 01 3c 7c fc 0b 39
       0.0005557205 0.0058756066 0.007879708 0.00013350131
0001e0 8f f5 90 bc 0b bd af bb fc e8 7f 3b 4d 76 a2 bc
       -0.017695216 -0.005363112 0.0039048782 -0.0198318
0001f0 66 27 0c 3b 60 d6 2d 3b 4b 88 77 ba c4 f7 fb bc
       0.0021385788 0.0026525483 -0.00094426115 -0.030757792

bn2.running_mean f4 [128]
000000 c0 56 cc 3c d6 8c 4c bc 94 d0 18 bd 2f a2 50 3d
       0.02494371 -0.01248475 -0.03730829 0.05093592
000010 c8 28 4b bc f3 31 40 3d 11 a0 63 bc 9c 2b 32 bd
       -0.01239986 0.046922635 -0.013893143 -0.04349862
000020 db 18 5a 3c e3 61 71 3c df 36 fd bb 26 cf 44 3d
       0.01331159 0.014732811 -0.0077274884 0.048049115
000030 ec ff 28 bb 30 a2 12 3d 5d 50 4b 3d 27 fd d7 3b
       -0.0025787307 0.035799205 0.049637187 0.0065914574
000040 fc 2a 13 bd 79 16 82 3c 35 1f a5 bc 0e 5f 34 bd
       -0.035929665 0.015879856 -0.020156482 -0.044035964
000050 de 55 8a bc 10 2d f1 b8 a5 40 67 bd 26 c3 ee bc
       -0.016886648 -0.00011500169 -0.056458134 -0.029145788
000060 4c 9f 9b 3c 62 86 68 bc 3c 76 98 bc 32 d0 6b bc
       0.018996857 -0.014192196 -0.018611066 -0.014392899
000070 3e e2 2d bc 66 02 16 3c 7e d9 4e 3c 79 18 63 bd
       -0.010613022 0.009155845 0.012625096 -0.05544326
000080 05 83 25 3d 69 75 c6 bb c6 8f 8a bc d1 3d 73 3c
       0.040408153 -0.006056477 -0.01691426 0.014846281
000090 26 99 81 3d 3a 6b 52 3c fa 02 93 3d c7 e2 34 3c
       0.06328039 0.012842948 0.07178302 0.011040396
0000a0 ea a5 1f 3c 20 8a aa bc 76 d7 e9 3c b2 73 21 bc
       0.009744147 -0.020817816 0.028545123 -0.009854244
0000b0 4d 8e f8 3c dd de 5d 3d d4 74 77 bc f0 c5 b3 3b
       0.030341292 0.054167617 -0.015103538 0.0054862425
0000c0 a3 10 ad 3c a5 7a 15 bd 14 b3 38 3c f7 7c 4a 3c
       0.021126097 -0.036493916 0.011273164 0.0123588955
0000d0 c2 20 65 3d 48 d4 5a bd 97 f5 5b 3c 55 e1 8d bc
       0.055939443 -0.053425103 0.013425252 -0.01731936
0000e0 90 eb ea ba 48 b1 12 3c 99 11 89 3b e0 f2 b0 3c
       -0.0017922986 0.0089534 0.004183006 0.021600187
0000f0 9d 12 ee 3c 6b 53 34 3c dd 51 b9 bb 4d 54 85 3d
       0.02906161 0.0110062165 -0.005655511 0.0651022
000100 90 6a 8e bd 35 5c 4e bd be 2d f5 bc 0b d4 10 bc
       -0.06953919 -0.050380904 -0.029929038 -0.0088396175
000110 80 c8 db bc 5e 19 27 bd 08 f2 89 bc db af f1 bc
       -0.026829004 -0.040795676 -0.016839042 -0.0295028
000120 5e 00 e8 3a bf bf d7 bc 77 88 07 bd 3b a3 61 3d
       0.0017700305 -0.026336549 -0.033089127 0.05508731
000130 ef 23 86 3d e0 67 6a bd da 4e b4 3c 4e 91 ea bb
       0.065498225 -0.05722797 0.022010256 -0.007158435
000140 af b5 2c bd 0c ca 75 3c e4 6d 3a bc 35 b0 af bc
       -0.042165454 0.015001785 -0.011378739 -0.021446327
000150 18 ab 34 bd f5 ec 69 3c 32 a3 59 bc 9c df 54 bc
       -0.04410848 0.014277686 -0.013283538 -0.012992766
000160 5c 44 12 bd dd b2 87 3c 44 74 2e 3d 7e 6c 82 bc
       -0.035709724 0.01656478 0.04259135 -0.015920874
000170 64 0a ca 3c 81 c9 87 3d 6b 39 be bc e6 28 3b 3d
       0.024663158 0.06630231 -0.023220738 0.0456933
000180 59 e4 87 bd ac 0e 85 3c 32 da 20 bc 22 e5 00 bc
       -0.06635351 0.016242348 -0.009817647 -0.0078671295
000190 10 35 cc 3c ee b7 38 bd a5 7d b6 bc 81 37 f0 bc
       0.024927646 -0.045097284 -0.022276709 -0.029323341
0001a0 28 ad 51 3d 8d 5e b5 bb 48 d6 6f bc 76 83 75 3c
       0.051190525 -0.005534953 -0.014638491 0.014984956
0001b0 f8 c8 88 bb 50 47 4d 3c c4 7f 87 bc 34 fa b0 bc
       -0.004174348 0.012529209 -0.016540416 -0.021603681
0001c0 3f 82 17 bc 2d 49 80 bd b4 b3 ae bb b3 53 01 3d
       -0.009247362 -0.06263957 -0.005331481 0.031573962
0001d0 d4 e7 a9 3c 34 9f 4b 3c b6 33 a4 3c 2d cb 19 bd
       0.020740427 0.012428094 0.020044189 -0.03754728
0001e0 72 13 de bc d5 90 af 3b 99 bd 08 3c 28 e1 e8 bc
       -0.027108882 0.0053578415 0.008345985 -0.028427675
0001f0 fe c5 0b 3d f8 a7 31 39 2d 68 2d bc f1 ab 2f bd
       0.034124367 0.00016942609 -0.0105839195 -0.042888585

bn2.running_var f4 [128]
000000 da 0e 39 3e 0b 9b 5c 3e a4 7b 79 3e a8 1e 54 3e
       0.18072072 0.21543519 0.24363571 0.2071482
000010 f2 90 38 3e 23 b3 8a 3e 2a 81 16 3e 2a 3a 7f 3e
       0.18024042 0.27089795 0.1469771 0.24924532
000020 9f 90 4c 3e 19 45 2f 3e 38 8f 21 3e 5b e0 3e 3e
       0.19977044 0.17116202 0.1577729 0.18640272
000030 2f 83 18 3e 81 e8 43 3e 76 e9 61 3e ce 26 1d 3e
       0.14893793 0.19131662 0.22061715 0.15346834
000040 56 57 18 3e d8 6e 35 3e 47 5b 2e 3e 92 dd 55 3e
       0.14877066 0.17718065 0.17027007 0.20885304
000050 5f 46 41 3e 44 a6 24 3e 70 4f 46 3e 41 cb 39 3e
       0.188745 0.1607905 0.1936624 0.18143941
000060 d8 c2 2b 3e b5 6d 70 3e e7 90 35 3e 10 e3 4b 3e
       0.16773546 0.2347935 0.17731057 0.19910836
000070 04 ac 5b 3e 04 8d 44 3e 04 f7 28 3e 07 b4 7d 3e
       0.21452338 0.19194418 0.16500479 0.24775706
000080 95 d3 56 3e 94 90 60 3e ff fd 3d 3e 78 d8 4b 3e
       0.2097915 0.21930152 0.18553923 0.19906795
000090 5c 3c 59 3e b9 df 23 3e 73 da 65 3e f1 e2 5d 3e
       0.21214432 0.16003312 0.22446613 0.21668603
0000a0 77 c7 12 3e dd bc 28 3e a2 34 8b 3e 08 2d 20 3e
       0.14333902 0.16478296 0.27188593 0.15642178
0000b0 34 83 5e 3e a8 1b 7e 3e 5a 70 59 3e 79 5f 1a 3e
       0.21729738 0.24815238 0.21234265 0.15075482
0000c0 fe a4 6f 3e 0b 9b 66 3e f3 78 3b 3e 5a c2 1b 3e
       0.23402783 0.22520082 0.18307857 0.15210858
0000d0 48 0b 7c 3e 26 c7 91 3e 7a 32 18 3e fd 2c 46 3e
       0.24613678 0.2847225 0.14863005 0.19353099
0000e0 58 6f 6e 3e 83 1d 3c 3e 5f d1 46 3e 56 a1 25 3e
       0.23284662 0.18370633 0.19415806 0.16174826
0000f0 c5 cd 45 3e 3d 60 61 3e e2 57 24 3e 59 d0 20 3e
       0.19316776 0.22009368 0.1604915 0.15704478
000100 8a cd 85 3e be df 84 3e 27 96 25 3e d3 f2 6c 3e
       0.26133376 0.25951952 0.1617056 0.23139505
000110 8b c4 62 3e c7 35 60 3e b6 2e 43 3e a7 44 60 3e
       0.22145288 0.21895514 0.19060788 0.21901189
000120 4a 13 3f 3e 1b 63 47 3e 7e 62 35 3e 76 e9 98 3e
       0.18659702 0.194714 0.17713353 0.29865617
000130 6e ff 9b 3e 41 29 7a 3e 1b 60 35 3e d2 f6 3b 3e
       0.30468315 0.244298 0.17712443 0.18355873
000140 0a 7c 84 3e fd 12 35 3e ff 6f 3e 3e c5 2f 56 3e
       0.25875884 0.17683025 0.1859741 0.2091666
000150 52 2f 4a 3e 42 31 65 3e d9 77 50 3e d1 57 59 3e
       0.19744614 0.22382072 0.20358218 0.21224906
000160 24 f9 51 3e ea 75 71 3e 62 a5 6d 3e 60 74 46 3e
       0.20505196 0.23580137 0.2320762 0.19380331
000170 38 dc 5d 3e 2d e1 65 3e 99 27 2e 3e 87 40 82 3e
       0.21666038 0.22449179 0.17007293 0.25439855
000180 da 0d 51 3e f0 63 7a 3e f8 f0 55 3e 40 2a 33 3e
       0.2041544 0.24452186 0.20892704 0.17496586
000190 46 f7 28 3e c1 37 60 3e 36 c2 53 3e 87 b5 50 3e
       0.16500577 0.21896268 0.20679554 0.20381747
0001a0 6e 6b 90 3e 00 28 1b 3e 13 7c 43 3e 4b e0 54 3e
       0.28206962 0.15151978 0.190903 0.20788686
0001b0 6e d5 41 3e f6 ba 11 3e 36 67 21 3e 56 e7 4d 3e
       0.18929073 0.14231476 0.15762028 0.20107779
0001c0 7d ef 47 3e 76 f4 43 3e f4 d8 5d 3e a7 f9 2a 3e
       0.19524951 0.19136223 0.21664792 0.16696797
0001d0 55 a3 38 3e 82 2d 19 3e ff 64 28 3e 12 ae 63 3e
       0.18031056 0.14958766 0.16444777 0.22234371
0001e0 f2 44 59 3e e2 69 20 3e 84 a3 46 3e 00 20 4d 3e
       0.21217707 0.15665391 0.19398314 0.20031738
0001f0 ca a6 8d 3e 09 0b 73 3e e5 e2 70 3e 87 0a 6c 3e
       0.27666312 0.23734678 0.23524053 0.23050891

hidden3.weight f4 [16, 128]
000000 05 0d 99 bd a0 38 7f bd 1f 45 10 bd ef 95 51 bd
       -0.074731864 -0.06230986 -0.03522217 -0.05116838
000010 00 83 83 3d d8 56 54 bd af 37 02 bd 67 b8 7a 3d
       0.06421471 -0.051840633 -0.031791385 0.061211016
000020 eb 0e 84 bd 3d 14 4c 3d 29 83 c1 bd d1 25 82 bd
       -0.06448158 0.04982399 -0.09448845 -0.06354869
000030 57 1e 8c bd 35 47 28 bd e9 d3 4a 3d 7b 09 da 3c
       -0.06841724 -0.041083533 0.0495185 0.026615849
000040 70 e8 10 bb 5d 0e 8e 3d 53 81 92 bd c6 56 ca bc
       -0.00221112 0.06936333 -0.07153573 -0.02469958
000050 30 50 35 3d c6 be 03 3d 06 d7 1c bd b3 66 7b 3d
       0.044265926 0.032164358 -0.038291 0.06137724
000060 9f 29 8e bd 13 31 86 3d 24 1b 86 3d 82 3b 79 3d
       -0.06941532 0.06552329 0.065481454 0.060847767
000070 aa f5 54 3d c8 0f 14 bd 50 19 14 bd 5e 76 80 bd
       0.051992096 -0.036147863 -0.036156952 -0.06272577
000080 65 04 65 3c 13 e5 90 3c c5 f1 07 3c a7 2f 16 bd
       0.0139780985 0.017687356 0.008297388 -0.03666654
000090 af 71 f3 bc 98 4e ee 3b 6d 0f bd 3a 0e c5 ab 3d
       -0.029717294 0.0072725527 0.0014424153 0.083871946
0000a0 1f 96 53 bb ef a0 92 3b 8b a0 b2 bd de 72 ce 3c
       -0.0032285524 0.004474751 -0.087220274 0.025201257
0000b0 1a 2b 73 3a 20 95 b2 bc f5 7a 5e 3d 99 48 cb bc
       0.0009276137 -0.021799624 0.05431648 -0.02481489
0000c0 ee a8 1d bc a2 a7 8d 3b ab 05 75 3d db 31 01 3c
       -0.0096227955 0.004322962 0.05981986 0.007885422
0000d0 d0 9f 4b 3d b2 6b a3 3d c4 f8 48 3c 33 90 d5 3c
       0.049712956 0.079795256 0.012266342 0.026069736
0000e0 c7 b2 97 bd d6 9e 23 bd 7b cd 97 bd 9b c2 ff 3b
       -0.07407146 -0.0399464 -0.07412239 0.007805181
0000f0 05 8c 03 bd df 7c 09 bc e9 68 76 bd e0 95 7d 3c
       -0.032115955 -0.008391588 -0.060158644 0.0154776275
000100 55 07 0c 3d 88 63 87 bd bf 96 7c 3d 40 c4 75 bd
       0.03418668 -0.06610781 0.0616672 -0.06000161
000110 c2 a5 72 bd 31 ce 95 3d 0a e9 69 3c 75 74 81 bd
       -0.05924011 0.073147185 0.014276752 -0.063210405
000120 1d 69 9b 3d d4 57 4d bc 4f cd 4f bd ca bc 6a 3d
       0.07588408 -0.012533147 -0.050732907 0.05730895
000130 56 fe b8 bd eb a6 37 bc 76 69 fc bc f0 ab b9 3b
       -0.09032886 -0.01120923 -0.030812006 0.0056662485
000140 6a 0f 3d 3d d0 2d 87 bd 07 2d 31 3d 8e 80 22 bc
       0.046157278 -0.06600535 0.043255832 -0.009918345
000150 bf 3d 52 bd 38 94 89 3d 04 da a5 bd 4e b7 33 bc
       -0.051328417 0.067177236 -0.08098224 -0.010968996
000160 84 6b 1e 3d 61 3a 0e bd 02 e1 af bd d1 a9 0c 3d
       0.038676754 -0.034723643 -0.08587839 0.034341637
000170 66 b7 3e 3b b6 03 3e 3d 68 2e 73 3c 03 d5 89 bd
       0.0029101013 0.046390258 0.014842607 -0.06730082
000180 80 81 98 3d 2d 11 ec bc d3 f0 91 bd 1a 2f a0 bd
       0.07446575 -0.028816784 -0.07126012 -0.07821484
000190 fa 23 23 bd 1e 01 92 bd d2 94 69 bd f8 d3 78 3d
       -0.03982923 -0.07129119 -0.05702669 0.060749024
0001a0 9d 90 ed 3c 48 e3 ed 3c a5 c8 68 3b c6 7f 82 3d
       0.028999621 0.02903904 0.0035519984 0.06372027
0001b0 02 36 02 bd d0 db a1 bd 21 d5 12 bc 62 98 1c 3b
       -0.031789787 -0.07903254 -0.008961947 0.0023894538
0001c0 37 91 3a bd 78 9f 43 bd c3 3a 6c 3c 78 4e 45 bd
       -0.045548644 -0.047759503 0.014418307 -0.048170537
0001d0 de d7 7d 3b 02 a1 26 3c 6a 00 8e bd 23 20 c3 3d
       0.0038733403 0.010170223 -0.06933673 0.09527614
0001e0 82 63 49 3d ab eb 24 3d 17 09 9b bd 82 ea b7 ba
       0.049167164 0.040263813 -0.07570093 -0.0014031681
0001f0 c7 0e 33 bd b7 6b 47 bd 94 c4 14 3c 45 0c 14 3d
       -0.043715265 -0.04868671 0.009080071 0.036144514
000200 d5 e4 15 3d 3e 08 86 bb 0c 00 8d 3d 83 92 ad bd
       0.036595184 -0.004090338 0.068847746 -0.084752105
000210 13 f3 08 bd ea 2f 65 bd e3 47 5f 3d ba 5a ef bb
       -0.03343494 -0.055953898 0.054511916 -0.0073045166
000220 13 e8 1f 3d 48 09 a6 bc dd 51 05 bd c8 2e 6b 3d
       0.039039683 -0.020268098 -0.032548774 0.05741766
000230 24 66 d6 bd 65 0e f9 bc 84 2f 13 bd 8b ef 21 3c
       -0.104687005 -0.030402372 -0.035933986 0.009883772
000240 ea 26 82 3c 5a 2a 75 bb 0f 3c a1 3a c4 14 2c bd
       0.015887696 -0.0037409277 0.0012301224 -0.04201199
000250 e2 7e 3a bd c4 5c 16 3d b1 ba 41 3d ed 30 ff bc
       -0.04553116 0.036709562 0.047297183 -0.03115126
000260 0f 20 a8 bd be 42 9a 3d db 09 60 3d 72 d7 40 3c
       -0.0820924 0.07532261 0.0546969 0.011770116
000270 bc 4f 06 b9 a8 b4 d7 bb 08 8d 0c 3d c7 51 af bd
       -0.00012808939 -0.006582815 0.034314185 -0.0856052
000280 58 81 ad bd d6 9b 9f bd 5d 33 f9 bd 4e ff 9a 3d
       -0.08471936 -0.07793395 -0.12168 0.07568227
000290 df 7c 75 bd 46 ae 28 bb 92 65 40 3d 3e 1f 6b bd
       -0.05993354 -0.002573864 0.046971865 -0.05740284
0002a0 10 06 f8 bb ba e6 92 bd ed 9e 76 3c 54 71 ad bb
       -0.007569082 -0.07172914 0.015052539 -0.005293051
0002b0 39 fd 96 3d 3b 4d 85 3d 82 b2 11 bd af 2e aa bd
       0.07372517 0.06508871 -0.03557063 -0.083096854
0002c0 89 ec d7 3d bc 1a 59 bd 9c 00 b4 bd 79 bd 5e 3d
       0.105431624 -0.05300401 -0.08789179 0.054379914
0002d0 b0 35 3c bc 25 9a ab 3c 82 29 f7 3c e1 18 62 bc
       -0.0114874095 0.020947525 0.03017116 -0.013799877
0002e0 99 5b 2b bc c6 4e 1d 3d ad 6d ab 3d e6 b4 c0 bc
       -0.01045885 0.038405202 0.08370528 -0.02352376
0002f0 d3 69 41 bd 2d e5 16 3c 57 29 f9 3d 3d 96 8f bd
       -0.047220062 0.009209913 0.12166088 -0.070110776
000300 99 c5 59 bd de 49 8e 3d 4b 8b 8b bd e5 2e 27 3d
       -0.05316696 0.06947683 -0.068136774 0.040816206
000310 b1 7e 61 3d 0a d8 05 bd f0 24 2d bd 1c bf f3 3c
       0.055052463 -0.032676734 -0.042271554 0.029754214
000320 79 07 48 bd 43 80 8c 3b f8 3c 00 39 3a ba bd 3b
       -0.04883525 0.004287751 0.00012229744 0.005790022
000330 a2 2c 92 3d 08 01 43 bd e9 ba 2f bd b2 55 50 bc
       0.07137419 -0.047608405 -0.04290286 -0.012715744
000340 66 9d 30 bd 86 20 7f bd 06 61 91 bd 20 77 30 bd
       -0.043118857 -0.062286876 -0.07098584 -0.043082356
000350 db 7e f1 bc ad fc 20 3c 79 21 2a 3d 82 6a 09 bc
       -0.029479435 0.009825868 0.04153583 -0.00838721
000360 65 1d 55 3d a5 a8 8f 3d 12 2a 30 3d 23 e2 87 3d
       0.052029986 0.07014588 0.04300887 0.06634929
000370 a0 f8 d3 bd 8c 46 87 bd 3d b7 72 3d 3a d4 a5 bc
       -0.10350156 -0.066052526 0.05925678 -0.0202428
000380 73 2a 27 bd 8c 7e 75 bd 0c a7 7b 3d cf 4f 90 bd
       -0.040811967 -0.059935138 0.061438605 -0.07046472
000390 ff 19 35 3c dd e8 7e 3d ef 36 00 3d ce fc d9 3c
       0.011053561 0.062233794 0.03130239 0.026609804
0003a0 55 09 a8 bc 03 22 1e 3c 9a 53 c0 bc 10 71 90 3d
       -0.020512262 0.009651664 -0.023477364 0.07052815
0003b0 70 86 69 3b 1a 28 24 3d fe 83 98 3c fc d2 14 bd
       0.003563311 0.040077306 0.018617626 -0.036334023
0003c0 ee 78 bf 3d 8c 6e 06 bc af bf e8 bc db 3d 27 3d
       0.093492374 -0.008205067 -0.028411714 0.040830474
0003d0 c7 97 e5 3c 46 6c 1c bd fc af 83 bd 2a af a1 bc
       0.028026475 -0.038189195 -0.06430051 -0.019736845
0003e0 b1 80 10 bd 44 d5 bd 3b 4e 19 07 3d bf 34 25 3d
       -0.03527898 0.0057932455 0.032983117 0.040333506
0003f0 7b 84 a0 bc c5 ad 85 3c b6 4b e4 3d a5 ee 8c 3b
       -0.019594422 0.016318211 0.11147253 0.0043009096

bn3.weight f4 [16]
000000 9c 38 7e 3f b7 95 6d 3f aa 92 7e 3f 4f 4e 76 3f
       0.9930513 0.9280657 0.9944254 0.9621324
000010 c5 e5 74 3f 8a cd 7d 3f 2c e4 68 3f 34 36 7c 3f
       0.956631 0.9914175 0.9097316 0.9852021
000020 d2 4e 6e 3f 09 17 73 3f 8f 45 6b 3f 36 84 6b 3f
       0.9308902 0.94957024 0.91903013 0.9199861
000030 fd 8a 78 3f 0a 08 7a 3f 5c a6 7e 3f d7 9f 7f 3f
       0.9708708 0.97668517 0.99472594 0.9985327

bn3.bias f4 [16]
000000 d9 c3 c0 bd ba a9 ae be 79 66 b5 bd 9c 27 6e 3e
       -0.09412355 -0.34113866 -0.08857436 0.23257297
000010 d8 78 78 3e 17 d4 ad 3d 2a 9d c5 3e 70 2f 11 3e
       0.24264848 0.084877186 0.3859647 0.14178252
000020 8f 80 b6 be 28 a4 b9 be c0 1a b9 3e b5 35 09 3f
       -0.35644957 -0.36258054 0.3615322 0.53597575
000030 98 1e 5d be ff d5 26 be 86 bf c4 3d 04 13 8b 3c
       -0.21593702 -0.1629257 0.09606843 0.01697684

bn3.running_mean f4 [16]
000000 59 65 b5 bc 68 fa 6d 3b 12 44 01 bd bb 08 44 bc
       -0.022143053 0.0036312584 -0.031559058 -0.011964972
000010 24 41 39 bc bd 7e 59 3c d6 0b 31 3d 26 3c 39 bc
       -0.011307035 0.013274846 0.04322418 -0.011305844
000020 aa 9e 9a 3c 9f 6b ab bd 7e 54 64 bc b2 6c ac 3d
       0.018874485 -0.083701365 -0.01393616 0.084191695
000030 88 e7 83 3c ad 15 98 bc 58 c9 ae 3b e4 57 e3 3b
       0.016101614 -0.018565023 0.0053340606 0.0069379676
