models/focal_loss_checkpoints/checkpoint_epoch_190.pth (torch, 100242 bytes, 16 tensors)

hidden1.weight f4 [128, 30]
00000000: 2bd4 d73d cacb 20be 6336 55bd a593 2dbd
00000010: 0c88 e53d 16a0 bfbd 97f1 c23b fe1b 8a3c
00000020: 9239 91bc dde8 cebd f121 12be f972 413e
00000030: 2697 f0bd 8bae 0e3d 36eb 34bd 7c7b 9a3d
00000040: a686 47be 26d8 7c3d b39a 283e 2127 603e
00000050: 503d de3d 49e7 b83b 55cf f0bd 06df 933d
00000060: c525 c43d ffda 733d 80bf 86bd 1adf 333e
00000070: 1fe6 e03d 989c d6bd 02b4 35be 5d2e 06bb
00000080: 85e4 be3c 7028 dd3c 21b5 0ebd fe07 853c
00000090: 9b20 9fbd 2151 473a 9a33 25bd c2c5 10be
000000a0: b900 a5bd 9d63 22be a25c 2d3e 0ba7 103e
000000b0: 66b6 813d e84c 04bd 1a7d f7bd cdbf 883d
000000c0: c899 c63d 6b1e fb3d db37 3ebe 8370 06be
000000d0: 37a2 c2bd 39b5 8f3d 6bf8 433e e153 22be
000000e0: 36a4 e03d f1d2 ad3c d298 1abe 3a8c 36bd
000000f0: 1b06 063e c01b c73b 7cdf 453d 6c87 00be
00000100: 2b1e aebb 148b 973d 2965 ee3d 7825 36bd
00000110: a60e e03d 2da8 e63d 0a40 a73c a20d ffbd
00000120: 1d9e 38be ec2e e73d 725b 0c3e bad0 2a3e
00000130: a1ec 2fbe e888 39be cfe6 b8bd c340 f1bd
00000140: 7136 ca3c 1924 25bd b431 30be 2109 d2bd
00000150: c165 cabd bf48 a9bd 0cf5 3c3d 1196 95bd
00000160: ee2c 94bb 73c6 023e 97ef baba a61a 2e3e
00000170: b304 a7bd 5212 eebc 22b3 b6bd d7d4 553d
00000180: 36ec 193d 8322 093d e652 50bd bfe7 b3bd
00000190: 4254 103e 1615 35be fb42 e13c e32c c63d
000001a0: 4d6e 3cbd aa8f f03d f358 98bd 502a 0cbd
000001b0: 139e fbbd ed7b 96bc fdaf 0abd 7b7b 2dbe
000001c0: fe3a 833d 4679 4abd 655f 483e f666 3f3e
000001d0: 5edd 15be f17d 1f3d 4ecb 953d 4eb7 e5bd
000001e0: 4649 ae3d d8ce 9d3c 7964 4dbe 97e0 ddbd
000001f0: d6a7 2dbe e0b6 d4bd 10fa 0d3e 3a06 60bd
00000200: d500 7d3d 04d3 3b3e a3d1 0e3e 73a8 df3d
00000210: e236 643e bf24 20bd ba34 973d 98e3 1abe
00000220: 99a6 5e3d d8e7 72bd 4bbf d3bd c97f 38be
00000230: 1f3d 8dbc 5223 143d 7ddf 87bd 3583 523d
00000240: 335a 253e 07ae f63d afc1 c9bc 4821 b5bd
00000250: fd7f 17bc 5765 073d 7f17 acbd 0ff5 83bd
00000260: 0344 2a3e 12e0 873c caa4 463e 7890 143d
00000270: e297 5f3e 238c 1ebb c633 1abd e645 173d
00000280: eedd 433d 8e5b c53d 9f41 7cbd 5246 cf3d
00000290: 1413 27be f571 b93d 61bb a43d 0c02 c8bd
000002a0: 3782 77bd 3d61 dd3d 32f6 733d f3dd 43bd
000002b0: c00f b3bd 1e42 78bc 99d3 c23d dbf0 8cbd
000002c0: 2d0c 72bd 107c 15be 2d06 afbd bd51 693d
000002d0: f8cd e4bd 7f8b 41bd 894b 3f3d 694f 00be
000002e0: 1450 33bd 28ff 193e 4588 6abd 64ba cc3d
000002f0: 0d78 b6bb 93c2 1cbe faa5 4bbd 7346 44be
00000300: da3c 3c3e c311 243e 9da3 003e 865b 4e3d
00000310: ec86 0a3e c16b 703d 3b0c 873c a806 633d
00000320: 128e 753d af4b 16bd 42f6 fdbd 4ecb fd3d
00000330: 1f56 093e 70b4 a0bd 154f 663d b53c e33d
00000340: 8296 4b3c c269 f0bd 6da7 08bc 5e3b 93bd
00000350: 98e5 5dbb 3dc0 0e3e 910d 40be 4b33 9abd
00000360: 2a67 133d dcf0 19bd a746 d9bd 6610 4ebc
00000370: fbe6 a63d f7f8 3dbe c32d 0bbd 34c7 7a3d
00000380: a90d a63d e411 55bc 3be0 233e 67a8 113e
00000390: b175 cbbd 8dd1 3d3d 2159 c43d c48d 5abd
000003a0: f422 223e fb91 d43b fd70 293e af41 a6bd
000003b0: 64f5 1d3e 7a74 0ebe 4807 af3d 4aa5 cfbd
000003c0: 154d 01be db7d b93d c9cc 22be 732b 213e
000003d0: 787e 893d f90d 54bd bfe2 0c3d 5591 143e
000003e0: ca00 083d 3766 e03c f512 3f3e 02b1 fc3d
000003f0: 394f 8fbc d3a6 da3c 6177 643e 60f8 d5bd
0.10538515 -0.1570274 -0.05205382 -0.042377133 0.112075895 -0.09356706 0.00594921 0.01685905
-0.017727647 -0.10103009 -0.1427076 0.18891515 -0.11747579 0.034834426 -0.044169627 0.07543084
-0.19484958 0.061729573 0.16465263 0.21889926 0.10851538 0.0056428057 -0.117582954 0.07220273
0.095775165 0.059535023 -0.065794945 0.17565575 0.10981392 -0.10479087 -0.17744449 -0.0020474412
0.023302326 0.026996821 -0.034840707 0.016239163 -0.07769891 0.00076033367 -0.040332414 -0.14137939
-0.080567785 -0.15858312 0.16929868 0.14126222 0.06333618 -0.032299906 -0.12084408 0.06677208
0.096973 0.12261661 -0.18575995 -0.13128857 -0.09503596 0.07016987 0.19137733 -0.1585231
0.10968821 0.021218749 -0.15097359 -0.044567324 0.13088267 0.006076306 0.048308834 -0.1255166
-0.005313655 0.07399574 0.116403885 -0.044469327 0.10940294 0.11262546 0.020416278 -0.12453772
-0.18029065 0.112882465 0.13706759 0.16681185 -0.1718011 -0.18118632 -0.09028398 -0.117799304
0.024684163 -0.04031763 -0.1720646 -0.102556475 -0.09882689 -0.08265828 0.046132132 -0.073040135
-0.0045219576 0.12771015 -0.0014262077 0.17002353 -0.08155193 -0.02906147 -0.089208856 0.052204933
0.037578784 0.03348018 -0.050860308 -0.087844364 0.14094642 -0.17683825 0.02749776 0.0967653
-0.04600363 0.11746152 -0.07438841 -0.03422004 -0.1228601 -0.01836964 -0.03385924 -0.16941635
0.06407736 -0.04943206 0.1956764 0.1869162 -0.14635226 0.038938466 0.07314168 -0.11216603
0.085100695 0.01926367 -0.20057859 -0.10833853 -0.16958556 -0.10386443 0.13864923 -0.054693438
0.06176837 0.18342215 0.13947158 0.10920801 0.22286561 -0.039097544 0.07383104 -0.15125883
0.0543581 -0.059303135 -0.103392206 -0.18017496 -0.017241059 0.036166497 -0.06634424 0.05139466
0.1614769 0.12044912 -0.024628488 -0.088442385 -0.009246823 0.03305563 -0.08402919 -0.064432256
0.16627507 0.016586337 0.193988 0.03627059 0.21835282 -0.0024192415 -0.03764703 0.036931895
0.04781907 0.09636603 -0.06158602 0.101208344 -0.16315871 0.09054939 0.08043552 -0.097660154
-0.060426917 0.10809562 0.059560962 -0.04781909 -0.087432384 -0.015152482 0.09513015 -0.06881877
-0.059093643 -0.14598107 -0.085461 0.056962717 -0.11172098 -0.047252174 0.046702895 -0.12530293
-0.04377754 0.1503874 -0.057258863 0.09996489 -0.0055685104 -0.15308599 -0.049718834 -0.19167499
0.18382588 0.160224 0.12562414 0.050380252 0.13528031 0.058696512 0.016485324 0.05542627
0.059949942 -0.03669327 -0.124004856 0.12392293 0.13411759 -0.07846916 0.056227762 0.11095563
0.012426021 -0.11738922 -0.008340699 -0.07189058 -0.0033858772 0.1394052 -0.18755175 -0.075293146
0.035987057 -0.037583217 -0.10609179 -0.012577152 0.08149525 -0.18552004 -0.03397919 0.06122513
0.08108074 -0.013004754 0.16003506 0.14224397 -0.09934557 0.04634242 0.095873125 -0.053357854
0.15833646 0.006487129 0.16547008 -0.08117997 0.1542564 -0.1391162 0.08546311 -0.10138948
-0.1262706 0.09057208 -0.15898432 0.15739231 0.06713575 -0.051771138 0.03439593 0.14508565
0.033203878 0.02739249 0.18659575 0.12338449 -0.017493831 0.026690876 0.22311164 -0.104477644

bn1.weight f4 [128]
00000000: c1a9 803f 463e 7f3f b4ab 803f 3cfc 7f3f
00000010: 4c55 7d3f 20bc 833f 8553 813f 26d8 7f3f
00000020: 30f0 813f 2a81 803f 63b6 803f 6988 7f3f
00000030: a6a7 803f 751c 803f 519d 7c3f 58e4 7f3f
00000040: fb41 803f 1c62 803f fb0c 813f 62cb 803f
00000050: 0bd0 813f adbe 7f3f 82ad 803f 7049 813f
00000060: fc7b 813f f396 813f 2e87 7f3f 6bb7 813f
00000070: f34d 803f 4d0d 803f 7fdb 7f3f 72ea 803f
00000080: 33ab 803f e882 813f 1b62 803f e305 823f
00000090: 3004 823f 41bf 813f eb21 803f ed60 813f
000000a0: f3ee 7e3f f9c8 7d3f f775 803f 0e38 843f
000000b0: 909e 803f dd02 803f 02e4 7c3f 983a 813f
000000c0: b721 803f 267d 7c3f 6a3b 7f3f fe29 813f
000000d0: 52d5 803f 0f13 803f a895 823f 91e8 813f
000000e0: d758 803f 1f81 803f 26a4 7f3f e528 813f
000000f0: 459d 7f3f 5c70 803f 44ba 803f fd66 823f
00000100: d960 823f 45e8 803f a85d 813f 2407 833f
00000110: b6ac 813f 47a8 813f 1fcf 813f f942 813f
00000120: 1b54 7e3f 1815 803f abe3 7e3f 1f17 833f
00000130: 11e0 823f d81f 813f 2cc2 803f 174c 7f3f
00000140: ceb3 7e3f e94b 813f e633 813f fb4d 803f
00000150: a589 7d3f 6bce 813f 1e59 7d3f ae4c 7f3f
00000160: c299 7f3f 8b1e 803f 3caa 813f 34f1 7a3f
00000170: c5b1 7e3f 9a64 803f 4915 7e3f 4bac 7f3f
00000180: 444b 803f 915a 813f e0c7 803f e290 823f
00000190: 8d18 863f 5372 7e3f c193 7a3f 725e 7f3f
000001a0: 52f9 823f a272 843f 4a4c 803f 0f48 7f3f
000001b0: ef82 803f 40fb 7d3f ebd2 7e3f 38f5 803f
000001c0: f4d0 813f 2599 813f bff2 803f e988 803f
000001d0: d264 813f 360f 803f 4fd8 823f fdbf 7f3f
000001e0: d500 813f 126b 833f b588 7a3f 1c44 803f
000001f0: 5ade 823f 031f 813f 8e0e 7f3f d071 813f
1.0051805 0.99704397 1.00524 0.99994254 0.9895828 1.0291786 1.0103613 0.9993919
1.0151424 1.0039418 1.005566 0.9981752 1.0051162 1.0008684 0.98677546 0.999578
1.0020136 1.0029941 1.0082086 1.0062068 1.0141615 0.99900323 1.005295 1.0100536
1.0115962 1.0124191 0.9981564 1.01341 1.0023788 1.0004059 0.999443 1.0071547
1.0052246 1.0118074 1.002994 1.0158046 1.0157528 1.0136491 1.0010351 1.0107704
0.9958336 0.99134785 1.0036 1.0329607 1.004839 1.0000874 0.9878541 1.0096006
1.0010289 0.9862846 0.99700034 1.009094 1.00651 1.0005816 1.0201921 1.0149099
1.0027112 1.0039405 0.99859846 1.0090605 0.9984935 1.0034289 1.0056844 1.018768
1.0185806 1.0070883 1.0106707 1.0236554 1.0130832 1.0129479 1.0141333 1.0098563
0.99347085 1.0006437 0.99566144 1.0241431 1.022463 1.0087843 1.0059257 0.9972548
0.9949311 1.0101291 1.0093963 1.0023798 0.99038154 1.0141119 0.9896411 0.9972638
0.9984399 1.0009321 1.0130076 0.98024297 0.99490005 1.0030701 0.9925123 0.99872273
1.0022969 1.0105764 1.0060997 1.0200465 1.0476242 0.99393195 0.97881705 0.9975349
1.0232337 1.0347483 1.0023282 0.9971933 1.0039958 0.992115 0.99540585 1.0074835
1.0141892 1.0124861 1.007408 1.0041782 1.0108893 1.0004642 1.0222262 0.99902326
1.0078379 1.026705 0.9786485 1.0020785 1.0224106 1.0087589 0.99631584 1.0112858

bn1.bias f4 [128]
00000000: 06d8 6cbd 3c6e 323d 0eee 82bb d0fe e43c
00000010: 729a 773d 352c 4cbd 1d30 0e3d 37ba 083d
00000020: f509 e63c 1c6e 8f3d df00 0abd e610 68bb
00000030: 7d2e 123d 1ebc 7f3c 233b c9bd 4b51 f8bc
00000040: 43a8 9dbb 116d 83bc 21ac 553d cfe2 5b3c
00000050: bcf0 4abd f324 043d 1755 c2bb 607a d93c
00000060: 74cb 0ebd 81de f93c 4590 183c 467a 71bd
00000070: d897 b43c 3164 ad3b d9a2 573d 0827 55bc
00000080: 7ea9 823d c810 05be 2f3c 513c d67f 79ba
00000090: 2c69 85bc d4da 7dbc cef6 a7bc 1b9c e83d
000000a0: 6663 aabd 30b3 5abd 29c3 863d 41ae 163d
000000b0: 8327 413d 618f 813c 42de 4abd 2953 d13b
000000c0: 7c6b d63c 982e a3bc 79b9 dd3c 9bad 42bc
000000d0: fbb4 e83c 59ae 693d 0c6e a6bd 0c58 43bc
000000e0: 5841 ecbc 3d50 94bc bd07 4b3c 787b a23d
000000f0: 7b68 f1bc 855b 123d c7e0 b13c ee72 033d
00000100: 46f1 933b b286 823b 362c cd3c 1f19 2cbd
00000110: fc14 153c 3c62 d7bc 0a7e 0d3d cc90 2b3d
00000120: 6b09 da3d 297a 46bd 4e6b 51bd ff74 323d
00000130: 51d5 be3d b31a 363d d596 36bd 3c4a 60bc
00000140: ee7d ae3d 7c4d f73c 2827 d83c 6cec 033d
00000150: 3332 afbd 4f9c cdbc 52ca aa3d 5248 bbbd
00000160: aef1 4a3d f5c1 683a add9 65bc 5240 40bd
00000170: 2f78 593d 6855 d2bc 9ff2 fb3c 7232 493d
00000180: 8bb9 313c e8fa 683b 2c44 82bc 96ed 7b3d
00000190: 9297 a53c 253a 593c d2f6 0fbd d50d 82bc
000001a0: 48c4 12bd 7b7d 613d f7b7 3fbb e49b fdbc
000001b0: 4def 8b3c 8d41 2abd 050a 9e3d 982b 513d
000001c0: c5b6 e53c d423 86bc 99c0 18bc ca6c 1c3d
000001d0: 3f15 fc3c 0917 3d3c ba04 103d 0712 5cb9
000001e0: 403e 2ebb 9ea0 4a3d 930d c5bd 5e4d 2cbc
000001f0: 5911 173d 9f43 17bc ef17 89bd 6492 df3c
-0.057823204 0.04356216 -0.0039956635 0.027953535 0.060450025 -0.049846847 0.034713853 0.033380713
0.02808092 0.070034236 -0.033692237 -0.0035410463 0.035688866 0.0156088155 -0.098257326 -0.030312201
-0.004811318 -0.016043218 0.052166108 0.013420775 -0.04954599 0.0322618 -0.0059305537 0.02654761
-0.034861997 0.030501606 0.00931174 -0.0589545 0.022045061 0.0052914848 0.052645538 -0.013009794
0.06379984 -0.12994683 0.012770697 -0.0009517645 -0.016285501 -0.015494067 -0.020503428 0.113579
-0.0831974 -0.053393543 0.065801926 0.036787275 0.047156822 0.015815439 -0.049528368 0.0063880873
0.0261743 -0.019919679 0.02706598 -0.011882211 0.02840661 0.057051037 -0.081264585 -0.0119228475
-0.028839752 -0.018104667 0.012391982 0.07933706 -0.029468765 0.03573181 0.021713628 0.032092027
0.004514846 0.003983342 0.025045495 -0.042016145 0.009099241 -0.026291959 0.03454403 0.041886136
0.106463276 -0.048456345 -0.051127724 0.043568607 0.093180306 0.044459056 -0.04457744 -0.013689574
0.08520113 0.030188315 0.026385859 0.03220789 -0.085544966 -0.025098948 0.08339371 -0.091446534
0.04954689 0.00088789995 -0.014028949 -0.04693634 0.05309313 -0.02567549 0.03075534 0.049120374
0.01084746 0.0035549942 -0.015901648 0.061505876 0.020213876 0.013258492 -0.035147496 -0.015875736
-0.03583172 0.055051308 -0.0029253939 -0.030958124 0.017081881 -0.04156642 0.07716755 0.051066965
0.028041253 -0.016374506 -0.009323263 0.038189687 0.03077185 0.011541137 0.035160758 -0.0002098755
-0.0026587397 0.049469583 -0.0962173 -0.010516493 0.03688178 -0.009232431 -0.06694018 0.027291484

bn1.running_mean f4 [128]
00000000: 730c 88bd fe49 0fbe 2e10 553e 4e6c 1cbe
00000010: 43c6 7d3d 6402 f53d aeee 29be 6eed a7bd
00000020: 6a94 d03d 2223 763e 0a3b 37bc 3066 093e
00000030: 9b11 7ebd c680 383d 38d6 933c 45b3 58bd
00000040: c26e 6b3e c498 59bd 1411 d83d e01c 87bb
00000050: 5b95 18be 15a8 15be 6b2c 21be c79a a73d
00000060: 0dc0 4dbd 8bdb ddbd c65d c0bc c40c f83d
00000070: 5695 c3bd ac86 223d 136f 5bbd a8c5 343e
00000080: 0f67 0ebd c190 443d c60b 703d d7ee 553d
00000090: 55a2 413e 79bc 3e3e 04c8 6d3d 0490 21be
000000a0: 8671 e7bd 35dd f2bd 8a6b eebd e0a4 8ebc
000000b0: 86c0 3c3e 6bf3 1c3e 3f4b 013d 785e 2b3d
000000c0: da06 f3bc 7c45 4b3e dda5 cd3d eb61 9d3c
000000d0: 2224 cd3d 9f9f 89bc 31cc 1e3e 8dd9 19bd
000000e0: 01f8 0e3e 5823 36bd 7aeb 50bd a68b 093e
000000f0: 443a 423d e8a1 883d a88e 82be a0f2 c23d
00000100: 054d a2bd 5e67 5d3d 7d70 0e3e 1b73 04bc
00000110: 319e 1e3e 0a60 e1bd 06e6 0a3c f2b5 06bd
00000120: 8414 f1bc d4e5 ebbd 31c3 a23d d6e5 353e
00000130: 3e30 dfbd 4ae5 393d 1506 35be 5b11 723e
00000140: 940b 8a3d fadc c63c 5432 0e3e 42c4 f5bc
00000150: 2414 89bd 7aa7 15bd 325c a3bd 693c 893e
00000160: 0eb6 02be 2d87 3d3d 69d6 003e 44d8 473e
00000170: 9059 0fbe 427c a53c b90e 7abd b1f8 febd
00000180: 9e48 1c3c e099 2a3d c7e2 a7bd dbe4 09be
00000190: cbec b33b 2c5e 34be 744f 0b3e 0f5d 2f3d
000001a0: 54ae 053e 4e62 eabd 2753 2bbd 6b14 983d
000001b0: f9fe 99bc ee7d dc3d 29ce 5e3d 828d 1cbd
000001c0: 62e3 fbbd 8f95 733c 1988 7f3d eb9d 2dbd
000001d0: cc9b e73d 8b15 a33d aef1 dc3d 7b86 24be
000001e0: 0226 da3d d36a d9bd a406 0a3e 3c84 033e
000001f0: ae71 93bd e3da c9bd a0a1 b0bd 2aa5 c1bd
-0.066429995 -0.1399307 0.20806953 -0.1527569 0.061956655 0.119633466 -0.16594955 -0.08199583
0.10184558 0.2403684 -0.01118351 0.13417888 -0.06202851 0.045044683 0.018046483 -0.05290534
0.2299147 -0.053124204 0.105501324 -0.004123315 -0.14900725 -0.146149 -0.157396 0.08183818
-0.050231982 -0.1083289 -0.023482215 0.1211181 -0.09549968 0.039679214 -0.053572726 0.17653525
-0.034766253 0.04798961 0.058604978 0.05222973 0.18909581 0.18626584 0.058052078 -0.15777594
-0.1130095 -0.11858598 -0.11641605 -0.017412603 0.18432817 0.15327232 0.0315659 0.04183814
-0.029666353 0.19850725 0.100414015 0.01921173 0.100166574 -0.016799746 0.1550758 -0.03756099
0.13961793 -0.0444673 -0.051005818 0.13432178 0.047418848 0.06671506 -0.25499463 0.09518933
-0.079248466 0.054053657 0.13910098 -0.008084084 0.15490033 -0.11004646 0.008477693 -0.03288836
-0.029428728 -0.115184456 0.07947386 0.17763457 -0.10897873 0.045384683 -0.17678101 0.23639433
0.067404896 0.024275292 0.13886386 -0.03000081 -0.06693295 -0.03653667 -0.07976569 0.26803902
-0.12764761 0.04627149 0.12581791 0.19516093 -0.13999009 0.020200852 -0.061049197 -0.12449778
0.009538798 0.041650653 -0.08197551 -0.13466208 0.0054908744 -0.17614049 0.13604528 0.042813357
0.13054782 -0.114445314 -0.041827347 0.074257694 -0.018798338 0.10766207 0.05439583 -0.03822089
-0.12299229 0.0148672005 0.062385652 -0.04238693 0.11309013 0.07963093 0.10788284 -0.16066925
0.10651781 -0.10616078 0.13479096 0.12843412 -0.07199417 -0.098562025 -0.086245775 -0.09455331

bn1.running_var f4 [128]
00000000: c298 fe3e 5215 1d3f f47e 0f3f 4236 0a3f
00000010: 36ce dd3e 29a8 f13e b28d 013f 624e f33e
00000020: 7c23 2e3f a854 923f dd6e 163f 68ed 173f
00000030: 6a34 cb3e db97 2e3f 276d c43e ca4a 8a3e
00000040: 0b64 6a3f 21d2 ed3e ba40 603f b742 e33e
00000050: c455 f73e 27f4 2a3f 65a0 353f 7b58 e63e
00000060: 75db c23e cc2c e03e 446e 013f 43e4 013f
00000070: bdd0 fc3e 2c07 cb3e 50cd cd3e 79c5 133f
00000080: f379 1e3f a401 ae3e a9d7 233f b217 c23e
00000090: 0ed4 403f 5a10 5d3f bef4 ea3e 0ed7 193f
000000a0: 6821 183f 7ccd ed3e c483 263f afbc 893e
000000b0: 1327 283f 73c4 453f 5fbc ac3e b8e9 b13e
000000c0: 960b f93e 7bbe 7b3f 379e 4a3f a2a6 923e
000000d0: d65f 283f d4ad 173f dcbb cf3e fa8a a63e
000000e0: 1757 573f c07a 8e3e 1352 373f 7077 263f
000000f0: 679c b63e f09c 183f 4c4b fc3e 57ed 643f
00000100: c173 dc3e 77c1 0e3f af05 433f 4b7f fb3e
00000110: e711 0b3f 76c5 ea3e 364a b83e afa3 d83e
00000120: 428f 033f 6960 233f 7852 093f bf3f 6d3f
00000130: becb d43e 15ef c13e 7f5e 233f 48b0 af3f
00000140: 5de9 cf3e 7a80 cb3e f0c6 223f 2372 a43e
00000150: 06ea 2c3f 28be ea3e 5af7 f13e a92a 2e3f
00000160: d3ec dc3e 44de c03e 0ffc f33e 756c 353f
00000170: 5109 173f e250 fc3e 0c32 073f 8bbf 3e3f
00000180: 020f 743e 0da6 063f 4882 163f b32e 053f
00000190: 3022 c33e 4b14 5d3f 5542 193f 8937 da3e
000001a0: 5943 043f e6d9 be3e cf83 353f 3064 9c3f
000001b0: 2dde c13e 7f9d a33f 1e47 143f 9525 0d3f
000001c0: ea9c c83e 414c e23e 943f d83e b8a6 cd3e
000001d0: 20c1 193f ba95 973e 25c2 703f a18e 583f
000001e0: 0e66 373f cd0f e03e 55c8 573f c07f 203f
000001f0: d8a7 f53e a162 0d3f 2a74 203f 3a7b e63e
0.4972592 0.6136066 0.5605309 0.5398904 0.4332139 0.4719861 0.50606835 0.4752074
0.68022895 1.1432085 0.58762914 0.5934663 0.39688426 0.68200463 0.38364527 0.27010185
0.91558903 0.46449378 0.87598765 0.44386837 0.4830762 0.66778797 0.7094787 0.4498938
0.38058057 0.43784177 0.50558877 0.50738925 0.49378005 0.3965391 0.40195704 0.57723194
0.6190483 0.33985627 0.64000946 0.37908703 0.7532357 0.86353076 0.45889848 0.6009377
0.59425974 0.46445835 0.6504481 0.26901767 0.6568462 0.7725288 0.33737466 0.34748626
0.48641652 0.98337525 0.79147667 0.28642756 0.65771234 0.59249616 0.40573013 0.32527906
0.84117264 0.27828026 0.7160961 0.65026 0.356662 0.5961447 0.49276197 0.8942465
0.43057063 0.55763954 0.7618055 0.49120554 0.5432419 0.45853776 0.35994118 0.4231238
0.5139047 0.63818985 0.5364146 0.92675394 0.41561693 0.37877718 0.63816065 1.3725672
0.4060773 0.39746457 0.63584805 0.3211833 0.6754459 0.45848203 0.47259027 0.68033844
0.43149433 0.37669575 0.47653243 0.7086862 0.5899859 0.4928046 0.5281074 0.7451102
0.2383385 0.52597123 0.58792543 0.5202438 0.3811202 0.8635909 0.5986684 0.42620495
0.51665264 0.37275618 0.7090425 1.2218075 0.3786482 1.2782439 0.57921016 0.5513547
0.39182216 0.44198802 0.42236006 0.4016626 0.6006031 0.2960642 0.9404624 0.84592634
0.716401 0.43762055 0.8429006 0.6269493 0.47979617 0.5522862 0.6267725 0.4501589

hidden2.weight f4 [128, 128]
00000000: d719 ab3d fd2c eebb f9a1 89bd e8a6 563c
00000010: b473 093d ffbc 21bc 7b82 993c 7843 ce3c
00000020: 4faa 043d 0dd6 e8bc cab1 56bd ac6e 883d
00000030: b2f7 893c 40b0 9d3d 8122 6cbd 7aca cbbc
00000040: 1a6b 7b3c 9584 9c3c 8252 0fbd 78e0 0ebd
00000050: 9495 b8bc 9067 89bd 62d9 803b 1158 a3bd
00000060: b41e cfbc ac2a a3b9 6f41 87bd f4ae 1e3d
00000070: 07ed 913d ec3c 5aba 5c5d a43c d6db bbbd
00000080: cf2b 053c 554a 053d 869c 08bd 061d 5cbc
00000090: a3b9 aebd 8e9b 1e3d 692a 05bd 90c6 d8bb
000000a0: f599 4e3d a6e0 923d a044 e93a 336d ae3d
000000b0: 59d1 923c 20a4 bcbb 8b23 8b3d 3771 b83d
000000c0: ffb9 a33d 1022 36bd fcd4 41bd b35f 543d
000000d0: 690d 46bd 8ffc b8bc 146a 3a3d e4f7 ae3c
000000e0: 95a4 c9bb ef92 133d 4c4b eb3c 4238 bebd
000000f0: 6178 8a3d 246d dd3c 790f 543d 11d2 f3ba
00000100: ff2f 853b 5b49 f53a f459 35bc 8570 ae3d
00000110: e771 8ebd 330d 33bd 4f2f 91bd 95b6 8ebb
00000120: c0b9 86bd 815a 8e3d 9782 1cbd 9069 8d3d
00000130: abd6 b73d 7d52 6bbd 81a9 6ebd 4f11 09bd
00000140: fb04 3abd e928 343d 9687 793d 0d77 22bc
00000150: 3c0f 93bd e548 283d 5eda ae3d 116a 973c
00000160: 00f1 91bc 08e1 7abd b04c 8fbd b26a 293d
00000170: bd4f 443d c746 813d d72b bb3d f0c5 c0bb
00000180: 6f92 00bc 25e5 a33c 3680 d0bc eb98 c7bc
00000190: 116f 5dbc 4446 9f3c 4692 6ebd 3e2e a0bd
000001a0: 6bf0 c0bd 75c7 73bb 1687 953c b363 853d
000001b0: dfbc 5ebd 248d 47bc 1aa3 3d3d e75e e73c
000001c0: ae3d 29bd f5ff 90bd 9e8a 8bbd 88c4 acbc
000001d0: 6f27 763c 0841 7e3d dc63 fe3c 763d 783d
000001e0: acca 04bd 9ebd 163c e9dc dfbc a610 aa3d
000001f0: 1056 f1bb a50b 563d b65e 413d 9954 c5bb
00000200: da7c ff3c ef6a adbc 78f4 b93c ee23 903d
00000210: 71ef 25bc 76a3 a13d 1683 61bd 39bf 0fbc
00000220: 3793 963c 4a52 863c a964 e93d a6b5 acbd
00000230: 1821 55bd a2f9 8bbc 3fd6 b13c f3c5 30bd
00000240: fb6c 17bc 2545 8bbd 1551 a3bd 7bfe c7bc
00000250: 0d0d 633c cb8e a33d 507f 39bd b373 b6bd
00000260: 218d d03c 7e90 ac3d ac1e 833c 01c5 983d
00000270: e542 313d 3208 2bbc 7ad3 84bd 170a 973c
00000280: cbef 9b3d e901 83bd 1795 913d 17a4 563c
00000290: c314 1bbd a80f b93c ffdd bcbc de01 64bd
000002a0: 90ab 493d e814 863d 40f9 43bc d37c 60bd
000002b0: 5055 41bd c671 6fbd 5c2f 98bd 070a 3dbd
000002c0: c86d 51bd 2039 a6bc df34 4f3d 4650 83bd
000002d0: 19f6 b73c 0e7f 9cbb 826f 75bd f58a 82bd
000002e0: dc28 2ebd 64f3 163c 3974 583d 53cb 70bd
000002f0: 1eab 60ba 32f9 bbbd bb56 c53d a634 483d
00000300: 085d e33c c26a 85bd 45c3 3d3c 4a13 a83d
00000310: ca7b cfbc 835a c23c 058f 933c 0305 06bc
00000320: a266 b5bc 7a46 813c 85c6 3b3d 052f f4bb
00000330: 217c f1bc 461e c4bd 4c67 36bd 6ed3 2dbd
00000340: 99fc 46bd c7fb 99bd a324 4fbd 607b 1abd
00000350: 8a21 eb3c 7a1a 0c3d d95f 8cbd db23 633d
00000360: a19b a3bc e627 9a3d d354 3c3d 469d 0a3d
00000370: 4461 883d b16c 2cbc 911c 09b9 f5a6 95bd
00000380: f07a 5dbd fdcf 163c 2a7e 3b3d 261a ad3c
00000390: a07f acbd 28d8 66bd d674 f1bc b282 3b3c
000003a0: 8bbd 903c 31ad 193d 117f a5bd 024a 533d
000003b0: ce14 c8bd 20ac 0ebd c86b f83c dbea 9abd
000003c0: cc45 63bd e322 be3d c5ff 85bd 8561 813c
000003d0: b0d7 a1bd 7425 bbbd 766b 0fbd 6429 b13d
000003e0: 07f6 66bd 3274 543d f74d 9bbc d959 a93c
000003f0: d685 543d 32a8 d83c 94ac 923d 8e7b ef3c
0.08354538 -0.0072685466 -0.06720347 0.013101317 0.03355761 -0.00987172 0.018738976 0.025178656
0.03238898 -0.02842238 -0.052415647 0.06661734 0.016841743 0.07699633 -0.057650093 -0.024876822
0.015345359 0.019106189 -0.034990795 -0.03488204 -0.022532262 -0.06709206 0.003932164 -0.07975782
-0.025283195 -0.00031121576 -0.06604277 0.038741067 0.071252875 -0.0008325118 0.020064048 -0.0917279
0.008128121 0.03254159 -0.033352397 -0.013434654 -0.08531501 0.038722567 -0.03251115 -0.0066154674
0.050439794 0.071717545 0.0017796941 0.08516922 0.01792209 -0.00575687 0.06793889 0.09005969
0.0799446 -0.04446608 -0.04732226 0.05184908 -0.048352633 -0.022581367 0.04551132 0.021358438
-0.006153653 0.0360288 0.028722428 -0.09288074 0.06761242 0.027029581 0.05177257 -0.0018602033
0.0040645595 0.0018713878 -0.01106881 0.08517555 -0.06955319 -0.04371376 -0.070891015 -0.0043552616
-0.06578398 0.06950856 -0.038210478 0.069049 0.089764915 -0.057451714 -0.05826712 -0.033463772
-0.045414906 0.043984327 0.06092032 -0.009916079 -0.0718064 0.041085143 0.08537744 0.018483194
-0.017815113 -0.061249763 -0.06997049 0.04136152 0.047927607 0.06312328 0.09139221 -0.005882971
-0.0078474125 0.020006726 -0.02545176 -0.02436491 -0.01351525 0.019442685 -0.058244966 -0.0782132
-0.09420856 -0.0037197743 0.01825289 0.06513157 -0.05437934 -0.012179647 0.046298124 0.028243495
-0.041318588 -0.0708007 -0.068135485 -0.021089807 0.01502405 0.062073737 0.031053476 0.06060549
-0.032419845 0.009200482 -0.027327018 0.08303957 -0.007364996 0.0522572 0.047209464 -0.0060220477
0.031187464 -0.021169154 0.02269958 0.07038103 -0.010127888 0.07892506 -0.055056654 -0.008773618
0.018380744 0.01639666 0.113961525 -0.08433084 -0.052033514 -0.017086808 0.021708606 -0.04315753
-0.009242292 -0.06800298 -0.079744495 -0.024413338 0.013858092 0.0798622 -0.04528743 -0.089087866
0.02545792 0.08425997 0.016005836 0.074594505 0.043276686 -0.010438966 -0.064856485 0.018437428
0.07614096 -0.06396849 0.07108515 0.0131006455 -0.037861597 0.022590473 -0.023055075 -0.055665843
0.04923588 0.06546956 -0.011961281 -0.05480654 -0.0472005 -0.058458112 -0.07430908 -0.04615214
-0.051130086 -0.020290911 0.05058753 -0.06411795 0.022456216 -0.0047758883 -0.059920795 -0.0637416
-0.042519435 0.009213302 0.052845214 -0.058787655 -0.00085704203 -0.091783896 0.09635683 0.048878334
0.027754322 -0.06514503 0.0115822 0.08206804 -0.025327582 0.0237248 0.018012533 -0.008179906
-0.022143666 0.015780676 0.04584362 -0.007451894 -0.029478135 -0.09576087 -0.044532105 -0.042437963
-0.04858074 -0.07518726 -0.05057205 -0.037715316 0.028702516 0.034204938 -0.06854219 0.055454116
-0.01997167 0.07527141 0.045979332 0.033841394 0.06659177 -0.010523961 -0.0001307598 -0.07307235
-0.05407232 0.009204862 0.045774616 0.021130633 -0.0842278 -0.056358486 -0.029474657 0.011444734
0.017668506 0.037518684 -0.080808766 0.05158425 -0.09769593 -0.03483212 0.030324832 -0.075643264
-0.055486485 0.09283998 -0.06542925 0.015793571 -0.07902467 -0.09138003 -0.035014592 0.08650473
-0.056386974 0.051868625 -0.018958075 0.020672726 0.05188545 0.02644739 0.07161823 0.02923372

bn2.weight f4 [128]
00000000: a422 803f 5eeb 7d3f cf3a 7f3f 740c 7c3f
00000010: 220f 7f3f de68 7e3f dd58 7e3f 4e9d 7c3f
00000020: 8378 7f3f b0c3 7c3f f4e7 7f3f b553 7e3f
00000030: 22f7 7e3f d833 7e3f d322 7e3f 6af9 7e3f
00000040: c71b 7e3f f453 7d3f d26d 7e3f 8950 7d3f
00000050: e800 803f c9c0 7e3f cb28 7e3f 2e42 7f3f
00000060: 7854 7d3f b0bd 7f3f c7e7 7d3f b985 7f3f
00000070: dcac 7e3f 8307 803f 4bef 7f3f e518 7e3f
00000080: 6474 7e3f 75ca 7b3f 997b 7c3f af9d 7e3f
00000090: 4d6d 7e3f 029f 7f3f 9515 7d3f 6360 7e3f
000000a0: de3b 7f3f 620c 7e3f 1293 7e3f 7d1e 7f3f
000000b0: afd0 7d3f 81e9 7f3f 53fe 7f3f a066 7c3f
000000c0: 2627 7f3f 3b18 803f c465 7e3f 7c81 7d3f
000000d0: 88b1 7f3f 513f 7f3f 30b4 7c3f 4ed9 7b3f
000000e0: 95bc 7e3f 5a09 7b3f 5016 7d3f 216d 7d3f
000000f0: daf5 7e3f 5da8 7f3f becb 7d3f 0403 7d3f
00000100: ba9c 7f3f 466c 7f3f a7fc 7e3f 3817 7f3f
00000110: f621 7f3f 7379 7d3f 39f7 7e3f 471e 803f
00000120: ebfa 7f3f 613d 7e3f ca0f 7e3f 0a6f 7e3f
00000130: 1f63 803f e498 7d3f 221f 7d3f 8852 7c3f
00000140: 031e 7d3f ab56 7d3f 146d 7f3f 3582 7f3f
00000150: d720 7e3f d5ab 7f3f 130f 7e3f ff88 7e3f
00000160: a66d 7d3f 87b7 7d3f 19e6 7e3f a2ad 7e3f
00000170: ed29 7f3f 33df 7d3f c65a 7e3f 394f 7d3f
00000180: ee2b 803f acd4 7d3f 6714 7e3f fe14 803f
00000190: 823e 7d3f fd38 7c3f 4384 7d3f 713f 7f3f
000001a0: 3dd9 7f3f 69ca 7f3f abf3 7e3f b528 803f
000001b0: 67e9 7e3f 2428 7f3f cecc 7f3f 1ae9 7c3f
000001c0: c091 7f3f ccb5 7f3f d337 7f3f 3a75 7e3f
000001d0: 2fbe 7f3f 14ba 7e3f f24b 7d3f 4c36 803f
000001e0: ec55 7c3f 0b3d 7e3f 9e2d 7f3f 7e59 7a3f
000001f0: 7f16 803f 004c 803f 8e14 803f 99ee 7a3f
1.0010571 0.99187267 0.9969911 0.984565 0.99632466 0.99378765 0.99354345 0.9867753
0.9979326 0.98736095 0.9996331 0.99346477 0.99595845 0.9929786 0.9927189 0.99599326
0.99261135 0.9895623 0.9938632 0.9895101 1.0000277 0.99512917 0.99280995 0.9971036
0.98957014 0.99898815 0.9918179 0.9981342 0.9948251 1.0002292 0.9997451 0.99256736
0.9939635 0.983558 0.98626095 0.99459356 0.9938553 0.99852 0.98861057 0.99365824
0.99700725 0.99237645 0.9944316 0.99655896 0.9914655 0.99965674 0.9999744 0.98594093
0.9966911 1.0007395 0.9937403 0.990257 0.99880266 0.9970599 0.98712444 0.98378456
0.99506503 0.98061144 0.9886217 0.9899464 0.9959389 0.99866277 0.9913901 0.98832726
0.9984852 0.9977459 0.99604267 0.99644804 0.99661195 0.9901344 0.9959598 1.000924
0.99992245 0.99312407 0.9924284 0.9938818 1.0030249 0.9906142 0.9887563 0.9856343
0.9887392 0.9896037 0.99775815 0.99808055 0.9926886 0.9987157 0.9924175 0.9942779
0.98995435 0.99108166 0.9956985 0.9948369 0.9967335 0.991687 0.9935726 0.9894901
1.0013406 0.99152637 0.9924988 1.0006406 0.98923504 0.9852446 0.9902994 0.9970618
0.99940854 0.9991823 0.9959056 1.0012423 0.99574894 0.99670625 0.9992188 0.98793185
0.9983177 0.99886775 0.99694556 0.99397624 0.9989957 0.9950268 0.9894401 1.001657
0.98568606 0.99311894 0.9967898 0.97792804 1.0006865 1.0023193 1.0006273 0.9802032

bn2.bias f4 [128]
00000000: 465e 2b3b 69dd 29bd b1cd 8cbc d137 4f3d
00000010: c98c 683c d88b 1a3d 39e1 7fbc 18f9 0cbd
00000020: 1c20 9cbc 868b 0b3d 9011 0f3c e9df 003d
00000030: eba5 b53c 704b 313d fdbd c63c da60 87bc
00000040: e27a dbbc dee0 053d 5bb1 a6bc 99e3 3abd
00000050: ba12 4f3c ea96 8abc 8b05 9dbc ec2d 9abc
00000060: f9a6 d03c 370f a2bc 57c3 1dbd 9782 bdbc
00000070: 1888 80bc 8bbf f2bb 4ee7 743c be6e fcbc
00000080: 44d4 d63c fd2c 0e3d 7011 173d df6c 91bc
00000090: 6aa8 103d e3c3 3ebc ca89 433d f982 d83c
000000a0: f00e 943c 1024 cdbc b2e7 5a3c 3569 56bc
000000b0: b3d9 e53c 374f 423c 9d9f bfbb 5121 d03c
000000c0: aae2 c4bc d0dc 99bc 9b7f 573c 2ba7 c3bc
000000d0: afee 763b 60bd b5bc f025 05bd a4d5 3cbd
000000e0: ee78 d33c d634 123d 6cd6 323d d206 123d
000000f0: d01b 30bc b529 07bd 13f5 02bd e6ca 2d3d
00000100: e2f0 22bd e902 01bd 5530 6abc 803a a3bc
00000110: 8201 31bd 94cd ddbc 7a50 e4bc 78dc 40bc
00000120: c848 7fbc f99d 573c 5f51 3cbc c21c 043d
00000130: 13a9 0bbc a1b6 56bd 27fe 153d 4fbc 26bd
00000140: a478 1abd 81bd 013d 7958 8abc b5cc abbc
00000150: fa4d 09bd bf03 0dbb cc6f 9abc add0 0b3d
00000160: 2512 16bd 94c3 1ebd 4831 a23c 2031 eebc
00000170: c489 853c bfed 333d 2ac2 8d3c 9d91 023d
00000180: e217 00bc bc32 973c 875e db3c cc1c a03c
00000190: 32be d23c 4e92 2ebd e104 f2bc 17f2 73bc
000001a0: 0a53 013c ab5a 103c f4c1 82bc 4b6c 503c
000001b0: 0e98 babc 5f4c 613c 8f40 19ba 8f96 eebc
000001c0: 6164 a43b 518a f0bc 3790 7cbc 23c6 c53c
000001d0: dfea b43c 2a75 f33c 5256 b63c 68c2 67bc
000001e0: c5d1 3abd 290a cbbc b649 da3c 7c70 44bd
000001f0: f40e a33c aa60 a63c f862 17bc 2bf3 7bbd
0.002614872 -0.04147092 -0.017187925 0.05059034 0.014193722 0.03773102 -0.015617662 -0.03441724
-0.01905828 0.034068607 0.008732215 0.031463537 0.022173842 0.043284833 0.024260515 -0.016525675
-0.026791994 0.032685153 -0.020348242 -0.04562721 0.012638742 -0.016917665 -0.019167682 -0.018820725
0.025470244 -0.019782646 -0.03851637 -0.02313356 -0.015689895 -0.0074080876 0.014947725 -0.030814525
0.026224263 0.034710873 0.036881864 -0.01775211 0.035316862 -0.011643383 0.047738828 0.02642964
0.018073529 -0.02504161 0.0133609045 -0.013086607 0.028057909 0.011859707 -0.005847885 0.025406512
-0.024033863 -0.01878205 0.013152982 -0.023883423 0.0037678888 -0.022185028 -0.032506883 -0.04610218
0.0258145 0.03569492 0.04366152 0.035651036 -0.0107488185 -0.03299876 -0.031972002 0.042429827
-0.039780505 -0.031496916 -0.01429375 -0.019925356 -0.04321433 -0.027075566 -0.027870405 -0.011771314
-0.015581317 0.013160222 -0.01149401 0.032253988 -0.008524197 -0.052420262 0.03661933 -0.04070693
-0.037712708 0.031674866 -0.01688789 -0.020971635 -0.03352163 -0.0021517125 -0.018852137 0.034134556
-0.036638398 -0.038760737 0.01979889 -0.029076159 0.016301043 0.043927904 0.017304499 0.03187715
-0.007818194 0.01845681 0.026778473 0.019544981 0.025725458 -0.042619996 -0.029543342 -0.014889262
0.007893333 0.008810679 -0.015961625 0.012721132 -0.022777583 0.013751118 -0.0005846107 -0.029124526
0.005016849 -0.02936283 -0.015415243 0.02414233 0.022084652 0.029718954 0.022257958 -0.014145471
-0.045610208 -0.024785118 0.026646476 -0.047958836 0.019904591 0.020309765 -0.009239905 -0.0615112

bn2.running_mean f4 [128]
00000000: 3672 dc3c a295 1dbd 8892 b6bd d331 c23d
00000010: 727f 323c 90d4 aa3d bb44 7bbd 08e9 8ebd
00000020: bc57 80bc 1436 f63c b6d2 a43c 1f0f d33d
00000030: 5b23 a73c 9011 aa3d 6924 a63d 14b4 22bd
00000040: c7cf 41bd c44e 7f3d 023c 4abd 6e93 9abd
00000050: 9c21 e83c 768b 8cbc ee8b 9fbd f8b5 61bd
00000060: a990 1b3d 0353 38bd 33fe 81bd 83aa d1bc
00000070: 5d6b 8ebd 8358 e4bc 606b 693d 1244 b9bd
00000080: f604 963d 9371 953c c507 b93c 92e8 c43a
00000090: c704 db3d eec4 323c 80fe f53d ab27 093d
000000a0: 3574 8e3d 27cb 5dbd 4811 873d 61ed 7ebd
000000b0: b695 7a3d 17cd c83d 3be7 6cbd 2a16 663d
000000c0: e681 683c aa32 9bbd 7744 813d 5986 b7bb
000000d0: 6d39 3f3d da6e e2bd 47be 81bc 519c 00bd
000000e0: 5755 513b 2ec2 7f3d 363d 8b3c 4dec c13d
000000f0: 3669 29ba f4d8 8a3b b1aa 19bd cc53 ab3d
00000100: 65c2 d5bd 8a48 b0bd e68a 8dbd 450b 83bc
00000110: 014a d9bc cb74 75bd 6426 41bd 087a a3bd
00000120: a3ae 8bbc a080 803c f4f5 5fbd 46c2 e53d
00000130: 0514 c73c 3ef3 b5bd 7599 113d 2c99 03bd
00000140: 9866 c5bd b273 513d f6e6 8dbd 73b2 99bd
00000150: f223 9fbd 8d6f 48bb 6fe2 aabc 94e4 8f3a
00000160: fd12 a2bd ac79 11bc a680 5c3d b94c 79bd
00000170: fd78 463d 6b46 e63d 13b9 023c bc69 c93d
00000180: 03d6 d4bd 80c9 533d 2a2f c63c d561 cf3b
00000190: b1fe 903d 2f47 98bd 1429 0fbd 4a6d 6cbd
000001a0: d28d ca3d 615d 693c 84f9 2fbd 8cfd 683d
000001b0: 17eb dfbc 11f7 9b3d 34a1 61bc d692 f1bc
000001c0: 7bc5 ea3b fadd a3bd 943a 6fbc 4592 c23d
000001d0: 4ada 6f3d 133f 663d 22c0 8d3d c671 46bd
000001e0: 437a 0abd e489 a8bc 8604 fe3b 5549 72bd
000001f0: 8ec4 a53d c851 8b3d 6ea2 76bd 52f1 bfbd
0.026909929 -0.03847278 -0.08914667 0.094821595 0.010894643 0.08341324 -0.061344843 -0.06978041
-0.015666835 0.030055083 0.020120006 0.103056185 0.020402601 0.08304131 0.081124134 -0.039722517
-0.047317293 0.062330976 -0.049373634 -0.07547651 0.028336339 -0.017156344 -0.07790361 -0.05510518
0.037979756 -0.04500104 -0.06347313 -0.025594002 -0.06954072 -0.027874237 0.056987166 -0.090461865
0.07325165 0.018242633 0.022586713 0.0015022925 0.106942706 0.0109112095 0.12011433 0.033485096
0.069557585 -0.05414882 0.06595093 -0.0622381 0.06117793 0.09804743 -0.057837706 0.05617348
0.014191126 -0.07578023 0.06311887 -0.0056007323 0.046685625 -0.110562995 -0.015837802 -0.031399075
0.0031941736 0.062441044 0.016996961 0.09468899 -0.0006462516 0.0042372886 -0.0375163 0.08365592
-0.104374684 -0.08607586 -0.069112584 -0.015996585 -0.026524546 -0.059925836 -0.047155753 -0.0798226
-0.017051047 0.015686333 -0.05467792 0.11218695 0.024301538 -0.088842854 0.03554674 -0.032128498
-0.09638709 0.051135726 -0.06928818 -0.075047396 -0.07770528 -0.0030584068 -0.020859925 0.0010978156
-0.07913778 -0.0088791065 0.053833626 -0.060864184 0.048455227 0.112439 0.007978695 0.0983462
-0.10392382 0.051705837 0.024192411 0.006328801 0.070798285 -0.07435452 -0.034951285 -0.057721414
0.09890331 0.014243455 -0.042962566 0.056882426 -0.02733378 0.076154836 -0.013771344 -0.029488962
0.007164655 -0.08001323 -0.014601368 0.09500555 0.058557786 0.056212496 0.06921412 -0.048448347
-0.033808004 -0.020573564 0.007752004 -0.059151966 0.080941305 0.06802708 -0.0602135 -0.093722

bn2.running_var f4 [128]
00000000: f355 733e 6a71 a43e 5757 963e b0fe 943e
00000010: 7153 6f3e e44c c33e e2a5 2c3e 4869 993e
00000020: 2a10 843e dacf 7a3e 5482 423e 60d9 883e
00000030: 36e2 243e c126 ad3e 14d1 843e 7811 663e
00000040: 4bce 3a3e 26d8 883e 8563 7d3e 086b ca3e
00000050: 7312 5f3e 69c8 2d3e d39a 633e 73d3 a23e
00000060: 0eab 6c3e 711c a83e 38cf 9b3e 0dcf 893e
00000070: 32f8 953e d3ae 7d3e 2cf6 723e a7bf c73e
00000080: 1f47 b13e ce64 973e bb2c 8f3e d694 963e
00000090: 4983 d03e 0f52 493e 0927 ab3e 400a b23e
000000a0: e539 543e 5771 873e 2706 9a3e 3830 663e
000000b0: feab 8f3e 5c52 b13e 997c 953e 605e 563e
000000c0: 31e6 ab3e df85 b03e 7fdc 923e a0fb 6d3e
000000d0: b700 7e3e 46a8 b43e ef34 6a3e 0ebf 8f3e
000000e0: 240e a93e f607 863e ddc2 913e 5f31 863e
000000f0: 400d 753e 62c7 af3e 350a 6f3e 7245 7f3e
00000100: 71ce c63e 100d c63e f55c 623e a95f 9f3e
00000110: 76b4 be3e 549c 6f3e 101a 9d3e d5b5 9c3e
00000120: 4919 663e 0442 693e 9482 583e 1f0f e03e
00000130: 0d31 993e becf db3e 3677 6c3e 10ed 9a3e
00000140: af42 ea3e e647 653e a167 8d3e 45a0 8d3e
00000150: 48c7 903e 5a9d 7d3e 788a 943e d6c3 a03e
00000160: 32ce 983e 3c14 bd3e 3123 843e 1fd7 843e
00000170: 2692 953e 0bc9 dc3e d28d 6f3e 5c51 cd3e
00000180: 314d 973e 9a2f a63e c991 a33e e34b 923e
00000190: 6cb1 563e 37e1 b53e 45df 9b3e 0c82 903e
000001a0: 667b b83e c285 3b3e 9984 473e c69d 893e
000001b0: 9bae b43e ad07 8f3e 3df1 333e 24a4 793e
000001c0: a559 6d3e 333f 883e ae7f 7b3e 5b5f 903e
000001d0: fd3a 953e 0b95 673e 5f32 853e 2f0d 7b3e
000001e0: 4143 a23e b43c 683e 960f 8a3e 14d6 a93e
000001f0: 2502 b23e d527 953e bd3a 9d3e cae0 b43e
0.23763256 0.32117778 0.2936351 0.2910056 0.23371674 0.381446 0.16860154 0.29963136
0.25793582 0.24493352 0.18995029 0.26728344 0.16101918 0.3381863 0.25940764 0.22467601
0.18242757 0.26727408 0.24744995 0.39534783 0.21784382 0.16970982 0.2222703 0.31801948
0.23112127 0.328342 0.30431533 0.2691578 0.2929092 0.24773721 0.2372672 0.39013407
0.34624574 0.29569095 0.27963814 0.29410428 0.40725163 0.19660209 0.3342822 0.34773445
0.2072521 0.2645366 0.3008282 0.22479331 0.28060907 0.34633148 0.29196623 0.20934439
0.3357406 0.34477136 0.2868385 0.23240519 0.2480496 0.35284632 0.22871755 0.2807545
0.330186 0.2617795 0.2846898 0.26209542 0.23930836 0.34331805 0.23343737 0.24928835
0.38829377 0.3868184 0.22105773 0.3112767 0.37247056 0.23399478 0.30683947 0.30607477
0.22470583 0.22779089 0.21143562 0.43761536 0.29920235 0.42931932 0.2309235 0.3025899
0.45754 0.22390708 0.27618125 0.27661338 0.2827704 0.24767056 0.29011893 0.3139941
0.29844815 0.369295 0.258081 0.25945374 0.29213065 0.43122134 0.23393944 0.40101135
0.2955108 0.32458192 0.31947163 0.28573522 0.20966119 0.35523388 0.3044378 0.28224218
0.36031646 0.18312743 0.19484176 0.26878184 0.35289463 0.27935544 0.17572494 0.24379021
0.23178728 0.26610717 0.24560425 0.2819775 0.29146567 0.22615449 0.26014993 0.24516748
0.31691936 0.22679406 0.26965016 0.3317114 0.3476726 0.29131952 0.30708876 0.3532775

hidden3.weight f4 [16, 128]
00000000: 86f3 c1bd f7f2 acbd c20c f0bc aa96 2abd
00000010: 3f1b 693d 0b02 5bbd d65d f5bc d500 4d3d
00000020: 192d 8ebd 8b38 523d 13cc bebd 4abd 85bd
00000030: 74e8 8abd 5833 06bd 370d 743d 989d 9f3c
00000040: 9ec6 c33b 7c26 983d 0a97 93bd 5677 d3bc
00000050: cdd9 2d3d dc7b f43c ffd5 35bd 49b9 943d
00000060: 0d92 8dbd 044e 533d 0d04 603d a70a 8a3d
00000070: e4fb 623d 72c8 1bbd 4431 25bd 6d21 3bbd
00000080: 80aa 093c c84f c13c bfbb eb3c 7c78 26bd
00000090: 70fc 1dbd cc91 1f3c e029 493c b3c0 d13d
000000a0: 8882 073c 84c9 48b9 e851 bfbd fe45 073d
000000b0: 58fa 14bc c1a5 f8bc 4cd8 893d ab0b e0bc
000000c0: 8883 cbbc aa27 d63b 0c28 523d 54a6 083c
000000d0: f151 353d e446 9b3d 63b7 8a3c cb20 583c
000000e0: f97f 70bd 3ade 00bd 9d03 9abd db35 9b3a
000000f0: cbc8 02bd dbf5 c1bc da85 95bd 8c93 a63b
00000100: b054 4a3d 603b 76bd 4e9e 833d 41f4 8bbd
00000110: a7a2 71bd 1555 8a3d f1c5 2eba 84bd 81bd
00000120: 5ab7 953d 4cfe 38bc 5450 45bd f425 273d
00000130: da1d cabd f3a4 11bb c176 cdbc 7b13 ccba
00000140: 2925 5a3d b90b 57bd d55f 3e3d 8936 d23b
00000150: 9d43 6bbd a81a 8b3d 1456 92bd c12b 1cba
00000160: f155 583d d5a3 40bd 4ece 9dbd e501 0d3d
00000170: 7faa 03bb 702b fd3c 1564 bb3c f8c2 aabd
00000180: e66d a53d 2d1e 80bc 4e85 5fbd ff64 90bd
00000190: a817 48bd b46b 79bd f284 90bd fc16 6a3d
000001a0: acfb e13c 1600 ce3c 532f 04b8 2056 3d3d
000001b0: 583c 1dbd 14e6 a5bd c800 4cbc eb75 19bc
000001c0: 7226 3cbd e441 1fbd 3768 363c 9adb 57bd
000001d0: 0c46 12bc fb41 4e3c 85eb 98bd 024e da3d
000001e0: 6ebb fa3c 05d3 9b3c 51b1 a0bd 4c5b 19bc
000001f0: 49ab 35bd 0bec 1ebd 7e11 083c e196 f53c
00000200: 3d21 ae3c ae7b cebb b321 a83d 6c73 aebd
00000210: 9faa 71bc a08f acbd 47af 2d3d 2078 963c
00000220: 27f3 3a3c 4069 1eba b4ce a3bc a5e8 043d
00000230: d211 a8bd 5b56 0fbd 16db 6abd 77dc 403c
00000240: 65fa 0b3d 150c ddbc 6596 373c 7ed7 abbc
00000250: 58cb 80bd e1ff 403c 0f96 7e3d 08ea 19bd
00000260: c2d0 5cbd 5e9a db3d f84a 583d 6d3a 0e3d
00000270: 29c4 08bc e2ec 003d d4e3 e73c 666f afbd
00000280: fd11 acbd dcbe c5bd fc4c f4bd 1691 a53d
00000290: 5901 80bd ace7 0a3c 1fee 753d 8b48 a6bd
000002a0: 42bb efb8 d9d4 7cbd 6976 243d 0d5e ef3b
000002b0: db85 9f3d a26b 033d 4c38 a4bc f64c 9cbd
000002c0: d627 bf3d 445c 43bd bd37 8cbd fc84 a33d
000002d0: 18e2 d9bc 06ae ba3a 1b98 b23c 27a4 31bd
000002e0: 16e3 08bd 1900 003d 80a1 de3d 2b33 ecbb
000002f0: 8433 a2bb 0261 23bc 01e0 f33d 468f a8bd
00000300: d546 8fbd 20c9 983d dffb 8ebd 8b16 5b3d
00000310: 75f0 e23d 94f9 5dbc 6414 24bd 458d c73c
00000320: 3021 35bd 5e27 02bd c91e e23c 963c cc3b
00000330: b65f a53d 6c07 26bd 2c8c 3ebd ff67 dcbc
00000340: 374b 3cbd f6ff afbc b5f3 99bd b7a1 fcbc
00000350: 7787 76bc 26c2 a53c ff36 623d 6a01 e5bc
00000360: 00c3 0f3d bf85 393d 926f 44bb 03b0 a13d
00000370: f3ec d8bd 453d 62bd 80ed 893d 43ad 8bbc
00000380: aeb6 16bd de1e 94bd 929a a03d efc1 76bd
00000390: 702c 243b c6e3 a33d a837 9a3d 5931 223c
000003a0: 86a5 8038 d449 ac3c f112 d8bc bdd4 403d
000003b0: 7223 a63b 1e06 f23c a113 e0bb 1b26 a2bd
000003c0: dce8 f23d 8bac 3b3b a3fc 51bd 8a8a 203d
000003d0: 9029 ae3c 58c4 1fbd 2104 a8bd 206d b83c
000003e0: cbe3 d3bc 84cd bf3b 945d 513d c5b8 163d
000003f0: 20a2 debc e584 aabc 5f2a f43d 191c 8ab9
-0.094702765 -0.08444779 -0.029302958 -0.04164759 0.05691075 -0.053468745 -0.029951971 0.05004962
-0.069421954 0.051323455 -0.09316268 -0.06530245 -0.06782618 -0.03276381 0.059582915 0.019484326
0.0059746047 0.07429215 -0.07206543 -0.02581374 0.04244404 0.029844217 -0.044393536 0.07261903
-0.069126226 0.051588073 0.054691363 0.06740313 0.055416003 -0.038032956 -0.040330186 -0.045686174
0.008402467 0.023597613 0.028776048 -0.040642247 -0.03857082 0.0097393505 0.01227805 0.102418326
0.008270867 -0.00019148557 -0.09341794 0.033025734 -0.00909289 -0.030352475 0.067307085 -0.027349314
-0.024842992 0.00653549 0.051307723 0.008340437 0.0442676 0.07581881 0.016933149 0.013191412
-0.058715794 -0.03146193 -0.075202204 0.0011841612 -0.031929772 -0.023676803 -0.07300921 0.005083507
0.04939717 -0.06011522 0.064266786 -0.06833697 -0.058993008 0.06754509 -0.0006667069 -0.06334975
0.07310362 -0.011291098 -0.04817231 0.04080768 -0.09868975 -0.0022223562 -0.02508104 -0.001556977
0.053258095 -0.052501414 0.04647811 0.0064151925 -0.057437528 0.06792194 -0.07145324 -0.00059574476
0.052816335 -0.047031242 -0.07705365 0.034425635 -0.0020090637 0.030904502 0.022874871 -0.083379686
0.08077602 -0.015639389 -0.05457049 -0.070505135 -0.048850685 -0.06089373 -0.07056607 0.057150826
0.027585827 0.025146525 -3.1515327e-05 0.046224713 -0.038387626 -0.081005245 -0.012451358 -0.009366493
-0.0459351 -0.038881198 0.011133245 -0.052699663 -0.008927833 0.012588973 -0.07466797 0.1065941
0.030606952 0.01902152 -0.078463204 -0.009360146 -0.044352803 -0.038799327 0.008304952 0.029979171
0.021256084 -0.006301365 0.082095526 -0.08518109 -0.014750152 -0.08425832 0.042403486 0.018367827
0.011410511 -0.0006042905 -0.019996025 0.03244843 -0.08206524 -0.034994464 -0.057337843 0.011771313
0.03417434 -0.0269833 0.01120529 -0.020976778 -0.06288785 0.011779756 0.062154826 -0.037576705
-0.053910024 0.107228026 0.05280587 0.034723688 -0.0083475495 0.03147591 0.02830688 -0.085661694
-0.084018685 -0.09655544 -0.11928746 0.080843136 -0.06250257 0.008478086 0.060041543 -0.08119305
-0.000114312876 -0.061726425 0.040151987 0.007304913 0.07789203 0.03208507 -0.020046376 -0.07631867
0.0933377 -0.047695413 -0.06846569 0.07984349 -0.026597068 0.0014242537 0.021801045 -0.04336944
-0.03341969 0.031250093 0.108706474 -0.007208248 -0.004949989 -0.009971859 0.1190796 -0.08230452
-0.06995932 0.074602365 -0.06981634 0.053488296 0.1108102 -0.013548274 -0.04005851 0.024359355
-0.044221103 -0.031775825 0.02760257 0.0062328083 0.08074896 -0.04053442 -0.046520397 -0.026905058
-0.045970168 -0.021484356 -0.075171866 -0.03083883 -0.015046946 0.020234179 0.05522823 -0.027954776
0.035098076 0.045293566 -0.0029973728 0.078949 -0.105920695 -0.055234212 0.06734753 -0.017050391
-0.03679531 -0.0723245 0.07841982 -0.060243543 0.00250509 0.08002429 0.07530147 0.009899461
6.134347e-05 0.021031298 -0.02637622 0.047077883 0.0050701434 0.029543933 -0.0068382774 -0.07917424
0.11860821 0.002863678 -0.051266324 0.03919462 0.021260053 -0.039005607 -0.082039125 0.022512972
-0.025865456 0.005853357 0.051114634 0.036797304 -0.027176917 -0.020815322 0.11922144 -0.00026342346

bn3.weight f4 [16]
00000000: 5537 7d3f b121 693f 7edf 7c3f 48ee 813f
00000010: 2af6 6c3f 8b26 7d3f 1338 673f e0c0 7a3f
00000020: 1fdd 7a3f d979 7d3f 66fc 643f fa3d 7b3f
00000030: a976 753f cda4 793f a95b 7e3f defc 7e3f
0.98912555 0.91067034 0.9877852 1.0150843 0.92563117 0.98886937 0.9031994 0.97950554
0.97993654 0.9901405 0.8944763 0.98141444 0.95884186 0.9751709 0.9935861 0.99604595

bn3.bias f4 [16]
00000000: dac5 e3bd 6aa7 c2be 2f8e d3bd 8811 693e
00000010: eef1 8d3e e81d b73d 7729 eb3e 632e 273e
00000020: b5f8 dabe a933 cabe b631 d43e b0a5 143f
00000030: 21dc 85be d3d3 26be e9b1 c93d 2f6f 603c
-0.111217216 -0.38018352 -0.10329854 0.22760594 0.2772364 0.08941251 0.45930073 0.16326289
-0.42767873 -0.3949254 0.41444176 0.5806532 -0.26144508 -0.16291742 0.09848387 0.013698383

bn3.running_mean f4 [16]
00000000: 029a 20bd 17e8 b1bc 8cdd 38bd c01b b53c
00000010: 22f7 763b aa41 fe3c c330 d53d 2437 32bb
00000020: 2311 a63c ae1e 00be b7ab 27bc 2da2 193e
00000030: 757b 913c 817d f6bc 365d e23b 59f3 563c
-0.039209373 -0.021717114 -0.04513316 0.022107959 0.0037683924 0.03103717 0.10409691 -0.002719351
0.020271843 -0.12511703 -0.010233811 0.15003271 0.017759064 -0.030089142 0.0069080843 0.013119542

bn3.running_var f4 [16]
00000000: 55d2 253f 290c a03f 2b31 203f 0c3b a83f
00000010: 187a 4b3f b546 e43e 11c2 b63f 1a43 263f
00000020: f136 d23f 9e80 1340 d9df 5e3f 65a3 2240
00000030: 35d5 253f 9156 0d3f 36be 983e 0557 683e
0.64774066 1.2503711 0.62575024 1.314302 0.79483175 0.44585195 1.4277974 0.6494614
1.6423017 2.3047252 0.87060314 2.5412228 0.64778453 0.55210215 0.2983262 0.22689445

output.weight f4 [1, 16]
00000000: a10e d93d cafe d93e 4446 a63d 527a debe
00000010: fc7d 93be fdf3 f5bd 8a52 f3be f5b2 3abe
00000020: ad05 143f 077a 053f 72fb ebbe a199 47bf
00000030: a53e 933e 10e0 1e3e cc5f 48bc 0818 2b3c
0.10598493 0.425772 0.08118871 -0.43452698 -0.28807056 -0.12009428 -0.4752391 -0.18232329
0.5782116 0.52139324 -0.46090275 -0.77968794 0.2875873 0.1551516 -0.012229871 0.010442741
