models/focal_loss_checkpoints/checkpoint_epoch_280.pth (torch, 100242 bytes, 16 tensors)

hidden1.weight f4 [128, 30]
000000 38 30 de 3d 2d 22 25 be 65 bb 65 bd a1 1e 4a bd
       0.10849041 -0.16126318 -0.056086916 -0.049345616
000010 d9 e0 d4 3d 04 b6 bf bd 49 6e 6a 3c 60 69 da 3c
       0.10394449 -0.093608886 0.014308521 0.026661575
000020 ff 2f 6e 3a 65 64 cc bd 12 a3 16 be b3 45 47 3e
       0.00090861315 -0.09980086 -0.14710644 0.19460182
000030 f3 b3 ce bd 42 7a d6 3c a6 a1 40 bd b2 97 c1 3d
       -0.10092916 0.026181344 -0.04702916 0.09452762
000040 d5 b3 5b be 66 41 46 3d e1 56 28 3e 48 e0 70 3e
       -0.21455319 0.048402213 0.16439392 0.23523057
000050 53 74 c6 3d 16 04 28 3d 86 56 e6 bd 37 d9 32 3d
       0.09690156 0.04101952 -0.11246972 0.043664183
000060 a1 6e b9 3d f2 05 7a 3d e3 1d a4 bd 73 01 1f 3e
       0.09054304 0.061040826 -0.08013513 0.15527897
000070 8b 16 d4 3d 9a 9e a2 bd 49 a1 38 be c3 cd 2c 3b
       0.10355862 -0.07940407 -0.18030275 0.002636776
000080 e1 d6 e8 3c b7 84 01 3d 9f 4a fd bc 02 ec 25 3c
       0.028422775 0.031620707 -0.030919371 0.010127069
000090 e0 e0 9f bd 36 7d 4a 3b bd 92 0f bd 0d e8 12 be
       -0.078065634 0.0030897385 -0.03505205 -0.14346333
0000a0 91 3b 8d bd db 04 26 be 65 fa 2f 3e f6 b2 18 3e
       -0.06896127 -0.1621279 0.17185362 0.14912018
0000b0 6a 6c 95 3d 91 12 1f bd 53 36 e8 bd 75 9b 73 3d
       0.07296069 -0.038836066 -0.113384865 0.059474427
0000c0 ce c0 ce 3d 31 2b e0 3d ee d0 37 be de b7 0a be
       0.10095368 0.10945738 -0.17950794 -0.13546702
0000d0 f6 ea d3 bd d9 bd 5b 3d 55 2a 4e 3e 02 63 22 be
       -0.103475496 0.05364785 0.20133336 -0.15858081
0000e0 3e 9d d2 3d fb 8c 82 3c 25 81 17 be 88 e4 3f bd
       0.10283898 0.015936365 -0.14795358 -0.046848804
0000f0 e1 14 0a 3e 26 6d de 3b 60 f9 39 3d b6 de 03 be
       0.13484527 0.006787914 0.04540384 -0.12877926
000100 3c fd 02 bb e7 bc 9d 3d 67 7d e3 3d f2 5c 3a bd
       -0.0019987365 0.07702046 0.11107903 -0.045498796
000110 fb f6 cc 3d 0b 83 e7 3d c0 0c 96 3c da a8 04 be
       0.10008045 0.11304291 0.018316627 -0.12955037
000120 3c 5e 39 be f6 2b e1 3d 6a d9 0b 3e 67 95 28 3e
       -0.18102354 0.10994713 0.13657156 0.16463242
000130 bb 69 2c be 1a c8 3a be 46 c8 b3 bd 8a 8f ed bd
       -0.16837208 -0.18240395 -0.087784335 -0.115996435
000140 e8 fa 05 3d 2d 50 21 bd 39 83 2e be a2 b2 d1 bd
       0.032709986 -0.039383102 -0.17042245 -0.1023915
000150 dd 14 d6 bd b6 81 aa bd aa 18 39 3d df 57 8e bd
       -0.10453198 -0.08325522 0.045189537 -0.06950354
000160 73 82 91 ba 05 c1 0b 3e 1f 93 1f bc 87 e9 2d 3e
       -0.0011101499 0.1364785 -0.009739666 0.16983615
000170 f2 cb a3 bd 85 a5 d7 bc ec 98 b4 bd 37 24 14 3d
       -0.07997884 -0.026324043 -0.0881823 0.03616735
000180 94 3b 2c 3d c9 bf 2e 3d cc 9e 26 bd a9 40 a3 bd
       0.042049006 0.04266337 -0.040678784 -0.07971317
000190 d4 99 0c 3e 6e ea 34 be 9c 7f f4 3c 0b c1 b0 3d
       0.13730556 -0.17667553 0.029846005 0.0863057
0001a0 4c b8 4e bd d2 a0 05 3e cd db be bd 50 7c e9 bc
       -0.050468728 0.1304963 -0.093192674 -0.02850166
0001b0 40 25 ec bd 58 94 98 bc 65 54 04 bd fd 11 28 be
       -0.115305424 -0.018625423 -0.032307047 -0.16413112
0001c0 0e 2e 86 3d 8c 30 46 bc 16 e9 54 3e 85 80 45 3e
       0.06551753 -0.012096535 0.2079204 0.19287308
0001d0 20 4e 18 be 33 91 2e 3d 8b 51 78 3d 44 f1 e3 bd
       -0.14873552 0.04261894 0.06062464 -0.11130002
0001e0 63 a5 9a 3d 40 0e 62 3c 2d 73 53 be 2e 06 eb bd
       0.07551076 0.013797343 -0.20649405 -0.11475788
0001f0 d1 7c 2c be f2 22 e6 bd bf bb fb 3d 59 0f cb bd
       -0.16844489 -0.11237134 0.12291669 -0.09915037
000200 22 76 a4 3c a8 3c 34 3e e5 01 05 3e c4 a6 ba 3d
       0.020075861 0.17601264 0.12989004 0.09113839
000210 3e d2 68 3e 4c c7 70 bd 79 07 ac 3d 4c a4 06 be
       0.22736451 -0.058783814 0.08399863 -0.13148612
000220 0c b8 95 3d da 96 45 bd 51 7e e1 bd 98 16 4b be
       0.07310495 -0.048239566 -0.11010421 -0.19832838
000230 ce 81 79 3b 72 7a fa 3b e4 4b 9d bd 22 e8 3c 3d
       0.0038071754 0.007643991 -0.076804906 0.046119817
000240 47 c0 23 3e c8 cf 0a 3e 7f 12 90 bb aa a9 8e bd
       0.15991317 0.13555825 -0.004396736 -0.069659546
000250 1e dc 12 bb f1 78 9c 3c cc 3d 99 bd f8 22 82 bd
       -0.0022409032 0.019100638 -0.0748249 -0.06354326
000260 10 33 33 3e 81 35 c6 3c e3 c6 48 3e 27 99 29 3d
       0.17499948 0.024195435 0.1960712 0.041405823
000270 4d 23 57 3e 3a 58 73 3c 19 8f 08 bd b4 2a 03 3d
       0.2100956 0.014852578 -0.033339594 0.032023147
000280 0b 96 3f 3d a5 ab b9 3d ee 8d 56 bd 87 f5 da 3d
       0.04677395 0.09065942 -0.05238145 0.10691362
000290 14 ca 2f be 34 d8 97 3d 23 a8 ad 3d 05 e5 d1 bd
       -0.1716693 0.07414284 0.08479335 -0.1024876
0002a0 60 c3 6a bd 53 8f f8 3d c3 a8 73 3d 69 25 1f bd
       -0.05731523 0.12136712 0.059487116 -0.038854036
0002b0 8c a1 cf bd 88 26 0a bc 3c 5e ba 3d 7e 0e b3 bd
       -0.101382345 -0.008432038 0.09100005 -0.087429985
0002c0 42 16 54 bd 65 91 0d be 92 01 a4 bd 5f 1c 67 3d
       -0.05177904 -0.13824995 -0.08008112 0.05642354
0002d0 db 28 c1 bd cd 53 47 bd a2 b0 52 3d fd 12 10 be
       -0.09431621 -0.048663903 0.05143798 -0.14069743
0002e0 32 46 50 bd 7e 46 25 3e bb 3e 7a bd d2 dc f3 3d
       -0.050848193 0.16140172 -0.06109498 0.119073525
0002f0 d3 37 de bb 99 e8 12 be fb e8 4c bd 70 f3 41 be
       -0.006781557 -0.14346541 -0.050026875 -0.1894052
000300 76 bc 43 3e 92 17 32 3e 90 58 fd 3d 5b 9f 47 3d
       0.19114861 0.17391804 0.123704076 0.048735958
000310 2c f4 01 3e 78 02 66 3d 00 d1 ae 3c c7 8a 18 3d
       0.126908 0.056154698 0.021339893 0.037241723
000320 cf b0 55 3d 1a 12 e3 bc 8a fc 07 be f1 66 ea 3d
       0.05217057 -0.027718592 -0.1327993 0.11445416
000330 a5 e4 07 3e 62 d9 d2 bd 59 6e 5e 3d 78 06 bf 3d
       0.13270815 -0.10295369 0.054304454 0.09327406
000340 c2 60 8a ba 5e 71 c3 bd ce 23 5e bc 52 d8 88 bd
       -0.00105574 -0.095431075 -0.013558341 -0.06681885
000350 b6 6b 7c 3b 03 04 15 3e 4c d4 47 be 1c df db bd
       0.003851635 0.14552312 -0.19514579 -0.10735914
000360 88 07 38 3d 1c 5a f7 bc e9 17 c1 bd 04 ed 64 bc
       0.044929057 -0.030194335 -0.094283886 -0.013972525
000370 4c 6a 94 3d 0a e6 42 be 0d a0 a8 bc 21 20 3f 3d
       0.07246837 -0.19033065 -0.02058413 0.0466615
000380 0b 50 a3 3d c9 10 49 bc 57 e6 21 3e 81 1a 0d 3e
       0.07974251 -0.012272068 0.15810524 0.13779642
000390 67 4b cf bd ea 34 23 3d ff 04 d3 3d 63 2b 81 bd
       -0.10121804 0.039845385 0.10303687 -0.063071035
0003a0 48 3e 25 3e 06 c1 59 bc 33 52 30 3e 63 cb 80 bd
       0.1613704 -0.013290649 0.17218857 -0.06288793
0003b0 82 fd 25 3e e7 7e f9 bd aa 79 ab 3d 1e 77 a7 bd
       0.16209987 -0.12182408 0.08372815 -0.08177017
0003c0 23 19 ef bd 86 c4 b1 3d 40 98 25 be 4b 1f 29 3e
       -0.11674716 0.08680062 -0.1617136 0.16515844
0003d0 7d e6 94 3d 48 80 49 bd 38 74 0a 3d 2d ae 0b 3e
       0.07270525 -0.049194604 0.03380224 0.13640662
0003e0 5a 77 0c 3d c7 d1 f1 3c 27 08 47 3e ac 99 e6 3d
       0.03429351 0.029518975 0.19436704 0.11259779
0003f0 ff a3 93 bc b6 9f e2 3c bb 05 70 3e 09 44 e4 bd
       -0.018022535 0.027664047 0.23439686 -0.11145789

bn1.weight f4 [128]
000000 b7 6a 81 3f 59 61 7f 3f 21 d3 80 3f 80 6c 80 3f
       1.0110692 0.99757916 1.0064431 1.0033112
000010 d4 0d 7f 3f a7 bb 85 3f cc e7 82 3f b7 f9 7f 3f
       0.99630475 1.0447892 1.0226989 0.9999041
000020 38 b1 82 3f 1d e7 80 3f 8c fb 80 3f 55 43 80 3f
       1.0210333 1.007053 1.0076766 1.0020548
000030 29 c0 80 3f f9 fc 7f 3f c5 55 7f 3f ab 36 81 3f
       1.0058643 0.9999538 0.9974025 1.0094808
000040 15 dc 80 3f a5 e7 80 3f 0c 57 82 3f d6 36 81 3f
       1.0067164 1.0070692 1.0182815 1.009486
000050 3b ae 82 3f dc fb 7f 3f 91 44 81 3f 4b 42 82 3f
       1.0209421 0.9999368 1.009905 1.0176481
000060 75 2c 82 3f 95 e7 81 3f 05 58 7f 3f fc de 82 3f
       1.0169817 1.0148798 0.9974368 1.02243
000070 da 37 81 3f 7b 3e 80 3f f1 d3 80 3f 66 78 81 3f
       1.009517 1.0019068 1.0064679 1.0114868
000080 da c3 81 3f f9 02 84 3f 3a 42 81 3f 52 c9 82 3f
       1.0137894 1.0313407 1.0098336 1.0217688
000090 b2 42 82 3f 77 5a 82 3f 8e 33 81 3f b9 ed 82 3f
       1.0176604 1.0183858 1.0093858 1.0228797
0000a0 15 a8 80 3f 5d 46 7f 3f a9 c3 80 3f 98 c2 86 3f
       1.0051295 0.9971674 1.0059711 1.0528135
0000b0 f1 86 81 3f a6 f9 7f 3f 93 5a 7c 3f 7c 6f 82 3f
       1.0119306 0.9999031 0.98575705 1.0190272
0000c0 7a cb 80 3f 7d 5c 7c 3f ab ea 7e 3f 78 f9 81 3f
       1.0062096 0.98578626 0.99576825 1.0154257
0000d0 77 a3 81 3f f2 55 80 3f db 86 84 3f c7 b0 82 3f
       1.012801 1.0026228 1.0353655 1.0210198
0000e0 4d 59 80 3f 49 53 81 3f be 39 80 3f ca 25 82 3f
       1.0027252 1.0103542 1.0017622 1.0167782
0000f0 a1 59 80 3f 8f 73 80 3f 30 51 81 3f 35 e1 83 3f
       1.0027353 1.0035266 1.0102901 1.0303103
000100 b7 71 83 3f 2e d2 81 3f 99 d9 81 3f 86 ab 83 3f
       1.0269078 1.0142267 1.014453 1.028672
000110 05 93 82 3f 85 4d 82 3f 56 a1 83 3f ab 5c 82 3f
       1.0201117 1.0179907 1.0283611 1.018453
000120 c8 25 80 3f eb a8 80 3f 1f 98 7e 3f 36 b6 84 3f
       1.001153 1.005155 0.9945087 1.0368106
000130 8f bb 84 3f 5a 1c 82 3f cf 38 81 3f c1 cb 7e 3f
       1.0369738 1.0164902 1.0095462 0.99529654
000140 aa 73 80 3f 76 a5 82 3f 16 d9 81 3f 18 13 81 3f
       1.0035298 1.0206745 1.0144374 1.0083952
000150 91 f9 7e 3f 81 57 83 3f b8 a1 7d 3f f7 43 81 3f
       0.9959956 1.0261079 0.9907489 1.0098866
000160 2a d8 80 3f f3 62 81 3f 58 e3 82 3f 14 1e 7b 3f
       1.0065968 1.0108322 1.022563 0.9809277
000170 84 2e 80 3f ea 8f 80 3f 80 dc 7e 3f 4e ea 80 3f
       1.0014195 1.0043919 0.99555206 1.0071504
000180 d8 1f 82 3f 1d 0c 82 3f 82 b2 81 3f 1c 32 84 3f
       1.0165968 1.0159947 1.0132601 1.0327792
000190 8e ff 88 3f 00 f5 7e 3f 82 d8 7a 3f cc 8c 7f 3f
       1.0702989 0.9959259 0.97986615 0.99824214
0001a0 3b d2 84 3f 02 8d 86 3f b8 f1 80 3f 45 c6 7f 3f
       1.0376657 1.0511782 1.0073767 0.9991191
0001b0 3d 31 81 3f 31 05 7d 3f 80 2e 80 3f e5 11 82 3f
       1.0093151 0.98836046 1.0014191 1.0161711
0001c0 db 76 82 3f 4a fd 81 3f 44 5e 81 3f b0 23 81 3f
       1.0192522 1.0155423 1.0106893 1.0089016
0001d0 4b 2f 82 3f 2a a4 80 3f ad c8 83 3f b6 82 7f 3f
       1.0170683 1.0050099 1.0295616 0.99808824
0001e0 49 56 81 3f b9 cc 84 3f 28 a8 7a 3f d2 47 80 3f
       1.0104457 1.0374976 0.97912836 1.0021918
0001f0 eb b4 83 3f ea eb 81 3f 9c 37 7f 3f 42 46 82 3f
       1.0289587 1.015012 0.9969423 1.0177691

bn1.bias f4 [128]
000000 2c 14 90 bd 87 eb 58 3d 7f b9 42 bb 73 a6 0c 3d
       -0.070350975 0.05295899 -0.0029712615 0.034338426
000010 95 c4 98 3d 52 df 7a bd c3 76 2f 3d 86 41 2d 3d
       0.0745937 -0.06124813 0.04283787 0.042298816
000020 6b 88 17 3d a1 40 ae 3d 1b c7 3c bd 20 51 f7 ba
       0.036995333 0.08508421 -0.04608832 -0.0018868782
000030 60 01 3c 3d 8b 7c a4 3c 53 4b e5 bd 5e c0 f8 bc
       0.04589975 0.020078918 -0.111960076 -0.030365165
000040 f8 27 05 bc 82 a8 8f bc 6d 82 80 3d 56 a1 87 3c
       -0.008127205 -0.017536405 0.06274877 0.016556423
000050 01 b1 7b bd 00 f3 05 3d 30 1c 40 bb f5 22 0d 3d
       -0.0614481 0.032702446 -0.0029313676 0.034457166
000060 41 fd 2a bd 4b 69 0e 3d 5a f9 d4 3b 2a 7a 93 bd
       -0.041745428 0.034768384 0.0064994516 -0.07201035
000070 32 ed f4 3c e5 af b3 3b 5b d1 76 3d be 65 82 bc
       0.02989826 0.0054836147 0.06025825 -0.015917655
000080 41 a1 a4 3d 50 12 28 be 40 46 85 3c 8a c0 85 3b
       0.08038569 -0.16413236 0.01626885 0.0040817903
000090 2e 29 bb bc 69 df 8c bc c7 35 a5 bc 3b 45 07 3e
       -0.022846784 -0.017196374 -0.020167245 0.13210003
0000a0 a5 02 b8 bd 49 36 82 bd b1 0a bb 3d 44 df 2b 3d
       -0.089848794 -0.0635801 0.091328986 0.04196097
0000b0 a2 09 74 3d b0 3f a2 3c 86 45 80 bd 2c 3f b5 3b
       0.0595795 0.01980576 -0.062632605 0.0055312123
0000c0 db 7d e8 3c 2e cf ee bc 51 a7 04 3d 40 0a 84 bc
       0.028380325 -0.029151525 0.032386128 -0.016118169
0000d0 6b 4c cd 3c 3e 9f a8 3d 92 1b c7 bd ed fe a1 bc
       0.025060853 0.08233498 -0.097220555 -0.019774878
0000e0 a1 a1 0c bd f1 71 b4 bc a8 32 2b 3c b2 32 c5 3d
       -0.03433383 -0.022026988 0.010449089 0.0962881
0000f0 38 df 11 bd 2d 4d 27 3d b9 5c 0b 3d a1 f7 41 3d
       -0.03561327 0.040845085 0.034023974 0.047355298
000100 b6 ea 07 3c 2e b5 d9 3b 04 6f c7 3c ad 41 6c bd
       0.008295706 0.0066439128 0.024344929 -0.05767982
000110 fc 0c 13 3c 7e f3 30 bd aa bb 15 3d 39 00 3d 3d
       0.008975264 -0.043200962 0.036555924 0.04614279
000120 22 f5 fa 3d a6 16 6a bd 36 4a 88 bd 6d e4 48 3d
       0.122537866 -0.057150505 -0.066547796 0.04904597
000130 3c 2d f0 3d 8f 28 69 3d fa fb 79 bd ed 39 68 bc
       0.11727378 0.056923445 -0.06103132 -0.014173967
000140 5c 27 d4 3d ea 39 3b 3d f8 08 00 3d c7 ba 0f 3d
       0.1035907 0.045709528 0.031258553 0.035090234
000150 92 f2 c7 bd 46 26 06 bd 74 de e3 3d 39 25 ce bd
       -0.097630635 -0.032751344 0.11126414 -0.100656934
000160 c3 55 64 3d b1 ca 95 3b d9 e6 e5 bc 4a 32 6c bd
       0.05574585 0.004571282 -0.028064178 -0.057665147
000170 98 d8 84 3d 93 62 d9 bc fe 31 30 3d 34 a6 7d 3d
       0.064866245 -0.026536262 0.043016426 0.06192608
000180 6f ba a4 3c b0 ca 19 3c fa f5 84 bc 84 51 95 3d
       0.02010843 0.009386703 -0.016230572 0.072909385
000190 0c 32 eb 3c 91 22 b0 3c f0 8b 3b bd c1 9f e9 bc
       0.028710388 0.021500858 -0.04578775 -0.02851856
0001a0 9c 8e 54 bd 87 73 73 3d 0b 8f 2e 3a 19 cb 05 bd
       -0.051893815 0.059436347 0.00066588883 -0.032664392
0001b0 5e d0 ac 3c 4f 80 51 bd 56 be c3 3d 97 10 84 3d
       0.021095451 -0.051147755 0.09557788 0.06448477
0001c0 d7 5d 16 3d 0d 9f 9f bc 97 61 89 bc 3b d3 4b 3d
       0.036710586 -0.019485021 -0.016770167 0.049761992
0001d0 56 59 46 3d 3a 17 22 3c 65 3a 2e 3d f5 21 80 bb
       0.04842504 0.009893233 0.042536158 -0.003910298
0001e0 cb 32 f9 3a e0 ee 6e 3d 1b 03 f3 bd 40 7a 61 bc
       0.001901233 0.058333278 -0.11865827 -0.013762057
0001f0 ce 4c 39 3d cc 6a 96 bc 83 ee a9 bd 3b 4c 2b 3d
       0.045239262 -0.018361472 -0.082974456 0.041820746

bn1.running_mean f4 [128]
000000 6e bc 07 bd db ca 0e be ba 81 50 3e 1b 8c 10 be
       -0.033138685 -0.1394457 0.20361987 -0.14115946
000010 a0 80 50 3d 5c a6 d9 3d 04 73 10 be 37 4c 95 bd
       0.050903916 0.10627434 -0.14106375 -0.072899275
000020 45 6f b2 3d 49 94 6e 3e 50 47 8e bc 18 f6 32 3e
       0.08712629 0.23298754 -0.017367989 0.1747669
000030 e2 32 80 bd da bd 5f 3d 70 12 34 3c c9 32 75 bd
       -0.06259705 0.054624416 0.010990724 -0.059862886
000040 6d 2f 67 3e e8 55 ad bc 16 91 b8 3d db 9e 3f 3c
       0.22576685 -0.021159127 0.09012048 0.011695589
000050 39 7d 02 be 4f bc 11 be 21 e5 2a be ad f0 60 3d
       -0.12743081 -0.1423199 -0.16688968 0.054917026
000060 03 e3 2e bd 56 de f7 bd e2 e0 ae 3c 40 db c9 3d
       -0.042696964 -0.12102954 0.021347467 0.09856272
000070 fe 2f aa bd 5d e5 24 3d f9 5b 26 bd e3 dd 20 3e
       -0.08309935 0.0402578 -0.040615056 0.15709643
000080 23 c7 e1 bc b6 ef 21 3d 3a 67 27 3d 32 af 17 bc
       -0.027560776 0.039535247 0.04086993 -0.009258078
000090 bd 08 6c 3e ec 0e 47 3e 9a 6a 87 3d c0 0e 23 be
       0.23050208 0.19439286 0.066121295 -0.15923595
0000a0 c3 93 f0 bd 86 70 0b be 5c ba d3 bd df d5 15 bd
       -0.11746933 -0.13617143 -0.103382796 -0.036580916
0000b0 0b 18 25 3e ab 5b 21 3e b0 18 e6 3b 0d 44 2f 3d
       0.16122453 0.15757625 0.007021986 0.042789508
0000c0 96 cf 30 bd 98 22 2c 3e 7e e2 ea 3d b4 f2 b4 3c
       -0.04316672 0.16810071 0.11468981 0.022088386
0000d0 7a e6 af 3d a8 f0 88 bb 91 8a 1a 3e 47 99 35 bd
       0.08588882 -0.004179079 0.15091921 -0.04433563
0000e0 03 88 18 3e f4 18 bd bc f3 b6 5a bd 6a 6f ea 3d
       0.14895634 -0.023083188 -0.05339713 0.11447032
0000f0 3d 2e 00 3d da b7 a7 3d a3 01 86 be 4d 30 ab 3d
       0.031294096 0.08189364 -0.26173124 0.08358822
000100 38 13 d8 bd dc 53 6e 3d 63 57 07 3e 7b 45 88 3b
       -0.10550541 0.058185443 0.13216929 0.0041586733
000110 5e d9 1c 3e 5a 26 dc bd 47 18 05 3c e0 dd bc bc
       0.15317294 -0.107495025 0.008123464 -0.023055017
000120 d9 28 aa bc c7 90 c5 bd 5d fd ad 3d 12 aa 32 3e
       -0.02077143 -0.09646755 0.08495591 0.17447689
000130 cd b1 d7 bd 37 63 0f 3d 5e 12 25 be 77 6f 75 3e
       -0.1053196 0.035006728 -0.16120288 0.23968302
000140 a0 c8 84 3d 80 44 4d 3c c2 25 0b 3e c0 c5 9b bc
       0.06483579 0.012528539 0.13588622 -0.019015193
000150 63 09 84 bd 2d 7f 37 bd a3 9f bd bd 46 ab 7f 3e
       -0.06447103 -0.04479902 -0.09258964 0.2496768
000160 c7 1d 0a be 44 f6 49 3d ba e4 e2 3d f4 97 56 3e
       -0.13487922 0.049307123 0.110787824 0.20956403
000170 03 05 15 be 1a 30 0a 3c 1b 75 55 bd 30 1b f3 bd
       -0.14552693 0.00843432 -0.052113634 -0.1187042
000180 97 d8 e1 3c 38 88 33 3d 6e bd 88 bd 56 d4 07 be
       0.027569098 0.04383108 -0.06676756 -0.13264593
000190 19 2c a9 3b 6d 78 37 be f9 99 12 3e d0 68 55 3d
       0.0051627276 -0.17917033 0.14316548 0.05210191
0001a0 dc 78 32 3e 9c f7 b9 bd a2 49 08 bd 04 bf e3 3d
       0.17428917 -0.09080431 -0.033273347 0.11120418
0001b0 36 58 ab 3b cd 77 d7 3d 7b bb 71 3d 16 c7 47 bd
       0.0052290214 0.10520897 0.059016686 -0.048773848
0001c0 eb c4 ee bd 71 44 ff 3c 5b 4e 96 3d bf f9 80 bd
       -0.11658653 0.031160565 0.07339164 -0.06297635
0001d0 16 e4 c4 3d 31 30 c7 3d 74 75 dd 3d c3 cd 2c be
       0.096138164 0.09725989 0.10813418 -0.16875367
0001e0 c6 cf c4 3d 85 a0 cd bd 82 50 ed 3d e1 01 ea 3d
       0.09609942 -0.10040382 0.11587621 0.114261396
0001f0 96 83 83 bd 87 0d c0 bd bb d0 b2 bd 49 ee dd bd
       -0.064215824 -0.0937758 -0.087312184 -0.10836465

bn1.running_var f4 [128]
000000 84 75 d8 3e 39 34 1c 3f ee ce 11 3f c6 1f fa 3e
       0.42277157 0.61017185 0.56956375 0.48852366
000010 d2 ea c8 3e 38 80 e2 3e df 3e d6 3e 70 6c e2 3e
       0.39241654 0.44238448 0.41844842 0.44223356
000020 d5 c4 3a 3f ab 74 94 3f aa 0d 24 3f 12 21 1c 3f
       0.7295659 1.1598104 0.6408335 0.6098796
000030 83 8f ce 3e 5e 94 54 3f 21 dd b4 3e 4b 87 87 3e
       0.40343866 0.8303889 0.35324958 0.26470408
000040 4d 99 60 3f 67 d8 ef 3e b9 d1 46 3f 2b 52 f6 3e
       0.8773392 0.4684479 0.7766376 0.48109564
000050 49 8a f0 3e 8a c6 4a 3f cf ee 31 3f 67 2d da 3e
       0.46980503 0.79209197 0.6950502 0.42612764
000060 d3 2f e0 3e bd e4 cb 3e 42 74 fb 3e f0 4a db 3e
       0.43786487 0.3982295 0.49112135 0.4283061
000070 53 b2 e5 3e 3a 4c ef 3e eb 43 b9 3e db 4b 23 3f
       0.44862613 0.46737844 0.3618463 0.6378762
000080 34 8a 1f 3f f1 06 b3 3e cc bc 1c 3f 35 37 8e 3e
       0.62320256 0.34966233 0.6122558 0.27776495
000090 ce a3 4f 3f fd 57 5a 3f 5a 52 e6 3e a3 4b 17 3f
       0.8110932 0.8529051 0.44984704 0.5909979
0000a0 c9 20 40 3f 23 f3 fa 3e b8 51 14 3f 52 c7 89 3e
       0.75050026 0.49013624 0.5793719 0.26909882
0000b0 90 a8 25 3f 52 9a 43 3f b7 3e b3 3e 6b ed b8 3e
       0.6471033 0.7640735 0.35008785 0.36118636
0000c0 c4 75 f6 3e 08 69 5b 3f 30 a5 5a 3f 2e 86 90 3e
       0.48136723 0.8570714 0.85408306 0.2822737
0000d0 90 36 20 3f a9 1e 05 3f 5b 0c dd 3e cd df cf 3e
       0.62583256 0.5199991 0.4317349 0.40600434
0000e0 41 91 5d 3f 5f 02 8f 3e 9d f3 3a 3f 3a 3c 32 3f
       0.86549765 0.27931497 0.73027974 0.6962315
0000f0 f0 48 ba 3e de a0 25 3f c4 76 ec 3e be 3b 57 3f
       0.36383772 0.6469859 0.4618436 0.84075534
000100 2b 1e dc 3e 3e 1f 0c 3f df 82 3c 3f 24 64 13 3f
       0.42991766 0.5473517 0.73637193 0.5757468
000110 67 e8 f7 3e 96 9b f1 3e 3f cd bd 3e 1d 9b c0 3e
       0.48419496 0.47189015 0.37070653 0.37618342
000120 bc 34 f3 3e 2c 97 30 3f f9 7f 07 3f 6d 87 67 3f
       0.4750117 0.6898067 0.52929646 0.9044102
000130 ca a0 ca 3e 37 03 eb 3e 1f 78 32 3f 62 9d b3 3f
       0.39575797 0.4590089 0.6971454 1.4032404
000140 ef e9 ba 3e 11 4e be 3e 2a 4b 0c 3f 1e 32 a4 3e
       0.36506602 0.37168935 0.5480219 0.32069486
000150 07 b8 24 3f 8e 23 df 3e 0d 9b 05 3f dc 97 16 3f
       0.64343303 0.43581814 0.52189714 0.5882547
000160 75 0a e9 3e d6 48 b0 3e 66 e2 d8 3e 4b 6c 43 3f
       0.4551579 0.3443057 0.42360228 0.76337117
000170 8d 71 2e 3f 3b 41 f1 3e e5 db 00 3f f2 84 2f 3f
       0.68142015 0.4712008 0.5033553 0.68562233
000180 9c 32 76 3e ba 30 0f 3f eb b3 11 3f 4a 65 fe 3e
       0.24042743 0.55933726 0.5691516 0.49686652
000190 31 7f be 3e 51 bb 4e 3f bf 14 0d 3f 8f c8 e3 3e
       0.37206414 0.8075457 0.5510978 0.44488952
0001a0 8b 3f 0c 3f a7 14 af 3e 13 25 34 3f aa 88 8a 3f
       0.5478446 0.34195444 0.7036907 1.0822957
0001b0 89 33 d8 3e 80 06 97 3f 6e 27 30 3f 53 0c 0e 3f
       0.42226818 1.1798859 0.68810165 0.55487555
0001c0 42 dd d2 3e 36 b9 ee 3e 94 dd c9 3e ec 07 c9 3e
       0.4118443 0.4662568 0.39426863 0.39263856
0001d0 e0 b2 15 3f 3c b4 9a 3e 9e 98 60 3f 17 bd 4d 3f
       0.58476067 0.30215633 0.87732875 0.80366653
0001e0 fd 1f 36 3f cd 38 e0 3e af 00 47 3f a4 7b 15 3f
       0.7114256 0.43793336 0.7773542 0.58391786
0001f0 c4 dd 03 3f 99 a3 31 3f 02 07 42 3f 8a 31 f2 3e
       0.5151026 0.69390255 0.75791943 0.4730342

hidden2.weight f4 [128, 128]
000000 1f 3f 9e 3d 2d d7 a8 b9 9d 74 8b bd b9 dc c9 3c
       0.07726883 -0.00032203775 -0.068093516 0.024641382
000010 32 95 29 3d 7c ab 77 bc e6 09 ab 3c 9c 52 df 3c
       0.04140205 -0.015116569 0.020878743 0.02726107
000020 fa 21 da 3c 79 f5 c7 bc 2c 2c 68 bd 71 fa 81 3d
       0.02662753 -0.024409043 -0.05668275 0.06346596
000030 88 bd 9a 3c ea d3 aa 3d 52 6e 7e bd 18 4e e4 bc
       0.018889204 0.08341201 -0.06211693 -0.02786927
000040 81 46 3c 3b 26 f5 8f 3c c7 f7 d7 bc 3c 5e 0e bd
       0.0028728547 0.01757295 -0.026363267 -0.034757838
000050 25 3c ae bc a4 9e 81 bd 31 f8 88 3b 4c 21 98 bd
       -0.021268914 -0.063290864 0.0041799773 -0.07428226
000060 78 37 01 bd f1 b2 ec 3b 9f 7e 83 bd 50 96 f3 3c
       -0.03154704 0.00722348 -0.064206354 0.02973476
000070 f1 cf a3 3d 30 30 f8 bb b7 3f a2 3c df 21 c0 bd
       0.07998646 -0.007574104 0.019805772 -0.093814604
000080 aa 7c 42 3c 44 4f c4 3c 73 10 ac bc f0 dd d3 bb
       0.011870543 0.023963578 -0.021003937 -0.006465666
000090 9c 51 bb bd e5 7e 02 3d 73 7b 0f bd 4e b0 a0 3a
       -0.09146425 0.031859297 -0.03502984 0.0012259574
0000a0 82 70 4b 3d af d1 88 3d ac 4d dd 3b 46 c2 b1 3d
       0.049667843 0.06680619 0.006753644 0.08679633
0000b0 63 1f 92 3c c8 8e 83 bb 7e 99 7d 3d 6b 48 b7 3d
       0.017837232 -0.0040148236 0.06191396 0.089493595
0000c0 e3 a1 a0 3d 4e e3 67 bd f3 d4 25 bd ed f3 25 3d
       0.078433774 -0.05661326 -0.040486287 0.04051583
0000d0 a5 87 3f bd e6 fc 68 bc 90 ea 26 3d 43 d6 66 3c
       -0.04676022 -0.014220452 0.04075104 0.01408917
0000e0 fa 83 fe ba a7 d8 0f 3d a8 be e5 3c a5 96 b7 bd
       -0.0019417994 0.035118725 0.028045014 -0.0896428
0000f0 40 a7 7d 3d 53 6e ce 3c 61 6c 62 3d 5f df 47 3b
       0.06192708 0.025199091 0.05527914 0.003049813
000100 97 c1 23 3b dd 15 59 3c 6e fc 45 bc 89 4b a0 3d
       0.0024987215 0.0132498415 -0.01208411 0.07826907
000110 ad 3b 9a bd df 69 3a bd 51 4a 90 bd d9 04 b2 ba
       -0.075309135 -0.045511123 -0.07045425 -0.0013581767
000120 c7 6c 6f bd cd 2e 8e 3d fa b1 26 bd c0 73 82 3d
       -0.058453348 0.0694252 -0.040697075 0.06369734
000130 79 d8 cb 3d 20 4a 66 bd ba fb 4c bd 58 01 19 bd
       0.09953398 -0.056223035 -0.050044753 -0.037354797
000140 43 26 2c bd 64 b8 76 3d d0 8a 6b 3d ae cd 02 bc
       -0.042028677 0.060234442 0.05750543 -0.007983608
000150 ed e8 92 bd ae 71 26 3d 05 d7 ad 3d 1f 0b db 3b
       -0.07173333 0.040635757 0.08488277 0.0066846753
000160 9d d5 5e bc cd 65 6b bd 68 47 a2 bd 3a a8 21 3d
       -0.013600734 -0.05747013 -0.07923776 0.039467074
000170 b6 94 56 3d 27 cd 7f 3d a4 be ba 3d 08 a6 c7 3b
       0.052387916 0.062451508 0.09118393 0.0060927905
000180 b7 2d 87 bb 16 cd a6 3c 41 39 b6 bc a6 a8 ae bc
       -0.0041253227 0.020361464 -0.022244098 -0.021320652
000190 c3 28 01 bb 29 ff 9f 3c 45 2e 8c bd d6 4a 98 bd
       -0.0019708134 0.01953085 -0.06844763 -0.07436149
0001a0 b0 3c dd bd d2 41 65 bb 70 e2 95 3c eb 9b 81 3d
       -0.10802591 -0.003498186 0.01829645 0.06328567
0001b0 a0 2a 4d bd 4e 5c 89 bc 0d 1b 45 3d 06 63 0f 3d
       -0.05008948 -0.016767647 0.0481215 0.035006545
0001c0 4a 4f 31 bd af b1 94 bd b7 f7 90 bd 8d 34 22 bc
       -0.043288507 -0.07260453 -0.07078498 -0.009900224
0001d0 dd 59 2a 3c 09 8b 75 3d 32 31 e5 3c 76 50 77 3d
       0.010397402 0.059947047 0.02797756 0.060379468
0001e0 6c 3e 13 bd c5 9b 52 3c 24 20 09 bd 8d 47 ac 3d
       -0.035948202 0.012854521 -0.033477917 0.08412085
0001f0 f2 f3 a4 bb f1 f0 53 3d 71 71 49 3d 09 06 a2 3b
       -0.0050339634 0.05174345 0.04918045 0.004944567
000200 c0 a9 01 3d c3 a0 86 bc 4f 28 b2 3c 9a 04 8c 3d
       0.031656027 -0.016434079 0.021747736 0.06836815
000210 b5 1a 7d bc be eb a1 3d 2b 8c 54 bd 6c 25 5a bc
       -0.015448262 0.079062924 -0.051891487 -0.013314586
000220 be 0e 5b 3c b7 18 16 3c 80 24 e7 3d 88 66 b6 bd
       0.013370214 0.009161166 0.11286259 -0.08906275
000230 0f e5 5a bd 1c 7c 33 bc cf f8 00 3d 29 63 0f bd
       -0.053441104 -0.010954883 0.031487282 -0.035006676
000240 d2 9e 87 bb 11 12 7d bd af 2b af bd e2 24 cd bc
       -0.004138806 -0.061784808 -0.08553254 -0.025042001
000250 0b fc 49 3c 74 7f a9 3d 3a 94 13 bd 80 56 bc bd
       0.012328158 0.08276263 -0.03603003 -0.09196186
000260 17 ad e7 3c 1f 47 a7 3d 2e 1c d9 3b 7f 4b 9b 3d
       0.028280778 0.08167862 0.0066256737 0.07582759
000270 13 1f 21 3d c2 5d 19 bc 9d 94 7c bd 7a a6 a9 3c
       0.039336275 -0.0093607325 -0.061665166 0.020709265
000280 7c a1 8b 3d d0 5c 71 bd 3b d8 80 3d dc c1 0a 3c
       0.0681791 -0.058926404 0.06291243 0.008469071
000290 30 ed 27 bd db 02 9f 3c e6 66 a5 bc 52 35 5f bd
       -0.040997684 0.019410541 -0.020190667 -0.05449421
0002a0 2e 6c 4b 3d 42 17 9a 3d d8 1b 73 bc 11 ad 71 bd
       0.049663715 0.07523967 -0.014838181 -0.05900294
0002b0 da 50 4c bd 1e eb 75 bd 1f 62 90 bd ff b5 34 bd
       -0.049881794 -0.06003868 -0.07049965 -0.044118878
0002c0 91 06 4e bd 36 24 a7 bc a8 5e 42 3d 35 4f 76 bd
       -0.05029923 -0.020403009 0.047453552 -0.06013413
0002d0 56 09 89 3c 67 0b d1 bb ee 33 84 bd c9 0f 58 bd
       0.016728085 -0.006379533 -0.06455217 -0.05274943
0002e0 53 e6 39 bd e6 cb 86 3c ff b6 6a 3d 82 44 7a bd
       -0.04538567 0.016454648 0.057303425 -0.06110049
0002f0 6d f5 5f b9 28 31 ba bd d5 15 d0 3d c9 db 31 3d
       -0.00021358365 -0.09091407 0.10160414 0.043422494
000300 23 e7 fc 3c fb e1 88 bd 35 0b 76 3c 61 2a aa 3d
       0.030871933 -0.06683727 0.01501732 0.083088644
000310 8f 52 c3 bc 6a 1d fe 3c b0 0f 5c 3c 3d f1 4b bc
       -0.023843078 0.031019885 0.013431475 -0.012447652
000320 5f fe f5 bc 8b 07 94 3c 8d c6 25 3d a5 c1 2c bc
       -0.03002852 0.018070003 0.040472556 -0.010544215
000330 4e c6 0c bd b4 d3 c8 bd 71 0d 1f bd 7e 69 2d bd
       -0.034368806 -0.09806004 -0.038831178 -0.042336933
000340 b6 b0 73 bd 02 f5 a1 bd d1 5b 4b bd 35 b7 1f bd
       -0.059494697 -0.0790806 -0.04964811 -0.03899308
000350 f9 0f 03 3d c9 1e 1b 3d 26 1e 89 bd 81 21 64 3d
       0.031997655 0.037871156 -0.066952035 0.055696014
000360 48 13 65 bc 76 43 a2 3d dd 71 39 3d 50 a4 0f 3d
       -0.013981648 0.079230234 0.045274604 0.03506881
000370 e8 d5 85 3d 45 64 91 bc 40 b9 64 3b f1 35 95 bd
       0.0653494 -0.017748008 0.0034900457 -0.07285679
000380 91 3e 74 bd cd 62 dd 3b 37 d5 45 3d e2 39 b4 3c
       -0.05962998 0.0067561627 0.04829904 0.022000257
000390 96 d8 a4 bd 03 db 59 bd d3 a0 ec bc f1 50 1e 3c
       -0.08049123 -0.05318738 -0.02888528 0.009662853
0003a0 5a 43 60 3c cf 30 1f 3d b8 73 ad bd c8 f5 59 3d
       0.013687933 0.038864907 -0.08469337 0.05321291
0003b0 e1 e0 c5 bd 96 8f 0d bd 5d 3f f4 3c f3 00 91 bd
       -0.09662033 -0.034560762 0.02981537 -0.07080259
0003c0 57 1b 63 bd 12 c3 c2 3d 4c 65 68 bd 66 1f 5a 3c
       -0.055445995 0.09509863 -0.05673723 0.01331315
0003d0 ef ad a8 bd f8 8b c5 bd b3 6f 11 bd a6 34 ae 3d
       -0.082363 -0.096458375 -0.035506915 0.08506136
0003e0 a9 5b 68 bd 67 74 5e 3d 2a 25 48 bc 7c e2 6f 3c
       -0.05672804 0.05431023 -0.012215892 0.0146414
0003f0 04 d9 47 3d 4f 92 f4 3c 81 70 98 3d 66 72 ec 3c
       0.048790947 0.029854922 0.074433334 0.028863143

bn2.weight f4 [128]
000000 37 15 80 3f f0 62 7e 3f 60 28 7f 3f 01 f4 7b 3f
       1.0006474 0.99369717 0.9967098 0.98419195
000010 9e e0 7e 3f a4 e6 7e 3f 87 62 7e 3f 29 47 7c 3f
       0.9956149 0.9957068 0.9936909 0.9854608
000020 27 7d 7f 3f 55 1a 7d 3f 49 f0 7f 3f 8c 57 7e 3f
       0.9980034 0.98868304 0.9997602 0.99352336
000030 72 55 7f 3f 38 ae 7e 3f 62 24 7e 3f 8b 67 7e 3f
       0.99739754 0.99484587 0.99274266 0.99376744
000040 30 e9 7d 3f da 3c 7d 3f 79 bf 7e 3f 58 14 7e 3f
       0.9918394 0.9892098 0.99510914 0.9924979
000050 38 af 7f 3f 90 31 7e 3f 32 07 7e 3f 70 ad 7f 3f
       0.9987674 0.99294376 0.9922973 0.9987402
000060 e7 e1 7c 3f 08 56 80 3f f0 41 7e 3f d7 15 80 3f
       0.987822 1.0026255 0.9931936 1.0006665
000070 47 90 7e 3f 63 ef 7f 3f 45 ac 7f 3f 64 f1 7d 3f
       0.994389 0.9997465 0.9987224 0.9919646
000080 e3 95 7e 3f 30 d6 7b 3f 7d 7c 7b 3f e8 62 7e 3f
       0.9944746 0.983737 0.9823683 0.9936967
000090 39 a6 7e 3f 28 9f 7f 3f 95 35 7d 3f 67 eb 7d 3f
       0.99472386 0.9985223 0.98909885 0.9918732
0000a0 54 6c 7f 3f 7a c5 7d 3f af 56 7e 3f 8d c8 7e 3f
       0.9977467 0.9912945 0.9935102 0.99524766
0000b0 6a 86 7d 3f c9 a6 7f 3f 11 f7 7f 3f 30 10 7c 3f
       0.99033225 0.9986387 0.9998637 0.984622
0000c0 85 43 7f 3f ea 54 80 3f 26 73 7e 3f 4d 8e 7d 3f
       0.997124 1.0025914 0.9939445 0.9904526
0000d0 fb a2 7f 3f f6 80 7f 3f 95 97 7c 3f 8d b6 7b 3f
       0.99858063 0.99806154 0.98668796 0.98325425
0000e0 78 ab 7e 3f 7d 77 7a 3f 3d 42 7d 3f d6 51 7d 3f
       0.9948039 0.97838575 0.98929197 0.98952997
0000f0 bc a8 7e 3f 2e a8 7f 3f 3e 2a 7e 3f 19 21 7d 3f
       0.9947622 0.99865997 0.99283206 0.9887863
000100 af 20 80 3f b4 0b 80 3f 0a ea 7e 3f 7e f1 7e 3f
       1.0009974 1.0003572 0.99575865 0.9958724
000110 b5 c5 7f 3f 7b 39 7d 3f 34 88 7f 3f 56 2a 80 3f
       0.9991105 0.98915833 0.99817204 1.001292
000120 56 f8 7f 3f d0 01 7e 3f 5a 54 7e 3f 51 ab 7e 3f
       0.99988306 0.99221516 0.9934746 0.9948016
000130 d6 34 80 3f c1 be 7d 3f 96 83 7c 3f 96 05 7c 3f
       1.0016124 0.9911919 0.98638284 0.98446023
000140 db 88 7c 3f e9 2f 7d 3f a8 28 7f 3f 41 77 7f 3f
       0.98646325 0.9890123 0.9967141 0.9979134
000150 24 e5 7d 3f e0 89 7f 3f 12 1b 7e 3f b3 95 7d 3f
       0.99177766 0.99819756 0.99260056 0.9905655
000160 d0 fd 7c 3f 54 11 7d 3f f6 e2 7e 3f 47 b9 7e 3f
       0.9882479 0.98854566 0.99565065 0.9950146
000170 94 24 7f 3f ad 88 7d 3f b1 cd 7d 3f 46 0d 7d 3f
       0.9966519 0.99036676 0.99141985 0.9884838
000180 67 26 80 3f 52 6d 7d 3f 46 ed 7d 3f 28 6d 80 3f
       1.001172 0.98994935 0.99190176 1.0033312
000190 6b e7 7c 3f 46 d4 7b 3f 02 e3 7c 3f 2d 3c 7f 3f
       0.98790616 0.9837078 0.98783886 0.99701196
0001a0 d7 aa 7f 3f 7a ca 7f 3f 19 02 7f 3f b3 28 80 3f
       0.99870056 0.9991833 0.99612576 1.001242
0001b0 75 09 7f 3f 8b a6 7e 3f f5 e6 7f 3f b8 cc 7c 3f
       0.99623805 0.99472874 0.9996179 0.98749876
0001c0 8e a8 7f 3f cc 5c 80 3f 9b 61 7f 3f 4d 28 7e 3f
       0.9986657 1.0028319 0.9975831 0.99280244
0001d0 75 ec 7f 3f fc bc 7e 3f f0 36 7d 3f ad 77 80 3f
       0.9997018 0.9950712 0.9891195 1.0036522
0001e0 2a d8 7c 3f dc 02 7f 3f 3b 44 7f 3f af 00 7a 3f
       0.9876734 0.9961374 0.99713486 0.97657293
0001f0 ff 59 80 3f 71 a3 80 3f e3 19 80 3f 7f 4a 7b 3f
       1.0027465 1.0049878 1.00079 0.98160547

bn2.bias f4 [128]
000000 33 42 02 3b b3 e6 36 bd 45 f2 b3 bc c9 ab 6a 3d
       0.0019875884 -0.044653606 -0.021966109 0.057292733
000010 32 9e a4 3c f5 c7 2e 3d f5 db a0 bc a5 5d 22 bd
       0.020094965 0.042671163 -0.019636134 -0.039640088
000020 2b d2 c4 bc b4 e0 22 3d 48 f5 48 3c be d2 21 3d
       -0.024025997 0.039765075 0.012265511 0.03950762
000030 98 13 df 3c cc 37 52 3d ae 88 f2 3c 8e ae 9d bc
       0.027231023 0.051322743 0.02960619 -0.019248273
000040 99 35 17 bd 5c 0c 22 3d 94 35 c7 bc 66 68 53 bd
       -0.03691635 0.039562568 -0.02431754 -0.051613234
000050 8f 93 8f 3c 15 90 a0 bc ec c6 b7 bc a5 28 c1 bc
       0.017526416 -0.019599954 -0.02243372 -0.023578951
000060 88 ef 04 3d bf 9d d9 bc 72 b4 4a bd 53 a6 df bc
       0.032454997 -0.026564477 -0.049488492 -0.02730099
000070 24 db ba bc d1 3f 60 bc b1 89 ac 3c 8a 8d 2e bd
       -0.022809573 -0.01368709 0.02106175 -0.04261545
000080 7f bc fe 3c eb 26 22 3d 3e 22 3a 3d 34 55 ba bc
       0.031095741 0.039587896 0.045442812 -0.022745706
000090 a7 a5 35 3d d9 f7 81 bc 66 66 69 3d 68 de 12 3d
       0.04434743 -0.015865253 0.05698242 0.035856634
0000a0 dc 83 bd 3c fb a3 13 bd 09 40 9d 3c 1d 2b 87 bc
       0.023134165 -0.036045056 0.019195573 -0.01650005
0000b0 00 7c 04 3d 25 cb 9f 3c 36 12 12 bc b5 de fa 3c
       0.032344818 0.019506047 -0.008915475 0.030623773
0000c0 c0 65 fa bc 9d 81 dc bc a3 b7 84 3c ef 2c e8 bc
       -0.030566096 -0.026917273 0.016200846 -0.028341739
0000d0 3f c3 9e 3b 23 f5 e3 bc 00 d2 0f bd f2 5a 53 bd
       0.0048450525 -0.027826851 -0.03511238 -0.051600404
0000e0 8f 1d fe 3c 62 2e 30 3d 2d 25 67 3d ba 18 1e 3d
       0.031019954 0.043012984 0.056431938 0.0385978
0000f0 16 be 8d bc 2d 73 2a bd 70 8f 0f bd 5f 2f 4f 3d
       -0.017302554 -0.041613746 -0.035048902 0.050582286
000100 7f b4 4e bd 15 c6 19 bd 30 69 a4 bc 77 fa d7 bc
       -0.050465103 -0.03754242 -0.020069689 -0.026364548
000110 d4 25 64 bd 53 47 07 bd 6c ae 05 bd 83 26 93 bc
       -0.05570014 -0.033027004 -0.032637045 -0.0179627
000120 6a f7 ab bc c3 38 90 3c 2d 6b 31 bc 0d 5b 1c 3d
       -0.020992 0.017605191 -0.010828775 0.03817277
000130 49 b9 71 bc 89 cd 7a bd 8f 8b 4e 3d 08 74 45 bd
       -0.014753648 -0.06123117 0.050426062 -0.04820636
000140 a3 38 45 bd b0 1a 17 3d 40 40 b6 bc 7a 09 e2 bc
       -0.048149716 0.036890686 -0.022247434 -0.02759241
000150 8a f7 2a bd 02 92 87 ba 77 29 c5 bc 5f 95 40 3d
       -0.041739978 -0.0010343196 -0.024067624 0.04701745
000160 41 22 2c bd cf c3 3f bd bc 55 d0 3c 9f 72 17 bd
       -0.042024855 -0.046817597 0.025431506 -0.036974546
000170 d2 f8 b4 3c 26 f9 4b 3d 0f c9 b8 3c 76 9e 2b 3d
       0.022091303 0.049798153 0.02255681 0.041899167
000180 6e c7 54 bc f9 64 bc 3c 92 e4 07 3d aa 20 c4 3c
       -0.012987001 0.022997366 0.033176966 0.023941357
000190 22 15 00 3d 0b fb 5c bd 24 e1 29 bd c6 41 96 bc
       0.031270154 -0.05395035 -0.041474476 -0.01834191
0001a0 45 ef 0f 3c f8 89 3a 3c b1 92 9c bc b6 fd c9 3c
       0.008785074 0.011385433 -0.019112917 0.024657112
0001b0 d9 04 ee bc 5c ec ad 3c b5 89 f6 3a ce 44 09 bd
       -0.029055046 0.021230869 0.001880935 -0.033512883
0001c0 82 ef 9d 3b 37 2c 1a bd 18 93 b7 bc c7 85 10 3d
       0.0048198113 -0.037639823 -0.022409007 0.03528383
0001d0 0b 78 e8 3c 58 70 1b 3d 5b e1 c3 3c 35 30 d6 bc
       0.028377553 0.037948936 0.023911169 -0.026146034
0001e0 57 3d 62 bd 2f 0c 01 bd 47 27 03 3d a2 84 64 bd
       -0.05523428 -0.03150576 0.03201988 -0.05579055
0001f0 de 21 da 3c cf 6e f1 3c 4f af 5c bc bc 5c 90 bd
       0.026627477 0.029471783 -0.013469531 -0.07048938

bn2.running_mean f4 [128]
000000 cf cd 78 3d c2 c6 60 bd 9f ef d5 bd e4 35 d6 3d
       0.06074315 -0.05487705 -0.10446095 0.104594976
000010 d7 e8 8f 3c 74 a5 b7 3d 3f 7e aa bd 38 a8 8b bd
       0.017567081 0.089671046 -0.08324861 -0.068191946
000020 80 ea ff bc dd d6 32 3d a7 77 ac 3c 2d e9 ea 3d
       -0.031239748 0.04366194 0.021053148 0.11470256
000030 af 59 b5 3c 84 c1 c7 3d 48 e1 b9 3d 21 6d 75 bd
       0.022137491 0.09753707 0.09076172 -0.059918527
000040 cc fa 50 bd 9b 26 90 3d d7 b3 66 bd 51 ee 8e bd
       -0.05102043 0.070386134 -0.056323852 -0.06979049
000050 cc 56 33 3d a9 7f 99 bc 46 e0 b0 bd b5 80 81 bd
       0.043783948 -0.01873763 -0.08636527 -0.06323377
000060 52 9a 75 3d 70 ad 5d bd 15 b1 af bd 7c 6e 26 bd
       0.059961624 -0.05412048 -0.085786976 -0.04063271
000070 ee 4d ba bd 69 5a 35 bd 49 8e 6b 3d 3e c5 cb bd
       -0.09096895 -0.044275675 0.05750874 -0.0994973
000080 f0 84 a0 3d 59 d3 0e 3d 88 35 15 3d bd 79 1b bc
       0.07837856 0.034869526 0.036428005 -0.009489474
000090 82 d6 f0 3d a8 e3 e5 3a 20 05 0a 3e 73 4b 14 3d
       0.11759664 0.001753916 0.13478518 0.036204766
0000a0 14 c7 a4 3d 88 00 70 bd 54 13 96 3d c6 06 af bd
       0.08045784 -0.058594257 0.07327905 -0.08546214
0000b0 1f 48 a5 3d ee 07 f8 3d 79 6d a7 bd b6 e8 85 3d
       0.08070397 0.121108875 -0.08175177 0.06538527
0000c0 a2 68 3c 3c 17 09 ba bd 1a 75 a0 3d fb 58 9d bc
       0.011499556 -0.09083765 0.07834835 -0.019207468
0000d0 b7 a1 29 3d a8 fa ee bd a1 68 f6 bc 12 43 fb bc
       0.04141399 -0.11668903 -0.030079188 -0.03067163
0000e0 ce 13 3d 3c 2a 5c 8f 3d 6b f5 53 3c 74 ef de 3d
       0.011540366 0.07000001 0.01293693 0.10885516
0000f0 f4 df 47 bc bf 68 85 bc 02 0d 81 bd e4 3b 9f 3d
       -0.012199391 -0.016285298 -0.06301309 0.07775095
000100 2f b7 00 be bb a8 b5 bd 78 9a bf bd 80 23 b9 bc
       -0.12569879 -0.088700734 -0.093556345 -0.022599936
000110 88 09 47 bd 9a 5a 7e bd c3 7e 8e bd 31 c5 cc bd
       -0.048593074 -0.062098123 -0.06957772 -0.09998549
000120 10 1a c4 bc f4 44 20 3d 8e b5 99 bd 9e 80 08 3e
       -0.023938209 0.03912826 -0.07505332 0.13330314
000130 e8 27 8e 3b 2c 1d d8 bd 6b 8a 10 3d 09 c8 31 bd
       0.0043382533 -0.10552439 0.035288256 -0.04340366
000140 05 49 f0 bd 23 fd 51 3d 7e d2 a7 bd 08 40 bb bd
       -0.11732677 0.0512668 -0.08194445 -0.09143072
000150 10 fa 9d bd f9 13 b3 bc ca 3e 27 bd 79 e7 90 bb
       -0.07713711 -0.02186011 -0.040831365 -0.004422125
000160 94 38 ca bd 9e 91 e9 bc 77 13 54 3d b4 e2 96 bd
       -0.09874073 -0.028511818 0.051776376 -0.07367459
000170 bb a9 82 3d 60 c5 ff 3d 52 75 03 3d 6a 86 ed 3d
       0.0638003 0.12488818 0.032094307 0.11597903
000180 ea 56 f5 bd 97 43 5d 3d ef 73 0b 3d 70 9d 9b 3b
       -0.11979468 0.054019537 0.03404611 0.0047489926
000190 8f 79 a8 3d 86 5c b1 bd 63 c5 e8 bc dd 07 7b bd
       0.082263105 -0.086602256 -0.028414434 -0.061286796
0001a0 43 f3 ec 3d cb dc c0 3c fa cc 81 bd e0 87 6f 3d
       0.11569836 0.023542782 -0.06337924 0.05847919
0001b0 12 7e 21 bd bd 25 df 3d 56 f8 34 3b 04 ad 08 bd
       -0.03942687 0.1089587 0.002761384 -0.033368126
0001c0 c7 18 45 3c 6f 5c a8 bd 00 ae 9a bb 16 db cc 3d
       0.012029833 -0.08220755 -0.0047204494 0.10002725
0001d0 30 d6 94 3d 24 55 86 3d 0c f6 a6 3d fc 01 57 bd
       0.072674155 0.06559208 0.081523985 -0.052492127
0001e0 80 2f 22 bd 29 4d 10 bd 96 c0 94 3c 4f f1 81 bd
       -0.03959608 -0.035229836 0.018158238 -0.06344854
0001f0 7f 1c b1 3d 45 92 91 3d e4 3f 8e bd 94 8e dd bd
       0.08648013 0.07107977 -0.0694578 -0.1081821

bn2.running_var f4 [128]
000000 86 58 92 3e e9 4d c5 3e 76 a8 a5 3e e4 d1 a9 3e
       0.28583163 0.38536003 0.32355088 0.33167946
000010 62 9c 7f 3e 6a 48 d9 3e 32 1e 4e 3e 0f ba a2 3e
       0.24961999 0.4243806 0.20128706 0.31782576
000020 e5 84 8f 3e a5 33 93 3e 9a 55 4e 3e 21 8f 90 3e
       0.28031078 0.2875034 0.20149842 0.282342
000030 ac 6b 3b 3e fe 1a c7 3e 35 69 91 3e 39 ba 8a 3e
       0.18302792 0.3888778 0.2840058 0.27095202
000040 20 3f 58 3e bc 44 a4 3e bf 99 93 3e 1f b0 e0 3e
       0.2111783 0.3208369 0.28828236 0.4388437
000050 1d 91 76 3e fb b8 3d 3e c7 d5 66 3e e9 14 ae 3e
       0.24078794 0.18527596 0.22542487 0.34000328
000060 0b a3 87 3e 49 f7 ae 3e 98 54 bf 3e 05 45 9e 3e
       0.2649158 0.3417304 0.37369227 0.30912033
000070 c9 bb ae 3e 6a 41 8c 3e 8d 9f 80 3e 88 25 d0 3e
       0.34127644 0.27393657 0.25121728 0.40653634
000080 0e a1 d4 3e fd a1 9b 3e a1 d6 ab 3e db b8 a7 3e
       0.41529125 0.30397025 0.33562186 0.3275822
000090 21 cc f0 3e 50 67 57 3e 81 c4 b4 3e 78 de ce 3e
       0.47030738 0.21035504 0.3530617 0.40404105
0000a0 22 66 6e 3e 22 62 91 3e 2e c8 af 3e 24 4f 88 3e
       0.23281148 0.28395182 0.34332412 0.2662288
0000b0 4c 44 94 3e 28 6d bd 3e 57 0e a7 3e dd f2 71 3e
       0.28958356 0.36997342 0.32628128 0.23627801
0000c0 b9 4e af 3e ef 33 be 3e 10 30 b1 3e 76 b7 84 3e
       0.34239748 0.37148997 0.3460698 0.2592122
0000d0 7b 65 6f 3e 44 dd b1 3e b1 ee 8b 3e 42 ac 93 3e
       0.23378555 0.34739125 0.27330545 0.2884236
0000e0 de 95 c0 3e 82 c7 8a 3e fc 93 a0 3e dd a2 95 3e
       0.3761434 0.27105337 0.31362903 0.29225817
0000f0 b5 a4 8a 3e c1 a1 bd 3e bc 8b 91 3e 35 96 8f 3e
       0.27078786 0.3703747 0.2842692 0.28044286
000100 41 ea da 3e e1 e7 ce 3e 30 e0 7a 3e 49 75 b0 3e
       0.42756847 0.40411285 0.24499583 0.3446448
000110 03 6f d8 3e a3 71 7d 3e cc 24 aa 3e f4 56 ae 3e
       0.42272195 0.2475038 0.332312 0.34050715
000120 af e1 80 3e 0a c0 8f 3e b3 6c 6e 3e bc 4f fd 3e
       0.25172183 0.28076202 0.23283653 0.49474895
000130 1f 35 9a 3e ff 97 01 3f b1 fe 88 3e 9a 23 b3 3e
       0.30118653 0.5062255 0.26756814 0.349881
000140 28 4a 01 3f bb ff 77 3e 72 7d 9c 3e 20 58 9d 3e
       0.5050378 0.24218647 0.30564457 0.30731297
000150 b1 a2 a1 3e 11 d9 82 3e cc 58 a4 3e 06 fd a3 3e
       0.31569436 0.25556234 0.32098997 0.3202898
000160 0f 82 a4 3e b1 af d5 3e 2b 01 8d 3e 97 52 9a 3e
       0.32130477 0.41735604 0.27539954 0.30141136
000170 24 96 a6 3e 28 d8 f3 3e b6 00 86 3e 6f 1b e9 3e
       0.32536423 0.47625852 0.26172417 0.45528743
000180 62 dc a2 3e eb b4 ab 3e 46 40 ac 3e bd 8d a4 3e
       0.31808764 0.33536467 0.33642787 0.32139388
000190 79 ca 6a 3e a3 7c d8 3e 41 88 a8 3e 47 c3 a2 3e
       0.229288 0.4228259 0.32916453 0.3178961
0001a0 56 e8 c5 3e 0f 8c 44 3e 90 9f 57 3e eb 99 ad 3e
       0.3865382 0.19194053 0.21056962 0.33906493
0001b0 c9 16 ca 3e 1e 18 af 3e 42 33 3a 3e 4c ff 83 3e
       0.3947051 0.34198087 0.18183616 0.25780714
0001c0 a3 f4 6e 3e b1 3a a6 3e 6e 30 84 3e be 13 99 3e
       0.23335509 0.32466653 0.258182 0.29897875
0001d0 1f 64 a6 3e 05 c8 83 3e 7f 1f 9a 3e 91 10 91 3e
       0.3249826 0.2573854 0.30102155 0.28332952
0001e0 0d 22 c2 3e d5 b1 8d 3e 7c 4b a3 3e 08 92 c6 3e
       0.37916604 0.27674738 0.31893528 0.38783288
0001f0 fb 40 b8 3e c0 6b ad 3e 3e 28 b2 3e 13 ad d4 3e
       0.35987076 0.3387127 0.34796327 0.41538295

hidden3.weight f4 [16, 128]
000000 52 16 cc bd 2e 0b b6 bd c2 d5 fc bc d5 3e 31 bd
       -0.09965195 -0.08888851 -0.030863646 -0.043272812
000010 bd ad 79 3d 0a f9 58 bd 82 c9 f6 bc 49 ae 4a 3d
       0.060956705 -0.052971877 -0.030125383 0.049482618
000020 4b e0 96 bd 85 c6 4f 3d 09 50 b5 bd 97 81 83 bd
       -0.07366999 0.050726432 -0.08853156 -0.06421202
000030 a3 da 85 bd 23 e9 ff bc a2 e6 7e 3d 3e 7c a3 3c
       -0.06535842 -0.031239098 0.062231667 0.019956704
000040 ab 67 30 3c 81 13 9e 3d eb a8 92 bd a8 ce c3 bc
       0.010766904 0.07718564 -0.07161125 -0.023902252
000050 09 25 2d 3d 81 0a f8 3c f1 20 2b bd bb 32 92 3d
       0.042271648 0.030278446 -0.041779462 0.07138582
000060 85 62 8e bd b2 fa 43 3d 6d e1 55 3d 39 56 8e 3d
       -0.06952385 0.047846504 0.052216936 0.069500394
000070 d5 24 60 3d 9b b8 1c bd 48 ed 1c bd 18 d3 34 bd
       0.054722626 -0.03826199 -0.038312227 -0.044146627
000080 d0 ec 29 3c 63 66 c7 3c 75 d6 eb 3c 7b 86 2f bd
       0.010371402 0.024340814 0.028788785 -0.04285286
000090 b4 ff 29 bd 94 c7 a3 3b af ba 1b 3c 21 70 d9 3d
       -0.041503623 0.004998157 0.009504958 0.1061709
0000a0 b2 6c 30 3c 2e 93 4f bb 40 d6 c0 bd 67 4e 07 3d
       0.0107681025 -0.003167342 -0.09415865 0.033033755
0000b0 01 a1 11 bc 40 73 f1 bc 32 e7 8e 3d 23 34 fe bc
       -0.008888484 -0.0294739 0.06977691 -0.03103072
0000c0 25 91 ed bc f5 cd f1 3b 03 81 57 3d 92 3d 93 3b
       -0.028999874 0.0073792883 0.05261327 0.0044934237
0000d0 4a aa 30 3d fe d7 96 3d fe 22 44 3c 84 91 81 3c
       0.04313115 0.07365416 0.011971233 0.015816458
0000e0 15 01 54 bd b6 54 d4 bc 82 35 96 bd c2 a0 85 3a
       -0.051758844 -0.0259193 -0.073344246 0.0010195004
0000f0 6e ad 15 bd 0c 84 e8 bc 42 b0 8f bd f3 d0 ca 3b
       -0.03654235 -0.028383277 -0.070160404 0.0061894595
000100 c4 1e 68 3d a9 eb 6d bd ed 0e 83 3d 04 a5 88 bd
       0.056669965 -0.05808607 0.06399331 -0.06672099
000110 42 3c 67 bd 9c 58 84 3d 48 ef 06 bc bb 89 7b bd
       -0.05645395 0.064622134 -0.00823576 -0.061410647
000120 ca 5e 91 3d 55 38 28 bc 7a 30 4f bd 38 ce 1e 3d
       0.07098158 -0.010267337 -0.05058334 0.038770884
000130 9b 84 d3 bd d4 de 6a 3a db ab b3 bc 7e 22 a6 bb
       -0.10328027 0.00089595956 -0.021932533 -0.0050700298
000140 15 44 61 3d dc 54 43 bd 73 2b 37 3d 93 31 0e 3c
       0.05499657 -0.04768835 0.04471917 0.008678812
000150 c9 ed 71 bd d1 36 83 3d 01 f6 94 bd 6f 06 4d 3b
       -0.05906466 0.0640694 -0.07273484 0.0031284352
000160 3c 7d 61 3d d0 65 52 bd 0d e3 a1 bd 85 bb 13 3d
       0.055051073 -0.051366627 -0.079046346 0.036067504
000170 51 94 af bb 75 52 ca 3c 0c 46 c2 3c f7 49 ad bd
       -0.005358257 0.024697522 0.023715042 -0.08461373
000180 26 9a b2 3d 36 62 54 bc e2 ac 4f bd 12 8f 86 bd
       0.08720808 -0.012962868 -0.050701983 -0.06570257
000190 bd 27 57 bd ed d0 80 bd 56 38 8b bd 69 f1 6f 3d
       -0.05252813 -0.062898494 -0.067978546 0.058579836
0001a0 60 ec d5 3c 89 4a f6 3c d8 18 c9 ba f4 f2 38 3d
       0.026113689 0.030064838 -0.0015342487 0.045153573
0001b0 e6 96 22 bd a6 20 a8 bd 1d d6 6f bc 69 75 44 bc
       -0.03969469 -0.08209352 -0.014638451 -0.011990883
0001c0 32 f2 2b bd 53 a4 0e bd 68 5e a1 3b d5 98 5c bd
       -0.041979022 -0.03482468 0.004924584 -0.05385669
0001d0 e9 a8 25 bc c6 e2 2d 3c 21 a4 98 bd b0 5b da 3d
       -0.010111072 0.010613149 -0.0745318 0.10662019
0001e0 58 bd ec 3c 1e 7e 63 3c aa 1d 9c bd d1 50 0f bc
       0.02889888 0.013885049 -0.076228455 -0.0087472955
0001f0 6f 35 3c bd 7b dd 0b bd 6e 34 24 3c 5c e5 fb 3c
       -0.045949396 -0.034146767 0.010022266 0.030749016
000200 0d 98 b8 3c 2f 97 2a bc a9 d4 ab 3d b2 84 b7 bd
       0.022533441 -0.010412022 0.08390171 -0.089608565
000210 63 60 02 bc 8f b5 b7 bd d0 78 31 3d 17 14 2c 3c
       -0.007957551 -0.089701764 0.043328106 0.010502837
000220 b8 e4 e2 3b 29 55 74 bc 78 77 62 bc 82 63 1a 3d
       0.006924238 -0.014912882 -0.013822429 0.037692554
000230 9b e5 ad bd 7e 03 1d bd 9e 53 71 bd 56 84 1f 3c
       -0.084910594 -0.03833341 -0.058917634 0.009736141
000240 3a a2 21 3d b8 37 00 bd 40 c7 a3 3c bb 5e 03 bc
       0.039461352 -0.031303138 0.01999247 -0.008018191
000250 38 a1 97 bd 8e e9 9f 3c 2b 52 87 3d 56 55 4b bd
       -0.07403797 0.019520547 0.06607469 -0.04964193
000260 4e 29 21 bd 12 80 eb 3d e4 c6 58 3d 53 ec 4d 3d
       -0.03934603 0.11499037 0.052924052 0.050274204
000270 75 a2 fa bb b6 47 05 3d 88 7d ca 3c 02 98 a8 bd
       -0.007648761 0.032539092 0.024718061 -0.08232118
000280 e8 fd a4 bd 35 ed c5 bd f3 76 e6 bd 67 6a 96 3d
       -0.08056241 -0.09664384 -0.112531565 0.073445134
000290 25 1d 82 bd 02 94 85 3c 29 19 20 3d 06 0d a0 bd
       -0.06353215 0.016305927 0.039086495 -0.07814984
0002a0 09 34 b2 3b 3d 51 85 bd ed 65 37 3d 20 d6 bb bb
       0.005438332 -0.065096356 0.04477494 -0.005732313
0002b0 6a a6 99 3d f6 57 c4 3c 0e 72 26 bc 08 62 88 bd
       0.07502444 0.023967724 -0.010159029 -0.06659323
0002c0 31 69 b3 3d ed f8 30 bd 30 c0 7e bd 55 9d 8c 3d
       0.08760298 -0.043206144 -0.062195003 0.06865946
0002d0 6f 8c e5 bc db b1 bb bb 58 64 5b 3c fb 63 48 bd
       -0.028021066 -0.005727989 0.013390623 -0.048923474
0002e0 34 6a 11 bd bb c2 e8 3c c2 c3 e2 3d cb 0e 39 3c
       -0.035501674 0.028413167 0.11072494 0.011295031
0002f0 ac 32 19 bc 1a 20 8a bc da 12 fd 3d e7 5e b2 bd
       -0.00935046 -0.01686101 0.12357111 -0.087095074
000300 bb a2 72 bd 2f 90 9f 3d 00 9d 81 bd b7 96 7f 3d
       -0.059237223 0.07791173 -0.063287735 0.062399592
000310 85 1d 04 3e ae 20 4d bc 7c 31 e7 bc e7 65 d9 3c
       0.12901886 -0.0125199985 -0.028221838 0.026537849
000320 c6 dc 76 bd e7 45 0b bd a5 8a c7 3c 27 c3 3a 3c
       -0.06026914 -0.03400221 0.024358103 0.011399067
000330 7f 14 8c 3d 59 c0 01 bd 9e e5 2c bd 21 1b 1c bd
       0.06839847 -0.031677578 -0.042211168 -0.03811181
000340 47 ef 29 bd 60 8f 37 bc 43 e6 8d bd 4d 85 dd bc
       -0.04148796 -0.011203617 -0.069286846 -0.027041102
000350 49 f8 7b bc df 42 41 3c af b7 86 3d 8a 74 03 bd
       -0.01537902 0.0117957285 0.065780036 -0.032093562
000360 8e 9a 11 3d 9f e7 bb 3c ab ca ae bc d9 47 b1 3d
       0.035547785 0.022937594 -0.021336874 0.08656282
000370 5e 9f da bd 92 ba 71 bd 12 5f a1 3d 27 95 a1 bc
       -0.10674928 -0.059015818 0.07879461 -0.019724442
000380 97 53 c3 bc 78 d5 8d bd 88 99 ab 3d 80 02 74 bd
       -0.02384357 -0.069254816 0.08378893 -0.059572697
000390 7e 5a 3c bb 70 8d 91 3d 7b 4f d1 3d 41 22 57 3c
       -0.002874046 0.07107055 0.10220238 0.013130725
0003a0 fb 12 06 bc a2 a7 ef 3c 6c b4 03 bd 3e d2 46 3d
       -0.008183236 0.029254738 -0.032154486 0.048540346
0003b0 0b bd e7 bb 1d 7b bd 3c a4 34 73 bc 26 85 af bd
       -0.007072096 0.023129994 -0.0148440935 -0.08570318
0003c0 2e fe 0d 3e dc ab 3e bb d0 9d 7e bd de 4c 13 3d
       0.13866493 -0.0029094135 -0.06216222 0.03596198
0003d0 19 f1 e7 3c ca 39 03 bd cb 83 b6 bd 8e 91 c9 3c
       0.028313207 -0.032037534 -0.08911856 0.024605539
0003e0 2f a3 60 bc 76 e8 4d 3c 8a 9d 59 3d 04 6d 4d 3d
       -0.013710781 0.01256763 0.053128757 0.050152794
0003f0 59 c6 cb bc 19 77 d4 bc 99 dc e9 3d a6 bd 2d b9
       -0.024874853 -0.025935696 0.11419029 -0.00016569215

bn3.weight f4 [16]
000000 aa 6f 7d 3f 0d 9f 6f 3f 62 97 7c 3f 45 3d 86 3f
       0.9899851 0.9360207 0.9866849 1.0487448
000010 80 ed 6d 3f be 5c 7f 3f e7 de 6c 3f 42 eb 7b 3f
       0.9294052 0.9975089 0.9252762 0.9840585
000020 47 39 81 3f 12 64 84 3f fa 86 6b 3f f7 b3 85 3f
       1.0095605 1.0343039 0.9200283 1.0445546
000030 59 b5 76 3f ed 4b 7e 3f 29 47 7e 3f a4 ef 7e 3f
       0.96370465 0.99334604 0.9932733 0.9958441

bn3.bias f4 [16]
000000 01 f1 e2 bd 76 69 c5 be db 0c dc bd 17 4a 5c 3e
       -0.11081124 -0.38557023 -0.107446395 0.21512638
000010 3e a4 8e 3e 67 64 ac 3d e3 04 ec 3e 8e ac 20 3e
       0.27859682 0.08417588 0.46097478 0.15690824
000020 17 64 e0 be 20 e5 c5 be e6 3a de 3e 5b fb 12 3f
       -0.43826362 -0.3865137 0.4340431 0.5741479
000030 3f 0d 86 be 22 ad 1b be b1 e4 c9 3d 11 a3 63 3c
       -0.2618198 -0.15202764 0.098580725 0.0138938585

bn3.running_mean f4 [16]
000000 3b ab 4a bd 85 20 e3 bc 20 13 1c bd fa db c6 3c
       -0.049479704 -0.027725467 -0.038104177 0.024274815
000010 58 c2 19 3b f5 9e d4 3c 6e 4d f7 3d b1 99 2f 3b
       0.0023461785 0.025954703 0.120753154 0.0026794488
000020 f2 ca 69 3b 95 e0 20 be c8 86 6e 3c 2e 77 30 3e
       0.0035673943 -0.15710671 0.014558502 0.17232963
000030 ee 47 9b ba cf af 25 bd 15 b3 8e 3c 4d 63 d3 3b
       -0.0011846998 -0.040450867 0.017419377 0.0064510466
