models/focal_loss_checkpoints/checkpoint_epoch_340.pth (torch, 100242 bytes, 16 tensors)

hidden1.weight f4 [128, 30]
000000 d5 11 dd 3d ee cb 24 be f8 f1 80 bd 93 7b 55 bd
       0.10794417 -0.16093418 -0.06296152 -0.052119803
000010 50 6c ce 3d e1 60 c4 bd 29 e1 9b 3c b1 02 b0 3c
       0.10079253 -0.09588791 0.019028263 0.021485658
000020 6d dc b2 3c 97 03 d5 bd 1b 23 0f be 53 37 50 3e
       0.021833623 -0.10401075 -0.13978235 0.20333605
000030 1c 31 c0 bd 8f a7 cb 3c 3d 22 68 bd 35 2f cb 3d
       -0.09384367 0.024860172 -0.056673277 0.099211134
000040 3d 9d 5a be b4 f8 49 3d 0b b1 24 3e c3 d8 7c 3e
       -0.21349044 0.049309447 0.16083162 0.24692063
000050 98 84 92 3d 6a ff 38 3d 8b 0a e9 bd da c7 e3 3c
       0.071541965 0.045165457 -0.11378964 0.027805258
000060 32 40 b4 3d a7 37 8c 3d 2b 02 ae bd f0 41 0c 3e
       0.08801307 0.06846552 -0.08496507 0.13697028
000070 24 48 de 3d 1b fa ab bd 83 7d 3b be 01 71 3c 3a
       0.108536035 -0.08397313 -0.18309598 0.000718847
000080 18 1d f1 3c 20 2b 0b 3d cd 29 cf bc de 80 29 3c
       0.029432818 0.033976674 -0.025288487 0.010345666
000090 38 3e a1 bd 5f bd d6 3a a5 4e 13 bd 27 f5 13 be
       -0.078731954 0.0016383341 -0.035963673 -0.14448987
0000a0 fe c8 86 bd 9d 50 28 be c7 b2 2f 3e 3a b2 1a 3e
       -0.06581305 -0.16437002 0.17158042 0.1510705
0000b0 97 78 94 3d b2 3d 2a bd c2 41 e9 bd bf e5 6c 3d
       0.07249563 -0.041562743 -0.113894954 0.05783629
0000c0 c2 b0 d3 3d 07 4b d5 3d 6a 48 34 be 08 3f 06 be
       0.10336448 0.10414701 -0.17605749 -0.13109982
0000d0 ff f9 dc bd 26 d5 35 3d 3d 98 51 3e 44 fc 23 be
       -0.107898705 0.044392727 0.2046823 -0.160142
0000e0 c4 49 c7 3d 5c a8 39 3c 43 1b 1a be 4c ef 34 bd
       0.097308666 0.011331644 -0.15049462 -0.044173524
0000f0 1a a0 0d 3e 0f 32 cc 3b 4a 79 1f 3d af c3 06 be
       0.13830605 0.0062315534 0.03893403 -0.13160585
000100 d9 0e 96 3b 78 59 ae 3d f1 d2 d1 3d 27 52 3f bd
       0.0045794067 0.085131586 0.10245312 -0.046709206
000110 2d ab c8 3d 83 9d e4 3d da e9 a8 3c 2d ad 08 be
       0.09798274 0.111628555 0.020619322 -0.13347311
000120 11 32 39 be dd 0a e7 3d 3d 53 0a 3e 89 03 27 3e
       -0.18085505 0.11281369 0.13508315 0.16309942
000130 9e 1d 2d be e9 f4 3c be 4c fe b2 bd b9 23 e5 bd
       -0.1690583 -0.18452801 -0.087399095 -0.11188454
000140 f7 6c 1f 3d 11 ff 19 bd 8d 50 2c be 0d ff bd bd
       0.038922276 -0.037596766 -0.16827603 -0.09277163
000150 89 b0 d6 bd 7d ef b0 bd 92 45 4e 3d 5a dd 8b bd
       -0.1048289 -0.08639429 0.050359316 -0.06829329
000160 ae 2a fc 3b 68 55 0e 3e a6 f6 83 bc d4 90 2f 3e
       0.0076955175 0.13899767 -0.016108822 0.17145091
000170 00 ef a7 bd f5 c3 b1 bc bf da aa bd 52 14 f2 3c
       -0.081998825 -0.021699885 -0.08342504 0.029550705
000180 c1 8e 37 3d 16 51 18 3d 3a b9 c3 bc 2d 7c 91 bd
       0.044813875 0.037186705 -0.023892034 -0.07103763
000190 0c 32 10 3e fd 30 32 be e8 d6 13 3d 99 a0 9f 3d
       0.14081591 -0.174015 0.036093622 0.077943034
0001a0 36 f0 59 bd d0 ea 0c 3e 6e 73 d6 bd b1 4b d5 bc
       -0.0532076 0.13761449 -0.10471235 -0.026037069
0001b0 6a 17 dc bd d5 1b 8e bc e5 eb 0f bd a3 85 1e be
       -0.107466534 -0.017347256 -0.035137076 -0.15480666
0001c0 7c f4 82 3d 22 2b 09 bc 5d 61 5b 3e 85 f8 44 3e
       0.06394288 -0.0083721 0.2142386 0.19235428
0001d0 4b 4e 16 be 03 0e 5d 3d e7 16 60 3d e0 f9 fb bd
       -0.14678304 0.05396844 0.05470934 -0.12303519
0001e0 41 70 8b 3d 32 88 4b 3c 05 7d 53 be 8d 7b f1 bd
       0.0680852 0.012422608 -0.2065316 -0.117911436
0001f0 e3 18 2c be 62 12 ee bd 38 d6 f6 3d 24 7e d2 bd
       -0.16806369 -0.116246 0.12052578 -0.10277966
000200 86 6c 4e 3c 57 23 38 3e 32 2f f4 3d 40 0d ab 3d
       0.012599116 0.17982231 0.11923064 0.083521366
000210 05 a3 63 3e 7b 56 90 bd 8f d0 b7 3d 88 ec f0 bd
       0.22230156 -0.07047745 0.08975326 -0.11763865
000220 e8 1b a8 3d ef b8 17 bd 77 b8 e8 bd 43 88 5b be
       0.08208448 -0.0370416 -0.11363309 -0.21438698
000230 fa 18 12 3c 07 e1 a1 3a 09 34 97 bd cf c8 16 3d
       0.008917088 0.0012350389 -0.07382972 0.0368126
000240 2f c1 1b 3e 0b e7 14 3e ad 3c dc 3b 2f 17 86 bd
       0.15210412 0.14541261 0.0067211003 -0.06547391
000250 ec a1 82 ba f4 b1 d5 3c 97 08 98 bd 9e fd 76 bd
       -0.0009966469 0.026085831 -0.074235134 -0.060300462
000260 56 6f 33 3e 8e 66 0d 3d 77 3e 51 3e e7 e2 3c 3d
       0.1752294 0.034521632 0.20433985 0.04611483
000270 3c e9 4b 3e 06 f5 96 3c ad a6 1c bd 8d 03 f4 3c
       0.1991319 0.018427383 -0.038244892 0.02978685
000280 f8 ef 63 3d 75 35 ba 3d 8a ef 6a bd 24 75 df 3d
       0.055648774 0.09092227 -0.05735735 0.10911015
000290 13 46 28 be ef 9a 88 3d f6 38 be 3d 66 76 b3 bd
       -0.16432981 0.06670176 0.09288208 -0.08762817
0002a0 dd ce 5f bd 8e 39 ff 3d 29 68 82 3d 30 e8 18 bd
       -0.05464064 0.124621496 0.06367523 -0.037330806
0002b0 c9 3f dd bd aa 65 42 3b 12 bb c5 3d fe db d0 bd
       -0.10803182 0.0029662647 0.096548215 -0.1019821
0002c0 c0 52 60 bd a1 6e 0f be c2 a0 90 bd cd e0 48 3d
       -0.054766417 -0.14007045 -0.07061912 0.04904251
0002d0 9d ff b6 bd 87 de 51 bd 97 07 4a 3d 8c a9 19 be
       -0.08935473 -0.05123761 0.049323644 -0.15006083
0002e0 03 0e 5d bd b6 95 25 3e 50 44 70 bd 67 d4 04 3e
       -0.05396844 0.16170391 -0.058658898 0.1297165
0002f0 cc 58 b6 bb 1e 4b 0f be 6c 0c 38 bd a8 42 3d be
       -0.0055647846 -0.13993499 -0.04493372 -0.18482459
000300 3f 92 41 3e df 50 3a 3e f7 a8 03 3e 2b 92 29 3d
       0.18903445 0.18194912 0.12857424 0.041399162
000310 8e 7e f0 3d 8a ab 71 3d d6 24 93 3c 89 68 15 3d
       0.117428884 0.059001483 0.0179619 0.036476646
000320 e7 13 5b 3d 30 05 e3 bc 84 a7 12 be 21 06 f7 3d
       0.053485777 -0.027712435 -0.14321715 0.12061716
000330 7d b9 03 3e 47 c9 f3 bd d8 2a 67 3d b1 8c a0 3d
       0.12863727 -0.11903625 0.056437343 0.07839335
000340 09 c8 5b 3b 80 b4 87 bd 2b 8e 5d bc b2 aa 88 bd
       0.0033535978 -0.066262245 -0.013522665 -0.066731825
000350 0f 2f 38 3b 8d 56 15 3e 26 d4 42 be 25 1a ee bd
       0.002810422 0.14583798 -0.1902624 -0.116260804
000360 99 d0 48 3d 52 c4 fc bc 78 18 c0 bd 7f 9b 7e bc
       0.04902706 -0.030855332 -0.09379667 -0.015540003
000370 a4 6d 99 3d 28 e4 44 be f7 35 4d bc 97 da 0d 3d
       0.074916154 -0.1922766 -0.012525073 0.03463229
000380 a8 bc a1 3d 88 e6 89 bc 3b b7 24 3e 88 a9 09 3e
       0.078973114 -0.016833559 0.16085522 0.13443577
000390 66 e9 d0 bd ca a1 20 3d 99 30 e7 3d cf 2e 64 bd
       -0.10200767 0.039216794 0.11288566 -0.055708703
0003a0 6b b3 25 3e a3 10 89 bc ca b4 30 3e 33 a5 62 bd
       0.16181724 -0.016731566 0.17256466 -0.055333328
0003b0 30 3e 2f 3e 94 c3 ef bd 06 ef a9 3d 74 81 87 bd
       0.17113566 -0.117072254 0.08297543 -0.06616488
0003c0 f7 8a e3 bd b8 f1 a9 3d 6c c9 24 be e7 2f 2e 3e
       -0.1111049 0.08298057 -0.16092461 0.17010461
0003d0 cf 5b a7 3d 41 13 2c bd 39 5b 08 3d 98 ec 08 3e
       0.08171808 -0.04201055 0.03329012 0.13371503
0003e0 f4 ad 0f 3d e0 4a 07 3d ab 62 4a 3e b8 4d e1 3d
       0.035078004 0.03303039 0.19764201 0.11001152
0003f0 60 20 a9 bc da 7a e3 3c 4f a4 73 3e 44 d2 eb bd
       -0.02064532 0.027768541 0.23793148 -0.11514714

bn1.weight f4 [128]
000000 23 19 82 3f 93 8d 7f 3f e0 fe 80 3f dd b7 80 3f
       1.0163921 0.998254 1.0077782 1.0056111
000010 4f 39 80 3f eb e0 86 3f 45 45 84 3f 82 19 80 3f
       1.0017489 1.053739 1.0333639 1.0007784
000020 84 29 83 3f 22 07 81 3f f4 db 80 3f b5 91 80 3f
       1.0247045 1.0080302 1.0067124 1.0044466
000030 9b 4f 81 3f bc d6 7f 3f b8 c6 80 3f 0f 52 82 3f
       1.0102419 0.99937034 1.0060644 1.0181292
000040 6c 3a 81 3f c2 63 81 3f e5 fa 82 3f 65 82 81 3f
       1.0095954 1.0108569 1.0232817 1.0117918
000050 af 06 83 3f d6 f8 7f 3f ec d2 81 3f d0 e7 82 3f
       1.0236415 0.9998907 1.0142493 1.0226994
000060 15 af 82 3f 3d 64 82 3f 98 35 7f 3f 9b 84 83 3f
       1.0209681 1.018684 0.9969115 1.0274843
000070 a2 24 82 3f 94 ac 80 3f 19 c0 81 3f 91 df 81 3f
       1.016743 1.0052667 1.0136749 1.0146352
000080 9e 7b 82 3f e1 71 85 3f 91 ca 81 3f 54 90 83 3f
       1.0193975 1.0425378 1.0139943 1.027842
000090 93 51 82 3f de cb 82 3f 68 3d 82 3f b3 fe 83 3f
       1.0181144 1.0218465 1.017499 1.0312103
0000a0 27 4c 81 3f 2c 68 80 3f b2 2b 81 3f 8a 8a 88 3f
       1.0101365 1.0031791 1.009146 1.0667279
0000b0 71 d1 81 3f ee 15 80 3f e3 a9 7c 3f 4a 17 83 3f
       1.0142041 1.0006692 0.98696727 1.0241482
0000c0 cb db 80 3f 18 d0 7c 3f d5 33 7f 3f 0d 09 83 3f
       1.0067075 0.98755026 0.99688464 1.0237137
0000d0 04 58 82 3f 5d fc 80 3f 19 b0 85 3f 30 4b 83 3f
       1.018311 1.0077015 1.0444366 1.025732
0000e0 b1 66 80 3f 0a e2 81 3f 41 3d 80 3f bf b7 82 3f
       1.0031339 1.0147107 1.0018693 1.0212325
0000f0 e1 17 81 3f 07 74 80 3f 85 02 82 3f 15 e4 84 3f
       1.0085412 1.0035409 1.0157019 1.0382105
000100 12 e6 83 3f bf 6a 82 3f 49 35 82 3f f9 5a 84 3f
       1.0304587 1.0188826 1.0172511 1.0340263
000110 9b 35 83 3f 34 c3 82 3f d3 01 85 3f 77 25 83 3f
       1.0250734 1.0215821 1.0391182 1.0245808
000120 f6 5d 80 3f 42 17 81 3f cc a3 7e 3f 0b a0 85 3f
       1.0028675 1.0085223 0.99468684 1.0439466
000130 97 c0 85 3f 6c e7 82 3f ec aa 81 3f 20 91 7e 3f
       1.0449399 1.0226874 1.0130286 0.99440193
000140 d9 5a 81 3f 55 22 84 3f e5 37 82 3f ab 9e 81 3f
       1.010585 1.0322977 1.0173308 1.0126547
000150 81 3d 80 3f bc 7c 84 3f 6b c1 7d 3f 18 fc 81 3f
       1.001877 1.0350566 0.9912326 1.0155058
000160 b7 51 81 3f 51 7c 82 3f 5c e8 83 3f d9 11 7b 3f
       1.0103062 1.0194188 1.0305285 0.9807411
000170 a5 a1 80 3f b0 b1 80 3f 00 6f 7f 3f 15 87 81 3f
       1.004933 1.0054226 0.9977875 1.0119349
000180 2a 31 84 3f f7 4b 82 3f 43 58 82 3f 83 19 85 3f
       1.0327504 1.0179433 1.0183185 1.039841
000190 4b de 8a 3f fb 86 7f 3f 9f 53 7b 3f 0a ca 7f 3f
       1.0849088 0.9981534 0.9817447 0.9991766
0001a0 cf 53 86 3f 16 38 88 3f be 8f 81 3f a1 18 80 3f
       1.0494326 1.0642116 1.0121992 1.0007516
0001b0 18 8c 81 3f e1 b7 7c 3f ac a1 80 3f 36 d5 82 3f
       1.0120878 0.98718077 1.0049338 1.0221317
0001c0 29 fd 82 3f 07 56 82 3f e2 81 81 3f b5 30 82 3f
       1.0233508 1.0182503 1.0117762 1.0171114
0001d0 c2 e3 82 3f 24 0a 81 3f 59 84 84 3f a9 be 7f 3f
       1.0225756 1.008122 1.0352889 0.999003
0001e0 63 7d 81 3f 6f 82 85 3f 72 f6 7a 3f 82 6a 80 3f
       1.011639 1.043043 0.98032296 1.0032504
0001f0 7c 3a 84 3f 0f 01 83 3f fd 77 7f 3f 9a 9f 82 3f
       1.0330348 1.0234698 0.9979246 1.0204957

bn1.bias f4 [128]
000000 27 3a 9d bd 48 9c 6a 3d d1 0d 13 bb ed 53 20 3d
       -0.07677107 0.057277948 -0.0022438655 0.039142538
000010 32 b9 ab 3d f0 c5 80 bd 6c fb 3c 3d 6e f5 42 3d
       0.083849326 -0.062877536 0.046138212 0.04759734
000020 a0 d0 35 3d 07 e5 c8 3d 8e 19 61 bd 6c 1e dd ba
       0.044388413 0.098093085 -0.05495601 -0.0016870028
000030 65 78 4b 3d bf 35 b3 3c d0 00 fc bd d8 44 00 bd
       0.049675364 0.021876214 -0.123048425 -0.031315655
000040 d5 9f 30 bc 12 0d a1 bc 6b e3 7f 3d c4 6a a0 3c
       -0.010780294 -0.019659553 0.062472742 0.01958216
000050 a3 5a 86 bd 79 b8 07 3d 79 b7 bf ba 2e 7c 1a 3d
       -0.06560256 0.03313491 -0.0014626823 0.037716083
000060 16 0e 41 bd 64 76 1c 3d 83 c6 92 3b b2 dd a2 bd
       -0.047132574 0.038198844 0.004479231 -0.07952441
000070 4d 42 0d 3d db 46 9a 3b eb 17 83 3d 0a 8f 8d bc
       0.034487057 0.0047081537 0.06401046 -0.01728012
000080 bd 6e b0 3d 25 b7 36 be b2 8b 9f 3c 9c 35 21 3c
       0.08614872 -0.17843302 0.019475792 0.009839442
000090 c8 bc 04 bd fe bd a3 bc 64 c1 ac bc 63 fa 13 3e
       -0.0324066 -0.019988056 -0.02108831 0.14450984
0000a0 da e5 bc bd 45 e8 7d bd 4f 94 d2 3d 90 e2 32 3d
       -0.09223528 -0.061989088 0.10282194 0.043673098
0000b0 3f 32 8b 3d dd 0c a8 3c 19 d7 8b bd 37 17 01 3c
       0.06796693 0.020513946 -0.06828136 0.00787907
0000c0 ad 89 03 3d 71 e9 1b bd e3 f6 06 3d 5d 1d bc bc
       0.03211372 -0.038064424 0.032950293 -0.02296322
0000d0 d3 16 aa 3c 44 f3 bf 3d 14 ea e0 bd 04 b6 d3 bc
       0.020762837 0.09372571 -0.10982147 -0.025843628
0000e0 c0 ff 0e bd 71 79 cc bc 9a e3 35 3c 81 e4 dc 3d
       -0.03491187 -0.024960252 0.011101628 0.10785771
0000f0 b3 21 26 bd e1 85 27 3d 04 72 35 3d 05 07 56 3d
       -0.04055948 0.04089916 0.044298187 0.052252788
000100 cf 34 ef 3b bb 8a ef 3b 09 5d d1 3c e5 7a 92 bd
       0.0072999964 0.007310239 0.025557058 -0.071523465
000110 7f ca 17 3c 31 38 57 bd 37 c1 1b 3d a2 4f 3b 3d
       0.009264587 -0.052543823 0.03802606 0.04573024
000120 ce 34 10 3e 42 1d 70 bd c6 3f 96 bd ce 67 6b 3d
       0.14082643 -0.058621652 -0.073363826 0.057472043
000130 26 df 04 3e 39 f1 76 3d ba c8 88 bd fe bb 84 bc
       0.1297575 0.06028864 -0.066789106 -0.016202923
000140 c5 f4 ec 3d e4 14 47 3d 62 f4 08 3d cb f4 10 3d
       0.115701236 0.048603907 0.033436187 0.035389703
000150 af fc d8 bd 6a 47 0c bd a3 de fc 3d 23 ed e0 bd
       -0.105950706 -0.034247793 0.12347152 -0.1098273
000160 5c dc 6f 3d 15 9f bf 3b a0 50 1c bd 35 7f 8a bd
       0.05855976 0.0058478215 -0.038162827 -0.06762544
000170 6f 7d 8c 3d 63 ab e6 bc 1f ca 44 3d c2 dd 8e 3d
       0.06859862 -0.028157895 0.04804432 0.06975891
000180 66 9c f1 3c e0 1b 80 3c 88 de a0 bc 18 cb a5 3d
       0.029493522 0.015638292 -0.019637361 0.08095378
000190 bb 40 17 3d 4f 2c df 3c 05 63 69 bd 6d 55 03 bd
       0.036926966 0.027242808 -0.056979198 -0.03206389
0001a0 db 7b 67 bd df 14 7a 3d ee 46 01 3b e5 17 0c bd
       -0.056514602 0.06105506 0.0019726115 -0.034202475
0001b0 3d ed 9d 3c d5 af 72 bd dd 00 d5 3d c8 98 9c 3d
       0.019278163 -0.059249718 0.10400555 0.07646328
0001c0 1d b1 20 3d 7f a3 94 bc ce 03 de bc 67 9d 64 3d
       0.03923141 -0.018144367 -0.027101424 0.055814173
0001d0 b6 82 6d 3d 81 37 4e 3c 96 32 3c 3d 98 be 57 bb
       0.057985984 0.012586475 0.04594668 -0.003292
0001e0 51 c4 69 3b bb 15 8b 3d b6 a7 09 be 70 88 68 bc
       0.0035669992 0.06791254 -0.13442883 -0.0141926855
0001f0 2b 60 64 3d fb ee c2 bc 57 e8 b7 bd f8 0c 50 3d
       0.055755775 -0.023795595 -0.08979862 0.050793618

bn1.running_mean f4 [128]
000000 2c 75 4b bd 3e c5 04 be ac d4 50 3e 06 76 14 be
       -0.04967229 -0.12965867 0.20393628 -0.14498147
000010 50 08 7d 3d 7b f9 ca 3d 21 ad d7 bd 89 4b 5c bd
       0.061775506 0.09910866 -0.105310686 -0.053782973
000020 c5 7f a6 3d b3 b0 6d 3e 79 62 06 3a 1a 4d 28 3e
       0.08129839 0.23211937 0.0005126368 0.16435662
000030 1f fd 59 bd 2e 17 85 3d f8 00 5b 3c 8c 4e 86 bd
       -0.05321991 0.06498562 0.01336693 -0.065579504
000040 29 50 61 3e 80 f7 87 bc 7d 58 61 3d 8d 2c bf 3c
       0.22003235 -0.01659751 0.05501603 0.023336673
000050 2b d4 e6 bd 33 12 04 be 6c 9c 19 be 73 8b 84 3d
       -0.112709366 -0.12897567 -0.15001076 0.0647191
000060 4d 45 42 bd 61 b8 b7 bd a7 d3 10 3d 68 91 cf 3d
       -0.04742937 -0.08970714 0.035358097 0.10135156
000070 43 ed d2 bd 99 21 33 3d 05 33 6b bc 63 74 19 3e
       -0.1029916 0.043733213 -0.014355426 0.14985804
000080 7b a4 16 bb 4d 33 d8 3c 6c de c8 3c 3c 10 7b bc
       -0.0022986222 0.02639165 0.024520122 -0.015323695
000090 32 d1 61 3e 8d 91 3c 3e 14 43 17 3d c6 45 14 be
       0.22052458 0.18414898 0.036929205 -0.14479741
0000a0 96 80 ed bd 34 f2 d9 bd e0 a6 ec bd 8f 94 81 bc
       -0.115967914 -0.106419 -0.115552664 -0.015817909
0000b0 30 6b 23 3e 88 8b 2a 3e ce 12 98 bb f8 b2 17 3d
       0.15958858 0.1665479 -0.0046409136 0.037035912
0000c0 f3 73 73 bd ed d4 33 3e 64 fb e8 3d 81 23 66 bb
       -0.05943675 0.17561693 0.11376074 -0.0035116377
0000d0 bd c8 a4 3d ec 1f 3e bc ff 51 0c 3e e9 df 83 bd
       0.080461 -0.01160429 0.13703154 -0.06439192
0000e0 6b bd 08 3e ba ef 98 bc 6f b9 36 bd c1 87 06 3e
       0.13353507 -0.018668998 -0.044610437 0.13137724
0000f0 3f 4f aa 3c c2 14 83 3d d3 3b 80 be ed 07 81 3d
       0.02078974 0.064004436 -0.25045642 0.0630034
000100 f1 ec b3 bd 47 ea 18 3d 95 af 09 3e ee 9e 28 3b
       -0.08785427 0.0373328 0.13445885 0.0025729495
000110 25 49 2b 3e 48 68 b3 bd 73 22 02 3c 6d b3 f2 bc
       0.16727121 -0.087601244 0.007942784 -0.029626573
000120 3d df 55 bc 92 43 00 be c0 6e 7c 3d 43 83 2f 3e
       -0.013053712 -0.12525776 0.061629057 0.17139916
000130 eb 7d c3 bd 4e 8d 43 3d 7f 1c 21 be 3b 7e 73 3e
       -0.09545501 0.04774218 -0.15733527 0.23778622
000140 b0 7e 58 3d 6a 43 fd bb 48 ff f3 3d d6 ed fa bc
       0.052855194 -0.0077289836 0.119139254 -0.030630987
000150 a0 9c 5f bd 2e f7 1e bd f2 11 b7 bd 08 04 5c 3e
       -0.05459273 -0.038809948 -0.0893897 0.21485913
000160 eb 4a 0a be 8e 74 2d 3d 2b 5d cc 3d 0a ca 55 3e
       -0.13505141 0.042347483 0.09978708 0.20877853
000170 a1 24 27 be 94 9b 4f 3c 26 57 22 bd 25 07 01 be
       -0.16322567 0.01267137 -0.039633892 -0.12600382
000180 0d f3 12 3c 67 a3 26 3d 36 6c 98 bd 99 2a f5 bd
       0.008969081 0.040683176 -0.074425146 -0.119710155
000190 b9 92 1c bc 50 04 2e be 86 2e 0b 3e a0 e7 57 3d
       -0.009556466 -0.16993833 0.13591966 0.05271113
0001a0 cb 60 17 3e 00 a6 ae bd fa e3 6f bd 66 fc f0 3d
       0.14783017 -0.08527756 -0.058567025 0.11766891
0001b0 c3 3f 14 3c ec 05 c5 3d 01 5d 9e 3d 81 88 4e bd
       0.009048405 0.0962027 0.07732583 -0.05042315
0001c0 03 f1 db bd 8b 00 f8 3c b1 fc ad 3d e3 a0 ac bd
       -0.10739329 0.030273696 0.08495463 -0.08429124
0001d0 28 08 c9 3d 9f ba e1 3d d5 c6 bc 3d 6e ae 02 be
       0.09816009 0.11021923 0.09217612 -0.12761852
0001e0 99 03 aa 3d 5a 14 b2 bd 52 00 ef 3d 43 08 94 3d
       0.083014674 -0.08695288 0.11669983 0.07228138
0001f0 a6 b3 81 bd 07 79 d4 bd a6 d3 bb bd bc 4e f9 bd
       -0.06333093 -0.10374647 -0.09171228 -0.121732205

bn1.running_var f4 [128]
000000 45 18 d8 3e 25 b5 27 3f 53 77 28 3f a0 fa 18 3f
       0.42206016 0.6551078 0.65807074 0.59757423
000010 49 74 ce 3e f1 6c f5 3e b6 ff c8 3e 7a 77 f0 3e
       0.40323094 0.47934678 0.39257592 0.46966153
000020 2a 77 37 3f f1 a5 a7 3f f0 c1 3c 3f e1 9c 34 3f
       0.71666205 1.3097516 0.73733425 0.7055188
000030 58 8e cf 3e eb 91 5d 3f 76 94 b8 3e f8 4a 9d 3e
       0.40538287 0.8655078 0.36050767 0.3072126
000040 67 3b 78 3f 77 63 02 3f da df 58 3f f8 e1 f7 3e
       0.9696564 0.5093302 0.8471657 0.48414588
000050 80 f8 fe 3e d0 fb 5e 3f 15 5a 4e 3f 5e 4b ee 3e
       0.49798965 0.87102985 0.80606204 0.46541876
000060 00 11 ec 3e d9 3c db 3e 4d 29 13 3f b9 85 06 3f
       0.4610672 0.4281986 0.57484895 0.52547795
000070 ba d5 06 3f 92 dd 00 3f 46 97 e5 3e 49 d2 30 3f
       0.5266987 0.5033809 0.44841975 0.6907087
000080 e8 bc 2b 3f 7b 19 bb 3e a2 07 49 3f ad cf 92 3e
       0.67085123 0.36542878 0.7852727 0.2867407
000090 f0 0f 7d 3f 6c 44 87 3f 34 c5 ef 3e 52 91 25 3f
       0.98852444 1.0567756 0.46830142 0.64674866
0000a0 3b 2b 3f 3f e7 ab 1c 3f f1 fd 3b 3f 36 e7 93 3e
       0.7467534 0.611998 0.7343436 0.28887337
0000b0 12 66 3b 3f 05 20 72 3f 0b 3c b5 3e 65 22 d4 3e
       0.7320262 0.9458011 0.35397372 0.4143249
0000c0 1d 8e 07 3f cb 10 7a 3f 86 bc 74 3f 1a 20 9b 3e
       0.5295122 0.97681874 0.95600164 0.3029793
0000d0 7a d6 26 3f 8a 75 19 3f 85 5a ea 3e 3d 8a f4 3e
       0.65171015 0.59944975 0.45772186 0.47761717
0000e0 46 d3 79 3f 4b ff aa 3e c1 d9 53 3f 9f 92 48 3f
       0.97588 0.33397898 0.8275414 0.78348726
0000f0 5e 6d a9 3e bf e9 31 3f 7f 54 f1 3e 80 7c 81 3f
       0.33091253 0.69497293 0.47134778 1.0116119
000100 60 f1 f6 3e 47 11 33 3f ee 80 61 3f e5 ab 13 3f
       0.4823103 0.6994824 0.88087356 0.57684165
000110 7d b6 1e 3f 68 e1 02 3f 50 3a ec 3e 6b fe e5 3e
       0.61997205 0.5112519 0.4613824 0.44920668
000120 ad fb 08 3f ea 64 4a 3f 40 1a 1a 3f e8 35 8f 3f
       0.53509027 0.7906023 0.60196304 1.1188326
000130 b1 bf c6 3e 76 33 01 3f 85 ae 46 3f cc 3f d4 3f
       0.38818124 0.5046915 0.77610046 1.6581969
000140 f8 24 cd 3e 36 27 e0 3e 47 be 1b 3f 88 17 ae 3e
       0.40067267 0.43779916 0.60837215 0.34002328
000150 0d d7 3a 3f eb 28 0e 3f 88 91 01 3f c3 f1 19 3f
       0.7298439 0.55531186 0.5061269 0.60134524
000160 a1 49 05 3f 93 fa b2 3e 15 a6 cb 3e 8a 41 6e 3f
       0.52065474 0.34956798 0.39775148 0.93068755
000170 52 a6 4f 3f 63 da 06 3f 2c 88 06 3f 8a df 40 3f
       0.8111316 0.5267698 0.5255153 0.75341094
000180 6e be 7b 3e 15 5d 13 3f e8 0f 20 3f 2f b3 03 3f
       0.24584362 0.57563907 0.6252427 0.5144529
000190 f7 a8 ba 3e b9 b7 66 3f c7 a0 20 3f 44 b1 fb 3e
       0.36457035 0.9012409 0.62745327 0.4915868
0001a0 12 8f 23 3f 69 41 b0 3e c1 2e 58 3f a7 41 b0 3f
       0.6389018 0.34424904 0.8444634 1.3770036
0001b0 9b 77 d7 3e dc 8d b1 3f f9 dc 53 3f b0 8e 11 3f
       0.4208344 1.3871417 0.8275905 0.5685835
0001c0 df 54 c5 3e 9f 4c fb 3e 53 89 f5 3e 03 45 e7 3e
       0.38541314 0.49081895 0.47956333 0.4516984
0001d0 6d e2 1e 3f 03 30 b1 3e a0 37 84 3f 29 d8 57 3f
       0.6206425 0.34606943 1.0329475 0.8431421
0001e0 d6 c5 5e 3f 97 f6 05 3f 03 13 4c 3f c4 7a 27 3f
       0.87020624 0.5232939 0.7971651 0.654217
0001f0 31 8b 0f 3f e9 cc 46 3f 90 2a 45 3f 1f 41 0e 3f
       0.56071764 0.7765642 0.7701807 0.55568117

hidden2.weight f4 [128, 128]
000000 2a 35 97 3d de 91 7c 39 6a da 88 bd f6 21 ee 3c
       0.07383187 0.00024086933 -0.06682284 0.029068928
000010 fe ea 31 3d c2 f0 85 bc 65 66 a1 3c 5c 6f d2 3c
       0.043436997 -0.016350154 0.019702146 0.025687866
000020 37 10 c5 3c 51 67 c7 bc e4 17 66 bd a0 95 7e 3d
       0.024055583 -0.024341257 -0.056175128 0.062154412
000030 c1 82 92 3c 98 1e ac 3d bd 04 7b bd b3 5a e7 bc
       0.017884614 0.08404273 -0.061283816 -0.028241491
000040 72 7f 8a bb 80 2f 89 3c 7b ec c2 bc fa 80 0b bd
       -0.0042266184 0.016746283 -0.023794403 -0.03405855
000050 62 6b 93 bc 7c ce 82 bd 89 0e c0 3b f7 04 9e bd
       -0.01799554 -0.0638704 0.0058611077 -0.07715791
000060 d2 47 f6 bc df 5d 19 3c 16 34 83 bd 24 08 c5 3c
       -0.030063543 0.0093607595 -0.06406419 0.024051733
000070 b6 da b6 3d bf cf 1f bc 7c a7 a0 3c 85 3f be bd
       0.089284346 -0.00975412 0.019611113 -0.09289459
000080 27 f1 ef 3b d5 84 c8 3c b6 e7 66 bc d8 4e b6 bb
       0.007322449 0.024477402 -0.01409333 -0.005563598
000090 aa 7f be bd 1e 83 ef 3c b3 65 05 bd b0 a2 a6 3a
       -0.09301694 0.029237326 -0.03256769 0.001271328
0000a0 90 d2 4d 3d af b7 83 3d 09 35 8d 3b ac 76 b4 3d
       0.050249636 0.06431519 0.004309301 0.08811697
0000b0 ae 5b 3a 3c 4c 51 d9 bb 2f 7d 6b 3d bc b6 b5 3d
       0.011374397 -0.006632006 0.05749243 0.088727444
0000c0 28 f3 9c 3d c3 b6 79 bd 6d 5c 20 bd 0b ea 20 3d
       0.07663566 -0.06096531 -0.039150644 0.0392857
0000d0 78 e9 3b bd 21 95 24 bc 5e 7f 33 3d e4 9a 44 3c
       -0.04587695 -0.010045321 0.04382264 0.011999819
0000e0 3f 88 89 3a cd 6e 16 3d 7d 17 da 3c d1 26 b5 bd
       0.0010492875 0.03672676 0.026622528 -0.08845294
0000f0 c8 db 7c 3d 54 e7 c7 3c a0 c1 6b 3d 6f da 6a 38
       0.061733037 0.024402298 0.057557702 5.599338e-05
000100 a2 0c 08 3b 89 91 90 3c 3b 6c 34 bc 0b b7 98 3d
       0.0020759483 0.017647522 -0.011012132 0.07456788
000110 7f c0 9c bd c7 52 34 bd 54 9c 93 bd c0 ad 56 38
       -0.07653903 -0.044024255 -0.072075516 5.1183393e-05
000120 ed 9d 65 bd 67 47 8b 3d e5 18 16 bd dd 61 81 3d
       -0.056058813 0.06800728 -0.036644835 0.06317494
000130 9e 27 d3 3d b8 0b 5c bd 07 02 4b bd 51 3c 20 bd
       0.10310291 -0.053722113 -0.04956248 -0.039120022
000140 c5 9e 20 bd a8 3c 90 3d 56 75 63 3d 2e dc 01 bc
       -0.039213914 0.07042819 0.055531822 -0.00792603
000150 28 29 90 bd 70 8a 23 3d 75 63 a9 3d 40 a2 94 3b
       -0.070391 0.039926946 0.08270923 0.0045359433
000160 6f d2 4a bc 36 aa 56 bd 63 90 b2 bd c6 81 2b 3d
       -0.012379273 -0.05240842 -0.08718946 0.04187181
000170 fd 64 56 3d 0a 3d 85 3d 87 ef b8 3d d5 d4 23 3c
       0.052342404 0.06505783 0.09030061 0.009999474
000180 94 dd 99 ba f2 5a 7e 3c 49 b1 a1 bc 98 ea af bc
       -0.0011739009 0.015524613 -0.019737856 -0.021474168
000190 98 7c ab 38 c9 a2 92 3c c1 0e 8d bd 67 43 95 bd
       8.177123e-05 0.017899888 -0.0688758 -0.072882466
0001a0 69 6c ec bd 6a 06 cb bb 56 56 53 3c 31 e6 80 3d
       -0.11544115 -0.006195833 0.012899002 0.062939055
0001b0 25 45 4d bd 25 41 a9 bc 50 d2 3c 3d ea c0 11 3d
       -0.05011477 -0.020660946 0.046099007 0.035584368
0001c0 02 f2 26 bd 80 a7 93 bd 50 a3 93 bd 3f 12 b7 bb
       -0.04075814 -0.072096825 -0.07208884 -0.005586892
0001d0 ed 4a 1d 3c 88 16 6d 3d 09 9f e9 3c 86 16 6d 3d
       0.009600383 0.057882816 0.028518217 0.05788281
0001e0 8e cf 11 bd ba 95 24 3c e3 f4 06 bd 7f 73 ab 3d
       -0.03559833 0.010045463 -0.032948386 0.083716385
0001f0 79 7f 21 bc 2c 5a 55 3d 80 55 4e 3d 45 18 0f 3c
       -0.009857052 0.052087948 0.050374508 0.008733814
000200 3f a0 e5 3c ee 6d 5b bc f4 3e b7 3c c7 aa 94 3d
       0.028030513 -0.0133929085 0.022368886 0.07259136
000210 7a 84 71 bc 82 b6 a6 3d 53 f7 54 bd ab 50 52 bc
       -0.0147410575 0.08140279 -0.05199368 -0.012836616
000220 a2 37 34 3c f1 b2 32 3c 17 44 e4 3d 94 83 be bd
       0.010999592 0.010906921 0.111457996 -0.0930244
000230 80 8c 6b bd 40 4b 14 bc e9 33 0e 3d f7 64 f4 bc
       -0.057507038 -0.009051144 0.034717474 -0.0298333
000240 ff a4 81 bb 34 61 83 bd d9 d9 b0 bd 4d a4 e3 bc
       -0.0039564366 -0.064150244 -0.08635301 -0.027788306
000250 15 ed f0 3b 64 6a a9 3d af c8 fc bc ef 16 b4 bd
       0.007352481 0.082722455 -0.030857412 -0.08793437
000260 a8 7a fa 3c 88 1d a2 3d a0 51 de 3b 13 e2 9b 3d
       0.030576065 0.07915789 0.006784633 0.076114796
000270 31 a1 11 3d a6 57 ec bb 76 1f 80 bd a1 af d6 3c
       0.035554115 -0.007212597 -0.06256001 0.026206793
000280 20 74 85 3d 0e 83 64 bd 4d 4e 82 3d 5d c0 8b 3b
       0.0651629 -0.055789046 0.06362591 0.004264875
000290 09 4f 20 bd b6 63 75 3c 3f 97 a9 bc df 01 53 bd
       -0.039137874 0.014977386 -0.020702003 -0.051515456
0002a0 c3 e1 3e 3d f4 43 a2 3d b7 fd 7d bc 8f 2d 68 bd
       0.046602022 0.07923117 -0.015502385 -0.056684073
0002b0 b3 f0 42 bd cb 1a 7a bd 51 35 90 bd 15 99 28 bd
       -0.04759283 -0.061060708 -0.07041419 -0.041161615
0002c0 4b 20 48 bd 7d 6f b9 bc c3 22 46 3d 28 a0 68 bd
       -0.048858922 -0.02263617 0.048372995 -0.056793362
0002d0 a6 25 a3 3c 7b 30 23 bc d9 f2 87 bd 7d a5 53 bd
       0.019915413 -0.009960289 -0.066381164 -0.051671494
0002e0 92 28 3c bd 42 40 97 3c e4 1e 80 3d 02 ac 72 bd
       -0.04593713 0.018463258 0.06255892 -0.05924607
0002f0 53 49 53 3a fd 7c be bd bd 48 d1 3d 44 4e 24 3d
       0.00080599374 -0.093011834 0.10218952 0.040113702
000300 06 cf 09 3d 80 e0 91 bd 66 e9 77 3c b7 ae a4 3d
       0.0336447 -0.07122898 0.01513133 0.08041137
000310 e5 1b ad bc 89 53 f3 3c e5 0e 20 3c b8 36 1d bc
       -0.021131465 0.029702919 0.009769176 -0.0095955655
000320 2c af 0a bd 47 7e 80 3c 20 45 27 3d 7e e2 ec bb
       -0.033858463 0.015685214 0.040837407 -0.0072291484
000330 bc 71 0d bd e4 11 c4 bd ef 8e 2b bd cc 10 25 bd
       -0.034532294 -0.09573725 -0.04188436 -0.040299222
000340 cd e4 84 bd b1 af a5 bd d7 1e 55 bd 14 dd ff bc
       -0.06488953 -0.08090151 -0.052031364 -0.031233348
000350 01 a0 06 3d cc 00 26 3d a1 dd 87 bd 14 71 64 3d
       0.032867435 0.040528104 -0.06634069 0.055771902
000360 6a 61 26 bc af 39 ad 3d 4e 37 3c 3d a9 ea f7 3c
       -0.010155061 0.08458268 0.04595118 0.030263262
000370 ab 73 84 3d 9c 30 6c bc 34 d9 0e 3c b8 00 91 bd
       0.064673744 -0.014415886 0.008718777 -0.07080215
000380 a5 48 75 bd 3b 91 ac 3b 79 fb 3f 3d 98 07 a4 3c
       -0.059883732 0.0052663363 0.046870682 0.020023152
000390 73 1a 9c bd 3d 0b 4c bd 3d 88 dc bc fb 7c fa 3b
       -0.07622232 -0.049815405 -0.026920432 0.0076442934
0003a0 8f 7b 8f 3c bb 86 20 3d 61 c7 ae bd 67 73 3e 3d
       0.017514972 0.03919099 -0.08534122 0.046496775
0003b0 e6 98 c4 bd 87 83 24 bd 4e e6 0f 3d a6 d3 81 bd
       -0.095994756 -0.040164497 0.035131745 -0.06339197
0003c0 75 7e 65 bd 93 b1 c9 3d 00 0a 64 bd 9c 47 41 3c
       -0.056028802 0.09848323 -0.0556736 0.011796858
0003d0 6b 77 ab bd 4e d5 d5 bd 5c 13 24 bd 33 95 ae 3d
       -0.083723865 -0.10441075 -0.040057525 0.08524551
0003e0 28 7f 66 bd c2 e0 5a 3d 4c 99 1d bc 7e b9 3a 3c
       -0.05627361 0.053437002 -0.009619068 0.011396764
0003f0 7c d7 52 3d cb fe ee 3c ea 74 98 3d 43 1e e7 3c
       0.051475033 0.02917423 0.074441746 0.028212672

bn2.weight f4 [128]
000000 ed 1c 80 3f 4b e7 7e 3f 7f 65 7f 3f 5e 25 7c 3f
       1.0008827 0.99571675 0.99764246 0.9849452
000010 6c d0 7e 3f 4e 32 7f 3f 3c 6e 7e 3f 98 33 7c 3f
       0.99536777 0.99686134 0.99386954 0.98516226
000020 0f d0 7f 3f a2 79 7d 3f a1 09 80 3f 57 c8 7e 3f
       0.9992685 0.9901372 1.0002939 0.99524444
000030 e6 9e 7f 3f 35 20 7f 3f 0c ba 7e 3f a1 49 7e 3f
       0.99851835 0.9965852 0.99502635 0.993311
000040 01 0c 7e 3f fc 8c 7d 3f f2 21 7f 3f b9 83 7e 3f
       0.99237067 0.9904325 0.9966117 0.9941974
000050 77 96 7f 3f 43 ea 7d 3f 4b 0a 7e 3f d2 f2 7f 3f
       0.99838966 0.9918558 0.99234456 0.9997989
000060 00 b4 7c 3f 06 aa 80 3f 2d d9 7e 3f 73 25 80 3f
       0.9871216 1.0051887 0.99550134 1.0011429
000070 bb b5 7e 3f fa e2 7f 3f 66 5f 7f 3f 34 cb 7d 3f
       0.9949605 0.99955714 0.9975494 0.9913819
000080 3c e2 7e 3f 2d 07 7c 3f 8b 64 7b 3f 7f 54 7e 3f
       0.99563956 0.9844845 0.9820029 0.9934768
000090 15 e7 7e 3f df 99 7f 3f bf 3f 7d 3f 34 a3 7d 3f
       0.99571353 0.99844164 0.98925394 0.99077153
0000a0 71 ad 7f 3f 86 19 7e 3f 13 86 7e 3f ce a0 7e 3f
       0.99874026 0.99257696 0.9942333 0.9946412
0000b0 e8 50 7d 3f 27 26 7f 3f 7f 01 80 3f f0 25 7c 3f
       0.9895158 0.9966759 1.0000457 0.9849539
0000c0 c6 1b 7f 3f f8 95 80 3f 93 b4 7e 3f f3 b5 7d 3f
       0.99651754 1.0045767 0.99494284 0.9910576
0000d0 35 9d 7f 3f 8b af 7f 3f 35 df 7c 3f ed 1a 7c 3f
       0.99849254 0.9987723 0.98778087 0.98478585
0000e0 05 d5 7e 3f 72 65 7a 3f 10 b8 7d 3f a5 8c 7d 3f
       0.9954379 0.97811043 0.9910898 0.9904273
0000f0 c2 ed 7e 3f 4b d8 7f 3f 0a 4f 7e 3f a5 55 7d 3f
       0.9958154 0.9993941 0.99339354 0.9895881
000100 93 74 80 3f 86 31 80 3f b6 e5 7e 3f e2 c0 7e 3f
       1.0035576 1.0015113 0.9956926 0.99513066
000110 51 33 80 3f 08 02 7d 3f df 15 80 3f 56 2c 80 3f
       1.001566 0.98831224 1.0006675 1.001353
000120 cf 28 80 3f ac 46 7e 3f 8f 9b 7e 3f 5e ef 7e 3f
       1.0012454 0.99326587 0.99456114 0.99583995
000130 05 14 80 3f 95 db 7d 3f c5 5a 7c 3f e1 29 7c 3f
       1.000611 0.9916318 0.98576003 0.985014
000140 b0 1f 7c 3f 2d 1b 7d 3f b3 05 7f 3f 80 c3 7f 3f
       0.9848585 0.9886959 0.9961807 0.99907684
000150 4d c8 7d 3f e7 a2 7f 3f 70 2d 7e 3f 35 2e 7d 3f
       0.9913376 0.99857944 0.9928808 0.9889863
000160 d8 cf 7c 3f d5 62 7d 3f d7 f5 7e 3f 35 f9 7e 3f
       0.98754644 0.9897893 0.9959387 0.9959901
000170 21 2e 7f 3f a3 db 7d 3f 5a d7 7d 3f a1 41 7d 3f
       0.9967976 0.99163264 0.99156725 0.98928267
000180 b0 09 80 3f 57 5b 7d 3f f8 5c 7e 3f 53 d8 80 3f
       1.0002956 0.989675 0.9936061 1.0066017
000190 be 07 7d 3f 55 2c 7c 3f 93 9a 7c 3f c2 81 7f 3f
       0.9883994 0.98505145 0.9867336 0.9980737
0001a0 bd d8 7f 3f 93 f6 7f 3f 76 49 7f 3f be 3c 80 3f
       0.9994009 0.9998562 0.9972147 1.0018537
0001b0 5d 30 7f 3f 8a 54 7e 3f f5 16 80 3f 01 ac 7c 3f
       0.9968317 0.99347746 1.0007006 0.9869996
0001c0 57 a4 7f 3f d2 d5 80 3f 64 a6 7f 3f 9d f8 7d 3f
       0.9986014 1.0065253 0.99863267 0.9920748
0001d0 ee 18 80 3f 85 d3 7e 3f 95 8a 7d 3f 59 b1 80 3f
       1.0007608 0.99541503 0.99039584 1.0054122
0001e0 59 b5 7d 3f bf 6f 7f 3f 3e 29 7f 3f 0a e9 79 3f
       0.9910484 0.99779886 0.99672306 0.97621214
0001f0 18 92 80 3f 88 ec 80 3f 42 2e 80 3f 86 69 7b 3f
       1.0044584 1.0072184 1.0014117 0.9820789

bn2.bias f4 [128]
000000 3b 2e 7e 3b 93 0a 48 bd cb 3b cb bc 94 9e 86 3d
       0.003878488 -0.04883821 -0.024808785 0.06573215
000010 c7 87 a8 3c f7 f8 35 3d 00 cc b2 bc 61 63 2f bd
       0.020572556 0.044426885 -0.02182579 -0.042819384
000020 78 ff c5 bc 2e c5 28 3d bc 8b 62 3c 84 ef 32 3d
       -0.024169669 0.04120367 0.013827261 0.04368545
000030 02 08 00 3d 20 7a 65 3d 9d 23 f1 3c 42 e1 b1 bc
       0.031257637 0.05602467 0.029435927 -0.021713857
000040 2b 68 3a bd 99 35 29 3d 1e 61 d5 bc 1d 49 63 bd
       -0.0455095 0.04131088 -0.026047286 -0.055489648
000050 6e ae 9b 3c e8 e9 a1 bc 69 39 ce bc 38 c8 e5 bc
       0.019004073 -0.019764856 -0.02517386 -0.028049573
000060 7e 5c 15 3d db af f5 bc b9 5b 6b bd fa 3a f7 bc
       0.03646516 -0.029991081 -0.05746052 -0.03017949
000070 c6 8d d1 bc 6b 5a 89 bc ff 38 ba 3c cf 90 49 bd
       -0.025580298 -0.016766747 0.022732256 -0.049210366
000080 7a bf 04 3d 77 2c 25 3d dd ed 45 3d b6 c1 dd bc
       0.03240917 0.040325608 0.048322547 -0.027069908
000090 9e 6e 4d 3d 5d bb 9c bc 06 71 86 3d 8b 73 27 3d
       0.05015432 -0.01913231 0.06564526 0.040881675
0000a0 85 d7 cb 3c 87 e9 1a bd f9 5e ba 3c ee 50 98 bc
       0.024883041 -0.037820365 0.022750365 -0.018593278
0000b0 7e d2 0d 3d 62 8d bc 3c 09 0e 28 bc 54 5e 04 3d
       0.03462457 0.023016635 -0.0102572525 0.03231652
0000c0 c8 18 0d bd 61 7c 09 bd d0 e3 8e 3c 5e 1e 00 bd
       -0.03444746 -0.033565883 0.017442614 -0.03127896
0000d0 21 83 97 3b db 4c e4 bc c5 7f 17 bd b2 3a 5a bd
       0.004623786 -0.027868679 -0.036987085 -0.053278632
0000e0 c4 14 12 3d cb 4e 38 3d 9f 5f 89 3d c2 37 25 3d
       0.035664335 0.044997018 0.067076914 0.040336378
0000f0 44 91 94 bc c7 8f 3b bd 7d bb 21 bd 03 f3 52 3d
       -0.018135674 -0.045791414 -0.039485443 0.051501285
000100 f0 7b 71 bd b5 a7 28 bd 42 9c bd bc ed 82 f8 bc
       -0.058956087 -0.041175563 -0.023145799 -0.030335868
000110 77 89 82 bd 7c a0 12 bd 98 5d 0b bd 7b 9c bb bc
       -0.063738756 -0.03579758 -0.034024805 -0.022901764
000120 6b ec c9 bc 65 4f b1 3c 03 4b 22 bc 2e d5 30 3d
       -0.024648866 0.021644304 -0.0099055795 0.043172054
000130 23 37 9c bc 01 9d 8b bd 22 05 65 3d 05 b4 50 bd
       -0.01906926 -0.068170555 0.0559131 -0.05095293
000140 04 7e 5d bd 82 79 29 3d 33 62 ca bc 76 1c fd bc
       -0.054075256 0.041375645 -0.024705028 -0.03089736
000150 8a d7 38 bd 63 0a 5c 39 96 61 e6 bc e7 46 56 3d
       -0.04512743 0.00020984704 -0.028122704 0.05231371
000160 c8 4e 3b bd 16 c5 47 bd ea 75 cd 3c 2d a3 3a bd
       -0.04572943 -0.04877194 0.02508064 -0.045565773
000170 19 d3 c4 3c 04 32 5b 3d ef c6 e8 3c 02 1d 41 3d
       0.02402644 0.053514495 0.028415171 0.047146805
000180 c6 01 87 bc 01 6a db 3c 66 be 11 3d 0b 27 d4 3c
       -0.016480338 0.026783945 0.03558197 0.025897523
000190 a8 19 08 3d c3 6f 6d bd 33 75 40 bd b7 a9 a1 bc
       0.033227593 -0.057967912 -0.04698677 -0.019734247
0001a0 15 a5 1e 3c 87 b9 4c 3c de f8 ad bc ac 2b f8 3c
       0.009682913 0.012495405 -0.021236833 0.030294262
0001b0 7c e9 04 bd 7a bf d1 3c 63 36 69 3b 61 00 17 bd
       -0.03244923 0.025603998 0.0035585396 -0.036865596
0001c0 ee f7 3c 3b eb 76 39 bd 8e 24 c4 bc de 14 1e 3d
       0.00288343 -0.045279425 -0.023943212 0.03859412
0001d0 24 df 04 3d d3 78 23 3d 8e 6e d6 3c 78 a7 08 bd
       0.032439366 0.03991015 0.026175763 -0.033362836
0001e0 1f bb 6e bd 77 9b 15 bd e3 99 0b 3d 70 96 80 bd
       -0.05828392 -0.036525216 0.034082305 -0.06278694
0001f0 4a 02 f2 3c c0 4c 0e 3d 62 65 7b bc fd d1 98 bd
       0.029542107 0.034741163 -0.015343996 -0.07461927

bn2.running_mean f4 [128]
000000 ed d0 a3 3d 59 a5 81 bd a9 a3 d2 bd 07 b7 dc 3d
       0.07998834 -0.06330366 -0.10285122 0.10777097
000010 09 37 08 3d 0d dd c4 3d 30 e7 cd bd d9 44 a0 bd
       0.03325561 0.096124746 -0.10053861 -0.07825632
000020 4b 29 24 bd 59 2e 65 3d 4b d7 e1 3c 5b c5 f7 3d
       -0.040078443 0.055952404 0.02756848 0.120981894
000030 ee 3f 06 3d 86 3a d6 3d a8 8a e4 3d 22 fb 92 bd
       0.03277581 0.10460381 0.11159259 -0.07176806
000040 25 9f 56 bd 22 a5 98 3d 6a 61 9b bd cf ee 9d bd
       -0.052397866 0.074533716 -0.0758694 -0.07711565
000050 d7 ff 69 3d 45 72 ca bc 7e f2 bf bd 4a ed 8c bd
       0.057128754 -0.024712691 -0.093724236 -0.06881197
000060 3d d1 7b 3d 99 59 58 bd 3d fc b6 bd f6 85 49 bd
       0.061478842 -0.052819822 -0.089348294 -0.04920002
000070 fb 04 d0 bd 78 0a 60 bd e7 94 82 3d 7e dc f6 bd
       -0.101572 -0.054697484 0.06376057 -0.12053774
000080 f9 fe ac 3d b1 de 16 3d 3f d5 22 3d 5b 8a b3 bc
       0.0844707 0.03683347 0.03975415 -0.021916559
000090 a1 87 e1 3d 20 30 ea bb 26 ec 1b 3e f5 16 4a 3d
       0.11012197 -0.00714685 0.15226802 0.0493383
0000a0 c0 d6 ac 3d ea 5a 77 bd 20 24 a0 3d 23 56 cb bd
       0.08439398 -0.060389437 0.0781939 -0.09928539
0000b0 b9 e2 af 3d 05 38 01 3e bd 75 af bd 35 94 88 3d
       0.08588166 0.12619026 -0.08567379 0.06668893
0000c0 9a 9e 0c 3c 8d ac bf bd 25 98 b9 3d 7e a3 04 bd
       0.008582735 -0.09359083 0.090622224 -0.03238248
0000d0 b5 72 d3 3c 8c 86 f6 bd f2 ac 42 bd c9 ab 5a bd
       0.025811533 -0.120373815 -0.047528215 -0.053386483
0000e0 4a 6e 17 3c 05 2e 8d 3d 23 78 53 3c 23 d5 e9 3d
       0.009242604 0.06893543 0.012907061 0.11417606
0000f0 e8 2b f4 bc 01 51 2c bd 45 e9 a0 bd 92 61 bf 3d
       -0.029806092 -0.04206944 -0.07856993 0.09344782
000100 93 a9 0b be c6 71 cb bd d4 60 d5 bd e6 7f e7 bc
       -0.13638906 -0.0993381 -0.10418859 -0.028259229
000110 01 c8 42 bd f9 d3 92 bd f3 99 9c bd 91 3a ea bd
       -0.04755402 -0.07169337 -0.07646551 -0.11436952
000120 2a 0a f8 bc 59 46 49 3d 67 75 af bd 88 e5 17 3e
       -0.030278284 0.049139354 -0.085673146 0.14833653
000130 5f 4f 27 bb 57 08 e3 bd 9b 8e 1d 3d e4 0d 5d bd
       -0.0025529487 -0.11085575 0.038466077 -0.053968325
000140 26 b1 00 be 46 79 8d 3d fc 00 af bd a9 77 b7 bd
       -0.12567577 0.06907897 -0.0854511 -0.0895837
000150 12 ad a7 bd 03 54 c8 bc 18 39 41 bd dc 3b 9b 3b
       -0.081873074 -0.024454122 -0.04717359 0.0047373604
000160 1e c1 b8 bd ee 87 65 bd c3 44 9d 3d 4d 72 95 bd
       -0.09021209 -0.056037836 0.07679131 -0.07297192
000170 d7 1a a3 3d 24 18 0c 3e b6 86 23 3d 30 fb ed 3d
       0.07964104 0.13681084 0.039923392 0.11620176
000180 df 1c f5 bd df ea 86 3d 81 5f 39 3d 99 3b a1 3c
       -0.11968397 0.06587767 0.045257095 0.019681739
000190 68 96 bd 3d 0a f1 b3 bd 90 f7 09 bd 13 52 8f bd
       0.09257203 -0.08786209 -0.03368336 -0.06998076
0001a0 d9 eb e4 3d 96 9c 31 3d 05 e2 94 bd 5b 28 9a 3d
       0.11177797 0.043362223 -0.07269672 0.075272284
0001b0 d4 52 56 bd 03 9d e1 3d e5 ed f7 3a 1f 29 43 bd
       -0.052325085 0.11016276 0.0018915503 -0.047646638
0001c0 b8 1f 4b 3c b8 be c9 bd 73 57 36 bc 88 86 eb 3d
       0.012397699 -0.0985083 -0.011129248 0.11500269
0001d0 23 40 a7 3d b4 d2 a9 3d 68 42 a6 3d a6 86 5b bd
       0.0816653 0.082921416 0.08118135 -0.053595208
0001e0 ab 61 38 bd c6 4a 2e bd 5b f9 ed 3c c9 c0 86 bd
       -0.04501502 -0.04255178 0.029049566 -0.065797396
0001f0 12 e8 b8 3d 7e d1 a6 3d 02 e2 a9 bd a4 ef e5 bd
       0.09028639 0.08145426 -0.08295061 -0.112273484

bn2.running_var f4 [128]
000000 e4 ff 94 3e 47 3c c1 3e a5 12 a7 3e cf cd ae 3e
       0.2910148 0.377413 0.32631412 0.34141394
000010 29 07 82 3e fc db d9 3e 97 fc 50 3e ce e0 a2 3e
       0.25396088 0.42550647 0.20408855 0.31812137
000020 02 34 93 3e b0 1c 95 3e 2b be 46 3e c4 8f 94 3e
       0.28750616 0.2912345 0.19408481 0.29015934
000030 f8 89 32 3e 89 57 d1 3e 67 5f 93 3e 16 a2 89 3e
       0.17435443 0.40887097 0.28783724 0.26881474
000040 83 d2 5b 3e 32 56 a9 3e c2 64 96 3e 5e 5c e2 3e
       0.21467023 0.33073574 0.29373747 0.44211096
000050 91 7d 73 3e e7 03 46 3e b7 c4 66 3e 4a d1 ae 3e
       0.23778369 0.19337426 0.22535978 0.3414405
000060 b5 57 8c 3e d3 85 b5 3e fe 02 bf 3e a2 ef a1 3e
       0.27410665 0.35453662 0.3730697 0.31628138
000070 fb 10 ab 3e 79 a3 83 3e 61 bd 70 3e 89 75 ce 3e
       0.33411393 0.25710657 0.23509742 0.40324047
000080 74 36 d9 3e 99 ba 9a 3e 9c 12 a5 3e e1 13 a2 3e
       0.42424357 0.30220488 0.3224076 0.3165579
000090 db 0a f7 3e 9e 06 5e 3e 57 45 b3 3e 70 75 cd 3e
       0.4825047 0.21682212 0.3501384 0.4012866
0000a0 45 d7 7a 3e 19 ef 90 3e cf fc 9d 3e c1 a6 89 3e
       0.24496181 0.28307417 0.3085694 0.26885036
0000b0 99 d2 96 3e 33 23 c0 3e 17 f4 a9 3e 05 e2 7b 3e
       0.29457548 0.37526855 0.33194038 0.24597938
0000c0 4c 18 be 3e f4 29 c4 3e b2 11 ae 3e 3a 37 87 3e
       0.37127912 0.38313258 0.33997875 0.26409322
0000d0 39 74 6d 3e 3c aa ae 3e 0b ae 91 3e 52 63 99 3e
       0.23188867 0.34114254 0.28453097 0.29958588
0000e0 92 d9 c4 3e 93 aa 81 3e 23 32 96 3e aa a1 92 3e
       0.38447243 0.2532545 0.29335126 0.28638965
0000f0 5c 28 88 3e 29 26 b8 3e e6 7f 99 3e 0c 0c 92 3e
       0.26593292 0.35966614 0.2998039 0.28524816
000100 2a cc e9 3e 52 53 d6 3e 7f e5 85 3e 62 02 a7 3e
       0.45663577 0.41860443 0.26151654 0.32619005
000110 fc 6f e0 3e 10 d5 85 3e 6c 6d b2 3e 96 1a b7 3e
       0.43835437 0.26139116 0.34849107 0.3576247
000120 2c e9 86 3e ad 0d 88 3e c6 ba 6a 3e e2 d6 f3 3e
       0.2634977 0.26572934 0.22922811 0.4762488
000130 b5 be 9b 3e 77 ed 03 3f 33 d2 86 3e 53 33 aa 3e
       0.30418935 0.5153422 0.26332244 0.33242282
000140 b2 bb f8 3e a3 14 7c 3e 1e 49 91 3e 18 24 95 3e
       0.485807 0.24617247 0.28376096 0.291291
000150 ce ad 9f 3e 1c 38 7c 3e c3 0c af 3e 26 f6 a5 3e
       0.3118729 0.24630779 0.34189424 0.3241436
000160 25 ef a6 3e eb 61 cf 3e ed 63 8c 3e bf e1 a0 3e
       0.32604328 0.40504393 0.27419987 0.3142223
000170 21 39 a3 3e 41 e3 e5 3e 68 24 91 3e f3 0b db 3e
       0.31879523 0.44899943 0.28348088 0.42782554
000180 7b bc a9 3e f2 fd ac 3e c0 63 b3 3e 88 97 a8 3e
       0.33151612 0.33787495 0.3503704 0.3292811
000190 6b bb 70 3e 7d 16 db 3e 6d e5 ac 3e a9 e5 a6 3e
       0.23508994 0.42790595 0.33768788 0.32597092
0001a0 7d 5d be 3e 42 fe 41 3e b3 72 5f 3e 67 fa b0 3e
       0.371807 0.18944648 0.21821098 0.34566042
0001b0 5a 85 c4 3e 60 c0 ad 3e 8e 69 34 3e 03 6f 8a 3e
       0.3838299 0.33935833 0.17618391 0.2703782
0001c0 17 11 69 3e 68 ce a7 3e 9c 2b 7c 3e c5 09 97 3e
       0.22760426 0.32774663 0.2462601 0.2949964
0001d0 6b 1b b0 3e 77 f2 84 3e 4b 64 9a 3e 53 36 93 3e
       0.34395918 0.25966236 0.30154642 0.28752384
0001e0 3c 1a c2 3e 52 f5 93 3e 7f 62 ac 3e 2a a0 d0 3e
       0.3791064 0.28898102 0.33668897 0.40747195
0001f0 ad 37 bd 3e a1 1f ad 3e 3e 73 a8 3e 53 3a d5 3e
       0.3695654 0.33813193 0.32900423 0.4164606

hidden3.weight f4 [16, 128]
000000 f4 ec cf bd eb f0 b8 bd 8d 60 03 bd 86 df 27 bd
       -0.10152617 -0.090303265 -0.0320745 -0.040984653
000010 99 d4 80 3d 6c e4 4e bd bd eb 06 bd 53 37 45 3d
       0.0629055 -0.05051081 -0.03293966 0.048148464
000020 b3 dd 9c bd 13 cd 57 3d 25 5a b3 bd ce 2a 81 bd
       -0.07659473 0.05268581 -0.08757428 -0.063069925
000030 ce ce 7b bd f6 83 e7 bc e3 26 86 3d 36 5c 9a 3c
       -0.06147652 -0.028261166 0.06550386 0.018842798
000040 e8 95 4f 3c f3 fa a1 3d 4b 62 96 bd 80 06 c9 bc
       0.012670018 0.07909193 -0.07342967 -0.024539232
000050 e1 fb 2c 3d 3e d7 e6 3c d7 d2 33 bd c6 c2 8e 3d
       0.042232398 0.028178807 -0.043902244 0.06970744
000060 e9 5d 90 bd e5 1c 39 3d 62 d3 4e 3d 66 d3 89 3d
       -0.07049162 0.04519357 0.05049456 0.06729774
000070 73 6f 68 3d cd e9 1f bd 86 fb 0d bd a9 a5 39 bd
       0.05674691 -0.03904133 -0.0346637 -0.045324
000080 7a 3b 28 3c 53 15 d3 3c d9 6d f2 3c ca 3b 36 bd
       0.010268087 0.025767004 0.029593395 -0.044490613
000090 1f 4f 25 bd 93 d8 4a 3b 53 fe 44 3c a9 c8 de 3d
       -0.04035866 0.0030951842 0.012023526 0.10878117
0000a0 9b 37 48 3c b1 eb 4f bb 63 60 bd bd 0e 1c 0e 3d
       0.012220289 -0.0031726176 -0.092469 0.034694724
0000b0 42 af b1 bb ef 93 dd bc 65 48 8e 3d 23 5e 00 bd
       -0.0054225037 -0.02704808 0.06947402 -0.031339776
0000c0 a1 ab 09 bd 66 52 de 3b e4 6f 5d 3d 95 f7 0a 3b
       -0.033610944 0.006784725 0.054061785 0.00212047
0000d0 49 60 36 3d cc a5 97 3d 8b 56 44 3c 56 83 82 3c
       0.04452542 0.0740467 0.011983524 0.015931766
0000e0 d0 f0 4a bd b4 0c c9 bc d9 df 95 bd d8 c5 88 b9
       -0.049546063 -0.02454219 -0.07318086 -0.00026087346
0000f0 70 09 1f bd 1b 7d fa bc df f8 97 bd 3e ba fb 3b
       -0.03882736 -0.030577233 -0.07420515 0.007682114
000100 73 ab 75 3d 83 03 71 bd c3 d9 7a 3d 33 c4 8d bd
       0.05997796 -0.05884124 0.06124283 -0.06922188
000110 37 6e 6a bd d0 9c 80 3d eb 82 35 bc b5 66 84 bd
       -0.057234015 0.062799096 -0.011078577 -0.06464902
000120 fa 71 90 3d 41 0f 1e bc 5f 71 5d bd 61 cd 1d 3d
       0.07052989 -0.0096471915 -0.054063197 0.038525943
000130 ab 80 dd bd 34 3f 06 b5 e2 d8 a3 bc f9 9b 01 bc
       -0.10815557 -5.001086e-07 -0.020000879 -0.007910722
000140 03 cf 59 3d a0 56 33 bd 13 97 2b 3d 92 b4 23 3c
       0.053175937 -0.043783784 0.041892122 0.009991782
000150 7c 72 74 bd 42 f2 83 3d 8e 1d 97 bd aa 97 e2 3b
       -0.059679493 0.064426914 -0.07378684 0.0069150524
000160 c4 92 60 3d bb 59 5b bd 9c 34 9f bd 2d 5f 07 3d
       0.054827467 -0.05355237 -0.07773706 0.03304975
000170 2f 5a a8 bb ed e2 d1 3c 25 af d6 3c f2 84 ad bd
       -0.005137704 0.025620902 0.026206562 -0.08472623
000180 12 98 af 3d 5c 49 4f bc b2 00 49 bd 83 7b 7c bd
       0.08573927 -0.012651768 -0.04907293 -0.061641227
000190 c7 6d 56 bd 38 ce 81 bd 35 12 8e bd e4 ed 6f 3d
       -0.052350786 -0.06338161 -0.069370665 0.05857648
0001a0 51 9a d3 3c 5d ef fa 3c d0 72 ea ba 02 6d 37 3d
       0.02583042 0.030631715 -0.0017887 0.044781692
0001b0 f2 cf 24 bd 9a 52 a0 bd b2 ac 82 bc 76 cc 6f bc
       -0.040237375 -0.07828255 -0.015951488 -0.01463615
0001c0 0e da 2b bd 81 9f 0a bd e7 d6 a8 3a d6 f0 4c bd
       -0.041956 -0.03384352 0.0012881429 -0.050034367
0001d0 f7 60 00 bc 0f 78 2e 3c fa 67 9a bd 83 fc d4 3d
       -0.007835618 0.010648741 -0.07539363 0.10399725
0001e0 15 3b dd 3c 98 91 13 3c 4f ea 93 bd e5 97 f3 bb
       0.027005712 0.00900688 -0.07222425 -0.0074338787
0001f0 5c e9 42 bd 6b 0c fb bc 4e 39 0e 3c 44 51 f6 3c
       -0.04758583 -0.03064557 0.008680655 0.030068047
000200 8a 4d ee 3c 6c 39 c8 bb 07 a2 b1 3d fd ef a9 bd
       0.029089708 -0.006110361 0.086734824 -0.08297727
000210 19 64 e4 bb 9c 6d c5 bd 5d 58 1c 3d 50 78 0a 3c
       -0.0069699404 -0.09640047 0.038170207 0.008451536
000220 80 33 a2 ba d5 68 51 bc a5 24 97 bc f4 e6 0c 3d
       -0.0012374967 -0.012781342 -0.01845009 0.03439994
000230 cb 87 ab bd c6 6a 18 bd 12 8c 7e bd 8d fd 31 3c
       -0.0837551 -0.037211202 -0.0621453 0.010863674
000240 6f 1d 1f 3d 0b d0 14 bd e1 63 d4 3c ab d3 2c b9
       0.03884643 -0.036331218 0.025926532 -0.0001648205
000250 d2 b7 ae bd 20 b5 88 3c 36 a4 8d 3d 15 51 52 bd
       -0.08531155 0.01668793 0.069160864 -0.051346857
000260 39 17 05 bd 74 01 f1 3d b9 b5 6b 3d 4c 78 45 3d
       -0.03249285 0.11767855 0.05754635 0.048210427
000270 ab 8e 20 bc 3a fe 12 3d c8 fd e5 3c f5 20 a4 bd
       -0.00979964 0.03588698 0.028075114 -0.080140986
000280 e1 0f ac bd 77 a4 bf bd 11 60 e7 bd 8c 2e 96 3d
       -0.08401466 -0.09357541 -0.1129762 0.07333097
000290 56 41 7d bd 6f 13 65 3c 4b 14 32 3d 69 57 9d bd
       -0.061829887 0.013981684 0.043476384 -0.07682688
0002a0 f0 ae 51 3c a9 8b 86 bd 67 9e 54 3d 22 2e ed 3a
       0.012798056 -0.06569607 0.051908877 0.0018095414
0002b0 c4 fa 9f 3d a5 72 fa 3c 7e 5f 00 bc 32 5d 88 bd
       0.078115016 0.030572245 -0.007835267 -0.066584006
0002c0 a6 8d 9f 3d 0c fb 2a bd b1 c1 85 bd aa 00 8a 3d
       0.07790689 -0.041743323 -0.06531084 0.06738408
0002d0 c1 c6 ed bc 0e 8f 83 b9 c6 00 88 3c 66 38 34 bd
       -0.029025437 -0.0002509285 0.016601931 -0.0439991
0002e0 5d a4 2e bd 3d 54 c9 3c 1b 7a e3 3d db 0d c8 3b
       -0.042637218 0.0245763 0.11107274 0.0061051673
0002f0 33 c3 a3 bb b2 d9 8e bc 10 3b e8 3d 07 e2 a5 bd
       -0.004997635 -0.01743779 0.1133939 -0.08099752
000300 f8 4a 57 bd 5a 2e a9 3d 5a e5 84 bd 77 e2 73 3d
       -0.05256173 0.08260794 -0.06489058 0.059542146
000310 54 d3 11 3e 7a c7 33 bc 37 54 b0 bc ff 88 20 3c
       0.14240772 -0.010972852 -0.021524532 0.009798287
000320 08 92 9c bd 37 d4 48 bd 4f 96 b3 3c e6 35 0c 3c
       -0.07645041 -0.04903051 0.021922259 0.008557772
000330 85 d0 7f 3d 10 03 d8 bc 71 36 3d bd 03 b0 38 bd
       0.06245472 -0.026368648 -0.046194497 -0.045089733
000340 91 4c 32 bd 71 e8 9e bb 02 05 7e bd 96 5b ab bc
       -0.04353005 -0.0048494865 -0.062016495 -0.020917695
000350 fd 75 87 bc b8 9a 8e 3c 69 45 95 3d 50 41 05 bd
       -0.016535753 0.01740776 0.072886296 -0.03253299
000360 7d 16 c0 3c b1 75 53 3c 64 0a c9 bc dd ab b7 3d
       0.023448223 0.012906478 -0.024541087 0.08968327
000370 d0 38 cd bd 36 b9 88 bd 94 4d ac 3d a0 53 9d bc
       -0.10020602 -0.06675951 0.08413234 -0.019204915
000380 a8 eb d1 bc e1 b7 91 bd 63 97 9a 3d ed b3 63 bd
       -0.025625065 -0.0711515 0.07548406 -0.055591512
000390 ee 9d 3f b8 32 f7 9c 3d 67 8f da 3d cb b2 49 3c
       -4.5685032e-05 0.07664336 0.10671883 0.012310694
0003a0 14 16 83 bc c2 7e 02 3d 79 e9 d8 bc 8f d8 46 3d
       -0.016001739 0.031859167 -0.026478516 0.04854637
0003b0 9a 6f a5 bb 4e 52 b2 3c 2b 3a 15 bd a5 fa b9 bd
       -0.0050487043 0.021767762 -0.036432426 -0.0908101
0003c0 eb 54 0b 3e e7 37 5c bc eb 31 8f bd 17 bf 23 3d
       0.13606612 -0.0134410625 -0.06991943 0.03997716
0003d0 2d e3 fa 3c fc 03 fe bc 9d 72 cd bd d7 fa 02 3d
       0.030625904 -0.03100776 -0.100316264 0.0319775
0003e0 da 39 f9 bb 7c cb 5e 3c ca 25 42 3d 3c b5 81 3d
       -0.0076057734 0.013598319 0.04739932 0.06333396
0003f0 ee ed c6 bc 42 dd 0e bd 8c d8 d1 3d d1 3c a4 3b
       -0.024283376 -0.034878977 0.10246381 0.0050121327

bn3.weight f4 [16]
000000 98 86 7d 3f ff 73 73 3f f4 a1 7c 3f 15 32 8a 3f
       0.990335 0.9509887 0.9868462 1.0796534
000010 fe b9 6f 3f 27 ad 80 3f dc bb 70 3f 43 c0 7d 3f
       0.93643177 1.0052842 0.9403665 0.99121493
000020 f5 0e 84 3f 39 ce 87 3f ce e5 70 3f d5 32 89 3f
       1.0317065 1.0609809 0.94100654 1.0718638
000030 74 88 79 3f c1 20 81 3f 6b 53 7e 3f 44 e5 7e 3f
       0.97473836 1.0088121 0.99346036 0.9956858

bn3.bias f4 [16]
000000 de d3 e5 bd 25 db c9 be 52 bc e2 bd 98 63 5a 3e
       -0.11222051 -0.39425007 -0.110710755 0.21327055
000010 d0 3f 91 3e 4c d1 a3 3d 82 12 ed 3e 5e 0d 1e 3e
       0.28368998 0.079989046 0.46303183 0.15434787
000020 a8 32 e5 be 7f e0 c3 be c1 46 e3 3e 2a 0c 14 3f
       -0.4476521 -0.38257214 0.44389918 0.5783106
000030 bb 0c 84 be 95 c2 14 be 68 63 c9 3d be 90 67 3c
       -0.25790963 -0.14527352 0.09833413 0.01413363

bn3.running_mean f4 [16]
000000 9d 3f 5b bd fe 86 1d bd 5a 07 ed bc cc 28 22 3d
       -0.053527463 -0.038458817 -0.02893417 0.03958969
000010 8e ef 51 3c b0 46 fb 3c 98 cb e8 3d 81 e7 34 3c
       0.012813462 0.030673355 0.113669574 0.011041523
000020 aa bc 8c 3a 4f 46 2a be 5f 23 54 3b 75 04 41 3e
       0.0010737379 -0.16628383 0.0032369716 0.18849356
000030 9d 39 e9 bb 9a db 75 bd 95 d2 b7 3c 0c 75 1c 3b
       -0.0071174637 -0.06002388 0.02243928 0.0023873476
